attack_soft_generative_decision_tree/experiments/vehicle_params_state_dict/fnn_epoch174.pth (torch, 121327 bytes, 8 tensors)

layer1.weight f8 [80, 18]
-0.29604880685337237 0.1554227372915446 -0.13239374163879133 0.12368126257904483 -0.14929425562761703 0.19418977932224477 0.015746164343395187 -0.18309530000797214
0.17392141005018924 -0.12264826236941909 0.022400180548976016 0.1017302247696024 0.09763100715624363 0.046679653026670015 0.058573258770061136 -0.129042432966966
-0.08541141299296749 -0.2533348153092849 -0.17277730108010958 -0.07048514572008079 0.35568713695789184 0.020134315943690504 -0.07005240993103692 -0.0014750084273492201
0.06986367747358031 -0.17824520192742524 -0.08477255498245719 -0.16590892183800562 -0.048181149013875206 0.21132232700104706 0.08517052740973759 -0.1389951069578472
-0.01479259833442289 -0.1558313177709218 0.18386437566989228 0.133006400031712 0.12548323527535046 -0.1889456532850169 0.15248344842348918 0.07029704473532071
-0.24280335289586236 -0.17549145451463455 0.02088296227013846 0.12685920354536356 0.2972528479459832 0.11374446788173755 0.0392054415199713 -0.04163638280868848
0.09448583236833927 0.1355003625765015 0.23667343312691372 0.32149613471061356 -0.0827218470352639 -0.15227847716332119 -0.428794659431328 0.19285137942074213
0.1661082960214955 0.2482501993557704 -0.3072938472008831 0.390675965074305 -0.06140632050296495 -0.15215020497398127 -0.07117849227913826 0.2738714102129095
0.0796175658581875 -0.1547371993816456 0.12441497302730384 -0.2911862164987269 -0.22078310505254234 -0.15407155268663536 0.03512837463933731 0.24218609406822197
0.23486680749375635 -0.06803594312549562 0.1451781142092009 -0.3070196223785886 0.3129016998550859 0.16011776954909168 -0.25902700433039755 -0.16448853377348743
0.1034514928527723 0.15278705082137295 -0.12366355251357623 0.097640099454476 0.14725540521994904 0.37702916105956275 0.085100163026483 -0.1342533886750779
-0.3716702595415489 0.05382295379136487 -0.2961878936679456 0.2537208236287663 0.26496101511931075 -0.13589699584160803 0.3795032206838563 0.16839455283693297
0.1408792260271319 0.20537305828657615 -0.21843896122756248 -0.23125599336827135 -0.15304328437428685 0.15705729266877858 -0.1774224100242464 -0.19260184578658746
-0.11944689403911173 0.09015413409841995 -0.3444243274714593 0.2984371378635851 -0.14852954894182113 0.004270515173948996 -0.02549140183934044 -0.2246395640509319
-0.25021926970708575 0.14764215197708527 0.0897397412613163 0.09443538144540192 -0.10029163951413203 0.2507844145164763 -0.021931425141858498 0.10425123109090152
-0.2875871416344109 0.21087349574555225 0.10146258445289442 0.17331900882370022 -0.11195672032739776 0.2812726282576698 0.2793504337164092 -0.09793832843502506
0.24162337393604383 -0.15129782515796875 0.09612604627940788 0.17141283663399803 -0.11018978832872316 0.2911063223177542 -0.00676303732100961 0.17058263824025352
-0.27683637240598574 0.0409867277541333 -0.1492381370262495 -0.10505873823635094 0.1024100555527978 -0.24951476070826936 -0.03868257441569185 -0.034302868134602725
0.12163529660589498 -0.25377523431131144 -0.05318314082388632 0.04439666765785504 -0.1409741531145703 -0.10661686039697665 -0.08568222204326222 -0.033546575138299936
0.2201580010508914 -0.2865684910304321 -0.0816674864992133 -0.1504100533662452 0.28229672536100575 -0.3563679807598101 0.16878174911325158 0.016875912225450655
-0.2061538250701199 -0.07507364066741949 -0.17073009889927185 0.10536335087307741 -0.08075213843075392 0.3519467846600746 -0.19352576709932764 0.3524099498427345
0.04313624274268479 -0.027056490327512762 -0.057994479416353766 -0.03854670812781304 0.22064109719725677 0.06034210173872979 -0.14498921985226365 -0.40203913585049755
-0.007634664410919795 0.11174360412632088 0.14187635265178772 -0.05250523397215473 0.02559273343107947 0.35427518911867767 0.04918198083236505 -0.048478608510148735
0.2603318292584178 -0.19047743490355387 -0.09296513580574789 0.0017279044462821763 -0.07851412873499623 0.22265578656239537 0.05357787003111156 -0.08581189966619863
0.025269318007211942 0.14862949332135902 -0.11801755600353984 -0.0462163664204911 0.06432627633144614 -0.28502527023506724 -0.0536793833029517 -0.03342956365734284
-0.0553964407541797 -0.18245534014193895 0.14608493540584183 0.1133805943096706 0.16614449650951338 -0.22815113377759053 0.172223700609939 0.36492820756438143
0.022672335413249315 -0.22726553371920322 0.04601468012117767 -0.20968557201109753 -0.17408670130139728 0.07835491440241042 0.3421438177045879 -0.2766758118388618
-0.1606559620632021 0.32457788816556526 0.29012502284161773 0.059410880126042294 -0.448033723118982 -0.12292039265632947 -0.07664602225110989 -0.04011321719666319
-0.05996077791981705 -0.004319775886495736 0.07434318185071755 -0.02128869675713072 0.17731776232968857 -0.006135154305257727 0.12819194332540496 -0.1351539587884946
0.21436108119681213 -0.20358256938865293 -0.10634723423530215 0.06370077336558728 -0.06424977364701617 -0.27163945750402446 0.23663204392330858 0.08166240349121129
-0.28641093227488534 -0.1135524361634284 -0.028021919812433762 0.314212073959726 0.18818811860856033 0.044194662880675674 -0.18466919470511683 -0.14452258389373793
-0.006626815101271313 0.01667281072512489 -0.2691112719075348 0.39109569204130884 -0.25072119624130407 -0.17179119262873271 0.1939467710336499 -0.05659636992636617
00000000: 9f1f ddb1 76f2 d2bf f669 dc6a e4e4 c33f
00000010: b34f 4433 47f2 c0bf 2cad e741 93a9 bf3f
00000020: 1d5d b3fc 121c c3bf 2308 b4ef 35db c83f
00000030: 4abd 9133 c31f 903f 44f3 cab2 aa6f c7bf
00000040: bcb0 1e88 0e43 c63f aab2 c963 e065 bfbf
00000050: 0e86 87ab 12f0 963f a371 66f4 fd0a ba3f
00000060: 91c5 cf7e 58fe b83f e4be 463e 65e6 a73f
00000070: 5fd4 ac6d 50fd ad3f 92d7 b162 7684 c0bf
00000080: bf8b 82b9 85dd b5bf d442 ac3a a336 d0bf
00000090: ecaa d00c 911d c6bf efb6 b883 500b b2bf
000000a0: a1e3 35fb 93c3 d63f 199d 0512 179e 943f
000000b0: f2e7 a869 f4ee b1bf 2809 3c3d a22a 58bf
000000c0: cd64 ed01 96e2 b13f 193e 7920 bdd0 c6bf
000000d0: f17d 3f77 a7b3 b5bf 5755 b4e8 803c c5bf
000000e0: 57ba 9816 33ab a8bf ad2a b129 9c0c cb3f
000000f0: 2dd2 ce55 bccd b53f 970f 5877 97ca c1bf
00000100: 2cbe 8df0 944b 8ebf 8664 c2d6 47f2 c3bf
00000110: 1e69 332c de88 c73f 2abf 258d 5a06 c13f
00000120: 8519 daab d50f c03f e84d ca04 5f2f c8bf
00000130: 1181 14e0 9384 c33f 57c6 24b4 fcfe b13f
00000140: 0600 0626 2e14 cfbf f414 ef04 8176 c6bf
00000150: edb2 f9df 5762 953f ca43 3621 ec3c c03f
00000160: f388 24cf 3006 d33f 092a a781 5b1e bd3f
00000170: d199 4e52 bc12 a43f 185f f92c 5d51 a5bf
00000180: 3e15 f537 3930 b83f 1a5d ee6c 1358 c13f
00000190: 855a 8ea7 504b ce3f f8d6 1786 6493 d43f
000001a0: 5b61 ae4b 422d b5bf ff8b a673 dc7d c3bf
000001b0: ae3f bd27 5f71 dbbf a3df cc9f 5aaf c83f
000001c0: 99d8 8061 0943 c53f 97b0 ba9b a9c6 cf3f
000001d0: 1d59 ffcf b3aa d3bf c4f3 54c3 d500 d93f
000001e0: 46e6 a734 a670 afbf 75b2 386d a879 c3bf
000001f0: 0d7a 84f0 c038 b2bf 4e20 8bf3 1b87 d13f
00000200: 724c 8c19 d161 b43f 6ace 68b5 6dce c3bf
00000210: 3ef5 48e0 a8d9 bf3f cc1c 3a83 cba2 d2bf
00000220: 56e1 daeb 9e42 ccbf a63a 04dc 9db8 c3bf
00000230: 56a5 79a8 58fc a13f c3d4 c834 f4ff ce3f
00000240: 9901 8d94 1d10 ce3f 6530 adb6 cd6a b1bf
00000250: e4cd 4f4a 3295 c23f e829 56a1 35a6 d3bf
00000260: bf62 efd9 9406 d43f 6264 dc33 bd7e c43f
00000270: 6950 1800 e693 d0bf 2ae3 8fd4 f50d c5bf
00000280: ae68 860a cc7b ba3f e2d9 43ad 868e c33f
00000290: dbc3 c021 6aa8 bfbf c566 ef09 f1fe b83f
000002a0: af19 cade 43d9 c23f a6e7 18eb 3e21 d83f
000002b0: 5540 15d1 1fc9 b53f 1a4a de0c 372f c1bf
000002c0: 3d1d 680e 72c9 d7bf 48b6 9da4 ae8e ab3f
000002d0: d098 3111 bef4 d2bf dd2e f343 f63c d03f
000002e0: f1c0 a90b 1ff5 d03f 5ed6 61a0 1265 c1bf
000002f0: d915 64e0 c749 d83f 852c a1e4 f38d c53f
00000300: 1975 3c9a 5408 c23f 1c01 6914 aa49 ca3f
00000310: 0582 52d1 cef5 cbbf e6a6 42e0 cb99 cdbf
00000320: 5947 a11e ec96 c3bf 912b ce0f 741a c43f
00000330: 9cd9 500c c7b5 c6bf 88bc 6662 2da7 c8bf
00000340: 2bbb 8157 1294 bebf 1d4a 8d61 5714 b73f
00000350: 17f3 9b55 0c0b d6bf dd4c c214 9819 d33f
00000360: aced 9829 0403 c3bf bf9c 25b0 f57d 713f
00000370: 4ca9 ea04 6b1a 9abf fd43 7e3e fdc0 ccbf
00000380: d423 0eaf 9703 d0bf 9b56 2023 f0e5 c23f
00000390: 4d6d de05 2ff9 b63f 6cae e4ca ea2c b83f
000003a0: d281 c67f b6ac b9bf 2b77 ac12 da0c d03f
000003b0: 77b0 f406 3175 96bf b968 1a6c 35b0 ba3f
000003c0: 7c79 04e6 d367 d2bf f800 e917 e7fd ca3f
000003d0: 6d29 feb1 73f9 b93f 8022 5639 512f c63f
000003e0: b6a3 5f14 32a9 bcbf 271b e8e8 5e00 d23f
000003f0: 7cdd 3ba4 e0e0 d13f 4241 a77d 7c12 b9bf
00000400: 0893 80c4 83ed ce3f 1434 8125 ba5d c3bf
00000410: c657 1071 b79b b83f 0a93 ba17 dbf0 c53f
00000420: 779b 39e1 6535 bcbf a5de 8069 7ca1 d23f
00000430: a387 d801 8fb3 7bbf cfee 40e2 a6d5 c53f
00000440: 55ed 74e7 afb7 d1bf 5651 8c5e 36fc a43f
00000450: a2fe eb3a 3c1a c3bf c957 e224 21e5 babf
00000460: bf7c 619f 8b37 ba3f 833e 8e84 19f0 cfbf
00000470: 2aba 14d0 33ce a3bf 0320 9841 2590 a1bf
00000480: 062a f6a4 7d23 bf3f 6ab7 f97a da3d d0bf
00000490: e105 1315 d23a abbf f7a2 48f7 28bb a63f
000004a0: 10ac 9ae8 700b c2bf 4472 9b18 3e4b bbbf
000004b0: 7d40 8625 45ef b5bf 7e3e 3946 042d a1bf
000004c0: 1eb0 3b2b 232e cc3f ad8b 425e 2357 d2bf
000004d0: e01f a90f 29e8 b4bf 324c 19fa a240 c3bf
000004e0: e360 cc48 2611 d23f c31d ada5 bbce d6bf
000004f0: 2332 4dee a39a c53f 31d7 644c eb47 913f
00000500: 538c 4fa0 3f63 cabf 0f4e 75af 0638 b3bf
00000510: 458c 9bdf 7bda c5bf 2464 32b2 17f9 ba3f
00000520: 2164 a411 2cac b4bf 3108 83ce 4b86 d63f
00000530: 8bfd 4fcc 73c5 c8bf c902 5776 e28d d63f
00000540: cf4c b41f f415 a63f faa2 6754 b2b4 9bbf
00000550: 9731 e2d0 73b1 adbf 4209 8ee5 64bc a3bf
00000560: b8d1 4eac f73d cc3f 015a 14f3 28e5 ae3f
00000570: 0cde c4ba 018f c2bf c428 0c5b 02bb d9bf
00000580: 2d95 5f9f 8645 7fbf ef7c 4295 3a9b bc3f
00000590: 628b 5b1b 0129 c23f 98f7 8e4d f7e1 aabf
000005a0: 7c2c 6844 fb34 9a3f c321 c3d7 71ac d63f
000005b0: c47b 746e 612e a93f 409e 362c 30d2 a8bf
000005c0: e874 31d5 46a9 d03f a9b3 c488 9061 c8bf
000005d0: dc31 f429 90cc b7bf eee0 9745 5b4f 5c3f
000005e0: 83d4 307f 8019 b4bf 847b c61c fc7f cc3f
000005f0: 5c5b 25ff 8e6e ab3f 6988 acc6 c4f7 b5bf
00000600: 9198 bb39 33e0 993f 11a5 848e 4a06 c33f
00000610: eb98 6307 6636 bebf c1c5 a1ec aba9 a7bf
00000620: 06f5 1dd5 af77 b03f ff5c 8ca1 da3d d2bf
00000630: 6ae1 8237 dd7b abbf f073 4105 ae1d a1bf
00000640: ef3f b51a ec5c acbf 8bf1 7153 b25a c7bf
00000650: 82d0 0042 e9b2 c23f dea2 8fb8 8206 bd3f
00000660: 7999 750d 3944 c53f 875e 0f6d 0e34 cdbf
00000670: c99e db1c 6d0b c63f 6d1f 38d7 fb5a d73f
00000680: 21d2 7eac 6a37 973f c47d 6a79 0917 cdbf
00000690: 8a41 8374 3c8f a73f 2188 1d11 fad6 cabf
000006a0: dd06 6118 7948 c6bf ebd7 d652 110f b43f
000006b0: 7477 e42e afe5 d53f 5e4c dc76 0eb5 d1bf
000006c0: ec03 7ce3 5f90 c4bf 1941 ab55 e2c5 d43f
000006d0: b9c8 368b 6891 d23f a9fa 5556 1a6b ae3f
000006e0: fd45 13a3 95ac dcbf 076d 78fa b577 bfbf
000006f0: 94df efde 129f b3bf 8478 fe37 b889 a4bf
00000700: a4aa 6ad8 2db3 aebf 406a 8902 9db1 71bf
00000710: c9ba ba9e 2708 b33f 59a6 6241 b4cc 95bf
00000720: 5d5b 1a33 59b2 c63f 324b 8df1 2c21 79bf
00000730: 0cbe 18f6 9768 c03f 3df4 7594 b94c c1bf
00000740: de43 a314 2f70 cb3f 4cab c75e fe0e cabf
00000750: 5a88 0f85 9239 bbbf 75c9 55a2 b14e b03f
00000760: ccde 9654 ac72 b0bf 211c 9276 8a62 d1bf
00000770: 1b0a eb74 f549 ce3f e4b8 4ec8 d3e7 b43f
00000780: a899 d584 8e54 d2bf 43fb b3bf c511 bdbf
00000790: a782 a934 c7b1 9cbf 3395 6af5 0c1c d43f
000007a0: 58b3 755b 8c16 c83f f5e2 75cf aea0 a63f
000007b0: 2e27 eb7b 3da3 c7bf dbb2 ad4d b77f c2bf
000007c0: a982 2f22 b824 7bbf d1ee 2f63 ad12 913f
000007d0: 18fb f47b 1e39 d1bf 5321 bb39 b607 d93f
000007e0: 384e 91ea d00b d0bf 2e66 0af9 40fd c5bf
000007f0: c58d 606f 3fd3 c83f 2ee7 cf0b 33fa acbf

layer1.bias f8 [80]
-0.0989859419653248 -0.1546207070263494 -0.12702175187445103 0.04835302472846691 0.00966764054105806 -0.03793764141040324 0.0015521728224107845 0.003392471187787735
0.029578281787536576 0.056432491202127885 0.044402080985095495 -0.02226056624198279 -0.012888600883375534 0.054394263935904644 0.015605196687237774 -0.02425890578839622
-0.031106096587953894 0.07801381813847325 -0.15000702912745628 -0.005424552079155241 0.12696112006653235 -0.04603330415462515 0.10024331129753618 -0.14264261038403803
-0.08173664504948297 -0.11750869040260338 0.12461157357945168 0.14948005617072888 0.011889842290243645 0.02160120186684803 0.04013026741614097 0.015155084157269504
-0.012004738199776861 -0.07767824639997947 -0.013737796974749871 0.12595691698648429 -0.07201890798328053 0.0733744056928292 0.01106214672683965 0.006410237283686258
0.0836219161040986 0.02028184805286349 -0.002804450836377617 0.05436135147662734 0.02078217160099065 -0.11166053030085105 0.1041944306729236 0.06110206902086067
-0.044106030754233486 -0.019271534188558356 -0.05391089974760937 -0.022125605109943658 -0.045548360522054035 0.018868877414669274 -0.07497813318038549 0.0548977510868267
0.06613863153909133 -0.11969567223675227 -0.050218242420342826 -0.240958054561705 0.08524732637588217 0.05810087202567147 0.013670848141641816 -0.07968239472601642
0.03624495887237698 0.01177692431572221 -0.022321814818179922 -0.0025492243632876965 0.07069655015144256 0.040783199882228026 0.06752400127809245 -0.024643653521047304
-0.07433273166118445 0.04863397287128308 0.03260583494184148 -0.11004895926369673 -0.03639250469907246 0.0879485916172814 -0.03163093432404567 -0.03219988314103026
00000000: 253c 8187 2457 b9bf 6e35 fb7f 9cca c3bf
00000010: ea37 17af 3f42 c0bf ff2d be47 bac1 a83f
00000020: 7d6a a0bf a0cc 833f f144 4a02 906c a3bf
00000030: 48bf a3e0 486e 593f fac3 bb19 87ca 6b3f
00000040: 5020 cce3 c449 9e3f 7e36 4a30 b8e4 ac3f
00000050: d520 699b debb a63f 7cc0 ff4f 79cb 96bf
00000060: 8d48 48ba 5665 8abf 12b0 63a1 90d9 ab3f
00000070: abcb 5a0b 9ef5 8f3f 4cdb fd9b 53d7 98bf
00000080: f4b6 34ce 46da 9fbf 1c74 8aad b6f8 b33f
00000090: bae2 222a 6e33 c3bf 651f 681c 0e38 76bf
000000a0: ff4e 4611 4340 c03f 51eb bd5f ad91 a7bf
000000b0: 0969 aaaf 8ba9 b93f 24c9 4ef1 1c42 c2bf
000000c0: 604e 5f59 b1ec b4bf 7964 46ae 0c15 bebf
000000d0: 5c12 3a49 8be6 bf3f bb29 5498 2922 c33f
000000e0: 9f5d 549e b359 883f ea24 4a1e a01e 963f
000000f0: 5b9d 4354 f48b a43f b9bb 96f6 a009 8f3f
00000100: b77d b8af f095 88bf d206 e6b7 b8e2 b3bf
00000110: 861b cee5 8f22 8cbf 59ba 9433 5b1f c03f
00000120: c458 7bc6 d46f b2bf 536b d040 aac8 b23f
00000130: 6698 5233 c0a7 863f e475 e3f7 9e41 7a3f
00000140: 955d e5f2 3e68 b53f 42a3 5bc8 c3c4 943f
00000150: 39f2 0314 5cf9 66bf ee56 8445 40d5 ab3f
00000160: cde6 76ed eb47 953f 8c6b e5d5 c895 bcbf
00000170: 3b61 2a78 7cac ba3f 4e37 5338 c548 af3f
00000180: b2a6 4acf 1095 a6bf 4c9c 55c4 eabb 93bf
00000190: b7b9 a09e 359a abbf 40da 6739 18a8 96bf
000001a0: 7243 a85d 1d52 a7bf 0709 a2ed 5c52 933f
000001b0: 78c5 ec55 c431 b3bf df6f 15db 8e1b ac3f
000001c0: 646c 761b 76ee b03f 29c6 ba25 60a4 bebf
000001d0: 2648 b799 34b6 a9bf 7270 06aa b6d7 cebf
000001e0: 2019 dbce c4d2 b53f 5d4d 70c2 65bf ad3f
000001f0: 5c5c 6a2d 76ff 8b3f c54a 6abf 1066 b4bf
00000200: fde1 0002 b38e a23f 8a98 4406 801e 883f
00000210: 149b 86a2 87db 96bf 85d4 a768 1ce2 64bf
00000220: 0529 d74a 2b19 b23f 53d8 701b 89e1 a43f
00000230: 6139 2fc1 4049 b13f 1019 b597 2f3c 99bf
00000240: 56d3 814b 7807 b3bf 29d6 e955 8de6 a83f
00000250: a6cc 7745 b6b1 a03f f814 ff28 2b2c bcbf
00000260: b80b 01d3 09a2 a2bf 47b9 b984 cc83 b63f
00000270: 176a ed08 ee31 a0bf ad2e 0dca 807c a0bf

layer2.weight f8 [80, 80]
-0.06939646267846822 -0.0839941084281447 0.17155630809623518 -0.2012613381282635 0.00039287990847978506 0.05751739956191475 -0.26529455327370216 -0.021499242802522252
0.11823042871856027 -0.252930054126129 0.025622827405728146 0.01288730132963499 -0.15712859329587336 -0.14863224266534597 -0.030245733143721924 0.08435803439399206
0.10825060514979686 0.1513567396831103 -0.008769149586697776 0.010527715384765686 0.11724620093985508 -0.17425495577467187 -0.07370947162822156 0.14012931800428663
0.1277316320029163 -0.14043286389506876 0.21065296837136832 -0.0884836811869949 0.12930706969429104 -0.012052535276073853 0.22334313644374923 -0.12660996040419395
-0.006348638703802412 0.21605711649719506 -0.12470173244739621 -0.17508997187645725 0.0968548238948188 -0.2525360045111612 -0.17776438517271775 0.07285556935477157
-0.1737225228728953 -0.01192324937802938 0.08023431704327379 0.24747578903428377 0.013796313347584594 0.056295263795852986 -0.40900313077725625 0.004181860334268656
-0.26419625196063123 -0.241640577990504 -0.03147509972997419 -0.10854307342080337 0.16555690054829134 0.10398284762224669 0.08466867870148496 0.04671793312152186
0.2849963911870222 0.18671123930848565 -0.32140271281692734 0.011037614716645328 0.3460833916659873 0.16461862454674286 0.04719119475517637 -0.14813671350205665
0.13895398179149426 0.10961459478223182 -0.24628041043155674 -0.21446896143683752 0.0867168098354261 0.10635823944952487 -0.002015512745339834 -0.24649547009294626
0.13006099712822425 0.07734728259712323 0.28586070580018924 -0.11334013648158434 -0.027453920151331357 -0.07003770908820747 -0.012171277962285912 -0.08855256046253228
0.0004544784058305103 0.026147693604676878 -0.12804766920292918 0.1400717356148576 0.005180241851260706 -0.113433704531052 0.4129144649013646 0.12775696138090065
-0.6746208171690308 0.21520061483917924 0.16263128772227095 0.13542952656462323 0.07510845311992673 0.11271916001891258 0.3079545766515686 0.05034418604326438
-0.11294139707492971 0.029492963402026395 0.15222842597265646 0.08059359906463961 0.19974197008598724 -0.09082153166553557 0.033097206450655885 0.10720205909829207
-0.06426897917119907 0.12443799297328889 0.1695213300684058 -0.07699968640046105 -0.355351400383511 0.20126974938409922 0.1941859749982208 -0.18510348014635053
0.05936298355927545 0.14795299104529583 -0.2190183830608551 -0.07430096814843513 -0.027100649950313905 -0.1253462821680771 0.14055347206431032 0.1792650354449608
-0.3512661398845363 -0.15586852364043968 -0.10996612727922082 0.1332121287575836 -0.0626082335144253 0.06385774364796531 -0.20060831799234713 -0.1863716251652894
0.11788310297687923 -0.2194713403582125 -0.0003375889167372059 -0.1381143845452553 -0.12144451623402372 0.11855780994578752 0.10045654738735586 -0.058287879630901526
-0.28145148736515546 -0.17521573738715732 -0.11882581915684992 -0.13974939346935086 0.04705529614712217 0.05160469012254256 0.0030525879507883272 0.08295897224158563
-0.24094882236147655 0.20657746007301622 0.10777702588019296 0.2536068957064417 -0.09188881357627385 -0.02149197680324622 0.24314543929245652 -0.4543878985480408
-0.26526554045389905 0.04305670609357831 -0.04993656477496096 -0.036372972317351975 0.14378990194821478 -0.13739372136425804 0.060021264149601385 -0.04152473156881828
-0.04303775480067937 0.006360730201744585 -0.04994302813400702 0.249379958947118 0.18560817612539243 0.06516158138262312 0.23147674879446586 -0.05643775260287902
0.2286251454807029 0.11261399393606557 -0.14771950281211532 0.2450864151130137 0.22925910330465046 0.08743807263318025 -0.02791683095771426 0.13281918259154882
0.16330544924968896 -0.053472104180154974 0.12001160186570525 0.019719696711333175 -0.08751262378634776 -0.16971360942790087 0.06428639892953633 -0.10333737263418458
-0.11336040790366204 0.12201084774823362 0.10066360562575227 0.15352941273660645 -0.11193195881082939 0.12618119971030167 0.022590454175423606 0.1534404344480423
-0.21726586541771903 0.205219653266668 0.033897308786400314 -0.015646666184769367 -0.023017458856613875 0.07999545075100477 -0.042390267684810794 -0.05558112267284696
0.1485341214252315 -0.09936079982981895 -0.15957177127691768 -0.12589064780509732 0.06583406495715005 -0.17995692982842026 0.07839363703821674 -0.2014226634319529
0.04954558721219613 0.10275646893009728 -0.02024845648808895 -0.03042504762987646 0.07698665980285602 -0.008705898891226848 -0.18148905052477904 0.10245592172789604
0.14577842998504073 0.12120852978513462 -0.21108378647158188 0.12320445154042252 -0.21537259880352136 0.22395943776083807 0.2711007749537064 0.09231719979710759
0.0983144652030666 -0.022456171349680504 0.02750920534857638 0.1853538234844372 -0.19272287062724058 0.21200464830847957 -0.1674249015921598 -0.05490925516361069
0.07671175638951558 0.09162760606948507 -0.11957296194182142 -0.18101912618849986 0.25374577409574794 -0.04353989592392427 -0.0350612861739998 0.018054578324617886
0.0436388292633264 -0.08614783852976934 -0.13090465552871833 0.2500378721776948 0.19709874395335794 0.21835345913051518 0.2251173713354046 0.24063768206737937
0.03595610606443325 -0.23152092048913653 -0.010409718849015932 0.061975187369849125 -0.018187633979702376 0.2128324156165961 0.23550739224713044 -0.1291069163188968
00000000: c07f a971 f7c3 b1bf 586c c14c a380 b5bf
00000010: f610 599e 8ef5 c53f 37e4 9a78 eec2 c9bf
00000020: a26e b15b 6ebf 393f e686 23ac eb72 ad3f
00000030: cd84 8701 96fa d0bf c202 e7c2 e503 96bf
00000040: a0ff bc70 5944 be3f 486c a989 0130 d0bf
00000050: f461 f4d6 de3c 9a3f b8b1 f44d a864 8a3f
00000060: 0c73 bc2c ca1c c4bf 6a7c b09e 6106 c3bf
00000070: 6187 c8ca bcf8 9ebf a285 e0f6 7c98 b53f
00000080: 7dfd e3c8 4fb6 bb3f 26ec 7b5b a85f c33f
00000090: 1f40 8255 8ff5 81bf b1ba 3b0a 8e8f 853f
000000a0: 9aee 9dd6 d803 be3f 14ec 1b84 fc4d c6bf
000000b0: 6c74 0cba 9fde b2bf 5804 05eb c1ef c13f
000000c0: 7901 0f97 8259 c03f 9a41 db3e b4f9 c1bf
000000d0: baec fa2c adf6 ca3f 8086 edd4 dda6 b6bf
000000e0: df41 bd51 228d c03f fbc9 c1e6 ffae 88bf
000000f0: 97ee 6705 8296 cc3f c955 a453 c134 c0bf
00000100: 7412 b6b9 0701 7abf bc35 b674 c2a7 cb3f
00000110: 4eb9 9de6 73ec bfbf 9c91 8823 5969 c6bf
00000120: cf8c 164d 7acb b83f 4e07 1cc6 8c29 d0bf
00000130: 68ed 5abe fbc0 c6bf e9cf b59f a9a6 b23f
00000140: 4eaa 2825 8a3c c6bf 4f21 2071 376b 88bf
00000150: e1be b777 3c8a b43f 1f1e 3a62 49ad cf3f
00000160: 4ae2 10d5 3d41 8c3f e983 d899 bbd2 ac3f
00000170: 6698 a977 1b2d dabf c737 f495 ff20 713f
00000180: 5263 7965 97e8 d0bf 4989 ed15 14ee cebf
00000190: 1f08 f517 811d a0bf a7b7 8c96 7ac9 bbbf
000001a0: 59b3 bdf0 f730 c53f 94eb e1b1 9e9e ba3f
000001b0: 7fb6 04b6 d8ac b53f b38c c9b5 69eb a73f
000001c0: 0515 e880 613d d23f dc12 5065 27e6 c73f
000001d0: 923d 19af dc91 d4bf 80e7 de91 e39a 863f
000001e0: 273a 39f4 3a26 d63f 56d1 5e1c 3912 c53f
000001f0: 9aea 43bc 7129 a83f 4204 ead1 24f6 c2bf
00000200: e2c2 b87b 3ec9 c13f b204 c1bb b30f bc3f
00000210: 9e78 39d2 1d86 cfbf 366c b00b b873 cbbf
00000220: f2b0 41a6 1233 b63f 6389 1828 4b3a bb3f
00000230: ecd1 6d2a d682 60bf 20a7 54df 298d cfbf
00000240: cf4f 93b8 d6a5 c03f ca69 3011 08cd b33f
00000250: fde3 a7b3 8a4b d23f 8638 83f3 db03 bdbf
00000260: d0b0 c964 e11c 9cbf e646 05c6 fded b1bf
00000270: c86a 6346 41ed 88bf 3be4 296f 61ab b6bf
00000280: 92a3 c8e3 e1c8 3d3f 2c77 9703 76c6 9a3f
00000290: 231e c7b3 dd63 c0bf 9ba6 c7e1 deed c13f
000002a0: c472 6295 e037 753f 4c99 39c3 fd09 bdbf
000002b0: 25fd b2ca 306d da3f 98d0 7b11 575a c03f
000002c0: 1523 5e65 7e96 e5bf 6a1c 6899 b18b cb3f
000002d0: 1b69 091f 1ad1 c43f 3f00 c135 c155 c13f
000002e0: c6a0 cdbd 4e3a b33f 20f0 e9b1 29db bc3f
000002f0: 0dcf d71c 87b5 d33f 8cf9 3291 b6c6 a93f
00000300: cb26 cd36 bae9 bcbf 7066 1845 6733 9e3f
00000310: a67c 8997 387c c33f 62e3 3f38 c8a1 b43f
00000320: e736 9416 2591 c93f bbae 4674 1440 b7bf
00000330: 47cc 96f6 1df2 a03f 211a e419 9871 bb3f
00000340: e506 b08b ee73 b0bf 443d 3316 2bdb bf3f
00000350: fa21 4ffc dfb2 c53f 9769 e45e 40b6 b3bf
00000360: f009 cfcc 13be d6bf 73b0 a307 35c3 c93f
00000370: 1dc8 fa05 16db c83f b25b cd88 78b1 c7bf
00000380: 3acc f531 d364 ae3f 4545 f1a4 1ff0 c23f
00000390: dd0d 3c5c cb08 ccbf f937 4264 6305 b3bf
000003a0: fda0 f2d4 45c0 9bbf 6925 4bd3 580b c0bf
000003b0: cb7f edfa a7fd c13f a2b4 461c 28f2 c63f
000003c0: 79c2 bff9 247b d6bf 8c78 c1f1 7ff3 c3bf
000003d0: b7ff 5478 bd26 bcbf e0e0 3854 180d c13f
000003e0: 2ca0 67db 1707 b0bf 147a 9028 fb58 b03f
000003f0: e495 8a8a 88ad c9bf 795f 7e81 06db c7bf
00000400: f264 0948 962d be3f 29b8 9f0a a317 ccbf
00000410: 7061 5c5b cd1f 36bf 2951 5d6e bbad c1bf
00000420: b6f0 80e1 fc16 bfbf ec0c 67fc cd59 be3f
00000430: e7a0 b231 85b7 b93f 0e2b 89b1 e8d7 adbf
00000440: a835 6919 4d03 d2bf 4343 e922 786d c6bf
00000450: f4f6 326f 5e6b bebf eb18 4be1 4ee3 c1bf
00000460: 7868 1cbc a117 a83f 9306 cb10 ee6b aa3f
00000470: f46b 56ad bd01 693f 46f8 af98 cc3c b53f
00000480: 4db0 0638 69d7 cebf 5b5b 8d55 2171 ca3f
00000490: 1563 6a71 4697 bb3f 1c5a c66a 183b d03f
000004a0: 7ea7 2d79 0686 b7bf c13e fc25 fe01 96bf
000004b0: 3661 f7c6 631f cf3f 6d91 fdfa b014 ddbf
000004c0: 3456 4051 1cfa d0bf 083f 1751 870b a63f
000004d0: 9a84 2a11 4991 a9bf f767 1f6d 7a9f a2bf
000004e0: a26a 2e1f b567 c23f 72b5 f711 1e96 c1bf
000004f0: 5d9a 2c6d 1bbb ae3f bc62 20c8 ba42 a5bf
00000500: 4c70 b96a 0b09 a6bf 2c6d 1f83 b50d 7a3f
00000510: 875e fff0 2192 a9bf 3254 fab7 aeeb cf3f
00000520: 1615 2a3b 02c2 c73f 5c77 feec 6dae b03f
00000530: 53a6 edb4 07a1 cd3f 46d2 60bb 68e5 acbf
00000540: 9801 71b9 9643 cd3f 0300 074d 45d4 bc3f
00000550: ec9a c700 79e8 c2bf da58 cddc fd5e cf3f
00000560: 2f7b 80bf 5c58 cd3f 0f81 626e 5762 b63f
00000570: c4a7 e2cf 3a96 9cbf 498e c10e 3800 c13f
00000580: b59b e465 31e7 c43f c975 6715 b260 abbf
00000590: e85d 2791 14b9 be3f d24e d971 6631 943f
000005a0: a346 2631 3a67 b6bf e2e7 16f1 2cb9 c5bf
000005b0: 2edf facc 1275 b03f 7c1b eb6b 5174 babf
000005c0: bd81 9b0c 3005 bdbf 74fd d558 1a3c bf3f
000005d0: 485f 0f0e 17c5 b93f 7fc2 560f daa6 c33f
000005e0: 4f40 78a6 92a7 bcbf e619 109f b426 c03f
000005f0: 017a 8ab7 f321 973f d34f eba7 efa3 c33f
00000600: 7ecc 402d 5ecf cbbf 236e a339 a344 ca3f
00000610: e3eb 51f1 fc5a a13f 7755 38fe ad05 90bf
00000620: 7ecf 1a84 e391 97bf 7fe9 cdf4 947a b43f
00000630: 2ff9 bf5a 2db4 a5bf 6d47 4f00 2175 acbf
00000640: 6544 ee84 2a03 c33f 7102 c699 b56f b9bf
00000650: 44e4 7f09 d96c c4bf 95fa 984b 2f1d c0bf
00000660: a025 f453 80da b03f e09b 2624 d408 c7bf
00000670: ad2b 4bfb 9a11 b43f 9f85 0ec4 37c8 c9bf
00000680: 5d99 7909 0a5e a93f 61d8 8179 3f4e ba3f
00000690: 46ae a4e9 02bc 94bf 4ec0 3262 be27 9fbf
000006a0: 18e0 14d2 65b5 b33f 392b 29f8 65d4 81bf
000006b0: a002 4b80 083b c7bf 5554 1a21 8d3a ba3f
000006c0: abbd 9f1a dea8 c23f 9f63 6caf 8507 bf3f
000006d0: cc3e ce23 cb04 cbbf 9375 16b2 538a bf3f
000006e0: 5167 284e 5491 cbbf c11b 68ee b3aa cc3f
000006f0: d32b 9610 b759 d13f d6a3 fc99 19a2 b73f
00000700: c559 c504 232b b93f 4837 2926 c0fe 96bf
00000710: c38c 3e85 5f2b 9c3f 81f0 0691 acb9 c73f
00000720: a882 449d 24ab c8bf 0dde 8ae3 f722 cb3f
00000730: 87ea 6fde 2d6e c5bf 93d1 59de 101d acbf
00000740: 6a64 e9b4 61a3 b33f 79ad 7a23 e874 b73f
00000750: 57a6 0669 559c bebf a60d 777d a22b c7bf
00000760: 0253 4fea 5e3d d03f f105 217a dc4a a6bf
00000770: 7a30 f28a 8df3 a1bf 230a ca3d e67c 923f
00000780: 2f1e 0b21 d457 a63f 2e40 1be5 c80d b6bf
00000790: 38eb 31d7 7bc1 c0bf a8ef f0d8 9e00 d03f
000007a0: 7d61 ae19 883a c93f 788e f792 01f3 cb3f
000007b0: 8ed2 d261 a5d0 cc3f ed12 552f 37cd ce3f
000007c0: 74c8 46b7 d668 a23f ac9a eb3e 7aa2 cdbf
000007d0: e4f9 22d0 b051 85bf a67d d535 36bb af3f
000007e0: a6aa 8974 c79f 92bf 060d 4db4 173e cb3f
000007f0: 2f76 d531 1b25 ce3f 0c77 a34f 9386 c0bf

layer2.bias f8 [80]
0.09209920746381577 0.0027727939645458407 -0.020208562519574477 -0.029288559052264625 0.035540524804460225 -0.019220906071148264 0.02008877504211051 0.023714191121487316
0.027352515980537763 0.0341501750581251 0.028686337499762765 0.019164135247366938 0.008586500346865223 0.0483542484752602 -0.023119683484802804 0.014697541522546346
0.06288083490951442 -0.04083341301587836 0.01299432097828275 0.12904856748041255 0.03780929297717684 -0.0032247342340800357 0.00416805610476038 -0.010524446565143376
-0.017696886733486353 0.08453838511988084 -0.02601999999743685 0.06322998197792029 0.0005435500876112135 0.08484378160998385 -0.027644534137977298 0.011914141696380748
0.046501195397315766 0.07571242310844238 -0.004030971524173247 0.05495359431470248 0.041588422942519195 0.03189363283894145 0.01969230813128585 0.00759642204600675
-0.01770849104844769 0.04745100247680972 0.10131837298388274 0.007503818093542693 -0.005653058619659566 0.03434098580018649 -0.02935351932601379 0.008591170772662157
-0.015499394430054445 0.06740450842193516 0.07857207736280987 0.026366856305953493 0.003584900979919578 0.007335601206297536 -0.0005816212319705526 0.056296303335968016
-0.010723809888905962 0.002761770468851477 0.0434609897528728 0.003921902341249475 0.09704758008527677 0.03794192431406346 0.05512450612649789 0.011917988419928143
0.03723742875608356 0.09147993203453203 0.0660942639567413 -0.05103893596700452 0.09686559605002264 0.02538264408201116 0.0540281544686304 0.011503278762326999
0.05364651159632729 0.05029760416732176 -0.00657122276304377 0.022993492040413722 -0.056026248893306194 -0.04194969350155903 0.035822155454478574 -0.012253533866689174
00000000: 6b6b 0b4c d093 b73f 9e3f ae6c f8b6 663f
00000010: 3fa4 7bac 8db1 94bf 6f13 1bed d1fd 9dbf
00000020: de87 6f1f 5e32 a23f a878 e62b a5ae 93bf
00000030: a74e 4adf 2692 943f c082 456d 8848 983f
00000040: da1e 6646 4c02 9c3f 2dfd 0dba 217c a13f
00000050: f82e 9d85 f35f 9d3f e201 9358 c39f 933f
00000060: 6d3f 6a91 cc95 813f 47d6 a557 e3c1 a83f
00000070: 6e2a d8b1 afac 97bf 0f15 5ea1 be19 8e3f
00000080: 2d46 7b59 f518 b03f eb79 f9fa 1de8 a4bf
00000090: 6867 153d c49c 8a3f 5246 76d8 a984 c03f
000000a0: 71ca a459 bd5b a33f 7677 5b02 c26a 6abf
000000b0: 2b82 860a 8612 713f 3442 724e d78d 85bf
000000c0: c19c 0bf7 211f 92bf edb6 58bf 4ea4 b53f
000000d0: 3aa7 1fa4 fca4 9abf 50ca b810 d72f b03f
000000e0: 7eb8 cdec a0cf 413f 30aa 4873 52b8 b53f
000000f0: 61a0 2448 d94e 9cbf d021 9107 7166 883f
00000100: 3daa e932 01cf a73f 27d4 26ad e361 b33f
00000110: b7ff e0ad c782 70bf 7033 c2a4 e022 ac3f
00000120: 0155 dce8 134b a53f 84de fcbb 5c54 a03f
00000130: fc62 a06d 382a 943f 0541 1104 6d1d 7f3f
00000140: b28a a8b7 2c22 92bf 98c2 996f 7f4b a83f
00000150: f41f 733a 00f0 b93f dc0e e9d4 52bc 7e3f
00000160: 640a 4d5e a927 77bf ec30 d945 2495 a13f
00000170: 1766 1c56 d90e 9ebf cb02 066c 3f98 813f
00000180: c5a6 7a81 25be 8fbf 6a71 46ff 6b41 b13f
00000190: c5ec a6b6 4c1d b43f e42d 21c6 e9ff 9a3f
000001a0: e01b fb0e 155e 6d3f 25d4 7074 ef0b 7e3f
000001b0: ccaa c115 fe0e 43bf 3f67 6d7b ded2 ac3f
000001c0: 774a 1766 5df6 85bf b404 f83a da9f 663f
000001d0: dcdf 47d3 8440 a63f 9d4a b3a4 6910 703f
000001e0: cd48 9f36 1cd8 b83f f804 27b8 1f6d a33f
000001f0: d1fc 0a7e 4739 ac3f 2349 fb53 7568 883f
00000200: aa96 63c5 c810 a33f 4c20 5494 3a6b b73f
00000210: b5bb 25be 8deb b03f 8512 9a81 c621 aabf
00000220: ef73 2407 2fcc b83f d97b df68 e8fd 993f
00000230: ef12 0309 94a9 ab3f 68d1 a5f0 078f 873f
00000240: 5290 b339 8e77 ab3f 607d ee89 9bc0 a93f
00000250: 72c4 ca2d 6dea 7abf 6d70 5621 9b8b 973f
00000260: 8eb9 6df5 78af acbf f834 5523 6e7a a5bf
00000270: b665 4c14 4857 a23f 8f2c be79 6118 89bf

layer3.weight f8 [80, 80]
-0.12413470996158864 -0.191771708834987 0.024724739786384436 0.025989951048684304 -0.057274556202602835 -0.10187929226926598 0.04168017348510989 -0.05184124629686891
0.10016785048898544 -0.0561502926063167 -0.020680075438922297 0.0893046520751011 -0.2121188966513107 -0.06627309935518408 -0.06154989285129108 0.11658559851687617
0.04478187031182666 0.17695508660255 0.09369259162434429 -0.017393789646532636 0.13486525545888414 0.011010979887988203 0.1508816779541748 0.15317917279615337
-0.05166761429976488 -0.2009482202125385 -0.1731083767942048 0.008737843625852794 0.06446969189431082 0.06113552917711529 -0.16560722724384982 0.21231787726213738
-0.22704261207581158 -0.25596742107947634 0.17239402153420325 -0.10142895855742719 -0.1775966611407929 0.11892543122024758 0.017797087602862284 -0.03668686232555585
0.16383876481755064 -0.04030040138849796 -0.17678336275086767 0.13760462969793727 0.13892542899103566 -0.059633262830473786 0.16562449385433364 -0.0676979880695432
0.15337433296103545 -0.31037395836284726 -0.016194692727357775 -0.13754742964469563 0.16630392679678788 0.0251982509843263 0.1927640423835718 -0.008512578208317058
0.031037685550319067 0.026851998034786884 0.19785684547898783 -0.1777342434137871 0.06546700168914199 0.12263061167793558 0.2374434264662446 0.07691507195695177
0.2403279077824558 -0.15566613750416108 -0.17460896736068132 0.08278118175787179 -0.2794311821386985 0.15296303885499798 0.16416929903141872 0.15683047713882337
-0.04465689527987498 -0.38565325073263634 0.03901881051602837 0.009671279382841074 0.007886293039096668 -0.09046790674177342 -0.23229972675025604 -0.08775141849697939
-0.027991521621170225 0.01624393177088146 -0.08743584520162866 0.2966916609353954 0.10829829121314773 -0.13147811071529714 0.09112420903187052 -0.15983215595285782
-0.11114318281360072 -0.08196301651242409 -0.02362168704947191 0.07205265196616246 -0.2339536128226026 0.12334137068130864 0.11227175930018533 0.21260854157208106
0.12640009108852884 0.10732973747485125 0.003419042190079123 -0.01653670315259895 -0.09757630450570427 0.3286115248469825 -0.14336941959521357 0.1803318443972093
0.038995917715114195 -0.05375478701160031 -0.22874972642687946 -0.1677444243302625 -0.06279091432157238 -0.18679474831999607 -0.14715168476155027 -0.062459144894291614
0.051898547655903106 -0.08974978281148291 -0.08791534760461478 -0.07394819934071435 0.059715742119542364 0.03598581663318305 0.24581142788249963 -0.1962874275909372
-0.007861679859673794 -0.1527013192386992 -0.4760661196869364 0.2485337836528352 0.30500152576496353 -0.0181585285386128 0.04408490139301537 -0.008093171229735227
-0.04734725601477563 -0.10797175339525553 -0.13338761894285756 -0.22065320534427987 0.07221402997668006 -0.029575905006585614 0.2770068413761912 -0.07414342851327343
0.15241093992850543 -0.07178818595676079 0.0868056543653793 0.06302963463963451 -0.13674777601497395 -0.038725883874809755 0.12951791256508263 0.1963851468302635
0.18764799338581126 0.1855422747011374 -0.19087437673768562 0.06392453381006571 -0.30597512049403347 0.023850118450982904 0.07802206333966351 -0.036388896805150006
-0.08298138781619047 -0.3872457409626019 0.003730635231483731 -0.24943168409541913 0.18443729605661965 -0.02508845211716991 0.15455761070639973 -0.1104584021497961
0.029855355906078927 -0.04026323231481553 0.13943371053322676 0.13251820130152833 0.025257389953408187 0.394000102181316 0.32850446115984017 0.0318718000170758
-0.1348569344070168 0.1933260360721659 -0.06609341540822344 -0.01690681783313327 -0.1141228381647067 0.09056242382205357 0.13898406690223775 -0.11642031723583217
0.28134546922178527 0.13185621053795216 0.06812617161066718 -0.03726754880096647 0.061615206922512385 -0.015279890188183667 0.04579329856536575 0.2137839555544381
0.0845696021944908 -0.14318012677994374 -0.15759080727618524 0.05202653999195184 0.07459536424208317 -0.19062660112449756 -0.05082483740311501 0.08667904574888442
-0.00443082905784737 0.04872842592176505 0.10851270109644981 -0.16339272844013966 0.15053040084033456 -0.09482789953474471 -0.030419552586042384 0.022596878712615846
0.099342253060568 0.036901962380122715 -0.01697385980062272 0.1779785728023251 0.08292423435418782 0.007952870386004793 0.11242512027494553 -0.13597115222596398
0.18235141498575147 -0.09236564221394426 -0.01551987314930506 -0.06330225907265936 -0.14687379460968975 -0.031731833520816564 -0.07626978676455137 0.10055373821855917
0.1254121748457876 0.1896900269872782 0.11712681194586647 0.0005713318155652385 0.0658317719728803 0.027236140103973742 0.16403409572523706 -0.005416803398209173
0.19561673688043088 -0.12349686386395628 -0.11048823236381657 -0.10624720340527101 -0.3143338251295817 -0.07440430048905673 0.07102764753715197 0.11564173435763096
0.0745275366752316 -0.1818266792967815 -0.2281429085277163 0.09636015670196614 -0.020292671044876014 -0.059748645015578764 0.22135236890337182 -0.10093304934942188
-0.06736487612684658 -0.20468022288883697 0.11594502582219653 -0.06802243212306314 0.20128920510407178 -0.42557166628238763 -0.360497961030653 -0.0294953389192294
0.5876959719295803 -0.12922087748175132 -0.216308406531726 0.100458053177047 -0.06610239816021977 -0.010553240033447037 -0.0457636817419896 -0.0835633956991077
00000000: 335e 95d7 4ac7 bfbf 5645 dfb0 f98b c8bf
00000010: 5b76 2333 7151 993f 046e 1d17 1c9d 9a3f
00000020: 95f1 9033 1753 adbf c2a5 6fe4 c214 babf
00000030: d132 058c 1a57 a53f 1e9d db92 ef8a aabf
00000040: a6f7 f5a9 99a4 b93f 0757 cf2c bbbf acbf
00000050: 0d85 c15e 282d 95bf 5210 0b70 abdc b63f
00000060: dd90 fd45 b626 cbbf 6ec7 551a 46f7 b0bf
00000070: 0fb9 bcb1 7783 afbf 9c87 d0c4 8dd8 bd3f
00000080: 0ed2 e238 a6ed a63f 70ce e8da 76a6 c63f
00000090: 506f e7d8 3cfc b73f 4bcf bd76 adcf 91bf
000000a0: 0b03 c8c2 4343 c13f d967 20b4 ec8c 863f
000000b0: 067c 3040 1750 c33f 693d cb08 609b c33f
000000c0: f412 5c73 2d74 aabf 064a 00d9 abb8 c9bf
000000d0: 2154 7f50 6a28 c6bf 2782 e284 25e5 813f
000000e0: 4eee 44f2 1581 b03f 50f4 e0f4 274d af3f
000000f0: 792d 7f1c 9e32 c5bf 0538 9971 3b2d cb3f
00000100: c9fe d478 bb0f cdbf 122e 982d c561 d0bf
00000110: 18f6 41de 0111 c63f e919 df8b 3ff7 b9bf
00000120: 793f bdc5 7cbb c6bf e9ef c0a5 e571 be3f
00000130: aa94 df54 6639 923f c021 c3d3 9ec8 a2bf
00000140: 5bad 5a2c abf8 c43f 1b63 f513 41a2 a4bf
00000150: f7f5 be54 d6a0 c6bf ab58 2a4c 079d c13f
00000160: d4b4 0cf7 4ec8 c13f 13a8 3843 4088 aebf
00000170: 60ad 42f4 2e33 c53f f180 c3c4 a754 b1bf
00000180: ed85 0e28 c5a1 c33f 23b4 2cbc 2add d3bf
00000190: 0af5 876e 5795 90bf a685 fc77 279b c1bf
000001a0: 41f0 6473 7249 c53f 0a8a 93ff 91cd 993f
000001b0: e4eb f0fc 7dac c83f 742d 13e8 0a6f 81bf
000001c0: e552 87d1 57c8 9f3f e010 9115 177f 9b3f
000001d0: fb9c 4f84 5f53 c93f e5b6 6be5 febf c6bf
000001e0: b8d7 3807 72c2 b03f 6b2c a542 b864 bf3f
000001f0: 484e a9d3 8b64 ce3f 6ee5 9fc6 b4b0 b33f
00000200: b7f1 1e9c 10c3 ce3f c266 d634 deec c3bf
00000210: bc83 332e 9659 c6bf 8bd1 5fc4 2531 b53f
00000220: 4f2c 3153 33e2 d1bf dd82 b0f8 4a94 c33f
00000230: a770 2ce5 7f03 c53f b0e5 2965 0513 c43f
00000240: 0732 89c1 44dd a6bf 6689 dff8 8aae d8bf
00000250: 2bb9 3006 46fa a33f 833b 4725 89ce 833f
00000260: 2549 8455 b026 803f 7922 cb9c e728 b7bf
00000270: 098c a158 ffbb cdbf 4d44 9f80 e076 b6bf
00000280: da7a b637 cfa9 9cbf 6089 dbce 3fa2 903f
00000290: f39c a30f 3262 b6bf 11a9 2d05 fffc d23f
000002a0: 9920 f9d2 6fb9 bb3f a8be d454 46d4 c0bf
000002b0: b46e aa89 ea53 b73f 4c56 554d 6175 c4bf
000002c0: 7296 5b2f e173 bcbf af01 673b 87fb b4bf
000002d0: 0b52 6a95 4830 98bf 95e4 c8e7 0a72 b23f
000002e0: f353 ed25 31f2 cdbf bded 51d1 4c93 bf3f
000002f0: 0b6c 758e d7bd bc3f 0780 73b6 c136 cb3f
00000300: 3ae4 b7d0 e02d c03f 94be 5730 f679 bb3f
00000310: b028 7b4c 4002 6c3f 4973 e55c ffee 90bf
00000320: fd6e b7bc c2fa b8bf 639d 13a2 f807 d53f
00000330: 8137 34dc ed59 c2bf 1183 0e27 1d15 c73f
00000340: da20 87de 45f7 a33f f1c0 6f58 bf85 abbf
00000350: 6a77 fcc8 ab47 cdbf 84db 4a38 a678 c5bf
00000360: 6241 7fbb 1013 b0bf dfa9 8ceb e3e8 c7bf
00000370: 9413 cdcc ddd5 c2bf 7170 5021 a5fa afbf
00000380: 65b4 c849 7292 aa3f 9698 ff7d d7f9 b6bf
00000390: 2c3e c7c6 9e81 b6bf 8536 c4e9 44ee b2bf
000003a0: 746b ebce 0f93 ae3f 4666 1ea3 bb6c a23f
000003b0: d783 deb5 bf76 cf3f d03c 0f49 f21f c9bf
000003c0: 8482 1ccf c819 80bf a7d7 1782 b78b c3bf
000003d0: 337f b207 de77 debf 81ba 5e7c f4cf cf3f
000003e0: eaff 981e 2585 d33f 4807 de38 2698 92bf
000003f0: 23f5 75d3 4b92 a63f 9868 050e 2793 80bf
00000400: e010 4748 e63d a8bf 3e72 b96d 09a4 bbbf
00000410: 5883 8672 d812 c1bf 630a 5b3e 5d3e ccbf
00000420: a2ec 0f61 9e7c b23f 0af5 0263 2549 9ebf
00000430: f3a7 1ee7 7aba d13f d485 ad50 10fb b2bf
00000440: a1d4 45a1 3382 c33f 7c67 ece6 b560 b2bf
00000450: 6570 9b36 e538 b63f 48c0 74cb b522 b03f
00000460: 667c e47c f380 c1bf 4a83 8009 e1d3 a3bf
00000470: b54a 5bff 0a94 c03f 972f 8703 2623 c93f
00000480: 4744 6075 d904 c83f 65f4 ee68 d9bf c73f
00000490: 85ca dd52 926e c8bf ca53 20b6 5b5d b03f
000004a0: 8f56 faab 1895 d3bf 33c3 025b 2a6c 983f
000004b0: 1d09 6902 41f9 b33f 2068 6ec3 90a1 a2bf
000004c0: 20e4 d8aa 443e b5bf 46c7 3c5c a2c8 d8bf
000004d0: c03a 008a b58f 6e3f e754 e39e 60ed cfbf
000004e0: b1e8 5c2d a49b c73f 3ceb 6685 c9b0 99bf
000004f0: 407b aa35 8bc8 c33f 2242 cd78 0047 bcbf
00000500: a67f e804 6792 9e3f def8 0be4 619d a4bf
00000510: 2d9e 59bd f6d8 c13f db7e 5b3e 5bf6 c03f
00000520: 1b2e 54bf 12dd 993f 8052 5f34 4c37 d93f
00000530: 2762 5193 3706 d53f 31da 7925 8051 a03f
00000540: c25e 75f5 fd42 c1bf 2b98 3255 e8be c83f
00000550: 68c5 a881 7feb b0bf f6e1 b056 0550 91bf
00000560: c8e4 a481 2737 bdbf 16ed 8f58 192f b73f
00000570: d04d 01db 3aca c13f 0b2b 1ecf b8cd bdbf
00000580: a6dc 4b6d 9001 d23f b87a 0410 aae0 c03f
00000590: b3ca 117f b770 b13f 8cbe 9a6e bb14 a3bf
000005a0: d940 5645 078c af3f 0863 2825 104b 8fbf
000005b0: e2ac 6d1f 3872 a73f b106 c2cc 455d cb3f
000005c0: be3b a97b 5aa6 b53f b87e faf4 b953 c2bf
000005d0: dc62 b381 ef2b c4bf 5035 94ff 38a3 aa3f
000005e0: 435b da89 ae18 b33f bbe6 c9d4 7366 c8bf
000005f0: 5a19 f18c b605 aabf 216d bd12 9930 b63f
00000600: c8a7 5c9e 0f26 72bf 7d67 70a7 eef2 a83f
00000610: 96ed 6806 7dc7 bb3f 6dfd 868c 0dea c4bf
00000620: 71dd 5486 9444 c33f b206 4027 a446 b8bf
00000630: 6c63 109e 4d26 9fbf 41dc 3fdc a223 973f
00000640: 798f 0170 7e6e b93f 1765 2963 d0e4 a23f
00000650: e118 ec72 9861 91bf 2091 c97a 00c8 c63f
00000660: ffd9 98ca 853a b53f 85dc bc31 9849 803f
00000670: fe6a d486 e4c7 bc3f 2346 01b2 8067 c1bf
00000680: c81e df89 4a57 c73f bf3a 9554 46a5 b7bf
00000690: d127 ea1c e2c8 8fbf b5e0 7aac 9334 b0bf
000006a0: 0c78 3eb0 c2cc c2bf 8394 6da6 273f a0bf
000006b0: cc9e d3af 6a86 b3bf 58a6 23c9 e3bd b93f
000006c0: 64cf bd92 810d c03f ebd3 2447 c347 c83f
000006d0: 26d0 cad2 05fc bd3f 2324 44bb adb8 423f
000006e0: b347 a9db 59da b03f b138 106c cae3 9b3f
000006f0: 4fcf 48ba 11ff c43f 1152 1b17 ee2f 76bf
00000700: e7d0 b91f f809 c93f 264a 748f 7d9d bfbf
00000710: d16e 98f0 f448 bcbf fdc6 ea47 0433 bbbf
00000720: 1b52 bd9e 0b1e d4bf e541 4805 290c b3bf
00000730: 89ac 482f de2e b23f 0b66 1e5b b29a bd3f
00000740: 60eb ab94 3c14 b33f bf5a 8fbc 1846 c7bf
00000750: 226e 786d c933 cdbf 1521 ac29 0fab b83f
00000760: ebe5 f119 9ac7 94bf 92fa a4d8 5f97 aebf
00000770: 8f82 aa40 4655 cc3f 0494 0a92 bfd6 b9bf
00000780: 5e28 dd13 d33e b1bf a207 b927 f632 cabf
00000790: 2d4b 0abe 92ae bd3f 60e9 5c09 eb69 b1bf
000007a0: 88db 7a3c d8c3 c93f 885f 32f1 903c dbbf
000007b0: 82af 390a 6612 d7bf 018c 2bb0 0634 9ebf
000007c0: 1fb6 6dc8 67ce e23f 3e4d 5f49 4f8a c0bf
000007d0: 58aa f36d feaf cbbf 25e7 0375 9eb7 b93f
000007e0: 5f0a 4936 16ec b0bf bde3 7be6 ef9c 85bf
000007f0: cb50 da58 566e a7bf ac9d ab23 6964 b5bf

layer3.bias f8 [80]
0.010377625963303008 -0.01151510622861155 -0.000692808478690082 0.02803576354027732 0.039493840728698444 0.01708166548498499 0.13245714946520165 0.01061735265297987
-0.013264041943284911 0.059508684918037305 0.07187813337908905 0.026743738731071897 0.04981646326202274 -0.0075449659264302275 -0.0008864736113733077 0.014909318616831757
0.01807569673089553 0.03999297161118712 0.014619953115848544 0.05041874956542523 -0.006665802203617915 -0.01732030512883951 0.00869404853301088 -0.0005663374235737392
0.04983098646502347 0.02192178553991237 0.010711729502063266 0.05624557364238704 -0.021004351357733046 0.04540826013455205 0.004764509900059427 0.051107429939439654
0.05361130238251442 -0.03083573070720699 0.05063877785752013 -0.015313824754207672 0.03916646047271922 0.05722861138360551 0.055522105136967544 -0.01113908673474452
0.08231072011685076 -0.01736614527540965 -0.005116074967288311 -0.014121322203922817 0.07004602808274392 0.04457331338759518 -0.008095238611793506 0.05126568223195065
0.007808201533551231 0.03658770788293307 0.0757341909826965 -0.016074663907560936 0.06229810863650703 0.10806110151094955 0.06063459509181006 0.04547602896870771
0.025611094230661654 0.07455832800648236 -0.002425606887982718 0.024111309481337825 0.008591902107253118 0.11305183803658692 0.002861976953988283 0.11724609013409436
0.039037491372174916 0.05217978442735627 0.07060800362928328 0.05572212070105176 0.009590800769758814 0.06170190269770834 0.036191017912414025 0.09019194451896753
0.03566549144603958 -0.006772479740573394 -0.0007566174763794866 0.01774835156753496 0.021288314227671173 0.06102789987299967 0.01061357398878826 0.03558326677103546
00000000: e8e4 fa60 dd40 853f 5479 4b65 3b95 87bf
00000010: 301e 12e1 b2b3 46bf 1274 183e 68b5 9c3f
00000020: 8179 a564 8938 a43f 7715 7a2a db7d 913f
00000030: c286 891a 5bf4 c03f a532 51f3 8cbe 853f
00000040: 479a df92 2d2a 8bbf a214 1a1f ec77 ae3f
00000050: 8424 29f8 9a66 b23f 5311 e4ec b562 9b3f
00000060: 348a 0621 8b81 a93f 438a 745e 78e7 7ebf
00000070: daf4 b595 470c 4dbf c063 ebde c688 8e3f
00000080: cd16 3f79 6f82 923f a4a1 4772 f579 a43f
00000090: d052 03e4 10f1 8d3f ee38 fa80 7cd0 a93f
000000a0: 1353 75a7 994d 7bbf 3a26 5700 6abc 91bf
000000b0: 67f4 f370 2fce 813f 4565 3b5b c88e 42bf
000000c0: feae 6372 7283 a93f 52fb da1f aa72 963f
000000d0: d6e0 28ff 07f0 853f c278 ad46 38cc ac3f
000000e0: 61e1 9e28 2a82 95bf e508 7e60 c03f a73f
000000f0: ad4e 3c63 f383 733f 8552 58c8 c02a aa3f
00000100: 5e94 dbcc f072 ab3f 972c bedb 6693 9fbf
00000110: 1f6b 9d6d 53ed a93f 60cd f7c3 da5c 8fbf
00000120: f12a a955 a00d a43f 167f 938c 114d ad3f
00000130: 1165 89b3 646d ac3f 8741 dde9 16d0 86bf
00000140: e417 03bb 5012 b53f 33d7 0f48 6ec8 91bf
00000150: 29b7 b1ea 97f4 74bf c146 56c8 a3eb 8cbf
00000160: 4d80 d457 89ee b13f 4054 8c36 50d2 a63f
00000170: 3e4e ba88 3c94 80bf 67cc 2fd9 7e3f aa3f
00000180: 0f87 a223 7efb 7f3f bee9 95c1 9fbb a23f
00000190: dfae 75e1 5063 b33f 59d1 1b6f e075 90bf
000001a0: 7895 64a6 89e5 af3f 5c92 f570 e4a9 bb3f
000001b0: 96de d965 7f0b af3f 3e58 5852 a248 a73f
000001c0: 9fb7 8a70 cb39 9a3f 13aa 6e2c 4116 b33f
000001d0: 8e04 38c8 ddde 63bf ef8b be96 a2b0 983f
000001e0: 761a 7d94 a198 813f 28ad 1e1b f7f0 bc3f
000001f0: 28c9 6a2d 0072 673f afb5 b5fa d603 be3f
00000200: bdd2 85d9 b8fc a33f 5072 4107 4fb7 aa3f
00000210: 6d72 6cba 5d13 b23f d049 261c 9c87 ac3f
00000220: 3b43 307d 57a4 833f 3c11 604c 6497 af3f
00000230: 587f af0c a187 a23f 2a55 12bc d116 b73f
00000240: 2f88 b64e bf42 a23f 9234 faaf 75bd 7bbf
00000250: 4a65 87a8 f7ca 48bf c071 29b6 9f2c 923f
00000260: 7b4b 9495 9acc 953f a839 3284 0c3f af3f
00000270: 0078 67c9 91bc 853f 8804 224e f837 a23f
