attack_soft_generative_decision_tree/experiments/vehicle_params_state_dict/fnn_epoch173.pth (torch, 121327 bytes, 8 tensors)

layer1.weight f8 [80, 18]
-0.2976833353743675 0.15360628423760883 -0.13434455814891957 0.12016430715947528 -0.1551802367716663 0.19251345403439407 0.014672081123094309 -0.1821604687383915
0.17221659805316877 -0.12392199663514233 0.021918103369158025 0.10044994151808558 0.09640074858993648 0.048476780066576027 0.054321952241871134 -0.12364741623958786
-0.08663143999903128 -0.2534416701994846 -0.1698705543954463 -0.06868466055549646 0.35707415786829133 0.02301452745101584 -0.06709370576081798 0.0017572299965908627
0.07241554166452162 -0.18021906023648168 -0.08194489243071282 -0.16459744255678543 -0.04621370460147346 0.21394613737369722 0.08673837671797321 -0.1391434518340014
-0.016229513898870142 -0.15607586572867416 0.18231802910648914 0.1321285051750925 0.12466326938019372 -0.19013277343797383 0.15176326590769684 0.07222200982687207
-0.2363827532551931 -0.1772724355712728 0.018544939444531314 0.12882827021784315 0.29491242187995315 0.11212043034047531 0.03665113586132478 -0.044068146504767765
0.09267984854789653 0.1329767734326684 0.23737327070694325 0.3206604277350141 -0.07922638812226528 -0.14989611476386044 -0.4290651140495777 0.19166954419478932
0.16296294320703383 0.24432811393573445 -0.31242818785834847 0.3898040656114826 -0.0628067105098842 -0.14995443929066754 -0.07239294884424696 0.27336801979579006
0.07718297189360167 -0.15616437431182706 0.12350440320881784 -0.2909649464842531 -0.22355195550183068 -0.15241415290757598 0.034657431683541316 0.24262894632521018
0.23445204501254618 -0.06698639525250506 0.14660664912463053 -0.30386818242314345 0.32043844239591696 0.16059664022950898 -0.25886082137554417 -0.16480639197839078
0.10426723473165068 0.1532943756675482 -0.12350998111742525 0.09793164184288258 0.14781346261098427 0.3749019255556465 0.08882236862015686 -0.1384875421111143
-0.36906962243617325 0.05384012437820759 -0.29721951256940793 0.2527964953031876 0.2657120903681892 -0.13619970730451336 0.3766648052042567 0.16763853061110545
0.14057125861005254 0.20531236365085836 -0.2190950609120182 -0.23209164531904034 -0.15269476785101382 0.15669709990824265 -0.17807861451162377 -0.1939776773862516
-0.12109469213560425 0.09385993611466048 -0.342952915562499 0.29954723789948595 -0.15110759042030414 0.0021787213566178336 -0.026178765274719237 -0.22681590915443567
-0.2531219631061809 0.14581251780960047 0.08796668038260282 0.09598234108543341 -0.10237522966902562 0.24865119289260554 -0.02324186501441863 0.1024285902852653
-0.2892154383117343 0.21104405745363589 0.10078557344068328 0.17735903806726033 -0.11161982116508624 0.2809421360624558 0.27807416478408414 -0.09759870993879238
0.24127050295382 -0.15173080319845186 0.0971172397298092 0.1717658242471341 -0.11024665692493558 0.2911185024540722 -0.006879100490653351 0.17133575210155214
-0.2771467509484303 0.04086021695525613 -0.14958583801541359 -0.10404934823894474 0.10687842150289596 -0.24676048316894272 -0.039640968327818465 -0.03541067444592482
0.12305226715748027 -0.25231128363585353 -0.05274802160753106 0.04501204085301781 -0.14077731490989048 -0.10544530848832158 -0.08433219484743587 -0.034653378799405984
0.22156596854298466 -0.2847714631464352 -0.08057686606258634 -0.1489445378315162 0.2836076830902714 -0.35587269637497504 0.1700579065945548 0.01429853524529078
-0.20680996334203552 -0.07571621500851944 -0.1713094007301175 0.10541967257665859 -0.08253172226187788 0.34953991110469385 -0.19672499996298914 0.35127420130725634
0.04259013209581201 -0.026286656676103737 -0.058492641813341135 -0.03753803727102938 0.21966784203103937 0.05970351639542258 -0.14497244143719465 -0.3998636442236284
-0.009933866982549578 0.11386983659573907 0.14018699875322926 -0.05308620170698565 0.02588117207522935 0.3531116060825102 0.04906616066239024 -0.04923968263041885
0.25690021831352 -0.19081571207521061 -0.09233892831840249 0.0009118952145618412 -0.07828891552110719 0.22178669963574488 0.05485801465788295 -0.08532925876219363
0.024849021147556178 0.14883323646848276 -0.12280464431002379 -0.04461440544470013 0.0639300214131447 -0.28470577596213714 -0.0542484951462662 -0.03402687578567073
-0.05648881727992448 -0.18456937196564466 0.13962802723054019 0.11258257020827654 0.16586946177417247 -0.2280295457916015 0.17153079241944982 0.3652983208174414
0.0224424917743406 -0.22774725201820525 0.045943358567170405 -0.20974437133575635 -0.1780547863567467 0.08177499425060171 0.3424986342217705 -0.2743879766036023
-0.16109323248888222 0.32424655518540335 0.2894510327861107 0.05777677189364457 -0.45265126836354774 -0.12351114520642684 -0.07649739975375772 -0.04051012182043915
-0.06031083255692748 -0.0041438320775282105 0.07508054333951897 -0.02136243092318036 0.17762034049021472 -0.006092389146428349 0.12495886969858319 -0.1313592280899773
0.21380302838616047 -0.20189370868258164 -0.10644825066687924 0.06392991050425173 -0.06346898451737726 -0.2699841247172549 0.2415595645038383 0.08190315262857646
-0.2862959250765984 -0.11310856069889597 -0.027412348167035902 0.313871206220506 0.18745902546196969 0.04450058099381088 -0.18490055865466296 -0.14545422933641905
-0.004152172746410682 0.016826102048749386 -0.269055948537482 0.39041271750376894 -0.25033403655442626 -0.16941696818250718 0.19584815888168 -0.054246476531151076
00000000: 9fd0 7f67 3e0d d3bf ad5b a1e7 5ea9 c33f
00000010: 4195 d2d5 3332 c1bf 6b7d 6589 16c3 be3f
00000020: 6ebd f52c f2dc c3bf 8211 8fe6 47a4 c83f
00000030: 9c1e b464 650c 8e3f 777e edc3 0851 c7bf
00000040: 0bbe 3b88 310b c63f ae8e cd1a 5ab9 bfbf
00000050: 06be a404 b371 963f e58d b45d 16b7 b93f
00000060: 2df2 802e b8ad b83f 29ae 00d2 f2d1 a83f
00000070: 17dc aa40 16d0 ab3f c8e2 fb68 5ba7 bfbf
00000080: ece9 9961 7a2d b6bf 6cd3 3c69 6338 d0bf
00000090: 3c46 d77d 51be c5bf ae9d d262 5195 b1bf
000000a0: 9aa0 9291 4dda d63f bfa5 f0ca 1e91 973f
000000b0: d999 0298 0d2d b1bf 786b 7b57 5bca 5c3f
000000c0: c3d6 2b2f d389 b23f ff6f ea0c 6b11 c7bf
000000d0: 1a6c 1029 57fa b4bf 5cb0 646c 8711 c5bf
000000e0: c2d9 c79b 52a9 a7bf 1e12 9047 9662 cb3f
000000f0: 9ed3 4f7b 7c34 b63f ea2f 8adf 73cf c1bf
00000100: f7d6 b33d 789e 90bf 04f1 7f41 4bfa c3bf
00000110: dee4 3d7a 3256 c73f 7a56 4c3c 96e9 c03f
00000120: 4318 0099 eee9 bf3f 0f2d e84d 4556 c8bf
00000130: 0863 e78b fa6c c33f 96ff 4142 247d b23f
00000140: 1ce5 4841 ca41 cebf a464 a1f8 dcb0 c6bf
00000150: e9a7 aed1 71fd 923f c064 b1db 717d c03f
00000160: be25 ca59 d8df d23f 049a 86ad ecb3 bc3f
00000170: f672 c50b f0c3 a23f 910e 11a0 1990 a6bf
00000180: 4dee 82d6 ddb9 b73f 42ad 8206 6205 c13f
00000190: 8cc0 5051 3f62 ce3f 8591 8f50 b385 d43f
000001a0: 0320 f739 2e48 b4bf b8a7 5abf cb2f c3bf
000001b0: f6a2 2c86 cd75 dbbf 3059 faab a088 c83f
000001c0: e75d c43f f8db c43f ae75 6cc5 2446 cf3f
000001d0: 46cf 4ccc d2fe d3bf c68b 69c0 8cf2 d83f
000001e0: 92fa 9bbf 1914 b0bf 105c 5202 b531 c3bf
000001f0: 203e bf23 5888 b2bf 8ae4 3294 dc7e d13f
00000200: bf52 1764 43c2 b33f d81b 3cb8 31fd c3bf
00000210: 78a1 b10c fc9d bf3f 1aaa 5b70 2b9f d2bf
00000220: b329 ebb8 599d ccbf 28c1 1795 4e82 c3bf
00000230: e3cf 496f 9ebe a13f c5cd c31e 770e cf3f
00000240: 0e94 e74c 8602 ce3f a9ed e238 0526 b1bf
00000250: 59e7 aeb5 01c4 c23f eb59 7388 9372 d3bf
00000260: 672f 9e3d 1082 d43f 520d d142 6e8e c43f
00000270: a583 81fa 2c91 d0bf 6506 dc37 6018 c5bf
00000280: e17f 37eb 41b1 ba3f d790 136d 269f c33f
00000290: d600 a1a1 599e bfbf ae71 f54e 0c12 b93f
000002a0: 1c4e e931 8deb c23f ec02 5ea5 64fe d73f
000002b0: f477 6010 10bd b63f f2a4 22b4 f5b9 c1bf
000002c0: 1ede 9331 d69e d7bf 9c7d d5ca ee90 ab3f
000002d0: a8fe 8dfd a405 d3bf 0cb8 f759 d12d d03f
000002e0: 721f 9248 6d01 d13f 0880 4cf4 fd6e c1bf
000002f0: fc03 fab2 461b d83f c018 43eb 2d75 c53f
00000300: 126e 3e2f 3dfe c13f 8c25 acef ac47 ca3f
00000310: 0a87 aa94 4e0b ccbf 5bf9 28d5 2db5 cdbf
00000320: 925f 188d 808b c3bf f8f1 bd8b a60e c43f
00000330: 98e2 b8b0 47cb c6bf 2895 43b2 42d4 c8bf
00000340: 440d 71ce 0f00 bfbf b861 046c 3407 b83f
00000350: 7f29 1ac9 f0f2 d5bf c9aa 982d c82b d33f
00000360: 3a2b 8457 7e57 c3bf 6f20 291f 1cd9 613f
00000370: 4f7d d132 9bce 9abf 86f1 03c0 4d08 cdbf
00000380: f32e 5c76 2633 d0bf b479 ab0d fca9 c23f
00000390: d986 61ff fb84 b63f 9c98 f477 4c92 b83f
000003a0: 0c55 5957 4335 babf 7de5 ca62 cdd3 cf3f
000003b0: c736 8a28 b7cc 97bf 605a 7395 c238 ba3f
000003c0: 6505 4378 8182 d2bf 41a6 63de 7d03 cb3f
000003d0: 701a d655 15cd b93f 3a0f 1372 b3b3 c63f
000003e0: 3d4a 7dd9 1d93 bcbf 6d39 9db9 f4fa d13f
000003f0: cd0c e794 f7cb d13f a8a3 51a3 3afc b8bf
00000400: 5f8b d6ab f3e1 ce3f af3e c43a ea6b c3bf
00000410: 3d6f 84e8 acdc b83f 5a20 db2a 6cfc c53f
00000420: ed65 fcf9 1f39 bcbf 423f d37f afa1 d23f
00000430: a1ce 217a 422d 7cbf 8fb3 f475 54ee c53f
00000440: d908 e1b9 c5bc d1bf 2482 0f5f a1eb a43f
00000450: 4048 1cf5 a025 c3bf e83b db63 faa2 babf
00000460: 51c7 005d 625c bb3f 30f0 93f6 d895 cfbf
00000470: 1c79 192d d24b a4bf 9f5e 5911 5921 a2bf
00000480: 2ed9 2377 5a80 bf3f 662d e839 de25 d0bf
00000490: f851 77e7 c901 abbf 92a4 c776 d10b a73f
000004a0: 0e41 c7b5 fd04 c2bf 4156 79b7 76fe babf
000004b0: 84a0 de72 cb96 b5bf ae58 4771 16be a1bf
000004c0: 463b 660e 465c cc3f 9212 4316 b239 d2bf
000004d0: 2390 8d7c afa0 b4bf b9bc 7357 9d10 c3bf
000004e0: 5017 f1d6 a026 d23f 1d12 1e46 9ec6 d6bf
000004f0: 9dfa 9f1d 75c4 c53f bbe5 12ea 8c48 8d3f
00000500: 893f 85b6 bf78 cabf 080e 3d4b 2362 b3bf
00000510: 210d d168 77ed c5bf f55f 129e c8fc ba3f
00000520: 6850 ff87 cc20 b5bf 9ed9 b5a5 dc5e d63f
00000530: 16c5 92e8 482e c9bf 91c3 a2c9 467b d63f
00000540: e5b8 f7b0 5fce a53f 3ded faaa e3ea 9abf
00000550: e135 4a5f bff2 adbf 77c5 de84 2f38 a3bf
00000560: 6fcb c06a 131e cc3f aec3 bf94 7591 ae3f
00000570: a7a2 65fb 748e c2bf f630 b3ae 5d97 d9bf
00000580: 2dbf 800e 3558 84bf dcf7 2dd8 9226 bd3f
00000590: fc18 7cc7 a5f1 c13f f295 6658 1d2e abbf
000005a0: a6be 940e 9880 9a3f 3998 fd6b 6199 d63f
000005b0: 323f c526 331f a93f 7a4a 2095 f135 a9bf
000005c0: 1f7a ff9c 0d71 d03f 9386 7635 a66c c8bf
000005d0: 4675 4625 86a3 b7bf 2cad dc0f 88e1 4d3f
000005e0: 296e cd0b be0a b4bf 46c8 cfae 8163 cc3f
000005f0: dc18 c285 5916 ac3f fe89 c667 23d8 b5bf
00000600: e55b aa94 0572 993f df50 98ad f70c c33f
00000610: 57c4 1b0b 2070 bfbf 7785 a108 b3d7 a6bf
00000620: a5b8 33c7 b75d b03f f356 2f93 9e38 d2bf
00000630: d456 0571 75c6 abbf 1b78 5e7d f86b a1bf
00000640: 7e2e 9d2d 1aec acbf 1ec5 371c f89f c7bf
00000650: 92b3 47c9 54df c13f 6fe8 2419 36d2 bc3f
00000660: 1fd3 dce4 353b c53f 402c d978 1230 cdbf
00000670: 8168 d993 b8f4 c53f c474 4c35 0c61 d73f
00000680: 709e d820 2afb 963f 1d06 966b d226 cdbf
00000690: 375f 074d e385 a73f 9a1d b44f e7d8 cabf
000006a0: 0e35 26ce 7fca c6bf 25da efbd 34ef b43f
000006b0: 160f 3a64 7feb d53f bf65 7b96 928f d1bf
000006c0: 35c6 92fa b39e c4bf 762a 979f 74c0 d43f
000006d0: 7506 e79f 5d86 d23f fbd8 80c3 ea94 ad3f
000006e0: a051 8706 3df8 dcbf 7265 5a29 6d9e bfbf
000006f0: b2e2 2b66 5595 b3bf e563 c020 bebd a4bf
00000700: df62 daba 0fe1 aebf f5b1 0c74 1ff9 70bf
00000710: 808a 357e 7a38 b33f c264 b678 08e0 95bf
00000720: fd42 c168 43bc c63f c4f2 3642 55f4 78bf
00000730: 9a56 b3f2 4dfd bf3f 0e4e 5612 61d0 c0bf
00000740: 1f27 5acb e55d cb3f d1a8 072e a7d7 c9bf
00000750: e8a5 544b 3140 bbbf 941a daea b55d b03f
00000760: c0fd cfdc 803f b0bf 0b63 867e 6b47 d1bf
00000770: 0c3d ca7e 6ceb ce3f dda1 fae1 9af7 b43f
00000780: d0a6 cb24 ac52 d2bf 9071 19c1 aef4 bcbf
00000790: 4c33 898b fb11 9cbf 9ce1 7741 7716 d43f
000007a0: 187f d947 a8fe c73f 28f7 0ab8 c7c8 a63f
000007b0: 458a 374e d2aa c7bf 7c4b 0883 3e9e c2bf
000007c0: 1469 7362 de01 71bf 6bfb 1298 dc3a 913f
000007d0: cdd0 f070 3638 d1bf 52c1 679f 85fc d83f
000007e0: 69ec 040d 7905 d0bf 949c dd88 74af c5bf
000007f0: de76 b06e 8d11 c93f cbc1 3fb5 31c6 abbf

layer1.bias f8 [80]
-0.09937716167925356 -0.15487348719890626 -0.12730607664617472 0.0466490841548381 0.009060384583876981 -0.036440985714484404 0.0029389221376149507 0.0041276752123886335
0.028475051922226526 0.054357988181080154 0.04511041113690937 -0.020971181448445862 -0.011495335365089478 0.05550597319812071 0.01837169910106739 -0.026377923179851562
-0.03222153833173953 0.07476887404944559 -0.14787623178904385 -0.0040599534675631885 0.12400548075820346 -0.04425259587865854 0.1009238454029571 -0.1415584190220222
-0.08171986135864238 -0.11781375267117142 0.12692891973594195 0.14877639996888056 0.006908028555170953 0.023098382516559834 0.041316988896803984 0.012719594887381893
-0.014543970815090767 -0.07920297997797539 -0.009575958805695645 0.12745320030860616 -0.07590627872656815 0.07282631817809726 0.011962358787533971 0.010427075329129828
0.08465682043802954 0.022437415182078112 -0.003820547542609984 0.05505880560114721 0.023473968347999006 -0.10597267748111766 0.10510826868846643 0.062104284143865235
-0.04259538730487236 -0.019259697555208857 -0.0552624753731367 -0.022731202815939298 -0.046396825615667124 0.019463325399112167 -0.0723013466058499 0.05545167405987346
0.07000394680139159 -0.11980858739286909 -0.05046224875622751 -0.23916549786658242 0.08360199380722193 0.05618038693838139 0.013897423769131651 -0.0757840280888016
0.03515352848301151 0.011219388052445092 -0.01734558080077033 0.0027897511548449667 0.0692013983585503 0.044065330240065356 0.06809090492021995 -0.024212404531035178
-0.07423061028437297 0.05074467812651531 0.03268292736911655 -0.11110678291892626 -0.033581478032074515 0.09162771700448452 -0.03063555776783113 -0.02968191194113322
00000000: feb6 611b c870 b9bf 1cb5 44f9 e4d2 c3bf
00000010: 8281 e3c5 904b c0bf f9b0 aa85 63e2 a73f
00000020: e1c2 d03b 408e 823f b163 c193 64a8 a2bf
00000030: 30f3 edce 5d13 683f e243 bb60 2ee8 703f
00000040: ba0d 0863 9028 9d3f 4d37 076b cfd4 ab3f
00000050: 5d93 1539 b618 a73f f610 eb29 7879 95bf
00000060: eecd 98cb dd8a 87bf a5b6 3c67 476b ac3f
00000070: 7e80 3edb 07d0 923f c450 9375 d002 9bbf
00000080: ca27 b96a 577f a0bf ab15 cd8c 0d24 b33f
00000090: 58e0 b1bd 9bed c2bf 210b dd75 2ba1 70bf
000000a0: 0599 61bc d2be bf3f f8b6 1fb8 46a8 a6bf
000000b0: 326b 6427 25d6 b93f 7e26 1616 961e c2bf
000000c0: e711 f8c3 97eb b4bf f6e0 bdc6 0a29 bebf
000000d0: 7e5b 97f3 343f c03f f337 24e6 1a0b c33f
000000e0: a6b4 96cb 974b 7c3f 031a ff35 1aa7 973f
000000f0: ab74 2918 8027 a53f 6136 7a20 bb0c 8a3f
00000100: 13d1 09b8 3ac9 8dbf 2d4b c080 a546 b4bf
00000110: 10bb 2f6f 8f9c 83bf bf49 8cef 6250 c03f
00000120: 5511 b108 986e b3bf c0ee dcde bea4 b23f
00000130: 162d 349e b87f 883f 9898 405c ca5a 853f
00000140: 8d28 2ac3 11ac b53f 06bb a771 d5f9 963f
00000150: 2d43 f2d7 444c 6fbf e5d6 d3f2 aa30 ac3f
00000160: c9ae 7259 8f09 983f 740b 0d80 0621 bbbf
00000170: 765f 8e20 60e8 ba3f dcc4 adfa 21cc af3f
00000180: a4a8 de06 10cf a5bf c49a 856c d0b8 93bf
00000190: b5e5 d8f8 5c4b acbf d9d6 c532 d946 97bf
000001a0: 8ba4 5021 53c1 a7bf 110c 3ea8 31ee 933f
000001b0: abfe 204f 5782 b2bf 8af3 306d 2964 ac3f
000001c0: b357 1a56 c7eb b13f 6ce0 a18c c6ab bebf
000001d0: f064 2e18 30d6 a9bf 5e92 d59b f99c cebf
000001e0: 334c 48b5 f066 b53f 1769 27f9 acc3 ac3f
000001f0: 9753 b2a4 4076 8c3f 2157 3302 9566 b3bf
00000200: 18da 58ae a4ff a13f 5b8e 21c6 30fa 863f
00000210: 86e6 1339 0ac3 91bf 6850 2b3f 88da 663f
00000220: c695 c9ce 2eb7 b13f 867b 8920 bb8f a63f
00000230: 6792 c9d1 676e b13f 6f28 79f6 22cb 98bf
00000240: aa93 88fb c600 b3bf 43b5 ffd9 34fb a93f
00000250: 4934 6010 d1bb a03f ae24 007f 7e71 bcbf
00000260: 2957 cc6b 9731 a1bf dcff f0ff e974 b73f
00000270: e588 d47a ed5e 9fbf dc98 4764 ef64 9ebf

layer2.weight f8 [80, 80]
-0.07083894163191938 -0.08405886467104402 0.17276977934776708 -0.20188913313277615 -0.002000370195527473 0.05480729263059179 -0.26741809443640274 -0.02154113005617597
0.11692911560439112 -0.2527481538264185 0.023010779143498073 0.013198182474787405 -0.15873084532001336 -0.1492712625406366 -0.030289488315010174 0.08464224495436948
0.10812808689081972 0.1487379636718682 -0.008741727965117805 0.008676689253954439 0.1172649222954958 -0.173594854786567 -0.07273643626456777 0.1418828033050702
0.12685396280971648 -0.1397126744746033 0.20954575630987107 -0.08743065216646416 0.1287943075953079 -0.01248560711664417 0.22597423004467132 -0.1271892686517846
-0.00626098200523069 0.2161089313527387 -0.12361185629818457 -0.1766294571007865 0.0954799553292006 -0.2539712209337895 -0.17599441086342435 0.07272188166920973
-0.17413160348352485 -0.012626735023371867 0.0784705886096063 0.24819740073912422 0.012196620521231598 0.058780576861494224 -0.40740115582065123 0.003834521791297956
-0.2653211447662482 -0.2441758138410651 -0.032003282921312944 -0.10957644773182326 0.1658054785881108 0.1062134763743382 0.0854244956590024 0.04570733692145454
0.2832531175008965 0.1859361090225866 -0.32235455308742117 0.011258204575058248 0.3445464156401649 0.1650704103720786 0.04412045293478539 -0.15049798024432512
0.1391437374299153 0.1070667765933428 -0.2465619745436942 -0.21548607573700793 0.08676786845412442 0.1067424488828781 -0.003245591230494119 -0.24723365902802638
0.12971811885653659 0.07374325943858337 0.28585318567565915 -0.11051183028193971 -0.03135412764893996 -0.07235804706990984 -0.009879474076895245 -0.09152190882504009
-0.000735772737843816 0.024603254702483625 -0.1268013849263562 0.14105020592490614 0.0021885502482036283 -0.11185303999251828 0.4131614652574922 0.12610402194380949
-0.6769184065656627 0.21567443338962294 0.16059047380772382 0.13629515169848683 0.0751680993479718 0.11237362548687557 0.3088939544449236 0.05072364808930391
-0.11148927881866369 0.029736739595007458 0.14912805318932745 0.07758648802690155 0.19707307343298433 -0.08836416858937829 0.03532472939414988 0.10957727120938433
-0.06718969979573872 0.12444753977374867 0.16873569329213187 -0.07559375551378751 -0.3517352052221859 0.20457781440751965 0.19530079973186004 -0.18476915943732417
0.055489199147401524 0.14643221019058514 -0.2171917565546691 -0.07593498308424956 -0.027070385101347377 -0.12411237864705645 0.1433163568471509 0.17955130599609562
-0.3516571668857995 -0.15578129065999183 -0.10934010769910933 0.13359822378323458 -0.06784853459992861 0.06654734547564291 -0.19708303090130466 -0.18440587557912644
0.11662722265218202 -0.22472489021161351 0.00035458911335350935 -0.13912479113902892 -0.11949569621180003 0.12161284758041978 0.10121053415963119 -0.058040866917187926
-0.2853198952914309 -0.17382829256868054 -0.1167028539719514 -0.13951043087511567 0.04803885294264637 0.05000813282551472 0.0023844864525701883 0.08419611312614139
-0.23596334849570852 0.2067737567721634 0.10880240352017478 0.2545239055508568 -0.09448953258165363 -0.02153793798800518 0.24547781578943254 -0.45233662995729085
-0.2626274279553364 0.04022072649977602 -0.05053595410874025 -0.03270388112102288 0.14189622534612126 -0.1370734715948955 0.058908426306145074 -0.04159484997236649
-0.04408259668967838 0.003073955279951118 -0.048714083163647136 0.2481436256842099 0.18392398544529798 0.06595177249813217 0.23415143531940974 -0.05645167208440441
0.2292535695990546 0.1107909183392533 -0.14970069690377494 0.24300142244092177 0.22827046656510883 0.08649956926223061 -0.026572206218400615 0.1323741112995471
0.16324410461224623 -0.0521407990568804 0.11581784973217282 0.01844852183592524 -0.08876207372542255 -0.16894787179179352 0.06579241510766444 -0.10323927089635422
-0.1166884290150044 0.12091689365092419 0.09890820160979752 0.15215604641436037 -0.1107167065673217 0.12659407098677247 0.019653068713672013 0.15445165074542092
-0.21720663347743652 0.2040106787693875 0.03297749711326069 -0.017527407487941318 -0.020650501677792664 0.0796835400365581 -0.04117962654028207 -0.05771829866342632
0.1498582605199619 -0.10264212643351414 -0.15816489384848104 -0.1273033373865019 0.06586944692143241 -0.17679051969161158 0.07947620503441348 -0.20304467957464706
0.05011603451699939 0.10037903314635148 -0.020446635688288833 -0.028865833654607508 0.07732277341489499 -0.008997144553763919 -0.18342832183717525 0.10373133137945846
0.14553394148965798 0.12135784871754067 -0.20975518037633512 0.12086631954756337 -0.21450389691651986 0.22286951372593647 0.27278715427329353 0.09187166718071352
0.09876426255447329 -0.020967735504731414 0.03020257035975145 0.18623200816836333 -0.19574764802524536 0.20960348139088797 -0.165855276645386 -0.05363276044230583
0.07704782326222819 0.09139884371158896 -0.12335987166487666 -0.17997355081509908 0.2515155089178994 -0.04489547891166959 -0.03523005116233924 0.018492823404035276
0.04213260554691156 -0.08806845409208916 -0.13049746575050833 0.2505568038415834 0.19291449271329342 0.21909731646910893 0.22463323052092765 0.23982924954952092
0.03512581941620613 -0.23095212650242497 -0.013709656235908568 0.06208688384368548 -0.018643768834015733 0.21215971776295667 0.23588300641457272 -0.12967364195051048
00000000: 07a4 9739 8022 b2bf 4d76 b3ba e184 b5bf
00000010: f594 04f4 511d c63f 598d 1ccc 80d7 c9bf
00000020: 26d9 3a92 1463 60bf dd83 dc92 b30f ac3f
00000030: 9ea1 7dc8 601d d1bf 5fcd 70c4 e00e 96bf
00000040: 9897 7807 11ef bd3f 1dc4 b397 062d d0bf
00000050: add8 813f 2390 973f 2f4e c410 a607 8b3f
00000060: c008 c2d6 4a51 c4bf f41d 6c1b 521b c3bf
00000070: b4f4 e626 3504 9fbf ca64 f039 1dab b53f
00000080: 45a1 f944 48ae bb3f c078 d278 d809 c33f
00000090: 6503 c4dd 2ee7 81bf 6693 aa84 15c5 813f
000000a0: 9125 3aee 1205 be3f 54f5 0730 5b38 c6bf
000000b0: 54e1 fbe6 da9e b2bf 9cb0 0738 3729 c23f
000000c0: af5f d12a c03c c03f 3741 dadb 1ae2 c1bf
000000d0: e1e8 2e35 65d2 ca3f f710 b9ef da61 b6bf
000000e0: 2e33 84f5 547c c03f 8cbe e4d1 0d92 89bf
000000f0: 24ec e33b b9ec cc3f 387b a1ea bc47 c0bf
00000100: 51c2 408f 1da5 79bf 714a 441c 75a9 cb3f
00000110: 75d4 32d0 06a5 bfbf d909 e146 cb9b c6bf
00000120: 37fd 8fd5 5f71 b83f d14a 0282 1041 d0bf
00000130: fff5 771f fc86 c6bf e40b 79b7 e69d b23f
00000140: 2cb5 14c3 f149 c6bf c459 d8af 0bdc 89bf
00000150: 67b0 c603 a616 b43f 2c39 90b3 eec4 cf3f
00000160: fc52 15b2 8afa 883f 0630 85de 7c18 ae3f
00000170: 098c 264c dc12 dabf 0bc3 0f36 9369 6f3f
00000180: 1355 ed89 05fb d0bf a3f5 752f 2741 cfbf
00000190: 31fa 05fb bb62 a0bf 5e87 6bbb 330d bcbf
000001a0: d44b 042a 1d39 c53f a818 6c6f ce30 bb3f
000001b0: 3cf9 2137 61de b53f 0ca1 87ba f366 a73f
000001c0: 6302 0aaf d120 d23f 47e1 b221 c1cc c73f
000001d0: f389 cefd 74a1 d4bf 9242 b1a3 8a0e 873f
000001e0: db39 c868 0c0d d63f a0ed 0af7 0621 c53f
000001f0: a014 e1bc f496 a63f 17b8 a18f 8443 c3bf
00000200: 8533 da44 76cf c13f 2ce0 f46f ba68 bb3f
00000210: d719 8dc0 578f cfbf 7b54 0438 0c95 cbbf
00000220: efa5 5a45 6b36 b63f 8002 0c1f 7953 bb3f
00000230: 87f4 1d86 7f96 6abf ff75 ff3f 5aa5 cfbf
00000240: dffe 1773 9a9a c03f 1ed3 9697 d6e0 b23f
00000250: bfcc fb28 6b4b d23f f3cc e1d8 804a bcbf
00000260: 9f90 b1f1 a50d a0bf 6c87 c495 0e86 b2bf
00000270: f3dc 7e90 b03b 84bf f162 45d5 fa6d b7bf
00000280: 3c76 54ec 1b1c 48bf aa0f 4a79 9831 993f
00000290: 8550 ac1c 073b c0bf 1851 c5e2 ee0d c23f
000002a0: efe6 bbf7 b8ed 613f 28de b99c 66a2 bcbf
000002b0: 48e5 4fc9 3c71 da3f ea44 1235 2d24 c03f
000002c0: 8951 48ca 50a9 e5bf 06f2 fe46 389b cb3f
000002d0: 23d3 8688 3a8e c43f 74fd 9299 1e72 c13f
000002e0: a4ea 6670 373e b33f 482a 6696 84c4 bc3f
000002f0: d479 1126 ebc4 d33f a8d0 5a33 73f8 a93f
00000300: 327b 61b6 8f8a bcbf 446e 33d0 4e73 9e3f
00000310: b5a1 aec7 a016 c33f b4e1 af44 b5dc b33f
00000320: 558f a8c2 b039 c93f bcc7 3abe 089f b6bf
00000330: 20d1 f93a 1516 a23f b1ae 3a8c 410d bc3f
00000340: 8631 401b 5833 b1bf 585a 6541 cbdb bf3f
00000350: 9bc5 2d96 2199 c53f 5daa b6c3 1c5a b3bf
00000360: 25fe d160 d482 d6bf c008 2f17 9b2f ca3f
00000370: e690 ddd9 9dff c83f 27de 8b0c 84a6 c7bf
00000380: 9817 3d8f 1469 ac3f 6bbe ec68 4abe c23f
00000390: fa79 ae81 f0cc cbbf 341b f89c 7970 b3bf
000003a0: f838 cdca 56b8 9bbf 5560 512f d4c5 bfbf
000003b0: eff7 d1bc 3058 c23f 7189 9a85 89fb c63f
000003c0: ec6c cb0f 8d81 d6bf 914e 5b2e a4f0 c3bf
000003d0: 6b73 b59a b6fd bbbf 7bf1 f920 bf19 c13f
000003e0: 0b2f 3085 855e b1bf 9118 7430 3f09 b13f
000003f0: 1da9 284a 043a c9bf 5fbb 669a 9c9a c7bf
00000400: 6d4b 1d1b 48db bd3f 522d 0703 c9c3 ccbf
00000410: fd07 37a5 043d 373f 86a2 0056 d7ce c1bf
00000420: 0a10 3e1b 4597 bebf 379f 2103 0522 bf3f
00000430: 3eef 39fe eee8 b93f 834b 7b52 88b7 adbf
00000440: 9530 cb60 ae42 d2bf 3adb d967 0140 c6bf
00000450: 1cce 28fd 3ce0 bdbf 629d 0751 7adb c1bf
00000460: 08ec a66c 8c98 a83f 4c0a 0a7e aa9a a93f
00000470: 3102 9c6a a188 633f 68bc 5360 e08d b53f
00000480: fbfe 6b08 0c34 cebf c5f5 80fd 8f77 ca3f
00000490: 9868 d86c 79da bb3f 2808 99a2 1e4a d03f
000004a0: baa5 404c 7730 b8bf 3f85 208d 0a0e 96bf
000004b0: 9dc4 5a2b d16b cf3f 44c3 1c56 15f3 dcbf
000004c0: f372 8645 e3ce d0bf 3d34 e0a1 cf97 a43f
000004d0: e2a0 563c d9df a9bf f5ef bb27 90be a0bf
000004e0: bdca a4cf a729 c23f fd1a d39e 9f8b c1bf
000004f0: 292f e3c8 3e29 ae3f 2d6e a090 eb4b a5bf
00000500: edb8 357e fe91 a6bf d93a b22c 8d2e 693f
00000510: 13c1 1564 0df1 a8bf 5c24 839a 2bc3 cf3f
00000520: 2401 3837 d28a c73f 3c22 fe21 37e2 b03f
00000530: c410 819a acf8 cd3f a466 d0ca 3be7 acbf
00000540: 53a8 f553 2e58 cd3f 83fd f52a cb5c bc3f
00000550: 83ef b176 6429 c3bf 5ef3 21ad ab1a cf3f
00000560: 4b18 4576 f737 cd3f 2370 19f5 d524 b63f
00000570: 3f2c c392 be35 9bbf e72e 6f87 a2f1 c03f
00000580: f385 49cd 2ee5 c43f cf24 79e5 32b2 aabf
00000590: 9a89 e414 3da6 bd3f 5884 c757 2be4 923f
000005a0: d89c c67b 1cb9 b6bf fd8a 0978 15a0 c5bf
000005b0: a957 368f c5d7 b03f 69a8 298c e36d babf
000005c0: 66e9 70fa 4adf bdbf c1be c3d7 68f4 be3f
000005d0: a062 3843 0c52 b93f ca81 9e6d d979 c33f
000005e0: 69d5 d319 ee57 bcbf 75ba 6009 3c34 c03f
000005f0: 02a7 901d ef1f 943f dde4 615a 12c5 c33f
00000600: b842 a14d 6dcd cbbf 3cb5 ac9c 051d ca3f
00000610: 8ef5 352f 6de2 a03f d709 c767 b4f2 91bf
00000620: 3690 68b5 6725 95bf d18c 7cf6 2366 b43f
00000630: d106 81fa 7e15 a5bf 39c5 47ba 408d adbf
00000640: d9fd fb33 8e2e c33f 9a4d 3920 c146 babf
00000650: 4a2e 3a4b bf3e c4bf 3493 5fcb 794b c0bf
00000660: fb49 55f0 d1dc b03f 92be 285e 12a1 c6bf
00000670: dbd8 6e75 8d58 b43f 3230 3339 5efd c9bf
00000680: aced 8212 cfa8 a93f 7353 91b8 70b2 b93f
00000690: 78b1 607e f6ef 94bf 46c1 124e 018f 9dbf
000006a0: e690 0ddf 6ccb b33f d628 ed4c 186d 82bf
000006b0: cfb4 b949 947a c7bf 6966 d8f3 228e ba3f
000006c0: baf9 932f dba0 c23f 13d1 5ad7 4e11 bf3f
000006d0: 3004 f1fb 41d9 cabf 1b09 a559 18f1 be3f
000006e0: 317d 0f1b dd74 cbbf 9939 5dfc fc86 cc3f
000006f0: 5bda 9740 5875 d13f 7a5c f8cd e684 b73f
00000700: 7c5d af5d 9d48 b93f e155 0ee9 9078 95bf
00000710: f413 cd2f 6ced 9e3f 6298 4650 73d6 c73f
00000720: d0c7 4449 420e c9bf 4ece d970 49d4 ca3f
00000730: b7cd 87e6 be3a c5bf 7414 30d0 c075 abbf
00000740: 6ba6 23f9 67b9 b33f 642c a224 ea65 b73f
00000750: ac7c 7036 8394 bfbf 0aab 7291 5f09 c7bf
00000760: a24e 4f81 d418 d03f e4e7 534b 8afc a6bf
00000770: 5045 285b ac09 a2bf 6a94 ec5e c8ef 923f
00000780: 60a8 d6a5 6792 a53f 4682 227a a78b b6bf
00000790: fbfd cd15 24b4 c0bf 868d 9267 1f09 d03f
000007a0: 2463 900e 6cb1 c83f d526 7080 610b cc3f
000007b0: c452 571d c8c0 cc3f c13e b88f b9b2 ce3f
000007c0: a88e 46eb 02fc a13f 4681 22db d68f cdbf
000007d0: b68b 61e9 ce13 8cbf 2605 3d1f dac9 af3f
000007e0: bb45 aa25 5a17 93bf ca05 a9b4 0c28 cb3f
000007f0: b0ca 1d13 6a31 ce3f f152 aa59 2599 c0bf

layer2.bias f8 [80]
0.09153916857280107 0.003415471181537033 -0.020365490075752616 -0.029294991784432175 0.03584982767309952 -0.02152663889220468 0.023455361261912593 0.026282360975719322
0.026433261961843466 0.03565316183365977 0.029917828956984596 0.018229317458602824 0.013674713659827791 0.04862854461062987 -0.023292649554732224 0.016284652282043136
0.058719492343735365 -0.04234844669444725 0.015294837250076061 0.1260294085402968 0.03893247730595236 -0.0013510221338066046 0.006359818624381779 -0.008952465518459213
-0.01748090833443943 0.08577182818027346 -0.023704781769856794 0.05881708219634367 -0.0003506431858694263 0.0849458026159512 -0.028628963474465356 0.01266321064482373
0.04577379508791902 0.07880375983888807 -0.0036237007539538686 0.053195227054158446 0.041776862215912994 0.035049334565493764 0.016899894338389412 0.006614037331535826
-0.01770849104844769 0.04761455556329874 0.10302485036316694 0.006472171205203981 -0.004878067250831734 0.03517952776124364 -0.03225256117936958 0.010315033571027811
-0.01486207477963244 0.06686592978921993 0.07754741528055051 0.023967226179005895 0.003945808916240665 0.008441197597356917 0.0020490852374966473 0.057904558183123435
-0.008461630836167095 0.0022483675889307803 0.04304259663437289 0.004430956585828214 0.09784403769273627 0.037905264747019364 0.054320033951783545 0.014123849185913005
0.040121380465361206 0.09039609825327873 0.0642660946927782 -0.049374104464970904 0.09568099734140073 0.024507796168611224 0.05746010680624064 0.01485290152990393
0.05258699203793538 0.05116623855496699 -0.007006203756127044 0.024117726776148055 -0.055728786001838115 -0.04063468543737248 0.03859594598445251 -0.011239311063339487
00000000: ffbd 5267 1c6f b73f b3e1 cd20 c3fa 6b3f
00000010: 4196 5ee7 b0da 94bf 9f57 9a9e 81ff 9dbf
00000020: 70ad d89a e85a a23f 0ea8 2348 140b 96bf
00000030: 7ba3 24a6 ae04 983f 9ad6 6863 c3e9 9a3f
00000040: 3c62 9c2e 5211 9b3f 442d 2698 2141 a23f
00000050: 8412 c083 c7a2 9e3f 8a9d 40c9 b4aa 923f
00000060: 56e7 9bff 7c01 8c3f 476c 8231 d7e5 a83f
00000070: e68e 4c40 07da 97bf e494 e983 ecac 903f
00000080: e914 8236 7b10 ae3f fe97 2d13 b2ae a5bf
00000090: 7733 4b4e e652 8f3f e5e4 014e bb21 c03f
000000a0: 2b0a 9029 f5ee a33f de32 60f8 9822 56bf
000000b0: b8dd 00d0 c00c 7a3f 107a f694 ab55 82bf
000000c0: ce35 67e6 83e6 91bf dcd0 f37c 24f5 b53f
000000d0: 7f66 d7f9 1046 98bf 2679 f5c8 451d ae3f
000000e0: d458 1004 d1fa 36bf d800 2b14 02bf b53f
000000f0: 6e65 5d37 e950 9dbf 20af a75c 2bef 893f
00000100: b134 d5b1 a96f a73f 2653 4fb3 7b2c b43f
00000110: a8b1 5187 73af 6dbf 9d76 00a1 673c ab3f
00000120: cac8 e4e1 c663 a53f b224 6983 fcf1 a13f
00000130: d4fa f4b5 344e 913f 4c17 8920 5217 7b3f
00000140: b28a a8b7 2c22 92bf 7f77 ea5d ef60 a83f
00000150: 3c2f fc2a d65f ba3f b442 913a 9082 7a3f
00000160: 04ce f534 06fb 73bf dc4f 7212 0d03 a23f
00000170: 1f8c f45e 6883 a0bf 81f5 c15e 0c20 853f
00000180: 8da8 08e9 0170 8ebf 0a4d a925 201e b13f
00000190: 86f0 84bc 25da b33f d66a 7552 dd8a 983f
000001a0: a438 0604 7b29 703f ab30 f55c 9e49 813f
000001b0: 92d0 9d42 3ec9 603f fd26 5f8f aaa5 ad3f
000001c0: 6a82 b2dd 5454 81bf 2069 7128 2b6b 623f
000001d0: 8a54 c2e1 ad09 a63f ca9e 04da 3126 723f
000001e0: 7db7 ff8d 4e0c b93f 0d8d dea0 5168 a33f
000001f0: a258 aee2 d5cf ab3f 72ed c6f2 f6ec 8c3f
00000200: d42d f021 ca8a a43f cd0f afdd 3224 b73f
00000210: 8f76 f226 be73 b03f 5d86 e407 9047 a9bf
00000220: 1c13 6ec2 8c7e b83f 6535 2a5c 9218 993f
00000230: c86c 1d3f 696b ad3f 01bb 92b2 326b 8e3f
00000240: a1f2 fea5 aeec aa3f 687e 8112 7632 aa3f
00000250: 86df 0680 89b2 7cbf f498 073f 51b2 983f
00000260: 08b9 a5c2 7b88 acbf 81d2 12ca 11ce a4bf
00000270: 04d7 850b d9c2 a33f 67aa 92cb a204 87bf

layer3.weight f8 [80, 80]
-0.12439800118830929 -0.19180563296122122 0.024706178082623025 0.025848186620125783 -0.057480991566542315 -0.1019326640030758 0.04162708247492521 -0.05244601832385395
0.10000284225101351 -0.056122165146433284 -0.020307871574210767 0.08927144844345618 -0.21176184862200523 -0.06641750608231657 -0.06173336857670312 0.11647735544951415
0.04519422014840189 0.17694905924271742 0.0935275370535399 -0.017532673822405153 0.1347978248286292 0.01066748924454747 0.15064102966246737 0.1531076232764688
-0.05121731620727824 -0.2007502617912619 -0.17337224462588846 0.008683704814677763 0.06451540310713239 0.06139421489534875 -0.16534149385133287 0.21230078110693296
-0.22709972670331102 -0.2557592615567305 0.17225044582826202 -0.10127960173385651 -0.17787767197536855 0.11905942330522959 0.01772914564302182 -0.036791128479446586
0.16383876481755064 -0.04033997041097053 -0.17656719164907256 0.13746732683247426 0.13891953531706636 -0.059826076591866346 0.1653306124874361 -0.06764196877305617
0.15317257406453477 -0.3104087868108081 -0.016285386938729295 -0.1376205527866125 0.1661140440117172 0.025163983995445158 0.1929698167575729 -0.008587029207263824
0.031020960255097325 0.0266070344981135 0.1978655608621573 -0.17754520481087657 0.06570008532600835 0.12261413184641147 0.23741169561996078 0.07668193429620508
0.24016986540547106 -0.155761166719724 -0.17462582999058834 0.08250409647226571 -0.279145232516376 0.152723950992184 0.16396558424734775 0.15672215746172174
-0.04511712412155242 -0.38547972246237644 0.03904187769437429 0.009565610679305689 0.007887770159548434 -0.09053953397387063 -0.2317239966267395 -0.08802760203141903
-0.02789722249124214 0.0162465560938783 -0.08745957117623103 0.2966116389233106 0.10809992801841214 -0.13147489543661062 0.09122492977455639 -0.16012392436026074
-0.11135439780471773 -0.08214206458512237 -0.022771804366644964 0.07205254959217355 -0.23366260377015097 0.12345523805422554 0.11211476083851618 0.21265526347401184
0.12693662967273547 0.10732086039369718 0.0034676922575005665 -0.016332100720767087 -0.0975325574036355 0.32823703608830973 -0.143021385224066 0.180383103036342
0.03956481998703589 -0.053730568098144395 -0.22886043296613837 -0.1670323787418821 -0.06263625424863987 -0.18627522291457918 -0.14670206373677358 -0.06250149488209966
0.05171911525485092 -0.08956057075411522 -0.08794931432613545 -0.07383287218290172 0.05964065501216109 0.03630507045302346 0.2455913559308989 -0.196113292973914
-0.007861679859673794 -0.15261652025408243 -0.4749878306612481 0.248362231272102 0.30509897463951463 -0.018570779294213715 0.04377315540202885 -0.00804707760270465
-0.0474613198401499 -0.1078468521569847 -0.1334465600800295 -0.22067002578906375 0.07200401221261625 -0.029608311273053987 0.27724829358218583 -0.0739493666498692
0.15247551611841786 -0.07219087026299889 0.08683634977908804 0.063270161991514 -0.13650224733493255 -0.038728647652518405 0.12981943901645712 0.19635865072766168
0.18819074163957167 0.18557528898204492 -0.19081636651282627 0.06352032981110092 -0.3054235332342379 0.023531835867012532 0.07800687226653413 -0.036238463288376176
-0.08371630484612431 -0.38678049033433015 0.0035390273931803686 -0.24923976355769598 0.18443729605661796 -0.024887802788981506 0.1549662742706843 -0.11078765491896231
0.029332276709512866 -0.039754955821685825 0.13814435658413052 0.1329915491876429 0.025454402915170354 0.3933689570823226 0.3281891259552155 0.02778375182872404
-0.13560124218513192 0.19014394678181945 -0.06597261398157223 -0.017041645536860033 -0.11374758549651784 0.08984954934677668 0.1393432980220259 -0.11704922073668644
0.2792174666804132 0.13338383524100098 0.06789290881432747 -0.03667933779980392 0.06145321803970916 -0.015423102734114739 0.048007510783074914 0.213452383810678
0.08433086305953169 -0.1439029459252924 -0.15763536247469137 0.05394557973798458 0.07289361138853129 -0.1912687845644513 -0.05112062606905087 0.08571367576944758
-0.004269518899617465 0.05052751153030331 0.10893872517634308 -0.16346826015533786 0.14975231109386328 -0.0967495726146978 -0.030878715736918395 0.021477350413960504
0.099342253060568 0.03701673966202833 -0.016735361421323588 0.17681882305093202 0.0827752255026144 0.006698089772534471 0.1124747611166405 -0.1362162800555387
0.18318938529696435 -0.0925759365304839 -0.014637357850036269 -0.06237553505375244 -0.14695577615751781 -0.03156224823947879 -0.07796070093888698 0.09945083681233911
0.12517940060979377 0.18972737198741763 0.11619639638236556 3.6937043891561625e-05 0.06669668099140354 0.027204194758425605 0.16522101753416585 -0.006122914390870508
0.19678158922195027 -0.12506977376788167 -0.11090368627856163 -0.10767477313554386 -0.31384146651587974 -0.07499110016620278 0.06960192263994372 0.11624551178388329
0.07253967300622577 -0.18230199238364392 -0.22785479025641672 0.09767045763856524 -0.020330342509434458 -0.05988684237355841 0.2196891605049951 -0.10132060617062164
-0.06705725635704991 -0.20551203607384397 0.11722925915083302 -0.06864760879399598 0.20096360607780608 -0.4247194865742145 -0.3598939747771165 -0.024115283956565616
0.5889688982978382 -0.12487664032059713 -0.2162980846177325 0.10068436889410035 -0.06486042824538739 -0.010008385319877192 -0.0465522540291821 -0.08257425025343532
00000000: 84a3 ca22 8cd8 bfbf 30e6 6044 168d c8bf
00000010: 8bfe 7e8b 934c 993f 6102 c770 f277 9a3f
00000020: d303 d705 266e adbf e290 4952 4218 babf
00000030: 4324 b71b 2550 a53f db42 035b 34da aabf
00000040: 6fa3 f948 c999 b93f ccef c45f 0bbc acbf
00000050: e0e7 0c31 96cb 94bf 5bfc 875f 7eda b63f
00000060: 319e 2f23 031b cbbf e963 81d8 bc00 b1bf
00000070: b5bb 371e 849b afbf cc56 61c0 75d1 bd3f
00000080: 5ddf 0263 b223 a73f 30b2 404b 44a6 c63f
00000090: 299e ebb0 6bf1 b73f 13f4 b6d2 15f4 91bf
000000a0: bffe 9a1c 0e41 c13f 6171 7c2b d6d8 853f
000000b0: 1f04 eb8b 3448 c33f f9cf 5ed5 0799 c33f
000000c0: e5c3 32f4 2739 aabf c548 8740 2fb2 c9bf
000000d0: 0ee5 59cc 0f31 c6bf 144d 7f21 c3c8 813f
000000e0: acf2 6eda 1484 b03f 993a 4702 106f af3f
000000f0: 7fb2 61fa e829 c5bf 0480 e207 ac2c cb3f
00000100: 6885 8f95 9a11 cdbf d341 0218 5c5e d0bf
00000110: 15e3 c677 4d0c c63f c7e5 32c1 75ed b9bf
00000120: 4952 e90f b2c4 c6bf a267 60a9 ad7a be3f
00000130: 9525 e4d2 9627 923f f64d 346b 49d6 a2bf
00000140: 5bad 5a2c abf8 c43f f700 46cb 70a7 a4bf
00000150: 51f4 d6f4 c099 c6bf 6acb 8184 8798 c13f
00000160: 342d 7b86 1dc8 c13f 01f3 d104 86a1 aebf
00000170: c9a1 d4b2 8d29 c53f e8a2 b7eb fb50 b1bf
00000180: 142b 20ae 289b c33f cc94 efd0 bcdd d3bf
00000190: 66db 37d1 1dad 90bf aeeb bcde 8c9d c1bf
000001a0: 7ee3 3799 3943 c53f fca4 3061 96c4 993f
000001b0: b260 0b26 3cb3 c83f 7682 eb8c 1396 81bf
000001c0: d206 2567 f5c3 9f3f 7940 0ddc df3e 9b3f
000001d0: 4f2e 74a0 a853 c93f 11b7 1c20 cdb9 c6bf
000001e0: 50d2 d185 b8d1 b03f f9c9 4ec6 a363 bf3f
000001f0: e814 30a6 8163 ce3f 6108 ff5f 6da1 b33f
00000200: 2d5b b3da e2bd ce3f 7625 865e fbef c3bf
00000210: ea57 6ca2 235a c6bf b568 220c fd1e b53f
00000220: 667f 1ff7 83dd d1bf 2ee6 695b 758c c33f
00000230: a885 0103 d3fc c43f f2a6 6dbe 780f c43f
00000240: 7deb 2e79 9719 a7bf e3cf 4f24 b3ab d8bf
00000250: 9158 be07 4cfd a33f 2b66 4588 2297 833f
00000260: 392f fd96 7627 803f e2b0 6951 992d b7bf
00000270: d1e9 9ac5 21a9 cdbf 91c8 de17 fa88 b6bf
00000280: 7b19 ffe8 1691 9cbf 0b23 62ec efa2 903f
00000290: 9791 ec1d c063 b6bf 1778 3262 affb d23f
000002a0: 26fe 89d7 6fac bb3f f497 125c 2bd4 c0bf
000002b0: 7d2c f659 845a b73f 9e9d 37d5 f07e c4bf
000002c0: 0c48 d6c8 b881 bcbf 85de 0429 4307 b5bf
000002d0: 0644 1aec 7d51 97bf 7080 1730 0972 b23f
000002e0: 3ed9 befc a7e8 cdbf a079 f631 c39a bf3f
000002f0: 1c46 338f 8db3 bc3f f3b8 f8a4 4938 cb3f
00000300: 31ef 8da0 753f c03f 7acb 9141 6179 bb3f
00000310: 3676 d51a 4768 6c3f 04f8 e1b9 5cb9 90bf
00000320: 0607 58c8 e4f7 b8bf ef74 d5e9 d501 d53f
00000330: de3e 1556 864e c2bf 1d63 2524 cb16 c73f
00000340: 7338 d50f d741 a43f 05d7 8db1 9282 abbf
00000350: 390f 7875 4c4b cdbf 5ee4 0826 5161 c5bf
00000360: a3b6 8af7 ed08 b0bf b792 3cd3 ddd7 c7bf
00000370: c2a8 001b 22c7 c2bf 3040 7814 1900 b0bf
00000380: cbfd 3189 ed7a aa3f a467 660a 71ed b6bf
00000390: 2483 bca4 d883 b6bf 1a33 650b b6e6 b2bf
000003a0: a018 944d 3889 ae3f 02a7 8c04 9496 a23f
000003b0: 19a6 f39c 896f cf3f 4021 d189 3d1a c9bf
000003c0: 8482 1ccf c819 80bf 9b09 a929 f088 c3bf
000003d0: f508 ac5b 3366 debf bc08 7066 55ca cf3f
000003e0: 9aab 87d9 bd86 d33f 2766 ebe6 3704 93bf
000003f0: fef3 c95d 6f69 a63f 1051 0e79 fc7a 80bf
00000400: 61ae 13a1 d94c a8bf d4a4 fdee d99b bbbf
00000410: bb59 a7e1 c614 c1bf 4a5a fc57 ea3e ccbf
00000420: f34b a2dd da6e b23f e622 6e22 a451 9ebf
00000430: b8aa 73a0 6fbe d13f b233 527f 58ee b2bf
00000440: 76ac 9555 5184 c33f 9a6f d9d2 197b b2bf
00000450: 2fbb 6732 e83a b63f d6f0 902c 7932 b03f
00000460: 2c28 11d8 e778 c1bf a4f7 2bc6 3dd4 a3bf
00000470: d9f9 7a62 ec9d c03f 34bc 94bf 4722 c93f
00000480: c23f 605c a216 c83f 2dd3 8f5a eec0 c73f
00000490: e368 dbb2 ab6c c8bf d278 2b4b de42 b03f
000004a0: 58de aa25 0f8c d3bf 54c9 dac5 ba18 983f
000004b0: d07d 3f25 42f8 b33f 4b9b 5c0d d98d a2bf
000004c0: 05c1 7487 6e6e b5bf ecdf 2df5 02c1 d8bf
000004d0: 2c3a 3add e0fd 6c3f f1e9 abac 16e7 cfbf
000004e0: 74e8 5c2d a49b c73f e01f 312c 307c 99bf
000004f0: ffde fc53 efd5 c33f 1c6f ad6a 945c bcbf
00000500: 9b02 bdc4 4709 9e3f 5a54 37f6 c25a a4bf
00000510: 59f1 d3da b6ae c13f ece0 33f9 dd05 c13f
00000520: eb4c 3d10 b810 9a3f 7388 7bfd f42c d93f
00000530: b559 b8f6 0c01 d53f fbb2 db05 5873 9c3f
00000540: 04b6 3daa 615b c1bf 6cea 7a08 a356 c83f
00000550: 2484 7bcb 94e3 b0bf bbdb 0079 5d73 91bf
00000560: b6dd b4cf 8f1e bdbf e736 014c 6100 b73f
00000570: dfef f54d 00d6 c13f 401b 160f f0f6 bdbf
00000580: 6b51 f7ef b2de d13f 5d6b 16b5 b812 c13f
00000590: 84e3 fcfe 6d61 b13f 2f04 9458 a2c7 a2bf
000005a0: 01d4 6dd3 cb76 af3f 0258 c4ce 2596 8fbf
000005b0: 2825 8dc1 7094 a83f 4c2c dc5f 6852 cb3f
000005c0: 3457 e21a b596 b53f 3c0a 4667 696b c2bf
000005d0: c9cd 4243 652d c4bf 1710 7a49 c19e ab3f
000005e0: 7446 00dd 27a9 b23f 3499 39db 7e7b c8bf
000005f0: 7f38 3c92 7b2c aabf faed 3fda 54f1 b53f
00000600: 8138 b240 ea7c 71bf 0e4f 24f3 bdde a93f
00000610: b97b e685 68e3 bb3f 978d a627 87ec c4bf
00000620: 0a04 536f 152b c33f fc37 487a 94c4 b8bf
00000630: 4a20 ee88 ab9e 9fbf 86e0 8796 28fe 953f
00000640: 798f 0170 7e6e b93f ae83 81ac dbf3 a23f
00000650: df1d f717 1323 91bf 5915 29cb ffa1 c63f
00000660: b0e7 73d6 c130 b53f 60a0 4cc8 746f 7b3f
00000670: fb12 9f5c 25cb bc3f 7aba 02fa 886f c1bf
00000680: 3793 69f1 bf72 c73f 2085 cb7b 0eb3 b7bf
00000690: f943 20ea 30fa 8dbf 5ab3 40a6 afef afbf
000006a0: da04 4766 72cf c2bf 791e f44f ed28 a0bf
000006b0: a1df e784 3bf5 b3bf 6738 ab2b 9c75 b93f
000006c0: ca3f e0eb e005 c03f 2cc6 eb8c fc48 c83f
000006d0: 8014 600a 0cbf bd3f 301a 092a 9b5d 033f
000006e0: 5d1d 9c9f 0813 b13f fdaf 349b 6adb 9b3f
000006f0: 1ce6 7559 f625 c53f de39 0a51 5714 79bf
00000700: 2ae3 149d 2330 c93f c18c 064e 4902 c0bf
00000710: 0980 9219 2f64 bcbf 60ac 38ed 9290 bbbf
00000720: d81e b484 fa15 d4bf 6674 b4e2 9d32 b3bf
00000730: 0a2f 7a7d 6ed1 b13f d626 6b0f 44c2 bd3f
00000740: 006a 39c3 f591 b23f 2e46 a4f3 ab55 c7bf
00000750: 27b2 3184 582a cdbf 44ce 575d ee00 b93f
00000760: e52a c730 7ad1 94bf 2908 e9fa 7ca9 aebf
00000770: 88cb d33f c61e cc3f 46e9 e9b1 25f0 b9bf
00000780: 1d55 0313 aa2a b1bf 5d8e efe8 374e cabf
00000790: 2ee8 2f9a bc02 be3f 3e04 b8c2 e392 b1bf
000007a0: f52b e5e9 2cb9 c93f b3d9 33a4 9a2e dbbf
000007b0: 927d ecbc 8008 d7bf a774 b54f adb1 98bf
000007c0: 979c 914d d5d8 e23f 0b19 365e eaf7 bfbf
000007d0: e16f cfd7 a7af cbbf fe59 9e67 73c6 b93f
000007e0: 9755 1e6a b19a b0bf a2bd 13bd 467f 84bf
000007f0: 2689 3871 b2d5 a7bf 9689 5408 9623 b5bf

layer3.bias f8 [80]
0.010371561103076517 -0.011336210759192328 -0.0008174228257687793 0.028122887308944293 0.03841242695167054 0.01853106130628533 0.13161875169378606 0.011369515186758506
-0.010616970003062042 0.05951754255650496 0.07077790380343517 0.027849565511147374 0.04894290131860322 -0.006681649065747445 -0.000948702908817319 0.016274541496089454
0.018800500865788182 0.03937216127988229 0.013572501115676969 0.04878605365161542 -0.006183723312113409 -0.01732030512883951 0.007297441067435191 -0.0017648869016520046
0.04699577598570094 0.022709856595922475 0.010261083380049678 0.056197241272128697 -0.021004351357733226 0.04603972755626996 0.005230596662270431 0.049803109608915985
0.054164042038579704 -0.03046554095105785 0.05077864795550729 -0.01613945077519745 0.04039900441292519 0.05791701199268089 0.05563387699173945 -0.012466237042676909
0.08233158338909036 -0.017366145218287454 -0.005116074967288311 -0.014121322203922817 0.0690366593200211 0.0452547332311445 -0.008192840421679887 0.05030771042655846
0.008026628089322623 0.03767442744417294 0.0747927723851452 -0.015948047341761945 0.06107350594454595 0.10697723834206369 0.05959429843800875 0.04608717721129785
0.026408262850416232 0.07660796092890164 -0.002425606880416586 0.02433572369261754 0.00988004152560729 0.11071780971041574 0.0020155285695280887 0.11640263058759746
0.0393023596069716 0.05154114232216769 0.07000771207069134 0.05725699846511593 0.012948539953244312 0.061316729967948326 0.03828502920159764 0.08967893346832209
0.03778264073414084 -0.006192667552205409 -0.00047886843351128164 0.018414970352768414 0.020290529154058667 0.061005627618486984 0.010921585162355132 0.0355184043528164
00000000: de2c f85d af3d 853f fd35 c573 7037 87bf
00000010: 4c03 df26 0ac9 4abf fe45 0b05 3fcc 9c3f
00000020: 7bea 082b cbaa a33f 9b29 1579 cef9 923f
00000030: 0657 081d e2d8 c03f 6722 307f e648 873f
00000040: f9ec 9097 59be 85bf 6c0f a355 1579 ae3f
00000050: f77c 1d2e 801e b23f 6210 50b4 9884 9c3f
00000060: 8dcb 1141 0b0f a93f 9e20 8883 375e 7bbf
00000070: de57 c6fb 4b16 4fbf 89b1 eefd 45aa 903f
00000080: 96c9 7741 7040 933f 1ece 2382 9628 a43f
00000090: 3884 5543 e6cb 8b3f 8782 de51 7cfa a83f
000000a0: 33e4 4996 1a54 79bf 3a26 5700 6abc 91bf
000000b0: 487b aaeb ebe3 7d3f 26dc 84e1 78ea 5cbf
000000c0: c244 d191 d40f a83f 775e 81ad 4041 973f
000000d0: a98c 4f4c c303 853f 1547 c782 e2c5 ac3f
000000e0: 95e1 9e28 2a82 95bf 1284 57e8 8492 a73f
000000f0: 79f6 a599 ad6c 753f c0cf 040e cb7f a93f
00000100: 6e88 59aa 63bb ab3f 2eb2 28d8 5b32 9fbf
00000110: 07a6 9bb0 a8ff a93f edfd 0435 dc86 90bf
00000120: 9d2b 7da5 2daf a43f 47fd c770 4ca7 ad3f
00000130: ba5a 7524 0b7c ac3f 0048 3803 e687 89bf
00000140: a483 15c2 ae13 b53f 539d 1447 6ec8 91bf
00000150: 29b7 b1ea 97f4 74bf c146 56c8 a3eb 8cbf
00000160: 6e2c 01f2 62ac b13f b216 6fde a02b a73f
00000170: bd33 616d 68c7 80bf f093 09a6 eec1 a93f
00000180: 7659 20c9 4370 803f c157 8903 104a a33f
00000190: 2412 5f7f 9e25 b33f 885b 1257 af54 90bf
000001a0: 5d26 5ecd 0645 af3f ac76 183c dc62 bb3f
000001b0: cb7c a3d5 2483 ae3f e063 c60d bd98 a73f
000001c0: 2a97 2585 c40a 9b3f 6f89 cd4e 949c b33f
000001d0: e5ce 2dc7 ddde 63bf ed81 89c5 76eb 983f
000001e0: 0285 e2b9 fc3b 843f 1d7e ca9b 0058 bc3f
000001f0: 94f2 49a9 de82 603f 17c7 8a13 90cc bd3f
00000200: 51cc 555a 701f a43f 8429 58c1 9963 aa3f
00000210: 28b8 cf81 06ec b13f 25e5 bf0f ca50 ad3f
00000220: 8883 0a9d c384 8a3f adeb d10b e864 af3f
00000230: f6cc b168 189a a33f 6ef8 62d6 32f5 b63f
00000240: c08a 9e0c 3f58 a33f a49d c989 7b5d 79bf
00000250: 6b0e d242 1462 3fbf a413 b0bd 5fdb 923f
00000260: 3376 8a5c 0ac7 943f 2799 fc2e 213c af3f
00000270: db0a be58 0e5e 863f 51f1 33e2 772f a23f
