attack_soft_generative_decision_tree/experiments/vehicle_params_state_dict/fnn_epoch141.pth (torch, 121327 bytes, 8 tensors)

layer1.weight f8 [80, 18]
-0.28669507034967784 0.15158509227829503 -0.13417461221218577 0.1180232649019043 -0.14841734350441507 0.1929307757332632 0.012318354533585447 -0.17820377640586665
0.16742860080230235 -0.12130077797119508 0.02213431319036766 0.09734827720096276 0.09590237381552134 0.049632461491942705 0.04770176139107084 -0.12586166918888544
-0.08289198584259161 -0.2491229013288011 -0.18421722715919067 -0.07078406025455862 0.3321097550857859 0.0169251232134209 -0.07207919953580698 -0.03228165943330385
0.07473591055924714 -0.18580206550505599 -0.07738341130900844 -0.1590535268515924 -0.04506738368503292 0.2136225264145927 0.09313298060976952 -0.13800101744194343
-0.007667663480409724 -0.1557629412168745 0.16442238341117626 0.10247091519627148 0.12044069126177019 -0.17892951532918985 0.15713450566418039 0.08572072755579702
-0.22226696988665032 -0.17865550225394056 0.024163010618934222 0.11713733709393974 0.29651274744264067 0.11733999700155853 0.04404292735987558 -0.03953810244174797
0.09124804426204296 0.13347105585725033 0.21602213499968728 0.3140525641234225 -0.08078040746280253 -0.15307497199408207 -0.40903441599055235 0.19597142015495625
0.16800595402944554 0.2504810424526711 -0.2987973425375218 0.37968090611478783 -0.04690689123304046 -0.15791000098051314 -0.048850446104006136 0.2869925042433665
0.082905030151578 -0.13941124352066808 0.14124088298220383 -0.29378553584331496 -0.24396237257156222 -0.14874486839435677 0.03179941998410688 0.25038303130176137
0.236924156533112 -0.058355677930924804 0.14359267468473005 -0.29914905284089705 0.31023961741793354 0.1553203172583518 -0.25280780284703586 -0.17054467072134105
0.11275877528487553 0.15681385332636738 -0.12096939084148889 0.10571506411308801 0.15131475284498527 0.377354686003047 0.08618281492274085 -0.14571624748827713
-0.37114334678919597 0.03656870924724519 -0.3020626031742488 0.243252853106935 0.26314015869534085 -0.14742575943921707 0.3546952079130809 0.1667933302328642
0.1313377851842294 0.21240167962950235 -0.2295730215350618 -0.24085290150428715 -0.15790918394547634 0.14756374978684186 -0.18928186512212328 -0.19645354519552294
-0.09089789347295965 0.10478596025803699 -0.33874481834032416 0.2912091137168291 -0.1357239109187132 0.004741218238790828 -0.03339454045020253 -0.22794844516676355
-0.2543761760020662 0.1385734389692439 0.08799412073897457 0.0975148666979096 -0.10135797895559065 0.2521725318598573 -0.027151389784768852 0.10273103263936208
-0.2777181213464856 0.20990481383623036 0.10500425786565591 0.15953412060840721 -0.10935510386110446 0.27614463162006747 0.2690683428330902 -0.09723401640920297
0.2379737922718217 -0.15081935833289736 0.09721890834905524 0.1709248642747423 -0.11122483204837737 0.2890711994559667 -0.006355078499618924 0.16802253723677493
-0.27903369993569804 0.03876017631939648 -0.1499721398557555 -0.10957028027532241 0.1051976631217053 -0.2515499581859057 -0.044512384792801785 -0.03704314296508276
0.11895165331301068 -0.2540974425293416 -0.054210853145814336 0.037034131938899574 -0.1512718412962952 -0.09868678691969685 -0.08514961988125101 -0.03072818380571882
0.21996382334340525 -0.2784365339440626 -0.07828259108475853 -0.1482250216732089 0.28119924036410415 -0.35965287766148235 0.17086875336253404 0.0011709879779417851
-0.20220897552111355 -0.07435705228774446 -0.16766688449241252 0.09710385310609916 -0.08148129903831486 0.34653559000014117 -0.1881989896868464 0.3336806053141866
0.04155222221797812 -0.02339959964243964 -0.05797783658524061 -0.04128660198241823 0.21678170428527457 0.05769395769116277 -0.15111423730598816 -0.3973693907095817
-0.026685209572344007 0.12637527044311483 0.13520933165089558 -0.0460822980542639 0.021289916722021008 0.33861559367834443 0.04693734755525443 -0.052963747459823976
0.24282851746194914 -0.2000481238460555 -0.0918755588407128 -0.0015106074289196398 -0.07912063642314152 0.20885294835408194 0.05282379418511554 -0.08592025396082108
0.013765411680827391 0.15884615492842646 -0.12777200517741605 -0.04457689450115493 0.05134061046391222 -0.29084532391214185 -0.045070850296612154 -0.044763924040277216
-0.04978220758230307 -0.1861842431734485 0.14059287341484278 0.1166239438389427 0.16454427113581516 -0.22736763376467756 0.170550927357932 0.3578863012207944
0.02277360684094607 -0.23054137388697157 0.04238329695779327 -0.21219803755409256 -0.17961618622428963 0.07515863884144387 0.3372754983630465 -0.26012796380641723
-0.1532950304675621 0.3243392482485646 0.28529854766376106 0.059094768616355244 -0.43440936919359585 -0.12596060348744262 -0.08198705591484153 -0.038164440610986776
-0.06685675610818671 0.00024849558050003655 0.07551507086532655 -0.028640929460379445 0.18634601544269677 -0.010084200343793275 0.11844611902528755 -0.14899750100579595
0.21932406445696143 -0.1899561093837393 -0.10933928639631764 0.06480926356536536 -0.06713084297044425 -0.2623399558062507 0.24329169095918418 0.07665460347081912
-0.28167466115500633 -0.1181798356038671 -0.019560292684700963 0.3147344278778579 0.18851286233197614 0.04983301397632308 -0.18512613078613638 -0.1492723123765461
-0.005975054274657165 0.019469758440729956 -0.2622352264396099 0.37912901513492353 -0.23587575031860047 -0.1687143293062596 0.19590737780380552 -0.05817171238588793
00000000: dde1 c447 3659 d2bf debd f2ea 2367 c33f
00000010: 25d1 b339 a22c c1bf 19bb ebce c536 be3f
00000020: 555d 41ea 56ff c2bf 8748 15a6 f4b1 c83f
00000030: 8af4 e58e 5d3a 893f 22ec d79f 61cf c6bf
00000040: e332 6ee6 4c6e c53f 979a 5d5a 910d bfbf
00000050: 6994 169d 60aa 963f 7a6b e612 d1eb b83f
00000060: 7f7c 25d7 0e8d b83f 3512 db0d 6d69 a93f
00000070: dec1 4582 5d6c a83f e93c 7e34 3c1c c0bf
00000080: 805f 4bc0 6838 b5bf ac27 f25c 42e3 cfbf
00000090: 6917 011b 6e94 c7bf 8f15 df77 e71e b2bf
000000a0: 50aa 3146 4941 d53f 86ca baca d154 913f
000000b0: ff67 ba4c c873 b2bf 0fa5 0dbf 3887 a0bf
000000c0: c251 b083 e421 b33f b5cd 6fb1 5cc8 c7bf
000000d0: 443a d334 66cf b3bf d60d 12b0 dd5b c4bf
000000e0: ae45 1676 1213 a7bf 7ddd 51a2 fb57 cb3f
000000f0: dae0 e521 90d7 b73f ee2a 5d70 04aa c1bf
00000100: 9857 29be 2068 7fbf 8445 3a41 0af0 c3bf
00000110: b29d bdeb ca0b c53f 1f26 8fad 883b ba3f
00000120: 13b2 137e 33d5 be3f 5762 5090 29e7 c6bf
00000130: cf4c 73c5 fb1c c43f 7404 7129 cbf1 b53f
00000140: 7d74 527b 3e73 ccbf 3c2f b7f9 2ede c6bf
00000150: 605f 8631 30be 983f f380 f567 b6fc bd3f
00000160: 7a3f 479a 10fa d23f 226a a279 fe09 be3f
00000170: 30f4 4269 cb8c a63f 15cd dd91 563e a4bf
00000180: 73ef ed25 085c b73f 1a4b ef5d 9415 c13f
00000190: 9593 8402 9da6 cb3f 89a4 08ed 6f19 d43f
000001a0: a5d5 3558 06ae b4bf 497d 46ef f597 c3bf
000001b0: 608b e7af 9e2d dabf 3f13 426c 9715 c93f
000001c0: dd7c 0b17 3881 c53f 9c8a 66a3 e107 d03f
000001d0: b724 95e3 7e1f d3bf 2b6f ab24 b14c d83f
000001e0: ad1a 9b17 2e04 a8bf cd18 f618 6536 c4bf
000001f0: 91cc d2f8 ec02 a9bf 9b08 fbce 155e d23f
00000200: a7c7 2c99 4339 b53f d2d7 ce45 3ad8 c1bf
00000210: 2824 a266 2e14 c23f 2b08 1fd9 61cd d2bf
00000220: 6e20 d3b5 283a cfbf 95cd 9964 120a c3bf
00000230: b51d ba79 0348 a03f af85 ba8c 4606 d03f
00000240: c296 f8df 8753 ce3f 349b 7fa0 cbe0 adbf
00000250: 99a8 dba8 3e61 c23f 932f a511 4225 d3bf
00000260: ebf2 ae44 f7da d33f 23b5 8341 89e1 c33f
00000270: 62b4 59c7 002e d0bf fcab a063 68d4 c5bf
00000280: 6f80 2f54 c2dd bc3f be59 ccf1 7912 c43f
00000290: 5432 7b99 d9f7 bebf f46c 0f77 2410 bb3f
000002a0: 738e 6f25 485e c33f 2407 d844 9426 d83f
000002b0: 4205 92b3 1310 b63f 7f9f ba7a d4a6 c2bf
000002c0: f79a 2506 d0c0 d7bf 2e36 8c44 22b9 a23f
000002d0: f497 7e62 fe54 d3bf 9461 60d4 e822 cf3f
000002e0: 5916 f7d1 49d7 d03f 3390 b0e7 d8de c2bf
000002f0: ef36 8287 53b3 d63f 1a42 45dd 7b59 c53f
00000300: 0e34 0c32 adcf c03f 32e5 cf6d fa2f cb3f
00000310: 39bc c415 a662 cdbf 93c6 8d93 44d4 cebf
00000320: d355 643e 5e36 c4bf 316e b473 5ee3 c23f
00000330: 9773 365e 633a c8bf d025 e6c7 6325 c9bf
00000340: 02dd bd97 1545 b7bf b062 63b0 40d3 ba3f
00000350: 8983 1dbf fead d5bf d07f ed8c 2ba3 d23f
00000360: f92d 57af 665f c1bf 93fc 7514 876b 733f
00000370: a277 32d6 1619 a1bf 8228 9526 6a2d cdbf
00000380: d4dd 3303 b347 d0bf b8cb 3b42 c6bc c13f
00000390: 856d d05e c886 b63f d460 57fb bbf6 b83f
000003a0: 0a8c cdb4 98f2 b9bf 1f68 5242 9823 d03f
000003b0: 0687 aaec 92cd 9bbf 156a 78b9 944c ba3f
000003c0: 4b24 2c3a 22c6 d1bf c38b 5933 29de ca3f
000003d0: 3747 791d 8fe1 ba3f 34fb 4d33 9d6b c43f
000003e0: bfef bb32 b2fe bbbf cb8b 7188 5aac d13f
000003f0: b8d9 366d 6a38 d13f f347 8918 54e4 b8bf
00000400: c068 8edb ec75 ce3f 2f5e d279 0c4e c3bf
00000410: b979 e99f 56e3 b83f 900e 11af dde0 c53f
00000420: a59f 2608 3b79 bcbf 683f f87c 2480 d23f
00000430: 092a 1c65 c807 7abf 4721 3633 c381 c53f
00000440: 322a ed29 b0db d1bf 17a6 5bb3 5fd8 a33f
00000450: 03ed fe7d 4932 c3bf 6d64 6542 cc0c bcbf
00000460: 6f2d b9ea 3bee ba3f 13fe edfe 6419 d0bf
00000470: 4873 e7c9 53ca a6bf 57f4 269f 51f7 a2bf
00000480: b5d5 c894 9d73 be3f eb49 6aeb 2143 d0bf
00000490: c4f5 b262 86c1 abbf 3dd2 0643 23f6 a23f
000004a0: 5f2e 962d e05c c3bf 240f 5e8a 8943 b9bf
000004b0: 5724 a890 5dcc b5bf d94d 0b82 3577 9fbf
000004c0: ec11 c849 c627 cc3f 3349 d377 e7d1 d1bf
000004d0: 3720 8ef0 530a b4bf 7a85 449a 09f9 c2bf
000004e0: 1887 4119 2bff d13f 8af9 dd80 8d04 d7bf
000004f0: 0cd9 ccfd 06df c53f d1e7 6ec4 7a2f 533f
00000500: 8611 69d4 fbe1 c9bf e785 cd53 1009 b3bf
00000510: 0831 c2c4 1b76 c5bf 3902 6851 ccdb b83f
00000520: aceb 9a5a f5db b4bf cbd7 7c9c a32d d63f
00000530: 0a31 ec8c e716 c8bf 1192 c8e5 055b d53f
00000540: ca32 0137 5546 a53f 7da9 d08c 10f6 97bf
00000550: a489 0d60 45af adbf 970e 8e7a 8423 a5bf
00000560: fd60 23bd 80bf cb3f 3ab3 ebfa 0f8a ad3f
00000570: c837 9819 b657 c3bf c5dc 6106 806e d9bf
00000580: 04ba 9919 5e53 9bbf 4dc5 c99a 102d c03f
00000590: 99fd c614 8a4e c13f e19a 2256 1998 a7bf
000005a0: adfa 3820 06cd 953f 3de7 30bd e0ab d53f
000005b0: 6aee 6b09 2c08 a83f 0a56 6d76 101e abbf
000005c0: a182 843e 0115 cf3f 73c1 c54a 2d9b c9bf
000005d0: 24c8 8518 2885 b7bf 5f86 4660 f2bf 58bf
000005e0: 0a48 e001 4041 b4bf 874e 6d83 b1bb ca3f
000005f0: c48f f368 b80b ab3f c363 d3a8 defe b5bf
00000600: db8b e147 0a31 8c3f 0ca8 4120 1255 c43f
00000610: 8069 ca43 d55a c0bf e853 1460 c8d2 a6bf
00000620: 1c61 cc05 5149 aa3f 556b 99b4 359d d2bf
00000630: bdc0 0dc8 8613 a7bf 3555 960b 4ceb a6bf
00000640: 9933 fab2 0d7d a9bf c4f0 baa1 e2d4 c7bf
00000650: 8a07 af80 f2fe c13f 4003 b818 11db bd3f
00000660: b8e0 a263 c90f c53f ca16 98f3 611a cdbf
00000670: 5903 a7df 9cd4 c53f 7b80 dbf1 9be7 d63f
00000680: ba13 60e2 f651 973f fb16 9c36 6182 cdbf
00000690: 5b27 a974 43b3 a53f 8efc c827 4e29 cbbf
000006a0: 6331 d5c6 a9fd c6bf 05fc d5b7 983d b33f
000006b0: 5a87 cdf8 eb95 d53f 6ab6 54c2 efa5 d0bf
000006c0: 2cae 3feb 2b9f c3bf 195b 0268 f9c1 d43f
000006d0: 48fa f3d6 5442 d23f 65d4 2465 ab41 ae3f
000006e0: 8acc 70f4 5ccd dbbf 0b10 4820 7a1f c0bf
000006f0: 457d d98b 1afd b4bf 6fb1 9620 4a8a a3bf
00000700: dd55 003d 861d b1bf e0f2 3564 1049 303f
00000710: 54c1 b8a7 f454 b33f 62ff 6f3d 0c54 9dbf
00000720: 4f7c 08ad 2fda c73f 6996 7675 06a7 84bf
00000730: 673e 8d1f 7c52 be3f 2eb8 00a1 5912 c3bf
00000740: d1c2 089a cf12 cc3f 6c41 bd56 7b50 c8bf
00000750: 417b 3dd3 a8fd bbbf fbb7 7d03 5797 b03f
00000760: 8068 1ca7 7c2f b1bf bccd a786 2dca d0bf
00000770: 3e74 07a0 2e24 cf3f 62b9 fed6 a29f b33f
00000780: d572 7128 f506 d2bf a61b f7a0 0841 bebf
00000790: 461f 8605 9d07 94bf 6c48 aade 9b24 d43f
000007a0: 0bac 4b81 3021 c83f ab2e 947a b683 a93f
000007b0: cc44 ae8a 36b2 c7bf 0a83 ede9 5a1b c3bf
000007c0: 7f40 396b 4c79 78bf 404a 0e5f e1ef 933f
000007d0: b3b4 5a42 76c8 d0bf 2307 3e58 a643 d83f
000007e0: 4ad8 c434 2d31 cebf af54 5e5f 6e98 c5bf
000007f0: ec31 5b32 7e13 c93f 92d9 7fc4 aec8 adbf

layer1.bias f8 [80]
-0.09728175782250835 -0.12349309267511421 -0.12308433616329935 0.0652971871363342 0.023774947334385347 -0.04090446827135841 0.012045982977013142 0.01552829751073179
0.04495946403891689 0.05838843850902236 0.04165210116082995 -0.018325059212372163 -0.013846793602885566 0.05826636793531989 0.02806961518059389 -0.025435526168485892
-0.03266217349890659 0.07672517892236987 -0.12550039649036573 0.011304050529892012 0.12659102223156035 -0.03572997044459959 0.10095861170554041 -0.13227039620930578
-0.07654656580075549 -0.11326988802050636 0.12292163756726891 0.15787519642231757 0.021502957508052117 0.02842805065783478 0.049555681981222205 0.015047333567889015
0.008890574839309669 -0.06554291348538424 -0.005480173433657999 0.1318245546799752 -0.06580780539784584 0.07822539727378179 0.007246223571280998 0.028093465524988058
0.07964473315383108 0.030771593334054926 -0.0009154690766559205 0.05827484463588084 0.02042772449527026 -0.11215420101502725 0.1124471317446467 0.062306865624589876
-0.04152166048433802 -0.01082193431158794 -0.04440428460641191 -0.004839321500900077 -0.04278525270078895 0.022532219408554044 -0.06570305777583865 0.06258825116831866
0.062184750296635435 -0.11001521279921467 -0.03488474283613571 -0.21661790701441397 0.09680672346447158 0.06448300903893689 0.028725240187215728 -0.07961452514692516
0.045004013033084066 0.0019885881308049024 0.006247361937177461 0.021601924545856053 0.07072785674647855 0.04797252646583314 0.061905973514639875 -0.01957513822786265
-0.06650531484385795 0.05111778241285579 0.047640966185063374 -0.10550301634345186 -0.028754547415736534 0.08160810716167936 -0.026384358404093828 -0.01031558343649736
00000000: 3756 5810 75e7 b8bf a84e 524a 3e9d bfbf
00000010: 3da3 787e 7482 bfbf 0477 4503 51b7 b03f
00000020: c1ac 0fb5 7558 983f c0b4 f832 6ef1 a4bf
00000030: ddbd 7977 90ab 883f f2ea c4cf 4ccd 8f3f
00000040: 6abb 6247 ed04 a73f 47b5 b8e3 16e5 ad3f
00000050: ff44 9798 6c53 a53f 63bf 0ee8 cdc3 92bf
00000060: cd4b 6e2d b55b 8cbf 5c51 7ae1 16d5 ad3f
00000070: f70a d9fc 47be 9c3f 6467 3344 c50b 9abf
00000080: 47f8 fcad 18b9 a0bf f956 40e6 42a4 b33f
00000090: e5d3 47a1 6510 c0bf 76ab b4fa 9326 873f
000000a0: 4bd3 3976 2234 c03f 32dc 17dd 324b a2bf
000000b0: 265d 866f 6cd8 b93f cb55 f980 3cee c0bf
000000c0: 5940 bc44 8e98 b3bf a46e ab60 41ff bcbf
000000d0: b77a 52dd ca77 bf3f 0ae1 bd22 4135 c43f
000000e0: c8b4 0e0d df04 963f 932d 752f 3e1c 9d3f
000000f0: 6472 e1c2 5c5f a93f 4358 87ec 22d1 8e3f
00000100: 4478 6bc1 3835 823f 127f e79d 6bc7 b0bf
00000110: db93 c8da 6072 76bf 4f83 9483 a0df c03f
00000120: 0a5a 01c4 c7d8 b0bf 8beb 0163 9406 b43f
00000130: 6868 2154 37ae 7d3f 86fe a48e 88c4 9c3f
00000140: 04c1 31e4 9863 b43f 8df3 0fac 9682 9f3f
00000150: 8686 53df 82ff 4dbf 50fb c74f 33d6 ad3f
00000160: 9337 8e62 01eb 943f 07f3 7741 23b6 bcbf
00000170: 7f4c 5fd1 55c9 bc3f d106 597c afe6 af3f
00000180: 9f31 b6bb 5342 a5bf b7f3 946f cf29 86bf
00000190: 44a6 5f8c 28bc a6bf 9e93 4c79 65d2 73bf
000001a0: 34b4 33da f2e7 a5bf 9038 dda5 af12 973f
000001b0: 12f9 6464 ead1 b0bf 2fbb e19b c805 b03f
000001c0: d6fe aaf9 add6 af3f d0fc 08fd f429 bcbf
000001d0: 0c9d 38bb 69dc a1bf 9c6c 2db5 22ba cbbf
000001e0: 0e15 504f 53c8 b83f c84b f85e f581 b03f
000001f0: 3002 b23c 266a 9d3f b2e8 ca15 9e61 b4bf
00000200: cbea 5418 c40a a73f b3ac 951f 5f4a 603f
00000210: 09a1 4d73 d596 793f b908 d29d d01e 963f
00000220: aa6d a487 381b b23f 6cf3 8de0 da8f a83f
00000230: 7e47 58c7 23b2 af3f 0c6e 034a 810b 94bf
00000240: c3b9 4308 7e06 b1bf ee1d 6a27 1c2c aa3f
00000250: baeb 6d8f 6564 a83f 1211 d3e4 3e02 bbbf
00000260: 9427 0c03 d571 9dbf 6b0e 59d7 44e4 b43f
00000270: a5d7 e251 8004 9bbf 63c7 fd2b 5620 85bf

layer2.weight f8 [80, 80]
-0.0594147014844358 -0.07501925334591424 0.18046775467809795 -0.20408690264415014 0.005124447240858787 0.05737830849170463 -0.23935291806744946 -0.032571527726419275
0.11731535762717724 -0.2366067924255037 0.028763026283742065 0.02432164087306606 -0.16680130300377957 -0.14575247734829766 -0.022437115773839146 0.09067421340159502
0.11701873905573693 0.14080567661141874 -0.01064540722448614 0.010070399410369956 0.1178857356264416 -0.16883628493867983 -0.06939456581265499 0.14600296739692142
0.12434544538415146 -0.1278333922587106 0.21367852046548863 -0.10143491975845145 0.13417265542116974 -0.01162582247926084 0.23238598246965045 -0.13086805917380337
0.011420169482376572 0.21936320561776643 -0.11663948015769014 -0.18508508155125775 0.10361074238282075 -0.2381374246445675 -0.16749637554098534 0.08391831321927289
-0.16495060918536458 -0.022773512497585625 0.0692534538687942 0.26419594203475344 0.001554833491586404 0.07585359165858849 -0.3778187396315635 0.005285519903575536
-0.24534052642483842 -0.23397963357529128 -0.028981769434687648 -0.10943604382622157 0.16633502968011077 0.1069636121265359 0.09249030539790647 0.0522955021979547
0.280460075981798 0.1880656551087596 -0.31920429485290763 0.017326055271470926 0.333316902001971 0.14294420717353135 0.0492194526908049 -0.1328931153957384
0.13228607066455364 0.10875904614080242 -0.26064933327768147 -0.20532162979508709 0.09730889495792108 0.07416901599495204 -0.013194570875205314 -0.2317774320034838
0.13191697467718308 0.06131756022839452 0.2883398177870484 -0.11113213442089331 -0.018326391745391017 -0.07136491600033623 -0.0025173763451638385 -0.09548145789540591
-0.0057081963969194665 0.01983625163010558 -0.13491919795060536 0.140216998843049 0.0030651776880781948 -0.11260406696392194 0.3873934678618774 0.12164446953433213
-0.6625475582399227 0.21120206023731675 0.15482988733645905 0.13615821325549773 0.0758753124420644 0.11396521720656945 0.27904617132130594 0.04169337302957819
-0.10896799056011447 0.017285254435026168 0.1401144945450219 0.07741697650590423 0.180624849028891 -0.11172752847305412 0.029025276408121078 0.10591360607713152
-0.07072678477498134 0.12174026287886952 0.16527775391983168 -0.07314216964179387 -0.2924311809638788 0.18583201038344632 0.19358129380810438 -0.16579123408193625
0.04062882572928138 0.151480613626789 -0.21296331931695117 -0.08230328909994972 -0.03932672681011576 -0.12237653436702495 0.1387975457908133 0.17932886881288213
-0.3524810392625797 -0.1526797755440016 -0.11394773405663614 0.12879939570178273 -0.07418804408772896 0.05893741537347745 -0.18678691968219055 -0.18243516920835956
0.10561875955439229 -0.22558325205188398 0.012210642654787572 -0.14162730969802664 -0.11711949259470604 0.12401011764625038 0.10284417937785588 -0.053118261096452464
-0.3006798109994404 -0.14931761759643816 -0.11717802793308033 -0.13598748166372038 0.03758005193082453 0.03892027267174262 -0.0044763375482976065 0.08592861296042373
-0.22740265895304057 0.204222323123279 0.08266804180479391 0.24920481682198437 -0.09500267290699572 -0.02276059064475612 0.23094320534625062 -0.4386337594484551
-0.23887797929124685 0.02637983755745795 -0.049670755635672796 -0.031233826013363605 0.14187950025447535 -0.1263000959594568 0.05007393210218431 -0.04447006903826391
-0.045718211999910656 0.018462613759345107 -0.05662957267452256 0.25184831926694723 0.18047175719140615 0.06934964864005222 0.23591895080085745 -0.05113990938906044
0.2292597444609394 0.1093722708725417 -0.1569423795370606 0.23153549520577196 0.22878137750125926 0.08284920678368027 -0.022051883932741854 0.12240346118083949
0.1642548916775282 -0.04536592579988791 0.12488057242849013 0.02543771328314656 -0.09346480512130602 -0.15106020091092393 0.0828642635297911 -0.10421034560691611
-0.11481727196791706 0.11917786766216053 0.09097575924537629 0.16728108459701407 -0.10160935195756325 0.1284858587182562 0.02346673951969838 0.15551912376187768
-0.21446716392587534 0.21335925130935673 0.028005284947865392 -0.0047694309918872805 -0.0036987843184871027 0.07557352458277143 -0.04264755908076122 -0.07037486222399451
0.15593804675794506 -0.09855063387387736 -0.14574953716839303 -0.1323240800311143 0.06754709349635393 -0.17628930375283738 0.08642656947000629 -0.19077206834557084
0.05226974758883812 0.09005619104125728 -0.011860210708557636 -0.028566944913254535 0.0813325023022912 -0.0040520812753982545 -0.19315331276935754 0.0971919205556335
0.1497347642089264 0.12248006385231443 -0.20283048921409425 0.11345950045795472 -0.20338443100091375 0.23387094436132805 0.2735262488916188 0.08104909882678939
0.10104175661784236 -0.016498666266542457 0.03630174087404742 0.2030275227538754 -0.19509582325999023 0.21699480218419998 -0.164329509354918 -0.05424313279095812
0.08517340061759772 0.10062423883200049 -0.12427676651505455 -0.17371942366893803 0.23690660202855118 -0.04578378382488862 -0.0373437467587064 0.018135959308267977
0.04164283248027943 -0.08103473844602177 -0.13645120465761673 0.25315581176298413 0.1941237681455767 0.23004283401796605 0.21298388114591338 0.24052160749540877
0.04236928401365673 -0.21918282172722925 -0.02595749322212786 0.05915617907180367 -0.013227332146263855 0.20960492599670774 0.23578201991950032 -0.13596087231237539
00000000: 4af4 8d8f 9a6b aebf 03e8 b037 7634 b3bf
00000010: 0099 2940 9119 c73f 0a04 3306 851f cabf
00000020: 66fb f354 5ffd 743f cb7e f18c b060 ad3f
00000030: 72a3 a6cd 1da3 cebf b440 bb1c 37ad a0bf
00000040: fec7 5318 6108 be3f d64f bda1 2149 cebf
00000050: 2301 e404 0e74 9d3f d51c 8ab0 c5e7 983f
00000060: f76b aabe be59 c5bf 40ce c265 04a8 c2bf
00000070: aa5e dc59 c1f9 96bf 037f 26dd 6c36 b73f
00000080: e277 43a9 f0f4 bd3f a08f 11a0 eb05 c23f
00000090: 7cdd 0d5f 42cd 85bf 1967 0021 ca9f 843f
000000a0: 3333 2e73 c22d be3f 4b4a 1869 6d9c c5bf
000000b0: 267b af9e d7c3 b1bf 905b 0ba9 39b0 c23f
000000c0: 2edc 5465 1ad5 bf3f 5c40 8b37 d85c c0bf
000000d0: 6ce3 a058 d159 cb3f 62f1 088f a3f7 b9bf
000000e0: 5094 86cf 912c c13f 5441 b37a 47cf 87bf
000000f0: e3c3 60e9 d2be cd3f 8709 1fd9 48c0 c0bf
00000100: 855d 8833 7563 873f d379 09f1 1714 cc3f
00000110: db20 b3c0 15dc bdbf 12bd 1e32 deb0 c7bf
00000120: 406a 0cce 3b86 ba3f 9eaa 6681 497b cebf
00000130: 12d3 926f 8570 c5bf 5ff0 cfaa ab7b b53f
00000140: 8205 f4ff 191d c5bf fd96 918d f051 97bf
00000150: 5663 8027 98ba b13f 839c b118 96e8 d03f
00000160: c94e d0bf 7179 593f ce30 7517 246b b33f
00000170: ef24 a2a6 2e2e d8bf 202a 0df2 44a6 753f
00000180: bd65 b080 5167 cfbf 7866 116d 0bf3 cdbf
00000190: 3bd9 9b9f 65ad 9dbf 0cbc 3c25 0004 bcbf
000001a0: badf 535c 774a c53f 560c f29f f761 bb3f
000001b0: 2f8d e1d4 71ad b73f b812 56df 79c6 aa3f
000001c0: 5a3b 8bd1 0ef3 d13f 30b2 180f 8912 c83f
000001d0: e3b3 c8d9 d76d d4bf 45e3 09e3 ebbd 913f
000001e0: 335c 536a 1055 d53f 7642 7beb fe4b c23f
000001f0: 179f 44c7 4a33 a93f fe7e 3e40 a402 c1bf
00000200: b73c 9cfd bfee c03f 86a3 5102 a2d7 bb3f
00000210: dab7 898a 7aae d0bf 09cf 90aa fa47 cabf
00000220: 8244 7459 3ce9 b83f 6627 139a bdfc b23f
00000230: 206c 2653 c105 8bbf 21f2 3305 e2aa cdbf
00000240: 274c 03ca a7e2 c03f 30f3 b3e7 0365 af3f
00000250: 10eb e1d9 2874 d23f 7056 dfd2 2773 bcbf
00000260: 2ef1 cc54 27c4 92bf 90a0 4d9c f844 b2bf
00000270: 54de 5f22 529f 64bf dc00 090b 7971 b8bf
00000280: 1eac 804d 7a61 77bf b92a 1b50 f44f 943f
00000290: 8473 6643 0845 c1bf a6e4 2f70 a1f2 c13f
000002a0: a2ba a7bd 241c 693f 14b3 01c1 9ed3 bcbf
000002b0: 8da6 c9f8 0dcb d83f 3da4 638a 1724 bf3f
000002c0: 88ec d5ef 9633 e5bf a696 c84a ab08 cb3f
000002d0: a7d7 463b 77d1 c33f e1cf 81e0 a16d c13f
000002e0: d32f 8381 906c b33f fda3 c810 d32c bd3f
000002f0: 9489 f978 e4db d13f 6e72 3e73 d558 a53f
00000300: 343b c483 53e5 bbbf 0483 01ca 39b3 913f
00000310: b01a e291 45ef c13f cc80 3f56 99d1 b33f
00000320: 6d46 b60d b71e c73f 10cc dae0 2c9a bcbf
00000330: ef90 b853 cdb8 9d3f 307e 4d72 271d bb3f
00000340: 744d 8f8b 261b b2bf f0d2 abaf 5e2a bf3f
00000350: 14c7 eb49 d227 c53f c8ea 91fa 71b9 b2bf
00000360: 5b83 a445 31b7 d2bf 78cb 92e3 57c9 c73f
00000370: 6bf7 0297 45c7 c83f f635 2cac a538 c5bf
00000380: 8e75 902b 4dcd a43f 28a6 c07c b763 c33f
00000390: 6a61 dbcd 6142 cbbf bc9a 090f d411 b5bf
000003a0: 542f 04fb a122 a4bf 2479 e78c 1154 bfbf
000003b0: b1e2 f733 1ec4 c13f 24d7 6395 3ff4 c63f
000003c0: 9cf1 05a2 0c8f d6bf 056e 5cc9 028b c3bf
000003d0: aeff 39bf ad2b bdbf ee50 24a4 7f7c c03f
000003e0: a16a 1cd7 fcfd b2bf a667 147f 0b2d ae3f
000003f0: e183 ad3f a2e8 c7bf ccef b11e 095a c7bf
00000400: f254 21be d409 bb3f 0b49 0b79 e9df ccbf
00000410: cc73 ecb6 e401 893f 75ce affb d720 c2bf
00000420: bb1a 6b06 8bfb bdbf 09ec a987 20bf bf3f
00000430: 8308 0303 ff53 ba3f 0195 7514 5132 abbf
00000440: fcd7 b388 563e d3bf 098c 25f6 d61c c3bf
00000450: 6248 c815 61ff bdbf 3a9e 34ad 0968 c1bf
00000460: 28bc 0c4c b13d a33f 4596 8da4 5bed a33f
00000470: a941 03b6 c755 72bf 3ea6 74e6 6aff b53f
00000480: 2c06 9dc3 871b cdbf 83bc 7603 f523 ca3f
00000490: e7d7 f997 bb29 b53f acc7 2085 f1e5 cf3f
000004a0: b10a 2b5d 1852 b8bf 04d6 d361 8d4e 97bf
000004b0: 1208 1905 8c8f cd3f 592b f054 9312 dcbf
000004c0: 232e 65ba 8d93 cebf 7611 55ee 5003 9b3f
000004d0: 5faf 0bfe 716e a9bf cf80 0695 c2fb 9fbf
000004e0: fb6b c882 1b29 c23f dc52 d0fe 992a c0bf
000004f0: 99a2 8559 4aa3 a93f 3225 57e8 c7c4 a6bf
00000500: 5f0f bea2 6068 a7bf 0126 2e09 dde7 923f
00000510: 473f 3f25 8dfe acbf 7576 b369 481e d03f
00000520: 1b8f 7ed3 b219 c73f e0ea e508 e6c0 b13f
00000530: e020 1999 9732 ce3f b15d b19c 022f aabf
00000540: efe0 5f20 6258 cd3f 3ca0 7c36 d2ff bb3f
00000550: 89ea bb19 b016 c4bf 6fcf e281 f4a2 cd3f
00000560: 609f 264b b548 cd3f baac a209 9b35 b53f
00000570: 69aa 39e1 c494 96bf 7b5c b04e d555 bf3f
00000580: c943 fbe5 4d06 c53f 9899 53df 333a a7bf
00000590: a672 7c56 2cf8 bf3f 1768 8b0a 580c 9a3f
000005a0: 9db1 5239 4fed b7bf aade 51cf f055 c3bf
000005b0: 9c19 dea5 9736 b53f 205c 497a 87ad babf
000005c0: 833e 1e2c aa64 bdbf 4718 04d4 7082 be3f
000005d0: 8a0a b0f6 2f4a b73f e8b2 ca71 7769 c53f
000005e0: f71f a00b 1203 babf e7c0 9880 3972 c03f
000005f0: 8798 1f3b aa07 983f 13dc 3af7 0ce8 c33f
00000600: 1a52 90f7 a873 cbbf 181c 561f 5b4f cb3f
00000610: c96e dddb 6aad 9c3f da48 1762 1c89 73bf
00000620: b3fc d9b5 e94c 6ebf c7c5 8658 c958 b33f
00000630: 2e1f 039f e6d5 a5bf 7b6a b643 1604 b2bf
00000640: e384 8325 c7f5 c33f 0406 7d45 9d3a b9bf
00000650: 29cf c5bb eba7 c2bf 707c 1ad6 feef c0bf
00000660: bab6 812d c44a b13f d563 20dd a590 c6bf
00000670: ea0f 6139 0d20 b63f 9d6a 4419 386b c8bf
00000680: 28b0 edb0 19c3 aa3f 4814 532b ec0d b73f
00000690: de75 ef88 2a4a 88bf a7a3 9838 a740 9dbf
000006a0: cb7c 7df5 34d2 b43f 8be6 ef48 ea98 70bf
000006b0: 7cae ba6c 3fb9 c8bf decc 38d8 91e1 b83f
000006c0: 9001 ad3d 822a c33f dd5d a87c da5a bf3f
000006d0: 1232 e776 59f6 c9bf 782d e38b ae0b bd3f
000006e0: 1c0e d543 8008 cabf f81d c2ac 7bef cd3f
000006f0: 6092 653d 7481 d13f 33d2 d43c a2bf b43f
00000700: f33a 3460 dfdd b93f b26f 2bc0 06e5 90bf
00000710: 880d af4b 2496 a23f a138 354d cefc c93f
00000720: 0172 3e62 e6f8 c8bf 8c3d 6455 7cc6 cb3f
00000730: 893a 39d6 bf08 c5bf ea4f bd82 c1c5 abbf
00000740: b145 248a eccd b53f d3e4 f796 82c2 b93f
00000750: 9db4 d527 9ad0 bfbf 7545 ab25 703c c6bf
00000760: 8ca5 f59d f452 ce3f 7718 6edc f870 a7bf
00000770: 0ad7 1336 b81e a3bf 8940 71a0 3b92 923f
00000780: ce30 3b97 3552 a53f 1430 774f b1be b4bf
00000790: d08b c0aa 3b77 c1bf 4b1e 146f b433 d03f
000007a0: 7ee0 c731 0cd9 c83f 26a6 6428 0b72 cd3f
000007b0: 8c65 0c4a 0e43 cb3f dd49 167b 69c9 ce3f
000007c0: 651e 6342 6db1 a53f dceb 94c5 2e0e ccbf
000007d0: cd95 e6e1 9994 9abf ab7e f0fc b749 ae3f
000007e0: d72d da77 ee16 8bbf 0b41 1e8f 55d4 ca3f
000007f0: 6400 45f0 1a2e ce3f 2b03 0f76 2a67 c1bf

layer2.bias f8 [80]
0.0883215351771735 0.0017898510924340802 -0.011875697612472334 -0.024221250135667696 0.030167932157069595 -0.017423418023902956 0.021869562185875765 0.0276179259853245
0.026125125708045524 0.03485473876905324 0.03164043539441118 0.016275300921067118 0.008028896107725137 0.042239022951813136 -0.0197558374143817 0.019900473054683118
0.05688790534190284 -0.03142291175404451 0.018320231652849846 0.12246900505473916 0.03689921910210229 0.004156696832281296 0.010711257213675702 -0.004595330808660006
-0.013853619078481351 0.0809746457917996 -0.022915166474687484 0.0468674216597599 0.0015741985620786267 0.0874169320573112 -0.020226229382793944 0.015825910034918234
0.046294050412667015 0.08125346473463313 -0.0035041659129174565 0.05479711065485102 0.045715791919223696 0.03573534479409289 0.020511674927583903 0.0011694745761993144
-0.01770849104844769 0.04529933654494553 0.08978188183222839 0.010907609277945493 -0.0014375064940680032 0.03973288368177468 -0.022164108241082416 0.00348538911736549
-0.013389526666867999 0.0673135340234118 0.07918831788507982 0.031224073201284553 0.00612381492351253 0.00013300548340044793 0.006935152156552603 0.055911776509776176
-0.005396519156993177 0.0049273232636347745 0.042021858636354534 0.008737557639343434 0.09250784287827031 0.03388285011975352 0.05720436511711364 0.016448136445110034
0.03566856297964969 0.08748278333678206 0.06381766053228363 -0.045008945664236966 0.08799340486848453 0.0262225714289536 0.045886503850330794 0.01771700925694868
0.05581896905203131 0.04274542598142937 -0.00758008098739915 0.022428467272223543 -0.023562757386428212 -0.0393202196372454 0.03214620566976762 -0.00549288784503702
00000000: 4c54 1e79 3d9c b63f 329b 07fa 2d53 5d3f
00000010: 8ceb e626 4952 88bf 27c0 cd94 74cd 98bf
00000020: 429f 02a8 57e4 9e3f 6f88 63ca 71d7 91bf
00000030: 7ff6 7679 f964 963f 57af 8fa3 df47 9c3f
00000040: 4c6c 1482 8bc0 9a3f 8556 3ff6 7ad8 a13f
00000050: ce19 80d6 2c33 a03f 2411 c1f4 78aa 903f
00000060: ad31 a531 7471 803f efd4 626c 5aa0 a53f
00000070: 6242 66ce df3a 94bf df77 c723 ca60 943f
00000080: 367c f659 6920 ad3f 5b4d a8f4 a916 a0bf
00000090: ef6e 37ef 89c2 923f ebd7 7bf3 205a bf3f
000000a0: 453b 9556 74e4 a23f 2aba 43cf 9c06 713f
000000b0: b749 749b c8ef 853f 5d95 99b8 8dd2 72bf
000000c0: b48e fc46 495f 8cbf 6920 7b1f c1ba b43f
000000d0: dc5d 5dca 1277 97bf d392 8db6 01ff a73f
000000e0: e5c1 dbd5 aaca 593f ab84 4dc0 f460 b63f
000000f0: 3fc9 e146 2fb6 94bf 301e 1ed8 aa34 903f
00000100: c426 0b91 dab3 a73f f8d0 b8ed 06cd b43f
00000110: e716 ddbf c4b4 6cbf dc12 5bec 5d0e ac3f
00000120: 5f59 686e 0f68 a73f 1e61 6732 e74b a23f
00000130: e728 0034 0301 953f 01da bac3 2129 533f
00000140: b28a a8b7 2c22 92bf 6c69 fb81 7931 a73f
00000150: 5b25 3e06 f2fb b63f 25b5 0289 ba56 863f
00000160: 4fcd 4ed8 568d 57bf 775d fa57 de57 a43f
00000170: 876c 2920 30b2 96bf cec0 bb08 648d 6c3f
00000180: 051b 25d9 f76b 8bbf c96f 35b3 753b b13f
00000190: deaa 8a83 af45 b43f 8d5d fd14 34f9 9f3f
000001a0: ea00 2c0d 4915 793f ae0f 1d67 ec6e 213f
000001b0: ff67 48bb 0868 7c3f 4e39 24e7 77a0 ac3f
000001c0: 3714 aa14 a91a 76bf 8cd7 6244 ac2e 743f
000001d0: bedc 1e99 e383 a53f a991 7622 ffe4 813f
000001e0: 2922 c90f 98ae b73f 8ab8 51ca 1759 a13f
000001f0: d99e bbfa e349 ad3f 2894 72c0 c7d7 903f
00000200: ed5e fc5e 2643 a23f 1800 658d 4565 b63f
00000210: 16b5 e4ac 5a56 b03f 9088 4f9b 690b a7bf
00000220: 0280 2c5c bc86 b63f e948 d1fa 16da 9a3f
00000230: 93da ba92 6f7e a73f 6db8 5d5d 6824 923f
00000240: af5a 26cd 4d94 ac3f cea3 497d bae2 a53f
00000250: fe10 127f 4a0c 7fbf 5403 bcf5 7cf7 963f
00000260: e05e 83e1 d520 98bf 0eb7 d3a2 c721 a4bf
00000270: 9993 15ac 7775 a03f a600 7bda b57f 76bf

layer3.weight f8 [80, 80]
-0.11768455576201808 -0.19742292255746152 0.028650404510694265 0.013360026096222374 -0.05643291258939676 -0.11317255503489329 0.034521438681573265 -0.06292600801087311
0.11006955747563976 -0.04063701263026323 -0.030355833858060583 0.08820806222003046 -0.20480100397751205 -0.07480399525321058 -0.05990938627282106 0.11256242701976235
0.044266266655135944 0.17459249424796597 0.08799113566034863 -0.020198938076437068 0.1345137082604145 0.00797394762239023 0.14243652747748067 0.15494447543921955
-0.048441077730222985 -0.17164962344197982 -0.16041262134117024 0.008287660766302912 0.06170071672530421 0.06092826928101973 -0.16062794451016268 0.21765012685986693
-0.22755860739102177 -0.24750399411338564 0.17127582287526397 -0.10107276998968162 -0.18360201610339377 0.1172494617320071 0.018994338074060237 -0.03869627539371024
0.16383876481755064 -0.03945895729497926 -0.16426491756720996 0.14366126493816156 0.1408420041908423 -0.05724943569967881 0.16602159847271084 -0.06804855841488788
0.15628513838881194 -0.30702302552173905 -0.015156972408213058 -0.12144070873405445 0.15971451701560124 0.02623719207437251 0.1974394645985399 -0.009014297631274813
0.03560098183429829 0.028194603799256986 0.19878479738114707 -0.17129806257347074 0.08312888288891418 0.12229541509297831 0.22738092794101725 0.0736736815207141
0.22448269406180776 -0.16268963461635758 -0.17400896645566852 0.08912481658723187 -0.2639479820496795 0.15254773207392372 0.15959282764715482 0.15843116216459274
-0.04751527792118539 -0.3713257620128531 0.04732007299811855 0.014002263568022349 0.04987451582193577 -0.10046387372931831 -0.21073094185047142 -0.0852301871417577
-0.020802016255485053 0.006704026567268233 -0.09247230404674217 0.27630931186851987 0.10701346199074176 -0.12751799709808506 0.08499346681772674 -0.1604697183409623
-0.10330219851567062 -0.07432594377133828 -0.03162232860099134 0.06740569937930063 -0.22938421808202675 0.11753015906929679 0.10552669546884139 0.20577222644356663
0.11150500453746637 0.08805737170180346 0.0015770778911595594 -0.012742723153962656 -0.10158432333498321 0.3235435948777254 -0.13376071182637111 0.17832032655054092
0.03829844304666953 -0.03120342034920666 -0.22611224502440921 -0.1477424760110697 -0.06317559104678501 -0.18960519672980045 -0.1559117989327213 -0.06187583896313359
0.04274942541350053 -0.0898189770304123 -0.08733134993571237 -0.08121101756810567 0.0545053394005215 0.03608423449877089 0.23826922813640197 -0.19581761959210783
-0.007861679859673794 -0.16062039412269202 -0.4433085758756055 0.2497567521944642 0.2988751423753498 -0.02523127407180895 0.04344731422552678 -0.017010112703509245
-0.04459615681013052 -0.12113281760881262 -0.13610908498649027 -0.20949059414375412 0.06538373029847463 -0.031919288823869296 0.27733533411203376 -0.07341016373857136
0.15088081525180105 -0.07782540466440684 0.08429622233897785 0.05428481385071306 -0.13104418457667727 -0.04127718890212217 0.12633170461260862 0.19262904299148534
0.1869673588428187 0.15874824212405328 -0.19327227639432962 0.0579559971248671 -0.29140168488117496 0.019196080882798266 0.06802924302791775 -0.03557255759181541
-0.09900119730455334 -0.39344645092115454 0.0006042982228045299 -0.23834060519006514 0.18404438922799715 -0.027231003492335353 0.16487310771583577 -0.1050615142896317
0.034830159554595716 -0.049716153452182 0.13893177902715684 0.11740064368601406 0.025264475543519637 0.35910633678730003 0.32034248270919174 0.02923742785620027
-0.11574703677519492 0.2006606224671545 -0.07635582224736485 -0.018671947171337768 -0.10988955836746417 0.08192235656937233 0.1457562093431116 -0.11818850813912624
0.26356620519428786 0.1379116467103191 0.06218766207206155 -0.03209293636334044 0.060337322631054915 -0.010858223460274853 0.0430878994117645 0.21109769098981832
0.09648046322088293 -0.1310597115070311 -0.15350620516939492 0.055435830550310296 0.07389074505989139 -0.18606213976074457 -0.04888448367988287 0.0893907476663315
-0.0012061733685150885 0.05402152856607053 0.09186389898120505 -0.16102867599953571 0.14542134190805353 -0.09354923929589846 -0.026279693635886066 0.024060681308029977
0.099342253060568 0.03587685491498943 -0.017360170117176946 0.17750583924818567 0.08598256428831028 0.006496417297361175 0.1182534181362604 -0.13606114012315798
0.18073355953620354 -0.09244565637279285 -0.01599985992591514 -0.04773344368625638 -0.1473256065625484 -0.024673605211108337 -0.07526345036548873 0.094212544038719
0.12833567077626234 0.19183821122432096 0.11854268971356607 0.0002989675813499117 0.08286090089706613 0.02103876564174072 0.15670028753738668 -0.010458724664889231
0.18954780789773337 -0.12947460374663766 -0.10181464755987757 -0.11147775392387205 -0.31172943944343734 -0.07791099205777569 0.0631420510735907 0.11310439762388028
0.06976060880150341 -0.1857005089068173 -0.22358359307196693 0.09951063932741093 -0.005085957781787686 -0.06942690183860341 0.22179649031789742 -0.10234100549807945
-0.06380798486091346 -0.19876151575671827 0.11589539798764294 -0.0424262744651415 0.19807210070695005 -0.390829276169153 -0.3403624863589667 -0.027921851227283582
0.5561179458008458 -0.12941141929680774 -0.20810248645127302 0.1025059816682384 -0.04312214247062332 -0.004199825714468554 -0.050927147490525335 -0.07301632551034144
00000000: f0fd 3d36 9320 bebf 90b9 ee81 2745 c9bf
00000010: 2bfa 8f19 8856 9d3f 987f 4159 805c 8b3f
00000020: e19d fa53 c6e4 acbf 06fc ad66 e0f8 bcbf
00000030: 59e4 4b44 cbac a13f 107b 793a eb1b b0bf
00000040: ea9f a4bd 842d bc3f f41b 82e0 5fce a4bf
00000050: 9518 a786 9915 9fbf 2b83 7ab6 cd94 b63f
00000060: 96bc 2257 eb36 cabf 7801 39c9 5a26 b3bf
00000070: 01c8 876d 71ac aebf 86ea ce26 e4d0 bc3f
00000080: 281c 336f 11aa a63f c806 76fe 0b59 c63f
00000090: cec4 ff49 9686 b63f 6d14 cfc9 07af 94bf
000000a0: 13cc ebc4 be37 c13f 3fc2 1022 a554 803f
000000b0: 4bc3 a231 5c3b c23f 9189 5a77 38d5 c33f
000000c0: 2fc3 44d9 44cd a8bf 12ea 8667 9df8 c5bf
000000d0: 9652 4399 6688 c4bf 70e7 9cff 1ef9 803f
000000e0: 922b f380 3c97 af3f 367f ed77 fd31 af3f
000000f0: 4b57 3fdc 748f c4bf 2fac 6a98 f5db cb3f
00000100: 9578 55f4 a320 cdbf c855 2cfc 35ae cfbf
00000110: af20 ecbc 5dec c53f 202f 9fb1 e7df b9bf
00000120: 2066 5257 4580 c7bf a6d1 9c8b 0f04 be3f
00000130: ba59 5973 4073 933f 7103 968a ffcf a3bf
00000140: 5bad 5a2c abf8 c43f 1d7e 3be6 f633 a4bf
00000150: 2068 6a00 a206 c5bf 3442 4e09 7e63 c23f
00000160: ba8d f35c 1c07 c23f 95d2 164c cc4f adbf
00000170: 155a ef1b 3240 c53f 4890 ee5c a16b b1bf
00000180: 3f8a 1dc3 2601 c43f a907 6fe7 43a6 d3bf
00000190: 9cae 6566 9e0a 8fbf 8973 6a00 bd16 bfbf
000001a0: 04a4 a379 8671 c43f 0bdc 9727 ecdd 9a3f
000001b0: 34fb b145 b245 c93f ff8f 2e8c 1676 82bf
000001c0: 321b 5eb9 4a3a a23f 2248 f7d4 0bdf 9c3f
000001d0: 6cd5 d8bd c771 c93f 1684 4f4c 18ed c5bf
000001e0: f863 5c39 ef47 b53f 146c 4698 c04e bf3f
000001f0: 97d2 9e78 d11a cd3f 4a17 b544 47dc b23f
00000200: 54b8 c152 d9bb cc3f 31a8 0992 03d3 c4bf
00000210: 4fa5 1102 ed45 c6bf 9410 814c e2d0 b63f
00000220: 8ce8 af13 86e4 d0bf 8911 2b20 af86 c33f
00000230: 52d9 b5ab 896d c43f 7404 15ea 7847 c43f
00000240: 03b4 7629 ec53 a8bf 9b7a 0021 cdc3 d7bf
00000250: ec47 f12b 563a a83f 76cc c100 38ad 8c3f
00000260: 3bd5 b70c 2789 a93f 28ce 181c 00b8 b9bf
00000270: 0664 c043 3bf9 cabf 1ae3 6742 a5d1 b5bf
00000280: 5f5d 08ae 1f4d 95bf 1f17 ba6d ae75 7b3f
00000290: 74a1 aad1 43ac b7bf 418e 8340 0daf d13f
000002a0: b562 7bf7 3b65 bb3f 7f06 987d 8252 c0bf
000002b0: 8c15 5bc0 21c2 b53f f2e9 2290 458a c4bf
000002c0: f3cd 3a4c 0372 babf f802 be69 0607 b3bf
000002d0: 7f49 5446 cd30 a0bf 20ea 65fa 7f41 b13f
000002e0: 42bf 7049 765c cdbf 020e 7fdd 7416 be3f
000002f0: 9ec4 e429 cc03 bb3f 6007 808b be56 ca3f
00000300: f028 d48b 978b bc3f b586 a18b ed8a b63f
00000310: c241 cf7d bed6 593f ce7f aa59 db18 8abf
00000320: 2692 8222 6e01 babf 6b20 b531 f0b4 d43f
00000330: 4a58 642d 121f c1bf 0a91 5f51 33d3 c63f
00000340: 620f bf80 da9b a33f 0457 b117 caf3 9fbf
00000350: dd6f cdfc 3ef1 ccbf 404b 59b7 39e9 c2bf
00000360: bd8f 7389 462c b0bf f795 8dab fb44 c8bf
00000370: 1b00 bdf6 eaf4 c3bf a8b8 84a1 30ae afbf
00000380: fac5 25b0 40e3 a53f 40e2 e760 60fe b6bf
00000390: cab0 e3eb 585b b6bf 38a7 87c8 3eca b4bf
000003a0: 6180 5db4 1fe8 ab3f c696 25fe a179 a23f
000003b0: dd97 3e27 9b7f ce3f 5378 1040 8d10 c9bf
000003c0: 8482 1ccf c819 80bf 90ee e985 358f c4bf
000003d0: 0903 dbee 2a5f dcbf f2b0 507d 07f8 cf3f
000003e0: e5b9 8534 c520 d33f 693a e623 3ad6 99bf
000003f0: 6835 65f3 b93e a63f 9827 0d57 196b 91bf
00000400: 81b8 0db6 4ed5 a6bf ac28 1a72 8f02 bfbf
00000410: 864c 5ac2 056c c1bf 5761 5579 96d0 cabf
00000420: f68a 52f7 fcbc b03f a05e 389b b957 a0bf
00000430: ad54 82b3 dcbf d13f d17f 732c 02cb b2bf
00000440: bfd6 8c03 1050 c33f 4be3 d49f 5dec b3bf
00000450: 124c 1fee 6f94 b53f 8207 5118 38cb ab3f
00000460: 923d 8b4b 0ec6 c0bf 5f94 cfa0 4822 a5bf
00000470: be29 e125 a32b c03f 2540 f487 11a8 c83f
00000480: a11f d3e1 8bee c73f bd32 1cc6 dc51 c43f
00000490: b326 2b5d 25bd c8bf a049 8490 68ac ad3f
000004a0: a917 a440 53a6 d2bf 0b76 692e 23a8 933f
000004b0: b5fe f94d 5d6a b13f 6cdd fbf6 9036 a2bf
000004c0: 361a b078 2458 b9bf 8fc0 db05 3a2e d9bf
000004d0: 1219 4f8d 38cd 433f 9fd2 4ce8 f181 cebf
000004e0: b48e 5f3c c48e c73f 8b53 bfb5 71e2 9bbf
000004f0: 2d90 d0de 8f1a c53f 5634 f1b7 4fe5 babf
00000500: 8624 6738 42d5 a13f a8f0 514a 6574 a9bf
00000510: 7dfb a53b 84c8 c13f d528 29f5 f70d be3f
00000520: 830c d740 eede 993f 916b 1225 99fb d63f
00000530: de58 b0c1 7d80 d43f d39d d891 6af0 9d3f
00000540: 6ff1 8e09 99a1 bdbf 06b4 8b4d 3faf c93f
00000550: 0360 691f 0e8c b3bf 976b d029 bd1e 93bf
00000560: 4032 5cdb b821 bcbf 22d6 4612 ddf8 b43f
00000570: eba6 28b4 23a8 c23f bc77 3821 9a41 bebf
00000580: 8afa e8c9 44de d03f a5dd 2dbe 16a7 c13f
00000590: 57df a0ad 0fd7 af3f a1ef 3940 7c6e a0bf
000005a0: 0a6f db96 88e4 ae3f b47f 3c15 d63c 86bf
000005b0: 015b a7fd 9d0f a63f 2ffc 87c7 3f05 cb3f
000005c0: 5393 3c92 f1b2 b83f 7079 5f8b 90c6 c0bf
000005d0: 4fc2 7761 17a6 c3bf edf8 7ace 1562 ac3f
000005e0: f361 82fd 80ea b23f 33e9 a55a e2d0 c7bf
000005f0: f3b6 5f15 6307 a9bf c9b8 cae1 4fe2 b63f
00000600: 13f3 f2ca 0ec3 53bf 7b41 f1b4 b5a8 ab3f
00000610: bfac ce79 6484 b73f 8b6e 9170 969c c4bf
00000620: db58 d1a1 2a9d c23f 9b70 57cb d7f2 b7bf
00000630: d230 dc62 10e9 9abf 0491 59fd 5ca3 983f
00000640: 798f 0170 7e6e b93f 7820 167d 735e a23f
00000650: a105 a04b ddc6 91bf 41c2 35e7 82b8 c63f
00000660: 9efe a40d f402 b63f 0857 55bd fc9b 7a3f
00000670: 5d13 8923 db45 be3f 99ef 8a91 736a c1bf
00000680: 6db3 bffb 4622 c73f 2d45 c7be 84aa b7bf
00000690: e452 7d6c 4462 90bf d9a8 1d97 8470 a8bf
000006a0: 4a56 06c3 90db c2bf 8f12 d39d 0944 99bf
000006b0: 8e65 e729 7744 b3bf 15ee 8433 501e b83f
000006c0: 6e77 72a2 4d6d c03f d371 aa8d 278e c83f
000006d0: 88e8 7f4f d058 be3f 22b5 05fc d797 333f
000006e0: aa51 783b 5f36 b53f ad97 84a9 2f8b 953f
000006f0: 8299 1f49 c10e c43f e106 2643 626b 85bf
00000700: 3381 f941 1a43 c83f 208f 60b2 9f92 c0bf
00000710: 3000 8655 8610 babf 20a6 555b ce89 bcbf
00000720: d809 e708 60f3 d3bf 8416 e38a f9f1 b3bf
00000730: fe09 5dd4 132a b03f 7a0e d4e8 68f4 bc3f
00000740: 5bfc 59cd d4db b13f af7b 4dc6 08c5 c7bf
00000750: 5748 151e 639e ccbf 7be9 837d 8779 b93f
00000760: 1941 7765 03d5 74bf e501 dc20 f6c5 b1bf
00000770: b537 24d0 d363 cc3f 086d a727 0533 babf
00000780: 8287 3358 b855 b0bf 7b72 f070 0471 c9bf
00000790: 0124 1d20 52ab bd3f 3547 a38a e5b8 a5bf
000007a0: bda7 6435 6d5a c93f b8d0 ddcb 5803 d9bf
000007b0: c89b ecbc 7fc8 d5bf 31b8 75b7 8b97 9cbf
000007c0: dedd bddc b7cb e13f f3ea cdaa 8d90 c0bf
000007d0: d722 c32e 1aa3 cabf 56d2 e8fe d43d ba3f
000007e0: 9420 4aff 1a14 a6bf 9b0d 7b21 d633 71bf
000007f0: 8697 e681 1f13 aabf 0919 24aa 32b1 b2bf

layer3.bias f8 [80]
0.011716318874650928 -0.01410174157305908 -0.002291360876034641 0.030111296718974962 0.03126357259568455 0.016859939248120806 0.1268207666860525 0.009624473238455894
-0.010263465788035053 0.056996997436385165 0.06573719131664704 0.028455467404394003 0.045717453839784115 -0.00618980455809597 0.0010185359740945245 0.018433393133139565
0.014444559283842617 0.03597462650117044 0.010980034566546152 0.04912641674571668 -0.0036288334793708435 -0.01732030512883951 0.012660329634547812 -0.001999327981819273
0.04028839734111809 0.02179884152255562 0.00703686606375642 0.05269090140998425 -0.021014428188713165 0.039152844585216444 0.004169944086521666 0.04645001798602365
0.0422262675554121 -0.026775199942711478 0.05040600214172367 -0.014004661425851285 0.041232598509964115 0.05654785693892911 0.04859225620859946 -0.019325433376146513
0.07781582881397797 -0.01736325401290942 -0.005116074967288311 -0.014121322203922817 0.06576569898365515 0.047497693627602734 -0.010245540554379564 0.04734924407264481
0.0026328595647239134 0.03725672089027159 0.07274451408108064 -0.013219098461951677 0.055215527685871214 0.09807559432941756 0.054612414679192985 0.03890124223400966
0.024613774256965752 0.07582085436762699 -0.002425346803512747 0.012735454884417938 0.006763700361407854 0.09764039599328088 0.004161559924360566 0.11071931455531558
0.036107569833985095 0.04836583867799383 0.0646513142556985 0.04697134201211 0.012837091372193316 0.059245600986311944 0.031193990798630018 0.09237882806882926
0.0353628909346548 -0.006583307982126203 -7.539355594570577e-05 0.012082526086113373 0.01787165209275961 0.06259982887543694 0.009220186553547734 0.03489693533924994
00000000: ea47 2bb3 b9fe 873f f4c3 fbb6 5fe1 8cbf
00000010: e331 d400 55c5 62bf 85b4 97ea 7ed5 9e3f
00000020: 6c8c b56b c701 a03f 849f bb5e bb43 913f
00000030: 1564 afb2 a93b c03f a335 67ee feb5 833f
00000040: 40ce 390f 0305 85bf ab3f ebdf b52e ad3f
00000050: 2afd d50e 27d4 b03f 88ba 9317 6e23 9d3f
00000060: 734f 3232 4768 a73f 3599 5402 7b5a 79bf
00000070: 2fce b4ac 0cb0 503f 4d03 a512 34e0 923f
00000080: 537a d5ed 1b95 8d3f ffde 9d28 446b a23f
00000090: 3566 fa4a b37c 863f 2bc5 9502 1927 a93f
000000a0: 3998 ba23 37ba 6dbf 3a26 5700 6abc 91bf
000000b0: 964c e5ad a8ed 893f 5ef1 7709 e560 60bf
000000c0: bd09 fa49 aea0 a43f 7f62 b87d 6f52 963f
000000d0: 813d c359 b0d2 7c3f 948d b444 4dfa aa3f
000000e0: 2a37 4267 ce84 95bf 77e7 1376 d70b a43f
000000f0: c7e6 a4d7 8014 713f 1e13 4cf8 4bc8 a73f
00000100: 1a83 5d6c ae9e a53f 7c27 6440 f56a 9bbf
00000110: e50d 71c5 d0ce a93f e750 86d6 79ae 8cbf
00000120: f53f 426c 701c a53f 2855 6c38 d7f3 ac3f
00000130: 8673 828e 15e1 a83f b288 53e1 0bca 93bf
00000140: d8fe ddf7 bceb b33f 89e3 8c40 acc7 91bf
00000150: 29b7 b1ea 97f4 74bf c146 56c8 a3eb 8cbf
00000160: 5958 5556 05d6 b03f b52e 8821 9e51 a83f
00000170: 8e20 e32c 9dfb 84bf bb8d 90fd 283e a83f
00000180: ede2 36b7 8191 653f 3751 8f1b 5013 a33f
00000190: 2910 f16c 629f b23f bc0d 9d5c 9d12 8bbf
000001a0: 5dce 48ab 3545 ac3f 8e3c 2e6e 7b1b b93f
000001b0: 1165 018e 28f6 ab3f ea72 5616 ddea a33f
000001c0: 1ef3 db6d 5a34 993f d91d ddd9 fe68 b33f
000001d0: 7640 7b26 52de 63bf 3279 d3d1 0b15 8a3f
000001e0: 1a92 a2fd 40b4 7b3f f743 8f03 f6fe b83f
000001f0: 3c56 683c b60b 713f 40f5 0cdb 1958 bc3f
00000200: ae66 26ff b07c a23f 512f bb3e 68c3 a83f
00000210: 0a24 5f10 fd8c b03f d71d 95b3 a00c a83f
00000220: 6a65 f43c 554a 8a3f f20d 567d 7055 ae3f
00000230: 3553 3f49 51f1 9f3f 69ff 658d 23a6 b73f
00000240: dbda 1cb8 151b a23f c840 b947 19f7 7abf
00000250: e6cd af6d 93c3 13bf 3eb5 2433 b9be 883f
00000260: d539 0e45 f24c 923f aa54 c1d9 8a06 b03f
00000270: 041e af7d 08e2 823f 4a81 06d8 02de a13f
