attack_soft_generative_decision_tree/experiments/vehicle_params_state_dict/fnn_epoch251.pth (torch, 121327 bytes, 8 tensors)

layer1.weight f8 [80, 18]
00000000: c26c 72e9 9e44 d4bf 7e91 4c5f 6def c33f
00000010: 5007 eecc 65c1 c0bf 8a1f 2765 0783 bd3f
00000020: 547f 5447 13df c5bf 7f74 55cb 01f4 c73f
00000030: 3729 f8ef e926 903f 5b9b 96b2 b02b c8bf
00000040: 7fee 2e44 e426 c73f d48e 34bb 9e56 c1bf
00000050: 577a 9bcc 5f40 9b3f be8a c06b a7df ba3f
00000060: 5484 2f11 065f b83f 6584 240c 9d5f a83f
00000070: e857 2d4a 8228 b23f eba6 37cd fad8 c3bf
00000080: 8501 ab3a 0ba2 b0bf c517 9fdb 9bc5 d0bf
00000090: 13f4 dfca ceb6 c7bf 8591 fc63 d99b b2bf
000000a0: 9f36 283a 8129 d83f d9c0 cf00 462e 943f
000000b0: 5b7c 66d5 ec1b b2bf 11fb 53d6 e311 8f3f
000000c0: 4293 6632 bbe1 b13f 3409 32df 6534 c7bf
000000d0: 8b8e ecd1 ec32 b9bf 4059 d6ac 424c c6bf
000000e0: 4359 0af6 abe1 a5bf 3e32 a972 163a cb3f
000000f0: 661a 54b2 9cf8 b63f 9410 a70b 4123 c0bf
00000100: 8e05 fc45 b581 a1bf b86c fdb3 0d60 c5bf
00000110: 121f 7fff e952 c43f 34f9 20c7 b90c bf3f
00000120: db0b 80e8 b07e c03f 91e4 a886 4dae c9bf
00000130: 8efb ae29 6805 c33f e627 dea5 b93d b33f
00000140: 535d 83f2 20a8 c9bf 779b ccd9 6296 c5bf
00000150: 7c46 28ca 608d 963f adb8 3f7f aaac c03f
00000160: f2e6 94ea c1ca d33f 849e 1ac0 74f3 bd3f
00000170: 18e5 ee44 28eb 9c3f 4ef4 415f 3a53 a4bf
00000180: 038e 1922 f2f8 b63f fd5b 6818 c7f7 bc3f
00000190: 50db 01b5 1308 d13f 0d48 b2c6 6397 d53f
000001a0: a072 92f8 6af4 aebf e62d 7340 ad66 c0bf
000001b0: 7511 3a27 8465 ddbf 1f19 98e1 50b4 c83f
000001c0: 5181 be07 3817 c53f 96d8 4a08 d585 d03f
000001d0: 18a8 d5d3 e669 d4bf d221 60ba 772d d93f
000001e0: 7d17 bc87 e2e2 b0bf 80be faff 33c9 c4bf
000001f0: ba36 557b b88c b6bf 5dfd 95a9 7a5f d13f
00000200: ddc4 eec7 bb1a ba3f 5a0e 10bc d3ac c4bf
00000210: 8fb1 7574 bcd3 ba3f 8949 1894 0481 d1bf
00000220: 26af 6a4d 4171 c9bf 02fc 9516 ebd8 c5bf
00000230: e7c9 475f 6975 8b3f 1a52 1371 0a6b ca3f
00000240: 0bca b6a4 039d cf3f 80b8 74ce c195 b1bf
00000250: 912c 9e2a 9217 c43f 8906 75c9 0d51 d4bf
00000260: cb37 54db 3db2 d33f 2b75 6093 f52f c43f
00000270: 474f 9ad6 36cd d0bf 4e0f 7575 10a6 c4bf
00000280: 6baa 3828 166d b73f fcff e0e3 af6a c43f
00000290: 7078 6e59 b977 c0bf 74f0 8c83 3f47 b73f
000002a0: 61eb d084 1ff1 c43f 1ad2 ce72 94bb d63f
000002b0: f711 7876 6a26 bd3f d568 bad3 de60 c2bf
000002c0: 973b fd29 727c d8bf 0be6 8e5f 7a9b b23f
000002d0: d989 3439 5b70 d3bf 8fbb da0e 3650 d03f
000002e0: 52db ee8e 7e30 d13f 5abd 164c 5469 c2bf
000002f0: efd2 de75 a1ef d73f 1421 c13d 3b96 c23f
00000300: 144f 1f50 bc8e c13f 2b5b 49dc ae55 cb3f
00000310: 13bb 2dc5 50cb ccbf c9af 099e ce3f cebf
00000320: 13e0 0305 80b3 c4bf c1e3 b4ce 53b0 c33f
00000330: 3e94 f4a8 57b0 c6bf f939 f119 be34 c8bf
00000340: 5a68 e4b6 878e bcbf 0e9a 181c 00a4 b23f
00000350: 0382 deda b714 d7bf 36ed 7767 9b8c d33f
00000360: 633c 6671 5151 c4bf 00b3 50a0 dcba 913f
00000370: 01f4 9b41 4e7b 88bf 56e6 24d6 32bd ccbf
00000380: 3f54 b229 b1a2 cebf 544a 17ff 0681 c33f
00000390: 4f85 620d f3de b53f 2b22 c74a 319c b93f
000003a0: 9078 2dcc 6cbb babf b94c f39c a0b0 d03f
000003b0: 4b10 7247 3506 94bf a534 2d30 9fee b93f
000003c0: 5efd 2a7f 14a8 d3bf ddd8 ffd0 7f75 cc3f
000003d0: 8efe b8b9 ca29 bb3f 40f8 e04b 1eb0 c63f
000003e0: 773b ce44 19b3 bcbf 1b32 e2f4 5d9a d23f
000003f0: 538f ca5c 6427 d33f f1ca e480 89ea b8bf
00000400: 26ea 3977 f21a d03f 84c0 8426 589e c3bf
00000410: 3ddb 24bb bfa3 bc3f 90b8 2088 f50e c43f
00000420: 3917 6f2d d304 bdbf a555 b4b0 f066 d33f
00000430: 3617 5972 3aa8 84bf 4024 e89e 682a c73f
00000440: 68ee 6a14 54b4 d2bf 8307 6f1d db6f a43f
00000450: 9283 40b5 dc23 c2bf 7816 eacd 710d bbbf
00000460: ab70 706e 65fa b93f b2b2 809f d44f d1bf
00000470: 1317 5d23 b770 a0bf bc09 8caa 17f4 96bf
00000480: 41d1 7c4c 35a1 be3f 8a56 1026 0d7e d1bf
00000490: cc69 dad2 b3bd aebf 76b2 5ea4 3046 a63f
000004a0: 0da3 2762 8e75 c4bf 1aaa 01cb f8f4 bcbf
000004b0: 44d3 fddf 8178 b8bf d39f 089e 0608 9dbf
000004c0: df74 609a 61a1 cb3f 7b31 2053 4c60 d4bf
000004d0: ade2 f6f7 83f1 b7bf 2e2e fb7c e603 c5bf
000004e0: a4b8 720f 13fc d13f c931 ef80 ee5b d7bf
000004f0: c05a 2fd0 b8df c33f 579e 5a78 1f5e 9f3f
00000500: dae5 2447 5593 cbbf df12 b2f2 a03d b4bf
00000510: 7a37 5c81 c03b c8bf 35ef 7e48 41c8 bb3f
00000520: 53cd c8db 06da b9bf b936 c277 eff6 d63f
00000530: ca27 9f19 4a00 ccbf b310 698c bba2 d83f
00000540: 25fd 76d9 608d a13f 283b 8c80 489c 9cbf
00000550: c83a 6675 11cb b2bf 1a7b b8de 2862 a4bf
00000560: 7925 6ea1 dd21 cd3f b03d bbee 67dc a93f
00000570: 29cd e2f6 aeb3 c3bf 927f dec8 df0a dabf
00000580: 1cd9 cd14 1c5a 4cbf cee2 53ee b443 b93f
00000590: 2b5a ab49 f33e c33f 2d2b 1192 c95b b2bf
000005a0: 9416 5a8b 1168 973f 4f99 ad0c 04ec d73f
000005b0: 44f1 b751 1a0b a53f b61c 101b 9d5e afbf
000005c0: 4730 ffe6 d0fa cf3f 9a9d 9c0c b9c4 cbbf
000005d0: f9e7 8aa4 b010 b8bf f086 5543 2851 703f
000005e0: 2d0c 0dee 80be b5bf f2b3 bb20 3b40 cd3f
000005f0: baed 171d 25d3 a93f bc52 76bb 0166 b5bf
00000600: a71a 4271 a8d0 a13f 2bb0 ac6d e904 c33f
00000610: 4e38 809e 2091 c2bf 655a 0e24 2cae a9bf
00000620: dd37 f633 2aec b53f 0530 b18a f9ea d1bf
00000630: b766 9162 6959 b0bf f179 6dab b93d 94bf
00000640: 919a 8552 699f aebf 2f49 499a e7fd c6bf
00000650: 7e39 071c 2fed c03f a70c 570c 6458 c03f
00000660: e5e1 ac17 eb11 c53f bf01 e440 4506 cdbf
00000670: e5be 7c57 8a30 c63f 06b4 3e20 fad6 d73f
00000680: 33df bb4c 9d69 9f3f dae2 6d92 b2f2 ccbf
00000690: 000b b3d1 8f7e 9d3f e6cf 4ef2 bbfa c7bf
000006a0: 4852 67da 359e c6bf 6b36 f5f7 ff16 b33f
000006b0: b7a1 8c46 b830 d73f 77d7 1cfa c4b5 d3bf
000006c0: 8922 46d9 4169 c6bf 2ba7 bca7 aabd d43f
000006d0: aa1b 0b50 0b8a d23f 6704 2b4d 96ee aa3f
000006e0: 25e0 f4b2 f259 dfbf 7fa7 4d97 28df c0bf
000006f0: bd58 b8cc bbd2 b3bf 955b c435 440a a3bf
00000700: 6876 07a4 1089 abbf f6ea 55f7 197b 85bf
00000710: 33e7 e157 90fa b13f 111a 84e8 6ad8 92bf
00000720: ce8f 591d f630 c53f e285 1b6e 2417 73bf
00000730: dfc4 9be0 8abc c03f 235f c9d7 cb53 c1bf
00000740: 43f8 cc58 08c0 cf3f 48f1 52a6 ef1a cabf
00000750: d812 5418 c03f b9bf 3535 8295 c91b ae3f
00000760: 78b0 53b7 7eb7 adbf 2223 da08 dec0 d1bf
00000770: b7cc e8eb 05af cf3f 5a15 4c8c 318e b43f
00000780: f8e0 57d2 d620 d2bf 278c 8ce3 08b4 bebf
00000790: d540 9c0d f354 a2bf 38b8 41ab 068f d43f
000007a0: cb24 c7d0 b03e c93f 154d 5a9c 7f73 a73f
000007b0: 5363 1d4c ce29 c6bf a7b5 c698 f21b c2bf
000007c0: d348 c74b c9d4 91bf 547a 48f5 9950 973f
000007d0: 9133 2259 03bb d2bf 09cc 4024 f2f6 d93f
000007e0: 308c 9cbb 6f45 d2bf 9e16 e272 253d c6bf
000007f0: ed8e 984a c867 c83f 6038 8691 e236 b0bf
-0.31668827817493306 0.1557442393615353 -0.13090202814424368 0.11528059215117828 -0.1708702181140277 0.18713400295647273 0.015773444434708152 -0.18883331985599736
0.18087437943710324 -0.13545593396076205 0.02661275564502782 0.10497518902460976 0.09519994659014347 0.047604472858673565 0.070930617437028 -0.15505919475918203
-0.06497259313892385 -0.262061085199431 -0.18526635080334639 -0.07269056979254714 0.3775332515659588 0.019707769202739953 -0.07073860368699185 0.015170841196320535
0.0698506353424593 -0.18128655813422656 -0.09843330502604368 -0.17420228423424966 -0.04273736360953475 0.21271019552877307 0.08973101953243087 -0.126075869264359
-0.03419271926214683 -0.1669938210351114 0.15878033614557602 0.12128792869132071 0.12886630394504447 -0.2006318004148722 0.14860250506714262 0.07516060161120172
-0.20044338075124787 -0.1686519206498038 0.02202368959303279 0.13026934827161565 0.30925033481945186 0.11699609460867505 0.028240803916308982 -0.03969747937024036
0.08973611195101942 0.11315578790559751 0.26611797977914353 0.33736509708353496 -0.06045851024939464 -0.12813344618767458 -0.45932105856652267 0.1930028058561186
0.1647710836232457 0.25816846666146753 -0.31896372496578485 0.39340012741788855 -0.06596198858104958 -0.1623902320766213 -0.08808472643905932 0.27145258484957485
0.10197042113465522 -0.16152426417112303 0.10479333728080163 -0.27349962675466394 -0.1987687709819223 -0.1706823215754128 0.013407538624027061 0.20639162560714014
0.24697919409443644 -0.0686913613360236 0.15696932869864047 -0.3174471347193522 0.3077540056118521 0.1577136010754797 -0.2625252814989278 -0.16131788001268393
0.09150827867476045 0.1595058310213061 -0.12865368716024106 0.09093090974505619 0.16360849366341326 0.3551989670916399 0.11386742965994033 -0.1435812505558888
-0.3825955781984986 0.07268490632022677 -0.3037326868672188 0.2548957009375323 0.2685848613577281 -0.1438393947150683 0.3740008975103554 0.145209698823472
0.1371684447500391 0.21355233913592406 -0.22495469692099643 -0.2363222381276258 -0.16172790760879305 0.15381858437629428 -0.17725654363417392 -0.1891095759078352
-0.11154983725683235 0.07281494794788321 -0.3606395375627757 0.3054569731172764 -0.15873163258627007 0.01731438377844352 -0.011953936936601297 -0.22452388244873828
-0.239339967116992 0.15237510161985546 0.08543318821695788 0.10003955913192246 -0.10442237839513013 0.26078048064409703 -0.01955493210381602 0.10129733015237948
-0.3071337930559447 0.2223357935433289 0.10610644373172759 0.17724970536250062 -0.11210782937835782 0.2906718150559599 0.2992792993702455 -0.0973287524873674
0.2516447223967212 -0.1532697856978339 0.11187361067719066 0.15670651575914407 -0.11335487231471299 0.3031579709653108 -0.01008649503195223 0.1809817100441098
-0.29225637430110973 0.03991589292810629 -0.14171942568011936 -0.10567389752585565 0.1014769930483818 -0.2704974706310096 -0.032109950129365704 -0.022415513786663274
0.11964734189388528 -0.2733185645787236 -0.06004106472865409 0.04350425726383815 -0.1598375300666465 -0.11311297374928878 -0.09558879583876229 -0.02835092868386353
0.21586246526650307 -0.3183775722289039 -0.09352898410623807 -0.16418152906986577 0.28101040371519503 -0.36498606292005015 0.15526495137483742 0.030632487984489334
-0.21543374990305503 -0.07906537938294943 -0.18932348553101602 0.10852439899366291 -0.10098307481603301 0.3588217420118372 -0.21875883341846097 0.3849324103541775
0.03428175596809017 -0.02793992313950891 -0.07341107479281128 -0.03981139868505164 0.22759600050293807 0.05050968922807486 -0.15392100386598287 -0.40691370597959875
-0.0008652340999180416 0.09868937319323409 0.15035859200607268 -0.07171306434717613 0.022857927446713847 0.3737802623567363 0.04110033271351424 -0.061268720201093016
0.24984179762975797 -0.21694100490388452 -0.09400466935304043 0.003983647611080818 -0.08493810474196613 0.2285226735906743 0.050439033318947904 -0.08358774973596445
0.03479505903765317 0.14858739714816357 -0.14505393733310473 -0.05015695514810118 0.08563483971212756 -0.27996672195581623 -0.06386431366390864 -0.01976671322642604
-0.05980996258113181 -0.1796235564566557 0.13223828190389136 0.1276974735502325 0.1646093240358503 -0.22675386112679338 0.17335633537140108 0.37249615811271075
0.030676324661697407 -0.2261565413462197 0.02880310742763026 -0.1873392995017859 -0.17670319713819738 0.07456970027598124 0.36234862222275005 -0.3079693262583229
-0.1750871954830198 0.32407633190688284 0.289675548713087 0.05260152523033739 -0.489864992868663 -0.13181025874956373 -0.07743428943681159 -0.03718770176254008
-0.053780097983445796 -0.010488703594764708 0.07022955079619635 -0.018403692666675357 0.16555668290231867 -0.004660742097003264 0.13075386016092858 -0.13536975895362344
0.24804787002534753 -0.20394702550209787 -0.09862900346713432 0.0588057513242383 -0.058040580633900996 -0.2773966871687198 0.2475287820721854 0.08029470133995656
-0.28325434247336956 -0.11993461184879149 -0.035804362689420145 0.3212296173504714 0.19722566789849902 0.04580305846789138 -0.17315081326048673 -0.14147789439941258
-0.017413277864599074 0.022768407436269136 -0.2926643724866205 0.4056973794969854 -0.2854880649703686 -0.17374103650597744 0.19066718714122236 -0.06333747914161014

layer1.bias f8 [80]
00000000: c279 80d9 0905 bfbf 2f88 2387 f365 c7bf
00000010: 7616 21f0 148e c5bf 21b5 e480 63f5 6dbf
00000020: 371c ae75 9db3 793f 8554 e9c9 4755 a4bf
00000030: 76eb 6035 dc58 83bf 68f0 4dd6 7d0e 41bf
00000040: c3a5 6abc 95c9 9f3f 543a 1fe5 9623 a33f
00000050: 5e63 be4b 977c a53f 9273 2e28 0112 a4bf
00000060: 5437 3a0f 8deb 9bbf d364 b996 c809 a83f
00000070: 4c8f 42ad e66d 83bf 8843 d41e aef8 a3bf
00000080: 2840 5e36 ccef a8bf e24f 2997 8b77 ad3f
00000090: f107 62ca 1a65 c5bf 3551 6cbc a06a 8bbf
000000a0: 0c43 9c9c 86eb bb3f 0f25 1d13 385e afbf
000000b0: d2a2 cf73 1045 b03f 36ef 4cea 3013 c5bf
000000c0: 4461 f6ff 711f babf ad0f ba2b dd16 c0bf
000000d0: 8659 1d55 0e91 bf3f 942c 366a 0800 c53f
000000e0: 4a49 d75c 64e8 803f 8a89 7cf7 c37f 973f
000000f0: 2f2d 413d 7274 a73f 59c4 0186 7e65 6fbf
00000100: b4e4 be6f d9a6 a0bf fc17 5d29 366b bebf
00000110: 4181 695c 1407 76bf 6cee 855b fa47 c03f
00000120: 1377 c206 cd27 b7bf 02c1 7b9f dd9e b03f
00000130: 2dc1 8d39 c29d 753f cfaf 38ad d653 93bf
00000140: 50fb 3dd7 92be b23f e8e1 1dbb 4190 6c3f
00000150: 5f8e 24a8 35d0 9abf 87d6 518c 4f67 973f
00000160: ccd4 d454 bf72 4c3f fa3d 2d4e 98a5 bdbf
00000170: 7a96 d788 efe6 ba3f 06f2 4b33 fcc7 b03f
00000180: 296f d5e8 11f1 aabf c009 c9f1 e02a a2bf
00000190: 1807 5940 51f1 b5bf b59d 4d09 2920 a2bf
000001a0: a499 eafc 3df0 afbf 7db4 782c b698 87bf
000001b0: 685e 0c8e 724a abbf e858 d4f5 6e50 9f3f
000001c0: 96a0 5e76 0c91 ae3f 7347 803d f9bf c0bf
000001d0: 8dc0 541c 6976 b0bf 5500 ab14 94d6 d1bf
000001e0: cfc6 2bbf 46d2 b53f 8e5c 5f38 5881 b43f
000001f0: 3ae1 dcf9 8d61 81bf 1cb2 303a 5587 bcbf
00000200: 525e 2a79 07d5 983f dcb4 b8e9 87f5 6abf
00000210: dbbe e250 c703 b3bf e61e e853 870b 98bf
00000220: b20f a50f a87a a53f f3c0 01af 9b58 a93f
00000230: f5ab 8b81 8391 aa3f b0df 3a77 bce4 a2bf
00000240: 0fd4 668c 1236 b7bf 0362 a371 3aa9 8f3f
00000250: f074 1be1 581b 7bbf 850b 594c b40a bfbf
00000260: 0869 b2c3 7669 b3bf e616 9c09 194d b63f
00000270: fb8a b28d a83c aabf b3ed ef6f 152b a4bf
-0.12117063102821304 -0.1827988061768919 -0.16839849209843621 -0.003657049505952373 0.006274809910684679 -0.03971313800563173 -0.00944683111094034 -0.0005205263556571473
0.031042422890697596 0.03738090083026138 0.04196617889028319 -0.03919986358162143 -0.027265743307501936 0.04694964256186442 -0.009486963427043492 -0.03900665403683151
-0.048704511296023434 0.05755268306953078 -0.16714796907405075 -0.013386970281808 0.10906258891578718 -0.06126570924113583 0.06355383708399678 -0.16464816513495756
-0.1020423173816925 -0.1256977523336195 0.12330712869638746 0.16406350313295504 0.008255752642899811 0.022948324184775916 0.04581028936135067 -0.0038325759087958597
-0.03252295960505461 -0.11882341871122998 -0.005377845320794273 0.12719659298805952 -0.09045106329946533 0.06492409843099625 0.005277403536510667 -0.01887450630435677
0.07322042231497261 0.003486755734169334 -0.02618488157999221 0.022855036677774023 0.0008681711421220316 -0.11580802830325601 0.10508629885551982 0.06555153133735567
-0.05262046782692515 -0.03548338843804144 -0.08571346112242073 -0.03540161360325148 -0.06237977707251055 -0.011521743042147254 -0.053302364196665064 0.03058026671814043
0.05970038361493939 -0.13085856917365 -0.06430680219341607 -0.2787218286357576 0.0852398125387268 0.0800986421230496 -0.008486851871211887 -0.11144001646670926
0.02425014187846692 -0.00329090638640271 -0.07427640652417315 -0.023481478210697036 0.041951419744264654 0.049504151452198907 0.05189143139235589 -0.03690136866992988
-0.09066883018279291 0.015459496109927256 -0.006617877182830897 -0.12125708450279944 -0.07582800176388471 0.0871139191113702 -0.05124403695778842 -0.03939120284482147

layer2.weight f8 [80, 80]
00000000: 7332 e7ae 99af b4bf 6355 fefe 1091 b6bf
00000010: 7799 7c0a 00f8 c33f 4ed3 26b0 9627 c8bf
00000020: c989 d176 b2bb 70bf 318f 64ba 0bd1 a53f
00000030: 1e0d 8be9 984d d5bf a5f4 d769 a9ce 9abf
00000040: 52d8 8215 ee45 b83f 9153 23bb 5e84 d1bf
00000050: 179a d2fc d4db a43f 6372 ac0c 06e2 983f
00000060: 5b4e 8f36 2838 c0bf 5516 3478 e905 c2bf
00000070: af90 6c3a 6523 aebf a067 7433 37de ad3f
00000080: 8054 6337 6c93 bd3f 40b2 3fe0 29d5 c53f
00000090: 531e 1c45 3fcf 813f c09e 9771 4b96 96bf
000000a0: fb99 f562 d524 bb3f cc25 a5f5 3484 cdbf
000000b0: a83b 434a 7928 b7bf 5f56 56b2 ee43 c43f
000000c0: 8dc6 69bd fea0 c13f 03d9 99d8 5b30 c1bf
000000d0: 4c1c 6c7f a084 cd3f 133c 82db 88e5 b5bf
000000e0: 9006 2d69 0a64 bd3f ffe7 cad0 cd64 84bf
000000f0: c8d1 7fad 52b1 cc3f 4761 88ea 8424 c2bf
00000100: 741f 5ab4 6d0b 90bf 150e 1059 e427 c93f
00000110: a1a6 fb5f 9280 babf 8f27 c2ee 742d c7bf
00000120: 6f6c 77b5 e0cc ab3f 3db0 d6c2 2f2f d0bf
00000130: f316 22cb ae0d cabf b588 9ff7 3357 b53f
00000140: 0613 67ec 748f c8bf cf87 298d c06a 903f
00000150: 5f2d fe89 d989 b63f 8f19 819c e66c ce3f
00000160: dcce f017 b804 a33f 20d5 d3a9 dd72 873f
00000170: f49c 63e0 1cc2 dfbf dcd6 9d44 8642 84bf
00000180: e899 d662 4672 d0bf 1938 6cd8 8185 cebf
00000190: b3a1 6f4e 4131 a4bf 3acc 2d42 44e9 c1bf
000001a0: e632 a793 53af c43f 38c1 aa80 3b91 ba3f
000001b0: 005f b030 9e1b b93f f68b 0785 2005 a73f
000001c0: a3ee 893f 0768 d23f 2ae4 08e1 7025 c73f
000001d0: 66b1 c48b 41b0 d5bf bab7 9743 49fb 983f
000001e0: 966c 7124 ef9f d63f 4908 9fc2 5e18 c63f
000001f0: 81b6 c524 9029 943f a8f3 5f3b 5c9e c2bf
00000200: 53c5 9f8b c042 c03f a12c 8e99 73a8 b73f
00000210: 5a69 87de da5e d1bf 1b9e 4e1f 1d44 cfbf
00000220: 87c4 9b97 f90d b13f 93d4 c2ef 193f c33f
00000230: 7085 6fea c8a8 91bf 0539 c3b3 eb4b d4bf
00000240: 9011 bb2e f841 c13f afd5 e0ab c948 b73f
00000250: 8d25 7e51 38df d23f 794e c0d6 7279 bbbf
00000260: f24a 1fb4 edf4 96bf 417c 1af5 3648 adbf
00000270: 2de9 185e 09bf 733f 9557 9353 caac bcbf
00000280: 3c02 a214 f982 363f b541 2fe5 25b7 a53f
00000290: d50e 4fbc 2107 c0bf 7269 a011 9c13 c23f
000002a0: f1df 7194 9b2e 8dbf 79cc c8b2 fdea c0bf
000002b0: d4f5 f67d ae39 dd3f f6c0 8c80 0e8c c03f
000002c0: 0602 d582 c35b e8bf 3a72 cb23 ce02 cb3f
000002d0: 52a9 9180 c943 c33f 68b6 6517 4029 c03f
000002e0: 13e2 9ce7 32d0 b93f 1c07 5db1 b6a4 ba3f
000002f0: fc64 4c6e 2fda d53f d31a a9ba 2913 a53f
00000300: de85 ef2b c517 c1bf 2abc 9dc5 1ceb a13f
00000310: 2796 b7e9 2364 c33f b23e ada4 4a67 b23f
00000320: e221 5b74 42ee c83f 4f28 884e ee9a b1bf
00000330: 774a 6bc8 aea5 a13f 09f8 6528 8433 ba3f
00000340: 7912 80b7 ef5b adbf 6b3f fcb8 58cd c03f
00000350: 47d1 2ef8 aadd c53f 2577 bb44 6573 b4bf
00000360: d0e1 a394 7717 ddbf 698a 6d5e d694 cd3f
00000370: ac0c 0519 ffa7 c83f 0b9b b615 13c1 cdbf
00000380: 007e acc8 272b a93f 7731 9be5 4dcf ba3f
00000390: bf05 d9ba 311a cfbf 95a3 df75 a02c b3bf
000003a0: 3f02 1a1b 1c08 9fbf de3a 12bf e1ea c1bf
000003b0: ecd5 7224 b9ee c03f 6c4a 4003 b9c5 c53f
000003c0: 90b9 9869 d43b d8bf a49b 648a ff79 c5bf
000003d0: 4884 db2a ac2b c2bf 6cfc 49a6 3ac9 bf3f
000003e0: f61b eef5 f0f4 a8bf ec4b 3821 0351 ad3f
000003f0: 0704 736c fe0d cbbf 4dcb 72a6 6899 c7bf
00000400: d5b3 17bd 73c4 c03f 362b ed0c c3c5 cdbf
00000410: b38b 6185 43ce 7abf b0a4 0dc4 2822 c4bf
00000420: 9d5a 0ba2 9956 c1bf da4c 2336 1e44 bc3f
00000430: c0d5 fb40 d156 b63f 7dd4 909c f264 b2bf
00000440: 45fa 3086 161c d4bf ddca 3a4f 639a d0bf
00000450: 8676 4668 35a9 c1bf b0b0 11e6 b48c c1bf
00000460: f76a b341 c230 943f 594c a35d db6d a43f
00000470: deaa f94e 1abf 78bf 00aa d9dd 5deb b33f
00000480: c562 b121 c6ab d0bf 4c98 7ac1 0634 cc3f
00000490: 80bc 5321 c3a8 bc3f 5147 5023 13b7 d03f
000004a0: 2564 1367 e85e b8bf 13a4 8675 056b 9abf
000004b0: 187e 3c76 341f ce3f 4de6 8f0c 710d e1bf
000004c0: 5b4b a095 8638 d8bf dc59 7c00 cddf a33f
000004d0: a918 e65f fd78 acbf 30b5 f9e4 df69 9cbf
000004e0: df75 3229 d40e c23f 5605 dbb3 f17d c4bf
000004f0: 8c40 36f8 bc89 b93f fe44 51ec fc04 b0bf
00000500: bcfd d252 97ad b2bf 5d35 ac90 073d a5bf
00000510: ae2b 8453 e7d1 aabf 16a8 3406 ea00 d03f
00000520: e80c 999a 69b0 c73f 2925 3f8f 2009 b13f
00000530: 6251 4cb7 b885 cb3f b48d 1b59 5fb0 a7bf
00000540: a651 a7b4 ad23 cd3f 833a dcd8 81d2 c03f
00000550: 2623 0896 178e c2bf f562 234c d2a4 cf3f
00000560: 474f 9b3e a752 ce3f 9d1a 649a 6926 b53f
00000570: cea6 8e79 e8fa 93bf 794c 2e0b 809f c13f
00000580: 5353 8013 fc9f c63f 985e a227 69f7 a7bf
00000590: 4546 8f0e b393 bc3f a0b0 7b93 328f 813f
000005a0: b060 4fb5 7679 b8bf 852e 9ef0 10b0 c5bf
000005b0: a096 2662 3b22 9a3f e901 e172 2ebd bcbf
000005c0: eb46 2363 0627 bebf 0666 1d60 87ea be3f
000005d0: 1cdc 07f8 73f2 b93f 8919 fe82 64fc c23f
000005e0: 5139 6fae ff3a bfbf e8c9 0f20 4ded bf3f
000005f0: 1def 7aab 8306 9a3f 1f1f 04ed 8b33 c33f
00000600: da9e 83b7 6597 cdbf 6780 d46d d87c ca3f
00000610: 12fa 9262 559c a23f 46e3 42d7 09b7 b1bf
00000620: 8ba2 d82a 5874 abbf ccc5 9011 a549 b23f
00000630: c50c db8e 6acd abbf 5752 998b 5cef a0bf
00000640: cf85 f4d4 5522 c13f c119 1754 f6be bdbf
00000650: 0307 c8ab 3a72 cabf 0409 9cf4 a67a c2bf
00000660: f8db b1c4 8d82 ae3f 181e 2928 e666 c8bf
00000670: cff3 a95c de90 b43f 59b5 82cd 9981 cdbf
00000680: c4f3 d0b2 2a1a 9e3f 2aa8 715f d973 b93f
00000690: 4955 7864 c2be a0bf dbe6 6928 fb68 a0bf
000006a0: 7bce 84bd d515 b03f 5c2d 70b3 8285 a6bf
000006b0: 8a3a c7fd b6e4 c4bf eee7 bdcd f0a2 bb3f
000006c0: 9684 83df 92ee c13f efc5 d278 4e18 c13f
000006d0: 3995 a6ec f7ad ccbf 09f0 277a 3463 ba3f
000006e0: e1e9 1a69 9a44 d0bf 181d 7c72 c7b2 ca3f
000006f0: e167 7153 ff09 d13f 66b1 161d b654 b63f
00000700: acb0 34e1 fdab ba3f 3d54 22f2 988c a0bf
00000710: 8360 907f b8dd 9b3f 940c 6976 94aa c33f
00000720: 1a77 8884 06a2 cbbf 7328 9ade 87ae ca3f
00000730: f33c 3e3f bd2c c6bf 63d3 d2e6 2149 a9bf
00000740: c6c6 14cd 5e0e b73f 7135 3320 b346 ba3f
00000750: e08a e72f 4b79 bfbf a5be d60e ae5b c4bf
00000760: 1e78 42bc 1afd d03f b652 dbfc 3a3c aabf
00000770: aa62 140f 1306 8dbf 8104 42a6 b848 a03f
00000780: 9426 6f1e 4e69 a03f 7642 2f07 af75 b5bf
00000790: b325 0cbb 2e89 c1bf 3505 4ab1 09a8 cf3f
000007a0: 71b0 566a 412d c93f 8821 3719 d42c d03f
000007b0: af23 55ef 97bd ce3f 1c06 7565 9e46 d03f
000007c0: 8c96 9387 0b6b 9d3f f121 3eff 347e cebf
000007d0: 15ac 4ced b72a 56bf 5e03 00bb 9b27 ac3f
000007e0: e9de 8e7c 175b 66bf 1ae3 9aab 514b cb3f
000007f0: bc35 db82 cb46 cf3f a006 8b26 2080 c4bf
-0.08080444831939264 -0.0881510374586774 0.156005864258258 -0.1887081489673172 -0.004085251927877961 0.04261051798155647 -0.3328611641592988 -0.026178977093867534
0.0948170473592154 -0.2737042262572738 0.040739684927121704 0.024299711726700212 -0.12671377815296378 -0.14080541962919094 -0.0588637956446133 0.058335995703785004
0.11553074218984882 0.1705677361454878 0.008696073814930793 -0.022057703788873395 0.10603078523636349 -0.23059713358297385 -0.09046133101513354 0.15832313259004402
0.13772567986193388 -0.13428829265803452 0.23060995313446353 -0.08553367003536065 0.11480774944086591 -0.009957893308968123 0.2241614672817731 -0.1417394776515357
-0.015668596394362536 0.19652990673795104 -0.10352434962592351 -0.1810747304737643 0.054297468330070646 -0.2528800394745792 -0.20354256552325686 0.08336186213958537
-0.19187795203301777 0.0160322271498286 0.08804092043844979 0.23769838945208874 0.03714537899250356 0.011449558015082462 -0.4962227050113619 -0.009892510384570334
-0.256974789163364 -0.23844931666866456 -0.039438286614145744 -0.13993123275176506 0.16160053929924983 0.10377857104572719 0.09807766617484148 0.04496099113364231
0.28759938435517024 0.18083010662101745 -0.3388828148770443 0.024396080732848914 0.35351160582440266 0.1726187181757857 0.019689800495533042 -0.1454577722469399
0.12703711335738407 0.09241411684904445 -0.27141448718398 -0.24426616696040146 0.06661949111345865 0.1503631993015558 -0.017245425518813418 -0.3171338325017959
0.13482572824262862 0.09095440336462589 0.2948742671802272 -0.10732190840672641 -0.022418703192509555 -0.057191579265456934 0.004820858566342329 -0.11201157131594493
0.00034349995679153525 0.04241293356574564 -0.12521764464155774 0.14122343884157434 -0.014249053447414868 -0.13217135648446623 0.4566456060527717 0.12927418972822807
-0.7612016253770555 0.211023108938109 0.15050619867117604 0.12625886099287986 0.1008331122838018 0.10407583074723131 0.34144197245912244 0.04116182712146146
-0.1335379089860415 0.034996890185418586 0.15149353897065618 0.07188860435894176 0.19477110558933847 -0.06877030770570623 0.03446718403360632 0.10234857546126376
-0.05734204401963878 0.13126668007361827 0.1708272659140084 -0.07988579681429238 -0.45455731883660366 0.23110465632187818 0.19262684556642762 -0.23245466766567122
0.0491573746169216 0.10472571235295002 -0.24298688529419896 -0.07489970090649785 -0.030304373888158983 -0.1399805243458649 0.13228525428500804 0.17009651812311988
-0.37865171730199965 -0.16778558976622293 -0.1419577798142504 0.12416426238813622 -0.04874375345303143 0.05725869923130475 -0.21136455817580233 -0.1843691647278213
0.13099524243389618 -0.23259771472143037 -0.006544364694579241 -0.15729245732226138 -0.13545532619783254 0.11041439840055337 0.08726222836033681 -0.0718528396835882
-0.31421435455914476 -0.2594230912902001 -0.1379763373524165 -0.13710652574389348 0.019717250118314458 0.039900641613393524 -0.006041624801222693 0.07781016031518817
-0.2604842499763829 0.2203377194138646 0.11195010722780019 0.2611739964350948 -0.09519817844865537 -0.02579887895413797 0.23532729886299886 -0.5328908200601262
-0.3784500561898107 0.03881683951310652 -0.055610578495405356 -0.027747629499960513 0.14107753764703454 -0.16009351045617376 0.09975796756612193 -0.06257611054867948
-0.0729612900931817 -0.041481243524780644 -0.05238268751607876 0.25005579572700876 0.18507118271563816 0.06654551980240754 0.21501835775473938 -0.04626749003162037
0.22765132256485038 0.13142417038803353 -0.14496130777140442 0.24721745221793126 0.23689737851111145 0.08261737841903956 -0.019511825961365407 0.13768005891742854
0.17675734474382895 -0.04680946930710411 0.1116287146135387 0.008573908925847029 -0.09560338903918608 -0.16943561314507263 0.025521209588666438 -0.11226167969380864
-0.11778297348362414 0.12076612564614927 0.10135578923642224 0.14832741161462717 -0.12199399956373226 0.12471468003040054 0.025415475217172124 0.15001057694484474
-0.23118277989055153 0.2069349800376614 0.03634898021981682 -0.06919919495966295 -0.053622012357952796 0.07143623045774133 -0.0543015765556674 -0.03307618335808076
0.1338603296108389 -0.11619510224327369 -0.20661099803697178 -0.14436804717849594 0.05958979631480327 -0.19064022980659057 0.08033551943113014 -0.23051760229774734
0.029396693386150266 0.09942396717238525 -0.032705378307734075 -0.03205094211894074 0.06283317448542818 -0.043987354663921535 -0.16322982207789877 0.10795502684587152
0.14009319223172118 0.13355427646233362 -0.22405909590922038 0.10307624800037742 -0.25418720497296304 0.20858090486601877 0.2662351908562624 0.08723009309932692
0.10418688533963189 -0.03232267337549686 0.027212984834563258 0.15364318639521868 -0.21588212462750606 0.20845125550505691 -0.1732403334430966 -0.049386081148816506
0.09006302363266191 0.10264129196294448 -0.12294454497854757 -0.1590478489356332 0.26544826874476424 -0.05124077164297118 -0.014171742341703226 0.031804819388534085
0.03205341454993263 -0.08382696080594507 -0.1369989789312008 0.24731560856529602 0.19669358913722904 0.25273611509739924 0.24016093431626248 0.2543102255623084
0.028728656911786873 -0.23822653258345342 -0.001352958313143975 0.054989687516360006 -0.0027289828035142916 0.21323605422164676 0.24434799088923664 -0.16016008264528114

layer2.bias f8 [80]
00000000: e5b4 31b0 cf7b b73f 7c0a 58d3 8da2 72bf
00000010: 551b 62b8 c716 a2bf 91c0 2826 05b4 a0bf
00000020: 3cc4 bce3 ce00 9e3f 9673 f3f7 cad3 a0bf
00000030: c2c9 b329 1cfd 883f ddd8 9bd3 eeee 923f
00000040: af56 9181 8030 963f 757b c01a d961 9d3f
00000050: 5a42 ea9e 9c60 973f 7bb9 08d3 c83d 8f3f
00000060: 6e66 4691 c97a 6f3f c59f 31d4 da23 a13f
00000070: d4b2 8ec8 7fa3 94bf aec3 c98d 9b3a 8e3f
00000080: 07b9 4112 c4e8 a33f 481e b94a 3d2b 94bf
00000090: c7fe ca19 2d8f 823f 469e 0531 9cad c13f
000000a0: a022 4d1e 6684 8d3f efa9 07ec 5bb3 6dbf
000000b0: d976 fe0c 0260 80bf b703 11f4 991c 9abf
000000c0: 86f5 8ed5 ce04 95bf d2ac e952 3e74 b53f
000000d0: 73b0 345d 93a6 88bf adaa 13f1 9563 b03f
000000e0: 5177 beee eb2d 5dbf c481 74d5 37e6 b63f
000000f0: 5407 be28 6381 93bf 8003 d0af 57f6 84bf
00000100: 8795 f190 58de ab3f 8563 8371 d5f9 b13f
00000110: fc2a 3456 eaec 6ebf 53d2 3cda 2266 a33f
00000120: de86 88e7 2a3e a73f 1313 64eb 9597 a33f
00000130: 3b78 e283 ad15 9b3f 5c46 f333 ce29 413f
00000140: b28a a8b7 2c22 92bf c66c fc0b 949c a13f
00000150: 8651 3bd5 c423 bc3f 2e87 783f 33a9 863f
00000160: 42d4 dc30 49dc 8dbf c459 af3c 10a6 a23f
00000170: d7f9 4d65 4c78 a3bf 1e08 fe9b 0436 8c3f
00000180: 3a3c 9c11 06e6 85bf 3784 6e95 870c b13f
00000190: b0f7 fee3 4887 b33f 6d18 dc74 2f4b a33f
000001a0: 12b3 fb7a 45fb 90bf dfa9 fa3a 40f1 8e3f
000001b0: 4cf0 af00 4c1e 693f f010 5368 5998 a23f
000001c0: 280a 0628 e0d1 acbf 9f99 c1d7 ce94 413f
000001d0: e00c c91a 51fd a83f e7b2 5045 0aa4 6abf
000001e0: 7b1d 9f65 5e52 b93f ed70 6363 6e83 9b3f
000001f0: 2290 728c 5c68 ad3f 797c 59b6 8950 7abf
00000200: ed14 2328 f632 9b3f 2178 8be2 0061 ba3f
00000210: 5517 8e09 4ae6 b13f cf70 a873 7671 adbf
00000220: 2afa 1a34 8d4b b93f 3c8b 9c35 75e8 973f
00000230: 16ae fe2a 8b2b a93f fffb 9944 0178 823f
00000240: 533d 2e4f e536 af3f d7f3 755f ba8c a03f
00000250: 5a32 34fc 22da 8cbf 38fa 5d71 121e 913f
00000260: 304c 82f1 dcca b3bf f643 f09a 1af5 a8bf
00000270: 8bb5 e462 7907 993f 94a2 93e9 717e 90bf
0.0917329602395572 -0.004549554830648558 -0.03533004880687566 -0.03262344446955113 0.029299957895265502 -0.032865851180509484 0.012201519034054868 0.01848958174283487
0.021669395359217244 0.02869357324390927 0.022829482268721037 0.015254563274621038 0.0038427292694905224 0.03347667541748892 -0.02015494977574657 0.014760222687273696
0.038885237911801034 -0.019696195302712632 0.009062149381292696 0.13811066049241755 0.014412687110636313 -0.0036255641318707547 -0.007995620748086395 -0.025499730607638074
-0.020526153359005338 0.0838049843238651 -0.01203646782104093 0.06401955733933092 -0.0017809680966602468 0.08945034943872715 -0.01904826103373776 -0.010235486081002554
0.054430740063973686 0.07021841069525976 -0.0037750794305159135 0.03788861192734729 0.04539617611250234 0.038265881523363764 0.026449881720161477 0.0005237824297187987
-0.01770849104844769 0.03439772268594647 0.10992078977444039 0.011064911245799527 -0.014580318263691553 0.036423213394005255 -0.03802717911365832 0.013774906168468045
-0.010692641651557467 0.06659743688807472 0.07628303114230905 0.03768299390326111 -0.01658352435235872 0.01510858707418533 0.0030662044932779128 0.03631858252041009
-0.05628872383660549 0.0005365381216620341 0.04880765392274511 -0.003252048549731479 0.09891309720034329 0.02686855775469692 0.05743684019515195 -0.006424463213618664
0.026561590385218038 0.10304265528563451 0.06992018445279531 -0.05750627672043295 0.09880907556632992 0.023347693822084667 0.04916033649291422 0.009017953783084563
0.06096569625435202 0.03232366957943327 -0.014087937661792772 0.016716278237703913 -0.07731419464316569 -0.04874499455775798 0.02444257417771704 -0.016107349282636976

layer3.weight f8 [80, 80]
00000000: ebdb 36f4 fe15 c1bf 6707 457b c686 cabf
00000010: b289 9e21 7797 933f c2df 3232 91ff a63f
00000020: 5c69 5d11 c1c9 aabf fb77 1588 f39a b9bf
00000030: 4502 c1f8 8a4d a63f c887 15bb a1e0 a5bf
00000040: 15c6 87f0 8215 b93f 805a e4d7 e28d b0bf
00000050: 7cc2 612c d6d8 95bf 7cc9 62ef c677 b83f
00000060: 2de6 07db cb78 ccbf f184 f298 3b44 b0bf
00000070: 2f9d 9f2e cb5a abbf 3190 b7a1 b853 be3f
00000080: b90e 11aa ad43 93bf a5a2 3ae1 4edb c33f
00000090: 2045 eefa 737f b93f 1c62 7474 5ff7 6bbf
000000a0: 13d6 bffa 7330 c13f b09e 1281 69ce 9a3f
000000b0: 4ed0 d352 8a21 c03f 0a59 1311 e6fa c33f
000000c0: 39ce e56d fcf5 a9bf d414 6c9c d175 cbbf
000000d0: 780f 500a 0573 c9bf 3604 9e76 b82d 963f
000000e0: 8369 3614 e784 a53f 39e3 8748 da47 b03f
000000f0: 5036 d2fc 6394 c6bf 820b fbae 08da ca3f
00000100: 3c5a 7ceb 81a3 ccbf 8f6b 2935 6d1b d2bf
00000110: 5a1f 44a9 4a5f c43f bf2b 3aca b2e8 b8bf
00000120: a307 c214 e618 c6bf 2bd3 b2c2 71e0 bd3f
00000130: 3d6d d8eb 5abb 973f 4154 24bc 0faa a0bf
00000140: 5bad 5a2c abf8 c43f a101 b550 df4a a7bf
00000150: 6548 aae6 05bd ccbf ac5c b627 aa98 c13f
00000160: b30e 1ff6 354c c23f b06d 74ab 9f05 afbf
00000170: f7ad 5ee7 d78f c53f bfc4 d737 336b b0bf
00000180: 6ab8 aa42 4be0 c43f 8fb6 97a4 8dd9 d4bf
00000190: 2bed f3c3 1780 87bf c813 5728 edf4 c1bf
000001a0: 2bf1 fe92 0cc7 c43f e811 fec1 04b0 a73f
000001b0: 432c 375e f8c6 c83f eea8 2a89 78aa 84bf
000001c0: 4ff7 c015 dd36 993f 94b9 58b4 f7ba a03f
000001d0: c3b1 9d06 9c0e ca3f a036 fdce fa63 c7bf
000001e0: 34cf 87aa 3d9c aa3f de7d d14c 6478 c23f
000001f0: c90e 8034 3268 ce3f 3590 ee0f 54d9 b33f
00000200: c7ee 9d57 b2f9 ce3f 1660 eb4e 311f c2bf
00000210: e7f9 9a76 962d c7bf e635 fa34 93dc b13f
00000220: 21ae 22a6 d804 d3bf 0ed0 1a32 9b4b c53f
00000230: 27c9 8794 b986 c53f bba2 12ca a5f0 c33f
00000240: 295b 49c4 3bb4 abbf acd4 9e48 a225 ddbf
00000250: a89f 20f2 034d a23f 5b18 0570 b941 7ebf
00000260: 0f4e 2afe 7b68 7a3f 6669 61ef 3efe b7bf
00000270: caad 9103 d8c7 d1bf 0cbe 42a4 11fb b5bf
00000280: db06 4960 894c a3bf 2d6a 3444 5d74 693f
00000290: 8a56 21a4 8bf5 b4bf a98c 5705 5ded d43f
000002a0: 64cc 5e59 580c bc3f a10a b1a0 58cc c6bf
000002b0: cc61 3607 89a1 b83f 99d4 7ee5 c187 c4bf
000002c0: 5250 bf3b 7f11 bdbf 25fe a20a a7d8 b0bf
000002d0: 7f69 300d d8fb 9dbf 72f2 199c fab9 b53f
000002e0: 36f1 499d 8f3b cfbf 589f 15fa a6d2 c03f
000002f0: e4fd e42b 9bd7 bc3f 9107 8f7e 51f4 cb3f
00000300: 2ea5 f1d7 bc4e b93f 387d 4ed3 cfc5 c23f
00000310: 98c7 3db8 4d85 7c3f aa4d a566 ff56 82bf
00000320: 937f 62f4 87ad babf ebb2 b666 0d35 d63f
00000330: a11d d5a1 212e c8bf d728 91fc 5cfd c83f
00000340: 9be3 b57d 3753 b53f e0ea 1945 d476 a9bf
00000350: 8415 e67d 296c d1bf bb83 d7f4 be89 cbbf
00000360: 1bc8 79f2 6fb5 b4bf 9f56 3065 3545 c4bf
00000370: c5a8 7e89 7e10 c3bf ed2b 66be e1cb aabf
00000380: d974 4a34 ed4f af3f 99f2 d40e cf39 b7bf
00000390: bdcd b998 9625 bbbf 6949 bfa1 ef0b aabf
000003a0: 0067 829d fbc4 ad3f 58fe 809d 025c a73f
000003b0: 994e 61cb a154 d13f 4ed5 cd57 8160 c9bf
000003c0: 8482 1ccf c819 80bf f8a9 defd 74e5 c2bf
000003d0: 8b43 a66a aa38 e1bf ba84 04a5 3a98 d03f
000003e0: 3222 4204 1297 d43f a576 dea8 f3ed 92bf
000003f0: ebf7 8c33 efc7 ab3f 22ed 6794 9353 6fbf
00000400: 81a1 65e0 a591 a7bf 1eee 1880 81c0 bfbf
00000410: 0c76 a10f 69a3 bfbf 5ecd 77d2 b0b0 cebf
00000420: 2838 9cf2 4777 b23f ca8a dd08 f415 15bf
00000430: 7cb9 7758 b543 d33f b707 269f ed39 b1bf
00000440: c58e 17ed d160 c43f 2568 7935 c6a3 b1bf
00000450: dd17 d6aa d8c8 b73f 4c78 16df 73d4 b63f
00000460: 2ecb d1f9 860d c1bf c200 17ce 6eee 7dbf
00000470: af82 472c aa2f c13f fd1e 17aa d077 c93f
00000480: f6b9 a53a 9190 c73f 0df4 aa10 8165 ca3f
00000490: 69b3 9f03 7e28 cabf 4e49 e58b 3163 a83f
000004a0: ba96 0bb1 5a18 d5bf 226f 327f 662a a43f
000004b0: 5e18 98de 9c38 b73f 7d64 292b abce 9ebf
000004c0: fb45 8f18 af4b b6bf e611 af57 0794 dabf
000004d0: 0252 1d81 7e8b 773f 221e 7ea8 4eca d2bf
000004e0: 5603 9f4a e796 c13f 7d1b e1d9 29f2 a3bf
000004f0: 0920 2f88 d330 c23f 3b6c 09ff a5dd bebf
00000500: b061 bb08 b72c 7a3f 9813 49c1 7d5f a1bf
00000510: 79ae 2feb a674 c13f 9c77 c3ef 41e4 c33f
00000520: d382 d234 d1b3 9f3f 1548 74ab 7389 dc3f
00000530: 0386 370f 6dbe d53f a20d a403 d936 803f
00000540: d46d 34b8 cc92 c2bf 9f22 88fb 766e ca3f
00000550: 354f e76c 22b2 a8bf 0558 8d54 c2f5 81bf
00000560: 7c12 024a e24f c0bf 3315 e8b9 7f4f b83f
00000570: 7081 98ae 54f9 bf3f 38c2 ce52 782a c0bf
00000580: 368b 5abc 8ed0 d13f 3c38 fbfb a3ad b43f
00000590: e6cf d2a5 6be8 b33f bcb3 1d40 f923 a0bf
000005a0: 5485 e6d4 cfe7 b03f 660c a151 9629 7fbf
000005b0: e54d e397 abd2 a03f 8778 694e a8c7 cc3f
000005c0: df4d 85cf 48d8 b23f c64c 01db e4bf c2bf
000005d0: a90f 79ab 1747 c7bf 889a f577 7544 ac3f
000005e0: 4619 773e 6d8c b13f 764c cf84 9ac5 cabf
000005f0: 04d5 19be c6c0 aabf 1d71 f324 cb72 b63f
00000600: d08b 6c70 b0fb 72bf f3b9 27a1 4805 a43f
00000610: 15ba 7e33 fd44 c03f cea9 de5a 1693 c3bf
00000620: 0163 05ff c6e7 c23f 93f3 98d7 27d5 b6bf
00000630: 4c94 0386 9bfd 9bbf 4f70 7b06 e8f2 943f
00000640: 798f 0170 7e6e b93f aa86 3d96 3390 a03f
00000650: 622d bfcb 51e3 a2bf c096 1cdc 9a2b c83f
00000660: 84af 2fe2 ea52 b43f d84c ded2 6c9a 853f
00000670: 9b8f 3cef 7b75 b93f 25fd 8abc dc82 c2bf
00000680: 5bef 3517 cc8a c83f bf60 39a4 898a b8bf
00000690: c8d8 0102 ff21 80bf ed09 84ea 03fc b2bf
000006a0: 8f6d d2b8 240d c3bf a4b0 86a6 ef50 9cbf
000006b0: 29d8 dce1 da3c b3bf c6e8 7add 90fc b93f
000006c0: e1a1 e1f2 8c74 be3f 6721 a6ad 08f4 c73f
000006d0: d8cc cde0 b2ad c03f fc00 cf20 56bf 6b3f
000006e0: 90be aa88 0d28 a93f 0b3a 2131 1162 a23f
000006f0: 2e3b 78e1 61cf c33f 0817 028d 9321 90bf
00000700: 52ba 8cf3 e1e6 c73f 25a7 252f 13d2 bcbf
00000710: 2b82 381f 7eb8 c0bf 9b70 0bc7 1c1e bcbf
00000720: a572 bffe a181 d4bf 8ee4 713f 4120 b0bf
00000730: f9d5 c45d 6649 b33f c0cf fe2a 35b8 bd3f
00000740: 59fe 59cb 9ff1 b33f 1ad3 518c 97f3 c6bf
00000750: a73a 2aec ed17 cebf f6d4 8894 a4af b83f
00000760: df3e 8713 9f0a a13f d7b9 575d b80e a5bf
00000770: 213e e89a f289 cc3f 2eba c20d da27 b9bf
00000780: 2dd8 6e6d 6d63 b2bf e3b8 2ba6 8a80 cbbf
00000790: dd88 e179 fb20 bd3f 6f28 7fc9 05ce babf
000007a0: 05af 11e9 f572 c93f 9849 8d35 8a46 debf
000007b0: f0b5 665d 26a7 d8bf 9a58 3e3f 7bdd 8abf
000007c0: 7fda 9f1d 8898 e33f f02e 70fd 0512 c5bf
000007d0: 63c1 8b23 60b0 cebf 0ca2 7172 52b6 b63f
000007e0: 94b7 3539 c301 c0bf 93e6 a53f 5f5b 97bf
000007f0: 8999 a5e6 3bbb a1bf c8cb 435f 409f b8bf
-0.13348376202131304 -0.20723801630998226 0.019132481982191592 0.0449185727861159 -0.052320512170541206 -0.1000206191287986 0.043560355058165835 -0.04272942932836049
0.09798448917697329 -0.06466501017380644 -0.021334978541235547 0.09557765335447316 -0.22243641085496915 -0.0635411499411196 -0.05342707580694605 0.1184649843995096
-0.018812860016864195 0.15513025281440665 0.0996010291694529 -0.0034138550141842427 0.13429116958256823 0.02617802477166603 0.12602356952959543 0.15609432061928202
-0.0507048496391715 -0.21453304422190078 -0.1988226223330647 0.02165878509504556 0.04202959176764678 0.06359638472339392 -0.17640352101118362 0.2097788671872785
-0.2237398528893254 -0.28292398635465416 0.15915807022997336 -0.09730069577396615 -0.17263484967776063 0.11670599940664476 0.023175640721189373 -0.03254746600774939
0.16383876481755064 -0.045493105508742866 -0.22451852572391143 0.13747145594672838 0.14295076863901598 -0.06058978050188146 0.16845225140910688 -0.06413574326849679
0.1630949092408998 -0.32577839921473467 -0.011474786441331894 -0.14028706044896766 0.16232449700863447 0.0462647902304843 0.19357208824507852 -0.010090772329324395
0.02462335057520387 0.03267644955154761 0.20357084582373206 -0.18273863894358033 0.05197327334090432 0.14429906607527604 0.23755481303680018 0.07753491772615535
0.241995137006475 -0.14157692292678864 -0.18107872763898955 0.06977195781129061 -0.2971707937637991 0.16636981913109178 0.16817397835218026 0.155781482380254
-0.05410944720340744 -0.4554219922241127 0.03574383097321682 -0.007386898389375752 0.006447300288204185 -0.09372323364497034 -0.2778224978307803 -0.08586225757857607
-0.037693303111621744 0.0031072446451052755 -0.08187172658048261 0.3269875099342224 0.10956337148563616 -0.17811115118282309 0.09621483255467139 -0.16039298730689636
-0.1135482331149558 -0.06580585488972497 -0.029281020932196974 0.08486906348293546 -0.244005157281103 0.13142859660296824 0.11266488858836216 0.21839350394844506
0.09885769149845622 0.14666173761086454 0.006963065712499182 -0.008954997367857615 -0.10421037403511794 0.34698805838233565 -0.1889078178594277 0.19523203213095172
0.08330103701690776 -0.0497347196914768 -0.27222668928910587 -0.21514117198151247 -0.08089351339165811 -0.15836207810268818 -0.1489408656464716 -0.052336744777754386
0.061156666405830236 -0.09072584259133477 -0.10604230145127409 -0.05087231492474837 0.05814348504754996 0.04562385723738477 0.2707905279287189 -0.1982576063852925
-0.007861679859673794 -0.14762747188554193 -0.538167198467009 0.2592913257122508 0.3217206040940567 -0.018485839063592597 0.05425975326805584 -0.0038240320602632863
-0.04603308071347368 -0.12403115632417225 -0.1235871947441966 -0.23976717259175023 0.072132584315313 -8.043577164821704e-05 0.3010075916235093 -0.06729016433203482
0.1592047126460924 -0.068905246787296 0.09290842219169755 0.08917926975706897 -0.1332253188916978 -0.007307465393239622 0.13426711237027208 0.19896896653357735
0.1840993439067941 0.20622266115051993 -0.20436072518296136 0.04763178665838784 -0.32961146630837457 0.039385989214876696 0.09070759233881762 -0.03008525324762389
-0.087092345710765 -0.41528495371701835 0.005748266370421808 -0.293597855132676 0.1374177088128145 -0.038956935736272215 0.14211506032575041 -0.12056958652958454
0.006390299775113226 -0.03393166527215569 0.13637243732170015 0.15540336806492128 0.030959385727899424 0.44588939422203683 0.33974768148445395 0.007917113708123594
-0.14510497087836305 0.20649611741852866 -0.04823405818356578 -0.008769529538465557 -0.12743786443401806 0.09496305741057114 0.12489823591795868 -0.12629608195631348
0.27835434335627285 0.0807745447338854 0.07776520536827966 -0.03152445705095583 0.06603716800465992 -0.0076080200033771025 0.03285728673077041 0.22484306172095023
0.07361273828910651 -0.146481139122079 -0.1818570697088238 0.05520979966495526 0.06854899191885008 -0.20915538296557984 -0.052252016740490986 0.08768911029932665
-0.0046345607904951375 0.03910281150080044 0.12710537924199686 -0.15292624890328316 0.14769828273963273 -0.08918999684915567 -0.02733462338882857 0.0204578641849909
0.099342253060568 0.032350170221218846 -0.036890560265954844 0.18883071658745187 0.07939022085309771 0.010548448739234592 0.09944891539322358 -0.14461859899709242
0.19173575528463513 -0.0958639169633697 -0.007877342461352646 -0.0741579482601435 -0.14883860611449193 -0.027652496851872002 -0.07514732374406265 0.10151009947995523
0.11896592073174574 0.1871348235984087 0.13030086495164173 0.0033871347609136775 0.049133704121570365 0.03590444302300363 0.1547663069654503 -0.015753083688216513
0.18673347847057414 -0.1125804891686611 -0.1306302692837716 -0.1098344789456313 -0.32041215779990245 -0.06299217032382584 0.0753387431076006 0.11609203624430986
0.0779056426490511 -0.1793088374285155 -0.23510526687137664 0.0964300978310638 0.03328415978796583 -0.0411279310172749 0.22295982898548153 -0.09826433978990032
-0.0718296425028206 -0.21486027826126194 0.11378452039346905 -0.10470615548470773 0.1988208187134363 -0.4730554125755133 -0.3852020179864146 -0.013117754809894234
0.6123695925333122 -0.16461253046906377 -0.23975755439415555 0.08871951383628857 -0.12505379002999162 -0.022809494266289376 -0.03463160696519469 -0.0961799843387744

layer3.bias f8 [80]
00000000: 681b be4e 2297 623f f060 8d92 3a24 8ebf
00000010: 37bb 098f 20f3 7bbf 7875 e3cc 2ec8 9b3f
00000020: 62d5 c481 b1a2 a63f 1b09 f0dd a3cc 923f
00000030: acbe 04d4 67f4 c13f 12ce 2b54 ac9d 713f
00000040: 5a25 d7dc 2475 98bf d62e 2546 ac89 b13f
00000050: c8b8 b524 6cae b23f a3d1 9adb 6ae0 983f
00000060: ea62 7361 7b08 ac3f 5037 fb32 8c7a 84bf
00000070: c0e2 2a49 3bf5 80bf ddbe c124 3246 623f
00000080: af6e d8e2 3ce9 913f 2186 e2a8 65f6 a73f
00000090: 0c6c f4fa eaa7 6d3f e60e 25de f75e a23f
000000a0: 3577 b510 a9af 75bf 775e 5c50 2ebf 91bf
000000b0: 4fc6 1013 0ad3 943f f6c9 0ff1 7cce 75bf
000000c0: a370 b385 e1fc a83f 6ff4 883e 802b 9f3f
000000d0: 644c 95e2 a574 6cbf 1063 e224 7e78 b03f
000000e0: a129 f49a 2538 9abf 611d bda1 2263 aa3f
000000f0: 9e2c e6aa f26d 783f 718c 18eb 8352 a83f
00000100: 08d2 0bfa d902 a63f 8602 4179 3c2c a6bf
00000110: 9b03 16be 826f ae3f 0564 9f8f 0748 99bf
00000120: 8a6c d76d 020a a23f 1b90 5eb0 1eb4 af3f
00000130: 51c4 2fd8 f4fe b03f 0091 e0b9 a97e 953f
00000140: 2a2e 3628 a320 b93f 0e83 7039 d7fd 7b3f
00000150: cd6e eace 374e 76bf 62db c07f b48b 89bf
00000160: 7c9b 252f 449b b33f 35cc 189c 2e87 a43f
00000170: 5ebf 9ca6 9f1a 6dbf 3a4d eb22 af2a ac3f
00000180: 2fea 61f7 f3c8 8c3f 6267 b57d 04ff 913f
00000190: 2332 5dc0 eed7 b43f 5917 95d7 69b1 88bf
000001a0: f073 1396 473d b23f 382b 2e1a 7bd9 be3f
000001b0: f7c1 0436 d49e b03f 52aa f288 5c4a ab3f
000001c0: 1aa5 cc9e 1a15 9d3f e73b 97a0 8b26 b53f
000001d0: 207e 24d2 00d0 953f 2c63 e398 ebd1 963f
000001e0: e267 e49f 5bd2 73bf a443 d517 af88 be3f
000001f0: 324a c037 1f81 783f 7e2f 33d8 0f46 c03f
00000200: b278 8a94 6986 a53f bc93 2095 81d6 ac3f
00000210: d9ce d35d 8986 b33f afbd 471f 6b2d ac3f
00000220: cce9 0241 ac4b 803f ceda fab3 06e1 b43f
00000230: 7988 1e7e ef2f a53f 61e3 7f58 bed8 ba3f
00000240: db13 6d73 8bf7 a03f 504b 1d86 6843 8abf
00000250: 936b a822 d26c 60bf 3caa 665f d2bf 783f
00000260: bec2 67bf de40 9c3f 5e2b d8e1 74df b13f
00000270: 070c d886 bde6 803f 06c0 ec63 9be8 993f
0.002269331938751607 -0.014717538449688011 -0.006823661024653308 0.0271308243326209 0.04421000203221116 0.01835876504993293 0.1402711663481474 0.00430075946745802
-0.02388436887648502 0.06850697243242662 0.07297397514568893 0.02429358449326603 0.054752212186661556 -0.009999366098238177 -0.008280242128749449 0.0022307376257727344
0.017491294236704643 0.046801735750033886 0.003620108552821138 0.03588080012062082 -0.0052944759475773056 -0.017330859808764445 0.020336301244418483 -0.005323875478085762
0.04880432850924989 0.030439380471069585 -0.003473590845410922 0.06433857346054261 -0.025604808409335104 0.05153759216642118 0.005964229507649991 0.04750454182455933
0.0429905050022264 -0.04330624561453526 0.059444509223801144 -0.024688833371190117 0.03523261633719084 0.061921080617395506 0.06639032629006293 0.02099099347118827
0.09815425616960086 0.0068338782503196815 -0.005445688248666603 -0.01247349753258015 0.07658792639777617 0.04009385734061547 -0.0035527342014560056 0.0550131540418541
0.014055162417425297 0.017574377224583222 0.08141987034213875 -0.012057139293243745 0.07124755300488039 0.12050599469345691 0.06492353743374922 0.053301707951807345
0.02840081781611046 0.08261940642044828 0.021301281763156266 0.022285157400662545 -0.00483928480960036 0.11927313167440318 0.005982515282101407 0.12713811928403723
0.04204111040347537 0.05632405228997281 0.07627161541659734 0.05503401524390072 0.007956834539403788 0.08155862707176739 0.041381343980234804 0.1048697439254176
0.03313861640939538 -0.012823883622024163 -0.002005014820736625 0.006042310493664046 0.027591209824040723 0.0698159266832312 0.008252602269754673 0.025301387761999215
