attack_soft_generative_decision_tree/experiments/vehicle_params_state_dict/fnn_epoch123.pth (torch, 121327 bytes, 8 tensors)

layer1.weight f8 [80, 18]
-0.28175797110110457 0.15404260171892376 -0.1363233467804193 0.11685109834786342 -0.14650385610781166 0.19563908536513308 0.011673901193282083 -0.1771448098012875
0.16525653738377627 -0.11488303830710052 0.021823325531708553 0.09583885409118262 0.09891403538661923 0.045178246976202825 0.059073298469854915 -0.12270465815002152
-0.07544281736041432 -0.2440908717918733 -0.18953094853755034 -0.07768376842067022 0.3349178548300553 0.023335722618450815 -0.05534789208798279 -0.030331125579807234
0.07242038133512434 -0.18560642942558725 -0.07209837482654195 -0.16551813892541176 -0.041184854476497446 0.20985555271674447 0.09154013738181593 -0.13635833643458276
-0.0091941812235326 -0.1545280007314817 0.1653215035816595 0.09636397449967583 0.11682813925256567 -0.1690659195217698 0.16649516226058503 0.08983937433701816
-0.22499590132338074 -0.1870680212788637 0.020857784530938756 0.11581119971982129 0.286751149170205 0.12322665851502053 0.044298417396924555 -0.04340503945241392
0.09433893484871636 0.1263213305021192 0.2183507817358911 0.30777809575021886 -0.0669398435250564 -0.14814078945573675 -0.4046989157642867 0.18758393666663564
0.16471366618862437 0.2544459033826152 -0.2834565369374595 0.372559264548291 -0.05106405931671084 -0.14909133967539814 -0.04438847178479177 0.284442410410579
0.07455846999258715 -0.1428244231952933 0.1439453662422265 -0.30270996424991403 -0.24401403511064984 -0.15216205798986418 0.044774210015519296 0.2636454477182367
0.23781253901713684 -0.06118045234720218 0.1430953128219964 -0.3005686190580895 0.29581651967745143 0.1489387427010715 -0.2539997760429686 -0.16898157017080212
0.11295345954728014 0.14982531153513415 -0.12345554860638103 0.10588475995160423 0.15008924720995706 0.37415039285010643 0.09133289962013341 -0.15265411605888013
-0.3706094362421746 0.0203609069723114 -0.297495778185039 0.2314556752536102 0.262691069709808 -0.1527718889024891 0.33477240243005796 0.16743958015453458
0.12773520486219808 0.21366806841552277 -0.23195769856968812 -0.24744607803778323 -0.15711491525818339 0.14394630406663195 -0.20534556693024114 -0.2045411648362273
-0.11259770951061228 0.12894869507196116 -0.32894516843043337 0.28879430793349326 -0.13290744068493823 -0.000997769409776877 -0.04371009925999692 -0.23063620382622524
-0.2540657061836904 0.1376130184160701 0.08274625041091736 0.10276992262151377 -0.10356698986464978 0.24729504870655483 -0.03435008521549238 0.09758956100302708
-0.2796060712378933 0.20171946517622677 0.09793752482148325 0.15460748727283977 -0.10605555521132416 0.26925220870608657 0.2628614026660343 -0.10107356727623167
0.23311966461485298 -0.15485098361239255 0.08861071798176508 0.16940613724199352 -0.11517707841646803 0.2898707961920645 -0.009444038581542786 0.16152295114846643
-0.2825623106766781 0.03364515335947363 -0.15594256686066085 -0.1162707950557981 0.11129462354674026 -0.23934654873955713 -0.04894699246728264 -0.04168439715597434
0.1309203706635617 -0.24834302201633185 -0.04967332348538801 0.03773080685806338 -0.1559714804995638 -0.09358925684580802 -0.07821313002466965 -0.03396238585674141
0.2269941253737405 -0.26775340644823103 -0.07127252562853023 -0.13984005007488118 0.2878512735854202 -0.35463395996067937 0.19549824001830188 0.012247361917384597
-0.19657860040363345 -0.06566090957906148 -0.17607635041215133 0.09433292733823552 -0.08605383259543284 0.3405346328093329 -0.1815416646239998 0.3238447727080361
0.03575090844681143 -0.01437809089297996 -0.0613539645140525 -0.0415107143677453 0.20998654775672532 0.052244947613559425 -0.15255265771641838 -0.3949977936687569
-0.0212613832744512 0.1103845695294734 0.13050535022421705 -0.04529871734378294 0.023880925550549548 0.3401577731995654 0.05422474160316564 -0.04663177257276557
0.23951648178090218 -0.18671050488377516 -0.0893463290723506 -0.005803464438414778 -0.07441753689614514 0.2143754321214967 0.05824415147440392 -0.08415103043998926
0.016277460305362552 0.13725399658415288 -0.12836214823267633 -0.05793443628822218 0.06840483991058288 -0.2770726769274927 -0.043687487519175394 -0.04496809942362685
-0.050922159928682605 -0.1855226225760784 0.14841945148451713 0.11753357589389019 0.16477490642641895 -0.2280119786516612 0.17013817449582122 0.3600742548214436
0.023377564311954774 -0.23119092916850317 0.04773109900286164 -0.21084467368967763 -0.17576686279792922 0.06562397692414655 0.3257754663257572 -0.2575256671696453
-0.15138326978103578 0.32601257087086094 0.27590915760195683 0.06055870108249651 -0.4274466730714455 -0.1296900043078553 -0.08148102141707209 -0.03813707328247444
-0.066858938848494 0.004380042079349872 0.07482447873910499 -0.028991300113684056 0.18871718487604236 -0.006591495678902076 0.13486154398905129 -0.15648369112276167
0.2103886661115198 -0.19093069548834912 -0.1066655121318761 0.06486232660087479 -0.06023792968701799 -0.25531191039944673 0.24472919331002413 0.07622981424001578
-0.27738519187975086 -0.12279310225869572 -0.013149355007052402 0.30953886942700276 0.19242013258267157 0.05450039173049836 -0.18462191630272978 -0.14807581929865998
-0.015949649854247197 0.023434170460120942 -0.2551642146506829 0.37262218198256153 -0.23289153018447564 -0.1737582852157494 0.19149463639717562 -0.06119696972016747
00000000: 460f d195 5208 d2bf 7669 4900 abb7 c33f
00000010: 9a34 0d1e 0b73 c1bf 6edf e71d f4e9 bd3f
00000020: cb47 5c6b a3c0 c2bf 7036 bb98 b30a c93f
00000030: 972c bc7e 7ce8 873f 7e57 605e aeac c6bf
00000040: 0abb c14f 2027 c53f 85e4 648c f968 bdbf
00000050: eb6a cb95 da58 963f 96fb 0128 e588 b83f
00000060: a7d5 1923 6e52 b93f e9bd 816a 9a21 a73f
00000070: 1660 fdf9 da3e ae3f 503a d28d 9269 bfbf
00000080: e5f4 4771 3850 b3bf a192 cca3 5e3e cfbf
00000090: c339 c6d4 8c42 c8bf 25fc cb5c 15e3 b3bf
000000a0: 2cdc 554c 4b6f d53f 162b e6d5 51e5 973f
000000b0: b741 d714 8f56 acbf e520 aa61 1f0f 9fbf
000000c0: f3f0 6561 248a b23f 98b5 2794 f3c1 c7bf
000000d0: 0b89 f901 0a75 b2bf b32a cac8 b22f c5bf
000000e0: c057 2266 2e16 a5bf bfb5 e6f7 8bdc ca3f
000000f0: e484 53a8 2c6f b73f fd01 c3a1 3074 c1bf
00000100: 1d3b 591d 66d4 82bf 069f bad2 92c7 c3bf
00000110: 1fb9 9a49 4129 c53f 811a fd36 4fab b83f
00000120: 33a1 57ed 72e8 bd3f e669 9bb9 f3a3 c5bf
00000130: 88fb 6ca6 b64f c53f 18ac ab96 b6ff b63f
00000140: d37f f56a aacc ccbf 5594 c24c d8f1 c7bf
00000150: 78a7 b539 be5b 953f d4a1 4e83 cda5 bd3f
00000160: 53b1 f17d 215a d23f 5d3f 5144 c88b bf3f
00000170: 84fc f73b 48ae a63f a002 dc71 2f39 a6bf
00000180: 882a eaaf 9826 b83f 8a9b a51f 4c2b c03f
00000190: bd4b 4e1d ebf2 cb3f ba07 ebe5 a2b2 d33f
000001a0: 354e bd36 f822 b1bf d93f f502 47f6 c2bf
000001b0: 15cb fb47 96e6 d9bf 387b 9e1c c002 c83f
000001c0: e800 be60 5615 c53f dc49 6878 d748 d03f
000001d0: a7f6 fee2 2624 d2bf 56a1 43d0 02d8 d73f
000001e0: 7b55 8881 1125 aabf 99e6 02ce 6c15 c3bf
000001f0: c02b 45f5 15ba a6bf 25c4 93f0 4d34 d23f
00000200: 9d09 428e 4316 b33f 07d0 5819 1248 c2bf
00000210: c7e6 3540 cd6c c23f 041c 289d 995f d3bf
00000220: ae59 4816 da3b cfbf 4117 61db 0b7a c3bf
00000230: a118 712f a5ec a63f 4a1a ec27 91df d03f
00000240: 4823 d42a a470 ce3f 44b0 f853 0b53 afbf
00000250: bc03 647c f250 c23f 72bc 4329 843c d3bf
00000260: 7d65 6869 a8ee d23f 3e15 81ba 6c10 c33f
00000270: 9bef d246 8841 d0bf 4e52 c126 30a1 c5bf
00000280: b4c2 b996 84ea bc3f 5505 94ce 792d c33f
00000290: 5c2e c667 c89a bfbf 340f 237d 431b bb3f
000002a0: 47bf 1fdc 1f36 c33f a0e9 447d 14f2 d73f
000002b0: bcd5 eac8 9761 b73f 884d 098a 2b8a c3bf
000002c0: dcf1 0fa4 10b8 d7bf bd7c 4056 7dd9 943f
000002d0: 152e 80bb 2b0a d3bf 8b0b d8ed 56a0 cd3f
000002e0: 61b6 5634 eecf d03f 86cb 4a7d 078e c3bf
000002f0: bb96 023a e96c d53f d2eb 6800 a96e c53f
00000300: 0a2b b78f a059 c03f 10a7 05ab 7959 cb3f
00000310: 2ac4 b434 cab0 cdbf 1a0e 5926 50ac cfbf
00000320: eeb4 5f6f 571c c4bf 1e52 2c1e d56c c23f
00000330: 0a07 2c77 c348 cabf c423 d4a6 672e cabf
00000340: cddc f317 34d3 bcbf e014 190e 6481 c03f
00000350: c37f 2509 700d d5bf 8219 f61e 9b7b d23f
00000360: f184 916b 1c03 c1bf 4be3 f8be f258 50bf
00000370: 3138 a78d 2b61 a6bf 6e86 5ab4 7c85 cdbf
00000380: a805 c6ce 9c42 d0bf 34e9 ccaa 4d9d c13f
00000390: 13ab 61b7 db2e b53f 82fe ab30 214f ba3f
000003a0: 0bf1 69c2 5d83 babf 0825 5439 5da7 cf3f
000003b0: 890f 3b99 5596 a1bf 3162 f024 a1fb b83f
000003c0: 03b5 eedc 10e5 d1bf 3502 f384 f1d1 c93f
000003d0: 4bd2 2802 6f12 b93f cfdb c69a 2dca c33f
000003e0: 2917 31f5 7426 bbbf 9a2d b19d 6d3b d13f
000003f0: 1834 f5a1 b8d2 d03f 3b04 f111 f5df b9bf
00000400: d7a2 c97b ddd6 cd3f 2f30 2f33 28d2 c3bf
00000410: d587 ce27 31af b63f 2918 99ad 19af c53f
00000420: bd2c 0cb9 3e7c bdbf 2b77 6d3d 3e8d d23f
00000430: 5792 cc66 6557 83bf 8237 5eb8 c8ac c43f
00000440: c710 dc3a 8015 d2bf 9418 b202 f039 a13f
00000450: 3744 5c10 edf5 c3bf 3a9c 3e3e ecc3 bdbf
00000460: f197 5af0 cd7d bc3f 5e99 9f5f e8a2 cebf
00000470: 12e2 c487 940f a9bf 3aa7 1345 a857 a5bf
00000480: 3eaa 30ab ffc1 c03f 78fe df42 b4c9 cfbf
00000490: f2ec b427 c86e a9bf 4d9f 03cb 7351 a33f
000004a0: a15a ed9b dff6 c3bf 6ae1 682d 77f5 b7bf
000004b0: 66e1 9293 c605 b4bf 3401 1991 8463 a1bf
000004c0: aba2 6ebc 240e cd3f a99d 052f df22 d1bf
000004d0: 2e88 ad8e ea3e b2bf 130e df5c 47e6 c1bf
000004e0: 3453 8abf 276c d23f fc40 05a3 52b2 d6bf
000004f0: e1ee a619 1606 c93f 70f6 2d17 2515 893f
00000500: 0add e9d1 7c29 c9bf d286 4443 27cf b0bf
00000510: cd42 4f7b ab89 c6bf d989 dae5 3326 b83f
00000520: 265e b1bc 9f07 b6bf b192 c4c5 51cb d53f
00000530: 08f3 35dc c13c c7bf 89bd f06c dfb9 d43f
00000540: 16a6 296d f14d a23f d669 50b1 4272 8dbf
00000550: afb6 226e c969 afbf 9a3f 4971 e440 a5bf
00000560: a887 9bd5 d6e0 ca3f 2a50 c38a d9bf aa3f
00000570: c5aa e771 d886 c3bf 772a 73d3 a447 d9bf
00000580: ee71 5347 8bc5 95bf 50b4 1cc4 2942 bc3f
00000590: c040 9539 66b4 c03f c9a7 15bb 6431 a7bf
000005a0: 6087 f3c8 3d74 983f 12d4 d71b 25c5 d53f
000005b0: c7a8 a367 58c3 ab3f 981f 4fa4 1ee0 a7bf
000005c0: da0c 0de0 79a8 ce3f b8d1 253c 21e6 c7bf
000005d0: 7e26 62a9 66df b6bf b8be 769f 5fc5 77bf
000005e0: d6c2 3717 070d b3bf 8d8b 0377 a770 cb3f
000005f0: 871b 886b 2dd2 ad3f ae19 aa03 ec8a b5bf
00000600: 35a2 b1de 09ab 903f 7280 49f9 8991 c13f
00000610: 2c11 5abe 2b6e c0bf a518 571a 95a9 adbf
00000620: 78d7 4dc6 fa82 b13f 4833 8109 8fbb d1bf
00000630: f04d 47d4 345e a6bf aa87 c608 0f06 a7bf
00000640: 791c 1227 7812 aabf bff2 508e 34bf c7bf
00000650: 66ae 1b99 68ff c23f dc6c a530 ae16 be3f
00000660: 66c6 2619 5817 c53f 77db b31b 7f2f cdbf
00000670: 675e a173 16c7 c53f 2abd 25e3 740b d73f
00000680: 554d b8c8 49f0 973f ad8d f413 aa97 cdbf
00000690: fe58 70ea 3570 a83f f037 0451 f5fc cabf
000006a0: 1904 b84f 877f c6bf c700 b9a2 bbcc b03f
000006b0: 6754 6d57 81d9 d43f 04f3 97ef 4c7b d0bf
000006c0: 0080 6fe8 8660 c3bf 2b6a 7ed4 63dd d43f
000006d0: e14e 24e2 7ea8 d13f 916e 46d1 8c01 af3f
000006e0: 210e 684a 495b dbbf 3967 8f9b ae99 c0bf
000006f0: d422 3bb2 f0db b4bf 26da 06d5 b386 a3bf
00000700: 06af ccdb aa1d b1bf 2d4b c697 cef0 713f
00000710: 8dec 1f71 b227 b33f 6f5b 6d37 e5af 9dbf
00000720: 4b2e 9e7c e227 c83f a035 f625 afff 7abf
00000730: a9e4 75a0 2443 c13f 6a64 dd57 a807 c4bf
00000740: 02f3 320c 04ee ca3f 3666 76c2 6a70 c8bf
00000750: 05ae 3756 6e4e bbbf 3244 7e43 d19a b03f
00000760: 0b0f f883 81d7 aebf 5779 5cc4 0757 d0bf
00000770: 564e d244 4953 cf3f 131a 240f cc83 b33f
00000780: 6e2a e1d1 adc0 d1bf 941f 6066 5e6f bfbf
00000790: c811 c08d 0cee 8abf 19e8 411e 7ccf d33f
000007a0: 696c 4410 39a1 c83f 4f0f 34b0 79e7 ab3f
000007b0: c691 52e2 b0a1 c7bf d0aa 9b00 26f4 c2bf
000007c0: 64cd 06e2 1a55 90bf 57c0 f08e 20ff 973f
000007d0: 7330 4249 9c54 d0bf d545 58b5 0ad9 d73f
000007e0: 2930 d4c0 63cf cdbf 4b91 3424 b63d c6bf
000007f0: 46b7 5770 e582 c83f b8f5 1f8f 3555 afbf

layer1.bias f8 [80]
-0.09085745881216183 -0.116360279159903 -0.1142676609602916 0.07936538924347136 0.03530028399484081 -0.031919094556340795 0.011052933914622271 0.02144337327084156
0.04405405417869358 0.06960906115173647 0.039874846111826186 -0.014265211852858667 0.0046588653245681405 0.05219032493061982 0.03817218023043763 -0.026135600559348573
-0.027659968951746352 0.08776512819396079 -0.1156927723663654 0.01528040516252498 0.11942989950142963 -0.0348227059513062 0.10960143895137285 -0.12970672186575036
-0.07534172422519878 -0.10455207317478149 0.12227105472055642 0.15790856377192303 0.017015089141055314 0.02388413731056962 0.045810197940000894 0.01989925266230645
0.025957186067886596 -0.05361671944913608 -0.008586652038342453 0.13021279751763543 -0.06491630619525952 0.08418869587062797 0.021242876906247262 0.03163817961889353
0.09103005109547603 0.03549492056785877 0.0034425016452683094 0.059363607590756304 0.019160575338236514 -0.10703086639675334 0.11796812834341476 0.06343092134965156
-0.04768440720942205 -0.008627112826593616 -0.03392984847527127 0.0012551899920300149 -0.04155838753393574 0.02200766243494322 -0.06556643581397895 0.06686593772217773
0.0624983175160242 -0.11531165920198268 -0.022682061371895053 -0.21112355869875374 0.09186669819738506 0.06572027700498359 0.031440942958308286 -0.07601637178842074
0.045713387687170925 -0.0022997013069523792 0.010541754236811583 0.017307086405926955 0.07044694547750732 0.043758547291063925 0.06221235785367046 -0.01387218715986349
-0.057797737761513604 0.04841596736903372 0.04639192778610323 -0.09291445142168883 -0.018384749407747515 0.0833262369965714 -0.023094224733334688 0.0029676088257542563
00000000: a326 3236 6f42 b7bf 2193 8b89 c9c9 bdbf
00000010: 379b d03a a540 bdbf 402a 3c47 4a51 b43f
00000020: b83e 98fa e012 a23f 818e 7916 b357 a0bf
00000030: ca55 81ad eba2 863f 2020 a86b 40f5 953f
00000040: 824b e8c3 408e a63f a7e7 2641 e6d1 b13f
00000050: 8976 f7cf 796a a43f bd3f 0753 1437 8dbf
00000060: 67ae 49a3 2c15 733f 913f 7db5 b0b8 aa3f
00000070: cada 69d3 4d8b a33f 97a6 a776 4ac3 9abf
00000080: 1779 3918 e552 9cbf da82 5283 c677 b63f
00000090: ed75 b2a1 0a9e bdbf da98 8a43 554b 8f3f
000000a0: e4f0 8538 f592 be3f df2b 701e 48d4 a1bf
000000b0: 0f04 e403 d70e bc3f cf0c 3ed8 3a9a c0bf
000000c0: 7e4c 9261 9849 b3bf 6cc2 03b7 ecc3 babf
000000d0: f7af 45e5 274d bf3f 9651 940a 5936 c43f
000000e0: 1ff1 984d 676c 913f c67a 9152 1575 983f
000000f0: 9680 f32b 6f74 a73f ab08 993d 7860 943f
00000100: 2df2 0745 8594 9a3f b60e 1b91 a673 abbf
00000110: 9797 7eed e095 81bf e6f0 6d1d d0aa c03f
00000120: 7df4 15e4 5a9e b0bf 820d 75ef 638d b53f
00000130: 1f55 5756 b1c0 953f 3747 8925 e132 a03f
00000140: f184 68d4 be4d b73f 44b1 06e6 632c a23f
00000150: 5b89 73ff 7233 6c3f 4e89 5922 e864 ae3f
00000160: 9213 cd71 d49e 933f 7b2b d6f6 5f66 bbbf
00000170: 598e 34c5 2833 be3f a07c c044 023d b03f
00000180: 04bb fc32 176a a8bf 1ecd 977b 17ab 81bf
00000190: 237a 1ecb 405f a1bf 3486 d3fd a590 543f
000001a0: f55d aa16 2447 a5bf 7d8e ad39 2d89 963f
000001b0: 724c 8941 f6c8 b0bf 27ae bb47 201e b13f
000001c0: 319c 928b c7ff af3f 2db9 1e9d 1085 bdbf
000001d0: 524f 315f f739 97bf 435d 03c6 1806 cbbf
000001e0: d369 5970 9384 b73f 9ea3 6b48 0bd3 b03f
000001f0: c7cd 85fb 0619 a03f 4cb6 ca16 cf75 b3bf
00000200: 4027 36c2 be67 a73f 5bfc ecbc d2d6 62bf
00000210: ff3f 844d ea96 853f 67f6 68e8 f2b8 913f
00000220: 3ad2 ed9e cf08 b23f b738 1233 8567 a63f
00000230: c7f1 c654 4cda af3f 7fa3 6771 0569 8cbf
00000240: 4add ef42 aa97 adbf 4b8d e848 fac9 a83f
00000250: af87 47c9 aec0 a73f 3e93 2ed2 3dc9 b7bf
00000260: ea43 cea5 73d3 92bf 8a8c cc46 de54 b53f
00000270: 2618 d32f 03a6 97bf 8770 53db 864f 683f

layer2.weight f8 [80, 80]
-0.05496417852708159 -0.07020011115595517 0.19314145713043182 -0.20143275119916781 0.008071472334007582 0.05843589982478425 -0.22607598664703407 -0.029672027576349545
0.12012322037622214 -0.2359610240657028 0.029370739888196565 0.02603882910661165 -0.1626580229384542 -0.1363033137131094 -0.009027069320997307 0.08408300944479592
0.12427240640180164 0.13006193634069946 0.008446287319012119 0.01884858290166487 0.12196985488587221 -0.14541945428846897 -0.065855077266758 0.15436517004364386
0.12649671910976473 -0.12204933935108155 0.2102047973450779 -0.10332418080912263 0.14704542527020723 -0.00359275006045256 0.2422900930129921 -0.11959128293744592
0.015340638138806047 0.21817164967861374 -0.11601613639930392 -0.17167039485207714 0.10980287278028657 -0.22919321666798204 -0.15089154050802675 0.08870579732299763
-0.16131887249387675 -0.02634660314234608 0.0646587014545872 0.2638354538297654 -0.0005840762464731379 0.08822975994844774 -0.36046436335138876 0.01208203699057799
-0.23669522621627667 -0.2235585280121799 -0.027319164645656695 -0.10898187917381848 0.16400071691346466 0.10109070943477273 0.09880525327340245 0.047781968440236584
0.280600742898688 0.19101579929885878 -0.31933835694753976 0.01795881274638758 0.32979776052760024 0.14201766558576878 0.043884222305646765 -0.13806013970550482
0.1351605835153382 0.10151026713191302 -0.25051590775659954 -0.2047718322922119 0.09645526785840869 0.06649822242940522 -0.008594278821818046 -0.22299617590849558
0.13586331941709925 0.052275678555397824 0.2879673172774148 -0.10031176136112291 -0.010752667855385098 -0.0758411641358471 -0.008338861207734893 -0.0993493236727091
-0.005189745182740258 0.013334253783490525 -0.1383020190433443 0.1353138420283743 0.005371291174307427 -0.1160535276560341 0.3783087567163336 0.12339298398626403
-0.6583738263587886 0.20364709130487568 0.15671950337641508 0.13435302258778664 0.07220093681085267 0.12371154752142673 0.27221844383841026 0.032115617215684955
-0.10211781112455068 0.004913707212256861 0.13712298027728567 0.0753034755284737 0.1769257908516119 -0.12035463754502958 0.020421320507861707 0.10447069291689344
-0.07610037305620294 0.12274525298229527 0.16674573872137138 -0.07352548512981043 -0.27195427844342196 0.1709032658389117 0.1918205658295789 -0.14977236694924742
0.04458534711160658 0.15372243148504294 -0.2125885764384372 -0.08541587693063175 -0.04560065250967865 -0.11847551810419493 0.14308642473646901 0.18386785594953528
-0.3538718492744087 -0.15565577729744867 -0.11901084863343019 0.12230519470376952 -0.0728483658039405 0.05877795381908883 -0.18785601135626848 -0.18583640864372405
0.11861542217224641 -0.2233533660521812 -0.000644297118411058 -0.1481164019917266 -0.12286288960542999 0.11757711902258297 0.10284763039148621 -0.05920881101505744
-0.293838871095333 -0.13746867936052296 -0.11197810363030157 -0.13695134032335793 0.029844485136237366 0.033737435279369385 -0.009812518265753778 0.08652086830774595
-0.226634310664815 0.18636218866284698 0.09900969318081554 0.23749538780571963 -0.10282198551040451 -0.02229481139187645 0.23849020382159422 -0.42507855848626985
-0.2143695201761568 0.013479051383552217 -0.05318927963569413 -0.02980451403282072 0.1434766652464409 -0.13020413917678347 0.04442293253285522 -0.048279050244017685
-0.04143686615058137 0.026757377470850392 -0.06037332736653125 0.25968823832288734 0.18065399373388916 0.07418926769978794 0.23469032811770127 -0.055527298500186034
0.22880333071536085 0.11815225402373755 -0.15553298531226703 0.2342885004039305 0.23339614497081201 0.090348171763267 -0.02660289754320863 0.11293469088660514
0.1632602090550025 -0.0401020371606606 0.1318956543646644 0.028790041006488427 -0.09968689794719097 -0.1496239685610955 0.09123050279725264 -0.09697163020817602
-0.11160557056763182 0.12645005638077417 0.09349949558254932 0.16387443789305783 -0.1062417780777258 0.1260103716041156 0.02730563801882104 0.1510693288595956
-0.21510817387383918 0.21154705312362793 0.029717899272627295 0.0013733471903999426 0.0044256202600111965 0.0781523124763367 -0.04641990964880762 -0.06837628998279253
0.15483192161082918 -0.09440054403900655 -0.14105177055798596 -0.13759556449703716 0.06375634810322625 -0.17235885829398692 0.0907743878275094 -0.18946834309475064
0.05164148371534149 0.09009480508576312 -0.018075630932627595 -0.02446731505310699 0.07650566040350706 0.0072343128175174415 -0.18850647678809598 0.09384790451571913
0.14579530448195338 0.11194438589330676 -0.19813102993127604 0.11814617251055369 -0.20510147251203156 0.23623624397412202 0.27175921201145564 0.08004366974300206
0.10026386564116567 -0.01440561709332247 0.03482097120683411 0.2127103355296301 -0.19131621511326943 0.2092048407794361 -0.1680012323722907 -0.056188692717706476
0.0803723602728994 0.10347326155811214 -0.11591839704734573 -0.17814484409896197 0.238579593761247 -0.04664568692934881 -0.050635693723388275 0.015523128917713928
0.03975439757989527 -0.08751808629228353 -0.1396884481353723 0.25125994453254497 0.19243843618885087 0.22164129270822314 0.20141257203932694 0.24714667216996625
0.04108565379568631 -0.22270685805718682 -0.024315285910405927 0.05905161373702323 -0.016560950680834095 0.21796433515979974 0.22458392110979858 -0.14048445289668784
00000000: 425d 73ca 4324 acbf f223 976d a2f8 b1bf
00000010: 3b41 f0f8 dbb8 c83f 9032 5f63 8cc8 c9bf
00000020: e81b a4ad c687 803f bfce 516d 4feb ad3f
00000030: 3fac 87d4 0ef0 ccbf b98b 2f10 5862 9ebf
00000040: 208e 0137 65c0 be3f 1e16 bf88 f833 cebf
00000050: 74d3 1dfd 5c13 9e3f 1091 c13d eca9 9a3f
00000060: 5ff1 7964 fad1 c4bf 5afb 5d11 6372 c1bf
00000070: 8e69 19bc c87c 82bf cdf3 b6cf 7686 b53f
00000080: 4b7c 4a01 51d0 bf3f 9ad4 8499 dea5 c03f
00000090: 9053 767e 494c 813f f4eb 8dfc 0a4d 933f
000000a0: f92a d599 6a39 bf3f 8e81 2fcc 1a9d c2bf
000000b0: 29e3 22db e0db b0bf 8e4d 7de6 3cc2 c33f
000000c0: b659 d063 0b31 c03f a1e4 0221 a03e bfbf
000000d0: fc9a 07a5 fde7 ca3f 670f 7619 7473 babf
000000e0: 0bee 476e 62d2 c23f f422 6500 8b6e 6dbf
000000f0: 505b d19c 5c03 cf3f 105f 1ac9 889d bebf
00000100: 44f8 d898 e96a 8f3f 9a5a 2472 0ced cb3f
00000110: 5cae a4c7 3bb3 bdbf c460 caa5 4bf9 c5bf
00000120: 4922 9983 0a1c bc3f 4aea 060d 3456 cdbf
00000130: ebcd dcfb 6950 c3bf eec6 7752 6cb5 b63f
00000140: 9f5d cbc8 18a6 c4bf 09a3 6d9b 9afa 9abf
00000150: 3137 2600 798d b03f a558 6e19 aee2 d03f
00000160: 0ea3 4030 9623 43bf 1934 83bd 3996 b63f
00000170: 66ee fd1e d911 d7bf cbe1 f28d 77be 883f
00000180: f7ee db77 074c cebf 70f0 46db 909d ccbf
00000190: 2e1b d41a 8ef9 9bbf 157e e886 3ce6 bbbf
000001a0: 2dfa d4b9 f9fd c43f 59a8 f3aa 14e1 b93f
000001b0: 6c75 7b13 4d4b b93f c921 94cf e076 a83f
000001c0: 3fec 7ed1 5cf5 d13f cf02 81a9 3473 c83f
000001d0: faac dc25 0a70 d4bf e8d1 ae85 cb63 923f
000001e0: 32a5 f010 681b d53f 0094 9286 a22d c23f
000001f0: 59ee 3927 fe77 a63f 714a 7564 f4ab c1bf
00000200: 3f0d f426 f14c c13f b02f 8aad 93fc b93f
00000210: 6d4f bcdf 7308 d0bf 5a24 6ba1 f635 cabf
00000220: ac91 fadc 4ab1 b83f db90 930a 0706 b13f
00000230: f380 c793 e099 81bf 927c 5481 238b ccbf
00000240: 37ac cf20 f863 c13f af14 8bb3 e0c3 aa3f
00000250: 9b7e 8178 0e6e d23f f43e 7316 08ae b9bf
00000260: 85df 44a6 7e05 86bf 9a6e a797 536a b3bf
00000270: 9384 6201 f713 81bf 38d3 0d10 f56e b9bf
00000280: dae0 599d d741 75bf c74f 553f fd4e 8b3f
00000290: 0587 616c e1b3 c1bf 059f 1ac7 f651 c13f
000002a0: 5d25 e5fe 3400 763f ac3b de19 afb5 bdbf
000002b0: cfc5 78ee 3536 d83f 04e0 c6be ae96 bf3f
000002c0: b01b 98fc 6511 e5bf 5c3c 8a9e 1b11 ca3f
000002d0: 01d3 d27a 620f c43f be0f 11d7 7a32 c13f
000002e0: 4dda 57b6 c27b b23f cdf8 bd5a 8fab bf3f
000002f0: e3da 69e8 066c d13f 88b2 434b 7571 a03f
00000300: 127a 1e93 6424 babf b8cf 753c 6520 743f
00000310: 5d16 e9ed 3e8d c13f 9780 abac 1647 b33f
00000320: ed67 c31a 81a5 c63f a586 2dc0 8fcf bebf
00000330: ddbc e39e 53e9 943f adf0 7761 97be ba3f
00000340: f562 7d65 507b b3bf 2457 4c9f 3b6c bf3f
00000350: 921f 47a3 ec57 c53f 1319 0ef2 90d2 b2bf
00000360: 5dfe faea b267 d1bf 5c63 c780 28e0 c53f
00000370: ca18 7888 938d c83f 9f1d f2ac bd2b c3bf
00000380: f447 73ff e3d3 a63f f0e6 f137 2dad c33f
00000390: 5034 a73b 1a36 cbbf d5e9 f99d d0dd b5bf
000003a0: 0821 69fe f758 a7bf 2c59 a25b 6954 bebf
000003b0: 5352 5fed a750 c23f d960 0b5e fb88 c73f
000003c0: bdf3 e61c d6a5 d6bf 3687 764c 87ec c3bf
000003d0: 2bf2 bfb6 7e77 bebf c633 62ab 644f bf3f
000003e0: 80e9 b1c4 30a6 b2bf 16f0 c1da 2418 ae3f
000003f0: 33eb 9070 aa0b c8bf 17f4 c3c8 7cc9 c7bf
00000400: b0f1 078f 945d be3f 2aa4 52d5 d796 ccbf
00000410: 67bf b786 c11c 45bf b41f 476f 7af5 c2bf
00000420: 4e54 bf3c f173 bfbf 92bb f5b8 8819 be3f
00000430: bda5 00e9 3854 ba3f dab1 e305 9e50 aebf
00000440: 1479 698d 41ce d2bf ebf3 09dd 9298 c1bf
00000450: 8fd2 f5d4 98aa bcbf 2685 ea1b 9f87 c1bf
00000460: ba1f 817e 8d8f 9e3f 8603 5a7a 0846 a13f
00000470: 73af 57e8 9518 84bf 87a4 cd4b 3b26 b63f
00000480: 307b 3a64 5a02 cdbf de4a c258 b7da c73f
00000490: 40d7 3202 b358 b93f 93c7 c9b5 3f66 ce3f
000004a0: 85b4 13a9 8a52 babf 91c3 3177 73d4 96bf
000004b0: 6b41 ead4 d886 ce3f 827a bbb2 7c34 dbbf
000004c0: 1e39 35df 7570 cbbf c4d8 fca6 e79a 8b3f
000004d0: 26f3 1011 a03b abbf 8732 2d14 1385 9ebf
000004e0: 457e 7c80 715d c23f 12b8 c87b 87aa c0bf
000004f0: ee90 d744 9abe a63f f08e c21b 08b8 a8bf
00000500: ec52 ee81 3637 a5bf 62f7 a734 4966 9b3f
00000510: 630e 2eb5 40e9 aebf 802b b06a bb9e d03f
00000520: b94a 7d89 ab1f c73f 6f1a 7c5e 11fe b23f
00000530: 17fd f929 550a ce3f 04e3 2ff6 126e acbf
00000540: 5cb5 5173 6d49 cd3f 0a0b fbe2 393f be3f
00000550: 95c6 ae3e 81e8 c3bf 6e29 8863 2afd cd3f
00000560: 1ac0 d4c4 ecdf cd3f ed03 faca 0e21 b73f
00000570: 782a b53b ca3d 9bbf 511c f1b3 49e9 bc3f
00000580: d48e 50e5 b5e5 c43f 9c4d 3714 4188 a4bf
00000590: 5389 fdf0 f4e1 c03f a520 4bf2 227b 9d3f
000005a0: 1fdb 859e 1485 b9bf 2475 d5d1 e026 c3bf
000005b0: 206e e9d9 e15a b73f b148 62fc 21d3 b8bf
000005c0: a4af a3c3 2e92 bcbf c6cb 5df4 832f c03f
000005d0: 2734 b83b 95ef b73f 2656 b36b d6f9 c43f
000005e0: 8d0e 5042 a932 bbbf c68c 7f9c 1b21 c03f
000005f0: 0525 2659 02f6 9b3f 8db8 7061 3d56 c33f
00000600: 50f9 f125 aa88 cbbf 8a96 5d4d f913 cb3f
00000610: 8e51 ed75 5e6e 9e3f ff5d 3451 3c80 563f
00000620: be0d 8064 9920 723f c850 313a ca01 b43f
00000630: c359 a6b3 59c4 a7bf 9743 4cc9 1b81 b1bf
00000640: 2101 d94b 88d1 c33f a044 5f51 a22a b8bf
00000650: f272 cb02 fc0d c2bf 8d72 cb40 bb9c c1bf
00000660: 1608 0406 5652 b03f 9d37 c6e5 da0f c6bf
00000670: 4498 0883 fd3c b73f c210 9ca8 7f40 c8bf
00000680: ef3e 59a7 c070 aa3f 4402 6201 7410 b73f
00000690: 103f d70e 6b82 92bf 4b66 e5b7 f50d 99bf
000006a0: 8256 64fd df95 b33f 2745 5d0f baa1 7d3f
000006b0: 91cc 71f0 fa20 c8bf e971 b190 6a06 b83f
000006c0: 6a86 54a8 6ba9 c23f 35ef 6124 63a8 bc3f
000006d0: 1b56 f08a 5b5c c9bf 3f95 14db d33e be3f
000006e0: ab7a 66da c340 cabf 6cd6 ff3e fd3c ce3f
000006f0: ad75 febf 8064 d13f f24a ccef bd7d b43f
00000700: 733b e687 e4aa b93f 902c 5b32 b180 8dbf
00000710: 1cbc 18e9 0dd4 a13f 3a7b 4f9f 173a cb3f
00000720: 2f91 8dbb 0c7d c8bf 2302 a866 39c7 ca3f
00000730: 0404 5d7b 1081 c5bf 464d 41ab c3c4 acbf
00000740: d0da df72 4893 b43f 3b0d 6742 397d ba3f
00000750: 37b6 52fc d3ac bdbf 6293 ad43 73cd c6bf
00000760: 6248 59b0 c689 ce3f 04d6 b887 f1e1 a7bf
00000770: 40bd 1af1 ebec a9bf 4ff0 4318 97ca 8f3f
00000780: 5ca6 f43a b05a a43f b011 6fd6 9567 b6bf
00000790: cc69 2fa2 4fe1 c1bf b4f8 2397 a414 d03f
000007a0: ee55 f69a d2a1 c83f 66ff cfeb bd5e cc3f
000007b0: 70c1 f41c e3c7 c93f b182 248d 80a2 cf3f
000007c0: c245 c6c6 2d09 a53f 04ab f987 a881 ccbf
000007d0: cdc1 1c37 1be6 98bf 8996 8d5b 033c ae3f
000007e0: 6668 4296 5af5 90bf 2055 9a5d 41e6 cb3f
000007f0: 2ee0 2f7a 2abf cc3f 3bd4 6401 65fb c1bf

layer2.bias f8 [80]
0.09009781356595976 0.0005848259440885714 -0.00797952381863828 -0.029116765358755785 0.024750823382262244 -0.017645877701108453 0.02287479756155983 0.016228722927114244
0.018730238866277338 0.035003892946288445 0.03699057371862641 0.01039673320003563 0.0071699917444822655 0.04227220525141923 -0.020546230378181835 0.01671498006038631
0.053135308604586165 -0.0327101026623563 0.026099575813916462 0.11408409902749672 0.040654067770788976 -0.00035747815380125314 0.010902312720164566 -0.005078229391578025
-0.013883193882314142 0.07888287658027557 -0.024407906148573986 0.047900497929465685 0.0023564266410211272 0.08558026715025922 -0.028881527713381244 0.016634278525917947
0.045161886465397975 0.08514529844699059 -0.005643554099675629 0.05231825508291329 0.04647692781118462 0.032285131023722415 0.018299561802442056 0.003909163324294406
-0.01770849104844769 0.04749327812088051 0.08798066277443546 0.007606294536372668 0.0014020508635106165 0.03932697042491481 -0.02337872390589299 0.0040412521658878
-0.010401655882136884 0.06520461416786676 0.0750945697308774 0.02799461048217846 -0.0019413211210001166 -0.0031822368134852377 0.004081805819577 0.056032341086404036
-0.002333462035929621 -0.0019667773109356673 0.04011554689706189 0.013444004587033582 0.08879753843616651 0.03301347988660374 0.05874861055223717 0.026581225269196557
0.03549648281852636 0.08552958930377424 0.062345198166821665 -0.0424085645909522 0.08700666494455674 0.023576377818264122 0.04658338247903644 0.016319429801671857
0.053583786399368984 0.04961167968017379 -0.009513895084255089 0.025760047960968476 -0.029746150063871407 -0.03942240256543743 0.03323778740832596 -0.0015911172819144217
00000000: 8df7 b47a a610 b73f 1c0f e026 e029 433f
00000010: adaa b58e 9157 80bf aeb5 ec0b c9d0 9dbf
00000020: 4d4f e7a3 4758 993f 58ba 8ace c211 92bf
00000030: 18d4 b7ad 7d6c 973f af44 e928 439e 903f
00000040: c0f9 810d 052e 933f acbd dfbe 07ec a13f
00000050: 5878 c3b0 6df0 a23f 7797 a2e8 e14a 853f
00000060: dddb e100 485e 7d3f 9956 2bd6 b3a4 a53f
00000070: 051a 1f2e 120a 95bf 44c1 d952 bb1d 913f
00000080: d26a 7019 8d34 ab3f d003 5eea 60bf a0bf
00000090: 8cb0 3de2 d8b9 9a3f d014 5192 9d34 bd3f
000000a0: 84c0 0c27 9cd0 a43f aac6 c7fa 7c6d 37bf
000000b0: e1c4 aba4 f353 863f b2dc 88d2 e8cc 74bf
000000c0: 292f 82bd ca6e 8cbf 9e6e 200f ab31 b43f
000000d0: f616 b0da 62fe 98bf 5c6a 2300 6a86 a83f
000000e0: 51b9 79eb c84d 633f efe2 97a0 96e8 b53f
000000f0: 9b30 f383 1e93 9dbf 47a5 0b89 9308 913f
00000100: 5f02 ca72 751f a73f 88ec 3c10 15cc b53f
00000110: 6638 a904 b21d 77bf 5b3a 2155 75c9 aa3f
00000120: 1068 efe9 d2cb a73f 7db5 c93b ad87 a03f
00000130: 5af6 e3cd 1ebd 923f b2fe 1e0a 0e03 703f
00000140: b28a a8b7 2c22 92bf 1937 9ef8 0951 a83f
00000150: 4dee 4b95 e685 b63f 307e 7024 c727 7f3f
00000160: 9473 caa6 a0f8 563f 1bcb a627 aa22 a43f
00000170: 5860 649a 97f0 97bf 82b2 325e 8f8d 703f
00000180: e645 b49e 764d 85bf 9b37 66e5 3fb1 b03f
00000190: 73ef 19d1 6539 b33f 46dc f081 9eaa 9c3f
000001a0: 655a 72ae 7dce 5fbf 9571 5861 a211 6abf
000001b0: b32d 0f68 15b8 703f 3806 f860 45b0 ac3f
000001c0: ae4f 2fe4 9f1d 63bf 3cd5 5387 a11c 60bf
000001d0: 73d3 f763 068a a43f d789 3ac0 8788 8b3f
000001e0: 8d73 8c7b 6fbb b63f ff56 e190 24e7 a03f
000001f0: b7bc 0342 4c14 ae3f 350f e0d4 1b38 9b3f
00000200: d13d a851 982c a23f d467 e664 44e5 b53f
00000210: b9d6 60b6 b5eb af3f 3e15 fa4b 93b6 a5bf
00000220: f58c 789c 1146 b63f 1516 c0ee 6724 983f
00000230: baac 91f0 c6d9 a73f 1673 2665 0ab6 903f
00000240: 4dbe 5c84 556f ab3f e3b2 73bb b366 a93f
00000250: 9ba2 f461 057c 83bf ef9b 248e d760 9a3f
00000260: 882f d356 c675 9ebf 3621 7f53 2c2f a4bf
00000270: 9200 d213 8b04 a13f 2fb2 272c a111 5abf

layer3.weight f8 [80, 80]
-0.1201120164741751 -0.18841575437644617 0.027086723455639755 0.0023554686498193614 -0.060228934187357884 -0.1061338101395154 0.033002439485283364 -0.07778847337309591
0.1128845712963692 -0.040830691916313444 -0.03153235637883878 0.08677534534746885 -0.20343059555105233 -0.07843054149872215 -0.05938920159217621 0.11174782675111658
0.030617176448829813 0.17492629902155848 0.08712198642963255 -0.026322980503542703 0.13502768190351971 0.008364066233986573 0.14237849658799667 0.1532739229075921
-0.05104254848443779 -0.17239264152085804 -0.1492370640167703 0.008835924633704207 0.06292440036284233 0.05764962433305018 -0.15335764102188323 0.21791569089000876
-0.22878719091260813 -0.23888348791778544 0.1762172718952162 -0.10372918428403617 -0.18496162657220278 0.11336791929365625 0.02069276961626962 -0.03750964449768457
0.16383876481755064 -0.04004322790343692 -0.1541501846503636 0.14307773556122916 0.13551117965305542 -0.055432543729358214 0.16381828983223543 -0.07366891354417013
0.15983338285361803 -0.303905284123265 -0.009999267640254744 -0.11277075690071443 0.15362564795512235 0.02692346739595024 0.1910372285397561 -0.01592406873014785
0.03596696864387219 0.023336265933618483 0.2001026882021097 -0.1695305941771876 0.07798326167678993 0.12621075516802702 0.218269920905024 0.07539531926832134
0.21747446717705327 -0.16083332124777613 -0.1735216001617541 0.09153723573632139 -0.25982234194638576 0.15181801530760583 0.15638700574186032 0.1555091100119238
-0.04344369504678752 -0.36760727515946096 0.05257491949339767 0.019015243057245793 0.04987442480393531 -0.0993236642427327 -0.20400255445171864 -0.07549774419675741
-0.02660557159963551 0.005341287717636967 -0.0923973076561556 0.2712990057787865 0.10370345713104266 -0.12598676593977445 0.08416889252526902 -0.17274959475112805
-0.09771896989415747 -0.07885313107636956 -0.02744415430702221 0.06630522262274963 -0.2285378619395841 0.11872414761133133 0.10894575666540347 0.20392114268911016
0.09969213352204236 0.08839697366086954 0.004980108404348208 -0.012104340546423965 -0.09622509249573197 0.32883368518171846 -0.12487546847847476 0.1797914977809118
0.03335039448933042 -0.03543386073241987 -0.20611818084225328 -0.13017938825618944 -0.06350636072516429 -0.19574782688115178 -0.14512063785687132 -0.06422015664183384
0.04673857192243232 -0.07977189968208494 -0.08165677421779319 -0.08273627342301634 0.05681016999497472 0.03518820026092576 0.24145220428270164 -0.1960377151404493
-0.007861679859673794 -0.16110836370406958 -0.4247760922974611 0.24930790537660796 0.2927492109651755 -0.024195571315894202 0.03888039344491241 -0.027734457629683476
-0.03475776458459102 -0.10850430986505405 -0.11972436817369302 -0.18848475614429439 0.06377753855503467 -0.03495073378084838 0.268816747358887 -0.07614586487174835
0.15096185301642026 -0.08293559556863958 0.0861435558540616 0.0597667193872805 -0.13241239857412254 -0.04148224968642269 0.12107114831444117 0.19429700267983596
0.18469682457382364 0.16857891653953974 -0.18582269623609365 0.06771333845729521 -0.28050896096559824 0.01991814689512043 0.06459280104898328 -0.04104291483984481
-0.08853355635901157 -0.37273744768072453 0.003882888181109583 -0.22486058072459061 0.18404438922799715 -0.01929384669518804 0.16392237735179696 -0.08307907618308727
0.033038035436294466 -0.05170753086264208 0.14032287985573766 0.10852065941592591 0.02600795584677692 0.3402175895499904 0.31980206115377685 0.03609953442694027
-0.10989177917381658 0.19342815522016246 -0.07208886733808395 -0.019133488537784193 -0.10997287202131491 0.08396229427466942 0.15036862746451465 -0.11793467509134345
0.24205939403700158 0.13982388009696678 0.06479554961205292 -0.03084958943420954 0.06104684574195219 -0.007616137827331918 0.040389691451773964 0.2090473844187605
0.10095891775560249 -0.13033990590605077 -0.15504589245937256 0.05199190698797089 0.07728234162262679 -0.18219014437914194 -0.049350382223826914 0.08890031519127085
-0.0015341970240014668 0.05635450227234381 0.09172817309648328 -0.16432328743108246 0.1441753634671602 -0.09222168513430644 -0.020811773039453276 0.028291704923348638
0.099342253060568 0.036328782186813256 -0.014018223542286138 0.17732269555710428 0.08617496346506466 0.006525243654008655 0.12537398758212875 -0.13984473959839336
0.18231506787599577 -0.09262947678615864 -0.018517588171537907 -0.05078933528123493 -0.14721259575096834 -0.025477169074001042 -0.07644446687410343 0.09347774950749112
0.12816367221306815 0.18838951010876973 0.1189535107767256 -0.0017828519290877815 0.08845498348363313 0.0173761151588677 0.15486969565282216 -0.010326740677166235
0.1832484257532074 -0.1286090867770176 -0.09857324766251427 -0.11438914551018078 -0.31092148627563115 -0.08050450810760895 0.058176992611012696 0.10921309944196785
0.0670920051033892 -0.18555965366649246 -0.22314188432381837 0.09802224293395835 -0.006510261313454108 -0.07052101904890466 0.21920350912733175 -0.1006932132383279
-0.05946596948199972 -0.19689515124762721 0.11359515449763799 -0.030311189018013548 0.193109914353282 -0.37056649229178995 -0.3380506500738303 -0.04232640522153959
0.5425480244008185 -0.12169056982427065 -0.20909116942785344 0.09849677409342307 -0.02340935882954213 -0.006307142750406094 -0.059610258674158256 -0.07217018366200302
00000000: 5efa 9c3e a9bf bebf 6f8b 8ce7 011e c8bf
00000010: b850 973d 9fbc 9b3f b9d2 2a9a c64b 633f
00000020: 631c 37ad 53d6 aebf 4891 8cdb 952b bbbf
00000030: f015 8e1c b2e5 a03f a8a9 2405 f2e9 b3bf
00000040: e8dd f0d5 00e6 bc3f 9840 e8ac c2e7 a4bf
00000050: 806b d34e 0225 a0bf edd1 5db6 e836 b63f
00000060: abe3 7285 030a cabf f59c be22 0614 b4bf
00000070: 82dc 25ed 4268 aebf f68c 4b6d 819b bc3f
00000080: aba1 2cee 1b5a 9f3f 3603 c126 fc63 c63f
00000090: e952 7a62 a04d b63f f076 9551 69f4 9abf
000000a0: 8a47 ea4a 9648 c13f 0a0e 7ef7 2d21 813f
000000b0: 4ae2 3f65 7539 c23f afde 1bdb 7a9e c33f
000000c0: 50eb e3b8 3f22 aabf fe99 b34a f610 c6bf
000000d0: 8dcb a63a 331a c3bf 0748 a7ba 9118 823f
000000e0: 0ac7 ad41 d01b b03f bc36 4666 4084 ad3f
000000f0: dded 6322 39a1 c3bf dd33 d44e a9e4 cb3f
00000100: 644f 5b0f e648 cdbf 77a5 14f0 bb93 cebf
00000110: a8e0 e39d 498e c63f 6d04 24ee fe8d babf
00000120: ea3f 9294 d2ac c7bf 6c25 c811 ae05 bd3f
00000130: d8e9 0f43 7c30 953f 80e5 cdd0 7634 a3bf
00000140: 5bad 5a2c abf8 c43f cc06 8bc4 8b80 a4bf
00000150: 3572 df78 31bb c3bf 30b7 8209 5f50 c23f
00000160: a616 6d2a 6e58 c13f 0c43 e784 a761 acbf
00000170: fb75 a86a fff7 c43f 9e70 6746 f7db b2bf
00000180: c029 1598 6b75 c43f 5406 1926 2f73 d3bf
00000190: 90a2 fdfb 7e7a 84bf a56f d558 8bde bcbf
000001a0: c0a3 e556 01aa c33f cd94 d74f d391 9b3f
000001b0: 0fc8 726c e873 c83f 0235 a929 664e 90bf
000001c0: a395 1f34 436a a23f c08b fb4b 76e5 973f
000001d0: 3eba d502 f79c c93f c7cb d4b2 2db3 c5bf
000001e0: 7087 8906 b6f6 b33f 5bd1 ec8c ac27 c03f
000001f0: 2e69 fecd 44f0 cb3f 3967 878e 1b4d b33f
00000200: b2c7 1e0e 34d6 cb3f 9fe1 6eaf 2f96 c4bf
00000210: c012 ecae f435 c6bf e48e daf9 fb6e b73f
00000220: c282 5be3 eda0 d0bf 2f4b 58d1 c56e c33f
00000230: ae1f 9749 7d04 c43f 8c9a ddf6 b8e7 c33f
00000240: b8fe e282 403e a6bf 3f38 25aa e086 d7bf
00000250: 72c1 a08f 19eb aa3f e4b6 395c bb78 933f
00000260: 1c22 e1fe 2389 a93f 3434 a491 466d b9bf
00000270: ebd5 d575 c11c cabf 5b31 3ff6 d153 b3bf
00000280: 62b4 a5af 7d3e 9bbf 746c 0d01 bfe0 753f
00000290: b723 9f96 59a7 b7bf 0476 5081 f65c d13f
000002a0: bf26 dc4c 4f8c ba3f 7156 b897 5520 c0bf
000002b0: ce8f bcb0 178c b53f 843a eda1 a81c c6bf
000002c0: 45eb e443 1c04 b9bf 6d03 2903 b82f b4bf
000002d0: e832 dc04 521a 9cbf 50fd b70a 61f9 b03f
000002e0: c7d1 7689 ba40 cdbf f973 3cab b464 be3f
000002f0: 3d77 ea7d dee3 bb3f d205 6887 161a ca3f
00000300: 7b48 2575 6c85 b93f ba55 f01e 2fa1 b63f
00000310: 44a7 a2ab 0566 743f 47d4 4a16 29ca 88bf
00000320: e0e0 5229 35a2 b8bf d96e eb70 9c0b d53f
00000330: f10e 30b5 d6f7 bfbf 0eb0 8865 6803 c73f
00000340: f1de 478b 4d13 a13f 0695 0812 6324 a2bf
00000350: 030c ea9e 1462 cabf 2f39 96db b7a9 c0bf
00000360: 230e 67ee f341 b0bf dcda 5bc9 430e c9bf
00000370: 33f3 c824 5093 c2bf dc4a 8570 bb70 b0bf
00000380: eab7 bc3b 1eee a73f a53b 4664 ee6b b4bf
00000390: a224 c356 75e7 b4bf fe75 8b54 342e b5bf
000003a0: d6cf 6afc 3816 ad3f f5cb a612 3004 a23f
000003b0: 007d 78e4 e7e7 ce3f 17c8 a78b c317 c9bf
000003c0: 8482 1ccf c819 80bf 714b 9ce8 329f c4bf
000003d0: d593 2210 882f dbbf 9407 1d4a 52e9 cf3f
000003e0: 6c9d c12f 67bc d23f 5909 0a4e b9c6 98bf
000003f0: ba5f 9a84 21e8 a33f 5497 f7f1 6b66 9cbf
00000400: 7184 580c c5cb a1bf e46f 583e f0c6 bbbf
00000410: 3f1c d795 41a6 bebf 7896 b7bb 4420 c8bf
00000420: 5931 508a b953 b03f 45b1 1e05 10e5 a1bf
00000430: 4181 a128 4b34 d13f 208c 599f 4b7e b3bf
00000440: 2f15 d3ce b752 c33f 363f a466 443b b5bf
00000450: 1583 270b 810d b63f 2fae 5052 be99 ae3f
00000460: 9ffa bab4 e3f2 c0bf e30e 8953 293d a5bf
00000470: b5eb 7fce 84fe be3f 8c40 1c64 b9de c83f
00000480: 901c 9c42 25a4 c73f 498d aa72 fe93 c53f
00000490: e222 98c1 09c9 c7bf f053 2d4e a955 b13f
000004a0: 8542 65db dbf3 d1bf cbbd 0b36 6c65 943f
000004b0: 9bfa 0f60 2789 b03f 8375 f0b1 9303 a5bf
000004c0: 5518 2999 22aa b6bf 5320 f22a eeda d7bf
000004d0: d87c 0fb8 01cf 6f3f 5d93 2f44 3bc8 ccbf
000004e0: b48e 5f3c c48e c73f 158c 4722 c4c1 93bf
000004f0: 357e e790 68fb c43f 4e31 309b ab44 b5bf
00000500: a029 7283 5cea a03f 691f 06d4 6879 aabf
00000510: f832 eea1 19f6 c13f c7ba 218b 02c8 bb3f
00000520: 36dd 305f d4a1 9a3f c408 29ff 1fc6 d53f
00000530: c853 7610 a377 d43f 1371 875f a37b a23f
00000540: 939a a61d de21 bcbf 31ea 65f8 40c2 c83f
00000550: c06c 9f7f 6a74 b2bf a3d9 1cae ba97 93bf
00000560: 915b c7a0 2e27 bcbf d2bf 018c 8d7e b53f
00000570: c9f9 a678 473f c33f aeea 9484 f730 bebf
00000580: 430c 8a5e cdfb ce3f a4af 1bb8 bfe5 c13f
00000590: c096 82ee 7096 b03f b81d dce6 0897 9fbf
000005a0: 01a6 f83b 8841 af3f 5d56 3e6e 1932 7fbf
000005b0: 5105 c327 f5ad a43f 154b b28f 10c2 ca3f
000005c0: 3ff7 ff91 71d8 b93f 5e77 9d60 faae c0bf
000005d0: 62fe be36 8bd8 c3bf 660b 57e8 ae9e aa3f
000005e0: d6d5 d389 c6c8 b33f 0487 e1b3 0152 c7bf
000005f0: 4e93 640b 7444 a9bf f1c0 59ca 2bc2 b63f
00000600: b817 cc82 e322 59bf 2bf1 7b50 7fda ac3f
00000610: a73b 925f 7f7b b73f 2f6d bea4 8b08 c5bf
00000620: a47c 7d9b 5674 c23f 5b44 a221 d79b b7bf
00000630: 470e 4e72 ae4f 95bf 3d51 932d 80f8 9c3f
00000640: 798f 0170 7e6e b93f 83af caa6 af99 a23f
00000650: 150e 4c1d 96b5 8cbf 56cf 2095 82b2 c63f
00000660: b502 d1f9 8f0f b63f 1377 7ac1 36ba 7a3f
00000670: e298 373c 410c c03f c3de 8bb3 6ee6 c1bf
00000680: ca36 0ca3 1956 c73f 4130 71bd 90b6 b7bf
00000690: 9be4 634e 46f6 92bf 9a76 094c 0f01 aabf
000006a0: 84a3 27c2 dcd7 c2bf 8eb7 dedf af16 9abf
000006b0: c736 2f55 dd91 b3bf 99d1 0965 28ee b73f
000006c0: c15e 58ce aa67 c03f edce 69c0 251d c83f
000006d0: 9bc9 87be bc73 be3f 03a2 a8ae d235 5dbf
000006e0: 19fd 3a5d fca4 b63f daff 5a59 0bcb 913f
000006f0: 4034 fc2a c5d2 c33f cd92 dcab 2f26 85bf
00000700: 37a6 d335 af74 c73f e27d d636 4376 c0bf
00000710: ee93 f8aa 183c b9bf facd fb66 9b48 bdbf
00000720: f55c cb3b 23e6 d3bf 0cb4 8085 f19b b4bf
00000730: 9cb1 49f1 5fc9 ad3f 75e6 65c2 63f5 bb3f
00000740: b0fb bd0f f12c b13f ae32 fa31 6bc0 c7bf
00000750: 56f1 c4cb e98f ccbf 3192 ae57 fc17 b93f
00000760: 7a0c e0f6 80aa 7abf 2be2 7e5e aa0d b2bf
00000770: e366 6f4f dc0e cc3f 77ab c9c9 07c7 b9bf
00000780: e7dc 4cd4 5272 aebf 7bbd ac3d dc33 c9bf
00000790: 062a 8d71 9214 bd3f 9f16 2476 e509 9fbf
000007a0: 6a21 575f d3b7 c83f 44bf 5885 5cb7 d7bf
000007b0: 605a 9d31 9fa2 d5bf 4a15 5e7c ceab a5bf
000007c0: 1af3 a9ac 8d5c e13f 0a79 a0f9 1c27 bfbf
000007d0: 709a 49db 7fc3 cabf 0125 7ea7 1537 b93f
000007e0: 0b73 5f7a 9ff8 97bf 69d5 81bd 84d5 79bf
000007f0: c0f1 055f 3c85 aebf 111a 93c2 be79 b2bf

layer3.bias f8 [80]
0.01235614574365693 -0.008823714088339653 -0.001547110474284015 0.027339286678136926 0.02779785004511605 0.01624429583044782 0.12199361582473978 0.013034092341764227
-0.009558772032612808 0.05516192099411498 0.06453459869938569 0.02992684135795859 0.04383808930860853 -0.005715457742307968 -0.0022622164923480005 0.017498118482499107
0.015129426657160047 0.032773830898413014 0.01608135077605715 0.0514041521123294 -0.002377564511597749 -0.01732030512883951 0.0069148865260330265 -0.000950144428586879
0.0410746622052016 0.019822527322089632 0.008248452463287254 0.049537732724924476 -0.021014428188713165 0.040900361637866124 0.0035364583599815837 0.04548628109970447
0.03885149304399738 -0.026861070705021438 0.04368362229864186 -0.009602699176227782 0.03929983658981985 0.056690854500867485 0.04469006481116031 -0.019456782394341666
0.07434226417963608 -0.017410250932358762 -0.005116074967288311 -0.014121322080958587 0.062218442104221595 0.04297252759134551 -0.009527637762717305 0.04399361680850271
0.0019043276874456422 0.038458489574953715 0.06953231814089346 -0.009117506752968919 0.051896923294396095 0.09347322822928739 0.05203647652892622 0.040187433761794435
0.022882209528269543 0.07522803540763022 -0.00242530344927203 0.020311386360823268 0.01090952860697091 0.09746540919470949 0.002221913006376271 0.106352386647545
0.0344504366357372 0.04392811432933616 0.06000813833373903 0.04458749179709355 0.019295690596061763 0.05730140223927431 0.03590048227102382 0.0910039486190172
0.038324610720610074 -0.006321300082295724 0.0009767793162333992 0.013945520157153784 0.015468870092981665 0.06150882470255414 0.013606607967769607 0.0331517343632739
00000000: 722a fdce 2d4e 893f 2167 82db 2a12 82bf
00000010: ed79 fb38 0d59 59bf 28da b678 d4fe 9b3f
00000020: 641d 5f23 0a77 9c3f 3a71 5a3d 58a2 903f
00000030: 58bd 493e f93a bf3f 0135 ba42 9eb1 8a3f
00000040: 48f1 28aa 8c93 83bf 1ffb 4eed 2e3e ac3f
00000050: 1ed5 dfe6 5685 b03f 90bb 9e53 24a5 9e3f
00000060: 7d98 cc2f f271 a63f fbad 5b81 1769 77bf
00000070: b143 3c3b 3688 62bf f1d6 7eda 06eb 913f
00000080: 9e0d 9945 2dfc 8e3f 9023 bf47 bbc7 a03f
00000090: 4e7a a22e a177 903f dff1 6620 a551 aa3f
000000a0: e041 493a 1d7a 63bf 3a26 5700 6abc 91bf
000000b0: 9aff c1b7 c852 7c3f 2b20 a69f 6322 4fbf
000000c0: 5d2e bbf5 bc07 a53f 162e 4a4a 5b4c 943f
000000d0: dd55 948c 90e4 803f a36d f17b 025d a93f
000000e0: 2a37 4267 ce84 95bf 8d27 4267 e4f0 a43f
000000f0: ac40 fe9f 7df8 6c3f 56d3 7a53 fa49 a73f
00000100: c1aa 0cc8 57e4 a33f c6bc daf0 7781 9bbf
00000110: 9f76 4922 b35d a63f 3461 5277 94aa 83bf
00000120: 4268 c8b1 1b1f a43f ba85 206c 9506 ad3f
00000130: 1cde a3bd 9de1 a63f 7dbe 4690 7aec 93bf
00000140: 80b4 5c39 1808 b33f 7081 7a29 fed3 91bf
00000150: 29b7 b1ea 97f4 74bf edab 1cc4 a3eb 8cbf
00000160: 2566 177c 18db af3f 0038 43c1 7e00 a63f
00000170: 5cc3 cae4 3983 83bf a6bd d9d2 5486 a63f
00000180: 0d4e dc48 5433 5f3f 35ba f4c5 d4b0 a33f
00000190: e921 6eb8 decc b13f 67b9 990a 33ac 82bf
000001a0: aff9 9fc8 3b92 aa3f 80dc 4b8a dced b73f
000001b0: 3618 c869 86a4 aa3f 3d24 6f83 7293 a43f
000001c0: 1528 5616 6f6e 973f 1f6f d1ff 2442 b33f
000001d0: c983 ebdf 3ade 63bf 76e7 9f10 82cc 943f
000001e0: fa5a a724 bc57 863f 6987 fb38 7ef3 b83f
000001f0: aa5b 4d76 b033 623f 69b4 80f6 e839 bb3f
00000200: 1ee8 5dd5 7ca3 a13f dcc1 d6ec be7d a63f
00000210: 0946 46ff 62b9 ae3f f28a 28f6 2bd4 a63f
00000220: 095a 41e0 3fc2 933f 56e7 4301 9c56 ad3f
00000230: 7f83 874a 8c61 a23f 9a23 20e7 084c b73f
00000240: 5b99 5a8b 489f a33f 1c54 f211 5de4 79bf
00000250: c70f fecd e800 503f c366 0108 788f 8c3f
00000260: 6b51 3e99 24ae 8f3f 7f96 06ad 157e af3f
00000270: d037 d901 c8dd 8b3f c0b8 ca9d 43f9 a03f
