attack_soft_generative_decision_tree/experiments/vehicle_params_state_dict/fnn_epoch114.pth (torch, 121327 bytes, 8 tensors)

layer1.weight f8 [80, 18]
0	0xbfd1d3a57c2cfc6c	-0.2785428726819592
1	0x3fc3896a82cb98ef	0.15263110529412624
2	0xbfc1c2f0b3bce609	-0.13876160408271712
3	0x3fbcfe8d45a686a4	0.1132591528935572
4	0xbfc3111e13471adc	-0.14895988408371508
5	0x3fc8feddf2ce3475	0.1952779231618568
6	0x3f8446252c2ab00e	0.009899416361200532
7	0xbfc67f80f731bf03	-0.17576610631976317
8	0x3fc49c9c4a275b3a	0.16102937336719397
9	0xbfbda2f7c15b718b	-0.11576794119486615
10	0x3f956e93aeb6bff2	0.020929629839599735
11	0x3fb7ddcce622e328	0.09322815531312456
12	0x3fb9416e8840ac88	0.09865465952377594
13	0x3fa79921278952c2	0.04609016044256499
14	0x3faac0bf891b26a4	0.05225180195482196
15	0xbfbff2aa439d61a4	-0.1247965254855275
16	0xbfb3c380e47bbb85	-0.07720189645963955
17	0xbfcf3dd1ed5f991e	-0.24407409754275816
18	0xbfc76b50e24af1a0	-0.18296252297831206
19	0xbfb31d96682d1b7f	-0.0746702198349407
20	0x3fd51b566e70bf85	0.3297935560722112
21	0x3f949eadc9ec576d	0.020136561822332966
22	0xbfaec649df605419	-0.0601065716911437
23	0xbf9e7ed5e5998758	-0.02978071416726577
24	0x3fb38204a9d865be	0.0762026705418952
25	0xbfc83c826030f5dd	-0.18934659668768364
26	0xbfb10ecafe1f0e83	-0.06663197235234901
27	0xbfc46369a50d952b	-0.159283834068597
28	0xbfa4a86ecc4339ed	-0.04034754031600927
29	0x3fcb47372c55f984	0.21311082520328395
30	0x3fb76484dd9ffc1d	0.09137754832043794
31	0xbfc107db1341e951	-0.1330522388487432
32	0xbf803e0dc31cbb5c	-0.00793085815129551
33	0xbfc407ff56033062	-0.1564940614683819
34	0x3fc495a17af1aae0	0.1608163690865103
35	0x3fb65e70134dfedb	0.0873785063868086
36	0x3fbde47e4dc587cb	0.11676778219910415
37	0xbfc5646fbc373c5f	-0.16712757768843553
38	0x3fc570f2031c9577	0.16750931884704887
39	0x3fb83afe54a88736	0.09465016905644749
40	0xbfcc6bff8e671adb	-0.22204584553965998
41	0xbfc82e699a507983	-0.18891639742737362
42	0x3f95122cfa12d61f	0.02057714725807191
43	0x3fbd662fa41c1704	0.11484048611245262
44	0x3fd254d333151f47	0.28642730701948377
45	0x3fbfada0bc3f6644	0.12374310108079906
46	0x3fa6a68c8cde67dd	0.04423941821660524
47	0xbfa66f4cb920a4c9	-0.043817899321149385
48	0x3fb76fc1ac5da350	0.09154901941441307
49	0x3fbf6452ec464d0b	0.12262457149909183
50	0x3fcbfcf31770d249	0.21865690846029143
51	0x3fd3baea4e0c675e	0.30828340169829527
52	0xbfb0b20701233a54	-0.06521648195050861
53	0xbfc2af9a4f088c7a	-0.14598397120525758
54	0xbfd8e5316b288a65	-0.3889888330906273
55	0x3fc83b03563db1d9	0.1893009348963364
56	0x3fc5b75c8e9a3c67	0.16965825045597002
57	0x3fd070228a1b79f4	0.25684417235416324
58	0xbfd21aadb4057259	-0.2828783281345629
59	0x3fd7fca508bea294	0.3747952065846587
60	0xbfa4504196f59a94	-0.03967480628744116
61	0xbfc41c28c67c165b	-0.15710935298573045
62	0xbf9effdb57c5099d	-0.03027289126590348
63	0x3fd288c2e1ac4694	0.2895972446286603
64	0x3fb4bfb2b5b79890	0.08105008064703356
65	0xbfc0b125f2d03e4d	-0.13040613514066238
66	0x3fc2c8a0ec2d202b	0.14674769908947502
67	0xbfd31e9401f3c796	-0.29874134245539474
68	0xbfd03ccfc631da7c	-0.2537116466041096
69	0xbfc356d06f2649c6	-0.15108685900902524
70	0x3fa3f5b50c03ac3b	0.03898397227916247
71	0x3fd08a47710605a2	0.25843988454297506
72	0x3fce36caa36aac99	0.23604710559206835
73	0xbfaf1638529a6d1f	-0.06071640022602253
74	0x3fc21a22a3f62e60	0.14142258649768547
75	0xbfd33a9775957ee1	-0.30045114977654747
76	0x3fd2fb067675ee58	0.296571365055319
77	0x3fc2d28669fb8aeb	0.14704971480303838
78	0xbfd0526fb2f11a93	-0.2550315139273291
79	0xbfc573af663d63dc	-0.1675929307191656
80	0x3fbcfd717c724e8e	0.11324223793263341
81	0x3fc32c8a4181fccb	0.14979675482388752
82	0xbfc0229396b9469f	-0.1260551916080219
83	0x3fbb0b7422f22e7e	0.10564351895498622
84	0x3fc31642d6cba0e4	0.14911685455377388
85	0x3fd7aa4bebec4be8	0.36976907767637934
86	0x3fb600490be560a8	0.08594185390882336
87	0xbfc3492166d06cbb	-0.15066926498625385
88	0xbfd74d4a52a0538c	-0.3640924269578185
89	0x3f9422b199ea1519	0.01966359617155886
90	0xbfd2e1c2755b12c5	-0.29502927265665974
91	0x3fcd8c691cf135c2	0.2308474913901773
92	0x3fd0a8dd842d07ae	0.2603067198543795
93	0xbfc398573f781c2a	-0.15308657263833086
94	0x3fd55eb87eb17f3b	0.3339062916984294
95	0x3fc5ac24d2a45b47	0.169315913059757
96	0x3fc072a4e973df8e	0.1284986629395885
97	0x3fcb22b873a211c9	0.21199708601137804
98	0xbfcd908ad2f3680d	-0.2309735803635821
99	0xbfcfb31e8f77cc5a	-0.24765378957053735
100	0xbfc3f1f73966925d	-0.1558217077519143
101	0x3fc2852577f18e12	0.14468830448741749
102	0xbfca6a5d90711d41	-0.20637101700615726
103	0xbfc9dc37fe6fe938	-0.2020330421799572
104	0xbfbd31c965836319	-0.11404093483305323
105	0x3fc01ed41f9b002e	0.1259408144305793
106	0xbfd4f393c132aad8	-0.3273667704294616
107	0x3fd26421ef07d68f	0.2873616060527206
108	0xbfc02564f8bba45c	-0.1261411871448982
109	0xbf45e751cacc1e20	-0.0006684445739617052
110	0xbfa5d10371131be3	-0.042610271027619516
111	0xbfccf5cd01bf1206	-0.22625124535819924
112	0xbfcff40f22c3b382	-0.24963559339030544
113	0x3fc20ed8d198a6e4	0.14107809290117423
114	0x3fb5e00cd26e7389	0.08544998300062735
115	0x3fb981c1deb69f2d	0.09963618934000058
116	0xbfb996d032f2c7f8	-0.09995747798782861
117	0x3fcfaaf114e3165d	0.24740422744632698
118	0xbfa0062dc5d5faa5	-0.031297140502819766
119	0x3fb98a809b8f46fd	0.09976962850421596
120	0xbfd1a196d9f704c3	-0.27548762593876236
121	0x3fc97dd087d9955f	0.1991520560579074
122	0x3fb907e2ff4df459	0.09777659161587006
123	0x3fc36c5f0332abbe	0.15174472480916096
124	0xbfbb63beb1ec39f9	-0.10699073642556546
125	0x3fd13252e5f561db	0.26869652230155133
126	0x3fd14c958c9cd38e	0.27029932719897765
127	0xbfb9a643f6db0ef3	-0.10019325997114574
128	0x3fcdf074e4cce4f7	0.23390065357106213
129	0xbfc377dac65b019a	-0.15209517178847137
130	0x3fb791b95be1bd4d	0.09206732266624336
131	0x3fc5feda7e2ad0c9	0.17184001122007533
132	0xbfbcc0889cec01d8	-0.11231283026791716
133	0x3fd25127f52c70fa	0.2862033743165423
134	0xbf78771b5bce9615	-0.005972964162457757
135	0x3fc4c013f52784f5	0.16211175413540216
136	0xbfd1ed6235c8eab5	-0.28011374714302956
137	0x3fa280a82f7942dd	0.03613782481682446
138	0xbfc3c49bade70fcc	-0.15443750373208187
139	0xbfbe7a103c022b5a	-0.11905003991175303
140	0x3fbc3ffe46aa4cd6	0.11035145974374258
141	0xbfce4726a333bd04	-0.23654635399677926
142	0xbfaa37e87e9f8115	-0.05120779557887737
143	0xbfa65587b784a6bb	-0.043621293213005306
144	0x3fbf05d05493d45d	0.12118246140365004
145	0xbfd037ccf329987f	-0.2534057974465966
146	0xbfad6d6cd1f78280	-0.05747547209808079
147	0x3f9f6b80b78c0882	0.030683528139896506
148	0xbfc4cef17e89b8ab	-0.16256540945636763
149	0xbfb92962cbea433e	-0.0982877490844318
150	0xbfb643ca6a326ed9	-0.0869719037313489
151	0xbf996b125c30514f	-0.02482250869441432
152	0x3fcbb95bd65fe528	0.21659419982442185
153	0xbfd15162bc4ca693	-0.27059238804449953
154	0xbfb4684a73d1ddc1	-0.07971635177260962
155	0xbfc2ddc646467813	-0.1473930209294286
156	0x3fd218083b74728e	0.2827168064702982
157	0xbfd6cc274528d888	-0.35621053460943886
158	0x3fca0ffa818ac4e3	0.20361262631698826
159	0xbf6910f0c33bcf5a	-0.0030598356623787017
160	0xbfc8b787dd2e2b88	-0.19310091304609167
161	0xbfb0a922cc44d300	-0.06508080946953143
162	0xbfc5d307a58bfa66	-0.17050262053813298
163	0x3fb8119bb3284b1a	0.0940186798473345
164	0xbfb42d033049bf0f	-0.07881183556468961
165	0x3fd5df1a93d278f3	0.34174217639691945
166	0xbfc702162375a17f	-0.17975117427273443
167	0x3fd51b0b4fa4249e	0.3297756459947524
168	0x3fa4b23f11e8f500	0.04042241185786999
169	0xbf94178340cd0f2e	-0.019620943861141153
170	0xbfad72b9680a7887	-0.05751590151815927
171	0xbfa3739c53cad2d6	-0.03799141428809143
172	0x3fcb6d33474d3c57	0.2142700288918344
173	0x3facb63e251fe4aa	0.0560779018705458
174	0xbfc404d1f718b7bf	-0.15639710011731542
175	0xbfd91b4827ef5dff	-0.3922901525488384
176	0xbf96a3d1a6819678	-0.022109294688922948
177	0x3fbe94c1cd803b18	0.11945735232459886
178	0x3fbfab1157f504ad	0.1237040366877575
179	0xbfa63af975bb4f57	-0.04341868936685838
180	0x3f975d209c103abe	0.022816190266946583
181	0x3fd54ec85b880f3d	0.33293351114865627
182	0x3fa8ad4d5533b62a	0.04819718995154816
183	0xbfa9a92d96af7d85	-0.050118851322390724
184	0x3fceb532190049af	0.23990465374715828
185	0xbfc81f8d07ee35f1	-0.18846285712463343
186	0xbfb75a2850d408b1	-0.09121944402071126
187	0xbf66443d0f2786cb	-0.0027180855333746915
188	0xbfb3d8a8f9100950	-0.07752472000723754
189	0x3fca97b97b3b0e1c	0.20775526539920086
190	0x3facb5370b39767c	0.05607006084458718
191	0xbfb63175849e8a94	-0.08669218528533867
192	0x3f8fa854a2e3b25f	0.0154577839097893
193	0x3fc2edaf645721a4	0.14787857436591623
194	0xbfc24f2d946a5719	-0.14304132220120705
195	0xbfb1ac0374c866a1	-0.06903096772330254
196	0x3fab8337619a35b8	0.053735476173737806
197	0xbfd28a8fc32b39e3	-0.2897071271844693
198	0xbfa3ca481db75d85	-0.038652661921953636
199	0xbfa84ad1f4f7852d	-0.04744583239858922
200	0xbfa7a54cfa75051f	-0.04618301923120271
201	0xbfc77e401eb221ab	-0.1835403585321392
202	0x3fc36692ed124d4b	0.15156780792004051
203	0x3fbea9c2ca364ae4	0.11977784573381772
204	0x3fc55b783f8f5d76	0.16685393432156176
205	0xbfcd7d55bb97ad39	-0.23038741740979576
206	0x3fc60d96a5904d65	0.17228968700565442
207	0x3fd70c257604467b	0.36011635327404407
208	0x3f9bccbd4389f3aa	0.02714820599293303
209	0xbfcd6b6a30579340	-0.22984053955510753
210	0x3fa8d04d6d1228fd	0.048464221538852194
211	0xbfcae544720b1a31	-0.2101216847278962
212	0xbfc69ee00eaed537	-0.17672348706188654
213	0x3fb1c38a3fc7b160	0.06938995415811666
214	0x3fd49c825fff2fd0	0.32205256819429184
215	0xbfd020f8c9936354	-0.2520124405396491
216	0xbfc34097d1baf87c	-0.15040872326602883
217	0x3fd49d6620d4d071	0.3221068688028544
218	0x3fd1774daaa1542d	0.2729067007360893
219	0x3fadfb16c5f6f8fc	0.05855628172456481
220	0xbfdb30af0133758d	-0.42484641186987276
221	0xbfc07898f2ce64f0	-0.12868034225247227
222	0xbfb52c8502e57e23	-0.08271056481088883
223	0xbfa31fa8c052c583	-0.03735091541001181
224	0xbfb1ea55e6c7bf59	-0.0699819267681482
225	0x3f68d34895e96bb4	0.0030304353415835043
226	0x3fb38e3d014cdba3	0.07638913423293885
227	0xbf9fc97fad88c378	-0.031042094198884013
228	0x3fc81edee8cca47b	0.18844210021169147
229	0x3f585410170a7981	0.001484885895628091
230	0x3fc10141bbc1d65f	0.13285085361319468
231	0xbfc47c63702aee8b	-0.1600460336393222
232	0x3fc980f9bd66c628	0.19924852131002635
233	0xbfc93516d303caa6	-0.1969326525064236
234	0xbfbd97b214611616	-0.11559594152011984
235	0x3fb038174423bad9	0.06335587895930973
236	0xbfb1d2323cb0938c	-0.06961359006579765
237	0xbfd06e142f88b84a	-0.25671867982862706
238	0x3fcfe61f63594282	0.24921028471955614
239	0x3fb1467c129a4baa	0.06748176054160973
240	0xbfd225b2af8f891e	-0.28355090279196016
241	0xbfbd8dbfe5c33ec7	-0.1154441772407565
242	0xbf910f845f4e6c73	-0.01666075545982122
243	0x3fd394a1487cbf50	0.3059466560252888
244	0x3fc76f57731cc72c	0.18308537598346086
245	0x3fa93b56244eedf8	0.04928082650391369
246	0xbfc7cb7b147b61d5	-0.18589724063964633
247	0xbfc33312096995a9	-0.1499960466345958
248	0xbf90b83ee7139408	-0.016327841619290268
249	0x3f91ab68a78dc6b2	0.017255435206101573
250	0xbfd01c104b2d41b2	-0.25171286908610135
251	0x3fd778ac3fbe970a	0.36674028611229004
252	0xbfccfbe1a87c493f	-0.22643681265669532
253	0xbfc600de5e909566	-0.1719015084974373
254	0x3fc9104620f746c7	0.19580914125122303
255	0xbfaf5a1e73581952	-0.061234428005308886

layer1.bias f8 [80]
0	0xbfb68c1d735ca7c9	-0.08807548586324211
1	0xbfbd51acaed9eb52	-0.11452750462369224
2	0xbfbb7cbfdeff21ee	-0.10737227625134668
3	0x3fb5440ce01cc158	0.08306961509220423
4	0x3fa24df367b16fa5	0.03575096741471321
5	0xbfa243e867b53cf8	-0.035674345645583416
6	0x3f85b11b13058d22	0.010591708677287818
7	0x3f96d5370d5d3099	0.022297725859332294
8	0x3faabfe13e1708f2	0.052245177106231014
9	0x3fb1811ccbe9280a	0.06837635019579139
10	0x3fa796077322a06f	0.04606650619945262
11	0xbf873d2742220c80	-0.011347109513968556
12	0x3f6f6f3b5376f904	0.0038372191154102415
13	0x3faa7645e8c773aa	0.0516836020139871
14	0x3fa15793bee27ee0	0.033871285487519165
15	0xbf99e34bf789fce3	-0.02528113077505346
16	0xbf9f1e2be9ca458e	-0.030388532776276338
17	0x3fb5c60fe517ab22	0.08505343764379039
18	0xbfbc39c34198e1dd	-0.11025638915533116
19	0x3f9435b3f140e962	0.019736110305737305
20	0x3fbeae30ae7db768	0.11984543094669464
21	0xbfa1e85671e2d138	-0.03497572078905126
22	0x3fbbf71cd81e631a	0.10923939014754716
23	0xbfbfb28b2608d244	-0.12381810835433621
24	0xbfb1c83b8f9ebf55	-0.0694615579257037
25	0xbfba86ba92af668a	-0.10361829835110306
26	0x3fbed953a053adf3	0.1205036417410879
27	0x3fc41e79868a6617	0.15718001431814407
28	0x3f896659a7645501	0.01240224878396612
29	0x3f93bddd0c6714f3	0.01927895916175699
30	0x3fa84be2181531d7	0.04745394271830932
31	0x3f92f15f8fa20bea	0.01849889101186967
32	0x3f92c0ea9b532680	0.018314042787813012
33	0xbfa63bf222f6edd0	-0.0434261005097728
34	0xbf6262280d28973f	-0.0022440702680509845
35	0x3fc0f9cf7c5d77eb	0.13262361118807972
36	0xbfab84caf443c6df	-0.05374750358340718
37	0x3fb51c28fe08d6a6	0.08246093942656305
38	0x3f97803189fb455c	0.02294995693848044
39	0x3fa10a864e63f407	0.03328342158236102
40	0x3fb7d3167fda0aed	0.09306469556217296
41	0x3fa41f34993aa93c	0.03930057878945312
42	0x3f6050084d3cfd49	0.001991287435799603
43	0x3fad9c17b874c152	0.05783151747380323
44	0x3f931504de6195e3	0.018634868691511996
45	0xbfb9947ba282b564	-0.09992191999000039
46	0x3fbce2cc861962b1	0.11283567689805342
47	0x3fb01208b237fccf	0.06277517653505814
48	0xbfa9298bbf3c94d1	-0.0491450949614688
49	0xbf8ade6d33dbd882	-0.01311955751905836
50	0xbfa166ee0a7f2e90	-0.033988417416904615
51	0x3f5cc8332e948d86	0.0017567157577297056
52	0xbf9f2cc93f1e9806	-0.030444282987126335
53	0x3f95fa740046f7ce	0.02146321536724099
54	0xbfaec256688b13f7	-0.06007642770922666
55	0x3fb0e68ddf34611b	0.06601797770816058
56	0x3faca6ed7849d64b	0.05596105664600922
57	0xbfbc2dd61a7f7398	-0.11007440707130767
58	0xbf9bca36d213a861	-0.02713857323843916
59	0xbfcab47075e83c6c	-0.20863157040773517
60	0x3fb79d81baed87a1	0.09224711240452034
61	0x3fb0cc1eff6b3627	0.06561464057741571
62	0x3f9f6e37cfbb7d38	0.030693885854700315
63	0xbfb39cfceb9d9946	-0.07661419632276986
64	0x3fa65d8872c1957d	0.04368235016662945
65	0xbf4c681f1c75a9bb	-0.0008669044408809371
66	0x3f8ff6757d972c5f	0.01560680188676694
67	0x3f920fd3cbffbf7b	0.0176385014783018
68	0x3fb083c08a66dd71	0.06451037768316838
69	0x3fa7d06036903a16	0.0465116564374634
70	0x3fae4283dd7e136c	0.05910121992841408
71	0xbf8a30370914f174	-0.012787275280623268
72	0xbfae162b7921df3f	-0.05876289228120734
73	0x3fa85b002f62d0be	0.04756928041879992
74	0x3fab93c0d7e16fa7	0.05386164317380287
75	0xbfb928ca05572ee9	-0.09827864294419054
76	0xbf8824ce312cb7cd	-0.011788950801555753
77	0x3fb3a613bece4d43	0.07675288589807842
78	0xbf9cc7b3c269cccb	-0.02810555338005542
79	0x3f78cba9a9b04980	0.006053602929585344

layer2.weight f8 [80, 80]
0	0xbfad4ab37932493e	-0.05721054892014131
1	0xbfb0bc00d867c091	-0.06536870272953112
2	0x3fc89c40c4918816	0.19226846311636397
3	0xbfc998ec99c06185	-0.19997937686344983
4	0x3f8e399ee304b87f	0.01475834017091082
5	0x3fad284b99474184	0.05694805379937676
6	0xbfcc8c42420045a7	-0.22303035948475022
7	0xbfa3317a33839b8b	-0.037486857212392165
8	0x3fbe13cdd8af7268	0.11748968639535351
9	0xbfcd05b98d367360	-0.22673720736647862
10	0x3fa206afb19060fb	0.0352072624447732
11	0x3f9a1e70b41ef8b5	0.025506745332443532
12	0xbfc5b0a932a1e79b	-0.1694537636975014
13	0xbfc19bb9f0bea130	-0.13756489043340414
14	0xbf4bc0bfaddee130	-0.0008469520505434477
15	0x3fb5ac71c575c16c	0.08466254301834447
16	0x3fbdf28bda242bf5	0.11698221278872707
17	0x3fc09d919c796c57	0.1298086179766382
18	0x3f8adc30ded01813	0.013115293311795317
19	0x3f9ddcd0cae24b45	0.029162657149366628
20	0x3fc0fd9b24fb795e	0.13273944192674042
21	0xbfc23a50d193c992	-0.1424046538664468
22	0xbfad2efa4b07ac91	-0.05699903646367333
23	0x3fc39ba0f8b9616f	0.15318691391690772
24	0x3fc0472e5e15761f	0.12717227548539342
25	0xbfbe3d348d33bf6d	-0.11812141845052589
26	0x3fcb77a9cae369d4	0.21458933264405167
27	0xbfba3eb2e3ab0bd3	-0.10251920755676673
28	0x3fc48ea892cc9d80	0.16060359161313542
29	0xbf7881f0eeee0bb3	-0.005983296533375193
30	0x3fcf1d7870077c5d	0.24308686704805185
31	0xbfc003cf42a657e9	-0.12511626009353385
32	0x3fa202eac77d1a33	0.03517850575604022
33	0x3fcbeaafd2e8285e	0.2180995731180841
34	0xbfbe10f0931039f8	-0.11744597998060857
35	0xbfc55fdea0536a89	-0.16698820904169434
36	0x3fbc8ba1fef729c1	0.11150562739127336
37	0xbfcd89a9373bd671	-0.23076358029327396
38	0xbfc38f7a3ed2a3dd	-0.1528160864593521
39	0x3fb6d2a5cb5bfad2	0.08915172781778871
40	0xbfc433edcdbf9cd8	-0.15783474489510385
41	0xbf9a7cbbcadfc933	-0.025866445786911284
42	0x3fb189293d4b40cb	0.06849916216310985
43	0x3fd0bf74cc3139ec	0.2616855615678151
44	0xbf805dca9864fe73	-0.007991392875396052
45	0x3fb6cce10dc288ea	0.08906370721755122
46	0xbfd686779818cf91	-0.3519572243997056
47	0x3f90cf2e417c9674	0.016415331599225216
48	0xbfcbef3a2145c5e5	-0.21823813080440782
49	0xbfcbd299e1c102de	-0.21736453555242624
50	0xbf993ad27a394627	-0.024638451299614197
51	0xbfbba3895e2cd92a	-0.10796412038039152
52	0x3fc5797ebc96529f	0.16777023514136588
53	0x3fb9eb33a5b9da08	0.10124514385265837
54	0x3fb9b4d250a04193	0.10041536777885644
55	0x3faa09deea89fb10	0.05085655797028299
56	0x3fd1e52eb7a346e4	0.2796131890619178
57	0x3fc8797cc56fe996	0.19120750084387045
58	0xbfd347bd56110a63	-0.30125363736093486
59	0x3f90f5425679fba3	0.01656058934031147
60	0x3fd54e696977667b	0.3329108743615518
61	0x3fc15d79e0b71663	0.13566516373082313
62	0x3fa5f63c1225aeda	0.042894246306642805
63	0xbfc1c01f24f4ab37	-0.1386755876968324
64	0x3fc158c59cc6b295	0.13552160410963113
65	0x3fba53bd631383ce	0.10284026783803243
66	0xbfceb9defd984ff0	-0.24004733450476534
67	0xbfc8db5785801ed8	-0.19419378298356693
68	0x3fba5a98400040bf	0.10294486582302208
69	0x3fae7f4c855680ae	0.05956496360454487
70	0xbf81cead2b7d6f8f	-0.00869498528452775
71	0xbfcbd6b4010f2dd2	-0.21748971988414084
72	0x3fc1dfb4371642e8	0.1396394032458581
73	0x3fab22d176dc2e5a	0.05300001693657626
74	0x3fd289c9aa716308	0.289659897277986
75	0xbfba4408fbbd9d7c	-0.10260063310635376
76	0xbf7bd50ebe3e04ef	-0.0067949844268479906
77	0xbfb30fdbe3461943	-0.0744607381694538
78	0xbf86d5c70393da56	-0.011149935528448267
79	0xbfbb5d5e3bee1e82	-0.10689343417299749
80	0xbf8048059d770bea	-0.007949870937300891
81	0x3f8c1342580035ab	0.013708608923503748
82	0xbfc0bc2992f3e2c7	-0.1307422606985453
83	0x3fc19d3288577c6e	0.13760978371917382
84	0x3f844e487d16fae1	0.009914938275753684
85	0xbfbd80b427ca429d	-0.11524511310040926
86	0x3fd863b42b604d0e	0.38108543621019997
87	0x3fbfda61cf33c2a9	0.12442599590918725
88	0xbfe4d7b9c02aa37b	-0.6513336899998728
89	0x3fcac72a96fecbdb	0.20920307514970102
90	0x3fc41ab80ba2d845	0.15706539695901447
91	0x3fc1cc8ccd34df21	0.13905487079477388
92	0x3fb13eaaea66abca	0.06736248228723621
93	0x3fc0a762c93a1270	0.13010821176080212
94	0x3fd09846ee1e8cf3	0.25929425481645224
95	0x3fa3e609e62ca045	0.03886443075890659
96	0xbfb96517299278db	-0.09919876828141432
97	0x3f84964967aa7f08	0.010052274204383163
98	0x3fc20386fbcedefa	0.14073264403645408
99	0x3fb38df4a6d0c3d1	0.07638482163089512
100	0x3fc6d2e8c5ba1eef	0.1783114400352512
101	0xbfbfd4d1f909c77f	-0.12434112863573253
102	0x3f9c68c5f6e06dba	0.027743428414493933
103	0x3fbba109f24ebbb0	0.10792600789748863
104	0xbfb29a17c83b0863	-0.07266377104227355
105	0x3fc024bb21e1f1db	0.12612094072745958
106	0x3fc5d06e792e5a7d	0.17042332570118282
107	0xbfb27c64c76068b4	-0.0722105967292091
108	0xbfd0117ec1527931	-0.2510678184425102
109	0x3fc51fe650f02c81	0.16503600074824834
110	0x3fc9595988db9f1d	0.19803923780931934
111	0xbfc3663cb9acb512	-0.15155753198761396
112	0x3fa420ada37f98b7	0.03931181546049472
113	0x3fc3e7715b2a4b52	0.15550057364870412
114	0xbfcaa6c009a763af	-0.20821381064777486
115	0xbfb5d1d3372a13b5	-0.0852329263380643
116	0xbfa6187d6f02dc4c	-0.043155593682450005
117	0xbfbd554c8e76fd7d	-0.11458281019348777
118	0x3fc2e2a0bb8ededb	0.14754113348111883
119	0x3fc7f3ca9cf69eb5	0.18712742485262415
120	0xbfd6adf9e005a211	-0.354368656894196
121	0xbfc34f5078ae901b	-0.15085798161192163
122	0xbfbd2a8ff5455838	-0.11393069971140413
123	0x3fbeb3181e4c34e8	0.11992026080789098
124	0xbfb202a4bd653fc0	-0.07035283683694527
125	0x3fb020af2aed446c	0.06299872205751605
126	0xbfc6c16acdcebf6c	-0.17777762459945323
127	0xbfc77f800a10b922	-0.18357849589796965
128	0x3fba0764ecc4daac	0.10167532711498478
129	0xbfcba5a86e6e1100	-0.21599297897422076
130	0xbf5969c7a95703e1	-0.0015510988063029906
131	0xbfc261d79cb51ac9	-0.14361090804796664
132	0xbfbf799348a2c9e9	-0.1229488422712063
133	0x3fbfd8905f087cde	0.12439825363297838
134	0x3fbc55f8b5a3bfd7	0.11068682131349249
135	0xbfaf44083e87abb6	-0.06106591952614997
136	0xbfd2ad229bd0f94f	-0.291817333378181
137	0xbfc1c4794eb8f591	-0.13880840629455496
138	0xbfbb1eb62a9123fd	-0.10593737162811574
139	0xbfc0d2acea8beaa9	-0.13142930462330085
140	0x3fa20d0e754c8432	0.035255863016807956
141	0x3f9b4c1b445c80ea	0.026657510802693553
142	0xbf7c0ba9752bf755	-0.006847059196614176
143	0x3fb7fbf1eb8000ff	0.09368812560569849
144	0xbfcccfeba015973b	-0.22509522739999874
145	0x3fc7ae11e366e060	0.18499969104391578
146	0x3fb76cc55d86d245	0.09150346310963993
147	0x3fcef039a7455ce4	0.24170609157110967
148	0xbfb96a5b745e4c18	-0.09927913275741707
149	0xbf943477d4b7dc83	-0.019731399877823918
150	0x3fcd5fc387a6ee01	0.22948497890125455
151	0xbfdb1a7226be66ba	-0.4234891298634512
152	0xbfcb32340edcab3a	-0.21246958470995897
153	0x3f90d4cf166c4600	0.016436801665866696
154	0xbfa90b0dd5d74e85	-0.0489124606644085
155	0xbf9ad7f230bcd1d4	-0.026214393830018626
156	0x3fc31ecaeba18999	0.14937721734447676
157	0xbfbf5dd850457340	-0.12252571067570006
158	0x3fa7bd055a677588	0.04636399010244491
159	0xbfa933bce48500c3	-0.049222853560878764
160	0xbfa63e492f1d0065	-0.0434439535151803
161	0x3f953f755c465bc5	0.020749887234696524
162	0xbfac90f3ae502193	-0.055793395069545636
163	0x3fd0327b92bf4ff6	0.25308121996681565
164	0x3fc6e0ae33d31e21	0.17873170404912833
165	0x3fb30438f2e67fbf	0.07428317957101081
166	0x3fcd876df2c1b6b4	0.2306954799018307
167	0xbfa8aad96806a035	-0.04817847628447717
168	0x3fcd7e9a170fc153	0.23042608381320892
169	0x3fbdcd6adcdfb97c	0.11641567127637659
170	0xbfc48a7ce675a775	-0.160476315049262
171	0x3fcda4e985c45f2b	0.23159522086711468
172	0x3fccd804ea924f42	0.22534238294303505
173	0x3fb74df3f074f452	0.09103321667221678
174	0xbf994aae952a4844	-0.024698951582259335
175	0x3fbe341bc6d530cc	0.11798261265102211
176	0x3fc4bb9178883999	0.16197412858350616
177	0xbfa187b60dd9868b	-0.034238518896711666
178	0x3fbf91482342f77a	0.12331057415846472
179	0x3f9c521bf0c90362	0.027656971522677216
180	0xbfba4df11c52d18c	-0.10275179807178442
181	0xbfc2754519d4d8b6	-0.14420379411030176
182	0x3fb7697e0303a771	0.09145343373861949
183	0xbfb9bb01c5b0fd50	-0.10050974918794009
184	0xbfbd59c01622e780	-0.11465073147237881
185	0x3fbf63a73bcf8815	0.12261433801862183
186	0x3fb75f166022c062	0.09129466864647065
187	0x3fc53b499e83b480	0.16587181320156574
188	0xbfba470997b66b51	-0.10264644578857697
189	0x3fc059c2411e8da8	0.12773922137885774
190	0x3f9d7588e479cf82	0.028768671937043695
191	0x3fc3afebc41bdcd1	0.15380618167521345
192	0xbfcb4555f9bc109e	-0.21305346197198544
193	0x3fcbdd1fa669d559	0.21768565774588458
194	0x3f9e624be18cd9e0	0.02967184604787032
195	0xbf389a4883e49e49	-0.00037540693655777453
196	0x3f71a9cad9170815	0.004312317252187743
197	0x3fb347240905f4ca	0.07530427189154235
198	0xbfa845e647ac2fa3	-0.047408291100594434
199	0xbfb2ea95af75a13c	-0.07389197858504287
200	0x3fc41a18500f409e	0.15704635533484618
201	0xbfb91b392a88e1d9	-0.09807164467282038
202	0xbfc20b572786ed61	-0.14097108297378738
203	0xbfc0c2c7537e8e90	-0.13094417168496308
204	0x3fb0e9b645bb86ee	0.06606616213278091
205	0xbfc59a6cfa86a2aa	-0.1687751982947437
206	0x3fb7aab2d443d940	0.09244840318919945
207	0xbfc8267495edc252	-0.18867356606235092
208	0x3faab80dfebcaf7f	0.05218547567923703
209	0x3fb6875117a443b9	0.08800227000416684
210	0xbf90b728e1a7bc58	-0.01632369878091952
211	0xbf96d20028de5da0	-0.022285463804647798
212	0x3fb46e86c985c011	0.07981150073987943
213	0x3f891498f3dd8c6e	0.012246317808324938
214	0xbfc815bc029be07d	-0.18816328170192156
215	0x3fb7d9939e7b79cf	0.09316370600888678
216	0x3fc2a04fb96bc933	0.14551731637727414
217	0x3fbd67b8f78165af	0.11486393015493122
218	0xbfc8f4974bd322d8	-0.19496432497387306
219	0x3fbe58d99b7a145c	0.11854324384519671
220	0xbfca7fc2ca9888e2	-0.2070239533650869
221	0x3fce8d935b2fa7ff	0.2386955447430523
222	0x3fd15afe44a50b51	0.2711787863119542
223	0x3fb4743e0a90a547	0.07989871747908693
224	0x3fb9daae7d872941	0.10099306645057472
225	0xbf8da71effdbf17e	-0.014478914435579023
226	0x3f9cfeea429b19fc	0.02831617385415973
227	0x3fcb27626e8f425f	0.21213941954057966
228	0xbfc896d99bdf52cc	-0.192103577718305
229	0x3fca0bc7f5e42d3c	0.203484530510062
230	0xbfc5632bb9d663c8	-0.16708895277113656
231	0xbfac526ddfb87b21	-0.05531638484921176
232	0x3fb407a20c7572b4	0.07824147037667722
233	0x3fbac1898630c737	0.10451564336906648
234	0xbfbed89da506ffcb	-0.12049279479015167
235	0xbfc6b8fc5a786e2a	-0.17752031724454415
236	0x3fcdf1c6a1afce86	0.2339409150587139
237	0xbfa821130c10db4f	-0.047127337668306006
238	0xbfa8fd6a16c6f768	-0.04880839851419588
239	0x3f9388ca42f40338	0.019076500259873813
240	0x3fa2c95cf9e87be3	0.036692529207577505
241	0xbfb5e690b47b7c5f	-0.08554939657504822
242	0xbfc1dd555cf9bbee	-0.13956706085033893
243	0x3fd0087d778f2325	0.2505181949205045
244	0x3fc89977ca6f50b4	0.19218346962464283
245	0x3fcc65601dc23373	0.22184373333984872
246	0x3fc926fbf3bfd517	0.19650220300506113
247	0x3fd02a6459101630	0.25258740136664226
248	0x3fa709257fdd0a01	0.0449916571219724
249	0xbfcb9d03cf21008f	-0.21572921384541074
250	0xbf9ce453d772a262	-0.02821475031365351
251	0x3fadf789143f6866	0.05852917072452683
252	0xbf950a9d03934465	-0.020548299163071344
253	0x3fcc025cbd10253d	0.2188220904502404
254	0x3fcc834c52de22e8	0.2227569012286701
255	0xbfc14cc856116d36	-0.13515571787397967

layer2.bias f8 [80]
0	0x3fb7c1bab25ae00d	0.0927998242794958
1	0x3f7046fc61339316	0.003973947389771101
2	0xbf7b49a05a3e3e40	-0.006662012459755895
3	0xbf9a729dd3a53369	-0.025827852289967455
4	0x3f9711d75d722f35	0.022528996542447294
5	0xbf9514bdbc98c21d	-0.020586933742551595
6	0x3f96aa18dfab02f9	0.022133244182216825
7	0x3f9572ee990ca32c	0.020946243373290915
8	0x3f95cd33cd9b094a	0.02129059736649567
9	0x3fa1adbd85bfbc0b	0.0345286584632661
10	0x3fa00cead7f9a2c9	0.03134855162062917
11	0x3f8cfb571a8827c9	0.01415126847952654
12	0x3f83a4747c2b94e8	0.009591016806960131
13	0x3fa53090a7ce83c2	0.041386147007194576
14	0xbf93cc2a0f2cb9d8	-0.01933351247424206
15	0x3f94c43b3be4596a	0.020279813318745545
16	0x3fab1742e8e83f9d	0.05291184514146539
17	0xbfa0dfbb66cd15a6	-0.03295693998237974
18	0x3f9cef3d721668a5	0.028256378258085708
19	0x3fbd2bcc63b8d6d9	0.11394956049556572
20	0x3fa5d4164fd127bf	0.04263372158364075
21	0x3f66ee812adc659e	0.002799274711730872
22	0x3f86339cf4234677	0.010840631676191521
23	0xbf726581e8256cf0	-0.004491336296577261
24	0xbf89dd67b311cd4e	-0.012629327919262547
25	0x3fb34d72b8664674	0.07540051462117409
26	0xbf9a0811f3cbd818	-0.025421410088675683
27	0x3fa8bae38240950e	0.04830084767335495
28	0x3f66c0f6efa996b0	0.002777559563855579
29	0x3fb5c926d489eb88	0.08510058106359797
30	0xbf9f566e7dab7d21	-0.030603147907524723
31	0x3f90e2f2c733c949	0.016490739258139517
32	0x3fa6e0b56474ffe6	0.044683140290089615
33	0x3fb58b5138652237	0.08415706278641087
34	0xbf70e1e307dff7e4	-0.004121672476683689
35	0x3fac0e2be9645ce6	0.05479562019370991
36	0x3fa6e401d9df1bc4	0.044708307119030205
37	0x3fa30bdb058b480b	0.03719982569386112
38	0x3f8eaa5f7c34b566	0.014973398187602082
39	0x3f6f1f5d02aa0d8c	0.003799134884788285
40	0xbf92222cb7a88ab2	-0.01770849104844769
41	0x3fa7ec7d8a22ca3e	0.04672615348080854
42	0x3fb625994ed87fc4	0.08651121306365811
43	0x3f7aabcb8b765631	0.006511492821478935
44	0x3f778ccaa2015c70	0.0057495036454248
45	0x3fa3389d147b293e	0.03754130244267849
46	0xbf99a38a4fc23211	-0.0250379191571018
47	0x3f723449680e7320	0.004444395774865467
48	0xbf89f4c42cd6bef0	-0.012673885935185564
49	0x3fafcc1ce1ddf0c7	0.06210413224377614
50	0x3fb2efca594db930	0.07397141151679842
51	0x3f945f40cc2eb34f	0.019894611799532055
52	0x3f38d74c5abe77fc	0.00037904371378683055
53	0xbf6302a23b09ead1	-0.002320591789893946
54	0x3f6efc08958e8081	0.0037822883281962154
55	0x3fad9a743838dca1	0.05781901537232526
56	0xbf6ce97f7a98b8f0	-0.0035293092558027414
57	0x3f626119398223ed	0.0022435658139028287
58	0x3fa5ae61ae30c939	0.04234605075216042
59	0x3f88ebffb6dc7a01	0.012168882148725581
60	0x3fb7c9cd58bc7190	0.09292300621422656
61	0x3f9ff67e93502752	0.031213739148405147
62	0x3fae5efd8f66477e	0.059318469767403834
63	0x3f9e6ae300956a13	0.029704615507720144
64	0x3fa32cde00c71de9	0.03745168456549292
65	0x3fb69d0a320b5252	0.08833373758108934
66	0x3fafdce7adb4f284	0.06223224635548255
67	0xbfa6e21891c306e9	-0.04469372538870948
68	0x3fb666f3941677ab	0.08750841489242471
69	0x3f963108d200a592	0.021671426599061024
70	0x3fa6bd9135368baf	0.04441503309796901
71	0x3f920d646456fe58	0.01762921202111864
72	0x3fab17fdd502715a	0.052917415859357234
73	0x3faa09e2da4eb4c5	0.05085667528997243
74	0xbf71044287bbb50f	-0.004154453166603802
75	0x3f98926e1a7b158d	0.02399608646989786
76	0xbf9e9000605489c9	-0.029846197013407214
77	0xbfa22ba164844756	-0.03548912384043372
78	0x3fa0d083125bd0a8	0.03284082030396124
79	0xbf61eadc6584674a	-0.002187185728087214

layer3.weight f8 [80, 80]
0	0xbfbc2a9de9c29bd8	-0.11002528149639035
1	0xbfc82264bb8d3b02	-0.1885496059207626
2	0x3f98eeb6276110cd	0.024348112252724975
3	0x3f53e507354a513d	0.0012142725364912698
4	0xbfb14c43f1097b6d	-0.06756996760075902
5	0xbfbaf6766d307ca0	-0.10532322088009716
6	0x3f9d711a94cd0d34	0.02875176938256381
7	0xbfb0cab6d53e1f06	-0.06559317308540011
8	0x3fbd47c3e280bd0f	0.11437629966598116
9	0xbfa4248649dbbc93	-0.03934116031256809
10	0xbfa21eda85dcd46b	-0.03539164432587757
11	0x3fb655fdb7643afd	0.0872496197446075
12	0xbfc9e70f1d2de216	-0.20236386227385655
13	0xbfb3923ddf705a96	-0.07645022110987507
14	0xbfb04537dcf3aeaa	-0.0635561861451445
15	0x3fbcc05cb6990462	0.11231021364166474
16	0x3fa275247e1d97ff	0.03604997672555043
17	0x3fc659fdfb3e26be	0.17462134139741708
18	0x3fb6a7d7ae2a6c95	0.08849857332318074
19	0xbf9cc81ecbbf390f	-0.02810714834759503
20	0x3fc15ede4473dc31	0.13570764868174615
21	0x3f72e9dc80a71302	0.004617558801730539
22	0x3fc2d7755f74561c	0.14720027123318935
23	0x3fc389bbf4193e0e	0.15264081400754076
24	0xbfab4ac40edc016b	-0.05330479318036193
25	0xbfc62a976282d27a	-0.17317478475674247
26	0xbfc2655ef2cb2686	-0.14371859412340288
27	0x3f903443a93b171f	0.015824372486142765
28	0x3fb0f7383b40fdc3	0.0662722725546621
29	0x3fb07f61f2a7bf7a	0.06444370435906235
30	0xbfc39b76de58f840	-0.15318189484418276
31	0x3fcb9fedc0f71ac1	0.21581813737994618
32	0xbfce3ce32c01437c	-0.23623313568762316
33	0xbfce5d269faf17bb	-0.23721773907726437
34	0x3fc6d6019385f2fe	0.17840594962390094
35	0xbfba345118e442b2	-0.102360790803014
36	0xbfc7cff5b41b9c8b	-0.18603392881707168
37	0x3fbdb717d13cb96f	0.11607502802210033
38	0x3f8dc6e701dbd4cb	0.014539532417510511
39	0xbf9de6bc9d8a9c1a	-0.02920050345951717
40	0x3fc4f8ab2c5aad5b	0.16383876481755064
41	0xbfa483891351de58	-0.040066035850881476
42	0xbfc2dce0183fbe21	-0.14736558136017755
43	0x3fc1f85fcec38832	0.14039228053940317
44	0x3fc0f1b422080329	0.13237620984730228
45	0xbfad7d412199c1b1	-0.05759624037898748
46	0x3fc5024ce34736b2	0.16413270089690496
47	0xbfb27502d4eb6c75	-0.07209794710381508
48	0x3fc4822e8739d2ee	0.16022283175302426
49	0xbfd3443f7f2e6c60	-0.3010405294423375
50	0xbf7fa9d8424e323e	-0.007730335962048472
51	0xbfba5d063f3d6555	-0.10298193973485088
52	0x3fc390d3d66b74c2	0.15285728425707218
53	0x3f9b9b04fc132b87	0.02695853985350596
54	0x3fc8a4e064c06a1c	0.19253163260948802
55	0xbf90585ec573375b	-0.01596210556163356
56	0x3fa1de3133e0bc65	0.03489831693911397
57	0x3f94af6c574c6492	0.020200436428329534
58	0x3fc8c1ef052932d2	0.19341838600157374
59	0xbfc5b6bcf30cc728	-0.16963922374412133
60	0x3fb4a055f0a18cc9	0.0805715286710892
61	0x3fc03eb1a4f94db0	0.12691326670993197
62	0x3fcc97402540f310	0.22336580103901627
63	0x3fb3d9d4ceab8ac9	0.07754259153038413
64	0x3fcc1c069afffd5f	0.21960527962071816
65	0xbfc4c26505612a20	-0.16218245279954235
66	0xbfc5f0c6204b2b0a	-0.17141033722722226
67	0x3fb80acc6bc75318	0.0939147723323227
68	0xbfd025d4efcaff0a	-0.2523090688446109
69	0x3fc3627ce67b7f69	0.15144311193489138
70	0x3fc44fce78bc977c	0.1586855020079233
71	0x3fc44fe91bef7cbf	0.15868867744481993
72	0xbfa8aa01c3842513	-0.04817204963371515
73	0xbfd74539b4fcc97c	-0.36360018419795614
74	0x3fa9ef23b883090e	0.05065261485425952
75	0x3f96fbd21a7fc777	0.022444994799975384
76	0x3fa98923fee1221c	0.04987442480393531
77	0xbfb95edf63d81da0	-0.09910389125444974
78	0xbfc992be599e7728	-0.1997907579033662
79	0xbfb2267a28d79c49	-0.07089961526035994
80	0xbf81a81738852a38	-0.008621388828619833
81	0x3f5332c63655f81e	0.0011717734972474035
82	0xbfb7ded1ecdc5741	-0.09324371369106378
83	0x3fd159f4c910dac4	0.2711154902967048
84	0x3fb7e2b031134283	0.0933027381718237
85	0xbfc01c6f88cb2c84	-0.12586778811814636
86	0x3fb50b57bf897146	0.0822043268794391
87	0xbfc3b32ab4be38c6	-0.15390523743957923
88	0xbfb89960b85276fe	-0.09609035968830068
89	0xbfb45d2b4b7a9e22	-0.07954664795635627
90	0xbfa0fb6f07a3f086	-0.03316828697458711
91	0x3fb1764aaa966c48	0.0682112375711067
92	0xbfcd2e0e0a7c5be9	-0.22796798240662433
93	0x3fbee1a5d30cf501	0.12063061144450062
94	0x3fbb4df9498a309d	0.10665853543668154
95	0x3fca77cbcb6cc600	0.20678088600975286
96	0x3fba040c4ca5af4e	0.10162426825780566
97	0x3fb688ea66b69231	0.0880266667141505
98	0x3f75bc4124e9a5b1	0.005306486577504031
99	0xbf8b01b1cb7649eb	-0.013186825772923924
100	0xbfb8e5584be75770	-0.09724952557675492
101	0x3fd4bc1b8baac15b	0.32398117675167776
102	0xbfbf163da3cf8285	-0.12143311738283032
103	0x3fc6ebe1cd833189	0.1790735486487274
104	0x3fa12af21067947f	0.03353077364207823
105	0xbfa214da4f7ba433	-0.03531534404994154
106	0xbfc9e2d47f5d5b9f	-0.20223480433443528
107	0xbfc078b193ad896d	-0.12868327818712136
108	0xbfaebbc21e2450fb	-0.06002623193686137
109	0xbfc7796fc97ad3d8	-0.18339345300560583
110	0xbfc21ff0b20a8d3f	-0.14159973805826984
111	0xbfb0d6e2befb0f13	-0.06577889597525326
112	0x3fa329378676572c	0.037423834956980734
113	0xbfb3d72ea7632148	-0.07750217043497287
114	0xbfb4b9fabf20fa8a	-0.08096282163840321
115	0xbfb43b4e749102d6	-0.07902994485722145
116	0x3fad00fcc9a29c80	0.05664815865866846
117	0x3fa3612fb1ba6daf	0.03785084766897328
118	0x3fcde0a026349853	0.23341752877712682
119	0xbfc6ec0d1192ad36	-0.17907870634130924
120	0xbf8019c8cf1c8284	-0.007861679859673794
121	0xbfc46e8bb0b6f2b2	-0.15962358597416465
122	0xbfda0e4e0c1020ce	-0.40712310007121466
123	0x3fcfb2eaa7c52e37	0.24764760200410915
124	0x3fd2aefd7c0813b8	0.291930552601396
125	0xbf9c3d21653926c7	-0.027576944163491015
126	0x3fa4e8d8134d0b93	0.04083895907981296
127	0xbf970e7681faf3cb	-0.022516109164587832
128	0xbfa20a236b31c84e	-0.03523359950567394
129	0xbfba127dad4312cc	-0.1018446491244262
130	0xbfbe5fff1281ded1	-0.11865228845442323
131	0xbfc70446568fb521	-0.17981795527104175
132	0x3fb048d48192a760	0.06361129916572628
133	0xbfa3e09d103cd805	-0.038823040229928586
134	0x3fd17ffaeb49081a	0.273436288615018
135	0xbfb368e5b7aaef9c	-0.07581935628962672
136	0x3fc35af8e838da69	0.15121375407189255
137	0xbfb5a9c64f64946c	-0.08462180555632565
138	0x3fb43631aa38b8d8	0.07895193486976682
139	0x3faef91ffa81f91a	0.06049442227321063
140	0xbfc06d17afe6726d	-0.12832923973919055
141	0xbfa585bc33b2bb38	-0.042035943327724146
142	0x3fc015af85a28796	0.12566179299488728
143	0x3fc92eba1784583c	0.1967384924725496
144	0x3fc7dbe11cae2f83	0.18639768505488172
145	0x3fc4d9d4ea2d09cd	0.16289769586917516
146	0xbfc721dda14df8d6	-0.18072100044441325
147	0x3fb251f068ad1620	0.07156279140061672
148	0xbfd1a2a499642aa4	-0.2755519388162304
149	0x3f945bfcdb3736c2	0.01988215530382465
150	0x3fb18a1d13b6d3fb	0.06851369601538686
151	0xbfa3a12d7efa4882	-0.038339063406184884
152	0xbfb7ea194719bfeb	-0.09341581331113928
153	0xbfd7a5948437d6f5	-0.36948120986868044
154	0x3f5d5412ff4f9e32	0.0017900643845169093
155	0xbfcc9de2a17d98e9	-0.2235682762649909
156	0x3fc78ec43c5f8eb4	0.18404438922799715
157	0xbf9446f7cc1107bf	-0.01980197127364369
158	0x3fc5742103c9618a	0.16760647473234896
159	0xbfb458bed49099a1	-0.07947914781161682
160	0x3fa35a91d2de25b4	0.037800366392797186
161	0xbfa96cf0d31ec3b1	-0.04965927674437099
162	0x3fc1d3b96404f1aa	0.1392738092780637
163	0x3fba3ac4f10e3398	0.10245924840110232
164	0x3f932408551591fe	0.018692140763407743
165	0x3fd58e6f732e559b	0.3368185639204399
166	0x3fd41c1c0e96706a	0.3142156736810252
167	0x3fa683887285a2b7	0.0439722671315556
168	0xbfbb4c7f13e13731	-0.10663599238725109
169	0x3fc8346409cd569e	0.18909883955591494
170	0xbfb33ca1df3fd779	-0.07514392567085605
171	0xbf93d7e8b6039cc4	-0.01937831507612199
172	0xbfbbe9cc21069804	-0.10903621488850496
173	0x3fb5e5d9b5b075c3	0.0855384892060647
174	0x3fc2d6c13e1f594e	0.14717879803965633
175	0xbfbe1044b0cbb7cd	-0.11743573490431843
176	0x3fcef71af0a783f4	0.2419160533018211
177	0x3fc336a01bf4d971	0.1501045357233113
178	0x3fb103f3337c0f27	0.06646652228306192
179	0xbf9f3a1a48af313f	-0.03049508160238301
180	0x3fafa67021a38fee	0.06181669626838003
181	0xbf793683e47a02f4	-0.006155505375887261
182	0x3fa3babf8fa7f457	0.03853415135015641
183	0x3fca7ff488bf9977	0.20702988316697787
184	0x3fb98ceac53a0065	0.09980647387601634
185	0xbfc0e42565714d4d	-0.13196246579409845
186	0xbfc3fb827c07a365	-0.15611296707291014
187	0x3fadb964a739e218	0.05805506268820099
188	0x3fb3d3c114865d1e	0.07744986296744513
189	0xbfc6db252bdc4ac3	-0.17856278077723262
190	0xbfaa0a8ae6e51e51	-0.05086168354551702
191	0x3fb62481a90bd428	0.08649454476456298
192	0xbf75349763d6a63a	-0.005177108161129202
193	0x3facb5b944718a0c	0.05607394180767153
194	0x3fb7d32ead3cb734	0.09306613664076907
195	0xbfc50d92958e11f2	-0.16447670271385523
196	0x3fc275262cb2b8f4	0.14420010740781886
197	0xbfb60ffeca36b458	-0.08618156849725389
198	0xbf9878ae34da32ac	-0.023897859550333564
199	0x3fa3170157f792da	0.03728489111725759
200	0x3fb96e7e70018f79	0.099342253060568
201	0x3fa1aee0fb5e8d29	0.034537344631895124
202	0xbf8a8b95387ab177	-0.01296154574023299
203	0x3fc66a0db53e289a	0.175111497399773
204	0x3fb506faafe44f14	0.08213774484857722
205	0x3f721bbeb7329139	0.00442099092757458
206	0x3fc0e6cc092c9fd5	0.13204336593594115
207	0xbfc1de00d8afc275	-0.1395875032462929
208	0x3fc6ff1ac1c4c406	0.17966017209394652
209	0xbfb7e2f6abb4794d	-0.0933069390489198
210	0xbf934a9562d69836	-0.01883920112381806
211	0xbfa66b272507ae73	-0.04378626181627689
212	0xbfc2e502e457d732	-0.14761387013975874
213	0xbf9ce4101e7b37fb	-0.02821374116938811
214	0xbfb25e40cf3826a3	-0.07175068911615283
215	0x3fb7c43230ef676c	0.09283746428209633
216	0x3fc054dc3752e683	0.127589728368367
217	0x3fc7aa6ff72a353f	0.184888835607504
218	0x3fbd2f456d74e462	0.11400255129127992
219	0xbf707f1922458e86	-0.0040274602691600155
220	0x3fb7826875ece717	0.0918336189178287
221	0x3f8efe53bb4dea89	0.015133527902198256
222	0x3fc4bc9b116199b8	0.16200579022115646
223	0xbf845b53e5300668	-0.00993981879401247
224	0x3fc7c536efcd0544	0.18570601185823865
225	0xbfc0ca7e442b0b15	-0.13117960289499622
226	0xbfb918809b1ca058	-0.09803012644681652
227	0xbfbe26a301461b64	-0.11777704983806597
228	0xbfd39f28d47f12ee	-0.3065893244895922
229	0xbfb4af1a494f6a76	-0.08079685487556695
230	0x3fac8a212a11a996	0.05574134481942676
231	0x3fbc47fcd1d9ca8b	0.11047344325360535
232	0x3fafe989ed10153e	0.06232863444169333
233	0xbfc804a12656b9e4	-0.18764128086100051
234	0xbfccd21bffe33033	-0.2251620292139492
235	0x3fb91a6efc0ad4c9	0.0980595937097234
236	0xbf7c5c5c8248aad6	-0.0069240201596964725
237	0xbfb24cd247eaf57e	-0.07148470168882246
238	0x3fcbef40f42fb8c0	0.21823894427456558
239	0xbfb9ff3a9c23aa7d	-0.1015507346343529
240	0xbfb056c20e697110	-0.06382382251598906
241	0xbfc9956ef4d52e65	-0.19987284617160408
242	0x3fbcb88845552556	0.11219073956194356
243	0xbf94993341406662	-0.02011566243900232
244	0x3fc93d0039dba156	0.19717409920782342
245	0xbfd77d483d8b9f01	-0.367021617987561
246	0xbfd54d6dcd90cab2	-0.3328508861042493
247	0xbfa6a60aed34e38d	-0.044235555129893724
248	0x3fe121f8be9aefc7	0.5353969309576251
249	0xbfbd5170ebe60f41	-0.11452394255871658
250	0xbfca8195db533045	-0.20707963189340908
251	0x3fb896e203676ffe	0.096052289801662
252	0xbf86ba11df82f789	-0.011097087510616681
253	0xbf7d7b83ed6d1415	-0.007197871533951368
254	0xbfaf9d253732e8c7	-0.06174579905332816
255	0xbfb280b1dbc7671e	-0.072276226193392

layer3.bias f8 [80]
0	0x3f8ce9692c82dae8	0.014117070837853032
1	0xbf745bbacb33148a	-0.004970292723730849
2	0xbf61775826487f13	-0.0021321031256461647
3	0x3f9b05961cad6cf9	0.02638849782975414
4	0x3f9b0a02b5d3c119	0.026405374858712614
5	0x3f925a965d4dd385	0.017923688359093432
6	0x3fbf2fc3c29e298b	0.12182258130466132
7	0x3f8b4c28ed8ccff7	0.013328857182933957
8	0xbf8702d6ba917158	-0.011235883301360758
9	0x3fa9ff5a62f267f7	0.05077631433341872
10	0x3fb0231765ff01af	0.06303545227183947
11	0x3f9f52753cc68c7d	0.03058798964924535
12	0x3fa633095e25a84f	0.04335812830216012
13	0xbf7778bc73014f7e	-0.005730377321089606
14	0xbf37a36aa88880de	-0.00036069253886418333
15	0x3f9314a21cb2b021	0.018633397103869357
16	0x3f8d58fa38ad4214	0.014329867224348404
17	0x3fa0f257cc2d4de4	0.033098930047937875
18	0x3f9058990f8d5474	0.01596297414228727
19	0x3fa92fa02fe39eac	0.049191480489580414
20	0xbf66cb336d01a512	-0.0027824406061439733
21	0xbf91bc6a0057263a	-0.01732030512883951
22	0x3f6e1eb47b1a265a	0.003676750661558964
23	0xbf64d7118512c9f3	-0.002543958872217583
24	0x3fa4ca7deb21ef04	0.04060739035864283
25	0x3f9158e1b480531b	0.016940619127200223
26	0x3f793f22062f1eba	0.006163723856793696
27	0x3fab99265b7c2316	0.053902815501777265
28	0xbf9584ce6742372a	-0.021014428188713165
29	0x3fa587a5e9f754a1	0.04205053788215563
30	0x3f70b6d718ced9ad	0.00408062002400415
31	0x3fa7dc632e2b7a20	0.04660329760166726
32	0x3fa4c9b4f86a4103	0.04060140163812955
33	0xbf9bee3847fd56cb	-0.027275924104592158
34	0x3fa841bbf54db37c	0.04737651223590597
35	0xbf850fa4eba530c9	-0.010283745232890234
36	0x3fa3b24f26e17c22	0.038469766136352015
37	0x3face31f92329fea	0.05642031345024619
38	0x3fa6169e1a2f5754	0.043141308494951375
39	0xbf93ec7a90467e42	-0.019456782394284618
40	0x3fb17d6e4ed9237f	0.06832017350201446
41	0xbf91eb504f99f82d	-0.01749921308373119
42	0xbf74f497eab1b729	-0.005116074967288311
43	0xbf8b0bdcb8e12c9c	-0.013206219093396414
44	0x3faf5ce693571e1d	0.06125565098369299
45	0x3fa5d5ec8aa1c1e7	0.04264773552211292
46	0xbf8f8cd088cb20ba	-0.015405301260571814
47	0x3fa803edec8db55c	0.04690497887245712
48	0x3f72ab96eac75995	0.004558171768130133
49	0x3fa56e9da4e1b983	0.04185955655781284
50	0x3fb17e95b5f86ecb	0.06833778088224134
51	0xbf801e4fafb121ae	-0.007870314168159389
52	0x3faa2e07945e5721	0.05113242803706287
53	0x3fb6299bb0579951	0.0865723901293667
54	0x3fa91d90e72d44d8	0.04905369588835534
55	0x3fa1a6ec1c574956	0.0344766411395933
56	0x3f96304925002591	0.02166857040723397
57	0x3fb2c4d576d0cd25	0.07331594610950683
58	0xbf63de3adfeb72dc	-0.0024253034492701508
59	0x3f94c0d06c1be0c1	0.02026677760929441
60	0x3f817e3eff55540b	0.008541576544908855
61	0x3fb86ef2d8371e19	0.09544294146245881
62	0x3f61916b55729ac9	0.0021445366251840775
63	0x3fba7dd51530bd3c	0.10348254935592122
64	0x3fa214363be530d2	0.03531045418876179
65	0x3fa4a7c95a666008	0.04034260967745246
66	0x3fad5e4a7f51a637	0.057360008279669854
67	0x3fa93df812269bf5	0.049300911155391626
68	0x3f93ddb9a420a862	0.019400501864005888
69	0x3fac3e85179c766d	0.05516448891851842
70	0x3fa2de467ed14b81	0.03685207651201151
71	0x3fb6a0f18dbf76e2	0.08839330397264747
72	0x3fa41338bc870f68	0.039209149373646224
73	0xbf7daa518fc256c1	-0.007242506599274002
74	0x3f4abad3b943d0c9	0.0008157285506329655
75	0x3f8c6871d21af11d	0.013871087288287282
76	0x3f912c9e094e7430	0.016771764104863418
77	0x3facf4f0b7e36fd0	0.05655624623042821
78	0x3f8e731f48b79847	0.014868015677120051
79	0x3fa1849c1767902e	0.034214856965064974
