attack_soft_generative_decision_tree/experiments/vehicle_params_state_dict/fnn_epoch212.pth (torch, 121327 bytes, 8 tensors)

layer1.weight f8 [80, 18]
-0.30583748873573396 0.1549903842184362 -0.1305378182049208 0.12079448412333764 -0.15881295956601207 0.1949713807474645 0.01701164351357613 -0.18714828391295527
0.179781297950887 -0.1311107361116139 0.025593983945113037 0.10448687933230584 0.09677543914107542 0.04690708301244121 0.05443039475881485 -0.13320576563970402
-0.07877328055884038 -0.260444103566265 -0.19013868984100227 -0.07796698659795209 0.3651082799243386 0.010365127332824018 -0.08019653886523664 0.005006858440940501
0.06175377018880475 -0.17197721394416893 -0.0969750024915503 -0.17665590840806053 -0.049080285703812745 0.20357595748088958 0.08598935593397466 -0.1324266175351808
-0.01714333993216809 -0.15377323426489448 0.17875993362776313 0.13147532726318606 0.1280545752250723 -0.1962086843305767 0.15668374066876417 0.07137037454862294
-0.22576112453108924 -0.1658309150147779 0.023399753347874388 0.12277338809479298 0.30665466089381305 0.11535016113478 0.035896205387781474 -0.039577518029133306
0.09166163897345167 0.12206687086618645 0.2576279750436221 0.3256768558923251 -0.06929443242797177 -0.139042269003545 -0.4438157331488208 0.18967163928920305
0.1725741906611784 0.2539857207559811 -0.3167987567094324 0.3836246389166717 -0.07114673879344283 -0.1508562582678074 -0.08604959841923952 0.26851936319756997
0.08937515651461853 -0.16591027535445355 0.11114876606283522 -0.28735042243170644 -0.20679517115557977 -0.16699260883160574 0.033162428697512326 0.23279604925879707
0.23949472378392372 -0.07337457984909047 0.1469354415788554 -0.32007294813508985 0.3016663559038357 0.15522630818214908 -0.26514038916683313 -0.1580608382139463
0.09161660046490747 0.15549236232174815 -0.13206145562294447 0.09012130565264137 0.14518101636525174 0.35674103108765837 0.09911155259413215 -0.13561645388961602
-0.37326097975094097 0.06563689273242085 -0.2975040391961886 0.2624346310306899 0.27287382294557827 -0.13566597753235188 0.37745113591773805 0.1590915102316318
0.14610483325124723 0.20382490813489323 -0.21483087670907544 -0.22465939665530213 -0.15071753067615917 0.16309457893427065 -0.1734625038102335 -0.18708682814499197
-0.1308858536356375 0.07768294621545094 -0.3571629360133889 0.29835860709938383 -0.1522426074228263 0.010255400242973452 -0.021251962593041338 -0.22220559620210853
-0.24050044251935582 0.14748504896779502 0.08762284814983672 0.09902297731534891 -0.10358906714839641 0.25585386138221633 -0.0204372001287545 0.10321102069990945
-0.29384230749872814 0.22154620482442489 0.09514474867776747 0.17153896959240564 -0.11423198340176222 0.285930111944433 0.29341985234161505 -0.09124511800847875
0.25070992870769887 -0.14814383950568458 0.1043250986513557 0.1627617991351834 -0.10656563437333186 0.2927008562856914 -0.003533430872642118 0.18323085885054424
-0.28070900865983883 0.04651405260411539 -0.14381351171494863 -0.10829571307286792 0.10018030069451744 -0.2723540595812299 -0.029387007871221452 -0.020781146657608825
0.11355576421905747 -0.2586724943138197 -0.04885447093398185 0.046648926787398515 -0.1529464367795132 -0.10885891531745383 -0.0853705542327316 -0.03789589615765194
0.22353812809155105 -0.2981157928600832 -0.08379833596489811 -0.15282334868509975 0.2858914815187496 -0.3635311933201133 0.17113620479832325 0.03513684501291018
-0.20909829178743689 -0.07417493207512929 -0.1806305666599791 0.11015116411807434 -0.08340712460889002 0.35721212701297284 -0.20607307907477337 0.3670351126529415
0.04215694459307109 -0.03161469200837174 -0.06293082006343827 -0.038773607178427774 0.23126585596779017 0.05857759880786247 -0.1439891929221411 -0.39393571593351767
-0.0025988361953587285 0.11650611247988535 0.14186921534707628 -0.06879264207440144 0.03015579419315341 0.3645322037100155 0.04533518559839426 -0.05959847790084422
0.2506355902321512 -0.20748223811941316 -0.09637611280936337 0.006863435990826241 -0.08620986313691033 0.2249888716307792 0.05183887116920889 -0.08692412825353642
0.02879357151616471 0.15008437059723692 -0.1235185393170494 -0.04689601586477604 0.07783154388884886 -0.28425321172133333 -0.051521837035532 -0.02111750738396265
-0.05128971388798103 -0.17158904317007834 0.14509391713871397 0.12344858824719171 0.17163221688885172 -0.23337241516144824 0.17818096011676288 0.37409841970729835
0.03316818431900126 -0.22055966346636177 0.03777707785584804 -0.20087500350742468 -0.1763932659437285 0.08275661891312185 0.36365135766884843 -0.2830429167747672
-0.16601206559282078 0.32742860880857655 0.2895430862171142 0.05567185349955394 -0.4672812494099802 -0.12295913672562737 -0.07515266869415796 -0.03922655105626039
-0.055137361292881326 -0.005081939916292734 0.07304259235774785 -0.01797168005316729 0.1730348873264893 -0.01115821248038304 0.11677621867012232 -0.12199679279884643
0.23625162824440984 -0.19686430705659586 -0.10484872568181558 0.05935568168669479 -0.06389150022553221 -0.27261781181830347 0.25127490216465154 0.08290702041344519
-0.2857563318493807 -0.1168381142060993 -0.03058311773624471 0.3162034506816544 0.1935315864958825 0.04371200323444975 -0.17797956092268732 -0.13653180026536316
-0.00798722593003784 0.019654878016310513 -0.2886308007072814 0.39277597114280044 -0.2685171268558544 -0.17393903553317147 0.19508307754517015 -0.057564621714343185
00000000: 0fb0 0067 d792 d3bf fad1 b493 b9d6 c33f
00000010: f768 0a96 76b5 c0bf 2bd0 d826 63ec be3f
00000020: cd2c c2a9 fb53 c4bf 82b0 fb7b d2f4 c83f
00000030: 4b07 2b12 806b 913f 294f 7497 79f4 c7bf
00000040: b6d4 90d5 1203 c73f be7e e091 3cc8 c0bf
00000050: 620e 1330 4f35 9a3f e9e5 97f1 a6bf ba3f
00000060: b6bd 2a72 46c6 b83f 6577 fa86 3404 a83f
00000070: 7282 cbfa 4cde ab3f 65d4 87f3 e20c c1bf
00000080: 9181 cc57 7c2a b4bf 8833 d0be 1dab d0bf
00000090: 6123 49ef 7656 c8bf 981a 9bf9 a4f5 b3bf
000000a0: b886 711e ef5d d73f ff8c 4ed7 4f3a 853f
000000b0: b4b7 ada7 c287 b4bf 7614 2754 1282 743f
000000c0: 0a32 bbae 309e af3f 3a11 c66e 5903 c6bf
000000d0: ee10 3b90 5ad3 b8bf 4fff a02a a99c c6bf
000000e0: 12d2 f31b 0d21 a9bf 72ef d0e7 c60e ca3f
000000f0: d45f 8aff 6503 b63f fc7c b7fb 5af3 c0bf
00000100: 7d57 6911 068e 91bf b67c 1562 d7ae c3bf
00000110: 8518 6202 9be1 c63f 96c3 69fb 2ed4 c03f
00000120: 16f1 58a2 1764 c03f c40c 32bd 5d1d c9bf
00000130: 6e5f fe7a 360e c43f 70f0 9630 5445 b23f
00000140: eddb 4893 bde5 ccbf b1bd 538a f239 c5bf
00000150: 2750 74dd 1af6 973f 2fae afa6 136e bf3f
00000160: 091d edde 3aa0 d33f 9e86 a991 9687 bd3f
00000170: 6ecd 61c8 fc60 a23f bb17 2f23 8143 a4bf
00000180: de50 b01d 2377 b73f 7c9a 4b42 c63f bf3f
00000190: 4036 d60b fa7c d03f f8c8 47bd e3d7 d43f
000001a0: 7bb1 12a9 47bd b1bf cce0 1017 23cc c1bf
000001b0: c3c3 d41a 7a67 dcbf 30e8 dc07 2947 c83f
000001c0: c0ff 823c e916 c63f 3d11 1353 4d41 d03f
000001d0: 11c0 de4a 6e46 d4bf ff8f 855b 4e8d d83f
000001e0: 72bb 5534 ac36 b2bf e61d d403 424f c3bf
000001f0: bf68 0bb3 5807 b6bf 0caf d1d6 6b2f d13f
00000200: 7c1f 4e4e 4ae1 b63f abde 5b43 8c3c c5bf
00000210: b20a 3bdb 3e74 bc3f 6f80 b506 f363 d2bf
00000220: 78be 8aa0 4378 cabf f57f cd88 0360 c5bf
00000230: 256a 6c75 aafa a03f 512e 1acd 42cc cd3f
00000240: 76b6 1b5b c3a7 ce3f e940 cf2c adc8 b2bf
00000250: 242d 1ad2 c7ce c23f dbc4 243f 137c d4bf
00000260: 2845 3a67 804e d33f c381 8fa6 74de c33f
00000270: 287f 1465 0ff8 d0bf a620 7469 563b c4bf
00000280: 4e79 c47e 2f74 b73f 798f 7979 2ce7 c33f
00000290: d039 7bc8 63e7 c0bf 246f 739c 3012 b73f
000002a0: 4df7 a4a2 4a95 c23f 836b 6a55 d8d4 d63f
000002b0: 4e2e 0ced 5f5f b93f b6b0 2045 e15b c1bf
000002c0: 30ce 3905 82e3 d7bf fc61 b253 94cd b03f
000002d0: 52a2 b161 4e0a d3bf 4356 679f bacb d03f
000002e0: 9416 5fc4 c376 d13f 9035 57b4 805d c1bf
000002f0: feb3 26cf 2828 d83f d30f c250 1c5d c43f
00000300: 8c02 4d2c 90b3 c23f 5658 4641 ef16 ca3f
00000310: 6978 d102 947f cbbf 99d2 af9c a3c1 ccbf
00000320: be0f 9848 b64a c3bf 0abb 567d 48e0 c43f
00000330: c73e 79f2 0434 c6bf 0f93 3210 76f2 c7bf
00000340: b3e2 6f1e dec0 c0bf 32c9 7391 07e3 b33f
00000350: 8a55 61ee c1db d6bf b534 feb2 4e18 d33f
00000360: ca2a f88d af7c c3bf 442b 3585 c800 853f
00000370: 2c70 4011 13c3 95bf f78e 56a4 3b71 ccbf
00000380: 12a7 a5ef b7c8 cebf 089a fb42 cae0 c23f
00000390: a398 2f73 736e b63f a739 1fe1 9159 b93f
000003a0: 7621 a027 d084 babf b048 ccdf e85f d03f
000003b0: c100 b348 7ded 94bf 0c2e 7e96 096c ba3f
000003c0: 7bd8 38f7 4fce d2bf 9c0c 2344 a05b cc3f
000003d0: d107 f5ff 675b b83f 27c8 312c fdf4 c53f
000003e0: 1027 dea8 4e3e bdbf a38c efcf ad4c d23f
000003f0: 0e7b 730f 64c7 d23f 9d1d c40d d75b b7bf
00000400: 7140 25a8 a10b d03f ddf0 e398 60f6 c2bf
00000410: 3c0b dcb6 0cb5 ba3f 1c70 29ee 60d5 c43f
00000420: decd 82aa e247 bbbf 0487 505f 9cbb d23f
00000430: e634 4d41 24f2 6cbf 38c7 30d9 1b74 c73f
00000440: debd f8ea 22f7 d1bf 376b 7a9d b0d0 a73f
00000450: 69f1 c42c 7b68 c2bf 62e9 f191 44b9 bbbf
00000460: d0b7 2f8b 6aa5 b93f d363 b5b8 3f6e d1bf
00000470: b1cf efb6 a017 9ebf af3c 1225 a747 95bf
00000480: f2d7 9795 fd11 bd3f 6df7 dc13 178e d0bf
00000490: ec83 d905 7403 a9bf 3008 e43d 5ee2 a73f
000004a0: a6fd 00b4 bf93 c3bf 979f 2a89 2dde bbbf
000004b0: ec91 783a d8da b5bf 09a9 4c45 1767 a3bf
000004c0: 7cf8 c7ba e59c cc3f ab54 3043 5414 d3bf
000004d0: 6caf 6dc8 ce73 b5bf 7577 552a b78f c3bf
000004e0: 3ffe d4c8 0b4c d23f f8af 9856 1844 d7bf
000004f0: 0c9b 6289 cae7 c53f a51d 6ee0 74fd a13f
00000500: 6031 709a bbc3 cabf 8219 72db 20fd b2bf
00000510: 1b35 3b04 e71e c7bf 9fe2 80df dd32 bc3f
00000520: 1ad6 7258 2b5a b5bf 1b57 d040 90dc d63f
00000530: 8128 9b47 9a60 cabf edfe 54d7 807d d73f
00000540: 332e a754 9895 a53f ff85 7f08 cd2f a0bf
00000550: c53a 15f6 3b1c b0bf 2a00 8f5d 22da a3bf
00000560: d513 089c 1e9a cd3f 7be2 500e e2fd ad3f
00000570: e9fc 49e5 3c6e c2bf 9f4a 2a26 3e36 d9bf
00000580: 0e6d ef8e 274a 65bf cc9c e236 58d3 bd3f
00000590: abc8 1c3c c528 c23f a43c ea03 659c b1bf
000005a0: c4c4 6017 29e1 9e3f 2e7e 51e1 7e54 d73f
000005b0: 95a2 0167 2c36 a73f 5975 f312 b183 aebf
000005c0: 12b0 d0db 690a d03f 4da4 9c29 c78e cabf
000005d0: 1cbf a1dc 1aac b8bf 4f8e e691 d51c 7c3f
000005e0: ad02 c47e d911 b6bf 2d1f cf72 6fcc cc3f
000005f0: 8aa7 aae0 9f8a aa3f 3d0e 15e0 a840 b6bf
00000600: 47e4 fcdf 0f7c 9d3f 5d8d adf3 f635 c33f
00000610: ba00 d136 e99e bfbf c860 e72c c102 a8bf
00000620: 228c 999f c4ec b33f de11 0862 3431 d2bf
00000630: 2be5 31fa 1161 aabf f93f 59ee d39f 95bf
00000640: 5747 8a37 a542 aabf c63a 6238 a1f6 c5bf
00000650: afca 7afe 6f92 c23f a651 42a1 539a bf3f
00000660: e621 3d63 0bf8 c53f 1817 74b5 25df cdbf
00000670: 1456 3c3a a2ce c63f 4133 887f 3af1 d73f
00000680: 40eb d595 6bfb a03f 27d0 b38e 4c3b ccbf
00000690: eece db63 8457 a33f a7fa 52a9 45b6 c9bf
000006a0: c441 3bf6 0d94 c6bf 9b67 c2ab 892f b53f
000006b0: 635b 1558 1046 d73f 6f5f ba09 601d d2bf
000006c0: 9035 3b24 e23f c5bf 25e3 a61f 97f4 d43f
000006d0: 6c77 85b9 df87 d23f ff33 2d6c 0581 ac3f
000006e0: 1bfe 0f9d efe7 ddbf 5520 fbfe 3f7a bfbf
000006f0: c29f 3f8e 343d b3bf 81d0 d7a3 8015 a4bf
00000700: 98d1 14d7 f63a acbf 35f7 d9db ccd0 74bf
00000710: 043f 6459 ebb2 b23f 7f82 5408 2b67 92bf
00000720: 4831 11d7 0126 c63f f002 7bed 1dda 86bf
00000730: 2783 23d8 0be5 bd3f 06b6 498b 2e3b bfbf
00000740: e9de 774c 7e3d ce3f 6065 4780 d932 c9bf
00000750: 00a7 d4b7 5dd7 babf 0e2f 5a2f de63 ae3f
00000760: 8d06 f67f 315b b0bf be44 84fa 9172 d1bf
00000770: ea93 c653 e314 d03f 5ed8 48fd 6439 b53f
00000780: bbc0 faec d449 d2bf c406 7147 1ae9 bdbf
00000790: ec92 f249 2e51 9fbf efd7 e365 ad3c d43f
000007a0: 6b14 5f9d a4c5 c83f ba51 ab70 6b61 a63f
000007b0: 197b c2c4 08c8 c6bf 847a 80c0 df79 c1bf
000007c0: 3101 3e51 9b5b 80bf 25cf 2589 6820 943f
000007d0: 02fd 6952 ed78 d2bf 43a1 add3 3d23 d93f
000007e0: f8c0 9075 622f d1bf b46e 8e62 a243 c6bf
000007f0: ef9e 0777 7bf8 c83f f1e4 562f 1c79 adbf

layer1.bias f8 [80]
-0.10790000318140075 -0.16769807167640433 -0.14900456635725745 0.01977540243229481 -0.0002056394607420204 -0.043558991244162334 -0.006406210306127837 -0.004357433031197973
0.04241355800762565 0.047824354910317425 0.03821208776834995 -0.023511478327604547 -0.01911306124667315 0.04436986211603061 -0.0037771576286011583 -0.03388808734907279
-0.042016263442195396 0.0652187643769757 -0.1607920976342216 -0.008452345727565019 0.1180245856830336 -0.04785873056534664 0.09541733943334885 -0.15029330406375246
-0.09267762214993891 -0.11874143524219283 0.12049651895444739 0.1486580375013146 0.004089224989223553 0.015119578737958248 0.044677371719137285 0.011231514881413407
-0.019842784766673532 -0.09124290658034519 -0.021204996614408125 0.1196744838262711 -0.08389648422255568 0.06353529853548588 0.016838098238744426 -0.0026173830431596105
0.07860312636397615 0.009312841932981925 -0.008066361093708079 0.04932463195211904 0.013297242084598445 -0.11808373194561501 0.1013603507757935 0.0626229038729996
-0.05401130340140315 -0.03660817124726595 -0.06767809410936003 -0.025130704581191845 -0.047602727136512465 0.011935541169466431 -0.07177816347010327 0.03694531947762841
0.06320651953664756 -0.12258045726359393 -0.04589006823330942 -0.2535841075620398 0.09342554905734074 0.06935386372967489 0.007193911741410385 -0.08475124582144461
0.02458444025380352 0.0012510312090056423 -0.05579140555899432 -0.014002649025428733 0.06306253926103506 0.05764237868699416 0.059576661901151955 -0.034294541420169945
-0.08320041820658038 0.0357690841974092 0.0077068678356435345 -0.10674292680690077 -0.059528516597810194 0.09572558739819782 -0.03468132076643251 -0.04520404969701537
00000000: 7c04 e7a8 559f bbbf eae8 b962 2177 c5bf
00000010: 38c3 bae5 9412 c3bf 2008 d9ca 0040 943f
00000020: da4d 6e84 1df4 2abf 864c ae35 5d4d a6bf
00000030: 5c0e 19fc 653d 7abf 15eb d085 19d9 71bf
00000040: f978 19d9 3ab7 a53f 7d8f 9510 6f7c a83f
00000050: b1cb 8de6 8890 a33f 559e fd99 6413 98bf
00000060: ab72 ecd3 5f92 93bf 78c9 6e85 a5b7 a63f
00000070: 9bdf 920f 46f1 6ebf e1c9 c685 c759 a1bf
00000080: 79c9 c4da 2783 a5bf ffaa 154c 2db2 b03f
00000090: 06a9 65e0 d594 c4bf 3686 cba3 764f 81bf
000000a0: b5f0 a1f7 db36 be3f 0365 3685 f080 a8bf
000000b0: a06a 5650 456d b83f 227c e19c cf3c c3bf
000000c0: 087d 347c b8b9 b7bf 189a 0bb5 d665 bebf
000000d0: 33f2 3020 dcd8 be3f 2d87 ad00 3a07 c33f
000000e0: 50e5 83f9 dcbf 703f d2ad ab81 03f7 8e3f
000000f0: fa52 cfd4 f3df a63f cd39 cd68 8c00 873f
00000100: f8a7 89be aa51 94bf 392b c1f3 b15b b7bf
00000110: 44f8 e13b c3b6 95bf 7013 33aa fca2 be3f
00000120: c739 fc6f 3d7a b5bf 77fc 596d d943 b03f
00000130: 4d89 0ca5 013e 913f f486 49d2 0c71 65bf
00000140: f0bc 18a1 551f b43f dda0 477c 9c12 833f
00000150: c9f9 c2a8 1885 80bf c540 3e02 1441 a93f
00000160: 6bf2 0a9f 953b 8b3f 5563 e546 bc3a bebf
00000170: 6670 b17f c0f2 b93f 3676 1dfc 0d08 b03f
00000180: 415c 729b 5ea7 abbf c8f7 8b64 4ebe a2bf
00000190: b3f5 da00 5a53 b1bf 67e5 3409 ddbb 99bf
000001a0: 1ee3 8078 625f a8bf 1e05 dd37 a971 883f
000001b0: fac8 abc0 0d60 b2bf 681a cb35 7fea a23f
000001c0: 7fcb 4d6e 4d2e b03f aa6b 13cf 6e61 bfbf
000001d0: 5eea 8b2c e77e a7bf 69ea 30d6 b83a d0bf
000001e0: 3ce7 cf9d bcea b73f 40f8 91c0 2cc1 b13f
000001f0: 0c00 8efa 5c77 7d3f 342e 19f5 41b2 b5bf
00000200: 70af 85db a92c 993f b0ca 4088 347f 543f
00000210: 6129 8cec b090 acbf 5700 f9bc 6bad 8cbf
00000220: ac96 bad7 dd24 b03f fd08 a646 4d83 ad3f
00000230: bfca f00c d580 ae3f ed71 a9db 0d8f a1bf
00000240: 0df6 3563 9f4c b5bf 7fe6 ab4d 5350 a23f
00000250: e25d f094 3c91 7f3f a707 b723 8153 bbbf
00000260: 0c19 ef8f 857a aebf 9901 44db 7881 b83f
00000270: c3a4 f204 c0c1 a1bf 7add 3036 fc24 a7bf

layer2.weight f8 [80, 80]
-0.07040443994229016 -0.07316655827181075 0.17257241353003042 -0.19534471064921 0.0064813309293183605 0.05202847836584432 -0.2872271915151102 -0.015506416716790941
0.11823719793521588 -0.2655840427247277 0.04090149067006491 0.018530957761164337 -0.12149086489840213 -0.13071973477910806 -0.04497417390579261 0.07677874492474848
0.12213234458625387 0.1653912379904767 0.006426119148171729 0.00025338081543176485 0.10945774541223052 -0.21379196237857787 -0.0717247391389104 0.15344068498818877
0.13940976409227168 -0.14180315869491886 0.2210360503202856 -0.07287821044362175 0.12330804863594333 -0.00939839703852762 0.22873069096771834 -0.14111985854068745
-0.008426209768263656 0.20511133230541087 -0.10276795472674471 -0.16367778325922377 0.08188182787155708 -0.24923135331530719 -0.18534858713405125 0.07655266236742768
-0.17289366193605574 0.008578190298459352 0.09049624805215334 0.2566566370068835 0.034205940095371465 0.03505357040305758 -0.44099004967486194 0.006010129149191821
-0.24795919681627854 -0.2348959660905069 -0.02924631675251551 -0.11550733186169622 0.17209286977496413 0.11184802920427979 0.09383141011937242 0.05377274579734701
0.2992801153717154 0.1878747549800141 -0.3255862355687215 0.024327049921716776 0.3585131021215218 0.1764893822333327 0.04267123744764121 -0.14553528525681247
0.13662170246732586 0.1079254640727026 -0.26101040326762226 -0.22150787656447382 0.09594488438108069 0.14574063847754037 0.0021593074048203214 -0.2764557458357786
0.14306631896651562 0.09971120102900691 0.2958677454259147 -0.10138371357657618 -0.025288142137694043 -0.04905480939666465 0.008593239443347488 -0.08235214213130616
-0.007288613082884735 0.03305597402365973 -0.12704901857433754 0.134410502654601 -0.0027803884905576075 -0.13226175482446728 0.4164326042787117 0.12384337889567681
-0.7288717585823983 0.20541211504700024 0.15544558304540054 0.1299458312655711 0.07641493700741937 0.10815888977179662 0.32363449154801494 0.04921112824054209
-0.11905965177894812 0.03538640000676681 0.14872365640334942 0.074327080716706 0.18942627734569562 -0.08372338105556401 0.03514410964851552 0.10005901000374412
-0.06387354488717478 0.13120707887939742 0.1649882432936022 -0.0772262539388758 -0.40729334196820854 0.2186747909072894 0.19117217811843695 -0.2167581285895124
0.053649249518614855 0.13134150692561566 -0.22306073182081954 -0.08330496197339148 -0.038448912176222275 -0.1343091103693924 0.1301635430804287 0.17289024815582354
-0.36439243640229296 -0.16111914834170613 -0.13525269692674835 0.122748222611064 -0.06252204445662031 0.061745076461958974 -0.20931475224158771 -0.1818413805164593
0.11230619705737216 -0.2327634242822276 0.001431960851521324 -0.15817974480878852 -0.11759501737799385 0.11876543957857394 0.09526318005233901 -0.07644129758948084
-0.31432264054432224 -0.2155571660367471 -0.13847556877201722 -0.14417994909428064 0.028201742011652053 0.05529033279857812 -0.015209947108097007 0.07506297499720929
-0.24821988117344684 0.20755510208434289 0.12003754555184709 0.25733701551620064 -0.09465969498756392 -0.026709423182683056 0.23200469812933577 -0.4920145131771708
-0.30186509389977084 0.03815782088095704 -0.04932540482898583 -0.03639364107394146 0.13554367587796454 -0.14586194104798153 0.07349323896217339 -0.06427868885409972
-0.06886194745537687 -0.009746354905794277 -0.059738989181423556 0.24831612619846052 0.18276554815995674 0.0547390353989324 0.21558692192108692 -0.05711945017274527
0.23220773184944551 0.1211540483591261 -0.14195842340152112 0.2516556423166234 0.2335673171099147 0.07936681953655392 -0.01712681956873401 0.1284131193340896
0.17268735481928504 -0.05853984555162349 0.12307598267007948 0.00832775928068761 -0.08732893271109908 -0.17169990986153533 0.04101750293526627 -0.10786427084952802
-0.11595255708243017 0.12048702627722564 0.10353902130265104 0.16134790601071441 -0.11364275919361085 0.12164644204155559 0.007373908929029019 0.15118509934697594
-0.23219557816098924 0.21094454466687457 0.035032266210329094 -0.04338281603982681 -0.02856706282606109 0.07426761224837981 -0.0660686261512142 -0.05825721813618443
0.13843015512019158 -0.10429235010190849 -0.17574216127317557 -0.12830653485994467 0.059722367291728175 -0.20460342741623452 0.07869318646542828 -0.20545768757369826
0.028423313714197793 0.10686511913935154 -0.03095876242314187 -0.023449648686767025 0.07136701360581249 -0.03808194910599413 -0.17080192403164224 0.10882613061583306
0.14602794257183493 0.13229746527089403 -0.23210528125945482 0.11330652073084134 -0.22797079467731332 0.2187433054692462 0.27413056752178433 0.08284369214575567
0.10081208466157213 -0.030263630445135598 0.03678524265348139 0.1823621926985724 -0.21960513490766723 0.21042497741171903 -0.15975334284666004 -0.052566396664633676
0.08565545467869425 0.09676110967281042 -0.12441162435150069 -0.17685559267189999 0.264687551512198 -0.06297401721658102 -0.028272289271482624 0.01425007812803899
0.0316879358293698 -0.07827615133196655 -0.13150905555240539 0.2484990829603851 0.20210048084393673 0.2375245286648808 0.22481833316541566 0.2508394294500767
0.026983304764985123 -0.23709247925753185 -0.0023988734446834473 0.05923293618879624 -0.012159529751087568 0.21772506443564354 0.2437055003874966 -0.14165876558744653
00000000: e79a 0b7f 0606 b2bf c934 f026 0bbb b2bf
00000010: 81d1 2654 da16 c63f 1cac d733 0e01 c9bf
00000020: 0aff 0306 2b8c 7a3f cd79 150a 7aa3 aa3f
00000030: b213 8528 ee61 d2bf a803 6a05 d4c1 8fbf
00000040: 1d6c 4d02 cb44 be3f 26e6 7536 54ff d0bf
00000050: 4537 9249 0af1 a43f 87e7 3086 c7f9 923f
00000060: 325b 807b 061a bfbf 49b6 e89c 6cbb c0bf
00000070: ef13 2edc da06 a7bf face 7a96 c5a7 b33f
00000080: 9f21 c8b9 1044 bf3f ff65 1b43 8a2b c53f
00000090: 9c38 4e39 4652 7a3f 4295 d250 069b 303f
000000a0: 80e4 d63c 6c05 bc3f d325 48f7 885d cbbf
000000b0: af6e ea70 8d5c b2bf c536 f3c1 f1a3 c33f
000000c0: 1c7b c2dc 2dd8 c13f df36 881c 9b26 c2bf
000000d0: e36a aec7 e84a cc3f b844 727a 25a8 b2bf
000000e0: 9696 39c4 1d91 bf3f 7b88 527f 773f 83bf
000000f0: 631f a61a 0c47 cd3f 89cb 9f2c 3710 c2bf
00000100: eb48 12bb c241 81bf 9336 2590 1641 ca3f
00000110: 38d0 a02c 004f babf e80e 17c3 64f3 c4bf
00000120: 7954 d81c 35f6 b43f af43 d01f d0e6 cfbf
00000130: 09df 0ca4 80b9 c7bf 6b32 4a8d f498 b33f
00000140: a9bb d927 6121 c6bf 5f73 5336 7191 813f
00000150: 9c71 cb19 c32a b73f f5bc 8ff5 0f6d d03f
00000160: 8ebd 13e4 7083 a13f f273 faa4 8af2 a13f
00000170: b3c1 4d54 2e39 dcbf d78c 3fc2 139e 783f
00000180: 7cbf 8880 20bd cfbf 3c18 292e 1211 cebf
00000190: 160b ec17 bff2 9dbf f550 cb74 e391 bdbf
000001a0: fe74 c79f 2307 c63f 6def 8d8b 12a2 bc3f
000001b0: 5dde ccd5 5505 b83f 8d40 3bf1 1988 ab3f
000001c0: 0256 f7c8 6727 d33f d60b 31ac 470c c83f
000001d0: 03e8 72a6 67d6 d4bf c8a8 49af 30e9 983f
000001e0: 192a 33f0 e0f1 d63f b146 643e 3497 c63f
000001f0: 5d8b a222 01d9 a53f fcc7 4b75 e6a0 c2bf
00000200: 5cb0 02e8 d17c c13f b50e 99d2 00a1 bb3f
00000210: 3ad0 7cfa 64b4 d0bf 114e d3be 5e5a ccbf
00000220: 459f a20c d88f b83f e8c6 fa15 a1a7 c23f
00000230: 4e5e f155 65b0 613f 34fb c970 73b1 d1bf
00000240: a265 8f44 ff4f c23f 42e7 765b ac86 b93f
00000250: 69ea a244 7fef d23f 998e 2876 48f4 b9bf
00000260: c2fc d47d 22e5 99bf b4ef 2344 b61d a9bf
00000270: 99ca 0113 5599 813f 09a2 35ad 0715 b5bf
00000280: 6adf 2f2d aada 7dbf 58f3 bc6e b6ec a03f
00000290: ae01 e269 2443 c0bf b1f9 9104 5d34 c13f
000002a0: ea48 63b4 e5c6 66bf b6c7 bd03 f4ed c0bf
000002b0: 0d5f 17f0 d4a6 da3f 94dd 2e1e 33b4 bf3f
000002c0: 6edc c2dd ea52 e7bf 7e1e 2ab6 f14a ca3f
000002d0: 3b6b be0f a4e5 c33f bbc1 c4a3 10a2 c03f
000002e0: 9d6d 5fe7 ed8f b33f dd6e 570e 4db0 bb3f
000002f0: a09a 4371 6db6 d43f 62e7 c874 3332 a93f
00000300: 3cea a97e b17a bebf 4a25 818d 2a1e a23f
00000310: 316c 3274 6009 c33f dfa9 e27c 1907 b33f
00000320: f8f4 19c9 1e3f c83f 4250 8b3f e56e b5bf
00000330: 4bc1 2ca3 68fe a13f 2cdf a29f 779d b93f
00000340: 90b8 5e42 045a b0bf cc35 65c0 64cb c03f
00000350: 5dd3 95b2 551e c53f 4660 0f8b 19c5 b3bf
00000360: b072 e817 1811 dabf 6d06 b419 89fd cb3f
00000370: 363e 7676 5478 c83f 3191 b7f8 babe cbbf
00000380: 9458 4618 ea77 ab3f 112b 6d6a cccf c03f
00000390: 889b 180a 418d ccbf 732e 4557 7953 b5bf
000003a0: 7230 ba68 93af a3bf d3b2 4b7a 0a31 c1bf
000003b0: 12ba 54f0 32a9 c03f fc33 d084 4421 c63f
000003c0: a77c 50a7 3452 d7bf 3b89 7160 8d9f c4bf
000003d0: f482 ffda f54f c1bf a8b3 c171 6d6c bf3f
000003e0: cd61 38d8 7101 b0bf 27af 2ff8 0c9d af3f
000003f0: d156 b967 d3ca cabf f557 300f 9446 c7bf
00000400: 2ce2 7f53 19c0 bc3f 47a2 7f1f 31cb cdbf
00000410: 4b22 b141 1476 573f a1f3 6bdf 3b3f c4bf
00000420: 02a0 cf01 b51a bebf ec91 e26e 6967 be3f
00000430: 2777 d6f2 2a63 b83f 72eb 3529 a891 b3bf
00000440: 40ef 61b5 dc1d d4bf 33ec 4591 6097 cbbf
00000450: 32dd 9543 91b9 c1bf 1ba8 0c13 7d74 c2bf
00000460: c366 85de eae0 9c3f 6448 4fb6 034f ac3f
00000470: 51af 398b 6426 8fbf 0ae4 c0be 5337 b33f
00000480: e0b0 ed47 abc5 cfbf 1ffc c863 2a91 ca3f
00000490: 78f2 6fd4 c7ba be3f 134f 6cac 3578 d03f
000004a0: 5b8e 3826 9e3b b8bf 1333 420c b759 9bbf
000004b0: c8ee 7d77 54b2 cd3f 3a36 d070 2a7d dfbf
000004c0: 7f9f 86f8 c151 d3bf 8869 8a01 6c89 a33f
000004d0: ee74 34f1 2d41 a9bf 4bcf 63f4 2fa2 a2bf
000004e0: 63a9 89c3 7e59 c13f d71d 44a5 9aab c2bf
000004f0: 6ed4 d1f1 73d0 b23f 3947 7572 9174 b0bf
00000500: 9f7c 42c4 efa0 b1bf dbd1 9a9c e5f5 83bf
00000510: a71e a9d9 1b96 aebf ffbf 8ba4 d2c8 cf3f
00000520: 0d5d 178a dc64 c73f 8bbc b43d c106 ac3f
00000530: fa55 8c2d 5a98 cb3f e735 eab4 c23e adbf
00000540: 77fa 15a3 fbb8 cd3f b6fe 7aa3 f303 bf3f
00000550: 4d5c f390 b12b c2bf 30a4 6644 201b d03f
00000560: d365 33aa 88e5 cd3f 5a0a 4c46 6251 b43f
00000570: 0d94 ba67 b189 91bf c868 f551 d76f c03f
00000580: 86d7 b086 9e1a c63f 3e71 5044 eff8 adbf
00000590: b9b5 7d58 e881 bf3f f57b 13ee 240e 813f
000005a0: 0f1f fd5d 305b b6bf b26c ca3c 43fa c5bf
000005b0: ad52 5703 3f00 a53f caa2 b42b fe9c bbbf
000005c0: 0b7e 8e18 11af bdbf 49f6 73dd 3cd8 be3f
000005d0: d1cf 5a86 8881 ba3f 7a0b cc55 0ca7 c43f
000005e0: 4dec 291e b117 bdbf 0645 3ea2 3824 bf3f
000005f0: 100f 1a9b 1a34 7e3f 223c ab88 085a c33f
00000600: e016 3daf 95b8 cdbf 3a92 4e18 3b00 cb3f
00000610: c433 5bcb bfef a13f dae9 32c0 4536 a6bf
00000620: 91a5 5222 af40 9dbf bd40 c2c5 3303 b33f
00000630: 0e72 9c9c dfe9 b0bf 3d3c 4ddd e3d3 adbf
00000640: 36be 824e 14b8 c13f 4622 e948 e7b2 babf
00000650: b92b 9919 b87e c6bf f313 8b39 596c c0bf
00000660: dd20 b71c ee93 ae3f 817c b3f2 7130 cabf
00000670: bc7b 4996 3c25 b43f fa9f 6b00 704c cabf
00000680: f9bd 624b 001b 9d3f 7462 c92f 835b bb3f
00000690: 5c32 8760 a7b3 9fbf 4173 d948 2f03 98bf
000006a0: 243d 73cd 1b45 b23f 2bd4 f42b 7a7f a3bf
000006b0: dea6 e762 d6dc c5bf 6bfa f17f 07dc bb3f
000006c0: 20f8 d22a 0bb1 c23f dc51 5793 1fef c03f
000006d0: a77e 1e38 a0b5 cdbf 0767 f6f8 a701 bd3f
000006e0: 4185 caa1 252e cdbf fecb 9ad7 c7ff cb3f
000006f0: 4ac2 95ef 5a8b d13f 5527 7284 3e35 b53f
00000700: b2bc a91e d2ce b93f c591 14dc 6dfd 9ebf
00000710: 0221 58ec 83d5 a23f 6a67 d5f2 a457 c73f
00000720: 0d26 3b64 051c ccbf f757 1fa6 34ef ca3f
00000730: 8afe 792b cc72 c4bf bd19 1695 fbe9 aabf
00000740: 1daa 9110 84ed b53f 8bc3 9109 56c5 b83f
00000750: 8af9 d4b1 70d9 bfbf 28fc 513d 34a3 c6bf
00000760: 20ce 590e a4f0 d03f 9865 71b0 101f b0bf
00000770: 015e 3737 69f3 9cbf 6df6 331c 252f 8d3f
00000780: 4139 21b0 6639 a03f 120d 07e6 e709 b4bf
00000790: d6da 5cea 49d5 c0bf e24e 3365 d1ce cf3f
000007a0: bc83 ddb5 6dde c93f 6f86 4e29 3467 ce3f
000007b0: f04b 3ede d8c6 cc3f a543 82d2 c00d d03f
000007c0: e2b2 03ee 82a1 9b3f bcf2 44de 0b59 cebf
000007d0: b4c2 bf5f cda6 63bf 64ca 8d87 c753 ae3f
000007e0: 37df ec74 18e7 88bf 6ca2 a237 6ade cb3f
000007f0: b082 02e9 bd31 cf3f 65e5 b1da df21 c2bf

layer2.bias f8 [80]
0.10429109854234062 -0.0016021900193143538 -0.030283883111530546 -0.030134088297469008 0.03062141770012186 -0.025232242291718176 0.006052136022121888 0.01490900562800253
0.025508774257678963 0.03070963726380582 0.022375830504763758 0.01330094368278793 0.014268016226203347 0.041742286020300896 -0.01791609408588059 0.009047369930959882
0.052227475238572754 -0.041764024600445926 0.0034891163406679596 0.12815588985136395 0.03157163213521067 -0.00317244815282098 0.0033805527016816258 -0.0109010284671237
-0.02542823340905684 0.08361262019181448 -0.02127870598563027 0.06399820967001386 -0.002335368765497213 0.09418002034738286 -0.020325810646541317 -0.0009922655624815665
0.05087276914217934 0.07738602323342479 -0.001956559223908319 0.04421986964718633 0.03880306129369748 0.02924326109818055 0.023856565876641738 0.0014400900161644597
-0.01770849104844769 0.04935671958132424 0.10571588333623487 0.006521216962948087 -0.01153256363048776 0.032508618200997604 -0.03533988961129081 0.010754242463451967
-0.016497226160220868 0.0697714675167112 0.08554956804602115 0.03584421378468564 -0.004035879503965755 0.005254051147688486 -0.0061993988802114 0.048184957628059716
-0.026707214552486227 0.009454141911659854 0.03937295390658607 0.007990948601378719 0.09593006172207508 0.03938863043134428 0.05055616959015547 0.0028592642196832575
0.03778115176829429 0.09234247680871202 0.06860509423987884 -0.04939556346191516 0.09611474635576224 0.020821569374560145 0.05423008460210913 0.0033896186923870475
0.05104599530291414 0.04748061972550612 -0.012161249685008263 0.01593789089427388 -0.05382091302389486 -0.04103150473085383 0.03245530672917455 -0.014073562709638181
00000000: 0ed6 8049 d2b2 ba3f 6823 096f 1240 5abf
00000010: 2859 3dfe bc02 9fbf c3fb ed6e 78db 9ebf
00000020: 4814 518e 385b 9f3f 036c ca1d 7bd6 99bf
00000030: b147 93e4 1fca 783f 6988 b4dc 9c88 8e3f
00000040: 4586 cadc f81e 9a3f bf59 e1de 5872 9f3f
00000050: dc87 f490 b0e9 963f d6f3 fc70 863d 8b3f
00000060: cb0e 90b8 8c38 8d3f 798b a2b2 3e5f a53f
00000070: a504 afb8 9858 92bf fa0c bf6f 6d87 823f
00000080: 4263 3444 8fbd aa3f 90d3 9d1f 1862 a5bf
00000090: 1049 6712 3595 6c3f 08c7 d985 6967 c03f
000000a0: a50f 012f 282a a03f 9161 1122 1bfd 69bf
000000b0: 63df 7969 88b1 6b3f bb8e 1246 4753 86bf
000000c0: 983d 8cdb db09 9abf e8b7 41fd a267 b53f
000000d0: b5e8 3cc9 15ca 95bf d506 89c9 2f62 b03f
000000e0: e3e3 198f 9f21 63bf b320 548b 2e1c b83f
000000f0: af61 f70f 4ad0 94bf 3c92 f208 dd41 50bf
00000100: 05fb 71df fe0b aa3f 877e f406 92cf b33f
00000110: a0d3 23bc 3307 60bf 08a4 ef9b fca3 a63f
00000120: 5073 7bae fedd a33f 0328 2e08 f2f1 9d3f
00000130: dbaf f008 db6d 983f ee48 74e1 2c98 573f
00000140: b28a a8b7 2c22 92bf 3d17 e1b0 4845 a93f
00000150: 23cd 9835 3210 bb3f 2a2f 60d9 fdb5 7a3f
00000160: 9b4d 0e7d 629e 87bf d1da 0538 f8a4 a03f
00000170: 78de 3fec 1118 a2bf 1fe7 63fd 5106 863f
00000180: 60da 541b a6e4 90bf 949e 2dfb 8adc b13f
00000190: 7cd0 f194 93e6 b53f 5580 e93b 2c5a a23f
000001a0: 659c ae27 ed87 70bf 6403 9d9d 4585 753f
000001b0: 2239 2077 8a64 79bf 1ce4 57e2 b2ab a83f
000001c0: 37de 47d4 2259 9bbf 8e1d 9472 b15c 833f
000001d0: 185c c01a b128 a43f fe68 41f7 8e5d 803f
000001e0: e0b0 cc5d df8e b83f 89de 121f bf2a a43f
000001f0: f961 008e 7fe2 a93f 9f9e 0dca 4f6c 673f
00000200: ca04 8016 0d58 a33f 82d0 ecad c1a3 b73f
00000210: 426a 197c 1a90 b13f 9ad8 4513 604a a9bf
00000220: c9e6 42dc f99a b83f 807e 0fde 3f52 953f
00000230: 2597 a6af 0bc4 ab3f c034 c0ad 8bc4 6b3f
00000240: 07e8 d560 b322 aa3f b368 d439 614f a83f
00000250: 63a1 674d ffe7 88bf deea a1c0 0552 903f
00000260: 1996 8e2a 6a8e abbf 8270 d9d5 1402 a5bf
00000270: 3587 f761 fb9d a03f e9da 9b9c 99d2 8cbf

layer3.weight f8 [80, 80]
-0.13156617988483987 -0.20268656295610157 0.020442627089952228 0.04017649368125581 -0.053334107693786464 -0.10084547789126357 0.037653070770721365 -0.04171337687421473
0.10812465070425466 -0.0625787738850456 -0.02648099598375631 0.08977500742124436 -0.23007035809816084 -0.07244025357315377 -0.056404951318462314 0.10758202637537388
0.01638402770757994 0.1775774332838719 0.08985040400615228 -0.005416958969472548 0.1331358122498222 0.02279048807323859 0.13064432980341598 0.15608312160983975
-0.05252456830842446 -0.20592894405505915 -0.1957728612988872 0.01989797356105285 0.045154857298536286 0.05090203240733798 -0.16826615712896817 0.20572391694061173
-0.21972167961639932 -0.26754689523263575 0.1562548681181731 -0.10242909553791023 -0.17698541907386747 0.10993215917504785 0.02022447532739815 -0.03986372673239514
0.16383876481755064 -0.04193961061148817 -0.1963483168541492 0.13252513628611606 0.13855783968276983 -0.0609167087689211 0.16353448842693552 -0.07033021159594108
0.15676056008027717 -0.3202949908714624 -0.006608394206023745 -0.1293535202307838 0.16653489831461352 0.02643249437510409 0.1923954473125269 -0.014511571623225361
0.024960398967007018 0.03356237740169398 0.19631012898217606 -0.1823228934129602 0.061618515621154064 0.127184660595339 0.23395827887100185 0.07049042899161752
0.23474045177397143 -0.15177524805049897 -0.1811588205031519 0.07165703777207891 -0.29391497043990095 0.1625268064335241 0.16034548172081217 0.15668707952801958
-0.05546569107791567 -0.4177228034900638 0.04170756533492029 -0.00956555376291722 0.00787459955682454 -0.09237484466235019 -0.2498580633409987 -0.08434929383993477
-0.035574355797824274 0.007046623774130931 -0.08732908135980924 0.324311178892443 0.10873054484129754 -0.1698002669182922 0.08529204343062835 -0.15634311312791732
-0.10261008213382666 -0.08395503400458222 -0.03449101123191112 0.07456582555168971 -0.2520070769628805 0.12115129854213326 0.11480511952167241 0.20303883231869238
0.1008547128531434 0.10781684200772175 -0.003975985025800393 -0.009738492739057615 -0.10198209913853142 0.34015936198631264 -0.174587631511448 0.1825795698403118
0.05284349693889422 -0.0590484210305657 -0.2600534474789377 -0.18520045022715056 -0.07814034389821065 -0.19369604169152596 -0.1509680028627301 -0.0663531293334713
0.05659761273350081 -0.10078056073424317 -0.10500075628866654 -0.07538146131167343 0.055893131122141865 0.03279452250829789 0.24965704086340706 -0.20407166137861446
-0.007861679859673794 -0.1537022424707743 -0.5066308385329258 0.24453946842858712 0.3102302106220077 -0.025534179442760714 0.04594871257587016 -0.009733131156102703
-0.046056244587035694 -0.11697287392971775 -0.12720888988836718 -0.22428823975182233 0.06777832126231009 -0.02157657953925592 0.28149695530118873 -0.07588268497762593
0.145551537049843 -0.06664157639921311 0.07826567649033286 0.0671615474068017 -0.14342322871464644 -0.028785649026779006 0.12641004486801183 0.19213473346389323
0.18044161304589046 0.20749645858948332 -0.208217161400338 0.054444020294796135 -0.3348200199618736 0.030167276941019866 0.07809492988096685 -0.03573118358659215
-0.09461553199155927 -0.41191278771669115 0.0065387897569379105 -0.2883394846297055 0.1844372960566199 -0.03456518283587257 0.1332094591870795 -0.11287554274042365
0.030964813998042493 -0.04022335953706658 0.14341838103859744 0.15699792179339989 0.03268074063196171 0.4252841914444256 0.32583786339147863 0.03749061228410064
-0.1275800639885369 0.204872807892463 -0.06182797920022828 -0.014029912209673825 -0.13155138779370834 0.08869235554139503 0.1410691474961434 -0.12338584918651808
0.2839691593276667 0.12238502514830307 0.06556158390307285 -0.03501758155101188 0.06786328811416438 -0.01301318612727534 0.044091131790825695 0.22139110769843973
0.0850818235547136 -0.13932002699656784 -0.1683125544942178 0.05911037559560936 0.07600944143716074 -0.19019603885515995 -0.046330963532852605 0.08332217677518021
-0.0049061902847430715 0.04531615554976491 0.11840059640574348 -0.161793767563822 0.1544706376924396 -0.09855961431022855 -0.02961604123085276 0.020150531154563563
0.099342253060568 0.04104815024276243 -0.020759634647670288 0.18025107996449885 0.08193904972383034 0.011820331222737367 0.10546401589831719 -0.13598518947199525
0.19102355232396379 -0.08675582791874167 -0.007312426392490538 -0.06694423455534824 -0.14457078527393016 -0.02578689557388384 -0.07640554414131787 0.1019453602986183
0.123870882736276 0.1931654070700226 0.1255028902627512 0.004209663518358027 0.06251895017945538 0.03460529902848368 0.15597034485591074 -0.008040117045651201
0.19522433624647748 -0.11136408589423942 -0.11318025482409469 -0.0961339366490631 -0.31438472060090417 -0.0634085191088323 0.08134640378700543 0.1194407959047191
0.08040101160558435 -0.1721535163303788 -0.22979101764738352 0.09125313471516878 0.012027465720855293 -0.04973196371155594 0.23200027107920537 -0.09898721418166054
-0.07615566549818864 -0.20437598308337954 0.11480068462519528 -0.09123733883286504 0.19692139320561947 -0.45923875134615383 -0.3670680822082764 -0.03525024367703348
0.5864599701479544 -0.15711379659886815 -0.22637871091806824 0.09937058725605022 -0.08863543858577767 -0.010988812347233791 -0.04234428637384794 -0.08711575980045254
00000000: a4b9 ee1b 29d7 c0bf cd17 9e1f a2f1 c9bf
00000010: b7c3 2e7b e9ee 943f 989e db6c 0392 a43f
00000020: 54c0 9cb0 9b4e abbf 6312 7e5d 02d1 b9bf
00000030: f5c2 1b67 4347 a33f d100 f6aa 745b a5bf
00000040: e58b aa9e 0eae bb3f 9e92 429b 2905 b0bf
00000050: 21eb dc8e d51d 9bbf ba55 dfb0 7efb b63f
00000060: 0ec2 e70b f272 cdbf 79b9 02c8 718b b2bf
00000070: bb93 7d1a 1ce1 acbf 8b6d ebe4 7e8a bb3f
00000080: 3a27 b97c f9c6 903f f51d 3b7a dbba c63f
00000090: bf22 bda2 6f00 b73f d5ed e1d9 1730 76bf
000000a0: 7d0a c523 980a c13f 43dd bcc3 6356 973f
000000b0: e3ed f411 f4b8 c03f 11cc 621f 88fa c33f
000000c0: 120e 3e0e 80e4 aabf e115 0230 e15b cabf
000000d0: 628d 5cca 150f c9bf 663a ce66 2260 943f
000000e0: fe9c b496 891e a73f 0899 fac8 d40f aa3f
000000f0: f33d f2d4 be89 c5bf cfe9 a14b 2955 ca3f
00000100: 1c5a 160a d71f ccbf 9ee9 4a03 7d1f d1bf
00000110: b344 34d6 2800 c43f d782 7e0f cb38 babf
00000120: 4543 654d 75a7 c6bf b97c 6f94 8324 bc3f
00000130: 8692 7090 b9b5 943f c181 39b5 0469 a4bf
00000140: 5bad 5a2c abf8 c43f 3a75 f7cf 1b79 a5bf
00000150: 13b1 c10f f121 c9bf 8497 1f6b 95f6 c03f
00000160: 395d 0567 43bc c13f c38b e28f 7930 afbf
00000170: 5ce8 c7b7 b2ee c43f 06af b926 2901 b2bf
00000180: b478 6ce3 ba10 c43f 2a65 b78f b67f d4bf
00000190: e235 e74f 6711 7bbf 9fc0 81f9 a78e c0bf
000001a0: a7b4 f3fa 0351 c53f e133 92ab 1e11 9b3f
000001b0: e0a4 0dfd 69a0 c83f 0053 482c 3eb8 8dbf
000001c0: ee9b 0805 388f 993f 1ff0 a182 162f a13f
000001d0: f10d edb7 b020 c93f 32a8 4248 5b56 c7bf
000001e0: 1183 d74a 768c af3f dea8 e742 9647 c03f
000001f0: 3490 304a 58f2 cd3f b133 3327 a90b b23f
00000200: bd6f b5a1 f90b ce3f 1e0e 5c0f 5f6d c3bf
00000210: 4cb3 b854 3630 c7bf 8262 c299 1d58 b23f
00000220: 1107 76bc 80cf d2bf bf7a 2dab adcd c43f
00000230: 43b0 0664 3386 c43f 02a9 237d 520e c43f
00000240: 8299 75c2 ff65 acbf e920 f26c f8bb dabf
00000250: b4f1 37aa b15a a53f 388d a3e4 1a97 83bf
00000260: 7077 86dc 8e20 803f 7c41 ccb8 e0a5 b7bf
00000270: 9c82 5859 59fb cfbf ebb3 7b52 ea97 b5bf
00000280: 5bb2 744d cd36 a2bf 2484 83aa ebdc 7c3f
00000290: 4a1b 6edc 325b b6bf f27e c4ac 83c1 d43f
000002a0: 2a6d 2bd6 c3d5 bb3f bc10 a2e0 03bc c5bf
000002b0: 60c0 2409 b3d5 b53f fe6b eb16 0d03 c4bf
000002c0: 5c31 0183 a744 babf 1d5e 62bd 137e b5bf
000002d0: 507a 7e4a cea8 a1bf b3cc 24f6 be16 b33f
000002e0: d2a1 7a4a e220 d0bf b13c 1b81 c503 bf3f
000002f0: d24a c249 de63 bd3f 5d3b 502c 2dfd c93f
00000300: 700a 5a4d 9dd1 b93f f593 6172 e299 bb3f
00000310: 52b1 7b5a 1f49 70bf 14d9 9c5e c6f1 83bf
00000320: f1d1 93b4 7f1b babf 3d34 cac5 2bc5 d53f
00000330: b55a d033 e358 c6bf ade1 b070 c45e c73f
00000340: bf51 5186 4d0e ab3f fbd6 693a 983b aebf
00000350: f394 0837 b7a4 d0bf 1b0d 77fa a5b4 c7bf
00000360: 7e7f 8a6d 0101 b4bf 4302 372a 08cb c8bf
00000370: 9ad8 8465 eb52 c3bf fb79 79c8 84fc b0bf
00000380: bcb1 71bf 5cfa ac3f f315 6d3c c1cc b9bf
00000390: aea9 505e 54e1 babf 7fee 0e0f 334c b3bf
000003a0: 0c35 7b44 069e ac3f 7778 5293 71ca a03f
000003b0: 66bb dc0c c3f4 cf3f 31ad d42b 051f cabf
000003c0: 8482 1ccf c819 80bf 66ee 5ddc 83ac c3bf
000003d0: 6d9b 54e0 5136 e0bf 61b2 bdbd 114d cf3f
000003e0: e192 36d0 cfda d33f 2223 8cc6 a125 9abf
000003f0: 5c03 9df3 9686 a73f 266e 06c0 f6ee 83bf
00000400: 4c48 8e20 af94 a7bf ce19 0c2c eff1 bdbf
00000410: 475e ea82 6148 c0bf 1c45 4e1f 7ab5 ccbf
00000420: 180c 3389 eb59 b13f b52e ecbd 2b18 96bf
00000430: ab4c 3cce 0b04 d23f 4ec3 4f32 0c6d b3bf
00000440: 5f7c c1c9 6ea1 c23f ea41 301f 6c0f b1bf
00000450: 2ee0 ec28 3809 b43f 2135 a9c9 7f31 b13f
00000460: 1977 683e b15b c2bf f416 a834 fc79 9dbf
00000470: 4e08 4c50 342e c03f b998 53f6 de97 c83f
00000480: 9c4e 6ff5 b518 c73f 35bd d673 3e8f ca3f
00000490: 8517 5725 dca6 cabf 7300 422d 16e0 ab3f
000004a0: 7011 f2f2 b06d d5bf e8f5 7baf 2be4 9e3f
000004b0: 7579 d281 07fe b33f 6650 e791 5b4b a2bf
000004c0: 79ee 9837 b938 b8bf 4208 0374 c75c dabf
000004d0: 975f 9502 6bc8 7a3f 3a53 2874 2774 d2bf
000004e0: bae8 5c2d a49b c73f 997d b813 87b2 a1bf
000004f0: 24f9 5cef 010d c13f 679f 965c 69e5 bcbf
00000500: 3913 cb7d 3db5 9f3f 5170 7efb 2798 a4bf
00000510: 9a5f 1a94 885b c23f 5041 d205 8218 c43f
00000520: d358 72b0 87bb a03f 779d 702f db37 db3f
00000530: 9727 c40d 87da d43f ec9e 5533 f831 a33f
00000540: b7e6 3925 8b54 c0bf dd70 deac 4539 ca3f
00000550: 5b16 49b9 eaa7 afbf e8b3 d9f0 b6bb 8cbf
00000560: 44a0 2806 add6 c0bf 639b 74ce 8ab4 b63f
00000570: 883a 7cc7 8d0e c23f b197 0b0b 3796 bfbf
00000580: e3a2 18fb 8c2c d23f a837 8800 a054 bf3f
00000590: 26d7 bcda a4c8 b03f 22dd 170f d3ed a1bf
000005a0: f5a2 0c0b 7d5f b13f 11d2 aa46 a8a6 8abf
000005b0: 41a2 2be2 1c93 a63f 5452 9837 8b56 cc3f
000005c0: 27cb a621 ecc7 b53f 7365 d017 3dd5 c1bf
000005d0: 7d89 870a 448b c5bf 8c28 1314 b743 ae3f
000005e0: caea 28d1 5a75 b33f 9617 5b03 5858 c8bf
000005f0: e1df 542a b1b8 a7bf 03eb 4728 9a54 b53f
00000600: a581 226d 8318 74bf 1625 22dc ad33 a73f
00000610: 6dba 6361 804f be3f 0b0e 317e a8b5 c4bf
00000620: cf67 8aa0 b1c5 c33f d236 2bf0 333b b9bf
00000630: 6f10 18e2 aa53 9ebf 8238 3941 57a2 943f
00000640: 798f 0170 7e6e b93f 203a b55d 4304 a53f
00000650: e3fa 8d7f 0342 95bf f412 c2a6 7712 c73f
00000660: 6e44 d422 f5f9 b43f ec81 3c00 4235 883f
00000670: 1627 3093 b0ff ba3f 01e4 c272 f667 c1bf
00000680: 3ea3 ffb2 7573 c83f 7efd a543 a135 b6bf
00000690: 91ca 5c83 a2f3 7dbf 572b 12e2 4123 b1bf
000006a0: 5fb2 5aa5 4b81 c2bf 4aec 9e44 e167 9abf
000006b0: 72ee 5151 508f b3bf 0525 7654 1719 ba3f
000006c0: b069 478e 00b6 bf3f 80c9 0ae1 a4b9 c83f
000006d0: f4b1 9d8c 7a10 c03f 6258 37f2 263e 713f
000006e0: dea8 66ee 3d01 b03f 76f7 3027 c9b7 a13f
000006f0: 3ba7 2615 d6f6 c33f f6fc 223e 5677 80bf
00000700: 43ed c76d 1cfd c83f 895c dd52 5b82 bcbf
00000710: 2abe 0595 61f9 bcbf b786 f1d1 3b9c b8bf
00000720: 66f3 5517 e11e d4bf c237 dc6b 8a3b b0bf
00000730: f992 e92f 1ed3 b43f 060f 3808 ac93 be3f
00000740: 0a4b 6923 2995 b43f 74e3 435d 2009 c6bf
00000750: 9ce3 dac4 ca69 cdbf 7d56 428d 5d5c b73f
00000760: a80f 661f dba1 883f ccfa 69cb 7776 a9bf
00000770: 9b62 7954 2fb2 cd3f 9ee3 a1df 3957 b9bf
00000780: 2847 b80c f07e b3bf d729 b701 fe28 cabf
00000790: 350c 06e2 9363 bd3f eb12 768a 545b b7bf
000007a0: d6b6 d95f b834 c93f 599b 85ee 2a64 ddbf
000007b0: f15b 1f20 0b7e d7bf e5ab 89e7 510c a2bf
000007c0: ef5a 06b3 47c4 e23f 943e 120d 4e1c c4bf
000007d0: cbad f343 faf9 ccbf f2f4 72ce 5970 b93f
000007e0: 8d16 fee5 cfb0 b6bf 34db 396d 4d81 86bf
000007f0: 65d8 4b7a 26ae a5bf 7b23 4feb 374d b6bf

layer3.bias f8 [80]
0.0004181898117342513 -0.024986266721167556 -8.473859713201422e-05 0.025327609325878964 0.043229152760524234 0.020329708485645453 0.13325027593178565 0.011419704338299193
-0.01096819333572323 0.06514255000332717 0.07533105791760722 0.037710939437737824 0.05357608908714437 -0.006357809398562416 -0.0036639977816118464 0.011278687564304375
0.018649881592477217 0.043957305550441424 0.006270322198877559 0.04681460378651985 -0.005797256363701734 -0.01732030512883951 0.021826797761018615 -0.010085165630193932
0.048474422450693014 0.027375168168958346 0.009038600235506813 0.0604520312881533 -0.025612314395026887 0.04956409694324243 0.004539928737224508 0.05085378875857681
0.05592799479741933 -0.03942279354762877 0.05633833982516786 -0.023904797026157627 0.04105015918199728 0.06042855116046534 0.06065696536268118 0.0005816601036198279
0.09264214415242285 0.013517079931499615 -0.005116074967288311 -0.014212449711884543 0.07639678969962696 0.04146093917802644 -0.0009857081149696242 0.053874136137484596
0.007559853170176497 0.04233328480209631 0.08037486131385523 -0.0294137760943618 0.06598924288182562 0.11348045753709311 0.05846907415939646 0.049552915620579265
0.030141048200425503 0.08152521823404447 0.03594784549687677 0.022607480410713313 0.01179930886698514 0.12359141514756486 0.003285794614620534 0.12297976400078507
0.04005114462220605 0.055321675577136534 0.07453810014018646 0.05650421062119063 0.008354782804365874 0.07329523358251891 0.04520536336389439 0.10099653025981646
0.04013863298693316 -0.015487235915941729 -0.0009110841808009137 0.014621889496758082 0.023970812123396756 0.06878352982110807 0.0010068388461262187 0.027350264898201047
00000000: 3188 9e90 0f68 3b3f 828b aaf9 ff95 99bf
00000010: d2e8 7803 b636 16bf 8049 f616 7bef 993f
00000020: e633 aeaa 2122 a63f eb0d 55a4 4fd1 943f
00000030: edad a754 580e c13f beca 4dc5 3663 873f
00000040: 5995 62fd 7d76 86bf 42a3 d7a1 2ead b03f
00000050: 9213 216e e548 b33f 6d4c 2c27 d94e a33f
00000060: fc27 f43c 536e ab3f 5672 0e77 a50a 7abf
00000070: dfe2 a0d4 f503 6ebf b70a d8d1 4719 873f
00000080: 114c 0e5e f418 933f 61d3 846b 9281 a63f
00000090: ec15 79cc e8ae 793f 8702 7a70 15f8 a73f
000000a0: 5e6a d127 ddbe 77bf 3a26 5700 6abc 91bf
000000b0: a76b 3d9a c359 963f 908f 7304 88a7 84bf
000000c0: a286 3cb6 a3d1 a83f 5e5f 0870 3c08 9c3f
000000d0: ae11 4e63 d482 823f 9901 b892 91f3 ae3f
000000e0: c558 ce52 1d3a 9abf b89f da1e 7760 a93f
000000f0: e7a4 3dd7 7598 723f 0e0a 31ff 8109 aa3f
00000100: 97ea 2b19 98a2 ac3f 9e0f 0272 392f a4bf
00000110: 4bbc 1efe 60d8 ac3f b58a c7c5 7f7a 98bf
00000120: d052 5dc6 8604 a53f 552d f5b5 7df0 ae3f
00000130: 81bf 0305 6e0e af3f 54f4 ab8f 510f 433f
00000140: 75b0 5d43 65b7 b73f 7017 f2c1 d7ae 8b3f
00000150: 29b7 b1ea 97f4 74bf 9230 abb5 6a1b 8dbf
00000160: 627f 4771 bd8e b33f d681 a943 5e3a a53f
00000170: 1825 8007 5c26 50bf 601a 9f09 6495 ab3f
00000180: 8936 0ea2 14f7 7e3f 41b7 8353 b5ac a53f
00000190: 9b77 c368 7293 b43f c033 8219 a51e 9ebf
000001a0: b0b3 10c8 abe4 b03f df5f db25 0e0d bd3f
000001b0: 791b af92 a8ef ad3f 4d0f 06f0 ff5e a93f
000001c0: 1de6 2681 4bdd 9e3f d14e 1d32 d6de b43f
000001d0: 4c9f 8a89 c167 a23f 9130 0954 6a26 973f
000001e0: d5c3 976d 3c2a 883f d609 20de afa3 bf3f
000001f0: 0a4a 288d cfea 6a3f f302 7410 9a7b bf3f
00000200: 20b5 a368 9581 a43f f239 ba66 1f53 ac3f
00000210: 8777 68ce ed14 b33f 459b 68b1 1eee ac3f
00000220: ca8b 47f7 4f1c 813f 9a89 30f7 79c3 b23f
00000230: d5e1 804a 2825 a73f e7b2 799a e8da b93f
00000240: 2955 f807 0d8d a43f 1181 1d9e c5b7 8fbf
00000250: 3031 5661 bada 4dbf 22ee 8dc9 14f2 8d3f
00000260: 73a2 83f8 cd8b 983f 1bc9 1523 cc9b b13f
00000270: b730 a7fa fc7e 503f a64d 1935 b501 9c3f
