attack_soft_generative_decision_tree/experiments/vehicle_params_state_dict/fnn_epoch107.pth (torch, 121327 bytes, 8 tensors)

layer1.weight f8 [80, 18]
-0.2743012854287432 0.15353667470530813 -0.13897340661115115 0.11429474237337829 -0.14772124306014722 0.19796275513756545 0.011032000061114934 -0.17639198337381382
0.16128598142328912 -0.1141367451351182 0.022773247329212654 0.09421341553260963 0.10112167368824247 0.04551162546606035 0.04997765808740341 -0.12068581712843049
-0.07653434927823692 -0.24274806725600703 -0.1805676656892564 -0.07645414852931964 0.3288364069015965 0.02301561927478006 -0.05309978352114247 -0.027273761605897173
0.07620328550723011 -0.1899021500558908 -0.06520711273690366 -0.15913703696145928 -0.04000302454789374 0.21263649803404241 0.08807588152294081 -0.1379253715271664
-0.008131900745989375 -0.1540210443799895 0.1650684301705774 0.09028730315845097 0.10662737893608522 -0.1731884405357974 0.1575069641324358 0.0845374506873402
-0.23017183287121037 -0.19567965346020122 0.011029824646470005 0.12352355938532777 0.2763264641365138 0.11754913923541943 0.03526110122533808 -0.053572950867212386
0.08383117382579106 0.12847621248591554 0.21573876989528026 0.3079324568431103 -0.07111382461852297 -0.15148747943873392 -0.38502157626266426 0.18707072507873565
0.17327007474451306 0.25482589707966735 -0.28412928695670625 0.3771815263747096 -0.038908001769263234 -0.15396309128579788 -0.027925237346192417 0.288180558555046
0.08031688673388886 -0.1289510211506496 0.14590688219006473 -0.3013875206905063 -0.2557219076757557 -0.14294121672148574 0.04452312942751732 0.264733804577546
0.2317162686340994 -0.0628739267086738 0.13890842141016602 -0.3022071835066842 0.29735503542383407 0.14335326596837444 -0.2584303392689489 -0.16469431830386885
0.11072027097233442 0.1482441802846014 -0.13098931083316703 0.10232968286004934 0.14474796340034454 0.3667066937615082 0.08742507347318344 -0.15260153279202557
-0.36148853704757905 0.0169307736547924 -0.29253040839996014 0.23151153406244257 0.2572983931256898 -0.15420366554308076 0.3310787579409059 0.1692648481133809
0.12803943186182665 0.21374292305078474 -0.23071829070020647 -0.24491397074605503 -0.15619277818956392 0.14501335594319964 -0.20619738381939004 -0.20143766054776513
-0.10994194273150755 0.1277134659267925 -0.3286074259643588 0.2824054032403511 -0.11993996080014221 0.0028758016614167875 -0.04211551633245145 -0.22311477840185912
-0.24917940733955274 0.13842076147797608 0.08922521380360737 0.09659638548598973 -0.09558089964253998 0.25113409862570596 -0.027940017529799795 0.10384064794387497
-0.26635132586427107 0.19381228628192845 0.09606440885885843 0.15896073828683308 -0.10563264984216406 0.2697641508104675 0.2706514821132267 -0.09848702933117211
0.23279372772700554 -0.15253397667414303 0.08789018238932593 0.17165565451829498 -0.11137564249200481 0.28545375143009555 -0.0038135765770891334 0.16385681674107855
-0.27923965468858336 0.03738813623860217 -0.15270968761099474 -0.11927016704898669 0.11257899867247259 -0.23228154969209308 -0.05318111949409983 -0.04584586344198529
0.1155896159443056 -0.2602890254738337 -0.06238087278983491 0.024156275008470618 -0.1609137714298841 -0.09884427773567096 -0.0932715955078335 -0.01894698656273051
0.20829592496850824 -0.27436795695076754 -0.08659638427030882 -0.15372090029060642 0.2714315186938735 -0.3544272125028447 0.20148061846603263 -0.005618432054786366
-0.19002115585171528 -0.0638774138784017 -0.17056872645699106 0.09079102084554809 -0.0790878454105867 0.33825472618079155 -0.1807002481327383 0.32715535452679634
0.0391067077509052 -0.017080175794693522 -0.05814057528486826 -0.04212692182815316 0.21357433887544772 0.05495467957904656 -0.15873556121543633 -0.38879967105845226
-0.018131728365481402 0.11796582751387441 0.12470306005092616 -0.04261235722635691 0.02641675564633128 0.3327075090524282 0.05271536748084742 -0.04724878542331117
0.23843948213481111 -0.1847487536724995 -0.09028333675566523 -0.005481951971758638 -0.07674808519086188 0.20954642942049967 0.0556705669347256 -0.08702516686638231
0.017011806613483303 0.14225153392703796 -0.14382421585924945 -0.07014115315120803 0.054528968819324584 -0.2866622824576347 -0.03557051965728386 -0.04816309256850315
-0.045574229929123924 -0.18264314786369257 0.15456091222438273 0.12026970377244443 0.16737777196708195 -0.2301702813131909 0.17337056316502183 0.3588555389361642
0.02881989618341801 -0.22929001861559048 0.05283192686486408 -0.20814453781558057 -0.1750380826444703 0.0621150587261653 0.3188371619414195 -0.25231309535720486
-0.14855726307943637 0.32125324294555846 0.2729061422753066 0.059328951585113636 -0.4248812142564256 -0.12820167365227658 -0.08308122103059891 -0.03734769721598087
-0.07081123805839118 0.0019687074292817743 0.07803411235073238 -0.03167132195418943 0.19049037673191752 -0.001967362815301328 0.13266802058042607 -0.16008798260661097
0.20129189760556612 -0.19434376049830412 -0.11590248429743963 0.06408410036150382 -0.06863373084464061 -0.2568379221149178 0.2428481314771606 0.06459554964691944
-0.28071293727720376 -0.1176623880182001 -0.013245406216970868 0.3066017668195601 0.18492547686933433 0.05229439761656113 -0.1863286703548488 -0.14919840673462437
-0.015286366787941097 0.022633178664235185 -0.25314384871459655 0.36472047026806287 -0.22036255901988194 -0.17024358321117655 0.19719531820572858 -0.060610780079628
00000000: a0b3 8afa 268e d1bf 1646 4cfa 16a7 c33f
00000010: 264d 346e e1c9 c1bf 1531 9994 6b42 bd3f
00000020: 0c14 ef99 87e8 c2bf c429 92f3 d756 c93f
00000030: 4192 c6fb f197 863f 55fd ee33 0394 c6bf
00000040: cd15 c2df 04a5 c43f 7a91 a0d3 1038 bdbf
00000050: 90c0 02c2 de51 973f a798 8ed2 5e1e b83f
00000060: 9b64 6829 1ce3 b93f dfd6 edbd 4c4d a73f
00000070: 023a 08ee ab96 a93f 765b a805 44e5 bebf
00000080: f3b0 2b4f c197 b3bf ab10 0461 5e12 cfbf
00000090: 7bda 6c5d d71c c7bf 48b3 93c3 7f92 b3bf
000000a0: ab18 58db a70b d53f 2c58 5410 6891 973f
000000b0: e7c4 4b13 e52f abbf 907f 8b28 a7ed 9bbf
000000c0: 11ef 19fb 0e82 b33f af0e f7b1 b64e c8bf
000000d0: 14ed abd0 69b1 b0bf c778 aa38 9a5e c4bf
000000e0: 623c 59c4 467b a4bf c5ff 7e3a ac37 cb3f
000000f0: 4318 b516 248c b63f dfb8 ffdf 89a7 c1bf
00000100: ce15 113e 75a7 80bf 3b00 412a f6b6 c3bf
00000110: e9a3 975a f620 c53f ed40 4f96 111d b73f
00000120: e180 6391 ee4b bb3f 34c0 12f0 092b c6bf
00000130: c0a7 eb2d 3029 c43f 5045 fd11 3fa4 b53f
00000140: 7934 5247 4576 cdbf b055 0de8 070c c9bf
00000150: 1dfe 1801 ce96 863f 7872 d86f 3d9f bf3f
00000160: c914 9f31 55af d13f 5867 b04c b317 be3f
00000170: 3de4 2a39 be0d a23f 738b d9ef e96d abbf
00000180: 7e91 f7b5 f575 b53f 2f71 7895 e871 c03f
00000190: cbf9 96f8 539d cb3f 6428 e155 2ab5 d33f
000001a0: 6eb0 07ff 8334 b2bf ceae f814 f163 c3bf
000001b0: 5f5c 9389 31a4 d8bf 5347 20fb eef1 c73f
000001c0: b89a 33bc b62d c63f d962 8847 114f d03f
000001d0: 8c26 d49a 2c2f d2bf c4d2 1bfc bd23 d83f
000001e0: 10ab 4de6 bfeb a3bf 4889 ee04 10b5 c3bf
000001f0: 352c 8af4 6e98 9cbf 5a90 95de 8c71 d23f
00000200: c3ad d6c1 a58f b43f 345d 5091 7781 c0bf
00000210: 7342 a2a3 13ad c23f a772 32e2 ee49 d3bf
00000220: 77a3 956b bf5d d0bf 84dc 88d5 e54b c2bf
00000230: ec0f 9d51 bccb a63f 0799 330e 66f1 d03f
00000240: 9e07 def1 e0a8 cd3f 731f fc72 8118 b0bf
00000250: 3c3e 8c4b c0c7 c13f 38c2 71cc 5c57 d3bf
00000260: ff8f 1c6a dd07 d33f 56f2 8d5a 6659 c23f
00000270: 9513 dd67 1f8a d0bf 6ddf 7913 b414 c5bf
00000280: 5a97 d4e6 2958 bc3f 3c85 1251 aaf9 c23f
00000290: 49b7 13fb 41c4 c0bf 3441 4b31 4732 ba3f
000002a0: 6fc9 7bec 1987 c23f 8c84 3b5a 1f78 d73f
000002b0: b3ef 6a57 7d61 b63f e7a2 5470 7288 c3bf
000002c0: 1be3 1fd1 a022 d7bf 51c0 92fc 4c56 913f
000002d0: 5e74 4a76 d1b8 d2bf 22f5 b881 2ba2 cd3f
000002e0: b071 f2ad 9377 d03f 3926 371a f2bc c3bf
000002f0: 5a6a 70f5 6430 d53f 4f33 8175 78aa c53f
00000300: a4f4 389a 9863 c03f 9695 2098 ed5b cb3f
00000310: 7dbd 924c 2d88 cdbf 100a 584b 5759 cfbf
00000320: 1508 19fd 1ffe c3bf 182f a132 cc8f c23f
00000330: 8134 0306 ad64 cabf 9c21 1e92 b5c8 c9bf
00000340: 5d93 7db8 2725 bcbf 8a0a b533 ea58 c03f
00000350: a156 ef70 e707 d5bf 5062 c81c ee12 d23f
00000360: 06c1 1ea1 62b4 bebf 32f8 bc42 fe8e 673f
00000370: 0ca4 9a3a 2a90 a5bf 3cc1 3e6a 068f ccbf
00000380: d615 ae5e 1ce5 cfbf 4b52 d181 c5b7 c13f
00000390: b0dd 43af 76d7 b63f 82fa 926c 8aba b83f
000003a0: 7d43 1666 fd77 b8bf 8b80 20c1 9412 d03f
000003b0: df1e 29d6 4e9c 9cbf a315 eafa 4c95 ba3f
000003c0: 8354 756e e60b d1bf 676a 924b d7ce c83f
000003d0: 1dbe 5b56 ad97 b83f 831d 2552 d358 c43f
000003e0: 0240 76c8 bd0a bbbf 8f4e 57db d043 d13f
000003f0: 4193 1298 5a52 d13f 5dbd 0e2a 7236 b9bf
00000400: d794 a653 2fcc cd3f 1411 acbc 3b86 c3bf
00000410: d36a 0093 f87f b63f bf2e 2aff cff8 c53f
00000420: 67fb 1236 1d83 bcbf e26a bacf df44 d23f
00000430: f28e bd55 a63d 6fbf a896 909a 42f9 c43f
00000440: 2890 2800 10df d1bf c26e ceac 8924 a33f
00000450: 262a 09b5 fd8b c3bf 9425 dd5a 7d88 bebf
00000460: 32c3 832d fad1 bc3f 7e24 b2dd 66bb cdbf
00000470: bad0 fb41 8e3a abbf 73c9 47e8 1b79 a7bf
00000480: 17ed 3cf4 4797 bd3f acbd fa4c 93a8 d0bf
00000490: 5a7a 0ec1 62f0 afbf e045 9e2c 6cbc 983f
000004a0: 3a39 e28c d298 c4bf 997d 45cc db4d b9bf
000004b0: 2915 5ab4 a5e0 b7bf bb26 94be d666 93bf
000004c0: b49d d0dc 70a9 ca3f e420 8b9e 3e8f d1bf
000004d0: 3190 643e 2e2b b6bf c2db ba5f 20ad c3bf
000004e0: 0234 f94d 225f d13f 3cc7 a079 efae d6bf
000004f0: 8d73 8bed 1dca c93f 54b6 e15e 5a03 77bf
00000500: bf32 f7fc 9c52 c8bf 0e90 8f2b 455a b0bf
00000510: e833 ed2e 32d5 c5bf 5555 4d91 143e b73f
00000520: dab0 8cdd 193f b4bf e87d aa26 f7a5 d53f
00000530: 23fa 0d8c 2f21 c7bf 1ad9 1903 1df0 d43f
00000540: f150 b05d cb05 a43f 14e5 ca31 777d 91bf
00000550: df98 d6fa 99c4 adbf 13ee 10ef a891 a5bf
00000560: 3310 5e68 6756 cb3f 63bb 1b0f 0523 ac3f
00000570: edf5 1066 7251 c4bf 2410 f903 18e2 d8bf
00000580: 4617 66b1 1f91 92bf 10b9 372b 0233 be3f
00000590: fa3d a12c 8aec bf3f eea5 6271 49d1 a5bf
000005a0: c008 4576 fe0c 9b3f 26e2 a06f 144b d53f
000005b0: 675a a736 82fd aa3f 9772 5628 fe30 a8bf
000005c0: 6b0e ec58 2f85 ce3f c204 80df d8a5 c7bf
000005d0: 2f45 bd0a cf1c b7bf 28bb fd46 3e74 76bf
000005e0: 4ae5 ec33 c3a5 b3bf 2264 adda 6ad2 ca3f
000005f0: cf39 ab40 da80 ac3f eabb 9e05 4847 b6bf
00000600: 9601 3404 8b6b 913f 0de0 025b 4c35 c23f
00000610: 4d81 bef7 d468 c2bf d65e e346 c5f4 b1bf
00000620: f3f6 8693 38eb ab3f 8ebe 09c2 ac58 d2bf
00000630: d06f 4295 4c36 a2bf 3071 e936 d5a8 a8bf
00000640: 7a04 2c66 8155 a7bf e2de 74c5 d960 c7bf
00000650: f02f 9fe7 a6c8 c33f 4bfa 66cc fec9 be3f
00000660: f185 5684 a26c c53f c629 6043 3876 cdbf
00000670: eb01 71b1 0131 c63f ae08 ee38 7df7 d63f
00000680: 6fdc 537e f682 9d3f 9b68 a015 6059 cdbf
00000690: 6575 234c c90c ab3f 6625 61ef 7aa4 cabf
000006a0: 149b 41dc a567 c6bf d1d0 a283 8bcd af3f
000006b0: 2d6c d2fb d367 d43f b159 3ad3 e525 d0bf
000006c0: 9335 41a5 ec03 c3bf f2d8 0bc3 698f d43f
000006d0: 39cc fc52 4b77 d13f ff2e 8745 5d60 ae3f
000006e0: a9a1 faf9 4031 dbbf d682 d095 e968 c0bf
000006f0: b1f8 3c97 cf44 b5bf b241 3fc4 3c1f a3bf
00000700: 606a a66f af20 b2bf dae5 c5c0 ad20 603f
00000710: 1ccf 8428 0bfa b33f 5156 0738 3937 a0bf
00000720: 4916 2219 fd61 c83f 434b 6fde db1d 60bf
00000730: 211a cf04 44fb c03f dd95 e354 c37d c4bf
00000740: 3d35 95d2 eec3 c93f bbcc c29f 41e0 c8bf
00000750: fe28 9503 c9ab bdbf a109 3fcb d067 b03f
00000760: a654 61ed fa91 b1bf 71cb f652 0870 d0bf
00000770: 0e68 4bc7 a515 cf3f ac5e 337d 5589 b03f
00000780: 31dc 4a65 33f7 d1bf 0be7 814c 1f1f bebf
00000790: 6d68 3154 6820 8bbf 6ab1 5804 5d9f d33f
000007a0: 6bed ac55 a3ab c73f a8e6 0dcf 54c6 aa3f
000007b0: 4899 bd2c 9ed9 c7bf b02f c5f2 ee18 c3bf
000007c0: 2052 6e6b 754e 8fbf dc6e abe8 262d 973f
000007d0: b96a da41 8233 d0bf a0ea fe86 9457 d73f
000007e0: ea6a 2020 d734 ccbf 4678 1faf 8aca c5bf
000007f0: ed17 4f39 b23d c93f f83f 744c 6008 afbf

layer1.bias f8 [80]
-0.08524045479661711 -0.10775992626310145 -0.10858954873670239 0.0885826688307692 0.03331640141344815 -0.03636401995424039 0.008545619672637624 0.01931032278682762
0.05377533280601051 0.06754391384980458 0.0535486690312404 -0.011795993335048419 0.004540133478611063 0.054677923320249136 0.03480050938471911 -0.022100340335053797
-0.02825551975674707 0.0960414281581791 -0.10586897790792822 0.023354832020917423 0.11600327906421774 -0.03625527746849735 0.10913434409024866 -0.12434433506708979
-0.06764252915976125 -0.10122352144891424 0.12465185449058344 0.15281236440922638 0.007029326158515597 0.01790888958324047 0.04798093106414063 0.02063407149340395
0.02022209553466648 -0.04386240654439143 -0.005544269646919516 0.13297446712898206 -0.04941751074142152 0.08239565559232001 0.022677306788582853 0.03627256928912581
0.09191175716539574 0.04133947257978816 0.008120185709068077 0.06507011340031421 0.011579639080684186 -0.10234018454339737 0.11265622961721188 0.06198572227891181
-0.052241914164464956 -0.009315144922146653 -0.03237822982419559 0.007112685962999388 -0.033961497215088565 0.02189807052196567 -0.05728388221769665 0.06751551479700843
0.056970063683871565 -0.11373835124209714 -0.02362371943918398 -0.20117816995842627 0.09047265738424959 0.062405130601304745 0.030328226757013126 -0.07673151386076164
0.04262702024478845 -0.005559930771071579 0.019518343169893676 0.010875910160906008 0.06432299175483694 0.035567205632613216 0.061736399532369535 -0.014281561052451739
-0.06224712173364498 0.04609906850606859 0.054090098868142 -0.09873483127767797 -0.009013229042728856 0.0711377356246019 -0.03050127234070432 0.0030233517986979395
00000000: 87cb a585 51d2 b5bf 7d90 1e8f 2796 bbbf
00000010: f3f3 8250 86cc bbbf 84dc 9e91 5aad b63f
00000020: 5f7a fbec d80e a13f 4abb e808 4e9e a2bf
00000030: 64ee 24a8 5d80 813f 38e6 60d3 15c6 933f
00000040: 2b77 77bf 7088 ab3f 4d5c 07d5 8e4a b13f
00000050: 098e 772c bb6a ab3f 756e c86c 7f28 88bf
00000060: 1935 f6cc ac98 723f 5284 f2a8 befe ab3f
00000070: 8e0d 6253 5fd1 a13f 5bcb e0bb 78a1 96bf
00000080: 7397 25d5 03ef 9cbf 9b21 00c9 2b96 b83f
00000090: 0d87 c6b5 3a1a bbbf 0f04 ef3e 54ea 973f
000000a0: 6b40 cf11 64b2 bd3f 53b7 113e 0d90 a2bf
000000b0: 76ef bc76 3af0 bb3f 1b57 8ec4 07d5 bfbf
000000c0: ab55 8f52 0551 b1bf b983 35e2 c8e9 b9bf
000000d0: 0e3d 6c16 2fe9 bf3f a3f1 c705 5b8f c33f
000000e0: 867c 6b5f c8ca 7c3f 4951 453c b556 923f
000000f0: 2615 81e3 f490 a83f 8d6f fd18 1921 953f
00000100: a273 e9db 19b5 943f ce97 4323 2275 a6bf
00000110: 4904 058d 96b5 76bf 0fd1 c2ad 4e05 c13f
00000120: 6ee0 f780 404d a9bf 82fb 19b6 e117 b53f
00000130: 0ac3 124c b838 973f b068 ad75 5192 a23f
00000140: 3cad 2467 8787 b73f 5935 8785 722a a53f
00000150: 1c91 76e0 50a1 803f 3059 0059 6fa8 b03f
00000160: 114b 35d9 10b7 873f 0335 ae61 f732 babf
00000170: 0787 e5e5 09d7 bc3f c983 03b4 97bc af3f
00000180: ba35 a2c1 73bf aabf eb8c 6296 d113 83bf
00000190: 7103 651c e193 a0bf 6797 9019 3122 7d3f
000001a0: 2058 b9bf 6663 a1bf 5c0a f3a2 726c 963f
000001b0: 4004 6d21 5054 adbf e697 0660 b248 b13f
000001c0: ad1c bf20 2e2b ad3f b4c1 e2e2 f41d bdbf
000001d0: 87cd 9af9 d030 98bf 37fe 51ce 34c0 c9bf
000001e0: d0c6 a550 3729 b73f 6607 12b6 90f3 af3f
000001f0: 0ea7 44d8 5c0e 9f3f 43c3 9a2e ada4 b3bf
00000200: fb2c c173 35d3 a53f b8c3 468d 02c6 76bf
00000210: a8e1 58d6 9dfc 933f a581 a4f3 1b46 863f
00000220: 72c8 f7b9 7877 b03f d61d 0162 dd35 a23f
00000230: f0ba edd1 e99b af3f 52b5 3fad a63f 8dbf
00000240: 2e76 3bd0 dade afbf 2f21 380f 4c9a a73f
00000250: b326 5a8b b2b1 ab3f f54e 5097 af46 b9bf
00000260: 4e4f c21f 8775 82bf a0e7 0428 1536 b23f
00000270: 7f44 c2bc b93b 9fbf ebd3 30a3 6dc4 683f

layer2.weight f8 [80, 80]
-0.07001650674144964 -0.06796030432194036 0.19172538682925155 -0.20636329826122407 0.011149176848055466 0.0546402694618284 -0.22493865385397618 -0.02900197119453976
0.11975080798366596 -0.22967155005325843 0.025722287852191564 0.016852852259277542 -0.17813392023184904 -0.14341344966853345 -0.0008203410918646722 0.07089911081909424
0.10300706695903084 0.11862597543014386 0.005453605285378431 0.028602004324550043 0.13332092898803258 -0.15107158952706914 -0.05957718451929961 0.13917050131764383
0.12272845497364332 -0.12713885494232566 0.20621915797850773 -0.10446887391078401 0.164262982702878 -0.005258871852454936 0.2279969905607701 -0.12101792276894892
0.03265646557118727 0.21942727471020076 -0.12574661464896722 -0.16239602848010048 0.11143112760330949 -0.23529138692527124 -0.165866811462216 0.07894582001312621
-0.15038252082421807 -0.030572111914232147 0.06813618663057233 0.2634980279116017 0.0005644011732044742 0.07914990266185123 -0.3520129944658088 0.013720587284067868
-0.2179780749654276 -0.223451721091684 -0.02434654814165199 -0.10517511215176362 0.169648616536338 0.09890682499026214 0.08645441437089123 0.051553469473232465
0.28392949060059736 0.1933673884778209 -0.31077784169716427 0.0041204275273100215 0.33363779517427494 0.13555324005512842 0.04118572069340763 -0.1528891377393503
0.13711209540091088 0.10365338628429208 -0.2397842523382452 -0.19520983274001683 0.09779116961429332 0.050730278207948926 -0.01012303512153916 -0.21082535025835256
0.1405979192577953 0.050290854284306664 0.2825641162591165 -0.11523056695526948 -0.014807476856088023 -0.07799282553884783 -0.014170737499396225 -0.10631228467235812
-0.004893806072956691 0.014500601563193424 -0.1306251306202642 0.13977302992475626 0.013620577187124672 -0.11915548263806756 0.37466914479362606 0.1256552731046541
-0.6441894709792154 0.20973080479081396 0.1568163663083767 0.1418580978836999 0.06944320574920287 0.13023832646371805 0.25309261971947006 0.03995392607553492
-0.0937685841539455 0.010313045546208915 0.144170232791424 0.07719984866139308 0.17108826362912447 -0.12055833688613199 0.031561869903851555 0.11111396479757653
-0.06986576789352177 0.12832073535227928 0.16995180463752332 -0.06890883559277407 -0.24419848698460858 0.1558506703776881 0.20230468717310468 -0.15264395094340996
0.03278765522828783 0.15590365137479043 -0.20231289268861297 -0.08192190552953893 -0.039621909817273177 -0.10980660272881852 0.1517429859330211 0.18992010470489928
-0.3520901558045854 -0.14649460349770668 -0.11341252216925744 0.12219329081585974 -0.06524842058000156 0.0655158241493267 -0.17461387912858317 -0.18043545819796344
0.10258845852532385 -0.21060674491814158 -0.0029851615523304154 -0.1422399524153056 -0.12206600681989034 0.12699956332151713 0.11482054318976938 -0.05979646928718902
-0.28855758720614466 -0.13014671704094471 -0.1019244345831704 -0.12645445935618943 0.037231710068313204 0.025735550482940423 -0.006999751800557311 0.09774447513513196
-0.22710298173266733 0.18237974113223618 0.0833431668543773 0.2430568705015486 -0.09462287561583935 -0.013090710715243578 0.22532378703224726 -0.41824432863646527
-0.20710134863927387 0.012377817189929493 -0.048167466362154264 -0.020444295239819065 0.15132629563162206 -0.11826957039019925 0.04551342204469509 -0.05235357353000058
-0.04427997736395509 0.017215223044598126 -0.05761901719215545 0.2534054704137629 0.1781064190617557 0.0733631409049863 0.22887168932509785 -0.048086272550087655
0.23057372385596872 0.11376990138819736 -0.1637426063900835 0.2311276984478825 0.22625151731973472 0.08889576263985012 -0.025620881913349568 0.11466315071124834
0.16133141274169954 -0.0390847720300316 0.1184094681050826 0.02633223246790281 -0.11263164567470657 -0.14227523331452824 0.09019389996501002 -0.1035209307956833
-0.11628774902565064 0.11994945414425004 0.08723496231179331 0.16320919525083727 -0.10561064115391486 0.12783426424578248 0.025775384506237183 0.15204274634020637
-0.21589310151262495 0.21402010895240853 0.02845131699451016 -0.0016252906814892298 0.0035457778723337317 0.07707225621855446 -0.04939888527499305 -0.07446590813952988
0.15608729326423162 -0.0972725178512052 -0.14238916359130693 -0.1383206644452669 0.06667811143473085 -0.16928287592980357 0.09210289837105232 -0.18653442577087606
0.05139526769660499 0.08635049931543944 -0.01925146364776254 -0.02380948560250244 0.07566350255961939 0.008025013031271785 -0.19076365293495995 0.09022303342527425
0.14583550262985256 0.11018203571612217 -0.1948279635919934 0.11510480172654337 -0.20882259770351058 0.23268146715420265 0.26993872137520897 0.07903898694469501
0.0995080495958831 -0.016342116354834072 0.028602094851491525 0.20872038367552753 -0.19355064668050542 0.19967241807593025 -0.16672844325887284 -0.05488883629494057
0.07390942218742162 0.10376463542966576 -0.12339821020548088 -0.1757092659615317 0.23203840875281243 -0.04707231235498392 -0.053756093962049174 0.01957019092359113
0.03812254306574652 -0.08231579515518422 -0.1377031604390524 0.2528210731995126 0.19401916014576479 0.21481025212949734 0.18943850492982275 0.25534783118902316
0.04626706735883587 -0.21246067544843172 -0.03215317751747796 0.06018939159041496 -0.0193755473820131 0.21748436502898624 0.22108983039617816 -0.13237982151685912
00000000: 077b a20e 9aec b1bf 422b 7db4 d865 b1bf
00000010: 8c4e 1f1d 758a c83f 1a36 90d0 1c6a cabf
00000020: 2e8b 842f 61d5 863f 3c30 c434 cff9 ab3f
00000030: 215d f430 caca ccbf c848 3357 b1b2 9dbf
00000040: 9d9c f52b fda7 be3f 9772 269a e065 cdbf
00000050: a4f1 6984 f156 9a3f 1711 31c5 df41 913f
00000060: c81e daa0 17cd c6bf a502 1136 5f5b c2bf
00000070: 8cb3 9f14 85e1 4abf c592 48b2 7126 b23f
00000080: 308e d8cf ab5e ba3f 98b6 ed9c 455e be3f
00000090: 1230 8905 8556 763f 392b b204 d849 9d3f
000000a0: bf1e f002 a910 c13f c9ce 2f58 5056 c3bf
000000b0: a040 3296 e680 aebf 0f15 ddc7 56d0 c13f
000000c0: 0c81 66cc 216b bf3f 4b9b 0304 1646 c0bf
000000d0: c7c5 a9ad 6365 ca3f 6392 e5dc 78be babf
000000e0: bd7d 53c5 9106 c53f 3d21 eca9 538a 75bf
000000f0: 36c0 0561 012f cd3f ddc1 85d4 07fb bebf
00000100: 8d2c 4327 59b8 a03f 3d88 5d64 3116 cc3f
00000110: f100 c00e 7718 c0bf a841 a99f 64c9 c4bf
00000120: ad07 d018 c086 bc3f 56f0 ef35 071e cebf
00000130: 026b 5ca9 1f3b c5bf 57be 1c13 cb35 b43f
00000140: 433f 6a04 bc3f c3bf 4078 5db3 4b4e 9fbf
00000150: 42a1 4085 5f71 b13f 7836 1cd5 26dd d03f
00000160: 2099 554a 8a7e 423f 440b 6a03 2b43 b43f
00000170: f4d9 bf82 6187 d6bf 35fc 550d 8a19 8c3f
00000180: ae5b 9c9f b4e6 cbbf e16e 29e5 109a ccbf
00000190: 70d1 2730 4dee 98bf 4c82 0b93 c1ec babf
000001a0: 60e8 eabd 0bb7 c53f f732 af2a f551 b93f
000001b0: 035c 5162 e021 b63f 3f07 c462 3765 aa3f
000001c0: e4f7 1f99 e62b d23f 8105 d038 43c0 c83f
000001d0: 504a 9abe c8e3 d3bf 8cf8 9ad7 94e0 703f
000001e0: 6aea be56 525a d53f 9ea9 73fe ce59 c13f
000001f0: fe78 e176 4b16 a53f f487 400b df91 c3bf
00000200: 5104 d19e e38c c13f beef 3540 0789 ba3f
00000210: d1bc f118 40b1 cebf a5ed bcc3 a2fc c8bf
00000220: 06bb 5493 d708 b93f 0ce7 a3ab 51f9 a93f
00000230: 1a23 44c6 62bb 84bf d780 4338 53fc cabf
00000240: 5087 8cd4 1cff c13f 6dc4 e00c b9bf a93f
00000250: 7ac9 96cd 8715 d23f 2a8a 921c c07f bdbf
00000260: a257 aae6 6153 8ebf 7311 037b 56f7 b3bf
00000270: fafa f530 8c05 8dbf a2b0 d429 4837 bbbf
00000280: 39bf 9410 870b 74bf f8d2 e3cb 7db2 8d3f
00000290: a25e 0604 53b8 c0bf 4ce0 3128 15e4 c13f
000002a0: e01c 92ec 1ae5 8b3f 0bd1 1145 f980 bebf
000002b0: d35e ed4a 94fa d73f d1f7 46d4 7815 c03f
000002c0: 8f10 c93c 339d e4bf c028 c581 75d8 ca3f
000002d0: 04d2 6206 8f12 c43f 32a8 8af9 6728 c23f
000002e0: 2c4a 9fa9 07c7 b13f ed78 6c44 a6ab c03f
000002f0: 3076 2363 ab32 d03f edb4 ae4b d774 a43f
00000300: ff5a 55ca 3701 b8bf b6b8 be8a 011f 853f
00000310: f6ab 7291 2b74 c23f c9bf 4189 5ec3 b33f
00000320: 311d 8260 38e6 c53f 6ca3 2f42 e9dc bebf
00000330: be46 139e e028 a03f 813a effc f671 bc3f
00000340: 236d 3614 b9e2 b1bf 884c de58 d06c c03f
00000350: 6b3c 6811 fbc0 c53f 81c2 466b 02a4 b1bf
00000360: 1171 aa61 e541 cfbf f179 2a2e eaf2 c33f
00000370: 1835 9eb7 1ee5 c93f 6bf9 9d44 d689 c3bf
00000380: ac06 d625 8bc9 a03f afa8 fd9d a6f4 c33f
00000390: 6410 d48c 63e5 c9bf 884b 1381 d5f8 b4bf
000003a0: 5c91 bdad 5249 a4bf 73ea 9a17 491c bcbf
000003b0: 4267 fd6c 506c c33f 70bc 474f 4d4f c83f
000003c0: bb26 1b26 a588 d6bf e314 88cd 55c0 c2bf
000003d0: 7f80 ac61 9a08 bdbf 8940 d83b 0f48 bf3f
000003e0: 07bb 81d8 1eb4 b0bf 2b83 1722 a5c5 b03f
000003f0: a079 2462 bf59 c6bf 27e0 ff53 8218 c7bf
00000400: a135 50ba 3c43 ba3f 7cc6 de6c 29f5 cabf
00000410: fb77 b267 5674 68bf 7b77 e733 eb34 c2bf
00000420: 69a7 3ec3 b73f bfbf c23d 898d 8541 c03f
00000430: 35b5 e80d e164 bd3f f96d 0290 a49d aebf
00000440: 2a09 043e ba77 d2bf 20b2 afca a5a8 c0bf
00000450: abb0 3241 b817 babf 0221 afe3 a82f c0bf
00000460: b630 3ce2 0810 a33f 45d6 ac8e 6b5a 9a3f
00000470: dd23 0491 c5ab 7cbf 90f0 112c c805 b93f
00000480: 89d5 aee3 b511 cdbf d3d5 ce27 3858 c73f
00000490: 2b10 fc4f fa55 b53f 29a6 efce 7c1c cf3f
000004a0: ae37 396c 3439 b8bf f818 3a73 4dcf 8abf
000004b0: 4e3d 28ec 68d7 cc3f 41ca 4edc 83c4 dabf
000004c0: 887c ae07 4c82 cabf 4b81 3680 8a59 893f
000004d0: 5b65 83f9 67a9 a8bf 6377 c76d 59ef 94bf
000004e0: 559e 61f9 a85e c33f a018 f020 ea46 bebf
000004f0: 9e09 6c06 894d a73f 0fb9 476c 16ce aabf
00000500: 45a7 4a7d ddab a6bf 062c e10f dea0 913f
00000510: b099 ef64 3d80 adbf af7e 0394 cb37 d03f
00000520: 03f9 89ee 30cc c63f 9833 eb42 edc7 b23f
00000530: 35d7 50e2 aa4b cd3f 5c74 fa8f c39e a8bf
00000540: 03a0 a395 7083 cd3f 7b40 bb35 0620 bd3f
00000550: 6f1f b489 84f5 c4bf a046 04a9 9795 cd3f
00000560: 7581 c749 cff5 cc3f d187 4a69 dfc1 b63f
00000570: 266a a647 5c3c 9abf 1173 5c72 905a bd3f
00000580: 8e83 c5fa 81a6 c43f e3fc 4753 eb02 a4bf
00000590: 4a4f 0c39 1550 be3f 180a 1f35 d6f6 9a3f
000005a0: e4e2 aa72 6dd5 bcbf feee 0e29 1336 c2bf
000005b0: 6ffe a58a f216 b73f 630c 3804 5980 babf
000005c0: a099 fdae 08c5 bdbf aefc b8e6 01b5 be3f
000005d0: fa6a 32ce 0755 b63f 2a21 01f6 09e4 c43f
000005e0: a29b dd89 4c09 bbbf bc36 1f88 df5c c03f
000005f0: 4205 fcc5 dc64 9a3f e206 90ff 2276 c33f
00000600: b3e0 3699 62a2 cbbf a087 51cc 0265 cb3f
00000610: f404 1490 5722 9d3f 8a0e b494 f6a0 5abf
00000620: 7d89 0400 090c 6d3f 543b e3e3 01bb b33f
00000630: 130e 6e89 cf4a a9bf 0650 20a0 3210 b3bf
00000640: 770d f21d abfa c33f db72 f80a dae6 b8bf
00000650: 74f8 76e0 ce39 c2bf fba2 13d5 7db4 c1bf
00000660: 64a1 f813 d111 b13f 2a17 f2af 0fab c5bf
00000670: ded7 5e38 0e94 b73f 77cc 212d 5ce0 c7bf
00000680: a427 da03 7b50 aa3f d596 8dfa 101b b63f
00000690: 02b0 11db a7b6 93bf 4b44 fd87 8361 98bf
000006a0: 878f feec ae5e b33f 7e7f 2704 6b6f 803f
000006b0: c281 4f81 f16a c8bf cf4f e851 db18 b73f
000006c0: 480a 32dd bcaa c23f 28e8 01d0 e334 bc3f
000006d0: 70a8 fc69 1ff0 c8bf 792f 071f 8277 bd3f
000006e0: 2ab3 e6e9 b2ba cabf 3b03 e89d 81c8 cd3f
000006f0: cdc1 0e0f ad46 d13f df53 0928 e63b b43f
00000700: fffb b30a 5c79 b93f 016f 2add fcbb 90bf
00000710: 34de ef17 de49 9d3f 268e f27a 59b7 ca3f
00000720: d663 ce80 44c6 c8bf 6b51 c6a4 dd8e c93f
00000730: 950f 8e8d 5b57 c5bf d0c2 9ab9 631a acbf
00000740: 8b46 2957 baeb b23f e1da a6b3 5190 ba3f
00000750: 5dac 376d 0697 bfbf 4c58 7427 a47d c6bf
00000760: c72d 8140 6fb3 cd3f a637 39b4 dc19 a8bf
00000770: 412f 0e33 eb85 abbf 9e23 f947 350a 943f
00000780: f75b 6a47 cc84 a33f 9cc0 22e0 a512 b5bf
00000790: 001f 52d5 41a0 c1bf f76a 4870 382e d03f
000007a0: 17cd cfad 9ed5 c83f 34f0 deff e67e cb3f
000007b0: ad6b a35b 853f c83f b4ed 036e 9e57 d03f
000007c0: 5c45 602a 51b0 a73f c858 5e52 e931 cbbf
000007d0: 65d3 cc9b 6176 a0bf 36d9 e4d8 24d1 ae3f
000007e0: 6631 64f9 2ed7 93bf db6c 9815 87d6 cb3f
000007f0: 91cf 83eb ab4c cc3f 5c59 086e d2f1 c0bf

layer2.bias f8 [80]
0.08968026072832318 0.006039830774062566 -0.009797324269170179 -0.024406981738864048 0.02476225977580206 -0.0227382528071155 0.020938305390235973 0.026519396058506412
0.02025413124985723 0.03673021196901611 0.03423390995685978 0.012770570519909232 0.005207669717122447 0.04394019196105513 -0.019976011850326214 0.016081727839177516
0.05270310095443404 -0.033242313722476706 0.028424531139740916 0.1155763960322943 0.04406360585066706 0.0037065952466293624 0.006784892004131366 -0.004969725301242221
-0.011003541970399685 0.06846676240845408 -0.03051580337013621 0.04533634612316286 0.003215776198111146 0.09150402032813251 -0.02817091597573665 0.01738234033612587
0.04562815542831155 0.08166425283639825 -0.006351974617781052 0.05441527705790208 0.04553882225131912 0.038012785683839756 0.016103982549076717 0.005061156180736309
-0.01770849104844769 0.04665238224366179 0.08626700075069466 0.005457256678068376 0.0033236307985014574 0.03562547749929741 -0.030639543712761362 0.003766034132994522
-0.015517925956420774 0.06624224728996685 0.06995645029671514 0.022384072047824895 0.0019359999080517138 -0.004215029980064402 0.0039999798675695725 0.054807176270028554
-0.010242114426453562 0.0024200703636796054 0.04163540381343971 0.009502874098926369 0.09002196282837778 0.03163296666321814 0.05839330397269309 0.028181668657978512
0.03536470433216185 0.09024778457228454 0.06480092494747672 -0.045935637228666025 0.08880809030759362 0.022583258889092708 0.03940427336489927 0.01624173529883982
0.04775391467512758 0.04489112838280334 -0.000989494282899189 0.02208238149984629 -0.029580399188247695 -0.034255327299027916 0.03572481799173945 -0.00540584019713303
00000000: 53c6 ec1a 49f5 b63f 0719 5eba 38bd 783f
00000010: 5e5b 989a 9e10 84bf a830 73d1 24fe 98bf
00000020: 6504 a61f 475b 993f 60ef b250 b248 97bf
00000030: 18f5 89e3 d970 953f 05b3 1f8b e627 9b3f
00000040: 89e0 4ebd 7fbd 943f 8938 5d66 4dce a23f
00000050: 9a9b 5b67 1b87 a13f eec9 dff5 7427 8a3f
00000060: 457d f931 a354 753f 7ec7 e72e 547f a63f
00000070: 7019 6876 9774 94bf 669e 877c ba77 903f
00000080: 5981 fe9d e6fb aa3f e714 90f4 2205 a1bf
00000090: 90e7 98fe 511b 9d3f 98f3 2529 6a96 bd3f
000000a0: 1318 2544 818f a63f 7f1a a42b 4b5d 6e3f
000000b0: 14f3 3b94 79ca 7b3f 3118 397a 225b 74bf
000000c0: d167 3967 0689 86bf a145 68a9 0987 b13f
000000d0: 3190 f1e5 883f 9fbf 0397 d657 5336 a73f
000000e0: 89c0 44b3 f857 6a3f 7e08 c3b6 ce6c b73f
000000f0: 48b1 412b d6d8 9cbf e71e 161d adcc 913f
00000100: 5fcc aed6 925c a73f 5242 2fcf f2e7 b43f
00000110: 9869 f933 8704 7abf c3a1 bbb6 51dc ab3f
00000120: 8119 8950 dd50 a73f e813 af6e 6976 a33f
00000130: b8d8 88f9 8f7d 903f ed5b 6bc4 01bb 743f
00000140: b28a a8b7 2c22 92bf a6b6 0830 d2e2 a73f
00000150: ecbf f21a 9815 b63f e4b5 542f 595a 763f
00000160: 8960 acb2 283a 6b3f 7a19 87a9 803d a23f
00000170: 86ba d7f8 f85f 9fbf 6685 fa2d f2d9 6e3f
00000180: c669 e0c3 dcc7 8fbf ef54 b97d 40f5 b03f
00000190: 0f2c 2b7a aae8 b13f a23c 96a5 d9eb 963f
000001a0: 0dac 9112 2cb8 5f3f 8315 a87e c743 71bf
000001b0: d033 746b 4862 703f 36ee 54ab af0f ac3f
000001c0: 1f2f 0754 d1f9 84bf b4db 1c62 41d3 633f
000001d0: 670d 7853 3c51 a53f c47c c82b 3e76 833f
000001e0: 2d05 45ea ad0b b73f 9184 963a 3232 a03f
000001f0: 1778 bc25 bae5 ad3f b44f eec4 a7db 9c3f
00000200: fc24 1491 521b a23f 1740 4693 7a1a b73f
00000210: fa63 661d cb96 b03f d36f 3c37 e084 a7bf
00000220: c0c7 7d83 20bc b63f 5788 76d9 1020 973f
00000230: b08a d902 cc2c a43f 5056 c167 aca1 903f
00000240: 6140 927b 3373 a83f 47c1 9150 f8fb a63f
00000250: 1898 6a65 3d36 50bf 3944 7089 c39c 963f
00000260: b6ef 76fc 524a 9ebf 901b ed0c ea89 a1bf
00000270: 9332 dcf9 854a a23f c358 aa2d 6f24 76bf

layer3.weight f8 [80, 80]
-0.10986679735484804 -0.1763938251371736 0.025368457218366114 0.0026339010400719576 -0.0681109980915595 -0.10561261326915469 0.03560735178402788 -0.06085505726255817
0.12396489483013476 -0.030877135640764008 -0.030324103046272928 0.0867504839628741 -0.20466471893233074 -0.07507123663214685 -0.0637744411303209 0.11321159107255221
0.03150956034053883 0.1597606614867955 0.08918857280646747 -0.023563666058880422 0.13660745159261245 0.008205701815720957 0.1570046816598944 0.15563055772695372
-0.05100229778600408 -0.1596654008527797 -0.14424367877414276 0.015646790566287556 0.0672857769797253 0.06769428270811845 -0.15112961584224627 0.21947036737293482
-0.2364949078221228 -0.2287924702001547 0.17836135217485527 -0.09853178927413639 -0.18813138056326012 0.11592308829809717 0.017398549442922927 -0.019730264676891665
0.16383876481755064 -0.03575044551130074 -0.14255460434667078 0.13952156382136655 0.13442224635138098 -0.05927773204599389 0.1634606770926885 -0.0736708421691092
0.16105359908845843 -0.2994887148292223 -0.0010818702118396938 -0.0924659993707776 0.15644055269461754 0.027296733978261642 0.1967460438097471 -0.011644029878484959
0.037509731259350705 0.022316961087943097 0.19336146162151463 -0.16481288125417615 0.08938309470617653 0.1275969672680851 0.2249379434190196 0.079292233542339
0.22089372572132956 -0.15942969573559776 -0.16829818361990267 0.09452423254800199 -0.24712974663185008 0.15449503011786553 0.15616559415129308 0.16302388445431554
-0.04582112788349097 -0.3541673199899854 0.05501296390475988 0.02378440490043022 0.049874424803880484 -0.09665097884966915 -0.18827495545586878 -0.07001630905648673
-0.008607548417016601 0.021521814511605408 -0.09743724042030835 0.27151858285148345 0.09331782294522596 -0.11916331141238545 0.08304743750831527 -0.1487456988508567
-0.08610602308183513 -0.0744054068577982 -0.03135897638527013 0.06495765684835796 -0.22879507983590464 0.12005957878120262 0.10233832743984683 0.2040483644757222
0.09103802924412917 0.071116771452905 0.005298212798341983 -0.007517261939906779 -0.09823511389561355 0.3281427819822208 -0.11324506577563608 0.1797592860888956
0.0266218485506259 -0.02836428027322263 -0.2042850381764323 -0.12853439612404086 -0.061090847244151376 -0.1881969113068152 -0.1440666885132361 -0.06797884916425384
0.034181514061161905 -0.07344520665905115 -0.08086660200582149 -0.08031921761887248 0.05371937667344866 0.03452393576385576 0.23253837518017895 -0.17304956379577438
-0.007861679859673794 -0.15924636070385384 -0.3949076711256094 0.24422436619521612 0.28850258181254146 -0.03244668230489094 0.037197638204370234 -0.028614751484360015
-0.03400283115223062 -0.10208151113154275 -0.11186511397877509 -0.16797046701498114 0.06507620005953842 -0.03841009412591034 0.2707951564327444 -0.07496327538345057
0.1500379456691109 -0.08463695482512178 0.07537872107193196 0.06003531606902131 -0.12739567141374925 -0.04129731802102094 0.12469965506043573 0.19662893038133422
0.18678973238797014 0.16738394567447634 -0.17944389250610232 0.0718263350436853 -0.27141343516653044 0.02095691110859994 0.06463748309989248 -0.03616908031323361
-0.09399851276517952 -0.3598710975829466 0.004854678773592742 -0.22164968106209948 0.18404438922799715 -0.019116938301548026 0.18053066488960753 -0.07805372843915476
0.033206054459089286 -0.04989833014607359 0.1394159007688833 0.10198648222618274 0.01960121581047325 0.32671144412850806 0.3155341794215975 0.04517951699072992
-0.09578526579701185 0.1903621415099655 -0.07435836633865416 -0.021658063081568903 -0.11020602698844477 0.08652342217240538 0.1457434891825762 -0.11936930979128957
0.23608313729585437 0.15134234859841042 0.06602935922610971 -0.02464310408456679 0.061365037245593564 -0.0011777959603455118 0.03682486092527793 0.20751993507548924
0.0991786746910334 -0.1297228743198799 -0.15958907887477825 0.055562179441403986 0.07622642271276568 -0.1804679874428494 -0.053427034205346335 0.0854024719298357
-0.0073440431617490115 0.05390781260893076 0.08933381393337816 -0.1644632229943407 0.14186792275854745 -0.08810082826836552 -0.02302146598266336 0.043161172719094865
0.099342253060568 0.03418851350033894 -0.013230243986825497 0.1732333500433317 0.0808727032566616 0.002834108292903336 0.13229088016312993 -0.14269660472306128
0.17942323517427922 -0.09442813162230941 -0.019512587363870793 -0.04193680711835959 -0.14595131132379957 -0.02828852756408332 -0.07036555422034241 0.09228598102488111
0.12642852343479236 0.18438172981499426 0.11384687210753339 -0.00585682299798169 0.09588413352957523 0.013403389388615749 0.16169957631907725 -0.010875423584337945
0.18190834590919866 -0.13075998671097575 -0.09798241406245277 -0.1206921372482867 -0.3065016292702664 -0.08087277602602544 0.05039833316215733 0.10992391568565242
0.061269581654083034 -0.18772055608606245 -0.22718134229528925 0.09542318482360262 -0.006946785662324261 -0.07341825300269443 0.2191054502464548 -0.10234092957345653
-0.05892398502672816 -0.19914293761155138 0.11034515750601369 -0.016549193455986076 0.195158558931067 -0.35657332814167353 -0.3303408649266828 -0.04561265020988208
0.5244270491027271 -0.11197004366552732 -0.20484348638585206 0.09538937465300175 -0.0022223199309945544 -0.007932843899613583 -0.06400458301645547 -0.07038376295947835
00000000: 372a 8efd 3a20 bcbf bc1a 17a7 1294 c6bf
00000010: 8053 6958 30fa 993f a90d 7fda b093 653f
00000020: 3f19 4ded b86f b1bf d63e 09a0 6d09 bbbf
00000030: c4b2 d176 203b a23f 6550 7ae1 6428 afbf
00000040: 1ac3 25d1 29bc bf3f 43bf 157f 419e 9fbf
00000050: d204 751b 480d 9fbf 2060 889b 4735 b63f
00000060: 60cd 3a19 7432 cabf ae91 345a de37 b3bf
00000070: 2db4 f992 8553 b0bf f24a 2f51 6ffb bc3f
00000080: 5b10 5966 0522 a03f 61f5 2290 0973 c43f
00000090: 1475 61f3 0fd5 b63f 2b14 63dc 1221 98bf
000000a0: 5476 7d5c 5a7c c13f 2795 83a7 26ce 803f
000000b0: 5e29 86ba ba18 c43f 5a06 d9bd b3eb c33f
000000c0: e202 0622 f91c aabf dc92 7b75 ea6f c4bf
000000d0: 97ad 7ead 9376 c2bf 3509 1457 b605 903f
000000e0: 9326 9d03 a439 b13f 3488 5b9a 6954 b13f
000000f0: 54ef bf1a 3758 c3bf f967 27e1 9a17 cc3f
00000100: 601e 6213 7745 cebf 0055 8a58 1249 cdbf
00000110: 400d 3b77 8bd4 c63f ce7c 8c1c 6139 b9bf
00000120: 9a6d 6f67 b014 c8bf 3876 17b1 22ad bd3f
00000130: b6b7 6be3 ecd0 913f a45c 1da6 2b34 94bf
00000140: 5bad 5a2c abf8 c43f e7b1 93e4 e14d a2bf
00000150: f815 c8b1 3a3f c2bf ba8a d9b4 d7db c13f
00000160: 838e f787 bf34 c13f 4685 09a1 a659 aebf
00000170: 47c6 258b 47ec c43f 6dfc c8a1 17dc b2bf
00000180: 9577 7e82 679d c43f e99a edb6 d22a d3bf
00000190: f061 6a4b b1b9 51bf 2819 4a0b daab b7bf
000001a0: d0b7 cb78 3e06 c43f aca0 e5ce acf3 9b3f
000001b0: 23df e36f f92e c93f e485 2c3c d3d8 87bf
000001c0: 69d1 14ba 7934 a33f 9945 13e8 41da 963f
000001d0: 1e4f fc80 11c0 c83f ac1d 79a7 9618 c5bf
000001e0: 660b 947c cfe1 b63f 4b1b bef0 1855 c03f
000001f0: b39d 4e3b c4ca cc3f c421 e4ed 7e4c b43f
00000200: a3ae eedf 3e46 cc3f 2d0a 9938 3168 c4bf
00000210: e8d4 4f7d cb8a c5bf 7e21 7977 bd32 b83f
00000220: 2987 d391 f2a1 cfbf 2619 e03e 7ec6 c33f
00000230: 7df2 d1f3 3bfd c33f 925d 1976 f7dd c43f
00000240: 396b 73eb dd75 a7bf 26d0 2a68 adaa d6bf
00000250: e568 a7c1 a82a ac3f a205 cf64 f05a 983f
00000260: 3f03 e1fe 2389 a93f bb24 4959 1ebe b8bf
00000270: 3b5e 2bcc 6419 c8bf b290 95bd 96ec b1bf
00000280: bc3c 9997 d5a0 81bf c364 e985 d009 963f
00000290: e288 04a1 a5f1 b8bf e89d 667a 8f60 d13f
000002a0: 9904 af45 ade3 b73f d835 669d 7c81 bebf
000002b0: b364 1dcc 9842 b53f 9217 fe5b 190a c3bf
000002c0: c006 2059 0b0b b6bf a28d 1995 3b0c b3bf
000002d0: d883 05a4 480e a0bf 57da c9a3 10a1 b03f
000002e0: f8c1 b03c 2849 cdbf 2dd2 6f7c 39bc be3f
000002f0: 6042 7b39 d832 ba3f addd 1cbe 411e ca3f
00000300: 47bb 4bae 444e b73f 7b5b 966f b534 b23f
00000310: 8c56 232b 94b3 753f 9572 ffa2 6bca 7ebf
00000320: 7720 80b9 ef25 b9bf de0d 4295 4a00 d53f
00000330: df91 f0ed a0fd bcbf 05ba 732f 5a02 c73f
00000340: 2538 8903 c242 9b3f 709f 97a0 860b 9dbf
00000350: 60d3 031b 0326 cabf 51c6 e1a9 d073 c0bf
00000360: 8143 ffad 4c47 afbf 9aaf a21d d616 c8bf
00000370: 3bbe cdf9 c670 c2bf 8ced fad5 0f67 b1bf
00000380: 0479 0a4a 3d80 a13f bd09 a618 4ecd b2bf
00000390: 7e22 f472 acb3 b4bf 3ed2 e9dc cc8f b4bf
000003a0: d6ab f22b 1b81 ab3f f8e6 110e 1fad a13f
000003b0: 545f 3b46 d1c3 cd3f 6382 8bf4 7c26 c6bf
000003c0: 8482 1ccf c819 80bf fe72 9d4b 2f62 c4bf
000003d0: 1423 1bd3 2a46 d9bf 97ee d878 be42 cf3f
000003e0: 4f92 6c88 d376 d23f 77f6 b9fe d99c a0bf
000003f0: 0a05 279f 910b a33f c7e5 3b77 2f4d 9dbf
00000400: f75c 8aaf d168 a1bf 9113 d68f 0322 babf
00000410: 9926 1a2e 31a3 bcbf eaf7 4267 0e80 c5bf
00000420: 91f0 0077 d5a8 b03f 70d1 36e4 7caa a3bf
00000430: 4bce 3235 b554 d13f 3e47 2c10 cb30 b3bf
00000440: d567 e782 7134 c33f ffc5 0179 c4aa b5bf
00000450: 1579 d115 054c b33f 4a31 3eee f2bc ae3f
00000460: badf 2f59 804e c0bf d926 a00c ec24 a5bf
00000470: fc9a 4e0c 51ec bf3f a0b7 b704 232b c93f
00000480: c8de ead7 b9e8 c73f 780e 464e d66c c53f
00000490: 4eec e378 04f8 c6bf 1811 01f0 3563 b23f
000004a0: 930e ef74 d65e d1bf d3b1 587f ba75 953f
000004b0: a881 0204 158c b03f 8eba 24f2 c084 a2bf
000004c0: 35f7 325a 4910 b8bf 873d b9c8 2008 d7bf
000004d0: bbeb 0ae9 7fe2 733f 644f aa49 045f ccbf
000004e0: b48e 5f3c c48e c73f 1d1d 3803 6493 93bf
000004f0: c320 d0fa a01b c73f f41e fa42 54fb b3bf
00000500: dda9 dc4b 6200 a13f 606d 3420 468c a9bf
00000510: 4720 2c57 61d8 c13f 85a8 cb3d c91b ba3f
00000520: 00a6 7853 5712 943f 26b2 f01d d7e8 d43f
00000530: 87b3 5845 b631 d43f c838 d907 c521 a73f
00000540: e86d 0918 6285 b8bf 1246 1762 c95d c83f
00000550: 1bc7 9b5f 2609 b3bf 1a2a 8502 882d 96bf
00000560: 6bca bc51 7636 bcbf 1088 9124 6626 b63f
00000570: b171 d2ff b8a7 c23f 501e b3b1 fc8e bebf
00000580: 9b50 e9e4 f837 ce3f c770 dda2 2f5f c33f
00000590: c5b4 73d2 4ce7 b03f d6e6 75b8 0a3c 99bf
000005a0: f9df 2cf8 3c6b af3f 170a 63c8 084c 53bf
000005b0: 8127 b54a b5da a23f 1769 3563 0390 ca3f
000005c0: 5b34 420c c663 b93f c69d 5f57 c29a c0bf
000005d0: a070 4839 6a6d c4bf f4cc 305f a572 ac3f
000005e0: 5774 a428 9383 b33f 7f5f 0534 9319 c7bf
000005f0: 90ba 44c9 c95a abbf f5aa efb7 efdc b53f
00000600: b0b5 3393 c914 7ebf 63fa 4e08 ce99 ab3f
00000610: b253 45b1 94de b63f bde5 1382 210d c5bf
00000620: a5b9 4c64 ba28 c23f b0c3 29a0 c68d b6bf
00000630: 508d 016e f092 97bf a82f 92a2 3819 a63f
00000640: 798f 0170 7e6e b93f b4ff c326 2881 a13f
00000650: 07a0 ee49 7518 8bbf db9d 81aa 822c c63f
00000660: 9e60 a0cf 12b4 b43f 318e cd4d 8e37 673f
00000670: 970a ee55 e8ee c03f ae94 44e1 e143 c2bf
00000680: 66a7 9b2f 57f7 c63f 4de4 2329 712c b8bf
00000690: b048 5a92 1bfb 93bf 14df 24be bd78 a5bf
000006a0: 18d6 7856 88ae c2bf 697c f5f2 aaf7 9cbf
000006b0: 482b 241a 7a03 b2bf 7492 61d6 0da0 b73f
000006c0: 678d b752 cf2e c03f fd84 c40d d299 c73f
000006d0: fe28 7490 1125 bd3f 4ab5 c1f3 52fd 77bf
000006e0: 9efe b6d1 dc8b b83f c623 a378 3c73 8b3f
000006f0: 9ba3 085c 92b2 c43f 56c0 ffa4 da45 86bf
00000700: d354 46ce c548 c73f cb46 4645 bebc c0bf
00000710: bf3a fb1f 6015 b9bf cca0 5d0e aee5 bebf
00000720: 97bc 7802 b99d d3bf 9c23 2b08 14b4 b4bf
00000730: 3ca4 6871 cfcd a93f 210b eb46 f923 bc3f
00000740: 5145 e302 ba5e af3f e999 9628 3a07 c8bf
00000750: 0eb7 b539 4714 cdbf 2cf8 1862 a76d b83f
00000760: 3f4a b693 3b74 7cbf 7776 93e3 89cb b2bf
00000770: 5589 97bb a50b cc3f 906b 8fe1 0333 babf
00000780: b492 47d9 482b aebf 86af 220a 847d c9bf
00000790: dfa2 c28a 943f bc3f 49af ac92 45f2 90bf
000007a0: a35b 12a6 f4fa c83f aaa3 bfef 18d2 d6bf
000007b0: 001e d902 4e24 d5bf b7e3 de91 8a5a a7bf
000007c0: 8516 213c 1bc8 e03f 70d5 ac9b 11aa bcbf
000007d0: a5b5 69b5 4f38 cabf b541 8524 706b b83f
000007e0: 348a 98ed 8a34 62bf 06a8 e748 183f 80bf
000007f0: 0d8c d9b6 9a62 b0bf 8093 1498 ab04 b2bf

layer3.bias f8 [80]
0.016391837253323566 -0.006361494832677159 -0.003539378466492746 0.026667634167818116 0.025692924368034963 0.017511145899448816 0.12168075208876511 0.01081783519543189
-0.012998640214401254 0.04918278911380296 0.06419694988987583 0.028423390301268156 0.04371813537224404 -0.006913510871555828 -0.0030063344075182004 0.017632055206362192
0.013705800833717294 0.03314946547379934 0.01388074603908157 0.04947181571660573 -0.003661830008162327 -0.01732030512883951 0.0006286803735821023 -0.0017198058267826632
0.046760223957772414 0.015323673795432789 0.004939066367659644 0.05514611970862763 -0.021014428188713165 0.04040825395324652 0.0027312382778694037 0.04535901311782993
0.0461972400439054 -0.029971566316356626 0.04735570152405244 -0.013214706111293667 0.0380896003588215 0.05696570755437551 0.04012756697752987 -0.019456767567524878
0.06682845400020941 -0.01682237748199633 -0.005116074967288311 -0.013206219093396414 0.06089600969991718 0.04373234040797413 -0.017785400103086726 0.04517669316757763
0.002861272319268245 0.03816955378250027 0.06675554314838189 -0.009087189228192027 0.05015242418512508 0.08363784831959746 0.050848643833159485 0.03145247052591271
0.019801265393699828 0.0698861262255812 -0.00242530296068474 0.01939370949004908 0.007455647809515769 0.0947211032710119 0.0024824069188404845 0.10307223313481549
0.03587079865216787 0.040142370799449996 0.056341308335316434 0.04555013326448056 0.016251047366886807 0.053748599509597234 0.03111377861373678 0.08738187793383265
0.03646565371374 -0.007654197643345353 -0.0011906036623264766 0.011423330661979944 0.015749614557338375 0.05488342642843102 0.013064515698782767 0.03254750128404283
00000000: 7590 b293 05c9 903f 300c 29c4 820e 7abf
00000010: c747 6058 9dfe 6cbf 982b 73a2 c24e 9b3f
00000020: 26e5 98f7 3e4f 9a3f 0581 d01b 71ee 913f
00000030: 4420 c642 7826 bf3f 40ef 0543 a927 863f
00000040: 5116 e8f4 079f 8abf 9629 8a8d 7c2e a93f
00000050: f3ab 4718 366f b03f 5c3d 246f 051b 9d3f
00000060: 65ef 5433 3962 a63f b380 8071 5751 7cbf
00000070: 2394 c17e bda0 68bf 32ef e331 230e 923f
00000080: b83b c572 c911 8c3f bb00 2e7c f7f8 a03f
00000090: 2068 4132 826d 8c3f ed32 27ad 5e54 a93f
000000a0: ea3b 1d04 6aff 6dbf 3a26 5700 6abc 91bf
000000b0: 003c 74d2 c099 443f 0a20 0472 632d 5cbf
000000c0: 19f6 4dc1 f4f0 a73f 1299 72ae 0462 8f3f
000000d0: 1f96 5988 fc3a 743f 05ba 4cb9 1c3c ac3f
000000e0: 2a37 4267 ce84 95bf ad70 6f02 64b0 a43f
000000f0: 5dd1 9762 d25f 663f 0aff d6eb 4b39 a73f
00000100: b7dd 4e26 2aa7 a73f 74f9 8dc4 ddb0 9ebf
00000110: e05e a6aa 013f a83f 6314 98d4 4f10 8bbf
00000120: f4ba b7e7 7a80 a33f c60b e1f5 9b2a ad3f
00000130: 054f acb7 998b a43f d9b6 8d91 79ec 93bf
00000140: 1786 5f68 ab1b b13f 202b 81a4 e239 91bf
00000150: 29b7 b1ea 97f4 74bf 9c2c e1b8 dc0b 8bbf
00000160: 2470 3c04 c32d af3f ffd9 a8d7 1564 a63f
00000170: 24f8 27ff 5536 92bf bb70 6447 6621 a73f
00000180: f79b 28e1 8570 673f cac2 65b2 f58a a33f
00000190: fc25 a62a e416 b13f 6695 61e4 4d9c 82bf
000001a0: 0c66 611b 94ad a93f 1390 3d3f 4a69 b53f
000001b0: 0466 9e5c d508 aa3f c00b 93c8 891a a03f
000001c0: b634 246d c846 943f 6f3f 95a2 0ee4 b13f
000001d0: b6e0 c49c 3ade 63bf 2c13 08d0 f1db 933f
000001e0: dfa4 3238 d089 7e3f b73f ca68 a43f b83f
000001f0: e55f 0411 fc55 643f 7f91 701e f162 ba3f
00000200: 2a57 2f46 a85d a23f 69fb 8873 8a8d a43f
00000210: 2a96 6d99 c4d8 ac3f e315 66d9 5852 a73f
00000220: edb8 dd53 1da4 903f 84f4 32ba ef84 ab3f
00000230: 4468 6756 4adc 9f3f ee26 fda3 a85e b63f
00000240: a06b 414c a0ab a23f 4376 e208 025a 7fbf
00000250: df3d b3f2 c081 53bf 6b37 d67c 1d65 873f
00000260: 8322 cbbd aa20 903f 3f7f 3433 ae19 ac3f
00000270: 0897 509d 91c1 8a3f 01b8 29eb 10aa a03f
