attack_soft_generative_decision_tree/experiments/vehicle_params_state_dict/fnn_epoch221.pth (torch, 121327 bytes, 8 tensors)

layer1.weight f8 [80, 18]
0	0xbfd3bbd816e6810c	-0.30834009395950157
1	0x3fc3d9f0f5030601	0.1550885387751322
2	0xbfc0c7f5d3952552	-0.13110230284864116
3	0x3fbf49b3cc8b581b	0.12221835845716138
4	0xbfc4062944087931	-0.15643802473000215
5	0x3fc8df189bbfaf20	0.19430835347099507
6	0x3f910ad9f603202f	0.016642957344430605
7	0xbfc7ec4974dd0925	-0.18689840513440817
8	0x3fc70f76b319cd1a	0.1801594137683445
9	0xbfc0cd342128db0a	-0.13126231783982006
10	0x3f99699b003d7822	0.024816915406852165
11	0x3fbab9da88d955db	0.10439840165175644
12	0x3fb87a58426c121c	0.09561683293947748
13	0x3fa7c7c55acf4167	0.04644600614085697
14	0x3faadf70967ae610	0.052485960358762296
15	0xbfc13312664f2bb6	-0.13437108989304897
16	0xbfb4076be72f0c65	-0.07823824304709744
17	0xbfd0cf222700bcbb	-0.2626424198997019
18	0xbfc82aa1b0fefd29	-0.18880101339707636
19	0xbfb4465e442daf68	-0.07919873394501808
20	0x3fd77dd93d78093d	0.36705618861028083
21	0x3f8ce103cf26b2d5	0.014101056823017025
22	0xbfb4226c8161e6ea	-0.07865026625395513
23	0x3f70d7c4ea1fbf77	0.0041120235418786654
24	0x3fafb0fafcc392a5	0.06189712844369425
25	0xbfc620ddc97ffdfc	-0.1728780015837258
26	0xbfb8b8f71891ff9c	-0.09657234525547981
27	0xbfc6af2d5de4ce1e	-0.17722098431259864
28	0xbfa92a6023d1e068	-0.049151424763238805
29	0x3fca0ba359f5a0de	0.20348016636422178
30	0x3fb55f8a3b913c69	0.08348907427101583
31	0xbfc160366c11db15	-0.13574867512553426
32	0xbf9d90312f4ce565	-0.028870361816392704
33	0xbfc3814870f5f883	-0.15238290324845502
34	0x3fc6cfc45ca9479f	0.1782155468413835
35	0x3fc15972b48baabf	0.13554223838521826
36	0x3fbf52fab813fa63	0.12235991472332723
37	0xbfc9e48ba189a4c0	-0.20228715312558698
38	0x3fc3ea1d75a43c55	0.15558212513176053
39	0x3fb164883a2ee277	0.0679402486847581
40	0xbfcd1ea2cbfb26fc	-0.2274974342347419
41	0xbfc61853cb22d6e1	-0.17261741083864648
42	0x3f91c292adf4ad47	0.017343799464623968
43	0x3fc056212616af3f	0.12762846336169706
44	0x3fd32f2f8f8d4731	0.29975499171006265
45	0x3fbbe28477413bfe	0.10892513190741224
46	0x3fa004ffafdd5b9b	0.03128813764367707
47	0xbfa7ac4583c45e18	-0.046236202559324535
48	0x3fb63f21080a1af3	0.08690077253605093
49	0x3fbef07e8648b2c2	0.12085715082566664
50	0x3fd078bc28f8fe54	0.25736907960160704
51	0x3fd53bcfce85260e	0.33177561920146637
52	0xbfb10089ebf611b0	-0.06641447077533402
53	0xbfc1743f4d28cc83	-0.13636008517787354
54	0xbfdc859664d3bfdb	-0.44565353247071265
55	0x3fc852f1bcd7ae68	0.1900312587816757
56	0x3fc61e0a822b1411	0.17279178005097198
57	0x3fd055728a51f2c5	0.2552152968199091
58	0xbfd43fd00b074456	-0.3163948161791884
59	0x3fd87497dfc0e88f	0.38211628771717526
60	0xbfb228c09ed47f70	-0.0709343326348042
61	0xbfc3712aef258d8f	-0.15189110447964224
62	0xbfb6230ba9a58b1a	-0.08647225276721962
63	0x3fd127b931c265a7	0.2680495248729024
64	0x3fb7549fcd351b09	0.0911350131983505
65	0xbfc52d29b93827a5	-0.16544076484597983
66	0x3fbc37e2535efd77	0.11022772345949315
67	0xbfd24f48c09d748b	-0.2860891228681985
68	0xbfcbaab130176387	-0.21614661071978622
69	0xbfc6109c06db345d	-0.1723818810918684
70	0x3f9c96eb8964280d	0.02791946435994679
71	0x3fcd2f4163a1bcc3	0.22800462117036177
72	0x3fceada9953fe106	0.2396747568852861
73	0xbfb298339cafbc54	-0.0726349122557946
74	0x3fc31610fdaa43b2	0.1491109121893977
75	0xbfd483569cd9fd21	-0.32051625554591295
76	0x3fd325921cc7e253	0.29916813669800496
77	0x3fc4100c6b776429	0.15673976180440377
78	0xbfd0f30ffe88d464	-0.26483535630115385
79	0xbfc459d220e487e6	-0.15899111372078706
80	0x3fb740d3f05256d3	0.09083294503428911
81	0x3fc3f9b52d5b3c88	0.15605797495524976
82	0xbfc09bcf42d39c3a	-0.1297549320508738
83	0x3fb707e9fa902907	0.08996450774444407
84	0x3fc33319074c60d2	0.14999688011517393
85	0x3fd6f2eec49ffdee	0.358577434555598
86	0x3fbb466f0b68e8c8	0.1065434840064966
87	0xbfc25e70d6222a7c	-0.14350710349784268
88	0xbfd7f1a4080327c2	-0.3741235807652822
89	0x3fb0e0fe9d093f6c	0.06593314489259477
90	0xbfd2f22f4e1515de	-0.2960317862055869
91	0x3fd0bad5f884bceb	0.261403553670745
92	0x3fd1646e27565360	0.2717547783043326
93	0xbfc19776b28f7c99	-0.13743480414175194
94	0x3fd8077742be6e62	0.3754556800647376
95	0x3fc47cae111d31a0	0.16005493007322702
96	0x3fc2a3c90ed3021b	0.14562333320465445
97	0x3fca2e70576704ec	0.20454220073410256
98	0xbfcb85ccf3a523db	-0.2150207700417742
99	0xbfccd99e43ea460c	-0.2253911811463215
100	0xbfc364f22b0f96b8	-0.1515181265123624
101	0x3fc4d03c02825511	0.16260480997576868
102	0xbfc65df8708ded10	-0.1747427510816597
103	0xbfc7aa0648e61d1b	-0.18487623748317436
104	0xbfc04f13f4402521	-0.1274132673864097
105	0x3fb3916f5d6b387d	0.07643791228039905
106	0xbfd6e4aba827d29e	-0.3577069418090931
107	0x3fd31aa117a67f96	0.29850032147987215
108	0xbfc2f833ed7dace0	-0.1481995496390942
109	0x3f86635e845b1c44	0.010931719221288223
110	0xbf951af8a509af90	-0.02061069972334867
111	0xbfcc98b59bcc224c	-0.22341032130522576
112	0xbfcf3bcc97dd7c4b	-0.24401242652217756
113	0x3fc327cef4f1ee33	0.14965235672194552
114	0x3fb6aebe95c2eaa5	0.08860388904842383
115	0x3fb92a2f02c094b5	0.09829992119974203
116	0xbfba3358d497d6cf	-0.10234599294912104
117	0x3fd0720f48115a00	0.2569616512095365
118	0xbf95850698f7c901	-0.021015265547199572
119	0x3fbac319b862a885	0.1045394969138745
120	0xbfd2f97634c4a778	-0.2964759364427816
121	0x3fcbe9e3cf3ccc70	0.21807525271433148
122	0x3fbab99d1c071cec	0.10439474043151947
123	0x3fc5e031a1fdbada	0.17090435418818722
124	0xbfbcfc090bdf6353	-0.11322075404986025
125	0x3fd2611995092dff	0.2871765094211866
126	0x3fd2df01871ab950	0.2948612040880976
127	0xbfb82d1acede4b60	-0.09443824339386486
128	0x3fd0020dd9c6e910	0.25012537257465883
129	0xbfc2eccda17a1974	-0.14785166153542273
130	0x3fbafc5ce0929182	0.10541325075843669
131	0x3fc4e0a1b3a99c20	0.16310521385750665
132	0xbfbb857e92759e25	-0.1075057132308009
133	0x3fd2c7d5f279d87d	0.2934470050744336
134	0xbf741db53a65e3b2	-0.00491114418252263
135	0x3fc71d9d7db04876	0.1805912841524024
136	0xbfd20d65805d9819	-0.2820676568575223
137	0x3fa7430a73c3d3df	0.04543335593363173
138	0xbfc2c144f38a23f1	-0.14652311221678319
139	0xbfbc0598a7459dae	-0.10946039279735117
140	0x3fb704f925c801ea	0.08991963550943863
141	0xbfd0e6700eb9d09a	-0.2640648025328659
142	0xbf9c78f6fb9ebde4	-0.027805194003745273
143	0xbf92015c46a2230e	-0.017583314715497393
144	0x3fbd8dd6f8276333	0.11544555242961678
145	0xbfd0785355ac61a4	-0.2573440872816042
146	0xbfa8f755c2f0931f	-0.04876201634059484
147	0x3fa8ddf5acb48d2e	0.0485684178659319
148	0xbfc3248c8f0e4bbc	-0.14955288872860517
149	0xbfbbdf51c5e8af47	-0.10887633401642659
150	0xbfb60ee86e12ac79	-0.08616497695281734
151	0xbfa306ece2329c13	-0.03716221104814834
152	0x3fcc8b20fe8b9e04	0.2229958765885699
153	0xbfd2fd12477c2ace	-0.2966962526412943
154	0xbfb554f0ad2cd071	-0.08332733371645575
155	0xbfc3aee8d2cdba23	-0.15377531331201152
156	0x3fd272b7087fcb03	0.28825164632796446
157	0xbfd725e916bfff0b	-0.36168887349775564
158	0x3fc670dc3afc14b2	0.17531922226058821
159	0x3fa0309db1b1951c	0.031620910588381984
160	0xbfcb0334b6dda24d	-0.2110353367709358
161	0xbfb3239bd2687563	-0.07476209532656734
162	0xbfc7a236e6766cea	-0.18463789227539645
163	0x3fbbf35f27763a36	0.10918230737136345
164	0xbfb5b78f56ffd5da	-0.08483215211875664
165	0x3fd6db71211f12fa	0.35714367136488046
166	0xbfc9fb1b38d4a8d1	-0.20297565722405023
167	0x3fd779356da34c92	0.3667729921991817
168	0x3fa4c2dd497f7c7c	0.040549197408602716
169	0xbf9e80d11d395350	-0.029788272293745977
170	0xbfb0ad7804041569	-0.06514692400022216
171	0xbfa4f647a12b69d3	-0.04094146578218596
172	0x3fcd71b613267177	0.23003269133631551
173	0x3fad41baca96df81	0.057142102460999496
174	0xbfc29ec47949b288	-0.14547019884357248
175	0xbfd951dc351bbacf	-0.39562134920462894
176	0xbf88b39f3538e92c	-0.012061351596561375
177	0x3fbdc3dc0693bf03	0.11626982842039628
178	0x3fc1b15a46b6e225	0.1382248730931376
179	0xbfb28552017afe1f	-0.0723468068708759
180	0x3f969fd9f571b147	0.022094159703941043
181	0x3fd7239ff4589dde	0.3615493665879209
182	0x3fa3f782f476b792	0.03899773821045395
183	0xbfb0b0af16cda722	-0.06519598299715004
184	0x3fd0198fe5ae43e6	0.2515601866699043
185	0xbfcb1f9fca3286ab	-0.21190259335439995
186	0xbfba94f3d4d6a3de	-0.10383533426524091
187	0x3f8b9175a2d34053	0.013461035758524675
188	0xbfb81d88c99da10e	-0.09420065805682418
189	0x3fcc62e8a5abb7f2	0.22176845635789239
190	0x3fa5d7dd6ad169ae	0.042662543572720465
191	0xbfb83499b81ce2ae	-0.09455261940901025
192	0x3f99e4a831e3b4b6	0.02528631977559278
193	0x3fc3360e72c4b07a	0.15008717159196633
194	0xbfc03b68260cab8f	-0.12681295259366407
195	0xbfa24169812e0bed	-0.035655304926898036
196	0x3fb355c72c0fe692	0.0755276186536327
197	0xbfd2646a8974050a	-0.28737891600765464
198	0xbfac7b6bd1b495ed	-0.05562912878876234
199	0xbf9a9cf3a65d6bb5	-0.02598934843932073
200	0xbfad041a9a17f36a	-0.05667193537735822
201	0xbfc6a000109a49bf	-0.17675782023122896
202	0x3fc1ca318e0a3852	0.13898295817893086
203	0x3fbe62312c25c6d5	0.11868579223462501
204	0x3fc578898a196ebf	0.16774100535518774
205	0xbfcd628fd12af2ab	-0.22957036698598662
206	0x3fc640b1825f014d	0.17384928575303107
207	0x3fd78eb2de9d7f52	0.36808463802116365
208	0x3f9d716f15b80c29	0.028753028584116578
209	0xbfccaf9b11327507	-0.22410906161977825
210	0x3fa04b1defe4294a	0.03182309678421065
211	0xbfc9e114c27a9331	-0.20218142982516832
212	0xbfc716fa40d16aae	-0.18038871922438687
213	0x3fb539d8b11bc2e4	0.08291391681610666
214	0x3fd765e0f7b8e1c2	0.365593187252241
215	0xbfd26f62895e81d9	-0.28804839529950993
216	0xbfc518ea28b03452	-0.16482283579572027
217	0x3fd4f601765a320e	0.3275149970802723
218	0x3fd299252732a9ed	0.2905972368995709
219	0x3fad4eb9b4b79d8b	0.05724125224133577
220	0xbfddddfca953ca16	-0.46667400871152276
221	0xbfbf27b529bd4619	-0.12169964093234177
222	0xbfb2d991bdd4e97f	-0.073632344098689
223	0xbfa498b8b01fb965	-0.04022767209959247
224	0xbfaae8f8a234e632	-0.052558679390540056
225	0xbf774a44e343b73f	-0.005686062901288313
226	0x3fb2b9a829948577	0.07314539923802053
227	0xbf9059dde4e1d97e	-0.015967814535963402
228	0x3fc5de8e1ebf0120	0.1708543443801398
229	0xbf8b829a420d31b7	-0.013432698384030368
230	0x3fbda5f6cfe623cf	0.11581366134318148
231	0xbfbea79dd2c0e9d8	-0.11974512477255617
232	0x3fcec50e3a72bffa	0.24038865903776224
233	0xbfc9191ccd018d89	-0.19607887277662098
234	0xbfba38d997494b32	-0.10242996161950371
235	0x3fadc114151ed93e	0.05811369664972908
236	0xbfb03d34198e5ab6	-0.06343389152457743
237	0xbfd187d65b8d703f	-0.27391585293458215
238	0x3fcf9e8d2b3832ce	0.2470261059792364
239	0x3fb54114f800f546	0.08302432112482902
240	0xbfd24ca0b45ab881	-0.28592698681575973
241	0xbfbdf460ec285ab0	-0.11701017156188231
242	0xbfa032ee1e4cc32e	-0.031638566206657934
243	0x3fd436ccc5f02f94	0.31584472017197496
244	0x3fc8f863cecb658e	0.19508025739086715
245	0x3fa6322208ceb428	0.04335123403084423
246	0xbfc6c127425a8671	-0.17776957263872675
247	0xbfc164bfb541c66e	-0.13588711119114144
248	0xbf89460388d07c7a	-0.012340571987861749
249	0x3f94f4f2600d1c5d	0.020465647804737908
250	0xbfd2a1caf51a77c4	-0.2911250489795487
251	0x3fd9506e900185ae	0.3955341726596896
252	0xbfd15342cdf1d3c2	-0.27070684539586065
253	0xbfc5df9b0bf71b17	-0.1708864029335124
254	0x3fc93da241fb9532	0.19719341489614234
255	0xbfaaf7eedbfc8569	-0.05267282901173582

layer1.bias f8 [80]
0	0xbfbbb8b17e730be2	-0.10828694665092045
1	0xbfc510cad52cfed9	-0.1645749607941898
2	0xbfc364967efe119d	-0.15150719834140328
3	0x3f94c179beb5829c	0.020269300713496294
4	0x3f6024a52ab57495	0.001970598784892428
5	0xbfa91771fedc77ab	-0.049006998406397294
6	0xbf22d4dbf9e9d45d	-0.00014367280251162659
7	0xbf755d1819226e14	-0.0052157346091479435
8	0x3fa5031b6b99aef5	0.041039330372624784
9	0x3fa91c985a8a31fc	0.04904628854010082
10	0x3fa68ce5b66e78db	0.044043711204027246
11	0xbf9a65b67f221e35	-0.025778628835295875
12	0xbf94fc411725e3a6	-0.02049352363380632
13	0x3fa746013e262b28	0.0454559696546169
14	0x3f668fc3dc184571	0.0027540994058276526
15	0xbf9e045dc0320e0e	-0.02931353078430559
16	0xbfa261a4024732dc	-0.03590118911561088
17	0x3faed9d58979d41a	0.06025569251225012
18	0xbfc547290ac38a46	-0.16623414064004488
19	0xbf826c6f0e6a5d6b	-0.008995883586335926
20	0x3fbf217cf02735ea	0.12160473693003096
21	0xbfaac7b3301f9c15	-0.05230483972973602
22	0x3fb8156dfbec4fbb	0.09407699013200858
23	0xbfc3da021de06dfa	-0.1550905843622415
24	0xbfb7957b9f622d1f	-0.092124678050983
25	0xbfbedb317433b7e4	-0.1205321224876737
26	0x3fbed373b8d32fec	0.12041400205924874
27	0x3fc32160154f2ebb	0.1494560340928411
28	0x3f7e9f2ba38d8c7a	0.007476015533799724
29	0x3f96db2e7b4f6556	0.02232048633218161
30	0x3fa4a4b79031048f	0.04031919131421901
31	0x3f849141e95d6944	0.010042681631308732
32	0xbf94d8e3e30e9934	-0.020358620389424334
33	0xbfb8e2f040718b2e	-0.09721280644729965
34	0xbf8c8214c758d201	-0.013919985135637527
35	0x3fbee69254504371	0.12070574339328545
36	0xbfb2faab9709f2a4	-0.07413742482635627
37	0x3fafaf0d5492eea1	0.06188241631886383
38	0x3f920ca74d80bedc	0.01762639437237011
39	0x3f593e97c1c31e4e	0.0015408021927657725
40	0x3fb592772c7eee35	0.0842661365158442
41	0x3f867c0a5a960311	0.010978775872673848
42	0xbf83770e84113ea1	-0.009504426389099154
43	0x3faad0c7aa039728	0.05237411451689261
44	0x3f8b2c34341b27e1	0.013267906036521228
45	0xbfbf9eda44ff2de2	-0.12351764854900396
46	0x3fba458be40fce7b	0.10262369459069902
47	0x3fb071b9d8be312d	0.06423532048774368
48	0xbfac00eb018810cb	-0.0546945037240519
49	0xbfa3be53e33651a4	-0.03856146000467511
50	0xbfb296c241c6578c	-0.07261289697484424
51	0xbf9a376852d7b4ee	-0.025601987892447768
52	0xbfa9b1d47cad485a	-0.05018486043867716
53	0x3f81015e9a9ef356	0.008303393453269397
54	0xbfae56484178b18c	-0.0592520313187804
55	0x3fa5925ab4c122ba	0.04213221985316325
56	0x3fb13ea64a4646aa	0.06736220658629102
57	0xbfc03bd89d8d654d	-0.12682635968193737
58	0xbfa9b9bc244a9dbb	-0.05024517004977321
59	0xbfd07a742fe1da46	-0.25747399021148387
60	0x3fb77a3090c903ba	0.09170821699900858
61	0x3fb1bc66f7251782	0.06928103956042089
62	0x3f76d9732e0126f1	0.00557847015449807
63	0xbfb66e0ae3f58079	-0.08761661591916149
64	0x3f9b494aa87bd122	0.026646772893358713
65	0x3f406c5476100e8f	0.0005011951835744588
66	0xbfac25230af86b47	-0.05497083195606094
67	0xbf8bbfa43551687c	-0.013549120785843131
68	0x3faf58b1e185b8ad	0.06122356298406948
69	0x3faa19127691eef4	0.050972535108455036
70	0x3faf47b40a025367	0.0610939275949594
71	0xbfa17766828b3a32	-0.03411407798340739
72	0xbfb602ceba29f374	-0.08598033947960265
73	0x3fa3533844df5913	0.03774429169395623
74	0x3f888ed59d2bc80a	0.01199118505380527
75	0xbfbcce6e7075cfbc	-0.11252489324198128
76	0xbfad7462dabbcb98	-0.05752858085715856
77	0x3fb66cf474619fb9	0.0876000198492183
78	0xbfa1ea3913b05fc1	-0.03499010434478534
79	0xbfa60339353c185b	-0.04299334311331001

layer2.weight f8 [80, 80]
0	0xbfb60866e8539e0a	-0.08606570407902595
1	0xbfb59decbbe4a882	-0.08444099032627331
2	0x3fc5fd741076bade	0.171797283209762
3	0xbfc89b594ae8c4b4	-0.19224086911848348
4	0xbf6c5df5247a5d56	-0.0034627712191867372
5	0x3fa5611e4b4b5822	0.041756579104614625
6	0xbfd3049e0056fb1e	-0.2971568110769328
7	0xbf91d7d445d9219f	-0.017424885523981023
8	0x3fbdf7752d9eca6b	0.11705715526367448
9	0xbfd10660633153e0	-0.26601419150148153
10	0x3fa218eb3cc86008	0.035346366090550474
11	0x3f90ae8c2c2fe42c	0.01629084605881219
12	0xbfc133e7c56936af	-0.13439652575691727
13	0xbfc231f982f11087	-0.14215010541568437
14	0xbfa8328152fb698d	-0.04726032388653598
15	0x3fb17efdbefb4bca	0.0683439818633779
16	0x3fbf7b804b29ea5f	0.12297822794963896
17	0x3fc40391d6dfa103	0.15635893813965404
18	0xbf61cb405f1dec3d	-0.002172113156971216
19	0xbf8d9c21d8cece01	-0.0144579548158168
20	0x3fb9e252e96fc858	0.10110967826020223
21	0xbfcc0b19f0e9f122	-0.2190887857758606
22	0xbfb18f01d0149f6c	-0.06858836488811243
23	0x3fc38ef2805eafd1	0.15279990451870032
24	0x3fc0b8ef01ce4082	0.1306437262360341
25	0xbfc1b8fb4b14d2ca	-0.13845769086915133
26	0x3fcb46df1b29e7f0	0.21310032678940116
27	0xbfb548eb031305f2	-0.08314389061981567
28	0x3fbec6d3e2a61e31	0.12022136958523146
29	0xbf89c8f0ebd83a4d	-0.012590295979888167
30	0x3fcc6e1538df7501	0.22210946347232866
31	0xbfc24cb2cc053ad2	-0.14296565019545554
32	0xbf9028cfe61b45f3	-0.015780685824955353
33	0x3fc9213f1e58f13c	0.19632710439499046
34	0xbfbc2caa71d69659	-0.11005654601339056
35	0xbfc53c7f7116c4fe	-0.1659087469284159
36	0x3fb4addfdfd2a631	0.08077811445641526
37	0xbfd046032199769a	-0.25427320748517845
38	0xbfc82c1942fd0675	-0.18884578486363393
39	0x3fb3924e21b8f1dd	0.07645119021703502
40	0xbfc672e0d7f11c6b	-0.17538080734286451
41	0xbf6cbdd13cb5ac37	-0.003508480707457486
42	0x3fb6b3dc4fa13bba	0.08868195480429977
43	0x3fd03527e4441f81	0.25324437419521223
44	0x3fa42f2e2573df85	0.03942245680985849
45	0x3fa04901d5e56e6b	0.03180700050390047
46	0xbfdce6f0e5ca388d	-0.4515955204050293
47	0xbf30f1d79881a0e7	-0.0002585555416829824
48	0xbfd06a4245a1d87e	-0.2564855270387695
49	0xbfced7e727de36d3	-0.24096383520775663
50	0xbfa25727c51ac37f	-0.03582119256078097
51	0xbfbd86d8cd6670f4	-0.11533885016109818
52	0x3fc5702db035f5c6	0.16748591522256912
53	0x3fb9c16f391b955c	0.10060782570106624
54	0x3fb799b44e634842	0.09218909181370896
55	0x3fab2de97268cd68	0.05308465501402787
56	0x3fd3050806ffd1bd	0.2971820896484834
57	0x3fc80c0fa40239f2	0.18786807544934409
58	0xbfd5c8dcf50e48d3	-0.3403847115633997
59	0x3f8bd0f5d5a5c7c0	0.013582153875834169
60	0x3fd6b166ef5bfa67	0.3545777642720282
61	0x3fc631a2433bc813	0.17338970454108046
62	0x3fa359fe60f1b9d1	0.03779597218896281
63	0xbfc410467a63963b	-0.156746682892093
64	0x3fc04f1f50a52812	0.12741462171317203
65	0x3fb8e8ec2df9971e	0.09730411646304701
66	0xbfd0a5ba7696b3b1	-0.2601152570812771
67	0xbfccc9cbf75d48ee	-0.22490834787692598
68	0x3fb434dd1d72658a	0.07893163651387716
69	0x3fc1322857de5c1c	0.13434318819483415
70	0x3f6471efb258e988	0.0024957353187151123
71	0xbfd23ea8e430b45f	-0.2850744465275223
72	0x3fc1a53984fc49c6	0.13785475724632884
73	0x3fb74c156966b45e	0.09100469420691712
74	0x3fd255523a1ed474	0.28645759273360416
75	0xbfb9c70bda7203ff	-0.10069345553530694
76	0xbfa2e6a18686b311	-0.036915824576999275
77	0xbfae03ef6c9514c4	-0.05862377357929341
78	0x3f72c4096492aee8	0.00458148640715781
79	0xbfb7d66c3e11e0e5	-0.09311558261277104
80	0xbf49de80fce854e5	-0.000789463980086194
81	0x3fa2b263eab1a8a5	0.03651725997845404
82	0xbfbf8a6c15289a3b	-0.12320590511863198
83	0x3fc1b05d706eaeff	0.13819473256932466
84	0xbf357810952e51d9	-0.0003275909886551166
85	0xbfc0bfe42c4c2e72	-0.13085605776756243
86	0x3fdb453fc26f89cf	0.4261016272340869
87	0x3fbfc81650f17d63	0.12414683796077024
88	0xbfe73faf89a502c4	-0.7265241325731826
89	0x3fcab5b93b90c9b8	0.20867076309657562
90	0x3fc4b1e45e41f5fd	0.16167883493828575
91	0x3fc0e275b6b1be84	0.13191100521679655
92	0x3fb4fdf3d77641a6	0.08200000772763491
93	0x3fbbf8de37cc7ab5	0.1092661749102984
94	0x3fd576b68066522d	0.33537066020042766
95	0x3fab8eb75f060b5a	0.05382321391063867
96	0xbfbd4bff1dda9550	-0.1144408653149942
97	0x3fa38bee529ebf36	0.03817696341081815
98	0x3fc2d19c0dc1d027	0.14702177688343562
99	0x3fb1eee563c0abd0	0.07005151448599567
100	0x3fc9541dfb213352	0.1978795505732714
101	0xbfb3d62321fa584d	-0.07748622493304076
102	0x3fa2d4da944c720d	0.03678019581113654
103	0x3fba276d6000d0ff	0.10216411203220231
104	0xbfaf5410b162a4b8	-0.061188241628153006
105	0x3fc0c5fb0c1ee586	0.13104189006643824
106	0x3fc5f4b4e0b8b45c	0.17153035137872308
107	0xbfb2de2251be1364	-0.07370199676195238
108	0xbfda4f0f6caaac26	-0.41107545482617736
109	0x3fcd7b716932fb94	0.23032968174626645
110	0x3fc8d3d1e3370780	0.19396422953110104
111	0xbfcaf47b3d9b71e0	-0.21058598049320576
112	0x3fb06f5d90c87001	0.06419930252781116
113	0x3fc069636659a8bc	0.12821619508333082
114	0xbfcc5a9f4229c6dd	-0.2215155671179251
115	0xbfb53506d70099dd	-0.08284037350731617
116	0xbfa1e4eef4266817	-0.0349497483286571
117	0xbfc1000e38a08e08	-0.1328141952991333
118	0x3fc138aa23987f67	0.13454176652976033
119	0x3fc6b9f93e485ede	0.17755046406886427
120	0xbfd75d20c649f48d	-0.36505908359669875
121	0xbfc486f8c219c6f1	-0.16036900975773663
122	0xbfc142695a82b121	-0.1348392192788959
123	0x3fc0de6ec72fbbf4	0.13178810811902475
124	0xbfb12474aeae4af9	-0.06696252121609438
125	0x3fb00f855911df29	0.06273682999187415
126	0xbfca6420c55d49e5	-0.2061806644147303
127	0xbfc6a9365562535b	-0.1770389477648234
128	0x3fbd9ad9dd6ab370	0.11564408927615744
129	0xbfcd8eabf41b378d	-0.2309164945531247
130	0x3f78e862c68b9bfe	0.006080995409070587
131	0xbfc3010c139bfb76	-0.14846945722089416
132	0xbfbd0493fb0236fc	-0.11335110548153787
133	0x3fbee335dad2e317	0.12065445511224158
134	0x3fb9102b673c3d5e	0.09790297766106934
135	0xbfb2e425d29faac8	-0.07379375831775825
136	0xbfd491a1c8d50364	-0.32138867008693794
137	0xbfcbff5222a80c13	-0.21872927372177794
138	0xbfc1a90c2a04d534	-0.13797142078116453
139	0xbfc1cb79fad0c2a8	-0.13902210947846538
140	0x3f9b919422236d94	0.02692252596248819
141	0x3fa7b96034eb2445	0.04633618017175726
142	0xbf89eca94533d530	-0.012658426689521635
143	0x3fb3296161b37bd7	0.07485016474991767
144	0xbfcf74dd25d83624	-0.24575390193824476
145	0x3fcae483a0c6e669	0.21009869909703419
146	0x3fbfc3af36628351	0.12407965734247496
147	0x3fd09e695dc7f297	0.2596686759787103
148	0xbfb68659e9b9b421	-0.08798753696619645
149	0xbf98a26f1e1d2a0d	-0.02405713673878478
150	0x3fce4975428ee369	0.23661676168355975
151	0xbfdf7d94dbb4f4fd	-0.49203988509891855
152	0xbfd3ae036bf153e6	-0.30749593297269795
153	0x3fa50c1cb00316ca	0.04110803268990322
154	0xbfa83e6b466e8d8f	-0.04735121950877918
155	0xbf9b70cdf1fe0fad	-0.026797502417607855
156	0x3fc1cf65974d408f	0.1391417492654949
157	0xbfc1d16bc4540e80	-0.13920352064461738
158	0x3fb41ca1cacba58d	0.07856188965856443
159	0xbfae3b86b0f89903	-0.05904789839068949
160	0xbfb162e82ddead59	-0.06791545028561553
161	0xbf5dd11eaa478172	-0.0018198775734320186
162	0xbfaa4809dc0ad8d5	-0.051330860243454936
163	0x3fd004ca5aff84ad	0.25029238592658026
164	0x3fc7848fe672595a	0.18373297455100152
165	0x3fad4af693d639e5	0.057212548777090956
166	0x3fcc097155e20000	0.21903816884514526
167	0xbfb002b6bb3335b2	-0.06254140920937948
168	0x3fcd6b49943c141f	0.22983665216466506
169	0x3fbf9668d9835cda	0.123388817886155
170	0xbfc24a9587ce6602	-0.14290112620510348
171	0x3fcfed7845cd2c84	0.24943450363420905
172	0x3fce485aebb87035	0.23658310422695342
173	0x3fb4a541cdb9cc2b	0.08064662239648672
174	0xbf94493828395033	-0.019810559706755448
175	0x3fc1de369c8114b8	0.1395939125233434
176	0x3fc650c0aabb9d99	0.1743393739372834
177	0xbfaa4fa5c4721a7e	-0.051388912420454055
178	0x3fc105f7aee5f147	0.132994614028471
179	0x3f82367886269871	0.008892957300144584
180	0xbfb7237b49a03afb	-0.09038515613086055
181	0xbfc63ee0eee18301	-0.1737939039621992
182	0x3fa5831af3e187b2	0.04201587893545823
183	0xbfba598301b3fa50	-0.10292834083154756
184	0xbfbd0a243c81da54	-0.11343599774577601
185	0x3fbec83e9e0ec24d	0.12024299010114099
186	0x3fba40f37edd5bd0	0.10255357596666603
187	0x3fc4cd7d6eb6c685	0.1625210562320271
188	0xbfbd22558eb2e0ef	-0.11380514844757149
189	0x3fbf09a50975411c	0.12124091607006843
190	0x3f9819625c17a304	0.023534333105916808
191	0x3fc31efa2d2aaf11	0.1493828506985371
192	0xbfcd917ea13907dc	-0.2310026442738139
193	0x3fcb046a3145ae3a	0.21107222944134368
194	0x3fa207cc62fbc09b	0.0352157469586711
195	0xbfa868feff965828	-0.04767605657541224
196	0xbf9b75852ec2d6c4	-0.026815491656370552
197	0x3fb2c3bee9ec718d	0.07329934321427896
198	0xbfaf63562d9b294f	-0.06130475336756779
199	0xbfad9fc1c87d3ad4	-0.05785947391870186
200	0x3fc0f5f99566253f	0.13250655932305652
201	0xbfb95ee4c7622368	-0.09910421245343815
202	0xbfc71b32712cd7c4	-0.18051748777514665
203	0xbfc108c3b51db729	-0.13307997077520753
204	0x3fadb5c9f2990a66	0.058027563919058875
205	0xbfc9e48912092930	-0.2022868478837352
206	0x3fb6f17d59fc5cc6	0.08962233969610897
207	0xbfcac13e24601b22	-0.20902230049269926
208	0x3f9e34ed3c5c02bd	0.029498774346395907
209	0x3fbb9b0b7d0cf995	0.10783454707141112
210	0xbf9dbc3ed78e5cc0	-0.029038412004948055
211	0xbf98448c64908d2a	-0.023698991430262918
212	0x3fb2520f8b9e5ee8	0.07156464728029344
213	0xbf9963e0b1c6488f	-0.02479506573724471
214	0xbfc57d29b22df6ec	-0.16788216781781473
215	0x3fbbc62a191a4f38	0.10849249947414996
216	0x3fc258557c306257	0.14332073749462168
217	0x3fc075452bfdbd47	0.12857880256658857
218	0xbfcd91f4b0c44926	-0.23101671820820363
219	0x3fbf199ca524381e	0.12148455650114484
220	0xbfcdc66d8b1ec9ab	-0.2326180390642326
221	0x3fcb9930e6f707fe	0.2156125190504667
222	0x3fd19e31533d5b2f	0.2752803147208622
223	0x3fb5b5315227be99	0.0847960305761667
224	0x3fb9c6299d5dbb6e	0.10067997066447074
225	0xbf971b9739cb45c6	-0.022566187765567645
226	0x3fa0bf0b11664ba9	0.032707544206594115
227	0x3fc7e98530bfd1af	0.1868139732392939
228	0xbfcbd0fa0c74093e	-0.21731496437139158
229	0x3fcb29d4c6740f64	0.21221408548455678
230	0xbfc59267ae89a2d0	-0.16853042623849612
231	0xbfaa9cc67892aacf	-0.05197735044324291
232	0x3fb63ead6db98f66	0.08689388207272727
233	0x3fb90ecea7295275	0.09788219052399845
234	0xbfbe7a0d5ed90642	-0.11904986920947017
235	0xbfc5c55c2ff49733	-0.17008545247625192
236	0x3fd0ff9263c4f71d	0.26559886687378925
237	0xbfafba55da969d5a	-0.06196850102724723
238	0xbf97649c4fa4da8b	-0.02284473644359734
239	0x3f8ef3e6373e895c	0.015113638459130989
240	0x3fa1b849825f8750	0.0346091243407175
241	0xbfb46380face3a9c	-0.0796433079069438
242	0xbfc1420ca384e94c	-0.13482816681227872
243	0x3fd000fc2908040c	0.2500601196953205
244	0x3fc9b6b3122be272	0.2008880461433083
245	0x3fcde01cdf43932d	0.23340187932549253
246	0x3fcd30e4360c9f36	0.22805454863668623
247	0x3fcfaf29c60f5bc3	0.24753305598161832
248	0x3f99c6cdad241d46	0.02517243737477528
249	0xbfceaae53e0b2c18	-0.23959031609987913
250	0x3f5a20554bcb7a7d	0.0015946228951901058
251	0x3fad8a1b86fb9a8c	0.05769430182208621
252	0xbf838eb89885cc3f	-0.009549562601682491
253	0x3fcb7ca98055613f	0.21474188581738393
254	0x3fcf08ef5ff18527	0.24246017632234748
255	0xbfc2c4d2df7ab036	-0.1466315833289415

layer2.bias f8 [80]
0	0x3fb859c7198aa0fa	0.09511989949772107
1	0x3f69ab31aea210b8	0.0031333895067878446
2	0xbf9eb302ddd2fc0e	-0.029979748524734666
3	0xbfa09202b7a147a8	-0.03236397258355278
4	0x3f9c9da69c08cf5e	0.027945140145859575
5	0xbf99fe3132719f79	-0.02538372869858516
6	0x3f84029aae556624	0.009770592160452791
7	0x3f9444ea4e08bdaf	0.019794140827966874
8	0x3f97aa5646c8858c	0.023110721655148533
9	0x3fa11382460f9951	0.03335196595417023
10	0x3f98ad61edd34c52	0.024098901882848196
11	0x3f8edbf7360af641	0.01506798871684645
12	0x3f847a1e225ed96c	0.009998546050934386
13	0x3fa64b8e5121ae2a	0.04354519596457991
14	0xbf92bd4736652a15	-0.018300163931863695
15	0x3f88dd86a411295b	0.012141277200630787
16	0x3fa91bd143274c81	0.049040355155420386
17	0xbfa4801a24d2a5a2	-0.04003984164712483
18	0x3f6e9338de94c7f7	0.00373231036487542
19	0x3fc0920d761213c8	0.12945717110792843
20	0x3fa1b3f0db364deb	0.034575964698117044
21	0xbf78aacb82c614b1	-0.006022257770728221
22	0x3f63f2d7c29e8242	0.0024351324145331097
23	0xbf8c80e0d5ab7114	-0.013917690773660264
24	0xbf92642d16cdc172	-0.01796026660616818
25	0x3fb5914decad67d0	0.0842484190774535
26	0xbf958e5e044c06bb	-0.021050900470987993
27	0x3fb0fd1209511916	0.06636154868565244
28	0x3f03afece9446caa	3.7550370651306717e-05
29	0x3fb89b6625fc3b4f	0.09612120082259178
30	0xbf912c6dec0158ba	-0.016771047143571784
31	0x3f5e0e208acb1484	0.0018344228548568273
32	0x3fabd83fad81263f	0.05438422196364145
33	0x3fb38aae6be54d14	0.07633485922024291
34	0xbf7635fd3cdf1e28	-0.005422581873012734
35	0x3fa7ee6b24d69f11	0.04674086403548306
36	0x3fa554427fcb34a7	0.0416584759710557
37	0x3fa0bc7de4f8496d	0.03268807811777461
38	0x3f9868775a7f4f7c	0.023836007021443603
39	0x3f58b7d3a1c30327	0.0015086714475247094
40	0xbf92222cb7a88ab2	-0.01770849104844769
41	0x3fa9f38ab981b1ae	0.05068620218739582
42	0x3fbb401375946f7e	0.10644647236443736
43	0x3f8288c3fddca6fc	0.009049922165633266
44	0xbf8c9a645deb0b04	-0.013966354480890349
45	0x3fa31f77edf6763d	0.03734946040934204
46	0xbfa2540f41d6b8df	-0.035797573840101064
47	0x3f8248912f6e764c	0.008927473316187172
48	0xbf8f5e3f7f57ef27	-0.015316482614245409
49	0x3fb24f70c9851474	0.07152466697614718
50	0x3fb6ab1e583d09dd	0.08854856161364162
51	0x3fa382538eb2aba3	0.038103686494046295
52	0xbf7a6da11ca6ef8e	-0.006452206939169159
53	0x3f89c36e6645419d	0.012579786773728336
54	0xbf5f6e7cfe55bee3	-0.0019184322967155602
55	0x3fa8feba9a04d46f	0.04881842737305752
56	0xbf96b523157c529b	-0.022175357996348493
57	0x3f805b720eebdee0	0.007986918526042996
58	0x3fa4837dfb2d7bd7	0.040065705214821605
59	0x3f8493edf8d44eeb	0.010047778278511518
60	0x3fb900309bc52e2a	0.09765914729103345
61	0x3fa5282f00f3ee6e	0.041322201601329364
62	0x3faa410487319113	0.05127729559242957
63	0x3f5f12c4e6cf28b6	0.0018965647570774852
64	0x3fa5de0d45638605	0.0427097460940438
65	0x3fb96065476b4665	0.09912713044766404
66	0x3fb30de59d18f942	0.07443080029859053
67	0xbfaa1aa8446cbc75	-0.050984629013663
68	0x3fb8dba86b8f310f	0.09710171342812067
69	0x3f9613abf949523f	0.021559416856989918
70	0x3fa97f026127c872	0.04979712902049095
71	0x3f3f286d1c136dd5	0.00047543205080355133
72	0x3fad9504f8c0c282	0.05777755295310262
73	0x3faa1f3b1327bf59	0.05101952179745579
74	0xbf893d031f2d1a1b	-0.012323402775689598
75	0x3f91f953c2606bc9	0.017552670229729537
76	0xbfb1a4832afe51ff	-0.06891650962490557
77	0xbfa1dfe28fe3f534	-0.03491123205638261
78	0x3f9c117935d3b156	0.02741040602715946
79	0xbf8e3e5367594b85	-0.014767314521270123

layer3.weight f8 [80, 80]
0	0xbfc0b062f315ac37	-0.13038288945549123
1	0xbfca1835b8da536c	-0.2038638260461555
2	0x3f94405f3eba30e4	0.01977680988652332
3	0x3fa48a1d49c5a84f	0.04011622930086444
4	0xbfab15417c3fe948	-0.05289654390067483
5	0xbfb9ea9669fdc7c9	-0.10123577201537083
6	0x3fa31322a8c20ca0	0.03725536642107241
7	0xbfa6d33513c566df	-0.044580134070839376
8	0x3fbb9b8b1d680e28	0.10784215419703769
9	0xbfb019845bfd3029	-0.06288935895753468
10	0xbf9ba7b2f14a96d5	-0.027006908395057778
11	0x3fb715c00ec00af8	0.09017563209640034
12	0xbfcd568e1a77791f	-0.22920395176238004
13	0xbfb28f11900fd4ec	-0.07249555365691024
14	0xbfad18b0b7a6f4d6	-0.056828997057417105
15	0x3fbba9a318487a74	0.108057206562515
16	0x3f8e5fddb25607d9	0.014831287388691482
17	0x3fc6d1d8b3218716	0.1782790064490249
18	0x3fb6fb17bf824eca	0.0897688715506845
19	0xbf786396b8226197	-0.005954350230375736
20	0x3fc0fd1ad214aae2	0.13272414453361764
21	0x3f975427c326acd7	0.02278196457488665
22	0x3fc0a4b4422dbe3c	0.13002637130147032
23	0x3fc3dc30c5075dd4	0.15515718098207165
24	0xbfab00c32b2ebb8b	-0.05274019147997596
25	0xbfca8df56f91c52e	-0.20745723674512234
26	0xbfc913cd25fd5594	-0.19591678957901293
27	0x3f9687f5b2a7d387	0.022003020314474788
28	0x3fa79a5d7f174704	0.046099588169125766
29	0x3fa99fa3dcd894ba	0.050046082218878365
30	0xbfc5b9b20fd15188	-0.16972947857233245
31	0x3fca527a94136a60	0.20564205389276236
32	0xbfcc3eb0a288f643	-0.22066314636497183
33	0xbfd13d798dc6e235	-0.2693771252193387
34	0x3fc410a8fe3aab6a	0.15675842679533086
35	0xbfba4d890a311b6d	-0.10274559496711584
36	0xbfc6a1328ace1efc	-0.17679435517879216
37	0x3fbc287f473c05da	0.10999293793795265
38	0x3f94a0081250d347	0.020141721837904993
39	0xbfa53c8ff30404f2	-0.04147767869472742
40	0x3fc4f8ab2c5aad5b	0.16383876481755064
41	0xbfa6869edafd6916	-0.043995823127902664
42	0xbfc9cd74655ea12b	-0.20158247899713308
43	0x3fc0e8bcb626018c	0.13210257429092243
44	0x3fc1abb05cd15341	0.1380520299159347
45	0xbfaf40e7183cebf2	-0.061042043408143246
46	0x3fc4ceab8cecbe22	0.16255707150547588
47	0xbfb2435582a5f8ad	-0.07133993568092718
48	0x3fc4222a0e5144c6	0.15729261111349596
49	0xbfd48ee745917feb	-0.32122213166985486
50	0xbf7f44a0bb9dbbec	-0.00763380800513767
51	0xbfc0abca46064718	-0.13024261874357346
52	0x3fc542e9af03b7eb	0.1661045174182044
53	0x3f9aec3cd26ccf29	0.026291799872708275
54	0x3fc8a18c3260078f	0.19243004283640316
55	0xbf8d642709ae9ad9	-0.01435118196770928
56	0x3f9945de0aacdd72	0.024680585290494723
57	0x3fa1244c2e8e8240	0.03348005359953676
58	0x3fc938b23eaf133f	0.19704273281799975
59	0xbfc79a90e47220c2	-0.18440447954731637
60	0x3fae64180f998ad4	0.059357406524915085
61	0x3fc03a2a8c18fad0	0.12677509155942923
62	0x3fcdf1887a8acf5f	0.23393350585467496
63	0x3fb21256703a8200	0.07059231033282032
64	0x3fce31266ecab19f	0.23587494287256747
65	0xbfc35918388eef60	-0.15115645181310366
66	0xbfc7521b82bdabfe	-0.1821932209380463
67	0x3fb20724b971020c	0.07042150046709866
68	0xbfd2ee6ba1c2aef8	-0.2958020286266527
69	0x3fc4c0b364193808	0.16213076007483118
70	0x3fc4b0ad6915b056	0.16164176589097917
71	0x3fc4289944c16b01	0.15748897416309407
72	0xbfac8f880deeb149	-0.05578255815575745
73	0xbfdafef882ec9bf7	-0.4218121794278313
74	0x3fa4c806ca43c587	0.04058858126689829
75	0xbf8242adcadbc6a9	-0.008916242364168285
76	0x3f8020c6dad814d6	0.00787501674040884
77	0xbfb7905147718c9a	-0.09204586023547492
78	0xbfd00d586aa7ddd6	-0.2508145371970988
79	0xbfb5af2178a93a57	-0.0847035331328042
80	0xbfa064cc4bd162a3	-0.03201902795325864
81	0x3f7494e12bededc3	0.005024795128402318
82	0xbfb6694119d72ca6	-0.08754355316993898
83	0x3fd4ac85ae5847a7	0.32302991891730887
84	0x3fbc1757e82cfbe4	0.10973119181015495
85	0xbfc5d5b0c598a9ea	-0.17058381698855324
86	0x3fb58d96ae5abec9	0.08419172054959313
87	0xbfc461f5daebad2b	-0.15923951329691852
88	0xbfba1e48d52517e7	-0.10202460483296215
89	0xbfb546b29a70de5c	-0.08311001081971753
90	0xbfa2d8a89a37644f	-0.03680922396205998
91	0x3fb3501224849cc1	0.07544053451111933
92	0xbfd011806f69a663	-0.25106821899553305
93	0x3fbf0ed5468a8338	0.12132008526033367
94	0x3fbd2c802e197c60	0.1139602768466701
95	0x3fca1b60b257567b	0.20396050174774757
96	0x3fbb7148b94d36ab	0.10719732784238072
97	0x3fbf6b72cda184ee	0.12273328323637475
98	0xbf71ff3e8be61a38	-0.004393810579478123
99	0xbf87bf8f729b62be	-0.01159584110739453
100	0xbfba352bb6730f25	-0.10237382129986068
101	0x3fd5c47d66674f10	0.34011778831812567
102	0xbfc6a903bc20b423	-0.17703291593480328
103	0x3fc748bc34479c75	0.18190720131608243
104	0x3fac5da862c2f953	0.0554020519789328
105	0xbfadb78ae3d23633	-0.05804094344157953
106	0xbfd0b33b2c4bd1f1	-0.26093940091894213
107	0xbfc7bbe962e552b0	-0.1854221089257826
108	0xbfb3b7616a0f8b24	-0.07701691474316569
109	0xbfc89d8dfd7ed7d6	-0.19230818631848362
110	0xbfc354c74e861f43	-0.15102473577666772
111	0xbfb086e205eee889	-0.06455814976553333
112	0x3faca32d9101a3b4	0.055932449294068404
113	0xbfb9ae31229b6592	-0.10031420798204341
114	0xbfbad62671d0c026	-0.10483017233559674
115	0xbfb2f4f79fb3443c	-0.07405040406162383
116	0x3facb31175c8233d	0.05605368197217906
117	0x3fa104ce1ea1df6a	0.03323978542260771
118	0x3fd0112cfa77d363	0.2510483213402976
119	0xbfca688ca5290323	-0.20631559433425037
120	0xbf8019c8cf1c8284	-0.007861679859673794
121	0xbfc3e39290d79637	-0.15538246223802485
122	0xbfe08d89017b4b92	-0.5172772435129096
123	0x3fcf5bb6643fefe4	0.24498634238250283
124	0x3fd3d28f1401450f	0.3097264953003824
125	0xbf99a04055d42234	-0.02502537273270118
126	0x3fa6b9f5da403818	0.04438751496500987
127	0xbf86bd1e2e8244f3	-0.01110290126260558
128	0xbfa78e3661b89154	-0.04600686972506432
129	0xbfbe30149c0adfe7	-0.11792115029936633
130	0xbfc04f256ae8f4a8	-0.12741534919942876
131	0xbfccef5f618b1572	-0.2260550714765191
132	0x3fb16085162707d0	0.06787902632552734
133	0xbf960afe2604f573	-0.0215263090806181
134	0x3fd21d9b47c7f943	0.28305704126241354
135	0xbfb33d331685fa05	-0.07515258121382125
136	0x3fc2cc4d2e536d3f	0.146859786624967
137	0xbfb12057b447c45e	-0.06689975882888308
138	0x3fb48bca016aca1e	0.08025801214788728
139	0x3fb10e4c0c89ede0	0.06662440591929153
140	0xbfc283af4726f4c4	-0.14464369749285855
141	0xbf9d7c9035007214	-0.028795483813256764
142	0x3fc028883c975108	0.1262369438032993
143	0x3fc89e75718f94b6	0.19233577771152505
144	0x3fc7306a0cac77de	0.18116498583634572
145	0x3fca88785a28442b	0.2072897377225059
146	0xbfcacda81d93feab	-0.20940114444964783
147	0x3faae2b240ef6897	0.05251080553689851
148	0xbfd58c509e9fd0e7	-0.3366891430917022
149	0x3f9ee2eada5cfcc0	0.030162496164163555
150	0x3fb488d0fdfad6fa	0.08021265221290355
151	0xbfa1316333280c27	-0.033579921717340526
152	0xbfb8642389c9715e	-0.09527799714982652
153	0xbfda61fc4a98e97f	-0.4122305611123451
154	0x3f75c10a760f3206	0.0053110512389591465
155	0xbfd277f205d69f32	-0.2885708863272952
156	0x3fc79ba42d5ce8ba	0.1844372960566199
157	0xbfa1ab1d66e7bc36	-0.03450862771193679
158	0x3fc1cc5f908e616f	0.1390494781342215
159	0xbfbd20f60dd71a99	-0.11378419721504897
160	0x3f9d0ba9b7a8271d	0.0283648031563991
161	0xbfa4799be898c417	-0.03999030317607593
162	0x3fc1fb49a95fffe6	0.14048119325889202
163	0x3fc420d4790c5983	0.15725189123686442
164	0x3fa15a7e08b42047	0.03389352661366778
165	0x3fdb692849cd105a	0.42829329688198003
166	0x3fd4e644632392eb	0.3265543907312309
167	0x3f946706da6fe61c	0.019924265940039473
168	0xbfc0843113459f55	-0.12903417054189484
169	0x3fcb0e2a9aef5ae8	0.21136982503113377
170	0xbfae7cf394efaf75	-0.05954705422467913
171	0xbf8b38900ed181a1	-0.0132914785883152
172	0xbfc0d5e27a2ce703	-0.1315272423324175
173	0x3fb6575a05d30aa1	0.08727038042256165
174	0x3fc1ca3b3eb5346f	0.13898411332994295
175	0xbfbf86a3012e723a	-0.1231481435665466
176	0x3fd26aea18196598	0.28777553895414476
177	0x3fbf8b2100f74a56	0.12321668885787437
178	0x3fb113978226b058	0.06670519759671956
179	0xbfa2e21f26c94bf7	-0.036881421551377906
180	0x3fb13d244a6678d9	0.06733919922268984
181	0xbf8ab169f1cbf2e5	-0.013033702556179924
182	0x3fa76a2ede6f0a1f	0.045731987621838714
183	0x3fcc5a09aa5a0d55	0.22149773424107858
184	0x3fb518f99ebdd3f4	0.08241233945393828
185	0xbfc17d15994502b8	-0.1366297720324121
186	0xbfc57f3f3f328a36	-0.16794577203570932
187	0x3faf8a617f063899	0.061602637058159
188	0x3fb2ae012da320df	0.07296759952726316
189	0xbfc88d164dc6e470	-0.1918056373376973
190	0xbfa813073b8327be	-0.04702017404049695
191	0x3fb5fe5defa66fa7	0.08591258145173573
192	0xbf70906443dce640	-0.004043952618127344
193	0x3fa796f37a84544e	0.04607354040687338
194	0x3fbe116d098ab631	0.11745339854197635
195	0xbfc4a4bfd5614f77	-0.161277751149665
196	0x3fc38a1c97cc2b2b	0.15265233432759237
197	0xbfb91f1745c1cf1c	-0.09813065960935002
198	0xbfa01cdce1769610	-0.031470205805174456
199	0x3f92fcfe76dc69e0	0.01854322052450097
200	0x3fb96e7e70018f79	0.099342253060568
201	0x3fa4ab96025ce707	0.04037159708827969
202	0xbf97f2148a2441b0	-0.023384400302406128
203	0x3fc701a15612d0f0	0.17973725035483978
204	0x3fb4d8ceba427c27	0.08143322036129118
205	0x3f882ee8e2d1b8a1	0.011808223173116085
206	0x3fba53ed88aff72b	0.1028431376180065
207	0xbfc16f31a9773c72	-0.13620587134070977
208	0x3fc848030154af03	0.18969762387256858
209	0xbfb68b33e5eceb79	-0.08806156505026576
210	0xbf7b8caf599331ee	-0.00672596450858663
211	0xbfb133b2008ccc66	-0.06719505799701295
212	0xbfc26fac269207b7	-0.14403297313043392
213	0xbf9cfc6a76f67468	-0.02830664015856535
214	0xbfb3ac2758ec71cb	-0.0768456070040379
215	0x3fb9ea5e6e10628d	0.10123243510350673
216	0x3fbfded0bc18cbc1	0.12449364273270104
217	0x3fc8cb8004330d56	0.19371032910394587
218	0x3fc0259b3051a62c	0.12614765033076603
219	0x3f6c60c8e6d80676	0.003464119325827404
220	0x3fafae4ce98688ae	0.06187668181088789
221	0x3fa0c1d646b5e352	0.03272885907330782
222	0x3fc3c0b4bbd5d9c5	0.15431842013977196
223	0xbf7ee0c78fcb3868	-0.00753858522212001
224	0x3fc965d0f955eae1	0.19841968702879512
225	0xbfbd2337dbcbe579	-0.11381863704800378
226	0xbfbd2e506cb30224	-0.1139879479769737
227	0xbfb8fff1f79786c6	-0.09765541357730986
228	0xbfd43dbde585a14d	-0.3162684194017132
229	0xbfafd73d3833ae69	-0.06218901930864435
230	0x3fb4f4e536f7a2d7	0.08186180679298204
231	0x3fbef09645c91c2f	0.12085856631993928
232	0x3fb3dcc9127d9347	0.07758766843251151
233	0xbfc644541c469a88	-0.17396022205976558
234	0xbfcd4648728c40f3	-0.22870736687810442
235	0x3fb77a7624aafdd5	0.09171236415112756
236	0x3f8d18b224059b8b	0.014207259868909158
237	0xbfa6f6a1d14b280d	-0.04485040359357138
238	0x3fce10d7c89e9ed2	0.2348890046680397
239	0xbfb9bec3da64af18	-0.10056709367625805
240	0xbfb243cc2ee4a640	-0.07134700913288672
241	0xbfca2c7ac0240b36	-0.20448240644335564
242	0x3fbe5f2efcb05a7a	0.11863988560831187
243	0xbfb7c132e4ec7590	-0.09279172982174644
244	0x3fc901b80f3d1da2	0.19536495918349056
245	0xbfdd86d62ccc55e6	-0.4613547742349894
246	0xbfd7a0d6300cbfd7	-0.36919169132579327
247	0xbf90a8e7b3bb61cd	-0.016269321770637824
248	0x3fe2e52cd5c5ad76	0.5904754805791714
249	0xbfc4b53df3a14eb4	-0.16178106685639693
250	0xbfcd652bf0b13cd2	-0.22965001347117792
251	0x3fb991067b916412	0.09986916081233257
252	0xbfb81a217417519f	-0.0941487224984656
253	0xbf831f6da2fc4378	-0.009337288414401831
254	0xbfa2b3d3dc0d99b4	-0.0365282255286731
255	0xbfb61034571d433e	-0.08618476034940856

layer3.bias f8 [80]
0	0xbf3e62fe78a1e5a2	-0.0004636641757610143
1	0xbf9acb0be4ec26e2	-0.026165185782736418
2	0xbf537f3c05da7ceb	-0.00119000302894517
3	0x3f9d6168d3490a05	0.028691900153953415
4	0x3fa7920d0d7711a2	0.04603615559929898
5	0x3f9304c1e8bb8ec2	0.018572835759995916
6	0x3fc151363d976095	0.13529088981045292
7	0x3f836bdfb89410e2	0.009483096905122005
8	0xbf85752ba1054e25	-0.010477391101324571
9	0x3fb151913dc07e1a	0.06765086896529518
10	0x3fb3ec31be584a11	0.07782278916446496
11	0x3fa2d1d60e0216f9	0.036757172784787025
12	0x3fac52e498b4db5a	0.05531992305843998
13	0xbf7de7e090a41f37	-0.007301213461921744
14	0xbf75abf00a95e70e	-0.005290925656817226
15	0x3f8227cf4158cb37	0.008864993268706918
16	0x3f92a1d3284b1132	0.01819543775015226
17	0x3fa7ba8602402346	0.046344936156009583
18	0x3f75c7782d30d6fc	0.005317182006413065
19	0x3fa92d5850d3e4e9	0.04917407976786043
20	0xbf7b261b547fe45f	-0.006628138311492198
21	0xbf91bc6a0057263a	-0.01732030512883951
22	0x3f98552db0f643e9	0.02376243012037441
23	0xbf8cf22f96598d07	-0.014133807922184006
24	0x3fa96e8f59b40ec1	0.049671630573383314
25	0x3f9d8d3513a140eb	0.028858975718606777
26	0x3f82d308c61a53f6	0.009191578431719787
27	0x3fae684d3ec6c6c8	0.05938950911821689
28	0xbf9a3a1d52ce58c5	-0.025612314395026887
29	0x3fa8cfc2390484f2	0.048460072956240455
30	0x3f7a26b10e105115	0.006384555455060577
31	0x3faa6ceb828877a4	0.05161224335118611
32	0x3facd07937ab5860	0.056278026624270394
33	0xbfa4d2a9455d3d59	-0.040669717519103706
34	0x3faea3de730f33aa	0.05984397081883881
35	0xbf9ba78889d636bc	-0.027006276524437864
36	0x3fa40cda11777a1a	0.03916055167404782
37	0x3faee66ab3900e5e	0.06035169069221234
38	0x3faef3591e71919e	0.06045034882189103
39	0x3f913e4169998771	0.016839048452659214
40	0x3fb8c9add4573bc5	0.09682737764454348
41	0x3f82789d4a83baf8	0.009019116245750677
42	0xbf74f497eab1b729	-0.005116074967288311
43	0xbf8d262148d395b7	-0.014232883486736776
44	0x3fb457d2a29e4823	0.07946506948636105
45	0x3fa455686ca1e9d0	0.039714110623168986
46	0xbf4a932834629335	-0.0008109995185533238
47	0x3fac6a3eda26051a	0.05549808896013016
48	0x3f8149538fc86c1a	0.008440640283017987
49	0x3fa3f03ea9fee957	0.03894229722159775
50	0x3fb4d5cf9cf83dff	0.08138749677913636
51	0xbfa0463d9259706d	-0.03178589259616236
52	0x3fb171455c29e064	0.0681346273430577
53	0x3fbe2645d0313e92	0.11777149517842592
54	0x3fb065efa4e15a9f	0.06405542159459764
55	0x3faaed7e3d2f1eb8	0.052593178719289424
56	0x3f9ecd7b35786541	0.03008072389466077
57	0x3fb52af0daa9d619	0.08268647516691664
58	0x3fa2a7557962c2bc	0.0364329062152868
59	0x3f9617bffd538625	0.02157497390442677
60	0x3f86f30bb6fad3a2	0.01120576049957284
61	0x3fbda54fb00efd36	0.11580369995407555
62	0x3f74629cbf771e41	0.004976856514481266
63	0x3fc023386f06ecb8	0.12607484265558866
64	0x3fa542bd1727fa3d	0.041524800373725836
65	0x3faca6b782e4aa19	0.055959448555160836
66	0x3fb3eb4bca74ff58	0.07780908291624422
67	0x3fadd090d5a83002	0.05823185546987021
68	0x3f809df8f9de1c30	0.008113808751444379
69	0x3fb3aa3d4c5ea9b9	0.0768163978051807
70	0x3fa8188bbff32871	0.0470622703374638
71	0x3fbaa55568bf9d22	0.10408529097877708
72	0x3fa413491fdc0926	0.039209637774563696
73	0xbf8b7ce679033928	-0.01342182213593597
74	0xbf58d7bd0d85b878	-0.0015162798136674465
75	0x3f8cd906a7ef670a	0.014085819244360493
76	0x3f9b43eda1b0f142	0.02662631320366527
77	0x3fb230850b2be1c2	0.07105285189380253
78	0x3f6e861cdfbb9f92	0.0037260593361345207
79	0x3f9eb5fb40de0ea4	0.02999107917231804
