attack_soft_generative_decision_tree/experiments/vehicle_params_state_dict/fnn_epoch108.pth (torch, 121327 bytes, 8 tensors)

layer1.weight f8 [80, 18]
000000 f3 0f 60 6a fb 9e d1 bf 2e b2 e9 6f 37 ab c3 3f
       -0.27532849682052 0.15366261448379376
000010 34 8e e7 06 7e bb c1 bf f4 09 f8 03 66 44 bd 3f
       -0.1385343106950231 0.11432492825409907
000020 9e 22 25 d3 b3 fd c2 bf 00 aa 6f fb 25 45 c9 3f
       -0.1483673840505348 0.19742274071843724
000030 e0 cc 13 60 29 5c 86 3f 6a d4 b6 c9 f5 9e c6 bf
       0.01091797184424198 -0.17672607755017405
000040 0b 1d 6a 07 1c 9e c4 3f 3c 85 0b 43 4c 52 bd bf
       0.16107511865650567 -0.11453701626625884
000050 21 81 00 f5 e4 8c 97 3f 8b 86 02 de 98 12 b8 3f
       0.02299840684293131 0.09403376979983073
000060 e7 be f9 fb 4f da b9 3f 45 ac c9 85 74 7e a7 3f
       0.10098743345019622 0.045886651355282505
000070 ce 4a 30 4d 7b 63 a9 3f bd 07 0f e5 12 ff bf bf
       0.04958710973018797 -0.12498586742643077
000080 7a 26 68 8f 25 bc b3 bf e1 89 4c ed 04 2d cf bf
       -0.07708964110511288 -0.24356137835373118
000090 cc 51 6d 48 e5 7c c6 bf fe c9 b7 58 4b ea b1 bf
       -0.17568651234127086 -0.06998129764523495
0000a0 2e d9 73 9e 52 4d d5 3f e1 b0 89 ec cb 77 99 3f
       0.332844404925157 0.024871050178646995
0000b0 db b5 f1 9a f0 39 aa bf fc ff 79 39 a2 6a 97 bf
       -0.05122329608353101 -0.0228677127438459
0000c0 19 68 6b fd 6d d9 b4 3f 9d ab eb 84 4f e3 c8 bf
       0.08144271313668162 -0.19443696966422133
0000d0 90 de 09 2c eb 79 ae bf 88 cc 82 70 97 b8 c3 bf
       -0.059523915410804595 -0.15407078736970825
0000e0 75 71 39 d3 08 b8 a1 bf 30 55 a7 ab dd ea cb 3f
       -0.034607196602084146 0.21810503846669738
0000f0 cb 70 66 4f 87 7e b8 3f fe 15 86 20 08 e2 c0 bf
       0.09568067253570971 -0.13189794147562844
000100 34 1d e3 21 28 90 7c bf 0f 54 43 9c 93 bb c3 bf
       -0.0069734161062975815 -0.15416188364056935
000110 85 22 0f 96 28 5d c4 3f 62 24 73 16 33 e9 b5 3f
       0.15909297301393024 0.08558959291544135
000120 ca 35 d5 a5 25 3d bc 3f f0 a3 2c 1a 3f c3 c5 bf
       0.11030803011563886 -0.17002095010801055
000130 53 15 87 f1 fd ca c4 3f 42 2b 18 19 76 a9 b6 3f
       0.16244482320159168 0.08852327454239364
000140 4f 56 e7 f9 45 18 cd bf 2e 87 87 af f4 b2 c8 bf
       -0.22730326368643936 -0.19296129771014975
000150 cb fa 92 33 77 ff 8e 3f 65 9f ae 66 55 9c be 3f
       0.015135699521463227 0.11957296139609992
000160 d6 f7 fc b0 08 f3 d1 3f 33 1d 7a 9b d1 00 bf 3f
       0.28045861515044856 0.12110624357056991
000170 7f 90 f0 f8 83 fc a3 3f e8 62 1d 35 82 61 a9 bf
       0.03903591550650364 -0.04957205675481707
000180 64 17 a2 73 93 38 b6 3f 66 16 25 2a 21 09 c0 3f
       0.08680078099322724 0.125278611734916
000190 10 a7 a6 fd 71 c8 cb 3f c4 d8 d3 9c f4 cd d3 3f
       0.21705460439016422 0.3094455272215664
0001a0 eb 43 ad 75 b3 74 b1 bf 7f 9e 32 b8 4b f9 c2 bf
       -0.06818696616143398 -0.14823290342359383
0001b0 aa fd 19 61 3e 86 d8 bf cf 65 e8 20 db 95 c8 3f
       -0.3831935833222483 0.19207324129892675
0001c0 b8 e0 1e 27 4c 8b c6 3f a8 93 5c d7 db 68 d0 3f
       0.17612602148233747 0.25640007048996916
0001d0 91 02 c2 bd 4f 21 d2 bf a3 3a da 98 7f 3a d8 3f
       -0.28328317194977 0.3785704605769899
0001e0 b2 3b 92 be f0 31 a2 bf 10 89 c2 00 b8 38 c4 bf
       -0.0355372650748146 -0.15798091923813518
0001f0 af 16 f0 77 4c 44 99 bf 35 e1 49 93 af b1 d2 3f
       -0.02467460138361471 0.2920950830807841
000200 4b d0 82 83 d3 a8 b5 3f f2 29 ae 47 ca 18 c0 bf
       0.08460733376233624 -0.12575653553024285
000210 59 b9 1f df 4b 62 c3 3f ba 63 26 b2 56 05 d3 bf
       0.15143726725313902 -0.2972008456941314
000220 1e 09 69 9e 58 2a d0 bf 6e 60 54 0c 5e 67 c2 bf
       -0.25258460492854506 -0.1437795219615085
000230 8d ae 96 f2 65 26 a4 3f 06 ed 06 93 5e 9c d0 3f
       0.039355455267778706 0.2595440326510502
000240 e5 81 a4 af d5 c6 cd 3f f3 d8 c5 3c 62 af af bf
       0.2326304538373868 -0.06188494674545266
000250 97 08 95 4c 70 e7 c1 3f e6 cb 87 d3 98 45 d3 bf
       0.13987544764865298 -0.3011228624083614
000260 7d 71 39 a8 41 1f d3 3f 55 07 a0 89 0e 73 c2 3f
       0.2987827437225617 0.14413625450111547
000270 1f 7a ce b0 39 7a d0 bf 1b 1e 23 ad 51 37 c5 bf
       -0.257460043585441 -0.16575070337260986
000280 18 1e d9 a7 9b 8f bc 3f d3 af f7 e0 b9 14 c3 3f
       0.11156628463606244 0.14907001003973494
000290 98 f2 9a 14 14 9f c0 bf 4e eb 14 0a 12 6d ba 3f
       -0.12985468870273986 0.10322678323875076
0002a0 3c 6d ff 43 52 be c2 3f 55 18 1a a4 18 75 d7 3f
       0.14643314666941787 0.3665219881589839
0002b0 12 1b fa 15 27 e9 b5 3f ff 64 40 87 4c 67 c3 bf
       0.0855888775496221 -0.1515899334342876
0002c0 21 81 97 41 c5 14 d7 bf ee 57 3f ae 4b 1e 94 3f
       -0.3606427326722202 0.019646818647593926
0002d0 a0 97 25 c5 c9 c6 d2 bf f6 d2 57 f6 99 d9 cd 3f
       -0.29338306667920655 0.233203168186854
0002e0 2d 49 44 73 1a 93 d0 3f e4 79 03 75 02 7a c3 bf
       0.25897847420232517 -0.15216093743852277
0002f0 c8 b4 dc a0 b6 58 d5 3f b8 a5 5e 64 f0 c5 c5 3f
       0.3335396357459328 0.17010311985840842
000300 48 89 51 c6 d5 ad c0 3f 92 84 45 48 1d fc ca 3f
       0.1303050249435478 0.2108189204109619
000310 27 4b 85 0e fe 53 cd bf 02 20 0f 76 ca 31 cf bf
       -0.2291257449056385 -0.24370699658015843
000320 21 da 5b e9 6c b0 c3 bf e3 b0 5c e3 23 ce c2 3f
       -0.15382157701942936 0.14691589929260038
000330 c7 4a ff 81 c3 29 ca bf 2d e0 5b 94 39 9f c9 bf
       -0.2043995270492671 -0.20017165893637082
000340 0f be 8b 38 31 5c bd bf b3 df 72 df c2 08 c0 3f
       -0.11468799238695503 0.1252673712785942
000350 ff 2c e2 dd b6 0a d5 bf 72 f4 f1 d1 e2 26 d2 3f
       -0.3287789503890081 0.2836234140630217
000360 95 3c 4d 6b e4 1b c0 bf 27 6f 7e db f8 7a 47 bf
       -0.12585120429364297 -0.000716563713456496
000370 3c 00 93 16 2b 70 a6 bf c7 0c d7 fe f8 dd cc bf
       -0.04382452631534803 -0.22552406733857408
000380 e3 e1 67 ae 97 07 d0 bf e5 62 dd fe 02 86 c1 3f
       -0.2504634097272442 0.13690221256799542
000390 ed 07 ad 9e 64 04 b6 3f 27 d0 7e b8 1d 51 b9 3f
       0.08600453256533998 0.09889398340493526
0003a0 6f 00 f6 3a 0c 72 b9 bf d3 1e 8d 2c e3 b4 cf 3f
       -0.09939648093677687 0.2477077453170212
0003b0 52 d8 49 47 46 0e 9f bf c1 8b f4 d0 57 ad b9 3f
       -0.030327890492536654 0.10030125476309505
0003c0 c8 21 af ad 03 71 d1 bf 35 0d cd 6a 78 eb c8 3f
       -0.27252284966791906 0.19468598570720422
0003d0 17 79 56 a2 ca 62 b8 3f 9c 4b 10 31 2d d5 c3 3f
       0.09525743926358064 0.15494313140569893
0003e0 7a d3 78 6a a6 e2 ba bf 58 b0 c6 e7 1c 4c d1 3f
       -0.10502090548909662 0.2702705634535554
0003f0 68 81 16 b7 33 55 d1 3f f5 d5 92 11 cb 1c b9 bf
       0.27082531814268984 -0.0980955999283067
000400 ed 86 5c ec b8 eb cd 3f 5e 26 da b0 27 66 c3 bf
       0.23375617543302188 -0.15155502448424135
000410 74 2b cf 1b 8f b9 b6 3f 79 17 94 62 c2 fb c5 3f
       0.08876890591561254 0.17174558461573122
000420 14 b9 05 5c ba 48 bc bf d2 33 59 2a 33 39 d2 3f
       -0.11048474070205244 0.28474120269384884
000430 a0 b8 6b e8 44 08 68 bf 9b c6 0f cc bb 08 c5 3f
       -0.0029336305482195596 0.16432902778574462
000440 52 e2 c7 dc 76 d3 d1 bf 2b 36 88 06 fa a4 a3 3f
       -0.2785317569792244 0.038368047044155716
000450 3d 2f 6a 8a ae ab c3 bf f8 1e 8d 11 36 ac be bf
       -0.153676812730163 -0.11981523445603759
000460 bc f6 70 0b 51 59 bc 3f 7f 63 be 93 0a 31 ce bf
       0.11073786286666637 -0.2358716222195447
000470 29 3f 37 91 26 da aa bf 1c d7 19 29 6a ff a6 bf
       -0.0524456074014082 -0.044917409436420835
000480 59 a6 16 21 f9 ba be 3f 46 80 d5 43 a7 2d d0 bf
       0.12004048402618518 -0.2527864611092848
000490 53 4f f8 dc 67 d8 ad bf 43 33 9b b6 31 d2 9d 3f
       -0.058291669582244986 0.029122139711762484
0004a0 0f 02 66 0e 68 dd c3 bf e3 9a 92 33 2c 60 b8 bf
       -0.15519428923654785 -0.09521747836206944
0004b0 ab d4 da 2b fa 92 b6 bf c4 2a 98 3c d4 0e 98 bf
       -0.08818019457506192 -0.023494068334950283
0004c0 2a ad 53 f0 5d 6b cb 3f c1 b8 40 28 1a 31 d1 bf
       0.2142140792342187 -0.2686219590276658
0004d0 a8 09 61 d5 89 ed b4 bf e5 39 00 7e 72 01 c3 bf
       -0.08174954852532912 -0.14848166611086736
0004e0 02 fc b4 d9 d8 05 d2 3f 4c 26 bd 41 ab a3 d6 bf
       0.28160687694975206 -0.35373956126986594
0004f0 1e 90 78 70 a8 27 ca 3f 65 c9 cb d5 ea 25 62 bf
       0.20433526508088645 -0.002215346014389374
000500 3d 4c 31 ab e3 8f c8 bf fc c4 d0 5a ed 83 b0 bf
       -0.19189115389835534 -0.06451304881263192
000510 54 35 cf 63 26 9d c5 bf bd a4 e4 63 d1 0a b8 3f
       -0.1688583361960051 0.09391506851956684
000520 3d 6f 81 e2 19 03 b4 bf b9 0d 16 b5 7e ba d5 3f
       -0.07817231922075236 0.33950774845308335
000530 f5 19 60 c6 b3 21 c7 bf 60 65 f2 4f dc 02 d5 3f
       -0.1807160109166969 0.32829959685621724
000540 59 21 cc 94 62 2d a5 3f 93 27 e6 ad d4 d5 93 bf
       0.04136188570379557 -0.019370387186007653
000550 2f 62 d8 64 10 a3 ac bf 3e 5f 59 29 28 2d a4 bf
       -0.05593157988568397 -0.03940701966047165
000560 ba 77 7d 4b f5 a3 cb 3f 8a 41 bf 90 3f 47 ad 3f
       0.21594110666313587 0.05718420640880868
000570 34 29 1a 72 be bd c3 bf 8e b3 89 03 3c b7 d8 bf
       -0.1542280251636129 -0.38618374200341854
000580 19 d7 c8 8d ad 13 90 bf b7 2f 95 e6 ce 61 be 3f
       -0.01570006540187938 0.1186799347826185
000590 8e 9f 25 a7 bc f8 be 3f d1 cb f7 c9 f3 a8 a7 bf
       0.12098292427765342 -0.046210878757754544
0005a0 b3 60 c7 0c 01 d2 97 3f b8 93 e2 3c 05 35 d5 3f
       0.023262039570767622 0.3313611120777824
0005b0 e6 7e 0c a1 d9 c2 a9 3f 8a 3e 46 af ea ed a8 bf
       0.05031471339156983 -0.0486901606519697
0005c0 9d 96 ac 4a 62 90 ce 3f f7 a9 b8 c0 01 bf c7 bf
       0.2387812485332476 -0.18551656637403344
0005d0 80 2e 80 19 f7 9f b7 bf c9 57 e0 99 47 c5 6e bf
       -0.09228462574554364 -0.003756179662569335
0005e0 f3 9a ab 51 cb 3e b4 bf 47 f1 75 7a df 8e ca 3f
       -0.07908316368012062 0.20748513679053301
0005f0 0e 5b 0e 8b b1 f2 ab 3f b5 3a e7 ce fc c7 b6 bf
       0.054585979675883065 -0.08898906756733534
000600 cc 3a 4f 21 9f d9 8f 3f 03 13 ef 83 e0 66 c2 3f
       0.015551799015069 0.14376455728611157
000610 0e 88 8c d1 6d 0b c3 bf e2 68 6d 5d ae de b3 bf
       -0.14878628475077033 -0.07761659413282332
000620 a1 cb f2 cc f3 9b ab 3f 6c b2 9b a0 62 6b d2 bf
       0.05392419697582019 -0.28780427631753613
000630 27 89 e7 39 52 7a a2 bf 90 ff 77 bc e0 c0 a8 bf
       -0.036089486664211905 -0.04834654141086425
000640 31 06 1a 39 c0 8b a7 bf ac e3 82 de da 62 c7 bf
       -0.04598808953324996 -0.18270431389626418
000650 29 0b 97 ac 64 b9 c3 3f 4f 26 c2 e1 35 bb be 3f
       0.1540952532505682 0.12004410516433349
000660 c5 10 c1 ca 14 6b c5 3f 0b d6 c9 10 dc 77 cd bf
       0.16733035945993016 -0.2302203256582945
000670 c6 12 57 88 9f 26 c6 3f 70 59 a5 5f 60 f3 d6 3f
       0.17305368573410912 0.3586045202295258
000680 2c ed e9 e8 5a 99 9d 3f 3c 37 aa 83 63 59 cd bf
       0.02890531584351412 -0.22929042748403983
000690 01 dc 88 4d b0 64 aa 3f cd 89 81 e0 a7 ab ca bf
       0.05154944368808146 -0.2083635183544871
0006a0 c2 9e 16 06 ad 73 c6 bf 2e f2 06 a4 8c e1 ae 3f
       -0.17540514752658082 0.06031455518993699
0006b0 1c bc f9 84 a6 6d d4 3f 6a 96 36 33 52 39 d0 bf
       0.3191925333584906 -0.253498601925776
0006c0 95 a7 fd 0b 0c 44 c3 bf a5 f9 c9 22 a5 78 d4 3f
       -0.15051413140764383 0.3198635902153007
0006d0 e7 06 76 56 0e 62 d1 3f 56 7f 24 a7 7c 77 ad 3f
       0.2716098636957284 0.05755223789515067
0006e0 78 1a f6 ed 4d 60 db bf 82 1d ed 55 13 b0 c0 bf
       -0.42775295484935993 -0.13037339873902104
0006f0 fa 19 9d f9 29 b3 b5 bf 6b cb bb a0 a8 50 a2 bf
       -0.08476507515033652 -0.03577162706451172
000700 25 7d 96 6f b2 96 b2 bf d0 d6 6d c0 fb b0 2a 3f
       -0.07261195396721527 0.00020363877430511776
000710 b4 f3 2c 45 09 9c b3 3f ad 82 4e 5e 5e 0e a1 bf
       0.07659967364175096 -0.033312748920484615
000720 83 d5 e1 2e 19 20 c8 3f b3 0b 0e 52 65 55 42 bf
       0.1884795645634477 -0.0005594963769087663
000730 43 b0 5b 8e d9 1b c1 3f 44 ab 97 78 a0 0b c5 bf
       0.13366240931589077 -0.16441732300094192
000740 2a 40 33 29 89 a9 c9 3f f8 a6 14 55 3c 3b c9 bf
       0.2004863215611306 -0.19712022928552364
000750 4b d7 d0 80 2f d1 bd bf 8a f7 56 f1 b2 60 b0 3f
       -0.1164731683246291 0.06397550956805112
000760 12 4d ef 91 f9 6f b1 bf 37 45 37 2f b9 69 d0 bf
       -0.06811485112057294 -0.25645284281661723
000770 a8 0d ee 01 10 5e cf 3f 45 41 53 88 24 b4 b0 3f
       0.2450580605910606 0.0652487595391494
000780 a3 cc c1 94 73 04 d2 bf 5b 5e 34 1f 96 f4 bd bf
       -0.2815216973023757 -0.1170133424933452
000790 e4 18 db 1b 03 c4 8c bf fc 33 e3 aa 3e 9b d3 3f
       -0.014045738494484934 0.3063503903220519
0007a0 9c 6e 45 54 16 9c c7 3f 8b e2 ac b2 3f 5d aa 3f
       0.18445090403371445 0.051492682038262926
0007b0 91 07 6b e2 f1 ea c7 bf 17 b7 e3 a5 10 1b c3 bf
       -0.1868574481541683 -0.14926345920633174
0007c0 53 8f dc b6 be 2a 90 bf 9b de df 74 de a8 97 3f
       -0.015788059149726873 0.023105121501400743
0007d0 0d d1 73 7f 2e 2b d0 bf 79 a9 75 c3 7b 70 d7 3f
       -0.252635597672694 0.3662404450211834
0007e0 1d c7 5c 70 ce 78 cc bf 87 56 ed 57 37 cb c5 bf
       -0.22243671881147345 -0.1702641658145476
0007f0 9b b8 35 ed 40 1c c9 3f 31 5d c1 69 0b c5 ae bf
       0.19617473204147448 -0.060097080859743086

layer1.bias f8 [80]
000000 e4 13 81 66 3c 9a b5 bf 36 f1 85 e0 56 08 bd bf
       -0.08438470366043266 -0.11340849858783461
000010 f4 d9 3a 57 c1 99 bb bf 17 16 3e 43 7a c7 b5 3f
       -0.10781486873279517 0.08507503644622037
000020 23 c3 c4 d8 2b fe a0 3f 7d 42 4f d3 4c ca a2 bf
       0.0331891729459868 -0.03669967727149002
000030 eb 88 28 05 11 38 84 3f 44 a2 30 5b df c9 95 3f
       0.009872563333435077 0.021277894917292053
000040 ca 45 47 cc 9c 4d a8 3f f0 7d 56 11 8a 43 b1 3f
       0.047467136322335415 0.06743681834495141
000050 b4 be cb 74 45 f6 a9 3f cf 5c f9 80 c9 b2 87 bf
       0.05070702601176205 -0.011571478126980143
000060 bd 6e 6d e5 47 cc 74 3f 81 39 2c 31 b1 2f ab 3f
       0.005077629894767175 0.05309823727849317
000070 09 7d 40 6b a9 b2 a1 3f a8 73 69 e8 44 49 96 bf
       0.034566206304811394 -0.021763874707506098
000080 9a 99 7c 53 c1 7d 9d bf f1 1a fa 16 0d eb b6 3f
       -0.028800030441880155 0.08952409563981313
000090 4b 26 99 8a 53 63 bb bf 09 c7 ee b8 76 da 96 3f
       -0.10698434957262141 0.022317748105428446
0000a0 b4 ee 58 bd ea 43 be 3f ba c8 05 b5 39 5f a2 bf
       0.11822383043994017 -0.0358827622866484
0000b0 45 2b 54 20 38 ad bb 3f 08 84 39 1b bf 2e c0 bf
       0.1081118658950518 -0.1264265902455295
0000c0 d9 2f 71 cc df 7f b1 bf 84 12 ff a9 11 ba b9 bf
       -0.06835745564711661 -0.10049543762495189
0000d0 c5 e5 bb 8a 06 d1 bf 3f 85 92 bf 0e ee 55 c3 3f
       0.12428322684345179 0.15105987281926417
0000e0 e3 ee 76 55 bf 4f 81 3f be 34 f0 7a 0a f9 94 3f
       0.008452887340232923 0.02048126578670372
0000f0 14 9f 97 1f 88 a4 a7 3f da 03 ea 54 25 25 93 3f
       0.04617715249679413 0.018696387584444675
000100 6c 4f a5 b4 b6 30 94 3f da 69 07 48 d9 e1 a3 bf
       0.019717077995053442 -0.03883246425876381
000110 7e 1c e6 ee 6b cb 5a bf fe 35 59 0f db e8 c0 3f
       -0.0016354135546821354 0.13210619210660463
000120 f2 45 44 d3 ab ad aa bf c0 a7 92 fe 8e 5b b5 3f
       -0.05210625604571452 0.08342832293661129
000130 2d 29 aa b8 06 ce 96 3f 6b 96 ae c5 98 53 a2 3f
       0.022270302792585617 0.035794042712308315
000140 9b fb 3a e0 5e 01 b7 3f 5d 40 9d a0 ba 4f a4 3f
       0.08986466383338014 0.03967078409789402
000150 4b 05 5f d9 2d 9e 64 3f 45 c3 09 05 0b 5f b0 3f
       0.0025168319216112615 0.06395024178506244
000160 41 32 64 49 19 10 88 3f 99 69 4d 35 6a 6c ba bf
       0.011749455978610547 -0.10321677972152656
000170 74 3e 1b fb 43 fe bc 3f 1a 21 f9 a7 1b b7 ae 3f
       0.11325478439834474 0.05999075341657285
000180 dc 04 f3 fc 97 d2 a9 bf 1a 63 6f 9d 14 56 81 bf
       -0.05043482744941638 -0.008464966825998444
000190 59 e2 bd 0d aa ab 9f bf d7 c3 ce de 68 3a 5b 3f
       -0.030928284729699083 0.0016618751644552532
0001a0 14 e5 ef b2 8d 74 9f bf 52 14 70 a1 05 7a 98 3f
       -0.030718053862050246 0.023902976969129526
0001b0 b2 bb 65 44 a7 d6 ac bf 30 6f c0 b0 80 4d b0 3f
       -0.056325175380031026 0.06368259730555503
0001c0 1e 65 9e 4c de db ac 3f 47 34 ae 41 e7 60 bc bf
       0.05636496243750798 -0.11085362771537276
0001d0 3b 22 0d c1 05 cb 96 bf ac ce 23 af 5f 0f ca bf
       -0.02225884428779266 -0.20359417011024072
0001e0 83 55 88 91 c3 f6 b7 3f 52 f2 0c 45 68 06 af 3f
       0.09360906889954461 0.06059575884726044
0001f0 c8 77 5a 6f 26 6d 9e 3f 69 60 c3 b3 2c 83 b3 bf
       0.02971324972769887 -0.07622031582593682
000200 bf 53 d8 26 74 f3 a5 3f f2 46 a2 d5 26 0c 63 bf
       0.04287302946264714 -0.0023251303183052735
000210 7e 2c 5f 5d 43 a3 93 3f eb 52 34 cd 3d b9 85 3f
       0.019177486967049344 0.010607226204720507
000220 4c 46 e6 36 db 29 b0 3f 96 d3 9a d7 13 48 a4 3f
       0.0631386765510566 0.0396124077500765
000230 bb dd 6f 83 de d7 ad 3f 79 e8 e3 a1 54 e4 89 bf
       0.058287576241066806 -0.012642537298678246
000240 f6 ad d2 ec e5 6b b0 bf 45 cb a1 07 e5 37 a8 3f
       -0.06414639503298489 0.04730144231952819
000250 f5 6e 6b 99 b0 d5 ab 3f c6 01 ba 7e 51 1c b9 bf
       0.05436469910429579 -0.09808835357581022
000260 8b 47 16 8b 8b e4 7e bf 8b 49 c9 1a dc 6c b2 3f
       -0.007542176333474769 0.07197356847726703
000270 42 97 3a 57 f5 bb 98 bf 77 e3 90 cf b2 f5 70 3f
       -0.024154504250552884 0.004140566329675069

layer2.weight f8 [80, 80]
000000 81 68 c4 c4 3c 7a b1 bf a8 13 77 25 9d a4 b0 bf
       -0.06827144435774991 -0.06501180805851325
000010 d4 01 47 98 db 5c c8 3f 7c bb 19 7b d5 11 ca bf
       0.19033379493158853 -0.20366924772994455
000020 40 01 f6 6b 72 1b 88 3f d2 c5 b4 4e 5d ca ac 3f
       0.011771100921351363 0.05623141847389558
000030 6f 99 cf 7a 08 b0 cc bf 4d b1 ec a3 68 ca 9d bf
       -0.22412210461261448 -0.0290924406100868
000040 80 cf 5d e0 fa e0 be 3f a0 c4 da 50 7f f6 cc bf
       0.12062042215057822 -0.22627250144936273
000050 78 ee 78 ae 8a 25 9c 3f 38 fb a5 a5 e2 3b 93 3f
       0.02748696031470252 0.01878313194310552
000060 2a ea 2e 27 dc 9d c6 bf 52 64 79 26 e0 ce c1 bf
       -0.17669250405545373 -0.13912584189054883
000070 f8 ee 6b 26 9a 74 49 3f de 05 b9 34 91 0a b2 3f
       0.0007768395124396468 0.07047374283958827
000080 46 83 02 8f 1f 9f ba 3f b9 28 74 cf bc 35 bf 3f
       0.10399052850199295 0.12191371979511957
000090 75 89 73 32 5f 71 7c 3f 21 f0 e5 6f e3 af 9f 3f
       0.006944057334495536 0.03094439859840759
0000a0 29 a8 4a 40 64 55 c1 3f 83 3b e3 3e b1 24 c3 bf
       0.13541844500770253 -0.14955726214108375
0000b0 28 8f 0f 23 af 04 ad bf eb f8 e5 0e fd 06 c2 3f
       -0.05667636206615462 0.1408382723565816
0000c0 52 06 fd 06 ff da bf 3f ec f2 63 7c 2c cb bf bf
       0.1244353668271512 -0.12419393574596044
0000d0 f9 d4 05 e0 d9 a7 ca 3f b7 eb 93 3e 99 cd b9 bf
       0.20824740828144409 -0.10079343583849619
0000e0 7f f3 54 d9 0e 17 c5 3f 83 6c 22 49 a8 51 73 bf
       0.1647661744299533 -0.00471654640764563
0000f0 f5 83 3a 68 2a 66 cd 3f 11 fa a2 18 e8 ed be bf
       0.229680348294124 -0.1208176670215624
000100 26 8f 94 79 fe e7 a0 3f 16 a1 c4 ca 97 75 cc 3f
       0.033019974080416056 0.2223386516645937
000110 9a 61 6b 5f 8c 65 bf bf 1a 1b 68 e5 fe a3 c4 bf
       -0.12264325456215489 -0.16125475121972316
000120 1a a9 34 7f cf f4 bc 3f 64 dc 4b b0 d1 f3 cd bf
       0.11311051231010474 -0.23400326832026785
000130 93 b0 f2 ed 7e 26 c5 bf a8 78 15 bf 01 99 b4 3f
       -0.16523729914240856 0.08045969882138826
000140 7f 71 55 30 0e 24 c3 bf 73 2b 85 b9 fa 44 9d bf
       -0.14953782424971604 -0.02858344800305752
000150 6c 11 45 9c 0c 22 b2 3f 65 42 8a 54 d3 11 d1 3f
       0.07083205046825974 0.2667129827105213
000160 c4 c6 4d e9 cc cb 33 bf ff 06 0e 9e f7 7e b4 3f
       -0.0003020644447167926 0.080062366569134
000170 13 56 f8 b2 e6 6f d6 bf 7a 93 21 8a b3 1d 91 3f
       -0.3505799052958036 0.016714864068848347
000180 ce 5f 37 c7 7e cc cb bf f0 c2 58 1a 84 8d cc bf
       -0.21717819907530472 -0.22306872641049535
000190 a5 f4 6e 0d 78 8b 96 bf a4 70 47 15 5c 60 ba bf
       -0.02201640684119312 -0.10303283233173716
0001a0 46 56 69 65 0e fe c5 3f 9e 00 33 85 aa e5 b9 3f
       0.17181568099720063 0.10116067649778634
0001b0 4d 91 1d 88 3d 98 b6 3f c4 7d 8f 66 ea 8f ab 3f
       0.0882605035126904 0.05383236410102257
0001c0 a7 9b af e2 8f 38 d2 3f 2d 43 54 14 3c f4 c8 3f
       0.28470227372457163 0.19495345108637122
0001d0 ae 25 49 99 bd bd d3 bf 4a 05 ca bf 04 22 79 3f
       -0.308455848401162 0.00613595824381836
0001e0 4a fd a4 92 16 85 d5 3f 50 61 d2 00 f3 c8 c1 3f
       0.3362480575633141 0.13894498386504006
0001f0 5d 67 6c 02 c3 49 a6 3f 7d d1 2c 6c 99 1b c3 bf
       0.04353150753577382 -0.14927976400361934
000200 e8 b0 5e 10 77 c1 c1 3f 43 38 41 dd cd 05 bb 3f
       0.13871658610640414 0.10555731441238074
000210 5d 93 18 89 9d 7d ce bf 18 79 26 4b f9 97 c8 bf
       -0.23820847696438366 -0.1921378724045517
000220 4d 27 5d e7 ea 3c b9 3f d0 b6 0f e1 bc 7e ab 3f
       0.09858577869922876 0.05370130774813975
000230 c7 a1 96 58 d2 44 81 bf bd 99 be 62 b5 f4 ca bf
       -0.008432048157218553 -0.2105929119254152
000240 88 28 dc 53 02 34 c2 3f 10 9d 1a d9 80 bc aa 3f
       0.1422121915314316 0.05221941614336789
000250 24 80 fd c8 fc 42 d2 3f 7d 3b a3 9d cd 39 bd bf
       0.28533858898117814 -0.11416325663161149
000260 cb 2d 5c 59 94 18 89 bf 8c c0 d2 f3 73 6e b3 bf
       -0.01225391290383628 -0.07590412810054853
000270 57 6b c4 1f 9a 31 87 bf 4a a8 96 69 84 f2 ba bf
       -0.011325077146968772 -0.10526301935047502
000280 d4 f9 d2 40 be a3 75 bf cd 1c 6c d6 e3 7b 8e 3f
       -0.005283110787046092 0.014884738904142126
000290 fc 39 fa ef 55 d7 c0 bf 13 f4 63 62 4c ce c1 3f
       -0.13157152383469384 0.13910822681637622
0002a0 8c 24 40 75 60 34 8a 3f d8 07 37 34 f5 1e be bf
       0.012795213297083906 -0.11765987896708852
0002b0 e0 7c 1d 24 90 21 d8 3f 6e d0 4c e3 e1 35 c0 3f
       0.3770485260665293 0.12664435957561032
0002c0 1f 47 c0 9a 78 a5 e4 bf 6c 07 eb ef 9d c9 ca 3f
       -0.6451991102678426 0.20927786078214738
0002d0 4b 47 9e 11 4c 17 c4 3f 33 7f f7 70 b1 f6 c1 3f
       0.15696097240702964 0.14034097686725885
0002e0 ef 26 29 23 45 b8 b1 3f 47 8f c3 a3 28 9a c0 3f
       0.06921798809448963 0.12970455166134284
0002f0 15 94 b7 d5 47 77 d0 3f 35 6b 34 80 f6 99 a3 3f
       0.2572803103524291 0.03828401865958712
000300 b9 d3 19 07 f3 4f b8 bf 83 2e 9e da 85 fc 86 3f
       -0.09496992991792198 0.011223836645306356
000310 23 ca eb 92 bc 4a c2 3f c0 d8 44 37 2a e7 b3 3f
       0.14290578054313227 0.07774604653681916
000320 cb 57 14 69 52 61 c6 3f 11 ec 2d ce 3e 6d be bf
       0.17484502917130693 -0.1188544515006671
000330 16 bd eb 80 ae e5 9e 3f e0 f1 9f 66 d2 e1 bb 3f
       0.030173040980057207 0.10891451840865995
000340 45 ac ff 4d 62 f6 b1 bf 23 11 ad 55 3d 4f c0 3f
       -0.07016577152505572 0.12741820033455395
000350 22 e4 5b 92 ea ca c5 3f d4 42 05 24 fa 67 b1 bf
       0.17025501390870185 -0.06799281482131941
000360 98 6d 9e a3 53 2e cf bf 59 c1 1a f6 bf 54 c4 3f
       -0.24360127915575158 0.15883636013814842
000370 bf 00 2b b8 cb bd c9 3f e9 ec bd a0 9d 5b c3 bf
       0.20110460751130252 -0.1512333903191128
000380 b7 6c dc 11 86 32 a1 3f 31 7f 5e d5 d4 43 c4 3f
       0.033588590317060456 0.15832004946150272
000390 df e6 26 be 14 0a ca bf 4d b7 0d 7e 85 41 b5 bf
       -0.20343264851344764 -0.08303102805595337
0003a0 1f 20 a1 7c 7c fa a4 bf 0a 06 51 68 62 73 bc bf
       -0.04097355862955986 -0.11113562628545295
0003b0 d5 b0 11 41 1e 39 c3 3f 37 b5 37 d5 ff 04 c8 3f
       0.15018060853197449 0.18765256796852167
0003c0 05 6a b8 78 f5 9f d6 bf 0f c9 78 3e 92 e4 c2 bf
       -0.35351311482523357 -0.14760044145948156
0003d0 ee b2 78 7d ea f6 bc bf d8 d7 69 df 50 c4 bf 3f
       -0.11314263880985795 0.12408929304532934
0003e0 91 e7 1e 67 ed e1 b0 bf f4 69 b5 e6 77 76 b0 3f
       -0.0659473778495381 0.06430768377814627
0003f0 39 37 26 41 43 84 c6 bf 82 07 50 75 f6 0d c7 bf
       -0.17591133767239756 -0.1801136086287976
000400 9e 4d 06 35 ff f3 ba 3f 59 9b 22 94 36 18 cb bf
       0.10528559727236206 -0.21167642815745571
000410 f4 94 6e 58 7a e5 5d bf 6d d9 c2 4f 54 42 c2 bf
       -0.0018247313289319585 -0.1426492108782428
000420 7f 8e 4e ec 2b ae be bf 16 71 ca 46 d6 22 c0 3f
       -0.11984514731607908 0.12606314140874336
000430 3c b8 81 8a 1e fb bc 3f c2 1a fb 0d 07 da ad bf
       0.11320677644263893 -0.058304043251657514
000440 fa 90 8f 65 79 97 d2 bf da 78 83 da 32 a6 c0 bf
       -0.29049525182769254 -0.13007198018653449
000450 5d cc 1f 97 02 65 ba bf a3 c9 fb 95 f7 63 c0 bf
       -0.10310379209094962 -0.1280507547704249
000460 a5 0d 70 03 38 f0 a2 3f 20 cd 87 1c d1 d3 9c 3f
       0.03698897401775562 0.02815176712642853
000470 63 01 a7 96 1d 73 77 bf 5a a3 1b a2 b8 b7 b8 3f
       -0.005725017147085817 0.09655336339677714
000480 8b 8d 2e 30 05 ee cc bf 4d c5 73 35 90 74 c7 3f
       -0.22601380207661878 0.18324473009082923
000490 60 9c b0 80 6b 25 b6 3f a8 45 05 a9 fe 0b cf 3f
       0.08650848285525248 0.24255355122526834
0004a0 f7 0f 40 16 a9 59 b8 bf 01 9c 74 a2 22 d3 89 bf
       -0.09511811059206808 -0.01260973985934122
0004b0 6a b0 d1 12 6f 12 cd 3f 57 7b bd ea ec e0 da bf
       0.2271250574007156 -0.4199783604034812
0004c0 66 9f 58 b0 aa 10 ca bf b0 89 66 25 98 d5 89 3f
       -0.20363362894681386 0.012614430085538725
0004d0 bd 60 5e eb e7 f8 a8 bf e2 e2 95 44 93 1a 96 bf
       -0.04877400158074028 -0.021585751591802878
0004e0 2a 40 b6 61 94 53 c3 3f af 07 d0 b7 5e dd be bf
       0.15098814745988537 -0.12056533801663137
0004f0 27 bd 38 d1 77 8e a8 3f c5 4b d6 59 e3 10 aa bf
       0.04796194485640575 -0.050910095898096176
000500 79 7d 55 73 4d 85 a6 bf 50 e3 80 cd f2 f3 94 3f
       -0.04398576767811852 0.020461839478431998
000510 ce 05 dd 14 44 5e af bf ae bc 08 98 fb 35 d0 3f
       -0.061266067072675776 0.25329484793742096
000520 a5 30 8a 9d 05 c8 c6 3f 88 13 a1 1b a6 30 b3 3f
       0.17797918503163604 0.07496107267895813
000530 21 eb a2 d7 2b 66 cd 3f be f9 b4 2f 83 c2 a8 bf
       0.22968051938172443 -0.04835901219711357
000540 7c 28 eb 1c f5 a0 cd 3f cd 7c 90 0a f3 b9 bd 3f
       0.23147453224220615 0.11611861236495997
000550 17 2d af b8 c6 e0 c4 bf 3a a7 f4 d9 f8 59 cd 3f
       -0.16310962693965145 0.22930822985045457
000560 46 87 09 88 07 e6 cc 3f 41 7d 11 53 a9 17 b7 3f
       0.225769940781044 0.09020479467425437
000570 77 7f 1a 21 3e 9d 97 bf ac 6a f2 90 93 18 bc 3f
       -0.02306077076957488 0.10975000656837136
000580 86 ef d4 0c 96 50 c4 3f f9 16 a9 29 05 88 a2 bf
       0.15870929361869573 -0.03619400151778324
000590 34 8a 04 fe 6d 27 be 3f 46 e3 02 e8 ec dd 9b 3f
       0.11778914882283048 0.02721376577457881
0005a0 10 be fb 6c ad 74 bb bf 79 4f 4a 7f 96 12 c2 bf
       -0.10724910650946406 -0.141192257073836
0005b0 7e 45 75 09 c4 9a b7 3f 79 da 44 56 6d ec ba bf
       0.09220528822813454 -0.10517009121108768
0005c0 14 f3 24 ae e4 b9 bd bf f6 f9 2b 58 22 cf be 3f
       -0.11611775638170868 0.12034811642295282
0005d0 29 8b dc c4 23 a7 b6 3f a5 09 13 2a 6b 80 c5 3f
       0.08848784977139403 0.16798152498638533
0005e0 08 58 47 18 75 b1 ba bf 9b c1 0d 11 0d 71 c0 3f
       -0.10427028506032354 0.12845004399015356
0005f0 55 9f bd b9 28 1e 98 3f 96 87 b0 3d cc 94 c3 3f
       0.023552547775948913 0.15297844898401242
000600 c3 88 3b 52 8a 7a cb bf f2 bd ca e6 a2 e3 cb 3f
       -0.2146771337057257 0.2178844096101638
000610 da 27 ec dc 9d a8 9d 3f ac 27 50 a8 a3 49 54 bf
       0.028963533982313418 -0.0012382600991735866
000620 e6 91 39 7e 7b 27 77 3f a1 46 1c 55 db 5d b3 3f
       0.005652887720860344 0.0756508906163398
000630 6a 6e 5b 69 ef 1b aa bf 07 2c a5 46 6d 6a b3 bf
       -0.050994378672581345 -0.07584269499527362
000640 fe 5f a6 73 1b 21 c4 3f 2a fe 0a f0 a7 45 b9 bf
       0.15726035258262522 -0.09871911631034239
000650 27 a7 26 fd cc b6 c1 bf 8f c6 ce 64 23 ec c0 bf
       -0.13839113579643333 -0.13220636770488567
000660 54 ba 52 80 63 f5 b0 3f 08 f5 e3 a9 ae ff c5 bf
       0.06624433405770819 -0.17186530394966604
000670 7c 81 40 5d ee ae b7 3f b7 98 73 83 44 b9 c7 bf
       0.09251298691424908 -0.18534141939671198
000680 b3 fa 1f 22 4d cc aa 3f 95 af 8e 85 cc 1f b6 3f
       0.052339945235862294 0.08642271290471933
000690 94 4a 96 b1 49 64 90 bf 8c 91 91 f5 8c 58 95 bf
       -0.016007567848257923 -0.020845606315917517
0006a0 23 02 e7 f7 4e 3a b4 3f fa 80 b9 db 15 13 83 3f
       0.07901471664718733 0.009313746231044185
0006b0 39 90 f1 95 f6 c8 c8 bf 24 c6 f7 b9 07 10 b8 3f
       -0.1936329109331625 0.09399460115653163
0006c0 31 a0 79 22 d1 c5 c2 3f 33 fb f7 27 46 e6 bc 3f
       0.14666189368586083 0.11288870311544201
0006d0 a1 24 27 a1 f7 e2 c8 bf f6 04 ce aa 98 51 bd 3f
       -0.19442649239343715 0.11452631158865131
0006e0 2d 35 7a d7 84 5a ca bf b2 4b 96 32 c5 83 ce 3f
       -0.20588741799694202 0.23839631052086713
0006f0 d7 51 1f f2 68 79 d1 3f ae 4b 79 3a d2 86 b4 3f
       0.27303527493248 0.08018220832427289
000700 1a 30 5f e3 f0 c3 b9 3f 8e e4 c5 b1 aa 9c 8c bf
       0.10064607192106259 -0.013970693159296024
000710 f1 b5 c2 27 a2 5d 9e 3f 3f dd b4 48 7d 2d cb 3f
       0.029654058148187393 0.21232572603342167
000720 49 cd 81 5a 04 b8 c8 bf 4f 67 e1 aa 33 f5 c9 3f
       -0.19311575335778233 0.2027954658868176
000730 91 64 a5 3f 70 08 c5 bf d5 c4 85 02 7b f5 ab bf
       -0.1643200217029386 -0.05460724263947162
000740 c5 18 f7 bc 28 81 b3 3f 59 85 bd 8d f4 dd ba 3f
       0.07618956197174771 0.1049492689176267
000750 4a 08 02 0d 97 a2 bf bf 95 ec bd d9 6c 06 c7 bf
       -0.12357467715813289 -0.17988358146599084
000760 69 10 78 5b 1b bd cd 3f f7 c7 29 bf 84 8c a8 bf
       0.23233358351001535 -0.047947071395256495
000770 74 07 1c 18 cb e8 a9 bf ff 60 44 da 65 a0 94 3f
       -0.05060419720940859 0.020143119284598218
000780 c2 40 c0 9d ea de a3 3f bb 1b df 4f 7d 10 b5 bf
       0.03881009269400827 -0.08228285980213361
000790 f7 44 ef ae 84 f9 c1 bf a6 23 f2 0b 3c 20 d0 3f
       -0.1404271940396382 0.2519674412401919
0007a0 58 1f 70 df ec de c8 3f 5e 5f 0d 63 27 81 cb 3f
       0.19430313978250058 0.2148789628652094
0007b0 f1 50 da 11 ca 6c c8 3f a7 2b 62 c7 34 6a d0 3f
       0.19081998702734596 0.2564823100189479
0007c0 43 e6 a8 8d 5a ff a7 3f 33 a3 bd 59 dc 54 cb bf
       0.0468700693058506 -0.21352724439500434
0007d0 de 13 ee be dd 85 9f bf f1 7f fc 5f d4 a7 ad 3f
       -0.03078409650654012 0.05792106315334412
0007e0 ad 85 1d f0 54 17 93 bf 64 8a 1b f1 7f c9 cb 3f
       -0.018643691211200842 0.21708678505736423
0007f0 7f 15 be 50 83 a9 cc 3f 4e 5d 17 98 e8 81 c1 bf
       0.22392312471871986 -0.13677699495631618

layer2.bias f8 [80]
000000 fa a5 c9 f7 a9 c4 b7 3f 35 11 a3 f1 84 9b 77 3f
       0.09284460353378413 0.005763549148643234
000010 cf 81 c3 8a ac af 7e bf 42 2f f3 3a 47 88 98 bf
       -0.007491754524580021 -0.023957360241907873
000020 a6 eb 4d 9e ae b4 9a 3f 0e e5 ed 4f 8c 3d 97 bf
       0.026079872524387725 -0.02269572484826648
000030 41 23 6b e8 3c e1 98 3f 79 18 0b ff f4 87 97 3f
       0.024296714482974883 0.022979572359667053
000040 59 7d 81 04 2d 31 95 3f 2d 5c e1 32 aa 09 a1 3f
       0.020695403480542527 0.03327686186883514
000050 6c 26 74 d6 cd 90 a1 3f dd fd 24 f3 77 99 8a 3f
       0.03430789225428729 0.012988030536347612
000060 0b bd dd 3e 33 29 7f 3f 96 99 06 b3 e6 7b a6 3f
       0.0076076509266009935 0.043914040902836834
000070 11 03 ea ca 22 ba 98 bf 9d 7f 6c 78 90 82 94 3f
       -0.02414755214204251 0.020029313421332174
000080 f0 23 04 73 cb 49 ab 3f c6 b1 7b 23 f9 91 a1 bf
       0.05329738406187079 -0.03431681211609176
000090 23 b2 71 75 82 0a 9d 3f 6c 9e e2 e5 b9 c7 bc 3f
       0.02836040345975922 0.11242257940704697
0000a0 40 2c a3 de 08 7d a6 3f 5a 8a 80 61 68 7f 66 3f
       0.04392268865338922 0.0027462996186085444
0000b0 ca 23 02 df 4d ff 80 3f b6 5b 8a 4b a0 6f 78 bf
       0.00829945408647061 -0.0059658299948272455
0000c0 af 12 7a f4 4f 09 8b bf eb 35 82 3a 01 f8 b1 3f
       -0.013201355598775192 0.07019050291474797
0000d0 69 04 d3 eb cf 57 9d bf 7d 3a 02 69 b4 c1 a6 3f
       -0.02865528942925658 0.04444659978718322
0000e0 ab ea 9b 7c 08 2d 68 3f 80 a0 22 44 e2 86 b5 3f
       0.002951160979930497 0.08408941424807104
0000f0 3d e4 84 94 3f 2a a0 bf b7 61 a9 f9 de 30 92 3f
       -0.03157232940652264 0.01776455305875554
000100 c8 8f 3d f7 14 0a a6 3f e1 7b 14 cc c4 eb b4 3f
       0.04304566877433974 0.08172254545614478
000110 4e aa d5 79 59 58 6b bf 20 20 9b 7a b9 5e ab 3f
       -0.0033380267693037596 0.05345706578879139
000120 cc d7 e0 66 ca 6b a6 3f 6b 98 03 e0 35 1a a3 3f
       0.04379112726057563 0.03730934485956613
000130 04 83 72 b8 57 80 8b 3f ff 35 d3 9a 57 d2 52 3f
       0.013428387943635219 0.0011487823024255437
000140 b2 8a a8 b7 2c 22 92 bf 93 57 db 5c fd 5f a7 3f
       -0.01770849104844769 0.04565421827798768
000150 12 0d fc 9e 49 9f b5 3f 29 ef 39 e0 f3 c2 74 3f
       0.0844617856164869 0.005068733825847529
000160 6c e5 fd f1 0f 0a 77 3f e4 d5 7d 88 af 6c a2 3f
       0.005624830518962436 0.03598545590549998
000170 e8 f9 e5 40 92 b3 9d bf 93 3a b9 60 ce 47 69 3f
       -0.029005322657662008 0.0030859976593896137
000180 12 b8 bb 3a 91 09 8f bf a1 df 96 a4 61 2c b0 3f
       -0.015154966931245215 0.06317720669073747
000190 b3 a5 cc ab 0a 60 b1 3f 0e 69 30 a3 d7 3f 95 3f
       0.06787172979661342 0.020751351676247025
0001a0 33 24 98 b0 f9 83 5d 3f 65 32 b9 af 59 f1 63 bf
       0.0018014849068797134 -0.0024344207466014283
0001b0 6c 2b 79 a4 6d 9b 5c 3f 56 63 34 61 fa d2 ab 3f
       0.0017460413672718235 0.05434400974826896
0001c0 2f 55 80 0d 5a 76 7f bf f2 96 72 53 3b e3 3a 3f
       -0.007681228416932569 0.00041027258289215364
0001d0 01 71 12 c8 09 75 a5 3f d4 8d fb 0d df 1b 86 3f
       0.04190855567250829 0.010795347799507228
0001e0 f1 79 2f 17 df 83 b6 3f 01 a7 15 c4 e2 14 a0 3f
       0.08794969860125669 0.03140934604273405
0001f0 a4 5e 44 a5 42 f3 ad 3f 80 57 57 85 18 73 9e 3f
       0.058496554063990375 0.029735930574893654
000200 5c 1f 3d f1 4b df a3 3f 2b 57 3e 8b bc c1 b6 3f
       0.03881299323853568 0.0888936843824381
000210 86 68 bd 98 1f 7c ae 3f ed 4e ff 4b 06 84 a7 bf
       0.059540736575130856 -0.04592914273930924
000220 aa f4 c4 7c 34 12 b6 3f 07 74 98 87 cd 24 96 3f
       0.08621528669478332 0.021624766732305314
000230 10 dc 95 f2 be 34 a5 3f 1a 42 d2 dd 1d 97 91 3f
       0.04141804419753481 0.01717802683248424
000240 dc 99 07 2a 2e d8 a7 3f 9a 64 8e c7 8d ac a6 3f
       0.04657120001847989 0.04428523121823354
000250 bb 5b 5a ba 0c 7a 4b bf 53 ef ce c7 bc ad 97 3f
       -0.0008385240696097066 0.02312369317563363
000260 16 1c 6b 64 f4 50 9e bf 2e 9d eb f5 65 cf a1 bf
       -0.02960569250970132 -0.03478544833142859
000270 6b 52 64 04 f1 f0 a2 3f a7 2a 2f a5 5d 78 6a bf
       0.03699448755847786 -0.0032312230118568155

layer3.weight f8 [80, 80]
000000 95 85 e0 8a ca b2 bb bf 51 33 9b 5b d7 d4 c7 bf
       -0.10819688692619985 -0.18618289921723855
000010 81 69 73 e3 57 1d 99 3f 2f d5 90 4d d3 19 5b 3f
       0.024525998361107696 0.0016541064744733482
000020 99 1d b3 9c 6f c5 b1 bf 43 88 7b 02 d2 07 bb bf
       -0.06941888404536768 -0.10558807907685357
000030 81 15 3d ff 5b 19 a1 3f c6 c9 a5 a8 52 7a af bf
       0.03339660158830338 -0.06148012455641409
000040 37 3a 0c a5 e3 ff be 3f 68 8d ff ae ea 03 a1 bf
       0.12109205989347847 -0.03323300729951023
000050 04 15 85 64 b0 7a a1 bf 0e b3 e9 0b 70 2d b6 3f
       -0.034139168043603646 0.08663082400171282
000060 60 39 f0 73 5c 34 ca bf 90 d7 36 91 98 e1 b3 bf
       -0.20472293530515184 -0.07766107125539023
000070 b1 00 98 fc 6e 20 b0 bf ec b6 2e db 8a fa bc 3f
       -0.06299489657249314 0.11319797373900159
000080 2e 26 3b 60 de fc 9e 3f 8a e7 93 f9 02 74 c4 3f
       0.03026149237010694 0.15979039369977627
000090 75 f6 16 5b b4 aa b6 3f 79 eb d6 c0 42 55 9a bf
       0.08854224418515762 -0.025715868968954923
0000a0 9d b1 fd a2 04 5e c1 3f 65 dd c0 4c d6 cc 77 3f
       0.13568170507950308 0.005810582264579399
0000b0 9a a8 80 65 d4 70 c3 3f 7d eb 22 ad 7b a5 c3 3f
       0.1518807883852034 0.15348764375616133
0000c0 01 d6 66 85 03 e3 aa bf 93 84 93 73 2c 0a c5 bf
       -0.05251322749556309 -0.1643729748093717
0000d0 32 31 9c 28 ce 4d c2 bf 27 e0 5d b6 dd c9 91 3f
       -0.14299942953983585 0.01737162042215359
0000e0 50 9e 44 0d cb d9 b0 3f e4 1d de bd ff a6 b1 3f
       0.06582326005865835 0.06895445237579839
0000f0 03 07 31 e5 8e 79 c3 bf 4e ee 47 68 42 e6 cb 3f
       -0.1521471613978563 0.21796445934147574
000100 5b c9 a3 a7 53 79 ce bf 77 58 22 e0 6a b1 cd bf
       -0.23807759938751868 -0.23197685188341996
000110 22 43 ed 5d 51 e1 c6 3f fa ee cf d6 77 2f ba bf
       0.17875115476865583 -0.10228680605353793
000120 6d de 13 36 07 07 c8 bf 62 97 12 9c 2d f0 bc 3f
       -0.1877144826937526 0.11303982792250403
000130 98 d1 e0 9f 32 c1 90 3f b9 c9 03 b8 90 88 95 bf
       0.016361990936461263 -0.02102876780640781
000140 5b ad 5a 2c ab f8 c4 3f 14 80 46 07 e5 17 a3 bf
       0.16383876481755064 -0.03729167665301261
000150 02 22 b5 10 ff 55 c2 bf 08 d7 9d cc e7 a3 c1 3f
       -0.14324940028951977 0.13781449786227307
000160 f4 59 f0 f8 96 0b c1 3f 02 de 1b 64 71 01 af bf
       0.13316619067400348 -0.060557883711165786
000170 81 b0 4f 39 e2 b8 c4 3f 8a ab e3 19 07 31 b3 bf
       0.16189220236208615 -0.07496685392440675
000180 a0 02 17 28 6c a3 c4 3f 32 30 87 c3 35 29 d3 bf
       0.16123725850595338 -0.29939025969065647
000190 13 b3 a0 5d 65 ff 66 bf 6d 03 e6 2f be b0 b8 bf
       -0.002807329158733282 -0.09644688290974353
0001a0 d3 c7 cc 65 0f c7 c3 3f 9d f7 ef a7 13 6c 9b 3f
       0.15451233359050195 0.02677946770199179
0001b0 c4 d1 d5 3c a9 d5 c8 3f a4 46 54 8b 31 97 8f bf
       0.19402041883917154 -0.015425097527017435
0001c0 86 fb 2a 93 f6 51 a2 3f 72 7e 14 b1 c0 ed 96 3f
       0.035781579460937116 0.022391329582318105
0001d0 55 a9 df 7e 69 5d c8 3f 0b c1 27 cf b3 74 c5 bf
       0.19035071082118785 -0.1676239739895283
0001e0 01 55 8c b0 ef 42 b5 3f 27 23 cf 90 0c 3d c0 3f
       0.08305261669405085 0.12686307020910556
0001f0 ab 95 fc c6 4c 78 cc 3f 3a 74 c3 58 42 1f b4 3f
       0.22242126194138953 0.0786019770343537
000200 d1 9d 18 50 d2 15 cc 3f 21 93 e6 8f 6e cc c4 bf
       0.21941594038911075 -0.16248876596832765
000210 e4 ca fc 95 c2 84 c5 bf 7e 26 2e dc 40 13 b8 3f
       -0.16811401675803161 0.09404378295416824
000220 8c 34 27 f5 af bf cf bf 92 50 53 f4 1c 8a c3 3f
       -0.24803733320587573 0.15265237741426013
000230 f1 0e 0b 7e 43 1b c4 3f 09 6a ba ab e0 7d c4 3f
       0.15708202032521215 0.16009148011364996
000240 f4 37 94 2f cd 13 a7 bf e2 47 d5 16 6c e2 d6 bf
       -0.045072948511105354 -0.3575697157840506
000250 64 c0 0d 3f 06 7c ab 3f 68 59 19 73 99 8d 98 3f
       0.05368060607622807 0.02397765889176054
000260 3f 03 e1 fe 23 89 a9 3f 70 68 18 2c fc f8 b8 bf
       0.049874424803880484 -0.09754921032473063
000270 e9 19 57 91 a6 4e c8 bf fd c5 98 af d2 1c b2 bf
       -0.18990022751513827 -0.07075230395346206
000280 a0 ad a5 8f 16 11 7b bf ee e0 5c ac 56 62 81 3f
       -0.006608093385107067 0.008488347182364877
000290 74 88 09 04 6c 2f b8 bf 56 e1 21 2e 4b 52 d1 3f
       -0.09447360132756605 0.27064780717002657
0002a0 1e 1a d6 b2 cb 54 b7 3f af 9b aa 36 5b b1 be bf
       0.09113762966271863 -0.11989374241475902
0002b0 c1 33 78 cd ec 62 b5 3f c7 08 f4 84 c9 27 c3 bf
       0.08354072586389717 -0.1496517085252604
0002c0 91 23 da e3 48 eb b6 bf f8 73 7d 07 16 86 b3 bf
       -0.08952766001506364 -0.0762647407804734
0002d0 f2 31 92 9c bc 75 a1 bf 66 68 dc f0 c9 03 b1 3f
       -0.034101385224037176 0.06646406298060156
0002e0 8e a9 1b 44 b0 4b cd bf 07 68 d1 a8 12 9b be 3f
       -0.22887233090962095 0.11955372449429556
0002f0 d4 33 8f 48 cd 1a bb 3f f4 fe 94 f8 19 65 ca 3f
       0.10587771436185217 0.206210371377885
000300 0f 83 2b e0 47 3d b8 3f d6 3d 51 94 18 2e b2 3f
       0.09468507025622962 0.07101586934117363
000310 b2 da 27 e3 ac 4c 74 3f 33 b4 70 8a 19 50 84 bf
       0.004955935803528421 -0.009918403184281476
000320 63 8e 31 67 a4 f3 b8 bf ab ec 9f 45 da d1 d4 3f
       -0.09746768493055806 0.3253083877495537
000330 b7 f9 b3 c5 03 f0 bd bf b5 b5 71 fb 22 f1 c6 3f
       -0.11694358422025784 0.17923390653178975
000340 2f 5c 90 14 8d a1 a0 3f 15 b4 e1 20 f6 3a 9c bf
       0.03248253704094172 -0.027568670041024108
000350 4e 27 9c 50 a2 ef c9 bf b1 09 01 49 ad 40 c0 bf
       -0.20262555061372683 -0.1269737822022541
000360 e0 d2 67 a5 53 de ae bf e5 67 14 25 ad 04 c7 bf
       -0.06028996843443735 -0.17983021078617792
000370 c6 fc d5 f1 9c 05 c2 bf 37 8e 42 35 4b d9 b0 bf
       -0.14079629715340597 -0.06581563997547667
000380 9a d4 a8 9a 3f e4 a1 3f 77 df 68 f6 82 ad b2 bf
       0.0349445225041702 -0.072960076483353
000390 58 73 a2 20 56 a8 b4 bf 8c e1 89 6d 83 80 b4 bf
       -0.0806936101602792 -0.08008595871240781
0003a0 94 08 18 4e 95 5d ac 3f 41 f4 ca c7 76 23 a2 3f
       0.05540148332876629 0.03542681874157739
0003b0 ab 64 e8 31 8a f3 cd 3f 12 d4 fa 73 f6 f8 c5 bf
       0.23399474560645692 -0.17166023886753173
0003c0 84 82 1c cf c8 19 80 bf df 16 6e 44 6d 1b c4 bf
       -0.007861679859673794 -0.15708700028715492
0003d0 0f 53 fa 63 1a 64 d9 bf b9 db 93 14 d9 4e cf 3f
       -0.39673480761966656 0.24459374909176093
0003e0 1b e5 59 77 7c 9c d2 3f 12 1a 8d f7 e4 4b a0 bf
       0.29080115943323087 -0.03182902833809832
0003f0 7a 7f 6d 3e 25 34 a3 3f f3 0c 48 f9 7a 4d 9c bf
       0.0375072134690972 -0.027639314141208748
000400 01 6f 1f a0 9f 4f a1 bf ef d9 4f bb a2 66 b9 bf
       -0.033810604377974236 -0.09922234604878331
000410 3a 63 ff f4 c8 a4 bc bf ad a9 e8 2b 48 fb c5 bf
       -0.1118894193781558 -0.17173101562486917
000420 7a 56 c3 35 b3 77 b0 3f 3e 4a 13 f4 42 07 a4 bf
       0.0643264776475351 -0.039117901129106944
000430 b7 46 03 4b 4a 7d d1 3f d4 c6 68 b1 69 6c b3 bf
       0.27327210736721547 -0.07587299901276917
000440 30 8e e6 53 61 59 c3 3f 9a 59 24 f4 f8 49 b5 bf
       0.15116516682347614 -0.08315998039720399
000450 f9 7c 70 f2 e5 19 b3 3f fc e8 f6 9d 96 e7 af 3f
       0.07461392563753923 0.06231375387456414
000460 d9 b1 4a cf fd 51 c0 bf 7b 6d a9 e5 90 5a a5 bf
       -0.12750218030613672 -0.041706588778391805
000470 2f 35 c3 3f 66 db bf 3f c0 dc 38 f4 22 34 c9 3f
       0.12444151932432555 0.19690358090313076
000480 2c 95 c7 a0 96 e4 c7 3f 88 0f 5c 69 a1 fb c4 3f
       0.1866634640747774 0.16392915386688522
000490 fc ac 67 ba 8e 99 c6 bf 8f 48 7f 36 f7 2a b2 3f
       -0.1765612039738257 0.07096810417650289
0004a0 2b dc 01 d0 ef 4d d1 bf 5c fe 25 fe 9b 5f 95 3f
       -0.27038188279351755 0.020872533213604036
0004b0 b7 b0 61 e1 63 1e b1 3f 0c 45 e6 8b 58 06 a3 bf
       0.06686996700745139 -0.037157790258001894
0004c0 f9 e6 74 89 5a af b7 bf 3d f9 7d dd 25 18 d7 bf
       -0.09251943450808743 -0.360848871518005
0004d0 fb 05 46 28 2d d3 73 3f 96 5a 0a f9 10 6d cc bf
       0.004840065379882126 -0.2220784393327519
0004e0 b4 8e 5f 3c c4 8e c7 3f c8 cb af 5d dd 21 94 bf
       0.18404438922799715 -0.019660433619673318
0004f0 84 a9 62 ba fe ef c6 3f ff 0c f0 0e c7 44 b4 bf
       0.17919906712388578 -0.07917446245851421
000500 92 1e 39 da 15 a3 a1 3f 7d ba cb d5 61 aa aa bf
       0.03444736756187895 -0.05208116278469264
000510 09 1f 21 b8 6f f9 c1 3f 0c 8f f0 41 ad 3a ba 3f
       0.14042469492618917 0.10245783672194991
000520 86 b5 09 00 e7 8a 92 3f 72 4e 2c 22 20 f7 d4 3f
       0.018107995393099617 0.32758334481443463
000530 cd 3a 44 4f 64 55 d4 3f b1 b5 9d 4d 00 1f a7 3f
       0.3177119039618617 0.045158395266166614
000540 de be 66 47 0c 61 b9 bf d0 c8 c3 2a db 2d c8 3f
       -0.09913708441922206 0.18889941776394048
000550 58 62 72 bd 8d 44 b3 bf 5d 55 05 fc 59 3e 95 bf
       -0.07526479602018676 -0.02074566460335824
000560 e3 15 a0 14 4d 37 bc bf 32 7e db 35 a5 13 b6 3f
       -0.11021882775829499 0.08623726429822723
000570 0a 56 b3 d9 74 ef c2 3f 88 dd bd da 3e 07 be bf
       0.14793263082417268 -0.11729805794117543
000580 28 bc 92 f4 ff 7d ce 3f 51 59 78 8b a2 3c c3 3f
       0.23822020952272394 0.15028793153823952
000590 e9 00 ae 48 cc 1f b1 3f f7 43 62 11 90 ce 99 bf
       0.06689144873053333 -0.025202036915803885
0005a0 8d 4b 1d 66 71 5c af 3f 92 1d 9b c3 03 6c 67 bf
       0.061252158846989514 -0.002859122611741768
0005b0 ad c9 a2 e0 7f 20 a2 3f 16 52 4e f8 4a 7e ca 3f
       0.035404201671002646 0.20697915195764044
0005c0 56 c5 da 94 26 1b ba 3f cc cb dc a1 b7 86 c0 bf
       0.10197678693909515 -0.12911124614183078
0005d0 b8 e6 ee 81 0a 56 c4 bf 1e 3a 5d 9d 33 5d ae 3f
       -0.1588757643165104 0.05930482192944829
0005e0 e0 ac ce 5c 9e 71 b3 3f 9d 3a fe 93 6b b4 c6 bf
       0.07595243230632631 -0.17738098837113095
0005f0 78 e6 8c fb 51 4d ab bf 1a 00 de 45 4b 31 b6 3f
       -0.053324281651339456 0.08668966727964325
000600 87 0d af 2c 78 bf 7c bf 7d 2a d3 40 a8 53 ab 3f
       -0.007018536979504281 0.053372629082862645
000610 2d 44 5d 3c 29 61 b7 3f e8 69 ec 47 b0 13 c5 bf
       0.09132631038416213 -0.16466334831132134
000620 d5 1f d9 44 66 52 c2 3f dc ce 6f 09 d1 d7 b5 bf
       0.1431396328136986 -0.08532434921636017
000630 91 5e 9f cc 6f 58 96 bf be 1b ae 72 43 5a a6 3f
       -0.02182173429886675 0.04365740561393448
000640 79 8f 01 70 7e 6e b9 3f ca 81 48 08 e5 2e a1 3f
       0.099342253060568 0.03356090284455922
000650 d3 60 f5 68 7e 03 8d bf 23 68 e3 d4 d0 19 c6 3f
       -0.014166820123748291 0.172662834119195
000660 ee 39 c5 40 d1 1c b5 3f 63 26 16 3a f6 25 62 3f
       0.08247096854504551 0.0022153672331953075
000670 30 ca ac 17 41 eb c0 3f a6 a5 0b d9 a2 30 c2 bf
       0.13217939048770821 -0.14210925672459246
000680 f0 9d fa 3b fa d7 c6 3f 36 e2 56 d6 d7 17 b8 bf
       0.1784661095491482 -0.09411381705184216
000690 ca 80 95 46 20 95 94 bf a9 d3 80 c0 b9 11 a6 bf
       -0.020100120838265657 -0.04310398554699841
0006a0 77 a5 a2 43 8e c6 c2 bf 03 75 90 a8 2e c2 9d bf
       -0.14668443968302444 -0.029061059034678937
0006b0 ca 1d 32 61 a6 b5 b1 bf 91 c7 0d 5d 29 6b b7 3f
       -0.06917800782149822 0.09147890588590558
0006c0 3f d0 40 0f e7 24 c0 3f 09 32 7d e5 aa a6 c7 3f
       0.12612617726120054 0.18477379041213762
0006d0 f6 45 c0 e9 cc d3 bc 3f e9 63 45 41 7d b5 79 bf
       0.11260681826413318 -0.006276597287375709
0006e0 15 ba e4 65 c2 9b b8 3f 91 32 cb d4 3e 94 89 3f
       0.09612669932969482 0.0124897869767662
0006f0 ce 31 6f 73 1a b4 c4 3f f8 73 d8 64 dd 1b 86 bf
       0.16174631725733807 -0.01079533542638876
000700 9c 54 0e b8 e9 6e c7 3f 82 50 4f c5 3f bf c0 bf
       0.18307229506595923 -0.1308364594866625
000710 15 be 38 60 8c 8c b8 bf 0c 52 14 0a ea 09 bf bf
       -0.09589459752236736 -0.12124502893522776
000720 d5 06 fc ae 4b 91 d3 bf 80 74 21 0e 76 d3 b4 bf
       -0.30574314201667835 -0.08135164113032722
000730 ce 1c ae 19 51 10 ab 3f c4 5f 4c c3 23 da bb 3f
       0.052858862290173655 0.10879729764962948
000740 df 9c 8f 4e 7d c7 af 3f f2 2e 67 de 6c 26 c8 bf
       0.062068858947719845 -0.18867264613651674
000750 58 c5 81 3e e5 33 cd bf 98 87 5d 13 c9 a6 b8 3f
       -0.2281462245187338 0.09629494402682182
000760 c8 36 9c e6 2f 69 7c bf 65 3d 3f 70 0b c2 b2 bf
       -0.006936251747686924 -0.0732733868637659
000770 87 db e5 99 92 0a cc 3f d7 9c e6 7b d5 5b ba bf
       0.21907265200180978 -0.10296377444193482
000780 de b3 54 9c d2 e3 ae bf ba 25 4f b2 c5 5f c9 bf
       -0.06033189924560366 -0.19823523718359387
000790 ee ad 9e 6b ae 16 bc 3f 94 11 d0 83 cd c3 92 bf
       0.10972108962476287 -0.01832505337735453
0007a0 3c 06 84 fc f4 26 c9 3f 95 59 4c 1e 0f ed d6 bf
       0.1965013726221957 -0.3582189365273732
0007b0 5a ef 28 c9 b8 55 d5 bf 87 7e f9 7a ae 82 a7 bf
       -0.33335704464456273 -0.04591889620928407
0007c0 45 d5 05 55 d7 e7 e0 3f eb 2a c6 f7 8f 7b bc bf
       0.5283009205437926 -0.11126041220829179
0007d0 c9 15 8f d5 49 53 ca bf 32 2d 96 a0 e6 70 b8 3f
       -0.20566676070863668 0.0954727308327861
0007e0 82 fd 3e c9 2e 37 70 bf a6 43 2a dc 47 76 81 bf
       -0.003958876379271616 -0.008526383787541846
0007f0 52 c1 08 db 37 b5 b0 bf b0 07 58 b0 cf 7a b2 bf
       -0.06526517007364888 -0.07218645148534963
