attack_soft_generative_decision_tree/experiments/vehicle_params_state_dict/fnn_epoch213.pth (torch, 121327 bytes, 8 tensors)

layer1.weight f8 [80, 18]
0	0xbfd39ad72fee87d9	-0.3063257186969373
1	0x3fc3e0209f596386	0.15527732640000752
2	0xbfc0ab62353364af	-0.13023021314328306
3	0x3fbf109d92be475d	0.12134728272056124
4	0xbfc440e61eb34c3c	-0.15823055743257608
5	0x3fc8eb0963e2acfc	0.19467275025576913
6	0x3f9174cf169bcbbd	0.017047153239172042
7	0xbfc7fa797ec41f48	-0.18733137788535204
8	0x3fc7070fff0fd944	0.17990302995867513
9	0xbfc0c757825508bd	-0.13108342994570946
10	0x3f9a766bd7128a76	0.025842366220454292
11	0x3fbac10575b03775	0.10450777171373977
12	0x3fb9086b622d73fd	0.09778472086823338
13	0x3fa7f1b8ad1da9a4	0.04676606286269028
14	0x3fab65c58b1fa4a7	0.05351083110128601
15	0xbfc1370055cd6d2f	-0.13449100675175304
16	0xbfb41ba28e9e65f3	-0.07854667646315487
17	0xbfd0b0e437910c99	-0.2607965986864627
18	0xbfc79e7cfc9329b7	-0.18452417690998654
19	0xbfb3521be10ee1c9	-0.07547163242896383
20	0x3fd7a3ba1411285d	0.3693680950133336
21	0x3f8c620b21eecb78	0.013858878109976422
22	0xbfb4a7375b10ae8e	-0.08067651723166078
23	0x3f80cf1c36be1cb8	0.008207531376468999
24	0x3fb0ac61104f61f2	0.06513029716678156
25	0xbfc66db91cb1b0a2	-0.17522348309592412
26	0xbfb7dbacc9327914	-0.09319572364845313
27	0xbfc643ebfeaede45	-0.17394781051346989
28	0xbfa7ad659a52dc3e	-0.04624478825410748
29	0x3fca80371fa2461b	0.2070378212415996
30	0x3fb62c14639193a9	0.08661010199428056
31	0xbfc129679e4f5373	-0.13407607297872523
32	0xbf9335dc814bb2c4	-0.01876015223654083
33	0xbfc39a3679a7c856	-0.1531437009830962
34	0x3fc6e7f83dc08eb7	0.17895415320628213
35	0x3fc122fbd8e90506	0.13388012019462553
36	0x3fc0910d943b8d68	0.1294266675750848
37	0xbfc8e4883cc3e8a1	-0.194474248571912
38	0x3fc45a1c5efb0add	0.15899996412016196
39	0x3fb29f395ab0012e	0.07274206604052288
40	0xbfcceb4bd03d5304	-0.22593066852518728
41	0xbfc523356466a43c	-0.1651369800795538
42	0x3f98ff38c57b822e	0.024411093762753015
43	0x3fbf13181a29daf5	0.12138510359532602
44	0x3fd3b1d057127efa	0.3077278948130552
45	0x3fbde402c1a182ce	0.11676041819874713
46	0x3fa2fd64fcd1743a	0.037089496480554776
47	0xbfa3d3d44f9599b5	-0.03872550460328076
48	0x3fb7d3bb82e15551	0.09307453103368359
49	0x3fbecfe2f7b86293	0.12035959766252295
50	0x3fd0a30da593446e	0.25995198411425846
51	0x3fd4dcaeada3e677	0.32596938092283473
52	0xbfb14bb48327c06a	-0.06756141855271527
53	0xbfc18d838464bd46	-0.13713115658308989
54	0xbfdc4111c6b0dadf	-0.4414715233173591
55	0x3fc8961a37852eac	0.19208076201390634
56	0x3fc658f6ce843565	0.17458996852694067
57	0x3fd053381e0d4d93	0.25507929739725305
58	0xbfd44353fee85822	-0.3166093816120129
59	0x3fd891f901cc05d1	0.3839094655559992
60	0xbfb1e7f03697a9c5	-0.0699453480989752
61	0xbfc37696385bc68f	-0.15205648185615359
62	0xbfb5c1199ff628b8	-0.08497772364913458
63	0x3fd151e9ef150641	0.2706246218477624
64	0x3fb730b49f179302	0.09058693775257257
65	0xbfc5151129b9d239	-0.1647054151286669
66	0x3fbceaf1eaa0cf75	0.11295997598864267
67	0xbfd2614a65848a63	-0.28718814767686335
68	0xbfca4f6c49f15dec	-0.20554879770746426
69	0xbfc55dfa523160e8	-0.1669304753620573
70	0x3fa0b1e94d0a1ed5	0.032607355741729606
71	0x3fcdc69c76da3bb2	0.23262363246291567
72	0x3fcec01777c2fc4d	0.2402371725820295
73	0xbfb28cb2e2d5d346	-0.07245939290971845
74	0x3fc2f00583443dc4	0.14794987592220654
75	0xbfd472c847d2374b	-0.3195057584169844
76	0x3fd34bf86f965519	0.3015118684500791
77	0x3fc3f73b55ab9fba	0.15598241503835003
78	0xbfd0eca187db01f0	-0.2644428087915278
79	0xbfc45517ab6e1ef7	-0.15884681578267365
80	0x3fb79b1e9a86d2e1	0.09221068642257137
81	0x3fc409801f5d45fd	0.15653993159735072
82	0xbfc0d269b9a8d13f	-0.131421294836068
83	0x3fb7392d897521bd	0.09071621518990632
84	0x3fc2ab15816391b8	0.14584606950587697
85	0x3fd6cd9466462682	0.3562975882310654
86	0x3fb9ee2f033a7f1c	0.10129064396687365
87	0xbfc13375c4a9b539	-0.13438293554956163
88	0xbfd7dfc650d2327a	-0.37303312199291094
89	0x3fb11bf71b360d6c	0.0668329659875348
90	0xbfd3062340d82583	-0.2972496159787498
91	0x3fd0cd053d592bc7	0.2625134562592248
92	0x3fd1789cc683940c	0.2729865969288887
93	0xbfc164794371b000	-0.13587871354263825
94	0x3fd823761019a9e7	0.3771643788556091
95	0x3fc45cc1b59d7852	0.15908070915151257
96	0x3fc2b16cc7e4e7b0	0.14603957901436848
97	0x3fca1d65d0271b73	0.20402214683255301
98	0xbfcb7dd871c529f4	-0.21477799945053244
99	0xbfccc1b72ff877d7	-0.22466173021615418
100	0xbfc351265fd8ad1e	-0.150913998413082
101	0x3fc4deec341fa791	0.16305306000805023
102	0xbfc638316ef8acaa	-0.17358987730526582
103	0xbfc7eaeb45692712	-0.18685665978619476
104	0xbfc0baee7dfeb4fd	-0.1307047000131333
105	0x3fb40fce4ef4d76a	0.07836617877623345
106	0xbfd6e4578ad2d9b0	-0.3576868873309662
107	0x3fd3152235000b7f	0.2981648938731993
108	0xbfc392fc2b060e92	-0.15292312718166962
109	0x3f836fa8efde5a97	0.009490318126876658
110	0xbf95af6acfe7c3a8	-0.02117697614625383
111	0xbfcc6eabe8152ab2	-0.22212742645418398
112	0xbfcecfa89cac10c2	-0.2407122387886656
113	0x3fc2dde6d7f536c6	0.14739690346544004
114	0x3fb6636cb4b73b06	0.08745459949498632
115	0x3fb959823908f16e	0.09902204410986368
116	0xbfba946549ced10f	-0.10382683803510794
117	0x3fd052489ab7fe9a	0.25502219304324003
118	0xbf9511f9b5e32e67	-0.020576383329894556
119	0x3fba5cf6f47fec7f	0.10298102826338783
120	0xbfd2e07deccc7a1f	-0.2949518978583984
121	0x3fcc3e4a37a77c49	0.2206509372472019
122	0x3fb828121610b8d0	0.09436142958358862
123	0x3fc61860f4867d19	0.17261897983278443
124	0xbfbd05529c3eb029	-0.11336246790477901
125	0x3fd258259eda7d72	0.2866300631812556
126	0x3fd2defcbbe9a75a	0.2948600611767823
127	0xbfb702b695706567	-0.08988515041746369
128	0x3fd01edc5b34cc5e	0.25188359171733576
129	0xbfc2d402490ee962	-0.1470949990014772
130	0x3fbace0f270eb4c4	0.10470671371031687
131	0x3fc4e74613801427	0.16330791427768185
132	0xbfbb06acacd4b95a	-0.10557059497361845
133	0x3fd2ad586a90a109	0.29183016211256124
134	0xbf6426ad55f6e3c0	-0.0024598489250959588
135	0x3fc7999ffe7e5359	0.18437576223791544
136	0xbfd1e8cf8a308b2d	-0.2798346375949901
137	0x3fa856640908774d	0.047534109213514066
138	0xbfc23fec09a51d6d	-0.1425757453055029
139	0xbfbbcfd4cc26517e	-0.1086400030529315
140	0x3fb9c65cd7180738	0.10068302394213624
141	0xbfd16be6e8ebb14d	-0.2722108149162253
142	0xbf9db372bd6968c3	-0.02900485306813817
143	0xbf94866af22da235	-0.020044013053310123
144	0x3fbdb0ec9d5973f4	0.11598090020693502
145	0xbfd061b5c1fa8799	-0.25596374457574594
146	0xbfa896f59940c234	-0.04802672858966553
147	0x3fa81b414a9a532c	0.0470829394882116
148	0xbfc39535fa2312e0	-0.15299105371209176
149	0xbfbbc12e074d8842	-0.10841643980305185
150	0xbfb5a74025b70eb3	-0.08458329125192669
151	0xbfa3a17b80b2886a	-0.03834138818753348
152	0x3fccbd45588fb3a2	0.22452608894618914
153	0xbfd2e83a6aa5a63b	-0.2954240838504096
154	0xbfb545dcba884f64	-0.08309726289763614
155	0xbfc372e08b3e947b	-0.15194327162786067
156	0x3fd27e6ca8535ddc	0.28896633565952157
157	0xbfd73215aee57983	-0.36243192748761305
158	0x3fc67f0ab24a5114	0.17575200753766096
159	0x3fa12537ced73e9a	0.03348707580482575
160	0xbfcaf0392739e764	-0.21045603194562112
161	0xbfb33179322f15fb	-0.07497365451043685
162	0xbfc764d69d2de908	-0.18276484179279628
163	0x3fbbdcb47bbcb637	0.1088364412396111
164	0xbfb60738d582ef69	-0.08604769909555689
165	0x3fd6ba281be372fb	0.35511210177882874
166	0xbfca695efd779538	-0.20634066940616846
167	0x3fd7666c86749b65	0.3656264603654818
168	0x3fa4c135af651cf3	0.040536573086280024
169	0xbf9eb2d12716112f	-0.029979007731087023
170	0xbfb0920a17e77a60	-0.0647283848152056
171	0xbfa48915c00d6691	-0.04010837525738709
172	0x3fcd69dfa16d3889	0.22979350454483363
173	0x3fad2e7b65f2c67d	0.056995254702440136
174	0xbfc281dcf37b58d6	-0.1445881070018859
175	0xbfd915cdc532e2e8	-0.3919557977456365
176	0xbf634d77b250c33f	-0.002356275350870268
177	0x3fbd793352cf4284	0.11513062259406054
178	0x3fc2085209c84d23	0.14087892034204072
179	0xbfb249c57375755a	-0.07143816059893507
180	0x3f9de9e3352857bd	0.02921252262066053
181	0x3fd74457b0d48e41	0.363546297727428
182	0x3fa6c4efc3fe557c	0.04447125689982109
183	0xbfaee7d15cb5990f	-0.060362379614888544
184	0x3fd009f464186f48	0.25060758376070114
185	0xbfcaa2615171c203	-0.20808044888282504
186	0xbfb8e6746e8964fa	-0.09726646135949926
187	0x3f7f7d48c75bb33b	0.007687839786495949
188	0xbfb64b9f7f0d26cd	-0.08709141589965981
189	0x3fccac7851b07d07	0.22401336659184087
190	0x3faa27376f2ebabc	0.05108044845780088
191	0xbfb6784efb676668	-0.08777326238432581
192	0x3f9c7740b050bdd5	0.0277986629118326
193	0x3fc343ca39a57860	0.1505062848545462
194	0xbfc0035e268454bf	-0.12510277634343045
195	0xbfa80ac3b696e58f	-0.046957126654386554
196	0x3fb3e309a44cfc41	0.07768306981323382
197	0xbfd23b1021f7cdb5	-0.2848549205511646
198	0xbfacb738bcbe51a4	-0.056085370101899984
199	0xbf98fe494ff79b88	-0.02440752554494055
200	0xbfad0b73d385bec8	-0.056728000231371534
201	0xbfc67ec1c9bd17be	-0.17574331617850975
202	0x3fc29684ab49a905	0.14521845210703802
203	0x3fbeab523fdbc7c2	0.11980165537877865
204	0x3fc572584c6f08f8	0.16755202991595985
205	0xbfcd547f6f0e31b2	-0.2291411678564948
206	0x3fc63d3b10efac36	0.1737436135002512
207	0x3fd7b5814c88e801	0.37045319055653186
208	0x3f9e1335fd7a924d	0.02937015876399789
209	0xbfccbcd30318c86d	-0.22451245928965893
210	0x3fa2ef06fcd7e8c2	0.03697988354174832
211	0xbfc9272006a9ce76	-0.19650650334698455
212	0xbfc678f4d7197be2	-0.17556629660518214
213	0x3fb494a7cc207f15	0.08039330228393411
214	0x3fd71ebfdb808479	0.3612517970632961
215	0xbfd2824a48399bdf	-0.28920228055215874
216	0xbfc5518aa6b92a5b	-0.1665509523466707
217	0x3fd4f4752b920c99	0.3274205136769495
218	0x3fd281819c234d3a	0.28915443656770246
219	0x3fac85378a58f988	0.05570386470616301
220	0xbfdddd0b3910837a	-0.4666164452810829
221	0xbfbf8df8dc98f546	-0.12326007257157298
222	0xbfb3422b4a4abe9e	-0.07522841037529779
223	0xbfa3f776a01ff93e	-0.0389973707642519
224	0xbfac3c8ec1f1ea98	-0.055149518179822
225	0xbf7604719f6fd2ff	-0.0053753317251803425
226	0x3fb2b3739370fb67	0.07305071210519785
227	0xbf926487ebbae776	-0.017961620104621066
228	0x3fc63bcc9254e4fb	0.17369992394541342
229	0xbf84674545ad7da1	-0.00996259802712879
230	0x3fbd6c3254623750	0.11493219909808983
231	0xbfbf8bd9f51c9160	-0.12322771295709378
232	0x3fce1a05ed846f0a	0.23516916368031843
233	0xbfc96b6ac25c5e5a	-0.19859060755037455
234	0xbfb9dfd1eb4ba706	-0.1010714721157023
235	0x3faf66d31cf464d7	0.061331364902977796
236	0xbfaec22103c3392e	-0.060074836453724564
237	0xbfd143307f8bd4b9	-0.2697259183472159
238	0x3fd0166b4e0e7e06	0.2513683569213473
239	0x3fb5cbdfd4e2792b	0.08514212558154514
240	0xbfd21b8707565c74	-0.28293014256036675
241	0xbfbea9ce75380723	-0.1197785412005286
242	0xbf9c441fae8e5a25	-0.027603621510559635
243	0x3fd460c95d332ee6	0.31840738393360224
244	0x3fc91b5840bb6f08	0.1961469951701178
245	0x3fa7c852c7485066	0.04645022089621946
246	0xbfc6bc9a3a2cf23e	-0.17763069000820225
247	0xbfc1c8c94a407d41	-0.13894001126844027
248	0xbf820550ad0cb7a5	-0.008799200326020282
249	0x3f9652dba34bf594	0.021800453035202574
250	0xbfd26719aadcf8f8	-0.2875427406869586
251	0x3fd966e2cb7de663	0.39690465805288094
252	0xbfd1415153085808	-0.26961167439128575
253	0xbfc637f276e05d0f	-0.17358237080109304
254	0x3fc8f2912869a326	0.19490255807183948
255	0xbfad7700f608b223	-0.05754855159134233

layer1.bias f8 [80]
0	0xbfbb7ab2cf24f1ec	-0.10734098012193954
1	0xbfc54c7571ae00db	-0.16639583636061314
2	0xbfc2e095e9906224	-0.14747880844585481
3	0x3f949bd4ba352bb4	0.02012569796105952
4	0x3f4910af089d11f8	0.0007649283081510574
5	0xbfa64e83e1b29aa2	-0.04356777315233741
6	0xbf765eaffb344d67	-0.005461394717048185
7	0xbf6ea1233e37abef	-0.0037389458027425808
8	0x3fa57c8e9157a8a2	0.04196591877173829
9	0x3fa7a9a688d94ac7	0.04621620579259438
10	0x3fa2de1cb2048922	0.03685083077495423
11	0xbf9b9a5d01f96fd5	-0.02695603680182031
12	0xbf93e881300159ea	-0.019441622309693964
13	0x3fa7f6148ac05be0	0.04679931825392436
14	0xbf6952a4d5f54d39	-0.003091165490027994
15	0xbfa0a6cdd318fe7a	-0.03252261354327586
16	0xbfa55e4274217d34	-0.04173476855862149
17	0x3fb0d1fc58ead82d	0.06570412798723231
18	0xbfc51d3ebee94754	-0.16495498964155308
19	0xbf785c5b4fb544ee	-0.005947453198431802
20	0x3fbe6103dd28bb93	0.11866783284561526
21	0xbfa8e7c418a10521	-0.048643234259097896
22	0x3fb7dad93fcc5c74	0.09318311507773719
23	0xbfc41bd4c77ba94f	-0.15709933987029465
24	0xbfb6e8d6c2ced0d8	-0.08949033981372467
25	0xbfbf4359729f1e8d	-0.12212142036798408
26	0x3fbf1dac18a2b574	0.12154651261763211
27	0x3fc3147def8b9493	0.14906286427063672
28	0x3f6e264e397ada3e	0.003680374891554621
29	0x3f90645681e840eb	0.01600775878802178
30	0x3fa5d32816d03a6d	0.04262662199481757
31	0x3f85efd2aecefedd	0.010711332282766712
32	0xbf93dfa6ecd1abd0	-0.019407852367674228
33	0xbfb816794833a96a	-0.09409292233218527
34	0xbf95bdb25a27f90c	-0.021231447937673883
35	0x3fbedb19ebe2b126	0.1205307198421833
36	0xbfb3a17e2edc41bd	-0.07668293613483619
37	0x3fb1249453a633ee	0.06696440736978079
38	0x3f9170a418c4cd2b	0.01703125382591712
39	0xbf73139884ee80c5	-0.004657359865547221
40	0x3fb474b021b2733d	0.07990551779444117
41	0x3f8a2f6923b30fcc	0.01278574123569589
42	0xbf7ee1f51a1053cd	-0.007539708546592428
43	0x3fa935963e06331f	0.04923696047908365
44	0x3f89a57e3123e3ca	0.012522683977737165
45	0xbfbf982b2a106e18	-0.12341565873105542
46	0x3fba58c3ec3391c4	0.1029169513381652
47	0x3fb09a378addd663	0.06485316410347645
48	0xbfaba04e30333e2f	-0.05395740831738426
49	0xbfa1848f5aedd0d0	-0.03421447739575145
50	0xbfb1a847f89ff7ae	-0.06897401637976827
51	0xbf9a1b41e081272a	-0.02549460346953151
52	0xbfa84c790855c9f8	-0.04745844103571878
53	0x3f8378bb6c745de1	0.009507622000952178
54	0xbfb0bb69b362d4ba	-0.06535969380896037
55	0x3fa2aefa3d9b86fd	0.03649122240109468
56	0x3fb051749df335bf	0.06374291282846566
57	0xbfbfeb0993002c5e	-0.12468013609775272
58	0xbfa80ffa77c58170	-0.04699690544180413
59	0xbfd06d55d3c991a2	-0.2566732948528402
60	0x3fb7f0e9c503fd11	0.09351979312849702
61	0x3fb17126c1d3de3a	0.06813280326957108
62	0x3f7dee8afc16837f	0.007307570370728266
63	0xbfb6999a18032c8d	-0.08828127943268012
64	0x3f99654380ebdeb0	0.02480035280583931
65	0x3f6063b49a70f783	0.0020006682784971543
66	0xbfac4be13aff79f3	-0.05526641698064685
67	0xbf8fd9b0b2d84049	-0.015551929910572098
68	0x3fafeb4edfbeaf06	0.06234213334331966
69	0x3fab01bc71bc8042	0.05274762047179184
70	0x3fadf61f5a524279	0.058518390441467845
71	0xbfa19ddf392a42bf	-0.034407592514190004
72	0xbfb5fce7788ab3c0	-0.08589026158251922
73	0x3fa1d8a799003ffe	0.03485606901824666
74	0x3f8109044c1dd3c8	0.008317979405299783
75	0xbfbafe04e4c566b2	-0.10543852410537616
76	0xbfad5b029ce7ce78	-0.05733497777319213
77	0x3fb89963770f7398	0.09609052330729495
78	0xbfa1c302efe68011	-0.034690944466319824
79	0xbfa72f4c2524430e	-0.04528272584332714

layer2.weight f8 [80, 80]
0	0xbfb23be40136c8cb	-0.071226358696353
1	0xbfb274325406dbc9	-0.07208551932750064
2	0x3fc61179a8eb88b1	0.17240830181169067
3	0xbfc8dee8d9859174	-0.19430266019038422
4	0x3f7acfe706416c87	0.00654592746658545
5	0x3faaf1e5433501f8	0.0526267666377897
6	0xbfd25d91cc4c6d58	-0.2869610304930652
7	0xbf8ed1611caa50ae	-0.015047796904845558
8	0x3fbe6d148bc98509	0.11885193264744855
9	0xbfd0ed9c96ea16fd	-0.26450266587958976
10	0x3fa5500dc101fe34	0.041626386461754455
11	0x3f93a70dab80a4ed	0.019191945641215225
12	0xbfbecefa3ee7066b	-0.12034572635368483
13	0xbfc0bd359099086b	-0.13077420769156176
14	0xbfa6b781943e0e6a	-0.04436879095649433
15	0x3fb39896c535a51d	0.07654707255064293
16	0x3fbf73839fefa8b0	0.12285635618869395
17	0x3fc5436fc56942e4	0.1661205018922579
18	0x3f7b6b3e0a481b59	0.006694071144471924
19	0x3f443d74588e9116	0.0006176775069559905
20	0x3fbc114224308a08	0.10963834174666698
21	0xbfcb571dc9a8648f	-0.21359608027049545
22	0xbfb213e2cc979447	-0.07061593527721853
23	0x3fc3b203b4d1f7a2	0.1538700707350787
24	0x3fc1ee2f3d72b00a	0.14008131504431304
25	0xbfc2290322c36e2d	-0.1418765945189632
26	0x3fcc5fa1f55ff191	0.2216684768790285
27	0xbfb27951323ab8cc	-0.07216365314772871
28	0x3fbf9dec8758fecd	0.12350347809205715
29	0xbf82fd5e2785785b	-0.00927232320890086
30	0x3fcd427677adeb99	0.22859078258246937
31	0xbfc208b9117574c2	-0.14089120247346015
32	0xbf816fcff33e72a8	-0.008514046297756053
33	0x3fca34f084cda703	0.20474058613336163
34	0xbfba0bcf3ca3113f	-0.10174269895930353
35	0xbfc4cf31157be2cd	-0.16257298993129723
36	0x3fb51df6b95b65eb	0.08248846078222243
37	0xbfcfd23c8024e042	-0.2486034036353449
38	0xbfc7c6bbe217847a	-0.185752377888125
39	0x3fb3bbd7cd8d5a00	0.07708500641215466
40	0xbfc613421e4497b6	-0.17246271589209322
41	0x3f830a4c8e4a83c8	0.009296987621668765
42	0x3fb7576c660b3d6b	0.09117772570902154
43	0x3fd076700276cc36	0.25722885361318804
44	0x3fa1cb072bc48de8	0.03475210580134186
45	0x3fa19d564b926097	0.03440351173884542
46	0xbfdc41cdea2b461a	-0.44151637905187757
47	0x3f7ee7dc84619bb9	0.0075453390073567045
48	0xbfcfaacb2744aace	-0.24739970605272393
49	0xbfce1e0ad4561dad	-0.23529181831348236
50	0xbf9d6213c83983ef	-0.028694447608703596
51	0xbfbd68b8ad20ef3b	-0.11487917162679377
52	0x3fc60911a6b13d7d	0.17215176238321908
53	0x3fbcc09c20341c4f	0.11231399332255985
54	0x3fb7fcb452b02b4f	0.09369971293214728
55	0x3fabe1cbac516dd6	0.05445705870144095
56	0x3fd32c73fbf10208	0.29958819965034467
57	0x3fc80fcc458a347d	0.18798211474896567
58	0xbfd4e2b1342b7424	-0.3263361939878584
59	0x3f9978505c068a5c	0.02487302362136244
60	0x3fd6f9d4099b88e2	0.35899830759275464
61	0x3fc69d20a84fa62b	0.17667015283886775
62	0x3fa641d9126552a4	0.043471129890041454
63	0xbfc28d6b7433bfec	-0.1449407880204484
64	0x3fc17bfc6c5bae94	0.13659625330852931
65	0x3fbbbfd4286180d4	0.1083958242975343
66	0xbfd0b3f6e015c2b7	-0.2609841526346303
67	0xbfcc3994d049db95	-0.22050724191987273
68	0x3fb88b863f6c8387	0.09587897346911066
69	0x3fc2d1aa74dac5ef	0.14702349382200405
70	0x3f67e89708e33733	0.002918524732286176
71	0xbfd1ada2efce6ea2	-0.2762229291781556
72	0x3fc253ef01f658ca	0.1431864509183412
73	0x3fb9a3c3b7bcaa7c	0.10015509830251718
74	0x3fd2fc1190ed964b	0.29663504746563224
75	0xbfb9e41da9bb87e8	-0.10113702195988561
76	0xbf99146593cf883d	-0.024491870066306588
77	0xbfa886ece5003429	-0.04790439887447235
78	0x3f826584112c4bc0	0.008982688688353835
79	0xbfb4f94a6b222b61	-0.08192887416423168
80	0xbf7e856d9cb5fcae	-0.007451465771168104
81	0x3f9f62917dc1dded	0.0306494458204422
82	0xbfc06aec821e7d66	-0.12826305726501203
83	0x3fc0f2f07445f5c6	0.1324139182797081
84	0xbf670d62cfd081bd	-0.002814000121830611
85	0xbfc131d3a380aef9	-0.13433309062508395
86	0x3fdab6ad7f371795	0.4173997633300755
87	0x3fbfadf55a948255	0.12374814473560865
88	0xbfe74ad5ec1cba36	-0.7278852092329717
89	0x3fc9e062cf8b0b72	0.2021602166551833
90	0x3fc40491d63d8dab	0.1563894554229653
91	0x3fc068335404ad6d	0.12817994692282345
92	0x3fb35230307ba7a7	0.07547284301440858
93	0x3fbac5b149e09473	0.10457904866832894
94	0x3fd4febae1d88098	0.32804748587842303
95	0x3fa8d4a0e533661a	0.04849722669468921
96	0xbfbe7585ad0f87fa	-0.11898074603189449
97	0x3fa1f0cd50be3504	0.035040298563311395
98	0x3fc2c292eec41231	0.14656292589656197
99	0x3fb24125de0645e1	0.07130657835502731
100	0x3fc855819a85ba47	0.19010944409406447
101	0xbfb51a1eb1db1f39	-0.08242980806528245
102	0x3fa0515acd490a8f	0.03187068706440243
103	0x3fb90f48721aae36	0.09788944993732049
104	0xbfb0d4949900bb87	-0.06574372039243147
105	0x3fc044e879fe5d86	0.12710290867537938
106	0x3fc53e45f314b869	0.16596292847811192
107	0xbfb459ec4fc635f7	-0.07949711749662201
108	0xbfda0e824af94bde	-0.4071355564275886
109	0x3fcc165f540bdc23	0.2194327507383785
110	0x3fc83d643c520ec1	0.18937352128351928
111	0xbfcbb88922ed31b0	-0.21656908231160577
112	0x3fac0f5560cba186	0.054804485383843235
113	0x3fc0579cf53f14f8	0.12767374014780564
114	0xbfccbd07a538a5f5	-0.22451873366780686
115	0xbfb61c7ee2b9f3a8	-0.08637230906783933
116	0xbfa4b5f69fe3f47b	-0.04045077039516173
117	0xbfc1513769687fa6	-0.13529102942356735
118	0x3fc090b7eadc9393	0.12941645591595527
119	0x3fc5e4a97e0c249c	0.17104071287784428
120	0xbfd774437e2d1294	-0.36647116968041726
121	0xbfc4d837abbb501c	-0.16284843335472565
122	0xbfc131312703d555	-0.13431372075107598
123	0x3fbfe956cd5ec3f0	0.12465422166748374
124	0xbfb075d234ff800e	-0.06429780763528489
125	0x3faf1747a558707b	0.06072448628785395
126	0xbfcb0c7b3a92e24a	-0.21131840095564974
127	0xbfc77f4694676bfb	-0.18357164617813723
128	0x3fbd1c99ee2c2fad	0.11371767105828097
129	0xbfce0870448b26a3	-0.23463252398351128
130	0x3f63f21b7936dba3	0.0024347817031542137
131	0xbfc431cbc5d8dd27	-0.1577696529436505
132	0xbfbdebdb67a6d31b	-0.11688014298017572
133	0x3fbe20d8532af5b3	0.11768867521728658
134	0x3fb7cd424b5a2253	0.09297575320864242
135	0xbfb2a01eb8b32f93	-0.07275573739315026
136	0xbfd45945f9a7074f	-0.3179488122951754
137	0xbfcba8d709f3a390	-0.2160900877563816
138	0xbfc1e8638cf0e5b0	-0.13990444547543524
139	0xbfc28433f8198899	-0.14465951551671166
140	0x3f9db1b4e0d02098	0.028998209210869236
141	0x3fab0617937771ca	0.05278085398797179
142	0xbf89c21d597b688a	-0.012577275555873752
143	0x3fb2c301f280adca	0.07328807993388078
144	0xbfcfda4d6b86bbca	-0.24884956121738205
145	0x3fcaf6cf2f866e3a	0.2106570226722953
146	0x3fbef171bd9ceafc	0.12087164763662978
147	0x3fd046b8a055ff83	0.25431647928052586
148	0xbfb83679fec9d63c	-0.09458124609394586
149	0xbf9c2268d09d9618	-0.027475011570819857
150	0x3fcdc90d061782a6	0.23269808576062195
151	0xbfdf7d2c92054e25	-0.49201502094112676
152	0xbfd35970bf404294	-0.3023340099034979
153	0x3fa2f4d288cc08b6	0.03702409667859412
154	0xbfaa53177433b849	-0.05141518872720547
155	0xbfa2d31deca5cb7d	-0.036766944062853725
156	0x3fc123ded6699859	0.13390717954024714
157	0xbfc2de2482237c23	-0.14740425447868785
158	0x3fb2c9fbcf424b1f	0.0733945256236379
159	0xbfb051f90f98b71f	-0.063750807101965
160	0xbfb1953595d19fcc	-0.0686830034989036
161	0xbf8488bed5c5a5af	-0.010026446245961688
162	0xbfae961dcbed9264	-0.05973904718738224
163	0x3fcf99a26094e0cd	0.24687604633232355
164	0x3fc766d259b2763a	0.1828253686880304
165	0x3fac2a21f2dc6f7f	0.05500894631970165
166	0x3fcbaa1ca5f6bf0a	0.21612890342429864
167	0xbfad0d7633a07efc	-0.05674332981311456
168	0x3fcdc70edb788ccf	0.23263726917602986
169	0x3fbecbf824cc0bff	0.1202998246990745
170	0xbfc2279d93e509a6	-0.14183397027416084
171	0x3fcff8331ec4752f	0.24976195337596027
172	0x3fcdf361d0b537cb	0.2339899319726427
173	0x3fb428b85e73e72f	0.0787463408086324
174	0xbf90ff8b40d0978b	-0.01659982283685894
175	0x3fc06acb19e806ab	0.1282590748306139
176	0x3fc6163c111b9b1e	0.17255354724257982
177	0xbfad1b2f1020c704	-0.05684802123904656
178	0x3fbf50f23db3df4e	0.1223288918152978
179	0x3f80efb7120d87e4	0.00826972030489865
180	0xbfb64bce338b002c	-0.08709419973729443
181	0xbfc5f9a4cb59392c	-0.17168102196814894
182	0x3fa419094831f86d	0.039253511488809824
183	0xbfbc54a437963c34	-0.11066652638531665
184	0xbfbdbb73bd223707	-0.11614154212494664
185	0x3fbe9c6370cfd76b	0.11957379821964557
186	0x3fba93f0211614a3	0.10381985481042703
187	0x3fc4760faa9d9df5	0.1598529418072158
188	0xbfbd12d3acac5140	-0.11356852498676506
189	0x3fbf25729e06caaf	0.12166515691823564
190	0x3f731c779296bdd8	0.004665820198553182
191	0x3fc35c97d29edc31	0.15126321586805738
192	0xbfcdb517299a0f00	-0.2320889428266284
193	0x3fcaf244ce7bc292	0.21051845628928284
194	0x3fa1da4bcd72f200	0.03486859209940363
195	0xbfa682bb1ceb5e73	-0.04396614769001141
196	0xbf9c96dcbeb2539a	-0.027919243945308737
197	0x3fb2fbaf87b48ede	0.0741529184638767
198	0xbfb0e55c27c617c6	-0.06599975558319135
199	0xbfae5c58aeec6c02	-0.05929829726502335
200	0x3fc1be6253fec0fc	0.13862256146740737
201	0xbfbb32fafdf1cd64	-0.10624664974038961
202	0xbfc64de500370b8a	-0.17425215254305854
203	0xbfc03da062bee2c5	-0.12688069173397856
204	0x3fae9d5ce7f7d036	0.05979433375969771
205	0xbfca3c19a64988b0	-0.2049591123532699
206	0x3fb3b9c13a0baa29	0.07705314318779045
207	0xbfca83151f167446	-0.2071253206057994
208	0x3f9d60150add8655	0.028686836994330573
209	0x3fbb62f68e2418c7	0.10697880716552098
210	0xbf9f7f35799f35da	-0.030758700893604864
211	0xbf97786793a06354	-0.02292024458447213
212	0x3fb24adf47169b77	0.07145495877794682
213	0xbfa3f34ae2ded20b	-0.038965549654140196
214	0xbfc60ae55060e8a9	-0.17220751213773625
215	0x3fbc21ce3f39e362	0.1098908333168658
216	0x3fc2b57624326601	0.1461627651922726
217	0x3fc0ee3793d3d025	0.13226980894217025
218	0xbfcdb46f8b1c8390	-0.23206896107242558
219	0x3fbd1e1c2c51cca5	0.11374069292087315
220	0xbfcd0dff66ae71e7	-0.22698967469922524
221	0x3fcbdb1bbd5b8049	0.21762415643661573
222	0x3fd1a3213bf86fdb	0.27558165413370056
223	0x3fb5372eed36d3da	0.08287328044282508
224	0x3fb9d0ab00adb818	0.10084027067725321
225	0xbf9de498154db0c0	-0.029192329693089603
226	0x3fa2f79e02af7cd6	0.03704541952878919
227	0x3fc7430d8e7024a1	0.18173379378302904
228	0xbfcc178ca57b9203	-0.2194686706562977
229	0x3fcaf55e2a536d7a	0.21061303202337084
230	0xbfc458f836bba8e8	-0.15896513626586928
231	0xbfaad93cc5507be8	-0.0524386397230428
232	0x3fb5edcf47489bee	0.0856599377662943
233	0x3fb8e2fb8e1f10f8	0.09721348018416964
234	0xbfc010bc8e8d003a	-0.12551075897681746
235	0xbfc6a920d5826472	-0.17703638482342715
236	0x3fd0efb2c51ed182	0.2646300244334939
237	0xbfb027ad72c1311f	-0.06310543109538401
238	0xbf9cd5739637b422	-0.028158002894930097
239	0x3f8dfba7af0b8a75	0.014640150098277996
240	0x3fa03f81f9e6c2f5	0.0317345254474101
241	0xbfb4ec2fef5c872d	-0.08172893136773203
242	0xbfc0cea2420403b8	-0.13130596373960457
243	0x3fcf9870e525da51	0.24683963002071832
244	0x3fc9ef792d3d6ad0	0.20262064656238588
245	0x3fcdf041b0028a9a	0.23389454931483017
246	0x3fcccfeb20bf6d97	0.2250951681042863
247	0x3fd0161c0796df0c	0.2513494562258394
248	0x3f9bd86a68f51abd	0.02719274774178858
249	0xbfcedc5a4d76d243	-0.24109963209561344
250	0xbf48c99061767a2c	-0.0007564501747088829
251	0x3fadd5ae15590029	0.058270874124446266
252	0xbf87a79e0c60c169	-0.011550173523659795
253	0x3fcb6d12a285abbd	0.21426613746311132
254	0x3fcf3557fd4979ce	0.2438154207947733
255	0xbfc2159f92185115	-0.1412848914484434

layer2.bias f8 [80]
0	0x3fbaea96fe045238	0.10514205648025488
1	0xbf6b7f0d47c50556	-0.0033564814931713967
2	0xbf9f10ff7637fbd1	-0.03033827933358763
3	0xbf9fe7898715bb0f	-0.031156681890418144
4	0x3f9fbce3d38faf38	0.030993995464015017
5	0xbf9ce396579edd79	-0.0282119265536642
6	0x3f79fb4dcefdde6f	0.0063431777378962625
7	0x3f8db6c245c4de39	0.014508741144353287
8	0x3f9a1ede98a19e4b	0.025508382860065997
9	0x3f9ff5838758f3f4	0.0312099982604543
10	0x3f978bef62b8f0f3	0.022994747543848736
11	0x3f8bec68b8b5c8e4	0.013634508263497165
12	0x3f916dfea8bc11bc	0.017021159218545398
13	0x3fa5bf3ab022a2fc	0.042474588395014806
14	0xbf903c4c5702b3b2	-0.01585501938886908
15	0x3f84f85edc567243	0.010239354228184122
16	0x3fab04816b5a6eac	0.0527687495752763
17	0xbfa550c43ba8c1e7	-0.04163182476293397
18	0x3f6bcf8c110dd3ab	0.0033948646236532007
19	0x3fc065b62891ed07	0.12810399037321238
20	0x3fa01e72a40c7e07	0.031482298398483315
21	0xbf696c44e4630625	-0.0031033845471888527
22	0x3f68200b0a8772b5	0.0029449668547683835
23	0xbf8a84f8c578bcde	-0.012948936010700181
24	0xbf951e301fe7f5d2	-0.020622970530885194
25	0x3fb5c20c360a6ef6	0.08499218291620622
26	0xbf970956bfc2ecb9	-0.022496562437237275
27	0x3fb06dfd29e212a2	0.06417829773460906
28	0x3f20b9fab3a043e6	0.0001276129276566444
29	0x3fb99cebda62fae2	0.10005067903237433
30	0xbf952d7eec1e56e3	-0.020681365167169907
31	0x3ed60b458d883540	5.255706320384413e-06
32	0x3faaf7afe724efff	0.05267095276437316
33	0x3fb3890fb6312d33	0.0763101405911371
34	0xbf589e9fc6e173c0	-0.0015026626893110823
35	0x3fa77047923d8495	0.045778500177001615
36	0x3fa487a2f27c4a96	0.0400973244669746
37	0x3f9dea003225d4de	0.029212954579141186
38	0x3f990f3e2c57b1cb	0.024472209412054895
39	0x3f1f3cbedf4c7f9e	0.00011916079513385336
40	0xbf92222cb7a88ab2	-0.01770849104844769
41	0x3fa9359b486bd198	0.049237110701059794
42	0x3fbb15e8c84b49d2	0.10580305948250349
43	0x3f819e4fd3b3cbd2	0.008602737091200217
44	0xbf882d4e843303cc	-0.011805165681268458
45	0x3fa185b7d22e09a6	0.0342233127658063
46	0xbfa187fb150ef02a	-0.0342405760961529
47	0x3f86faa94f7fc424	0.011220286120051944
48	0xbf91be6deca108b6	-0.017327992980661754
49	0x3fb1d3c210ea3ac9	0.06963742173159483
50	0x3fb5c957a58af997	0.08510349074911115
51	0x3fa35477427bd0a6	0.037753798356704935
52	0xbf6ad69b7d400bba	-0.0032761608981685926
53	0x3f7e498ef6bf5024	0.007394369556966072
54	0xbf7148c37f74ec89	-0.004219783462129042
55	0x3fa8a70c942d6a20	0.04814948376470718
56	0xbf9b1f1775b0a7a1	-0.02648579269240481
57	0x3f85da1a6041422d	0.010669904768435401
58	0x3fa526b9b8ff2cdb	0.041311076958288694
59	0x3f7c467fc2594c29	0.006903170642163872
60	0x3fb8f0bc70e8a176	0.09742334133682626
61	0x3fa3709963791fd8	0.037968438523023174
62	0x3fa98ba968721649	0.049893659591401525
63	0x3f650ed956b13069	0.002570557107480599
64	0x3fa3a023da9b3583	0.03833114665540462
65	0x3fb82916e20320e9	0.09437697427631843
66	0x3fb1d7d6ba32d6ed	0.06969968839515746
67	0xbfab24976fc55812	-0.05301354636564794
68	0x3fb8f16697eda958	0.09743348321140866
69	0x3f96bd7846cf07a2	0.02220714504415578
70	0x3fa9f334a3154922	0.05068363657723497
71	0x3f67fc59a8905173	0.002927947153248117
72	0x3faa8acb899120d8	0.051840172331653
73	0x3fa7da85139eb87e	0.046589049000758984
74	0xbf889adfa5120355	-0.012014147973106107
75	0x3f90ec181254d06d	0.016525627249578557
76	0xbfabbf6bda25581c	-0.05419480359948656
77	0xbfa4d30079b98f11	-0.04067231641673009
78	0x3fa0878c492f2b7f	0.03228414910662191
79	0xbf8f0843b53ac9b4	-0.015152482002439217

layer3.weight f8 [80, 80]
0	0xbfc0d92167d9f4eb	-0.13162629671925372
1	0xbfc9f870edef4f7b	-0.202894321612458
2	0x3f94fadf8214daef	0.020488254847090322
3	0x3fa4961d5dd3847c	0.040207784369848704
4	0xbfab4ad2c3f9b851	-0.053305231497561174
5	0xbfb9e7edf00b7dd5	-0.10119521246405523
6	0x3fa356dbd9707923	0.03777205495156213
7	0xbfa52c935e4afd1c	-0.04135571027790716
8	0x3fbba905b91db39f	0.10804782647546894
9	0xbfaff83c5e84576f	-0.06244076398631548
10	0xbf9aef8857132cb8	-0.026304369272833056
11	0x3fb6fe64ba6ba805	0.08981923629076512
12	0xbfcd72e06dd0fe73	-0.23006825792434746
13	0xbfb2881d917a2595	-0.07238945771873369
14	0xbface8e9af0152bb	-0.05646448384564936
15	0x3fbb8ca33d915908	0.10761471036071069
16	0x3f90e8143abb1d43	0.016510311207438077
17	0x3fc6c0479d6f370d	0.1777429121706792
18	0x3fb705eb12013ea0	0.08993405522891829
19	0xbf75f33792055459	-0.0053589029997357035
20	0x3fc108674a6d42cc	0.13306895383950346
21	0x3f975cb56952906d	0.0228145928891909
22	0x3fc0b75b815ba0a6	0.1305956250791997
23	0x3fc3fd1887f60afe	0.1561613716003975
24	0xbfaad11e8f161673	-0.05237670418413822
25	0xbfca5b6f7eaf952a	-0.20591539083322036
26	0xbfc91546b6a08d15	-0.1959617988332886
27	0x3f948871e407ad02	0.02005174593243187
28	0x3fa72d4dbe96f4ef	0.04526751472028844
29	0x3faa1873f0c3eb5f	0.05096781076459566
30	0xbfc58c29ab18bb68	-0.16833992819143906
31	0x3fca55d85743a97d	0.20574478398277654
32	0xbfcc1f95ba76349e	-0.21971389393403212
33	0xbfd120f1f92bf819	-0.2676358159368433
34	0x3fc3ff9bd91ab873	0.15623806095885903
35	0xbfba2ec8bcbc7210	-0.10227636916938132
36	0xbfc6a6ca309aa666	-0.17696502087828775
37	0x3fbc2c4430f956f6	0.11005045123723875
38	0x3f94b50e44aa622b	0.020221922818196496
39	0xbfa458d0b8ec3405	-0.03974010712963864
40	0x3fc4f8ab2c5aad5b	0.16383876481755064
41	0xbfa58490027af362	-0.04202699690129098
42	0xbfc923f8054041aa	-0.19641018158337192
43	0x3fc0f9e272ebaec9	0.13262587176665466
44	0x3fc1bea9b6b7df01	0.13863107129849797
45	0xbfaf3290640dfd55	-0.060932647908880234
46	0x3fc4f2f515783e65	0.16366447017979904
47	0xbfb2024af472f761	-0.07034748523707669
48	0x3fc40d8edeadc20e	0.156663759927611
49	0xbfd4815c0b301989	-0.3203954800850615
50	0xbf7b7fddc809bf1c	-0.006713739713276625
51	0xbfc092f0983dbfef	-0.12948424752857998
52	0x3fc55263a9920cac	0.16657682208833557
53	0x3f9b1859de44f63b	0.026460079375502082
54	0x3fc8a6d31c4270ae	0.1925910842882152
55	0xbf8d967b88a4fc7e	-0.01444717894321301
56	0x3f9992a83e0f7de2	0.024973515308259205
57	0x3fa12281572ae4c5	0.03346637906128928
58	0x3fc923fe07ff722b	0.19641089811820342
59	0xbfc759ee87c4fe09	-0.18243199948663882
60	0x3faf9d8ee4354134	0.06174894843809611
61	0x3fc04673e54864ae	0.12715004630516574
62	0x3fcdf79f1dba1f0f	0.23411930991664362
63	0x3fb20d2bdcbb15d0	0.07051347865043245
64	0x3fce0dbcf7010cb2	0.2347942548823077
65	0xbfc368f83ee20a21	-0.15164092131097198
66	0xbfc7322b75edab89	-0.18121855982039062
67	0x3fb24ea5268530d8	0.07151252928196372
68	0xbfd2d01bb54b7659	-0.293951918645552
69	0x3fc4cd09a2c54e1b	0.16250725219525539
70	0x3fc485fbdd37a841	0.16033886243468667
71	0x3fc40e53e69938ac	0.15668724784558685
72	0xbfac709ba4d684d2	-0.05554663073713474
73	0xbfdabddf46718c87	-0.4178388774800585
74	0x3fa5492fd9c97474	0.04157399686366939
75	0xbf83b062eef7e2e9	-0.009613774221166565
76	0x3f80208ee4fe78b8	0.007874599803298174
77	0xbfb79fcc1425a22e	-0.09228206149931203
78	0xbfcffa81e86d33f4	-0.2498323807616597
79	0xbfb59ea05bace513	-0.08445169675987456
80	0xbfa22db6dac673a8	-0.03550502224536639
81	0x3f7c97b13f1a2143	0.006980602616416145
82	0xbfb6515df73f3bd4	-0.08717906271270631
83	0x3fd4c5d295ded422	0.32457413326057083
84	0x3fbbdd227e87858e	0.10884299840065223
85	0xbfc5bc3124f51676	-0.16980566315230633
86	0x3fb5e75503c91e53	0.08556109754965151
87	0xbfc3f776020ed554	-0.1559894094513462
88	0xbfba49540231d976	-0.10268139890272274
89	0xbfb5712644ba3cca	-0.08375777414242971
90	0xbfa16ec7cdab0b5c	-0.0340483130035156
91	0x3fb31dee23cf8229	0.0746754491260694
92	0xbfd020e80386bb62	-0.2520084413944713
93	0x3fbf0a1fa8af13ed	0.12124822490939353
94	0x3fbd671f21f2a7a8	0.11485476092153013
95	0x3fca00e2484964b7	0.203151974960553
96	0x3fb9eac4babc718f	0.10123853262888914
97	0x3fbba4d7776a6b83	0.1079840342085117
98	0xbf6f734c24fd6ee6	-0.0038391577908621797
99	0xbf837eef98e4aa08	-0.009519454816275377
100	0xbfba1a9461a53a95	-0.10196807273789894
101	0x3fd5c831f8e24f45	0.3403439455516842
102	0xbfc6563047004f29	-0.1745052668271623
103	0x3fc7674fc786a96d	0.1828403209922941
104	0x3fab248e00420790	0.05301326516293081
105	0xbfae1783fe9d6d10	-0.05877315981953235
106	0xbfd0a63ee06dc0cb	-0.26014682690494045
107	0xbfc7a6efc2c9f5e2	-0.18478199969460635
108	0xbfb3fc99099791dc	-0.07807308658772832
109	0xbfc8c45ff6af3b41	-0.19349288506642817
110	0xbfc353c41051a635	-0.15099383160422666
111	0xbfb0edcff1dbdba5	-0.0661287274814258
112	0x3fad179faf8b3393	0.05682086007946121
113	0xbfb9c1a1a58a9a48	-0.10061083117998593
114	0xbfbadfdd3fd7d5bc	-0.10497839745206411
115	0xbfb33d5058d0005d	-0.07515432518266736
116	0x3faca42a92deb269	0.0559399894985731
117	0x3fa0d992b7a4d905	0.03290995113131782
118	0x3fcffaa54fb77792	0.24983660118499224
119	0xbfca198e0f9dccf1	-0.20390487444419805
120	0xbf8019c8cf1c8284	-0.007861679859673794
121	0xbfc3a9ed84578a2f	-0.1536232849312724
122	0xbfe03727caef66c0	-0.5067328418328643
123	0x3fcf524236856ec8	0.2446978346077826
124	0x3fd3dfb06cafa749	0.3105279027355335
125	0xbf99ff7cca344670	-0.02538866981655591
126	0x3fa79eaa3dea8866	0.04613239293873121
127	0xbf838e281b308677	-0.009548486070403357
128	0xbfa7951c28ed452f	-0.046059494014693995
129	0xbfbdeda03eeb8e47	-0.1169071344007132
130	0xbfc046a7b9bab371	-0.12715622490705017
131	0xbfccba0534e5a3a4	-0.224426890209796
132	0x3fb1630648c8d0c5	0.06791724469150313
133	0xbf961290baffa9b6	-0.021555196202749115
134	0x3fd20772490c6881	0.28170449384345636
135	0xbfb3669b0a200c9b	-0.07578438756177024
136	0x3fc2a5fae64a3712	0.1456903099501053
137	0xbfb10d31223011db	-0.06660754284536756
138	0x3fb41641ec6c7e7b	0.07846462270799208
139	0x3fb13989e590ee04	0.06728422026292696
140	0xbfc24e595369518a	-0.14301601956198012
141	0xbf9d792d3bdabc04	-0.028782564905380795
142	0x3fc0331ae7456629	0.12655960361989685
143	0x3fc899eb512ce03e	0.19219724143636258
144	0x3fc71a6afeceb779	0.18049371186992483
145	0x3fca93cf8e29ff02	0.20763582650760531
146	0xbfcaa2016a4acee0	-0.20806901636171116
147	0x3fabde4f11314c7d	0.05443045697088509
148	0xbfd56dd9f9b2d650	-0.3348298014128419
149	0x3f9efd311342238b	0.030262724686085412
150	0x3fb4024bd2d9adc3	0.078160037018896
151	0xbfa246f11a53af17	-0.035697493041736354
152	0xbfb838286047b999	-0.0946068987902663
153	0xbfda5ab4835075a4	-0.41178620170270563
154	0x3f7ab486c93100cb	0.006519819743573583
155	0xbfd2735c4fa36fb7	-0.28829105164708885
156	0x3fc79ba42d5ce8ba	0.1844372960566199
157	0xbfa192422c7f159d	-0.034318988734905555
158	0x3fc118d2414ad557	0.13356998622991043
159	0xbfbce8f94ef0977c	-0.11292989899865619
160	0x3f9fb5eced89e465	0.030967428205688558
161	0xbfa5d479ebe5b6c4	-0.04263669018369634
162	0x3fc231553db9f944	0.14213052286135952
163	0x3fc41357743682a0	0.15684025930842882
164	0x3fa0e53a96db736f	0.03299887744444773
165	0x3fdb0980c9114667	0.4224550212430586
166	0x3fd4de26e4594cdb	0.32605907725992517
167	0x3fa305cc2fd2b187	0.03715360721375576
168	0xbfc05b7c2ec5aa03	-0.12779190334124743
169	0x3fca484cfc1d572a	0.2053314429310203
170	0xbfaf69f75abe993f	-0.06135533316346419
171	0xbf8da5ffbfa58397	-0.014476774250114661
172	0xbfc0db6f3a4d2d3b	-0.13169660898925337
173	0x3fb696b583f665c9	0.08823713752499097
174	0x3fc1f96152683005	0.14042297862795308
175	0xbfbf92e91f39f8d6	-0.12333542835583286
176	0x3fd22f89e9b9715d	0.28415153336188387
177	0x3fbf5faa172d7079	0.12255347314698097
178	0x3fb0dad20a0241e6	0.06583893532138738
179	0xbfa20a9e2615f6db	-0.03523725714602018
180	0x3fb10a798c41321f	0.06656608270822816
181	0xbf8b871304def2c3	-0.013441227518222637
182	0x3fa5feeee3f9291b	0.042960610703248935
183	0x3fcc227a571b6866	0.2198021817519617
184	0x3fb54c8fb2cdf0ea	0.08319948306410976
185	0xbfc1cd636f94da76	-0.1390804571944561
186	0xbfc5ca9f77fdedc5	-0.17024606093387554
187	0x3fae6434ddb960e4	0.059358264985975656
188	0x3fb307a6892919ee	0.0743354878296498
189	0xbfc88b064c4c6360	-0.19174269414431944
190	0xbfa8e699799c3f8e	-0.04863433465482024
191	0x3fb55a03f2ebb34b	0.08340477638894332
192	0xbf786f2c36eace7d	-0.005965397561044858
193	0x3fa668288bcac584	0.043763415398085065
194	0x3fbe61237a1d03fc	0.11866971713335767
195	0xbfc4e43d07fa6b7b	-0.16321528329430265
196	0x3fc3ab1524a365af	0.1536585263154797
197	0xbfb940c857b69b84	-0.09864475385130161
198	0xbf9e96eee81e26d2	-0.029872639577240907
199	0x3f93e22636626ee6	0.019417378491751423
200	0x3fb96e7e70018f79	0.099342253060568
201	0x3fa44248630b87b9	0.03956819733663459
202	0xbf957b6686a56dbc	-0.02097854801955433
203	0x3fc6d738c83a1aeb	0.17844304825503995
204	0x3fb4f79869e8ed05	0.08190300546350578
205	0x3f87173b51bfa0d2	0.011274779732005778
206	0x3fbadffd3159c9c8	0.10498030142642911
207	0xbfc15fd34971c5d1	-0.13573685728219556
208	0x3fc842a108d968ca	0.18953335697262325
209	0xbfb6c3bd92d0964f	-0.08892426332803292
210	0xbf8441fb93ab1879	-0.009891477054577035
211	0xbfb1a13a82009656	-0.06886640237697725
212	0xbfc28c710f65f346	-0.14491093875758504
213	0xbf9bd8a5c9da7496	-0.02719363255038284
214	0xbfb39f728849673c	-0.0766517241221693
215	0x3fb9e068cc68e571	0.10108046522591053
216	0x3fbf7afed9da65b6	0.12297051256827882
217	0x3fc897443eb764d8	0.19211628973315586
218	0x3fbfff33aa088217	0.1249878206367686
219	0x3f5eb22fb14ff7e1	0.0018735376117997515
220	0x3fafefd0597feefa	0.062376509595166454
221	0x3fa09610ce9cb4ff	0.0323949100696641
222	0x3fc3fb23f8a99d79	0.15610170022703665
223	0xbf80a7d465af17e7	-0.008132609704158923
224	0x3fc914df8d89e0eb	0.19594950114311102
225	0xbfbcadd424795a02	-0.11202741518477669
226	0xbfbd3b76cd286fef	-0.1141885996698304
227	0xbfb92dd9f5a99539	-0.0983558869134712
228	0xbfd44603e3a08b92	-0.31677338818752176
229	0xbfb0831b535d5842	-0.06450053010243642
230	0x3fb4a69483425a61	0.08066681103296382
231	0x3fbe87fbbd79ba95	0.1192624414049795
232	0x3fb453a68d4604e2	0.07940140675602295
233	0xbfc64c02d738a847	-0.17419467457631496
234	0xbfcd95f795da4868	-0.23113913361573002
235	0x3fb76304b0a09012	0.09135464965999088
236	0x3f88ad12bdb2c661	0.012048860944875618
237	0xbfa961320ae71988	-0.049569667654895844
238	0x3fcdb677ccac63dc	0.23213098043268487
239	0xbfb9821ed75d897a	-0.09964173086112807
240	0xbfb371481e2d0eff	-0.07594729172438618
241	0xbfc9d631389e9502	-0.20184912933942917
242	0x3fbdd4daf5af13b7	0.11652916429655034
243	0xbfb75324c65b0c10	-0.09111242144267373
244	0x3fc91d1768ebdf0d	0.19620030043710593
245	0xbfdd3307adb09115	-0.45623962365995513
246	0xbfd783484877b69b	-0.36738783909718514
247	0xbfa1c3954297d1e1	-0.03469530523208043
248	0x3fe2c6ee3a19af3f	0.5867835173389507
249	0xbfc42b5ddccd56fd	-0.15757344514229735
250	0xbfcd0b33b6d9a70f	-0.2269043581794041
251	0x3fb9af095865c619	0.10032709510939987
252	0xbfb6aab028ceb4d2	-0.08854199405932953
253	0xbf859a839ed23ed7	-0.010548618587818677
254	0xbfa51539a4c27d04	-0.04117756019808819
255	0xbfb64d28b46c0977	-0.08711485295137843

layer3.bias f8 [80]
0	0x3f3c7e07c38c9ae0	0.0004347580866572009
1	0xbf995c84ef73565f	-0.024766995539570732
2	0xbf578c534140f261	-0.0014372647319894837
3	0x3f9bcc3ed45edcb2	0.027146321975774775
4	0x3fa6ebf0b545e0e6	0.044768831375167115
5	0x3f949db1c1ca974a	0.020132806256376846
6	0x3fc12b04db32be14	0.13412533476865518
7	0x3f84bab548b5ee76	0.010121742516950177
8	0xbf8946245947cff8	-0.012340816473603397
9	0x3fb08e88c39e9ac6	0.06467489982479
10	0x3fb3b1f45a45d9ea	0.07693412021567494
11	0x3fa26fa382aeee27	0.036007985785058864
12	0x3fabfb269e123eaf	0.05465050391751213
13	0xbf7eb220aa60e96d	-0.007494094466944251
14	0xbf6eee9a091145a8	-0.0037758835319798463
15	0x3f8488e5c26b591d	0.01002673625536637
16	0x3f95090d598dcd12	0.020542343703209794
17	0x3fa74ff8fc7e1481	0.04553201753791659
18	0x3f795a51ecf67ff6	0.006189651510254626
19	0x3fa8e1b7ae305bcc	0.04859708787278513
20	0xbf7c168f8c838912	-0.006857453096218673
21	0xbf91bc6a0057263a	-0.01732030512883951
22	0x3f96d7825efe92d1	0.022306477592468014
23	0xbf85be9b21e02996	-0.010617458316137623
24	0x3fa9bec1c56409ba	0.05028348478846874
25	0x3f9b370eec8b3834	0.026577218234528924
26	0x3f7ea37089744801	0.0074800868963098574
27	0x3faec3391af322ca	0.06008318380333362
28	0xbf9a3a1d52ce58c5	-0.025612314395026887
29	0x3fa89269d17c20da	0.0479920452326625
30	0x3f78ab53999d3729	0.006022764742579936
31	0x3faada2c38930350	0.052445775896109326
32	0x3fabece7cbe78991	0.054541820183447894
33	0xbfa4232a7373da52	-0.0393307939465798
34	0x3face3ec4ec427d0	0.05642641507627355
35	0xbf9883248d952c1c	-0.023937770024797897
36	0x3fa4ea4ab632748c	0.04085000490270216
37	0x3fae58c41f4addc9	0.05927098161685824
38	0x3faeb449764dff54	0.05996923035763638
39	0x3f774c1fd0472873	0.005687832137889359
40	0x3fb7dabd126dc6e6	0.09318143558428069
41	0x3f8b0ec0e61c6cbb	0.013211733839446507
42	0xbf74f497eab1b729	-0.005116074967288311
43	0xbf8d1a89dd09628c	-0.01421077447700838
44	0x3fb3e08a6b52c0a5	0.07764496917912085
45	0x3fa53f36c51cf68f	0.04149790912786699
46	0xbf6b9bf05cd27597	-0.0033702559072270144
47	0x3fab781fa53eb177	0.0536508454527817
48	0x3f775cf6b00c4042	0.005703891395356266
49	0x3fa509232f800f7f	0.04108533816182013
50	0x3fb4e8dda7f389d0	0.08167825079320967
51	0xbf9dbc436ef2e7b1	-0.0290384804218104
52	0x3fb1377e98624925	0.06725302906332738
53	0x3fbd45800aa207c1	0.11434173831551588
54	0x3faee9e9fa401f4d	0.06037837199988747
55	0x3fa8ece9f3d753cb	0.048682509437334064
56	0x3f9dd4c4870949a8	0.0291319568080525
57	0x3fb491ddbaef27c9	0.08035074056456816
58	0x3fa2807102c8637d	0.03613618048638665
59	0x3f9735f68b52bb60	0.022666790250407742
60	0x3f852e1d9b2de865	0.010341864870259518
61	0x3fbf70854ca2090b	0.12281067963525431
62	0x3f72eb1ebf247e35	0.004618759254554618
63	0x3fbfaee886d3a4ec	0.12376263896625844
64	0x3fa45dc631991db2	0.03977794032521888
65	0x3facf3d64babadde	0.0565478293773045
66	0x3fb33b05122461eb	0.07511932080195265
67	0x3facd372dfe3719d	0.05630072577489218
68	0x3f841ec372029209	0.009824301640329674
69	0x3fb2cb93a96fef0c	0.07341883551265144
70	0x3fa7ac742c3e1ba2	0.046237593079289555
71	0x3fb9f19c53b820ab	0.10134293598105397
72	0x3fa40a45170c14b8	0.039140852988603425
73	0xbf907272947fdb2c	-0.016061582864462284
74	0xbf616c788d5612b6	-0.002126918271360213
75	0x3f8cfae0249c34dd	0.014150382153753355
76	0x3f99f1d97a992ae3	0.025336645229155585
77	0x3fb1c35eb5653e83	0.06938735893822394
78	0x3f56fc40ca8ffc08	0.001402915260996231
79	0x3f9d36ba2e7d5cc0	0.028529080474382296
