attack_soft_generative_decision_tree/experiments/diabetes_params_state_dict/fnn_epoch41.pth (torch, 113647 bytes, 8 tensors)

layer1.weight f8 [80, 8]
-0.18319548586154732 0.39923433948268616 0.258005257792463 -0.45876438297796884 -0.2142896305884998 -0.003580759855342893 -0.011293149366915873 -0.10351894675129306
0.26461202790651983 -0.03563249694510858 -0.020964421492871498 0.0020863094824513807 0.16598268223505236 -0.1641559446281054 -0.06011817650121159 -0.20193599055765654
0.2200356717059041 -0.24151733090218624 0.06062995117113098 0.16834163337269586 0.3182269976989971 -0.1107669006911466 0.276198510026884 0.01917217289047604
-0.0009844740741453079 -0.17265024981023902 -0.19449401730729343 -0.11288849795912041 0.09542330892951405 -0.6369355099234263 0.1144675813491132 0.07091074054730219
0.1424904587004611 -0.14727455917933852 -0.038792351313749335 0.17900982819033132 -0.11094510387775755 -0.04139386420954086 -0.02826503808373045 0.021914744821832047
-0.04445664968269061 0.02970974317159103 0.037528240734217 -0.16191997064107325 0.2679205296485962 0.037944009169738974 -0.09811413038882641 -0.25541911271867834
-0.15212732673378015 -0.05603275938846274 0.17150121772115062 0.06163464218032705 0.05382954981406221 -0.19404553052721904 -0.3500738553278752 -0.0940179580962099
-0.32725908240384133 -0.14323508131172238 0.023630503073690075 0.0996845890321274 -0.19035258972469138 0.26058883346885275 0.24865492914260173 0.11164983121404638
-0.14554055887991355 -0.25945799093465816 0.10913959416967155 0.033161254678795916 0.02417930883463243 0.09217433813026295 0.03429882728984538 0.056653856183566775
0.0799193325149259 -0.49832946039442555 -0.09889436552098825 0.041910678828599716 0.29259723419822087 0.19904200496108773 -0.1550552573061498 -0.4550750801489918
-0.08312897703257464 -0.22448740397992853 0.3017028386000165 0.005836021397420473 0.024723496400496016 -0.5931589607645213 -0.11232082503366804 -0.2512304867331806
-0.19940032281396255 -0.23605701326168355 -0.08349230520495265 -0.23733272404577485 0.2267799370322239 -0.4171108044886711 0.09507050071572547 -0.2400553984063884
0.14021275358617044 -0.32889727117376527 -0.07488685359675398 -0.03737714357555147 0.11356979430013515 -0.593824805853714 -0.0661023213743339 -0.06728293579511774
-0.061958665170713426 -0.03219750057608452 -0.029721413561472287 0.0011474779071608745 0.07138463165694829 -0.5711803049898025 0.20582195155646768 -0.015223822922012648
-0.14302433168523884 -0.020588298603657178 -0.06157786964529501 -0.043431727816148256 -0.010211512390773534 -0.43507876948055313 0.22852843734225992 0.22835988857205913
-0.36753401692408944 0.0479892951792141 0.06601069639395968 -0.12224025954479428 0.026111159758545256 -0.05090595470486952 0.06676742260235026 0.3089769565828179
-0.3109179066112516 0.003604452535257571 0.12808784964345774 -0.31227333866229146 0.07226880337339645 -0.07101186186356989 -0.14122660757057037 0.07321313800515672
0.40254206906439494 0.24416578723654916 0.03444793187222437 0.16900020073240088 -0.03891653709591819 -0.009064961618548951 0.33732315905378507 -0.06891558122903178
0.15827291831927226 0.5292054386482086 -0.19143558523682533 0.13277529652795822 -0.11252910456038422 0.21703495046984866 0.2549361314489954 -0.2033882694142325
-0.4053362342355317 0.27954766057380126 0.13891355764386987 -0.5108546020877396 -0.21758922911395603 0.12330715584077447 -0.26871724391373103 -0.026942987350859104
-0.4200664457805737 0.33278530007452467 0.09498331784519945 -0.5737586305676965 -0.21012529731353252 0.20022922368706053 -0.10527836248324378 -0.035482706078938525
0.3587582981613323 0.5546180597095932 -0.1361219435531219 0.18524642135752153 -0.14845622593910573 0.13346837960566627 0.25889140585825554 -0.12793164597363282
0.03727916088539149 -0.07734954093427406 0.2060527044935381 -0.07588638808411259 0.07272561608016344 -0.3380860656925123 0.2268980734989871 -0.08057584974826068
0.11344875239065465 -0.1265407283756728 -0.08577843898275092 -0.05417005880206346 0.16518253302289718 -0.10686779552689687 -0.14649371692012453 -0.1649388681838814
0.2856644781494035 -0.16712171963780448 -0.15445248670926304 -0.009055613122031772 -0.11086049587708578 -0.28295130521099365 -0.17804039089145937 0.26984076876483587
0.16748740952894225 -0.1846327735452251 0.009281891631718671 0.09984042581327318 -0.06993155072696385 -0.030586725566363382 0.24983361111737268 -0.06882941059786686
0.2621668535747599 0.4458938513786263 -0.15023982660740934 0.007766953040822404 0.05398636391856652 0.3726526101542089 0.1883141331268369 -0.1452379446133615
0.13566664097398062 0.28080416378196005 0.09829581062217452 0.19578321571553203 0.2308192154720785 -0.47941758403443935 -0.00659616102438214 -0.020373215309193515
-0.1281340159895898 0.026422801884929552 0.11730161390545252 0.11239194421239902 -0.40208457779536794 -0.21360648178944663 0.04420951907170813 -0.25218288511633263
-0.05327941121522946 -0.320194158128347 0.2632616074664853 -0.2475350073653333 0.13468830831962328 0.30564373141356427 0.10841884182963603 -0.1700178459897185
-0.2151507495366967 -0.1443618226500208 0.08874202146413875 0.28016495646286566 -0.12038106393384 -0.042137396103219274 -0.4417352951769506 0.19094805277314097
-0.11235480308328152 -0.21627605871933228 0.11783604829323577 -0.11282229949438534 0.16636382203602312 -0.7304137500600112 0.08497910597397396 -0.3902225543363142
00000000: 2c6c 461e f372 c7bf ce2b e12f 0e8d d93f
00000010: 158a 1a7c 2883 d03f 9070 5d49 655c ddbf
00000020: 88f0 9fb5 d76d cbbf f822 27cf 6555 6dbf
00000030: d714 99d9 dc20 87bf da2b d0ba 3780 babf
00000040: c826 7f49 67ef d03f ebad 1b32 6c3e a2bf
00000050: 8609 c482 b277 95bf 2407 e3df 4e17 613f
00000060: ca71 f3a7 eb3e c53f da93 cfde 0f03 c5bf
00000070: 478b ef43 cfc7 aebf d04d aadd 09d9 c9bf
00000080: 7412 f7fe 202a cc3f 5630 d236 0aea cebf
00000090: 9b4c e092 e30a af3f ae0a f2f8 378c c53f
000000a0: cc92 f4c4 d45d d43f 09a0 f237 385b bcbf
000000b0: c43d f183 3cad d13f a83d 3bbe dea1 933f
000000c0: e412 f1fc 2e21 50bf fc64 4a44 6719 c6bf
000000d0: 2c1e cd11 2ee5 c8bf 5b38 d4b6 42e6 bcbf
000000e0: b3dc 2077 a96d b83f c707 1994 c661 e4bf
000000f0: c2be 5856 bf4d bd3f 41f7 95cf 3427 b23f
00000100: 7d25 0e9a 203d c23f 38a2 9a8b e4d9 c2bf
00000110: 5c7a 7450 97dc a3bf 05ba de46 cbe9 c63f
00000120: 1e69 cef8 e566 bcbf 24f1 119a 9331 a5bf
00000130: 555f c298 82f1 9cbf 9464 3da1 d170 963f
00000140: 442a f4a0 05c3 a6bf a09c 2d1d 3b6c 9e3f
00000150: 3e7f 42cd e636 a33f 1981 3c29 cbb9 c4bf
00000160: 4f22 3126 9c25 d13f 6422 edac 656d a33f
00000170: 2ea5 4bf5 011e b9bf 9a9a f967 c958 d0bf
00000180: 9022 9382 e878 c3bf affa 276a 53b0 acbf
00000190: 0213 ab7c c0f3 c53f 582a ee68 938e af3f
000001a0: 8404 05f8 8b8f ab3f ef51 c6e3 7bd6 c8bf
000001b0: cf57 f42b 9c67 d6bf 1d8a 4297 8f11 b8bf
000001c0: f994 0f14 d0f1 d4bf fdd6 eff2 8655 c2bf
000001d0: ffdf 8e37 9832 983f 60e5 cee1 ed84 b93f
000001e0: 48c9 c941 795d c8bf 96e5 5cc9 7cad d03f
000001f0: d20d 54ba ecd3 cf3f 6112 ab55 1595 bc3f
00000200: c3bd 50b2 12a1 c2bf a003 70b0 f59a d0bf
00000210: bf4e a88b 92f0 bb3f 6df4 ad10 83fa a03f
00000220: b00f bdf2 75c2 983f e5c7 ccc7 bc98 b73f
00000230: 1588 00ab 9d8f a13f a05c 00f7 bb01 ad3f
00000240: f141 78e7 9775 b43f adc0 c13f a1e4 dfbf
00000250: 45db ab21 2451 b9bf c70f d805 5175 a53f
00000260: a502 f2bf e9b9 d23f 3948 eb5a 357a c93f
00000270: a5f4 99c5 d9d8 c3bf 58ba 9d3a f31f ddbf
00000280: 9b70 b4cd f047 b5bf 0197 3ad5 00bc ccbf
00000290: 9d6f 396c 194f d33f 159d a610 83e7 773f
000002a0: 6a7e eec1 1d51 993f d203 3a80 28fb e2bf
000002b0: 61e9 2dbe 0ec1 bcbf 32bd 1109 2914 d0bf
000002c0: b31e a624 f385 c9bf b2a5 f9bf 1d37 cebf
000002d0: 08ab 5270 c05f b5bf 830a 0630 eb60 cebf
000002e0: a19e 78fe 1f07 cd3f ec92 0584 f1b1 dabf
000002f0: 3b6d 6353 8a56 b83f b61c b1a2 22ba cebf
00000300: 233e 91d3 7df2 c13f 79d6 db23 a70c d5bf
00000310: a230 19eb c82b b3bf 64be 8cd2 1823 a3bf
00000320: 8920 55f8 e812 bd3f 7f3f 16e1 9c00 e3bf
00000330: ef10 7eec 14ec b0bf 54a3 d158 7439 b1bf
00000340: ca5b 39d1 0bb9 afbf 7275 f9d7 307c a0bf
00000350: c01c f34c 4a6f 9ebf 5d86 6205 dfcc 523f
00000360: 4752 6762 4346 b23f c29d 41eb 1b47 e2bf
00000370: 41f1 5dab 5f58 ca3f 4aa5 8fec aa2d 8fbf
00000380: df67 8f0d 9f4e c2bf be61 bb54 1915 95bf
00000390: 735a 9170 2287 afbf c383 28f5 ae3c a6bf
000003a0: 72ac 16fe c5e9 84bf e495 869f 54d8 dbbf
000003b0: 9ca5 4b7a 6b40 cd3f 2c4e 9196 e53a cd3f
000003c0: 7bd0 b665 ad85 d7bf 2ca4 b48a 0d92 a83f
000003d0: fcbf 32b6 13e6 b03f 84db ff3c 234b bfbf
000003e0: faf2 e444 e2bc 9a3f b715 4265 5810 aabf
000003f0: 11eb 8378 ab17 b13f 8269 ef48 47c6 d33f
00000400: feb5 2838 14e6 d3bf 4609 49b8 1587 6d3f
00000410: 23e7 9dc2 2e65 c03f d2e7 3d50 49fc d3bf
00000420: be81 0253 3580 b23f a804 5558 d52d b2bf
00000430: a099 6ba6 b613 c2bf 88a3 5ea1 18be b23f
00000440: f653 79cf 3fc3 d93f 55d5 7d13 d340 cf3f
00000450: 3db1 9cc9 28a3 a13f 5de0 946f cca1 c53f
00000460: e879 334c deec a3bf 7480 878d a690 82bf
00000470: 4471 14e0 b396 d53f 0b43 9097 73a4 b1bf
00000480: 5c0a 0378 4942 c43f 2080 7b3e 40ef e03f
00000490: 1bff f014 f680 c8bf bef2 26ea c7fe c03f
000004a0: 1f5d ef17 b5ce bcbf 84b1 2d1f cdc7 cb3f
000004b0: ae19 c9a2 df50 d03f dc17 c376 a008 cabf
000004c0: d339 7b63 07f1 d9bf 459e f5de 1be4 d13f
000004d0: 5295 8661 ebc7 c13f 3e4b 1fc0 eb58 e0bf
000004e0: 2fce 80bf f6d9 cbbf 39eb b2c9 0e91 bf3f
000004f0: 47c4 9ecf a932 d1bf 432a 1d46 f196 9bbf
00000500: c291 b15f 5ee2 dabf 6037 1ab7 5a4c d53f
00000510: 5a8a cfa3 d350 b83f 88c0 420f 3b5c e2bf
00000520: 1e0f 03c0 62e5 cabf 0c3e b877 1ca1 c93f
00000530: 0b8b d7d3 85f3 babf 8c80 5d0c ca2a a2bf
00000540: e660 715d e5f5 d63f 5f28 875f 6ebf e13f
00000550: 1c10 ea9f 716c c1bf 5f3e b79c 27b6 c73f
00000560: d6e4 a515 9d00 c3bf f46c baea 7d15 c13f
00000570: 5e1b 5842 ad91 d03f 1844 ca6d 1060 c0bf
00000580: bc70 a611 4116 a33f b95e acf4 2dcd b3bf
00000590: 29ab 865d ef5f ca3f 6567 0853 4a6d b3bf
000005a0: 1d50 a55e 259e b23f 4e7d d8bc 33a3 d5bf
000005b0: 0e0e 9afe fe0a cd3f fe24 846f 9ea0 b4bf
000005c0: 7f34 4a39 fa0a bd3f f925 fe90 7c32 c0bf
000005d0: 3e02 2266 93f5 b5bf 5b5b f48d 2dbc abbf
000005e0: 9315 9a84 b324 c53f 729c c816 b05b bbbf
000005f0: bee6 9e5d 4ec0 c2bf fd31 5882 b71c c5bf
00000600: 43f5 d1a9 5348 d23f e6d7 2598 3e64 c5bf
00000610: 5ce0 995d 19c5 c3bf d584 a2d1 bf8b 82bf
00000620: 7fde 357c 5a61 bcbf 8a78 8fca df1b d2bf
00000630: cf78 1f0c 07ca c6bf ec3c 3e37 1245 d13f
00000640: 9093 3539 3a70 c53f 07c1 12f6 0ba2 c7bf
00000650: c4a6 0668 6202 833f 0ccd af63 248f b93f
00000660: 35b4 54bb 08e7 b1bf 703d ff67 2052 9fbf
00000670: c868 983a 8cfa cf3f c152 85e3 cd9e b1bf
00000680: 60b9 8c7b 57c7 d03f e327 4a5d 8689 dc3f
00000690: c5f2 ea02 0f3b c3bf eb63 cc94 3dd0 7f3f
000006a0: 059f ebc6 19a4 ab3f 4868 5855 8ad9 d73f
000006b0: e5c1 9371 ad1a c83f bd56 202f 2897 c2bf
000006c0: 101a 1245 865d c13f 9c8b 0107 b2f8 d13f
000006d0: a0bf f40b ea29 b93f 5c4d 4da6 6c0f c93f
000006e0: 98d7 deea 7b8b cd3f 3289 2317 c7ae debf
000006f0: 32db 0f7e 9304 7bbf b391 de55 b7dc 94bf
00000700: 4e18 1708 b266 c0bf 4b9b db37 940e 9b3f
00000710: 9cef 7d83 7a07 be3f 5de2 b9ec b7c5 bc3f
00000720: 49da f6f3 c0bb d9bf d4e8 bf0a 7557 cbbf
00000730: b274 2b4d a1a2 a63f 71e0 0baf c323 d0bf
00000740: 5a68 7061 7047 abbf 2504 62a3 0f7e d4bf
00000750: b419 9736 47d9 d03f a0e6 9f24 3aaf cfbf
00000760: cf73 b16b 773d c13f c083 a9b9 aa8f d33f
00000770: 19b1 ed53 56c1 bb3f f58f 2110 25c3 c5bf
00000780: f128 7c4c 0f8a cbbf 3a51 89bd 727a c2bf
00000790: fd2a f80f ccb7 b63f c491 5fff 38ee d13f
000007a0: 9b4d a71c 4bd1 bebf aa62 6764 0893 a5bf
000007b0: bb87 911d 6445 dcbf 7ca0 f25c fc70 c83f
000007c0: 028d cacc 48c3 bcbf 43bc 8d13 efae cbbf
000007d0: 4696 b5d5 802a be3f c580 9616 ece1 bcbf
000007e0: aaee 70e3 684b c53f 92ce 21a8 8c5f e7bf
000007f0: b064 00d1 30c1 b53f af4e 4205 68f9 d8bf

layer1.bias f8 [80]
-0.25002018688974464 -0.2252444397548743 -0.514517050321163 -0.48932863615143884 -0.3870542284134149 -0.5155283338891754 -0.31470745867773037 -0.26133766236603717
-0.4290425532949778 -0.15877433776452016 -0.4043974808055683 -0.33457845957142374 -0.4819086466547453 -0.4624354130364385 -0.5540291104150337 -0.213498131982109
-0.21658377740748969 -0.27147726303213265 -0.30754619330850225 -0.2535653490734282 -0.287675579495207 -0.2570895396977612 -0.3594780695048965 -0.22411935850179912
-0.8307120566365646 -0.38257245734243694 -0.01559823615814385 -0.5347996196314664 -0.29002070763369414 -0.14518923595118916 -0.20742659095695962 -0.4140190710837042
-0.5517353199663597 -0.355799208580846 -0.42081501255511483 -0.5353124412958791 -0.34202105150774287 -0.45523708789164646 -0.0716517531220386 -0.13994192629650787
-0.42991024109049 -0.4540663764458585 -0.3528759626903652 -0.42552997098575934 -0.33866951967728476 -0.4161129364981922 -0.2580604666202358 -0.31394661952447545
-0.46458598164451265 -0.38890557867960257 -0.13537834588688474 -0.31189954414684024 -0.47136154017678333 -0.4255607303003579 -0.21300544460564122 -0.16272429048123443
-0.3395185453232539 -0.3710119701096504 -0.15290933779595844 -0.20831891817167147 -0.4166919987603491 -0.6071715730271695 -0.27432638725187036 -0.11303693433210386
-0.4069277280909525 -0.29890213566829243 -0.15406737683098531 -0.4522891910014547 -0.16761032711731538 -0.3073276795089396 -0.3696875902999863 -0.01128030515991105
-0.36645000297612235 -0.08674024091263798 -0.2719644792240793 -0.20984560049927078 -0.17135293279287475 -0.45372248903811024 -0.4367752180094193 -0.4409075610571869
00000000: 2f00 82ab 5400 d0bf 0030 2d4f cfd4 ccbf
00000010: 19a4 0b76 ec76 e0bf d411 510e 2951 dfbf
00000020: b91a 3419 7fc5 d8bf 5ee4 c646 357f e0bf
00000030: f9ff b4c0 2a24 d4bf 66d0 449a c1b9 d0bf
00000040: 11a2 bfe5 6e75 dbbf 1243 12ae b752 c4bf
00000050: d342 a9f8 a5e1 d9bf 6a8a 73c5 bb69 d5bf
00000060: 0cac 425d 97d7 debf 873d e0b3 8a98 ddbf
00000070: 2277 c841 9bba e1bf 5964 4f23 e853 cbbf
00000080: 8897 6768 04b9 cbbf 8b28 952b e25f d1bf
00000090: 653c 913a d6ae d3bf 24d4 6a28 6a3a d0bf
000000a0: 778b 72d5 4669 d2bf 2751 49af 2774 d0bf
000000b0: 95c6 094e b001 d7bf 8936 9571 f1af ccbf
000000c0: c5b3 7473 3195 eabf 38b6 2830 117c d8bf
000000d0: d266 65d1 f7f1 8fbf 565f 8717 141d e1bf
000000e0: 82c4 9c03 b38f d2bf 741f 1296 8f95 c2bf
000000f0: 7d8e 3d5c f48c cabf 4563 8ed8 497f dabf
00000100: 2eb7 69d4 d0a7 e1bf de08 330b 6ac5 d6bf
00000110: 57c3 2517 a2ee dabf 3f3f 908e 4721 e1bf
00000120: 003c b143 ace3 d5bf 03f0 1abd 9a22 ddbf
00000130: 7d37 5cf0 c457 b2bf f230 64f6 9de9 c1bf
00000140: 8bbe 6c3e a683 dbbf 7f15 436b 6c0f ddbf
00000150: 372d d30f 8595 d6bf af81 360f e23b dbbf
00000160: 329f caeb c2ac d5bf d5f1 6c27 98a1 dabf
00000170: f98f 210c 1084 d0bf 3a08 e38f b317 d4bf
00000180: 9df7 55d7 c6bb ddbf 554b 6a39 d4e3 d8bf
00000190: 02db 15e0 1354 c1bf 05df 6f81 29f6 d3bf
000001a0: c2b1 e997 c92a debf c085 c612 633c dbbf
000001b0: e5bf 392d c343 cbbf bedb f048 26d4 c4bf
000001c0: ac20 23fe abba d5bf 1de9 82fd a8be d7bf
000001d0: 9e17 8b7e 8892 c3bf 24bc 57be 31aa cabf
000001e0: 7e8e cbea 14ab dabf 5dcd 2614 f36d e3bf
000001f0: a74d 6b43 908e d1bf e34c 3210 fdef bcbf
00000200: 411e ff98 1a0b dabf 7d97 596c 3621 d3bf
00000210: ba4e 6fd4 7ab8 c3bf fadf eb5c 4ef2 dcbf
00000220: e469 b854 4174 c5bf ae5f 29b7 41ab d3bf
00000230: ccd4 8423 f6a8 d7bf 7278 01ee 201a 87bf
00000240: f7b2 99b6 ea73 d7bf 7789 f7c1 9b34 b6bf
00000250: da3a fcb3 dd67 d1bf ef4a ad7b 38dc cabf
00000260: 83a4 3595 e4ee c5bf bd37 f80c ca09 ddbf
00000270: 4070 430b 20f4 dbbf f52e d358 d437 dcbf

layer2.weight f8 [80, 80]
0.4587503507703421 -0.28056923712711945 -0.25008257382424764 -0.20159643062036095 -0.05109612118108328 -0.13155234188443599 0.15466505317519436 0.23023971245463626
0.24740068677470042 -0.2005385526372836 0.14221945628964702 -0.08594942082225356 -0.09553190125902898 -0.2143662589851366 -0.44584424218061314 0.2986658182222184
-0.09656339703101822 -0.31687876910389035 -0.25338283378147314 -0.3263081391263432 -0.13659778274948484 -0.2954398913284207 -0.12435387410189085 0.0774941254990658
-0.18697205967342193 -0.11729609430750038 -0.2344419765347365 -0.18946104284254522 -0.07406180653288953 -0.18915753717550518 -0.28747390026688213 -0.541692060884995
-0.132337980243513 -0.3394721458155465 -0.31538739898986146 -0.40942895527660006 -0.19057436394552524 0.31045055369972163 -0.2907609192631849 -0.1566345643972213
0.05199305387166478 -0.08178771262321598 0.2247445838767391 -0.040084149591953666 0.41656361204751086 -0.013144899560004867 0.05061869408332154 -0.32317074041838045
-0.17860065118238574 -0.24623835803520164 -0.16105804430971724 0.05429121676501435 0.14252027584525293 -0.17829520098311052 -0.03953735248987047 -0.21578544745182202
-0.20437482986958147 -0.01600857793525658 0.03093437096502162 -0.09918588001517943 -0.11027773969190961 0.25025954926618366 0.028853767504909273 0.039510561714926014
0.03637696491546307 0.2964555471466298 -0.1293414994556983 -0.14124672788326187 0.10301709653029457 -0.39366726984869976 0.2888539272823813 -0.2721322775415026
-0.0861944631717586 -0.4429635974484403 -0.1466562143605013 0.1487113076746275 0.032536789585524056 -0.35229258525662743 0.15806600392056921 0.03966616493393682
-0.2640095754237187 0.016655953498732726 0.0482706434524491 -0.002457339317636248 -0.5274848844382077 -0.17157054197635704 -0.287086745134778 0.11289513807087027
0.007705143374233794 -0.2681783835757427 -0.12527143214547623 -0.0737955440904036 -0.0012258064529568162 -0.2724554270074415 0.09229767558156557 0.1557449461326042
0.060399886989223626 -0.09754180276639111 -0.08986139689607096 -0.08553962931676004 0.10944245876617643 -0.21357084799540915 -0.2174354538125615 -0.1171414405792015
-0.15475500784226484 0.035684693843805335 -0.1478432648570391 0.030511520637645877 0.06494927203623485 -0.10727930644320233 0.026330177092198034 -0.06695112232671692
-0.07989983581462036 -0.12810565147483696 -0.26801144760024265 0.3011258546850833 0.09001390375007484 -0.25884342674764155 -0.15628410631900283 -0.07256156155979965
0.09879177580905267 0.004321511255792861 0.04245827977051537 -0.046018238840089376 -0.33385461451121745 0.20181968967401984 0.05044717206515878 -0.18611643189101315
0.0034395632399630005 0.030537862792973814 0.016394097945496067 -0.12257507311519908 -0.2411111500452026 -0.07532242760538069 -0.12152311935375143 -0.0801304393727831
-0.027000991600590964 -0.06526186027815455 -0.1480424143919664 -0.20226245071020973 -0.10782152268846422 -0.053860367097144535 -0.31607205610995665 -0.35153785190692866
0.07129091160132744 0.17671071014017314 -0.0908861643226934 -0.1461107152332143 -0.12315620442713614 0.02240247089651504 -0.20085002213100514 0.08315264788143324
-0.13216122768727678 -0.23340066928312952 -0.17071190963164637 -0.0202857236703063 -0.2548403946539828 0.26255280071824766 -0.27039246960236224 -0.17764758579520662
-0.02567071437880896 0.10623315230026031 -0.03980567561444294 -0.17451934700865057 -0.051555755583575044 0.014707613669570506 -0.013722142699930905 -0.15720490929993836
-0.3205975199815627 -0.181601387420754 -0.016066839201126268 -0.12188025328988035 0.010982608910673614 -0.08821055946543885 -0.13398321318883383 0.005924200171222928
0.20831611112130352 -0.08122121998486238 -0.004219541964053598 0.2565305895679073 -0.06654656128144947 -0.24460787278368393 -0.10760564973233688 -0.2637389888376064
0.0022959274473141403 -0.0275634768425647 -0.006001365738281015 0.0771873030754237 -0.16188213250155017 -0.17458446965080895 -0.1544296464231814 -0.1413230804641484
0.0005057671682371756 0.001055131570564958 0.06047682088653966 -0.14083287995350752 -0.33839360438099625 -0.09018540443553917 -0.11894912105395533 -0.12100575592028798
-0.148119466909353 0.04184318346456832 0.32133665856969124 -0.09731231840907445 -0.16962530618770513 -0.09372906629432434 -0.3293953949765009 0.030302785697773057
0.1869943862572661 0.056739101182950724 -0.2589430231112861 -0.012950928707610849 0.07667740096373102 0.00882099529656423 -0.16346529102853102 -0.060542345930542474
-0.009344293320664372 -0.045013068002097006 -0.19031206446100632 -0.12738089993222837 -0.10986533292295465 0.09658877869304924 -0.2401751024838737 -0.3034275302483161
-0.17798889504725088 0.12709073914051927 0.026207831610881454 -0.09298482937980031 0.030071574967094214 -0.023262923393396803 -0.10016333316049154 -0.34726400676375757
-0.3014887326517786 -0.06613914892848494 -0.04091748461213881 0.11542402484723491 -0.06226493420665962 -0.21121230102330515 0.1992254401158133 -0.21479072239445446
0.05856264967621534 0.06467356690519245 -0.08417626287823238 -0.05197882150122411 -0.13341423571121655 0.0743498649812306 -0.01764572050924008 -0.009965106596578548
0.013681815572321355 -0.03407425446102544 0.10429767112803043 0.06538964252383991 -0.10289516042235765 -0.16794323906096703 -0.008754806879398272 0.08186980621662604
00000000: d493 656e 2a5c dd3f 9e60 6eac d8f4 d1bf
00000010: 41fa f756 5a01 d0bf bd9c 406e e9cd c9bf
00000020: 8cb4 d952 4529 aabf f08c 0d07 b5d6 c0bf
00000030: 1a5c 9c80 10cc c33f 70d6 9db1 7e78 cd3f
00000040: 8d46 5a61 d3aa cf3f 0808 954e 3fab c9bf
00000050: 4739 cf44 3f34 c23f 31ae 8aff c700 b6bf
00000060: dfd9 a157 c774 b8bf e37f da83 5a70 cbbf
00000070: 0aa4 d149 b688 dcbf fca3 6c3c 571d d33f
00000080: af27 3df8 60b8 b8bf b844 86e3 bd47 d4bf
00000090: 0b64 1da2 6c37 d0bf 3dd7 7d88 3be2 d4bf
000000a0: 3fbd ce40 097c c1bf 7d1e ccb7 7ce8 d2bf
000000b0: 9305 66ce a7d5 bfbf 338e a6ae a7d6 b33f
000000c0: e913 c850 b3ee c7bf 94ce ffe8 1d07 bebf
000000d0: 8f5d 03d7 3102 cebf 02f9 6f6b 4240 c8bf
000000e0: 3102 f1ec b6f5 b2bf 2ff8 fa6d 5036 c8bf
000000f0: 8663 06ee f865 d2bf e71f c096 8a55 e1bf
00000100: 0a11 9570 73f0 c0bf d890 0b61 e9b9 d5bf
00000110: 68d8 0ea1 4e2f d4bf 4eb3 3c81 1534 dabf
00000120: 660f 4da2 bd64 c8bf da95 caff 6bde d33f
00000130: 7a2d ccaf d39b d2bf ce2f c1f5 990c c4bf
00000140: 74f5 fe63 d59e aa3f 8b6d ee1e 0af0 b4bf
00000150: 9b13 da36 6ec4 cc3f 38bb 2bdf e885 a4bf
00000160: f7a6 9c6c faa8 da3f 4262 c18d b6eb 8abf
00000170: 81e5 4e87 b1ea a93f 46bf 4754 d4ae d4bf
00000180: 03b3 efd9 62dc c6bf 4716 640f bd84 cfbf
00000190: bbb2 88cc 8c9d c4bf 2e7b eef0 0ecc ab3f
000001a0: 6bd9 e2b9 1a3e c23f 62cb a08c 60d2 c6bf
000001b0: 932e d467 3d3e a4bf 0b10 e187 db9e cbbf
000001c0: 5d2c 3555 f428 cabf 45e4 bf7a 8d64 90bf
000001d0: 04e9 777e 42ad 9f3f 8de2 e3ee 3e64 b9bf
000001e0: 0b1c 7475 293b bcbf 9409 e7a0 4004 d03f
000001f0: 152c 338f d78b 9d3f 790b d374 ba3a a43f
00000200: a380 4765 00a0 a23f 9a9a edaf 20f9 d23f
00000210: 01c3 1623 438e c0bf c07a 766e 5f14 c2bf
00000220: 11c8 8614 545f ba3f 935e 6034 d831 d9bf
00000230: 73ef bf2e 957c d23f 0e83 0e80 9d6a d1bf
00000240: 4042 6b20 d710 b6bf 0903 17fd 8359 dcbf
00000250: 8a7d 377e a1c5 c2bf 7d03 81dd f808 c33f
00000260: cc91 5f7e a9a8 a03f 803b 1333 f68b d6bf
00000270: 5760 b9be 813b c43f d049 4ca2 1f4f a43f
00000280: 5aa5 116b 88e5 d0bf 4136 3e1e 420e 913f
00000290: fb64 f805 eeb6 a83f f33a 2400 6a21 64bf
000002a0: 737c f9fa 27e1 e0bf dd6a 5f05 06f6 c5bf
000002b0: 6b03 5e15 a15f d2bf 814c e41d b2e6 bc3f
000002c0: 906b daac 6d8f 7f3f e3ec bcaa d529 d1bf
000002d0: 390d 18f0 e408 c0bf 8b74 75c8 43e4 b2bf
000002e0: ab72 1ba8 6715 54bf dc56 27e3 e86f d1bf
000002f0: daa0 1e0a d2a0 b73f 9212 144d 73ef c33f
00000300: f303 9ae6 bbec ae3f 57e1 dfe4 7ff8 b8bf
00000310: 976c d710 2801 b7bf 2e6d 6dd6 ece5 b5bf
00000320: 71ce 31c5 6b04 bc3f 6c77 c21f 4a56 cbbf
00000330: d5d4 8ec9 ecd4 cbbf 7043 4b40 fbfc bdbf
00000340: 7191 c918 03cf c3bf fec7 0da2 4345 a23f
00000350: 3757 bf31 87ec c2bf 4be0 287d 693e 9f3f
00000360: 446d 4bf7 83a0 b03f b40b b618 a876 bbbf
00000370: 8f17 0946 4cf6 9a3f ede0 d270 b523 b1bf
00000380: 8191 c7cd 5074 b4bf 9333 c217 c465 c0bf
00000390: e062 997c 1927 d1bf 0d8f 7660 a545 d33f
000003a0: 8cb7 cab4 260b b73f b39a 2a05 e490 d0bf
000003b0: 8129 c31a 1e01 c4bf 7095 d8fd 6493 b2bf
000003c0: 73b1 36f6 6a4a b93f 22f2 34d8 6eb3 713f
000003d0: a918 1e76 17bd a53f 20e7 acdd b38f a7bf
000003e0: 7e70 bcbe df5d d5bf 475d 6b43 3ad5 c93f
000003f0: 0c1e 6434 36d4 a93f a92c 1cca a9d2 c7bf
00000400: 40ed 1974 492d 6c3f 0d36 f147 5145 9f3f
00000410: e0e2 174a 9dc9 903f 9ea7 557a 1461 bfbf
00000420: 7192 12ec badc cebf 9a6e 38a3 5448 b3bf
00000430: 740f 559f 231c bfbf c12c 85b0 6d83 b4bf
00000440: d753 89df 25a6 9bbf a31f 9253 00b5 b0bf
00000450: 0300 1ec8 0df3 c2bf 3f2c 8169 bce3 c9bf
00000460: ef7a c0f9 309a bbbf 4830 7706 9693 abbf
00000470: cdfd 0a4a 863a d4bf 32c4 4f9e 987f d6bf
00000480: 1469 d405 1f40 b23f 5cd6 73e0 749e c63f
00000490: fbc2 6ccf 5044 b7bf 25cb c283 c1b3 c2bf
000004a0: ef64 503e 2a87 bfbf e186 665f acf0 963f
000004b0: b50d 3a1a 74b5 c9bf cdff 39ef 7d49 b53f
000004c0: f8a7 5bbb a8ea c0bf 34c0 b7b8 12e0 cdbf
000004d0: a3eb 734a e3d9 c5bf 1369 f5de c7c5 94bf
000004e0: 0c45 2f16 4e4f d0bf 91b7 2343 aacd d03f
000004f0: 6bb7 8137 1c4e d1bf 0615 9af5 27bd c6bf
00000500: 9e44 e37a 6c49 9abf 586f e18a 1832 bb3f
00000510: 821e ebd5 6861 a4bf 68f1 f563 a656 c6bf
00000520: 1ed6 4d18 8465 aabf 793d b47d 061f 8e3f
00000530: cc9a 04d1 5a1a 8cbf 7860 1b5c 4a1f c4bf
00000540: 1cf8 df75 ab84 d4bf c6af f0d9 b63e c7bf
00000550: 7cfb ac53 d373 90bf ed81 e855 8b33 bfbf
00000560: cad0 c4d0 0c7e 863f 56e0 109c f794 b6bf
00000570: eef4 6da7 5c26 c1bf cf83 d85f f943 783f
00000580: ab79 3f32 1aaa ca3f 3582 93f3 e9ca b4bf
00000590: f4d9 d5ab 8248 71bf 6489 2747 ff6a d03f
000005a0: 3b76 5d08 3209 b1bf 459b f98e 4f4f cfbf
000005b0: 8818 773a 0b8c bbbf 4e35 ef7e 19e1 d0bf
000005c0: 5043 9ba9 e8ce 623f 6b56 699e 9939 9cbf
000005d0: 716c 3c59 e394 78bf 3b19 600e 8cc2 b33f
000005e0: 9550 73c0 8db8 c4bf d715 c5ad c858 c6bf
000005f0: eacf 75c4 59c4 c3bf 2bba 61ec df16 c2bf
00000600: 6649 36b9 ae92 403f c4dc aae5 8a49 513f
00000610: 885a bf5f d1f6 ae3f 1208 cdd2 cf06 c2bf
00000620: f77b ffa5 3da8 d5bf 7b8e a002 6416 b7bf
00000630: 148f d018 7373 bebf 622e 4eb4 3bfa bebf
00000640: 7568 2325 94f5 c2bf 26ea 1441 786c a53f
00000650: f703 e4a1 c790 d43f 2c9e 10c9 75e9 b8bf
00000660: 1939 5333 48b6 c5bf 7a32 6bca a0fe b7bf
00000670: fb21 386c d014 d5bf afd2 3286 b107 9f3f
00000680: b259 c19a 6eef c73f 386d f84f e80c ad3f
00000690: 0795 f2c1 8592 d0bf 0a21 043a 0486 8abf
000006a0: d243 7b51 21a1 b33f c809 89f2 bd10 823f
000006b0: 30d4 7f3f 6eec c4bf d8ef 9607 68ff aebf
000006c0: 575c bbd1 1923 83bf dc5a eced f30b a7bf
000006d0: 4f77 724e 255c c8bf 3107 ac6f 044e c0bf
000006e0: 2145 de6b 2220 bcbf beb0 a5cd 0aba b83f
000006f0: e2a7 3dc9 0ebe cebf 29d8 c74d 5b6b d3bf
00000700: 2bba a311 57c8 c6bf dcd2 1d64 8244 c03f
00000710: 9bd6 abce 39d6 9a3f 9ddb 3591 dacd b7bf
00000720: 5c6e 173c 15cb 9e3f 8f68 bc5c 3cd2 97bf
00000730: 09c3 2ee0 4da4 b9bf 7035 08d0 9239 d6bf
00000740: 2585 b665 974b d3bf e813 a2c9 7eee b0bf
00000750: cbc8 7cf4 22f3 a4bf a03d e4cb 6d8c bd3f
00000760: 17dc 3580 30e1 afbf 7139 b432 0109 cbbf
00000770: 5f10 ea1e 3880 c93f 068e 152c 437e cbbf
00000780: 0abe 4072 ecfb ad3f 1902 c666 728e b03f
00000790: 8458 2958 938c b5bf ce60 ddd4 f79c aabf
000007a0: 53aa 99b9 b713 c1bf 4d70 8ebe 9708 b33f
000007b0: 6394 0142 b811 92bf 36b9 77f7 9568 84bf
000007c0: 27d5 7633 3605 8c3f 3464 1741 2e72 a1bf
000007d0: 063a 8b8e 40b3 ba3f f613 2328 60bd b03f
000007e0: 5542 ee54 5657 babf eaf2 acff 297f c5bf
000007f0: 5ba7 d649 0aee 81bf bcf2 3a6c 6bf5 b43f

layer2.bias f8 [80]
-0.25626279580167977 -0.22506800436104843 -0.1421738277500826 -0.1695701907685636 -0.16870252631388946 -0.3040759672004034 -0.3460443039575653 -0.18992760858607224
-0.31390628098217904 -0.10927474235578949 0.14763281159896086 -0.003850585111466562 -0.14953986261286525 -0.05936112416371165 -0.24994458691896837 0.08294795821463748
0.1071541385467516 -0.03257727066269683 -0.21281139798051843 0.03633308483426368 -0.16440489610647357 -0.3125864581384609 -0.14661601860996135 -0.006517654539763689
0.07042454323416558 -0.02411581054514742 -0.17959346605499188 -0.20457286184636778 -0.17851513315884585 -0.09055284876792255 -0.3540369847770765 -0.22052275582393127
-0.03270961599983454 -0.09205704491751728 0.02170874813685936 -0.1141367072241509 -0.0006312068669864102 -0.1885841290241353 0.002204863565485342 -0.337747222741991
-0.28390633375774477 -0.10129065402927549 -0.1767729224049885 -0.1321858805436973 -0.1951998130387417 0.16579784250113275 -0.24431127513689932 -0.287018158201051
-0.3706059382398905 -0.15818281790944402 0.08862743411899444 -0.044963502973618494 -0.16618142562467506 -0.20676756914924033 -0.41241088989403657 0.09579441107765527
-0.3130566486534736 -0.14309319209375065 0.12350119250912782 -0.46628516236275214 -0.053398238155576726 0.1311313271056867 -0.23865376183329615 -0.16308935949356537
-0.16616545366080904 -0.10774145827350058 -0.3378335782297502 -0.3848629172092457 -0.2817258173225447 -0.02582408922464295 -0.23844871590806663 -0.1726801643306606
-0.08332830645516164 0.013090872128132815 -0.2529824953395933 0.28749768917697516 -0.3214842142631631 -0.11178419727129874 -0.2741805150191775 -0.29813947701365373
00000000: 5a95 c911 9c66 d0bf f7a7 0d43 07cf ccbf
00000010: a951 4482 c032 c2bf 781d dddb 79b4 c5bf
00000020: 6fa7 a25c 0b98 c5bf f004 a80b fb75 d3bf
00000030: b7bf 1d02 9725 d6bf a309 be41 8c4f c8bf
00000040: dff4 b45e 0a17 d4bf c86a b2f4 6df9 bbbf
00000050: 1629 d1c8 a1e5 c23f 608e f923 438b 6fbf
00000060: 796f af49 1f24 c3bf 31b6 dfcd 9464 aebf
00000070: 9489 5029 2ffe cfbf 8d45 cdcf 133c b53f
00000080: 5079 b020 746e bb3f a8ae 2dd0 f7ad a0bf
00000090: 496c 4565 673d cbbf 517d 4006 409a a23f
000000a0: bc2f 0a3a 380b c5bf 6f23 b8a1 6a01 d4bf
000000b0: fdef 7f4e 50c4 c2bf 5fc1 8491 41b2 7abf
000000c0: 58c7 06c6 5707 b23f da87 6ea6 d0b1 98bf
000000d0: 6a07 a42f ebfc c6bf 4fbf a38b 712f cabf
000000e0: e510 6179 95d9 c6bf 8e92 04b4 782e b7bf
000000f0: 9f49 ccbd 8aa8 d6bf 5ecf 24f4 163a ccbf
00000100: dbcf f795 50bf a0bf fd81 49ed 0c91 b7bf
00000110: f1bf 236d d13a 963f d604 cd30 1038 bdbf
00000120: 904d e46c f2ae 44bf ea05 5a55 8623 c8bf
00000130: 2425 fd1c ef0f 623f aa77 ff86 a69d d5bf
00000140: 3c79 a778 852b d2bf 6f39 722e 2fee b9bf
00000150: 5e1d 46c0 7ea0 c6bf 60cd f688 77eb c0bf
00000160: 1de6 97b6 4efc c8bf ad15 a51b dd38 c53f
00000170: b4e6 6084 9745 cfbf 0d3a b568 815e d2bf
00000180: 0066 1cf8 01b8 d7bf 59e7 daa6 553f c4bf
00000190: 29c9 119b 49b0 b63f 8e11 92cd 7405 a7bf
000001a0: 835c 21d6 6e45 c5bf b048 af15 5c77 cabf
000001b0: 37fc 26a5 f064 dabf 06d6 b786 fb85 b83f
000001c0: 20c5 f0c0 1e09 d4bf f254 29b2 e050 c2bf
000001d0: fffc d72e c69d bf3f 0751 bdb8 9dd7 ddbf
000001e0: 0b9e 158d 0357 abbf 4a33 b34c e9c8 c03f
000001f0: bd18 12db 348c cebf 8fdb acb4 1ce0 c4bf
00000200: e85d 99da e844 c5bf b141 b5b7 f194 bbbf
00000210: 2132 7fba 109f d5bf e4d6 b612 98a1 d8bf
00000220: 73b5 f5b8 cb07 d2bf 1ce1 ac4a a171 9abf
00000230: 7196 4cce 7c85 cebf 79ea 3b35 621a c6bf
00000240: 0755 0eff 0055 b5bf e1e2 541d 63cf 8a3f
00000250: eb6a fc7d dd30 d0bf 2034 2cb5 5c66 d23f
00000260: d831 9c86 3293 d4bf 3066 7d9f e39d bcbf
00000270: aa4c 4d6e 2c8c d1bf 56e4 da99 b714 d3bf

layer3.weight f8 [80, 80]
0.25979659682839784 0.07938312690031141 -0.297533573658501 0.24147860554499948 0.03673166255754197 -0.11062093566534063 0.15608243848056969 0.023817853237414647
-0.12179507490614261 -0.2717572682132378 0.24336118140778246 -0.34942220849931044 -0.05574806407565272 -0.1173146463138173 -0.1631990445879814 0.14876898060665708
0.10619563454275309 -0.18664133375428937 -0.5573120382933933 0.22850390965112288 0.20778082502748488 0.031616267350545985 0.26051223598187956 -0.18253291506862748
-0.09752072259214634 0.22399638565668692 -0.18744436634444997 -0.2667303099014037 -0.2653050261671865 -0.22819921924769188 0.12390941478569358 0.21376093104507332
-0.012644184352400613 0.07808511622213138 -0.026143499361730497 -0.0052921547916642345 0.15929860714804267 0.142397690507002 0.03022294153120152 -0.11857824487386293
0.050988861270696205 -0.035387360972279805 -0.01945373242518083 -0.2504630724647301 -0.6533368321116447 0.6116711550816056 -0.0810721000207749 -0.003740051797811453
0.04226709183573272 -0.32660699818195066 0.22153629180486759 -0.036539005624857214 -0.14608909261241138 0.04023436827768108 0.24491266023661756 0.4392627176416269
0.030055317857574742 0.1997871432116557 -0.11506567161044663 -0.30108343654532166 0.3744176547693037 -0.1029043781079985 -0.3230340670360583 0.11249070323846252
-0.4129169038947826 -0.02886760474730965 -0.05283747232929084 0.05578690809426652 -0.18890881149181393 -0.31633880955165067 -0.06055863297664248 -0.08732835705009442
-0.07570009343330741 0.08892213295955856 0.38219521395033684 0.10926381403082076 0.14559226035632095 0.31705628955519727 -0.025235803854549627 0.1263477738050549
0.19815933633148855 0.09238537482807947 0.20258966029580855 0.014707799280338496 0.2421764177536465 0.042106774411346574 -0.06332194861454687 -0.05578552149803765
-0.2451637818390454 -0.012552381422550711 -0.16126999044275211 0.04197109925061593 0.027730962740947374 -0.004343987568496398 0.13379494058454425 0.017327558839190266
-0.146130311462765 -0.175655029473339 0.1875090417940952 -0.34656341332462365 0.054060487699477244 -0.4647421868256556 -0.14325297740823678 -0.036741095144973326
0.24787713996492264 -0.02377354964508446 -0.1256776077450989 0.14803975131201136 -0.03163327979349674 0.0405445204223614 0.09694518229567062 0.050309299119865515
-0.18481114919238625 -0.21443862374913267 -0.03732389815004593 -0.07826748566890745 -0.0010944564494929734 -0.29903779444766615 -0.2594083898487747 0.2192762587492007
-0.009190344917276747 0.2814169684343249 -0.1308947438091756 0.0351686741157946 -0.20416416438197083 -0.11515287480242471 -0.1075597039388064 -0.12384716128981839
0.0036090539281160637 -0.2977522535983212 -0.24674164523379438 0.27979314433702246 0.090700319543565 0.13108848557928454 -0.24655854620551385 -0.23288981084795785
0.026269053209042447 -0.1119796846224567 0.042378967681389226 0.1574953146484119 -0.0706358802331716 0.17512585490692786 0.04456576077835185 0.1687414109577784
0.20146064345266337 -0.025703216011898886 0.0036806247630082976 0.027911164370593034 0.05657543464268839 0.07915614833056664 -0.051763624415982916 0.048355784442231674
-0.2623261374345812 0.1816410667560101 -0.07775475851730597 -0.04227568132182238 0.09756941276728077 -0.040933721470260497 -0.13378962847542814 -0.22028644226444435
0.15797528994710888 0.1742220546024625 -0.3272246370563357 -0.03428209608260463 -0.0977277368293425 -0.04810714562120732 -0.033832340215725704 0.2653537468054198
0.02166283347930048 -0.17580698975981654 -0.6024513548605799 0.44728247555335554 -0.23533494308882325 -0.04338249416558372 -0.05778854374616852 -0.04620170208228228
0.21220573229490933 0.04124391259977928 -0.17854109691520284 0.16128819476020584 -0.0029785978846058533 0.11825681554463383 0.2806682986845402 0.04515683529825724
0.2750479281385956 0.34050786189090726 -0.08931153141178305 -0.14400563504243521 -0.36243120524350486 0.3698786002872017 0.2630964537570452 0.0997029642455779
0.12078541963415106 0.25811601983746957 0.2258723080823866 -0.42919902515685254 0.3522425697087246 0.1648090823869836 -0.020403846946648714 -0.1924017708636388
-0.003352122027021008 -0.24576341437528618 -0.12135608166491545 -0.13969345089542615 0.4742012698841088 -0.1000825352376756 -0.38295122316930075 0.04580759435733317
-0.626515443011719 0.13701729984674263 -0.045984514623502226 -0.357067366993979 0.1646212347209232 -0.21005108691291177 0.19656911185938358 -0.1175124755483199
-0.18071655413967505 0.032889776465688685 -0.09110120462026884 -0.25728584768017854 0.17736966862446737 -0.21484983879126185 -0.18489864665099018 0.02973012299525856
0.5704502253569556 0.07356484195190398 -0.06124742829283011 -0.0171670378250021 -0.4253915183248546 -0.24869629312692187 0.03739389732464969 0.004511025389978263
0.15731913400983405 -0.05372045740392665 -0.09697389665439515 -0.1738914409728439 0.6687883768584504 0.3879641017262659 0.08463554490737621 0.12829414884427617
-0.288915471935622 -0.11942521692767587 -0.24023802484674342 -0.1840897897249628 -0.2382381671594053 -0.08569484575384564 -0.03246254961849431 -0.10165510292230986
-0.026407316433526253 -0.2702332290193295 -0.20862069052299856 -0.0492297172929821 -0.22743809318180291 -0.22277358981341533 -0.36086406456280784 -0.21296882718019522
00000000: 3e5d bfe7 81a0 d03f 341c e4dd 7352 b43f
00000010: 35d1 1442 ca0a d3bf 35ee bf5c c5e8 ce3f
00000020: 9a1f d312 7ece a23f bb80 ef54 a751 bcbf
00000030: 6082 6064 82fa c33f 71cc dc12 b563 983f
00000040: 1827 8947 f62d bfbf 2746 db98 7864 d1bf
00000050: a694 a18d 7526 cf3f 590a 80f7 ee5c d6bf
00000060: 045d 0aa0 028b acbf 9278 4229 5508 bebf
00000070: b035 9fcf b4e3 c4bf 6bb3 2ea9 dc0a c33f
00000080: c3ce 5619 a32f bb3f 303b 47fc dce3 c7bf
00000090: 2364 440e 80d5 e1bf d4d7 7ab9 9d3f cd3f
000000a0: 194e 1de4 8f98 ca3f 9c99 95e4 0130 a03f
000000b0: 1e00 7083 3bac d03f 09e7 5412 3d5d c7bf
000000c0: bc2e 373a 1ef7 b8bf 89a9 68df e9ab cc3f
000000d0: dd69 a24f 2dfe c7bf ea38 7801 1c12 d1bf
000000e0: 338f b6ee c1fa d0bf fa1e d2cb a135 cdbf
000000f0: 1dca 2b04 87b8 bf3f 1424 00a8 845c cb3f
00000100: a1a9 39b2 31e5 89bf 4c79 7adc 62fd b33f
00000110: 91e8 0b8b 5cc5 9abf 08ce 16fc 39ad 75bf
00000120: a0e5 ff91 e563 c43f cb72 e067 163a c23f
00000130: dd99 dc45 c3f2 9e3f 0815 c0d3 245b bebf
00000140: 2b60 3c47 361b aa3f 12a8 22cc 4a1e a2bf
00000150: 6e84 34e2 adeb 93bf 50de 4544 9607 d0bf
00000160: df22 e6a4 22e8 e4bf e06c df62 cf92 e33f
00000170: 970f 3522 24c1 b4bf 07b4 0505 75a3 6ebf
00000180: 0d54 4342 08a4 a53f 7584 f509 21e7 d4bf
00000190: 19ea 161c 4d5b cc3f 6dce 5f94 3db5 a2bf
000001a0: ae4b 8921 0cb3 c2bf 7a10 db5f 9999 a43f
000001b0: 5edb 0b4d 4c59 cf3f 19dd a75f e11c dc3f
000001c0: dba0 133d d2c6 9e3f a4ae 2007 a092 c93f
000001d0: 758a 75a0 f174 bdbf ac15 5576 f344 d3bf
000001e0: 0dde 9177 75f6 d73f 6bcd 96fa f057 babf
000001f0: c07a 5a14 97ac d4bf 8e63 83d3 30cc bc3f
00000200: 0765 8c05 3b6d dabf a0d5 3629 788f 9dbf
00000210: 24b2 505f 830d abbf 5aa2 9e03 1a90 ac3f
00000220: 044c a4f7 292e c8bf e1b6 5e22 e53e d4bf
00000230: 3713 4088 8a01 afbf 2e27 8bb5 265b b6bf
00000240: b0a6 99d1 1461 b3bf 9aad f3d4 99c3 b63f
00000250: d0ae 26ea e275 d83f b90a e69b b6f8 bb3f
00000260: 9afb 6366 c4a2 c23f 0a5d a876 a64a d43f
00000270: 2868 f920 6ad7 99bf 8822 35f2 292c c03f
00000280: 656c 78fe 485d c93f e5ea 8363 91a6 b73f
00000290: 3637 bd3e 75ee c93f 40d2 3d67 1f1f 8e3f
000002a0: e0a2 0e09 a3ff ce3f 3fd5 12e6 048f a53f
000002b0: f020 6b02 de35 b0bf e547 d97c eb8f acbf
000002c0: d4c8 94dc 8661 cfbf dcfd 921d 10b5 89bf
000002d0: af90 63bb 7ea4 c4bf 802f 5165 3c7d a53f
000002e0: ed60 3c68 8165 9c3f 729e a748 00cb 71bf
000002f0: 1927 174f 3120 c13f 68a6 22ca 50be 913f
00000300: 58eb 57e6 65b4 c2bf d8a2 7b2f dd7b c6bf
00000310: 2fdf 1ad9 4b00 c83f 790a 8e4f 182e d6bf
00000320: 20a2 59f5 d0ad ab3f b036 5f03 56be ddbf
00000330: caf1 8212 1d56 c2bf ba3e 2294 bacf a2bf
00000340: 4fa5 c928 70ba cf3f 171f f1e8 1758 98bf
00000350: 5667 8d2f 3416 c0bf da4f 3271 f7f2 c23f
00000360: 5248 5bbc 3c32 a0bf c9f9 7d5a 40c2 a43f
00000370: 30f4 7643 66d1 b83f 251b cff4 23c2 a93f
00000380: 3fd6 db48 e4a7 c7bf 1f3a 008e b972 cbbf
00000390: 26ce d333 1e1c a3bf 54c1 4983 5609 b4bf
000003a0: 2af7 13aa 7bee 51bf b1ec da6a 6f23 d3bf
000003b0: 2858 ada5 259a d0bf 86fb 0e94 3e11 cc3f
000003c0: f28a de36 63d2 82bf c1c0 fd50 bc02 d23f
000003d0: 7e79 f0b1 28c1 c0bf df8f 57e2 a001 a23f
000003e0: e492 8424 0d22 cabf 9519 51a7 a87a bdbf
000003f0: 96dc c862 0889 bbbf 7d34 7193 72b4 bfbf
00000400: 0f7f e712 bc90 6d3f 33f7 e077 5f0e d3bf
00000410: 9c91 6bf0 3a95 cfbf 27a4 2481 21e8 d13f
00000420: 0426 2dda 2238 b73f 24fc 38eb 81c7 c03f
00000430: 1b41 40fe 3a8f cfbf 02f1 9454 55cf cdbf
00000440: d308 b851 46e6 9a3f 9a14 455b b3aa bcbf
00000450: 5aa9 7530 b2b2 a53f 9715 d874 ce28 c43f
00000460: aa90 866b 3115 b2bf 9f30 c125 866a c63f
00000470: 82f6 20ca 52d1 a63f f4b3 c58c 5199 c53f
00000480: 19b8 875d 76c9 c93f cc48 b1a0 f151 9abf
00000490: 940d 8d5f d426 6e3f ddef a888 be94 9c3f
000004a0: e93b 1893 74f7 ac3f 7a6b 5bcc 9343 b43f
000004b0: df67 fa03 c380 aabf 53ed 80e1 16c2 a83f
000004c0: c6b8 4a91 f3c9 d0bf 54ef a9b4 0340 c73f
000004d0: 61b1 f060 bce7 b3bf 23fe 6279 28a5 a5bf
000004e0: bde6 ec1c 4ffa b83f 1b64 09c6 43f5 a4bf
000004f0: 3a48 6cbf 0420 c1bf df94 a39c 5832 ccbf
00000500: cd10 f3c7 8838 c43f 6337 6185 e84c c63f
00000510: 3d8e a69a 3ff1 d4bf 38b7 0643 6c8d a1bf
00000520: 4c18 9859 af04 b9bf ef42 4bf2 7fa1 a8bf
00000530: c420 8cf5 7852 a1bf 369f 1948 8efb d03f
00000540: b043 5425 c82e 963f 739b b6eb d780 c6bf
00000550: 9cd3 5110 4847 e3bf 54d6 24ad 46a0 dc3f
00000560: 0a15 1696 741f cebf b2f7 51f3 3a36 a6bf
00000570: 054f f2c2 7596 adbf 2506 edde bfa7 a7bf
00000580: a77c 1db4 8e29 cb3f 69de 8c0f ec1d a53f
00000590: d912 1f46 6fda c6bf 58ec dc70 17a5 c43f
000005a0: f0fa 1290 9266 68bf 2616 4b23 1446 be3f
000005b0: 99f0 f72a 78f6 d13f c5ff 97f5 cb1e a73f
000005c0: 5805 0ca0 629a d13f 998c b67c e1ca d53f
000005d0: a8bc 91da 1edd b6bf 5736 79d2 c66e c2bf
000005e0: a186 64a7 1232 d7bf 8952 ee4a 17ac d73f
000005f0: 1f20 2582 92d6 d03f 68bf bf2a 2286 b93f
00000600: 7b8d 2913 cbeb be3f bea3 f10d f984 d03f
00000610: f197 2440 62e9 cc3f 5585 2130 ff77 dbbf
00000620: 381c 4a6b 248b d63f 66ca 77c9 7618 c53f
00000630: f2ce 64fd bee4 94bf daa1 c608 9fa0 c8bf
00000640: 7de0 4dcf e875 6bbf 7dc7 a5f1 2c75 cfbf
00000650: 8be8 eb31 3111 bfbf 9fd6 8799 79e1 c1bf
00000660: 42ee 7748 5059 de3f 2620 bf4f 029f b9bf
00000670: 0a6c ded8 4582 d8bf 10ab 58cf 1774 a73f
00000680: be93 451d 6a0c e4bf 6dfb e96a c889 c13f
00000690: 385a dc44 488b a7bf 604f ed15 31da d6bf
000006a0: a53f ad01 4f12 c53f e9dd 633a f4e2 cabf
000006b0: 2a7f 6b39 2d29 c93f e01e 5a2f 4c15 bebf
000006c0: 8517 f054 b821 c7bf cff4 95c4 edd6 a03f
000006d0: e162 7896 6852 b7bf e9a3 600f 5f77 d0bf
000006e0: 5db0 059f 0cb4 c63f 5065 9413 3380 cbbf
000006f0: a367 3844 c2aa c7bf 5efd e1c7 9271 9e3f
00000700: 31ed bcd4 2041 e23f 439f 513e 25d5 b23f
00000710: dbaf f6aa d25b afbf ab3d 1c68 3c94 91bf
00000720: c3dd cc58 9d39 dbbf 68eb ceb6 47d5 cfbf
00000730: dea0 28fc 4a25 a33f f494 5728 277a 723f
00000740: 4ebb cd8b 0823 c43f 1520 5a6f 3f81 abbf
00000750: 7041 b202 48d3 b8bf d32e 0422 1342 c6bf
00000760: b8a9 d1e1 b666 e53f d1ec 3b62 67d4 d83f
00000770: 66d1 74d1 acaa b53f 09f4 c652 f16b c03f
00000780: d966 d151 977d d2bf 9ba6 05a9 a692 bebf
00000790: 8d77 fc9d 1ec0 cebf bbb7 3215 4190 c7bf
000007a0: 7de7 4d98 967e cebf f6d2 f2ef 18f0 b5bf
000007b0: 6794 e969 ee9e a0bf 82d8 859e 1106 babf
000007c0: e716 d401 850a 9bbf 498d 3b50 804b d1bf
000007d0: ff58 8831 15b4 cabf a284 8733 a334 a9bf
000007e0: fe4b 0a02 b11c cdbf 28a0 5451 d883 ccbf
000007f0: 4054 e696 6518 d7bf 9638 e701 9042 cbbf

layer3.bias f8 [80]
-0.029661298735248958 0.013230051756963748 -0.27373772492878895 -0.210821720812406 -0.1597291477957944 0.19139145785989542 -0.1888543024157211 -0.11676853174602358
-0.0654434684249488 -0.11753610544811947 -0.16096935062090142 -0.12373866380992901 -0.16270204574586605 -0.0279131712071306 -0.11360463340350843 -0.2151862156073384
-0.08999013421521132 0.11180420715874541 -0.28139206047345017 -0.12434427046695602 0.10905729151177443 -0.043592713968463426 -0.1220296912085241 -0.06445639079559976
0.11941296813655973 -0.23399782249330087 -0.19739232872889304 -0.1333551061688259 -0.15609583792140863 0.11409397737215546 -0.09860455330735964 -0.21198409155113168
-0.2101097425186167 -0.21348327347168822 -0.1620820764549981 -0.12203717874042565 -0.4792374073670956 0.18257692484644203 -0.5314754720402063 -0.27308458703706207
-0.14094162733706445 -0.3151970920849989 -0.2409139219410671 0.04315508472309975 0.10585598683507547 -0.20460542889335445 -0.2207909503359136 0.08153581432455563
0.1505214852859239 0.2063727945922219 -0.24445429749748881 -0.1442218339581979 -0.11537875241737021 -0.30683284731783517 0.009207719214882323 -0.283993976566483
0.12412641235627996 -0.26312015302207054 -0.11303873682637694 -0.10634391815744816 -0.044207767110528054 -0.13768237678987752 -0.1877757908160719 0.12234151485671263
-0.2803094655946232 0.01845489209621481 -0.23456591094500928 -0.021046552738604736 0.002976976723912535 -0.10166973973757626 0.14984469622133587 -0.5341641218379624
-0.25307092172371504 -0.1684224681200693 -0.23354639658808707 -0.34791667494431094 -0.1517214021735992 -0.12430864632291341 -0.23269444288461943 0.07468092999893261
00000000: 0b60 1910 885f 9ebf 28e1 f67c 5b18 8b3f
00000010: b509 103c eb84 d1bf 337e 16c6 34fc cabf
00000020: 141d 0035 0172 c4bf 48fa 1eea 837f c83f
00000030: 24ce 4ab6 602c c8bf 7c15 0de1 8ae4 bdbf
00000040: 0439 9f34 e7c0 b0bf a3b6 ffa0 d816 bebf
00000050: d39d 49c8 a49a c4bf 767b 504a 56ad bfbf
00000060: de42 bcae 6bd3 c4bf 8f5e d935 4595 9cbf
00000070: 2663 2479 3115 bdbf e3b0 4acf 388b cbbf
00000080: 6abf 6aeb 9709 b7bf 3951 4d55 339f bc3f
00000090: f999 45d8 5302 d2bf f5bd 19af 06d5 bfbf
000000a0: eef3 6ebc 2deb bb3f 1047 adc1 c851 a6bf
000000b0: ddaf e17c 563d bfbf 623c 7cca 3680 b0bf
000000c0: 7564 dd28 d991 be3f 0ad3 7801 a4f3 cdbf
000000d0: a999 2fde 2644 c9bf aaf6 dfb5 c711 c1bf
000000e0: 6a03 75cb f2fa c3bf 92e5 7b4d 4335 bd3f
000000f0: b119 b1e3 253e b9bf 2e00 3e72 4b22 cbbf
00000100: c81e 5844 e0e4 cabf 06e7 e67e 6b53 cbbf
00000110: ad2c d200 1bbf c4bf 7913 961b d43d bfbf
00000120: 1956 ea5f d3ab debf bb1f 9c40 ae5e c73f
00000130: 3f3e 61d9 d801 e1bf 0a6a 97c6 377a d1bf
00000140: 1663 0710 600a c2bf e428 936c 302c d4bf
00000150: 54a9 f173 44d6 cebf c769 155b 6c18 a63f
00000160: 60de 8ac1 6019 bb3f 5d2b d7bc 8230 cabf
00000170: 7106 79bb e042 ccbf ab08 faf7 87df b43f
00000180: 64fe 52bc 4944 c33f 5463 c779 6c6a ca3f
00000190: b826 8f46 474a cfbf ed1b 1c6e dc75 c2bf
000001a0: d32f 4940 7689 bdbf fb64 243d 26a3 d3bf
000001b0: 187a 3027 7fdb 823f 594c 6712 f52c d2bf
000001c0: 2fd9 a3a1 bfc6 bf3f e37d 09e9 f5d6 d0bf
000001d0: 6cb6 d94d 1bf0 bcbf a15f 9de2 5a39 bbbf
000001e0: fa13 f083 66a2 a6bf 4527 c67c 939f c1bf
000001f0: 6d8d 4480 0909 c8bf 90af 4005 c651 bf3f
00000200: c03d df1c 97f0 d1bf ef8e 04d8 d6e5 923f
00000210: 26f4 217a 4106 cebf 72c9 d23e 3a8d 95bf
00000220: 44ee 7135 2c63 683f bc6c 2a2f 0707 babf
00000230: ebf5 df6a 1c2e c33f 0fb3 3f5b df17 e1bf
00000240: bccd 1761 5032 d0bf db5f 3e10 de8e c5bf
00000250: b8e4 b82b d9e4 cdbf b39b 274d 4444 d6bf
00000260: f42c 385e 9b6b c3bf 3a23 9102 b1d2 bfbf
00000270: aa3f 1377 eec8 cdbf b0f3 fa17 4a1e b33f
