attack_soft_generative_decision_tree/experiments/diabetes_params_state_dict/fnn_adt_epoch20.pth (torch, 113647 bytes, 8 tensors)

layer1.weight f8 [80, 8]
000000 52 d0 0d 3e b6 0a a4 3f 9a dc d3 19 fe 45 d5 3f
       0.03914422519201878 0.3323970081541546
000010 b0 c0 1e 5c b8 a4 b0 bf f1 c8 67 c5 59 c4 d6 bf
       -0.06501343010927729 -0.3557342937266546
000020 85 82 cf a4 7d 3c bf bf cf 62 ee fb 74 63 ba 3f
       -0.12201676629730158 0.10308009291328378
000030 38 2b 4a a2 58 73 b9 bf d7 b4 87 92 94 bc c4 bf
       -0.09941629373694816 -0.16200501589574998
000040 21 37 7e 23 8a 6c d3 3f b3 5a 41 d0 c6 c9 b7 3f
       0.3034997316943749 0.09292261680944129
000050 60 19 91 34 1a 61 c0 bf 8e f4 36 df a9 74 c9 bf
       -0.12796332899797402 -0.19887278937486425
000060 c3 be 46 ba 24 a9 c1 3f 19 9e 2e 91 d8 44 b2 3f
       0.13797434897923297 0.07136300606236325
000070 8b 3d 53 a0 a1 e1 93 bf 7c 71 b4 7c 3b 4c 99 bf
       -0.019415402803870257 -0.024704865919475946
000080 9b 57 19 d5 69 60 d5 3f 21 6d af b2 5d 1a c4 bf
       0.3340096074147085 -0.15705462670198592
000090 1a 08 60 70 6d ba ba 3f 38 c4 d7 8b 26 9e d2 3f
       0.10440715783627788 0.2909027448322976
0000a0 3b 16 3e 80 88 48 c7 3f ac 30 fb 91 d5 19 a6 bf
       0.18190103780595898 -0.04316584975239954
0000b0 30 87 66 13 f5 78 c4 3f a9 31 b0 47 33 00 b8 3f
       0.15994132468500188 0.09375305652810674
0000c0 64 9f f7 e9 da 9c c6 bf 93 a4 88 05 60 e0 c3 bf
       -0.17666183876212493 -0.15528488416865524
0000d0 b4 63 f3 0f 03 97 b1 3f b2 a6 e6 4c 9d 81 c9 bf
       0.06871050967619291 -0.1992680192463943
0000e0 c6 a7 a0 fa 6a ab a6 3f d3 0a d6 c7 91 75 e4 bf
       0.044276564687904904 -0.6393517401741867
0000f0 95 66 79 13 16 aa c1 3f 1d 5a 76 1a d7 ba a1 bf
       0.13800311995401118 -0.03462860296274448
000100 b6 29 f2 1b ff 6c c2 3f 0a 6c f5 5c 54 2d bd bf
       0.14395130981968202 -0.11397292394160288
000110 7c a3 3a 25 d4 e3 ac bf 05 14 9c 10 f9 d6 cc 3f
       -0.0564256949849726 0.22531045256633334
000120 1b f1 6a 02 b9 17 c4 bf 4b 97 35 9e b3 22 ac bf
       -0.1569739591412905 -0.054952252447761106
000130 9c 94 02 b0 c0 02 a2 3f cd da 05 e2 03 39 b6 bf
       0.03517725132523106 -0.0868074824155471
000140 7b 13 71 78 da b2 b6 3f af 7a 9d de 3c 68 bb bf
       0.08866658630820538 -0.10705929217281594
000150 89 8c f2 23 59 50 c3 3f b8 a3 59 df 55 05 c4 bf
       0.15088953261610907 -0.15641282468575723
000160 9e 03 e5 33 49 55 be 3f 33 1e 05 21 fd 71 81 3f
       0.11848886029203107 0.008518197603407085
000170 ad c6 94 f8 ce 5b 73 bf 04 a1 91 5f 13 f8 c1 bf
       -0.004726227264926369 -0.1403831688542213
000180 59 54 9b dd 33 f9 c9 bf b3 71 53 b3 df 80 d7 bf
       -0.20291755982057927 -0.3672408343534485
000190 64 a9 68 27 c9 e7 81 bf 52 cb c6 70 61 f3 c9 3f
       -0.008742877497827713 0.20273988730113018
0001a0 66 7d 92 98 7d 05 8f 3f f3 39 00 cb 41 e5 a7 bf
       0.015147191256174874 -0.04667096713102472
0001b0 ff 31 b8 9f 9b ae d1 bf 35 22 8d ec 7e 2a a6 bf
       -0.2762822208176487 -0.04329296720112944
0001c0 a9 da cc 88 c5 5b da bf e3 02 fc f7 23 ac 9e bf
       -0.4118512950839582 -0.02995353890492226
0001d0 4c 9b df 12 4e 7e ac 3f 07 2c 21 2c 7f cc c4 3f
       0.055651130489244055 0.16249074606670907
0001e0 e6 e5 c7 bd da 94 c3 bf fb bf b2 ec 6d 86 d3 3f
       -0.1529801775612178 0.3050799190050381
0001f0 d8 bc 2d 59 0c b0 c9 3f 16 ef 8e f7 d8 04 9f 3f
       0.20068506578852552 0.03029192934967203
000200 86 63 08 c6 f2 e2 d0 bf b7 05 57 ec 2a 7a d1 bf
       -0.2638518270410305 -0.27308152275153524
000210 0b 76 cf a4 2d d8 a0 3f aa 00 a1 d2 3e 37 c0 3f
       0.032899309509712614 0.1266859558545595
000220 a7 fc 47 cf 6a f4 cc 3f 92 6b ab f6 1c 18 c7 3f
       0.2262090217700223 0.18042337459959562
000230 fd d9 ce 97 a9 66 c0 3f 2c 85 c3 b3 1f 81 ae bf
       0.12813301002979918 -0.05957888669378017
000240 0c ea d0 55 6e f3 b2 3f 7a 33 f5 f0 98 85 d7 bf
       0.0740269622337239 -0.3675291398147277
000250 74 00 62 7d 52 29 c1 bf 6e c1 f8 77 44 5f ab 3f
       -0.13407355425079326 0.053461208004935354
000260 df e6 7a e3 ea 93 ca 3f fc 76 e6 6f 49 54 c3 3f
       0.20763908488679925 0.1510097309482531
000270 59 8c 17 a5 83 31 c3 bf f6 19 6b f7 f2 6d d6 bf
       -0.14994855462200254 -0.35046075975370117
000280 55 82 67 54 a1 74 bf bf 8a a6 a6 29 df 01 c2 bf
       -0.12287338553097389 -0.14068212064494318
000290 67 85 fa d0 a4 2f bb 3f 67 74 b9 85 39 61 ae bf
       0.10619573690430216 -0.059335515569480184
0002a0 37 1f 7d 4f f6 e8 bf 3f 03 91 dc 4d 46 fb dd bf
       0.12464847031253333 -0.46846158603354143
0002b0 67 2b db be b8 60 9c bf 7a f8 fc 41 44 6e ce bf
       -0.027712713860448625 -0.237740070553574
0002c0 a7 83 29 66 5e 19 bf bf 9d 28 65 74 29 56 c0 bf
       -0.12148084634965405 -0.12762945350033741
0002d0 81 c3 70 ac 51 74 be bf 36 d2 a8 10 e5 95 bf bf
       -0.11896238765690549 -0.12338096291279829
0002e0 0f e5 bd 29 6b 19 c2 3f 87 ba 6b 67 ef bd db bf
       0.14140071428463627 -0.4334677228897949
0002f0 43 6a ae 48 7a 44 b2 3f 06 32 37 7b c3 14 ab bf
       0.07135738634534854 -0.05289278868767515
000300 00 38 83 44 e5 4c ab bf da 64 95 6f 51 e0 c4 bf
       -0.053321041692115045 -0.16309564541260252
000310 d7 c5 8a 9d ab 60 95 3f 5f 15 6f 82 9a cf b4 bf
       0.020876580706220196 -0.08129277882024642
000320 ca 27 c9 1a ca 41 b4 3f a3 d8 f7 28 7e 7a e2 bf
       0.07912886766385366 -0.5774527359160583
000330 ef 06 c6 6f 9a 46 c7 3f ce 4e 6c f9 8a 36 92 bf
       0.18184214074795288 -0.017786189530922418
000340 f7 47 de 4a c7 62 8d 3f b0 7d b3 4c b1 46 c1 bf
       0.014348561260508303 -0.1349698662297505
000350 f8 81 c0 cd 95 33 c1 bf 10 c0 ea 65 b5 3c a8 3f
       -0.1343867544792514 0.04733816975692673
000360 cd b0 83 c8 ef 88 87 3f 06 07 f1 d2 ea b8 d9 bf
       0.011491654688562747 -0.40191145515210314
000370 4f 77 a4 82 ef 30 bf 3f b4 06 46 dc 62 cd b5 bf
       0.121840447802666 -0.08516519429943054
000380 b4 ad 20 a6 fc 02 81 3f 99 9d d6 51 87 4d b3 bf
       0.008306478328527024 -0.07540174243933108
000390 ea 3d 6e 2c 61 a5 cf bf d8 c7 12 11 8f ab 80 3f
       -0.24723448438133683 0.008139722546136527
0003a0 fa d6 b6 d1 35 1a a6 3f 0d 93 70 da b3 61 d2 bf
       0.0431687181948472 -0.2872132905197738
0003b0 3c 6e 1f 4a 1e 3a b0 3f 84 0f a8 56 4e a4 a3 bf
       0.06338681516302186 -0.038362930372414034
0003c0 75 04 c0 bf 8e 96 d3 bf 63 ee 36 7f 73 1e c6 3f
       -0.30606430745689944 0.1728042956509511
0003d0 fa 04 81 4e 34 d8 b9 3f 1c ed 91 c2 f2 e5 b1 3f
       0.10095526615716102 0.06991498232121213
0003e0 59 bb 4c 98 54 82 be bf ef d3 ec 94 fd 0b b2 bf
       -0.11917618482833116 -0.07049546132914462
0003f0 7c e1 a0 24 aa 73 86 3f 0c b9 8c 41 3a a6 d0 3f
       0.01096280025750284 0.26014572526300195
000400 c1 1e 44 a9 6f f3 c5 bf 0b ae b6 29 02 9c b3 3f
       -0.1714915825361825 0.0765992500152423
000410 0b b2 fd 6f e6 29 91 3f 8e ea 3f 47 2d a4 ab bf
       0.016761398873699245 -0.05398694510218603
000420 4b 28 0f 98 0e a3 c3 3f d4 b1 92 83 61 d9 b3 bf
       0.15341360497251552 -0.07753571951133803
000430 1d 89 89 a7 da 65 c2 bf 91 11 39 43 6c d1 28 bf
       -0.14373334103135785 -0.00018934675755323237
000440 e8 b0 45 d3 42 71 d4 3f 53 8e 84 3a 5e 35 d3 3f
       0.3194129050450685 0.3001323291266306
000450 ef 71 c1 25 7d 01 a0 bf 1a 5a a0 fd fa 1f be 3f
       -0.031261359080165245 0.11767548267412345
000460 a5 48 4b f2 c4 d3 c9 bf 9d 57 59 c1 1b c4 c9 3f
       -0.20177518683209886 0.2012972539984589
000470 00 0c c4 7f 76 20 c9 3f c0 a1 be 8a 7f 0f bb bf
       0.19630318869175767 -0.10570523392983144
000480 73 07 f9 15 36 d0 b7 3f 87 8c 9e 76 c5 3a d6 3f
       0.09302080189175203 0.3473371179954445
000490 f5 7d 80 32 07 71 cb bf d7 23 cd eb 05 f2 c8 3f
       -0.21438684430994184 0.19488595975624776
0004a0 be 91 e5 90 7b 3c d1 bf 97 6e 7c a4 93 de b6 3f
       -0.2693165698058485 0.08933375135205278
0004b0 ee 4c 4b fe f0 6d b8 3f 34 c1 b4 f7 8c c6 d6 bf
       0.0954275723300275 -0.3558685702328319
0004c0 a7 1a 6e 57 2b 35 d1 bf b0 55 c5 fe 81 4e d0 3f
       -0.2688701967057718 0.25479173545803757
0004d0 84 f4 e9 38 f2 ea 12 bf e8 5f b3 70 04 0d c8 bf
       -7.216552169527114e-05 -0.18789725783312794
0004e0 60 88 9b e6 c9 38 ad 3f 61 99 65 f7 97 2e c4 3f
       0.05707388820680204 0.15767192439961789
0004f0 66 60 88 df 91 3a c2 bf de 56 2e cf f3 8a c9 bf
       -0.14241240896876944 -0.19955299011478805
000500 64 11 3f 96 57 19 d5 bf d4 09 06 ce 45 48 c4 3f
       -0.32967176125045783 0.15845558700318796
000510 9a c4 32 03 fb a8 b1 bf 55 22 20 78 53 3e e2 bf
       -0.06898468807300376 -0.5701081606103552
000520 71 05 f0 ce f2 8a c3 bf 5d e1 4f e1 4d 1a cc 3f
       -0.1526778707921426 0.21955274106563652
000530 5c bd 5b 38 45 46 c9 bf e7 b8 42 83 c3 dd b1 3f
       -0.1974569821536346 0.06979009585004158
000540 8f ac 99 bc dc 52 cc 3f c7 de 52 1c 6e 96 de 3f
       0.22127875527380467 0.4779315258597134
000550 5f d2 f1 e2 93 c0 cd bf cc e0 f6 69 f8 87 ca 3f
       -0.23243950444488612 0.20727448629418743
000560 e7 59 fd 06 02 85 c0 bf 98 15 00 b2 7f 74 c2 3f
       -0.12905907956401494 0.14418026153013552
000570 c0 18 a6 11 3f 05 cb 3f 9e ca 45 4d aa ac d2 bf
       0.21109760629423668 -0.2917886499991854
000580 f9 ae 41 ca 39 da 9e bf 41 27 ae a4 9b 2a c6 bf
       -0.0301293401429765 -0.17317529240636456
000590 e4 fa 83 3f bf c2 a9 3f 7b 6f ea 50 27 cb 9d bf
       0.0503139271768214 -0.029095281900125763
0005a0 ca 19 99 11 e6 4c b3 3f 7c 0a 68 0b d6 10 d3 bf
       0.07539213113441359 -0.29790259469897484
0005b0 1b 08 39 31 a2 8b af 3f 23 36 ae 1c 82 46 cc bf
       0.06161219454635632 -0.22090174103179647
0005c0 9a 90 d7 46 c6 be b1 3f ce 01 39 59 ac e5 b4 bf
       0.06931723813574067 -0.08162953546798876
0005d0 be 41 00 83 e9 f3 c2 bf f5 ee cc b7 8d 50 aa bf
       -0.1480686082509361 -0.05139582508715349
0005e0 64 ff 70 b4 3a 8f d8 3f 05 f2 8f 4f ca e3 9e 3f
       0.38374202367048427 0.030165825944992637
0005f0 1a 31 38 d4 7a e8 c8 bf a6 78 c5 e0 10 01 c6 bf
       -0.1945947204807304 -0.17190752959408434
000600 ea 78 46 75 7f d8 bc 3f 4c 89 14 5c 69 2f c6 bf
       0.11267849553266598 -0.1733218860254716
000610 97 42 de c2 68 f3 d1 bf ce c5 0e 6c 52 dc c4 bf
       -0.28048151998613363 -0.16297369266753353
000620 f5 93 b4 e1 94 ce a8 bf 1a 95 6b cf ec 8f c7 bf
       -0.04845109229271564 -0.18407974365178675
000630 a1 5c 2f 49 49 ec a6 bf 3b 16 67 ab 1b 58 d3 3f
       -0.04477147119876546 0.30225269068282373
000640 00 42 14 0f 81 ee c0 3f 9a b8 ad 45 da 5f 9d bf
       0.1322785686138701 -0.028685961249202842
000650 51 f9 fd 80 4f 9f c5 3f 3e 44 07 b5 e7 3c bb 3f
       0.1689242725223701 0.10639808816564852
000660 a1 99 55 80 68 4b a0 3f df ff 4c a5 1d d6 b5 3f
       0.03182531897145969 0.08529839788116032
000670 e9 42 ca 1e d3 2b 88 bf c0 21 98 fa b7 00 96 bf
       -0.011802338959826257 -0.021487116499004477
000680 8a f9 3d 68 6f 05 d7 3f 33 cc 5b b2 88 c0 db 3f
       0.3597067373265409 0.433626341036134
000690 38 73 b9 f5 ba 0f a6 bf f0 c1 22 b1 07 4b bb bf
       -0.04308876275601964 -0.10661361765483668
0006a0 64 de b6 28 80 f9 bc 3f b0 63 8c b0 a3 82 da 3f
       0.11318207735063762 0.41422359696440036
0006b0 fa 72 ac 1f e5 fd b5 3f 8b 35 28 a8 11 cb c2 bf
       0.08590538047105759 -0.14682217322153365
0006c0 6a 8c 4f 0b 76 70 a2 3f 22 61 b1 40 9a 6c bf 3f
       0.036014260178284754 0.12275089339653225
0006d0 9f 68 f3 b5 5d ef ac 3f 6b 99 c7 79 90 c7 cb 3f
       0.05651371809081351 0.21702772089265507
0006e0 d4 4b bf d5 4e 0d c3 3f 1c 89 4d 97 63 c2 d0 bf
       0.14884362637402992 -0.26186456466361263
0006f0 e2 63 ec 99 e7 fa a7 3f 32 83 94 7d 6e 5c b0 bf
       0.0468361258883261 -0.06391039434357706
000700 8b 16 1d f9 7e b0 c0 bf 87 bb 48 65 d7 72 c3 bf
       -0.1303862301230548 -0.15194218106759314
000710 30 9d 02 a5 de b2 b2 3f 7d 25 77 db a4 2f b3 3f
       0.07304183510369877 0.07494573934595468
000720 db 14 2d a9 2e 86 c6 bf 4c 68 ed 7f 62 15 8e 3f
       -0.1759699178748296 0.014689225701364127
000730 f9 9a 27 cc fe 56 a8 3f 18 f7 ea a2 eb 6c c9 bf
       0.04753872148631006 -0.1986364884850722
000740 86 86 09 28 bd 90 b6 bf 17 a4 3b e8 16 0d ce bf
       -0.08814604022475167 -0.23477445926190008
000750 23 c9 07 47 96 e9 bf bf 73 c6 22 f3 6f c3 d0 bf
       -0.12465800508633555 -0.2619285463689273
000760 71 f0 97 91 96 a5 b5 3f 10 46 2f 3f bd 77 af 3f
       0.08455792479066006 0.06146041294381288
000770 15 02 98 46 54 27 c9 bf da 51 cd 43 f9 d7 c2 bf
       -0.19651273199998856 -0.1472159939827538
000780 be 71 70 4c 46 a0 c8 bf f1 4d ca 5b 82 81 c8 bf
       -0.1923911927450614 -0.1914523075289334
000790 dc f5 a6 44 bf 54 d7 3f 61 44 e2 2f d9 50 b2 3f
       0.3645475550109418 0.07154614848174524
0007a0 f3 13 00 fe 9e 7f c2 bf 22 4e d3 1f 4d 5a b8 bf
       -0.14451968576773275 -0.09512788798320362
0007b0 c3 b8 43 93 ee bb d5 bf 5b cf 49 96 f2 3f b5 3f
       -0.33959545499136484 0.08300701302669948
0007c0 b0 b3 09 dd c1 06 c1 bf c9 21 94 71 15 14 bf bf
       -0.13301871579042546 -0.12140020392337826
0007d0 01 74 00 32 62 d9 b4 3f fd 95 7f 72 42 93 c0 bf
       0.0814420101236948 -0.1294940051149495
0007e0 6e fc 56 d3 a1 2c c9 3f 02 91 d3 9f cc f4 df bf
       0.196674564545876 -0.4993163643651003
0007f0 38 9e c4 07 fb ba c7 3f 82 c1 2a 49 40 cb d2 bf
       0.1853936946802024 -0.29365546364990547

layer1.bias f8 [80]
000000 51 7f 79 74 bd 3b c7 bf 51 b9 d9 e6 15 40 c0 bf
       -0.18151062190281178 -0.1269557358932141
000010 64 7f 79 dd d4 18 c6 bf 5c ec 32 84 76 28 c6 bf
       -0.17263279737653214 -0.17310983138108582
000020 3a 89 a3 d7 89 81 d3 bf ba 23 3e b1 33 ed d1 bf
       -0.3047813993308811 -0.2801026564489423
000030 5b d7 fc 12 8b e3 a1 bf 9f 2f 79 d3 37 30 b1 bf
       -0.03493914229186031 -0.0671419993679465
000040 c1 c9 89 13 a6 da c9 bf 4e f0 42 bb 81 8e bc bf
       -0.20198512987151498 -0.11154948064626177
000050 2e 8b d3 8e ce 40 ce bf f8 0b 7b 1d cf 9b cb bf
       -0.23635274862234595 -0.21569241466031008
000060 1e 02 40 1a 0d f0 ce bf 91 59 dc 82 d0 fa d0 bf
       -0.241700780694388 -0.265308502000516
000070 22 cd 0a a6 02 0e d1 bf a9 40 45 42 aa c7 c7 bf
       -0.2664801236635005 -0.1857807944857133
000080 d4 4c 32 9c 35 a4 c5 bf 8e 04 52 5c fd c9 a3 bf
       -0.16907377363950238 -0.03865043403585232
000090 1c f2 c5 a9 aa 50 b4 bf 3a 58 59 fc d0 93 c8 bf
       -0.0793558754430212 -0.1920109970257629
0000a0 92 2c cb b7 7a 19 b3 bf 92 e2 b6 35 81 f7 bc bf
       -0.07460753428601866 -0.11315162240397061
0000b0 85 86 12 cd d5 54 d2 bf 58 b1 b6 2d 2a 6d bd bf
       -0.2864279272708717 -0.11494697204643012
0000c0 e7 62 18 a5 20 3f e0 bf 08 c0 b7 00 21 a1 cb bf
       -0.5077059959904461 -0.2158547643189197
0000d0 94 f0 87 8b 4d 88 bd 3f 5e f8 90 78 ea 74 d4 bf
       0.11536106735724366 -0.3196359803586172
0000e0 c7 d7 a8 b4 29 35 c3 bf b2 ca 44 4f a3 e3 c5 bf
       -0.1500599033476517 -0.171009458260945
0000f0 b6 2e a9 84 84 50 98 3f 41 c6 4f 2d 20 25 d4 bf
       0.023744650456406467 -0.3147659723755148
000100 83 e5 79 8e ce 1b da bf 24 60 e4 ec a6 f8 bb bf
       -0.4079471961373075 -0.10926287921427097
000110 23 40 03 7c e1 9a cd bf d1 72 f8 52 81 4b d4 bf
       -0.23128908686931124 -0.3171084699877556
000120 4e 52 6a 1f 33 48 cd bf 88 63 b4 93 29 a3 c3 bf
       -0.22876585992766468 -0.15341682159558112
000130 50 52 0d c0 29 80 9f 3f 4a f0 4e 2b d0 c9 c0 bf
       0.03076234087650881 -0.13115884890237545
000140 d2 b5 10 95 cd ce cb bf 7c fd 8d 33 72 19 d0 bf
       -0.21724862841203546 -0.2515531066382761
000150 fa 7d 26 97 f7 f7 d2 bf b6 fc 3d 0d a5 68 d0 bf
       -0.2963847137525303 -0.2563870076482532
000160 ac c1 35 66 dc 0f c7 bf d1 6c 50 e1 44 08 cb bf
       -0.18017153731081004 -0.21118985177677144
000170 36 53 34 ac 11 9f b1 bf 89 d8 10 41 9c ff c0 bf
       -0.06883345083435874 -0.132800609369671
000180 8c 20 c4 c7 11 d0 d1 bf c8 97 e2 14 91 bb d7 bf
       -0.27832455166254344 -0.37082316436351137
000190 47 c1 3f 93 b3 29 d0 bf 20 f1 a6 39 f7 2b b5 bf
       -0.25254525546826695 -0.08270211370012648
0001a0 5f 66 c7 e0 90 0c ca bf a5 29 f3 31 bb ab d2 bf
       -0.20350848174602995 -0.2917316425124688
0001b0 10 8b 3b 38 dd 7c ce bf 98 a3 1b 2c 7d ea c0 bf
       -0.23818555112583129 -0.1321560349818156
0001c0 ea a1 13 86 46 38 cd bf 6f f8 2f 98 6b 1c d2 bf
       -0.22827989145959232 -0.28298463689851067
0001d0 5b f0 27 7c 0f fe c1 bf 24 51 a7 6e 45 a0 c7 bf
       -0.1405658107977413 -0.18457858946806838
0001e0 74 a4 f6 cb 5b 37 d2 bf ef 0d c6 2c 8f 72 d8 bf
       -0.2846288196402107 -0.3819921433680226
0001f0 7f 3d ec 45 85 2e cc bf 93 e5 5e cc 88 2f c2 bf
       -0.22016969598960753 -0.14207563380277274
000200 23 b6 2e 9c 80 a7 d2 bf 68 25 5c dc 13 7d ca bf
       -0.291473534128132 -0.20694206485522249
000210 b5 d4 b3 92 ea 94 bb bf 20 d3 28 11 bc a6 d2 bf
       -0.10774103242495665 -0.2914266746113743
000220 6c a4 12 29 80 24 c4 bf bb 97 72 40 1f 2a a6 3f
       -0.15736391072758538 0.04329011594499784
000230 7a 3d 4c a0 cd e7 c0 bf 68 85 a2 09 46 7a a6 bf
       -0.1320740730957189 -0.04390162341702358
000240 21 1c d8 bd ba 4f bf bf ae 25 62 6d 67 a2 d0 bf
       -0.12231032500140816 -0.2599123542973655
000250 6e 1e 57 a1 bd 16 cc bf eb 4c 54 7a 11 ed bf bf
       -0.21944399240441065 -0.12471112476878303
000260 6e 1e f4 c2 15 23 c3 bf 4b 11 4b 3b 64 f5 8b bf
       -0.14950820941179493 -0.013651640948758944
000270 1a d2 39 99 29 9a a5 bf 68 d2 0d ba fb 66 ce bf
       -0.04219179149086845 -0.23751780113856857

layer2.weight f8 [80, 80]
000000 81 2c 0b 4e b1 6c e2 3f d7 1f 02 05 8c 19 ce bf
       0.575768139294624 -0.23515463108583276
000010 43 00 1b 59 cc d6 d2 bf 00 e1 73 36 85 5a ca bf
       -0.294360243813575 -0.20588746222325227
000020 12 87 d5 76 8e cb aa bf c1 d0 de cb 4b 49 7e bf
       -0.0523342628537319 -0.007394119338574424
000030 76 6d 8b 97 fe 63 ce 3f 5e 6a 14 1d a3 40 c0 3f
       0.23742658996239258 0.12697256965550968
000040 0d d1 37 27 35 a1 cd 3f 9f e5 ab ec 59 f1 cc bf
       0.2314821664327912 -0.22611545616363757
000050 d7 1a 79 b0 7a f0 d0 3f f0 39 ef cd 48 34 98 3f
       0.2646776889200004 0.02363694912838271
000060 e6 46 13 f8 ff 6a ab bf 18 1b 4d a8 f9 48 b6 bf
       -0.053550719292287316 -0.08705101355472455
000070 fc 41 29 cf bd f3 d6 bf 68 d4 4e e6 fd d8 c9 3f
       -0.35862679701406797 0.20193456407074284
000080 68 23 4c 0d 0f 2f cf 3f c0 0f 50 bd ea f8 d3 bf
       0.24362362050330977 -0.3120676850087385
000090 f3 d3 6c d2 54 20 d1 bf 07 10 84 79 36 8b c7 bf
       -0.2675983481342989 -0.183935937246247
0000a0 7e 5f 1f bb 39 2e b6 bf ef e0 38 eb ae c2 b9 bf
       -0.08664284532949115 -0.100626881053248
0000b0 05 07 4b 67 79 93 c1 bf 3d 1f 19 75 b4 05 b8 3f
       -0.13731305640799732 0.09383705004540573
0000c0 ef f2 a9 a8 47 a8 c0 bf 8c 63 ea b0 4a e7 c0 bf
       -0.13013549552478973 -0.13205846441703917
0000d0 49 2d 43 08 32 f8 c8 bf c4 cd 8c 57 21 bf c9 bf
       -0.1950743236869619 -0.20114533209708274
0000e0 8a da 2c 05 71 dd d1 3f eb 3a 48 d4 ba 9f cf bf
       0.27914071565047804 -0.24706206670131023
0000f0 72 75 10 85 7e d8 d2 bf 78 bb 38 e4 30 94 d4 bf
       -0.2944637584167459 -0.3215448597647348
000100 f7 79 b2 52 e7 63 bc bf e8 e3 a7 dd 5f c7 d2 bf
       -0.11089940804456676 -0.29341885229183484
000110 c7 f3 8f f3 3a f4 d3 bf 31 a8 65 e4 7f 5d d7 bf
       -0.3117816332376688 -0.3650817614021689
000120 c8 b8 11 cd 09 94 c9 bf ce eb b3 51 0e a2 c1 3f
       -0.19983026993890562 0.13775805463214258
000130 d6 a0 40 f8 e2 53 cf bf fd 4f 2d 18 db a6 8d bf
       -0.24474751588537086 -0.014478408503840962
000140 5c f2 37 ab b0 e3 a0 3f 51 5e c9 d9 8d 9a a1 bf
       0.03298713769979564 -0.03438227923896576
000150 fb f6 95 0d bd c8 c6 3f 3b 50 6b 30 8f 84 b2 3f
       0.17800105250710616 0.07233519489392475
000160 ff 6f 0c 55 e3 49 d5 3f 91 28 2a da b6 98 a9 bf
       0.3326347666313722 -0.04999324238913617
000170 ad 6c a9 d1 1f 66 8f bf 93 d7 bb e7 88 3c d5 bf
       -0.015331505380507282 -0.3318197501206381
000180 36 58 ad 03 e2 23 c1 bf 9f e7 7d af 2d c4 b9 bf
       -0.13390755824610928 -0.10064969572513725
000190 50 fe d0 51 4b c1 a6 bf 07 46 5e 31 d6 5a 92 3f
       -0.044443467843390594 0.01792463947601244
0001a0 1d ae 0a d2 d5 64 c1 3f bc 82 45 08 14 d9 b5 bf
       0.1358897471994717 -0.08534360124532275
0001b0 34 62 84 8c 31 39 83 bf 0c a2 87 32 b8 40 ce bf
       -0.0093864317901061 -0.2363500830390567
0001c0 73 d8 2b 6b 96 99 ce bf d9 15 9d e1 79 a9 6d bf
       -0.23906212075206987 -0.0036208515638544822
0001d0 31 4d 14 1f 04 0b af 3f 57 b5 2b 3b 6a e6 89 bf
       0.060630921167240344 -0.012646512919185211
0001e0 e7 13 f7 52 c8 12 b9 bf 70 dd 0a 40 25 6b c0 3f
       -0.09794284844890876 0.12826982142517407
0001f0 6c 0e c8 28 e5 b2 b9 3f 4a 87 05 80 60 d7 c6 3f
       0.10038597341195449 0.17844778300337288
000200 d5 91 a4 1b 5c 19 bb 3f 28 1c 2c 4b 9c b1 d1 3f
       0.10585570978998445 0.27646548596425413
000210 bf 3c ea d4 96 c9 c0 bf b8 cd a9 0a b0 aa c2 bf
       -0.13115201374282567 -0.14583397408169474
000220 30 e0 fa 35 7c b3 a7 3f 5b 49 88 47 83 79 cf bf
       0.046291238393166956 -0.24589577667991133
000230 98 2f c6 23 4a 3a c6 3f 35 44 ff 78 87 88 da bf
       0.1736538576773199 -0.41458308044554154
000240 e1 54 f6 86 9d dc b8 bf 18 ee 9c a3 9d df da bf
       -0.09711632294632323 -0.4198984239371568
000250 9f de ec 6e e0 94 c4 bf b7 6e a0 33 80 a4 a0 bf
       -0.1607933560969643 -0.03250504141052828
000260 92 d6 39 f0 e8 76 a9 bf 73 be 4d 20 76 f4 d6 bf
       -0.049735335659460436 -0.3586707416024872
000270 d5 3d 3c 04 f5 4a b0 3f c0 f5 d3 28 9e cd a3 bf
       0.0636437545147069 -0.03867811439884461
000280 4c 2a 69 ed de 80 d0 bf c6 40 02 08 81 84 9d bf
       -0.2578656500305996 -0.02882577525503007
000290 dc e4 76 db 2d f6 b1 3f 0e 1e 80 2e 90 24 b3 3f
       0.0701626454164343 0.07477666030182936
0002a0 73 3b 3b 3e 07 e1 e0 bf 7a 23 3d 76 2e ec c4 bf
       -0.5274692740875778 -0.16345768712406167
0002b0 90 24 5b 37 41 1c d0 bf 1d 11 38 fe 1e 18 bd 3f
       -0.25172453313695886 0.11364930826681925
0002c0 88 79 95 60 bd a4 a0 3f 71 70 80 6c d9 f3 ce bf
       0.03250686458590041 -0.24181669042525614
0002d0 c4 de cf ef 2e 67 be bf 0d 80 07 b6 37 f0 ac bf
       -0.11876195292267783 -0.05652021500623059
0002e0 f1 c8 6b d4 b5 e7 85 bf cc 74 e2 df f8 0c ca bf
       -0.010695858521533515 -0.20352087909569716
0002f0 43 5e 5f 7c 44 f4 b5 3f 6f 6c e4 80 d8 d0 c0 3f
       0.08575847660483142 0.1313734654766878
000300 90 5b 6b 84 6a e9 95 bf 24 b0 5f 26 49 01 c1 bf
       -0.02139822419379872 -0.13285173772544667
000310 8c d7 58 92 f4 22 c1 bf db a1 34 b5 c5 2c b3 bf
       -0.13387925287105096 -0.074901921023986
000320 d1 1e 2f 2d b9 dd b7 3f 38 7e 88 3a bb a3 cf bf
       0.09322697976233064 -0.24718418462815506
000330 73 f6 d1 3c 70 ab cb bf 89 d1 5c 18 31 d7 b0 bf
       -0.21616938562140184 -0.06578356594838487
000340 19 ab 4b a1 7d 96 c2 bf 21 52 0d d5 64 78 a5 3f
       -0.14521761298905103 0.041934157378509924
000350 4b 36 88 1f 6e 0c c3 bf 20 5f cc ac 8c 45 b5 3f
       -0.14881683864261883 0.08309249132832663
000360 a9 28 7b ae 1b 23 b0 3f 80 3c d2 89 90 08 af bf
       0.06303570756714073 -0.06061221773517733
000370 33 bf 25 66 59 d7 71 bf 13 b1 27 02 62 c7 b0 bf
       -0.004355763640304921 -0.06554234078038616
000380 b2 34 af a2 c1 20 b8 bf b5 34 43 69 5c 3c b6 bf
       -0.0942498228243547 -0.08685853547941032
000390 6f 35 7a 4f 1b 6a d1 bf aa 49 33 68 da 3b d2 3f
       -0.2721012378832119 0.28490314651312565
0003a0 dd 00 1a 58 d6 5d bb 3f dc a0 f7 aa 50 69 d0 bf
       0.106900593289541 -0.2564279241182825
0003b0 44 18 15 42 f7 d8 c6 bf 7c 30 fb 28 e1 67 b1 bf
       -0.1784962723415352 -0.06799132586019313
0003c0 76 0c fb 24 b7 63 be 3f 15 80 3f 5c 25 48 6a 3f
       0.11870903637741201 0.0032082299894540347
0003d0 39 e3 2e e8 b7 1a a8 3f 6f f8 ec 31 7c 67 b1 bf
       0.04707884511248612 -0.06798530787361455
0003e0 3f 48 75 a8 35 bb c8 bf 1b 2c 1c af 8f 3c c9 3f
       -0.19321318364615256 0.19716068315787613
0003f0 f1 18 2d 69 2e 5c 92 3f 9b 7a 74 ce 30 09 a9 bf
       0.01792976872391078 -0.04889824409678064
000400 f2 fe b4 34 eb 88 85 bf 20 9a 68 15 96 b9 97 3f
       -0.01051505808447881 0.023168892914464334
000410 83 c1 97 a6 33 8c b1 3f 0b 6b 8f df b0 88 ac bf
       0.06854555909354158 -0.05573036889082602
000420 31 9e ee 72 10 4e cc bf e1 d5 73 60 9f 0b b9 bf
       -0.22113233196181306 -0.09783359627530032
000430 e1 02 cc 4b c1 99 c0 bf ad 39 d0 0c d8 36 b1 bf
       -0.12969223214169914 -0.06724310219599401
000440 d0 ae d0 2d 66 f1 a7 bf 96 4f 99 90 40 36 aa 3f
       -0.046763604252502255 0.05119516148684437
000450 6b 2d 89 30 20 b1 bd bf 04 a2 ff c8 3a 2c c9 bf
       -0.11598397431332834 -0.1966622811735449
000460 86 52 b0 d5 48 5d bc bf c5 2e 54 7c 3e 8d a1 bf
       -0.11079840867052768 -0.03428073184667605
000470 ff 18 bc 1e 17 0d d5 bf 84 98 11 35 24 32 d6 bf
       -0.3289239692825418 -0.34681039030545713
000480 d6 ab 21 c1 51 00 b4 3f 86 b5 30 b0 e1 b8 cc 3f
       0.07812987294316484 0.22439213851013678
000490 5e d2 df 6c aa d6 c1 bf 34 a4 0d f5 f5 cf bf bf
       -0.13936357799652205 -0.12426697952982196
0004a0 a3 77 22 6b a7 0f bb bf 9b 96 88 72 1c 48 a2 3f
       -0.10570761075584172 0.03570641420473671
0004b0 dd 29 0e b5 2e 2c c6 bf f2 69 66 e5 9d 3f b0 3f
       -0.17322334137527565 0.06347071505152949
0004c0 29 3e b6 1e 97 66 c1 bf 85 88 28 41 d4 c5 ca bf
       -0.13594330787280853 -0.20916226560172305
0004d0 57 43 bf 97 92 95 c6 bf 21 4c 0f 48 48 90 8a bf
       -0.17643959435965925 -0.012970509242142882
0004e0 0e fb 91 ef bb 82 cd bf 14 37 0e 3a 38 1c c7 3f
       -0.23055218885198098 0.1805486949419267
0004f0 3e e7 ed 32 d3 87 c5 bf 5e 6c 09 bd 1c 12 ca bf
       -0.16820754992277814 -0.20367774229348162
000500 47 60 3a a9 55 bf ad 3f 81 17 a9 0b f9 1c b9 3f
       0.05810039225360746 0.09809834036522426
000510 16 fe 0d 70 29 d2 a8 bf b9 7d f4 e3 e2 cc c6 bf
       -0.0484784077916595 -0.17812763338677742
000520 a4 40 68 4b 69 0f af bf 37 04 5f bf 32 00 b0 bf
       -0.060664453940377144 -0.06250302478930868
000530 95 ad d2 8d 5d fa 93 bf 24 7d 12 25 86 f5 b3 bf
       -0.01950975587958011 -0.07796514897426171
000540 61 1e 45 74 c5 14 d3 bf db c2 ab 15 56 ed c1 bf
       -0.2981427798699539 -0.14005542810584512
000550 ee 02 28 cc 77 4c 98 bf d7 f9 82 fd 15 a5 bd bf
       -0.023729202113829943 -0.11580026091812755
000560 c6 bb 8b 78 9a 60 86 3f 51 2e 8f be a9 78 b4 bf
       0.01092644386650744 -0.07996617224051163
000570 0c c3 d0 3f c4 de c7 bf fc 90 05 87 67 4b 9c bf
       -0.18648579708089874 -0.027631394973824705
000580 ed b3 eb 5d 22 a0 c0 3f 37 a4 08 66 88 71 98 bf
       0.1298869093510854 -0.023870593288084243
000590 e9 01 72 85 19 0b bf 3f b1 d0 80 2b 85 a8 c5 3f
       0.12126311786597167 0.1692053282182591
0005a0 06 ea 62 dd d0 17 9c bf 15 c0 d1 b2 c0 ef c5 bf
       -0.027434600365021232 -0.1713791726247115
0005b0 31 4c 73 2a df c0 bf bf 22 d3 c8 82 45 40 d1 bf
       -0.12403673921953452 -0.26954782268448885
0005c0 9a 0e cd e7 16 71 7b 3f e9 fd 2c 3b 60 51 a0 bf
       0.006699647402289033 -0.031870848868944375
0005d0 3e f9 16 11 b5 df bb 3f d6 0f 7d b7 00 f5 b2 3f
       0.10888225238065716 0.07405094604206339
0005e0 08 71 e9 3a 57 93 c1 bf 03 00 1a c8 b9 b6 be bf
       -0.13730898262554825 -0.11997567305843408
0005f0 9b 30 74 bf 79 64 c5 bf 90 1b c3 1f 5e 3e c3 bf
       -0.16712877128918965 -0.15034081030736646
000600 1d e7 b2 56 88 df b5 3f 6c 47 27 ea 71 26 a0 3f
       0.08544208637877344 0.031543311913664634
000610 90 0a 7b 34 7d 02 b0 3f 9e d0 4e 43 d9 79 c1 bf
       0.06253798037782077 -0.13653102671162726
000620 d5 08 cc 09 1b 41 d4 bf c7 4e de cb 49 2e b7 bf
       -0.3164737315820621 -0.09055005290275196
000630 6b fd 48 d1 7f 9e c5 bf 81 32 5c 7b a9 74 c1 bf
       -0.16889951437949988 -0.1363727428764783
000640 8c b4 31 b6 49 b1 c0 bf 5e da 57 6d 17 b2 86 bf
       -0.13041039844702984 -0.011081870102299603
000650 48 ee 32 ec 69 ac d1 3f 16 cf 10 a5 48 42 b8 bf
       0.2761483008032184 -0.09476141004489266
000660 f5 a5 01 57 36 9b ca bf 3f 2c 2a eb 40 53 af bf
       -0.20786170242654092 -0.06118204947150518
000670 ed 3c 5e a2 76 29 d6 bf 10 1b 71 58 1e 15 b3 3f
       -0.3462807260156769 0.07454099330162145
000680 eb 64 4e d1 a3 d0 cb 3f 31 dc ef e0 c6 55 b3 3f
       0.21730468483000406 0.07552760116219372
000690 3f 95 cd c8 2a e9 cc bf 76 63 f0 1c c3 17 a9 3f
       -0.22586569599949688 0.049009415896029404
0006a0 7b a4 f6 46 b0 35 c2 3f ef 46 02 17 65 8b 5e bf
       0.14226344552051615 -0.0018642890172810252
0006b0 0f 36 f5 b5 62 56 c5 bf 34 8c 86 b5 c5 94 52 3f
       -0.1666987789598555 0.001134102893140432
0006c0 95 be 6b 9e 48 ac b5 3f b3 42 a0 66 35 0c b0 bf
       0.08466009013840854 -0.06268628840940486
0006d0 5e 5b bc a8 68 a3 c6 bf 6e 42 7a ed ff f8 be bf
       -0.17686184157420376 -0.12098693416397463
0006e0 61 09 79 ed 90 bf bb bf c1 6b 8e 11 d3 61 c4 3f
       -0.10839181707072988 0.15923536641352423
0006f0 bf f6 37 96 c9 08 cf bf fa d6 39 f0 11 32 d4 bf
       -0.24245567164319046 -0.3155560346561824
000700 2c 1c 35 2e 4f df c5 bf 99 a0 6b c6 17 a8 c5 3f
       -0.17087735897277534 0.16919228733536754
000710 2e 08 ff 0e 49 f5 a0 3f 57 dc 35 a2 62 68 af bf
       0.03312137897548016 -0.06134327154261914
000720 89 09 2a e9 cf dd a3 bf d7 cc 97 a6 87 af b4 3f
       -0.038801667416026815 0.08080337350093046
000730 50 26 bd 15 45 62 a4 bf 6e 8e 89 e9 9f 2d d6 bf
       -0.039812239555044315 -0.3465347080839142
000740 2c d6 de 33 02 d9 d5 bf 2d 06 26 f2 d8 79 af bf
       -0.34137015405153437 -0.061476497229716244
000750 96 e2 f3 d5 69 3a a5 3f b7 de f2 c6 90 92 bf 3f
       0.04146128403403286 0.12333016259332906
000760 74 be f8 81 29 a9 ac bf f9 bf aa 6d b2 44 c8 bf
       -0.05597810470169132 -0.1895964656337126
000770 47 eb 1e 0d 89 96 ca 3f a8 ce 1d cf b2 39 cd bf
       0.20771897450125662 -0.22832331765277059
000780 2f 4f 3b d5 b2 4c b0 3f d4 d8 f2 99 11 f2 b0 3f
       0.06367032724238862 0.0661936760760427
000790 69 52 69 e9 60 8c b5 bf fa 7c 6c 4d fd 9c aa bf
       -0.08417325685997813 -0.051978984547753584
0007a0 12 f7 93 2a f0 13 c1 bf b8 a0 8f be 97 08 b3 3f
       -0.13342096404078824 0.07434986498231211
0007b0 b1 00 76 f7 98 be 82 bf 70 95 cd 3d 4c 3f 32 bf
       -0.009152598430546584 -0.0002784310470843243
0007c0 94 76 63 b3 b6 a0 a0 3f da 79 64 30 24 84 a6 bf
       0.03247614803124779 -0.04397690859535759
0007d0 f0 99 51 4c d0 f3 bd 3f 2e 6b e7 2f 9a ae b2 3f
       0.11700155127764567 0.07297671956568472
0007e0 c3 e0 53 94 5b 57 ba bf 51 f0 ac ff 29 7f c5 bf
       -0.1028954732063339 -0.16794323906094857
0007f0 39 02 d3 49 0a ee 81 bf 35 10 3b 6c 6b f5 b4 3f
       -0.008754806878983877 0.08186980621673075

layer2.bias f8 [80]
000000 73 19 fc 39 a0 2e cd bf b7 ef ed 7c 4f 20 cd bf
       -0.22798540908133766 -0.2275485382086779
000010 3c e9 9f 63 f4 46 c0 bf c4 32 b8 9f 2e 3a c5 bf
       -0.12716536392674438 -0.16583807753376878
000020 00 73 50 ce 4a 65 bd bf eb 3a 7c 0f cd aa d3 bf
       -0.11482684647530661 -0.3072998667930011
000030 dd 66 34 67 3e f5 d2 bf 1b ec 31 66 04 4d c0 bf
       -0.29621849135001616 -0.12735037794104262
000040 25 94 50 5c 88 24 c7 bf fc 9f 34 06 f1 55 b8 bf
       -0.18080238826328912 -0.09506136323454933
000050 1c 1b 88 26 62 f8 bb 3f f2 31 66 6e 8d f8 b1 bf
       0.10925877991404004 -0.07019885964673003
000060 0b fe 90 6c 1f eb c1 bf 5a 03 6b 99 d9 f8 6d bf
       -0.13998787690250966 -0.003658699987994768
000070 33 a3 0c 1b a3 cb cb bf f5 04 bc 34 94 ce 99 bf
       -0.217152012069414 -0.02520209857812446
000080 02 14 31 6a 52 b3 b7 bf e0 a7 93 97 e5 d8 a4 bf
       -0.09257998554774363 -0.040717291596436445
000090 70 cf 11 5b 27 6f c8 bf d8 75 00 74 2e 84 8e bf
       -0.19089214274174138 -0.014900553622335375
0000a0 92 ac d8 f7 a8 3e bc bf b0 9f 82 cc 02 66 d0 bf
       -0.1103311162084302 -0.25622625323966997
0000b0 f9 eb 3b 3e 63 38 88 bf f1 e6 07 4a fc 61 b4 3f
       -0.0118263009421664 0.07962014014620046
0000c0 73 19 60 04 27 4b 9f 3f b2 9a 14 7a 9c 91 59 3f
       0.030560121194889555 0.0015605953306675855
0000d0 d6 b6 73 78 22 b6 c0 bf 93 9c cc a2 d9 17 ac bf
       -0.1305583084244321 -0.05486946213050561
0000e0 9f 4d 78 bd df ff 9a 3f f6 2a c4 3e d1 37 c8 bf
       0.026366706790282298 -0.1892034107662181
0000f0 c1 79 90 f6 d7 cb b8 bf 16 1f d2 29 07 21 c2 bf
       -0.09686040658605234 -0.1416329340174733
000100 e1 61 7e 58 c3 28 c1 bf 8d 03 84 d8 de d3 b8 bf
       -0.13405649014454382 -0.09698288713481258
000110 e9 87 80 a6 b3 9d c5 bf cf 66 08 6c 62 11 ab bf
       -0.16887517576202463 -0.052867007911300605
000120 5c 61 0b 23 b3 e5 7d bf 42 69 52 b5 90 39 83 bf
       -0.007299136880384385 -0.009387140782838647
000130 39 cc 11 7e 2b 94 b3 3f 90 9c a7 3b 19 f5 ce bf
       0.0764796431338234 -0.2418548146517634
000140 29 0b 3e 5f 1a 45 c5 bf ee ea b9 5e 2d f7 c5 bf
       -0.16617135668283226 -0.1716057503252481
000150 c7 94 26 63 59 e5 c7 bf 3e 74 c6 2e 7b 94 aa bf
       -0.1866866811880412 -0.051914071521629954
000160 c5 36 d0 75 bc 37 b4 bf 2f 17 65 51 ac 99 9a bf
       -0.07897546650221006 -0.025976841419171833
000170 8a 1a 69 59 ea 30 bf bf ef 4d 71 2e 31 e3 bd bf
       -0.12184014017939596 -0.11674792655804088
000180 d6 c8 87 ad 30 0c d3 bf 28 4f e4 13 00 fa cd bf
       -0.2976190275795835 -0.23419190379410648
000190 b4 f0 ce 32 84 69 75 bf 38 55 17 d7 e5 d2 a8 bf
       -0.005227581405901006 -0.04848402262329404
0001a0 ca 12 e2 ff 14 84 82 bf 53 11 d1 b2 15 80 c5 bf
       -0.009040988978321524 -0.1679713366630816
0001b0 a2 97 9b e1 93 9e c9 bf 6d ed 4e 90 ee a3 bb bf
       -0.20015190616612438 -0.10797015212204082
0001c0 a0 ab e9 96 cc 6a c8 bf 19 01 08 73 21 35 b1 bf
       -0.19075925225055546 -0.06721695955639397
0001d0 5b 73 27 60 ca 77 b8 3f a6 54 85 92 b4 1c c7 bf
       0.09557785842430404 -0.18056351808869414
0001e0 81 67 21 1b fe fd b4 bf 07 11 42 22 a8 ce 9b 3f
       -0.08200061952939387 0.027155520525881573
0001f0 30 ea a2 13 d0 cc c9 bf 4c df 34 8a fc 90 a5 bf
       -0.2015628906136313 -0.04212178408709963
000200 e2 70 69 51 2a 4e 90 bf f8 c7 1d 48 14 c8 b3 bf
       -0.01592317697428392 -0.07727171669628763
000210 42 06 37 98 46 ae cc bf 7c 55 42 11 13 04 b7 bf
       -0.2240684741246231 -0.08990592166295203
000220 cd a3 35 fa 99 11 cf bf 16 b6 51 95 c9 f6 b0 bf
       -0.2427246543623184 -0.06626567740905673
000230 8a 51 99 89 7d 07 ca bf fa a6 d3 9f 50 3d c2 bf
       -0.20335358828254996 -0.14249618343392695
000240 87 f9 c9 d6 8f ff a1 bf b8 1f 26 6d 54 a9 94 bf
       -0.03515290734229653 -0.02017719188873432
000250 e1 bd ca 9c c2 fb ca bf c2 f6 01 69 f4 9a b8 3f
       -0.2108081117234937 0.09611442149795393
000260 ac 3a a1 7b 9b ca c4 bf 92 b8 20 41 82 0a b0 bf
       -0.1624330857907429 -0.0626603516581972
000270 38 3a ba ba e4 7f c7 bf 03 34 80 21 07 19 c8 bf
       -0.18359049909163772 -0.18826378951817455

layer3.weight f8 [80, 80]
000000 a0 07 94 a6 c1 b9 cd 3f d6 5e 7b af 5d 1b ac 3f
       0.2322313369150466 0.05489628569710951
000010 38 e8 40 61 5b 41 d0 bf 79 5d 5d b8 53 0c d0 3f
       -0.25398907182136865 0.2507523823200795
000020 0b 8e ff c0 87 e3 9c 3f a8 64 7f f1 8e 55 82 3f
       0.028211709170035387 0.008952252144739895
000030 c9 3e c2 77 51 c8 9e 3f a0 68 15 2b ea 22 b1 3f
       0.030061028418059608 0.06693900634619121
000040 f6 e8 2b 6e bd e5 b9 bf 82 95 7f 28 65 fa c7 bf
       -0.10116180362448177 -0.1873289535280201
000050 78 35 43 3d 8e a3 c4 3f bf b0 29 f0 de b9 d1 bf
       0.16124132148108195 -0.2769696564998973
000060 04 4e 5a 71 dd ef b4 3f b8 27 4a 4c 9a 48 97 bf
       0.08178504960442728 -0.02273789492259201
000070 86 7f ac 72 b1 17 c5 bf c7 70 24 6e fa 8c d4 3f
       -0.16478555774028453 0.3211046290978285
000080 a5 44 b2 2a 4f 12 ac 3f 17 9b 3e ee 6e 70 a7 bf
       0.05482718845554161 -0.04577967317827907
000090 26 5e 2c e0 7f 3a da bf 50 31 83 02 29 68 c7 3f
       -0.4098205269997116 0.18286621687583215
0000a0 0d 73 9a 06 58 6d aa bf e8 de 5c 05 94 08 9e 3f
       -0.05161547737700376 0.029329598262136353
0000b0 fc b9 82 2b 84 38 c4 3f e3 ec d8 ec df 4c c4 bf
       0.15797474026244618 -0.15859602989971852
0000c0 33 cc 54 10 54 74 af 3f 0d b5 bd 3d 10 66 c6 bf
       0.061434390061912224 -0.17498972906779678
0000d0 1a db 73 d3 2d 1f ab bf 00 11 28 89 86 94 94 bf
       -0.05297225195129425 -0.020097829934472067
0000e0 17 08 cf dc 18 1b c0 bf dd 33 3c 90 ad c8 aa 3f
       -0.12582693845439571 0.05231230149920638
0000f0 09 0b 4c 77 35 38 92 3f 4b 82 1f 38 ec e9 c0 3f
       0.017792544752420123 0.13213875522980553
000100 30 d7 a2 6e 23 45 a8 bf 8e 99 b6 25 b1 4d 4a bf
       -0.04740248418367654 -0.0008027186371933213
000110 54 1f 7b c5 35 b8 b9 bf 74 cf 5f b6 d1 b6 aa bf
       -0.10046707221328904 -0.05217604972122461
000120 1f c3 ca 52 2a d2 ca 3f 07 a8 35 49 73 fc 86 3f
       0.20953873674945897 0.011223698302917041
000130 e5 c8 76 71 d9 b1 a0 3f f1 fc 49 97 d1 ed c1 bf
       0.032606883144937794 -0.14007015120657898
000140 20 44 0f 4f 51 1a 95 3f e8 07 75 9a 91 92 b9 bf
       0.020608206224839276 -0.09989271183897552
000150 52 0e 5c a7 20 1d ad bf 59 d0 a5 6d d1 57 91 bf
       -0.056862850598943596 -0.016936561887135635
000160 14 e5 fc 97 29 90 c3 bf e6 3a d6 0a d7 21 dc 3f
       -0.152836989605739 0.43956543024334704
000170 c8 8c 02 3a 1c db 99 bf 8f 33 15 5e 70 41 a4 bf
       -0.025249901810309422 -0.039561759457320204
000180 23 82 94 0b cc ee ce 3f 7b d0 a9 f9 be 06 a6 bf
       0.24166250768122763 -0.043020217873078935
000190 fd 75 89 b9 92 47 cb 3f 3a ed 73 93 4d cd c0 3f
       0.21312173900052747 0.13126535129399902
0001a0 2b 89 8e 83 20 b6 c3 3f df bd 61 c1 0d e1 b1 3f
       0.1539955751769154 0.06984029742465435
0001b0 f3 e9 a1 b6 9d 4c a0 bf 53 fe a4 93 39 b8 c8 3f
       -0.03183453421020834 0.19312209805683497
0001c0 d8 a9 db dd 2e 23 d2 3f 15 0b df 33 77 ad a0 3f
       0.28339740434480865 0.032573437768880144
0001d0 4b c9 b7 c7 e2 d0 b2 3f 07 c4 35 d9 5c 6a cb bf
       0.07349984527516999 -0.21418343168218731
0001e0 ab de cf 1b 6e df cb 3f d5 13 c5 c3 17 6e be bf
       0.2177560458946933 -0.11886738328492126
0001f0 8c e8 e5 64 57 bd c8 bf 3f 29 fd b6 65 23 c3 3f
       -0.19327824045814557 0.1495177405834713
000200 8c e0 76 a1 77 24 ab 3f ea c1 b9 1e 61 51 8e bf
       0.05301259847641501 -0.014803656339808808
000210 77 c5 63 93 2c f8 aa bf 42 c7 ce 0f ec 76 93 3f
       -0.05267466830435812 0.019008339371516365
000220 f2 6e 15 3b 32 2e c8 bf 02 be 4c cd 30 72 d0 bf
       -0.18890979657123058 -0.25696964310461123
000230 c9 06 32 5c 8b 01 af bf 60 5f a3 22 a9 5a 34 3f
       -0.06055865765030217 0.00031057957916179844
000240 b9 cc 05 08 17 0c b1 bf 36 08 f1 fc 71 52 c8 3f
       -0.06659072824349978 0.19001602984104843
000250 93 10 8d 8f c9 a2 cc 3f 75 55 99 01 42 fc 66 3f
       0.22371787556960906 0.0028058327850810035
000260 27 96 bf fe 5a 5f c4 3f c3 d3 1d 72 45 5a ca 3f
       0.15916001738439542 0.2058798606118711
000270 6b 1c 62 29 bc 97 89 bf 45 49 20 85 fa 14 c0 3f
       -0.012496442807117888 0.12564021587656718
000280 4b 9f 0d 86 63 a0 b8 3f 6b 85 b5 3c 12 86 bd 3f
       0.09619733832152837 0.11532701475291211
000290 c3 1c 15 f9 be ea ca 3f 63 73 a3 fe 33 ac 91 3f
       0.21028887903432833 0.01725846521081865
0002a0 16 62 ba 03 6a b4 ce 3f 78 b8 6f f5 d3 1f ac bf
       0.23988080198320522 -0.05493032809305104
0002b0 6f 22 d7 6c 93 ff a2 bf b1 3b c7 8d b5 7f a3 3f
       -0.037106139217546345 0.038083718830982057
0002c0 62 d7 aa b1 5d 7a d4 bf b6 a1 39 72 d7 45 8a 3f
       -0.3199686274559693 0.012828524754881037
0002d0 ea ae 5b 17 ac 1a 95 bf e6 f2 d1 41 da 78 a4 bf
       -0.020609558988254152 -0.03998453191250011
0002e0 5d d9 02 ff 58 fb b4 3f 87 9d 5d 59 3f 9e 9b bf
       0.08196026063783309 -0.026970853642891448
0002f0 94 5d c4 80 d6 61 be 3f 27 62 da 18 40 bc 98 3f
       0.11868038791396024 0.024155618206892406
000300 f6 88 9d 4d bb a6 c6 bf b9 2d ea a0 04 95 bc bf
       -0.17696324624836962 -0.11164883545477879
000310 be 51 1f 23 c6 eb c9 3f 0f 14 7c 0b 65 e9 ce bf
       0.2025077506538206 -0.241497641189341
000320 96 a3 c3 7c 97 fd 99 3f 65 37 6b 8b 4c 98 a4 bf
       0.02538143824577651 -0.040224449175737566
000330 e7 5d 17 e1 06 d7 cd bf 60 b4 fe 1e 49 1c aa 3f
       -0.23312459936890592 0.050997052224695194
000340 a6 2c 02 db 67 8c c1 3f 15 dc 71 f7 a6 d6 96 3f
       0.13709734147810088 0.022303208210782872
000350 81 2e e7 d8 00 54 9c bf 4a c8 99 7e 9e a9 c0 bf
       -0.02766419719573188 -0.13017636472392474
000360 0d 8a a6 87 7f ed c0 bf ea 44 d0 60 c7 be 96 3f
       -0.1322478687626049 0.022212138446836706
000370 7c 98 b1 2f c2 c6 bb 3f 1f 9e 94 6a c7 ca b4 3f
       0.10850156464002397 0.0812191615301505
000380 7d c8 99 e0 73 6d bb bf ef 65 ea 8c e6 c7 c7 bf
       -0.10713886483589082 -0.1857879818024197
000390 73 2f 06 26 d4 bd ae 3f 60 12 cf 82 c2 d1 c6 bf
       0.06004202808534744 -0.17827636134292657
0003a0 46 e8 a1 9e 6f d5 aa bf 5a 56 c9 39 32 e6 cd bf
       -0.05240963756018906 -0.23358753034215135
0003b0 3b 11 ed ab f8 6b d2 bf b1 3d 54 7a eb f3 c5 3f
       -0.2878400496449733 0.17150634263132994
0003c0 13 83 a2 29 dd bb b3 3f 70 b7 e7 3b 35 62 d1 3f
       0.07708532587504306 0.2716191372882042
0003d0 52 59 9d ad 3e d5 bc bf 73 98 df 28 10 06 c7 bf
       -0.11262885798109792 -0.17987253185055216
0003e0 c0 75 e3 fa 5a 0a ba bf bf 58 64 9b 9b 3d ab bf
       -0.10172051072318933 -0.053204405516383606
0003f0 27 5b 3b e8 80 fd b2 bf c5 4a b5 c9 45 88 99 3f
       -0.0741806570980371 0.024933901249208263
000400 0a 29 1c 74 25 c9 d0 bf 05 f5 35 78 5c a3 d3 bf
       -0.262276996029542 -0.3068457769330311
000410 fd 8d 09 d9 2a 90 bd bf e4 22 b3 aa c9 dd 75 bf
       -0.11548106955302014 -0.00533846641628408
000420 fd ae 72 24 7e 60 bd 3f f1 ca d9 16 2f fe af 3f
       0.11475361242144895 0.06248614458026747
000430 49 bf b0 c1 08 3e c4 bf b4 7b 70 b7 45 de 9b bf
       -0.15814313371219615 -0.027215089150668795
000440 e9 df fb 9a cc 65 cb bf 04 c3 b8 59 9b 0a b2 bf
       -0.21404416625568892 -0.07047434750053233
000450 c1 ae e9 a7 98 b1 c2 3f 7d c4 1b bc 96 a3 c5 3f
       0.14604480933063793 0.16905483422263848
000460 42 5b 48 1b 2a 97 bb bf 20 53 fd 20 5e 1c b9 3f
       -0.10777533689575328 0.09808910661133696
000470 b7 ba 55 78 6f e1 c1 3f 26 f0 2a 42 c2 7a c4 3f
       0.1396922433445604 0.15999630194517173
000480 f1 26 b2 90 d6 21 c8 3f fd f8 41 46 05 06 8b bf
       0.18853265824537105 -0.013195077139468209
000490 ee 1b af 05 94 43 a6 3f f0 49 e9 f2 ea 7f 7a 3f
       0.04348433083901414 0.006469648140937853
0004a0 2b bf f5 f7 e7 f3 ad 3f 6e 99 ce be 9c 40 b3 3f
       0.05850148107390248 0.07520465525030826
0004b0 31 fb db 36 c3 80 aa bf cf e7 f5 ec 23 be b2 3f
       -0.051763630339328855 0.07321381125612379
0004c0 ec 5c f2 07 e9 7b c3 bf 87 8d 5f 95 74 f4 c0 bf
       -0.15221894157432503 -0.1324601868974293
0004d0 bd 3c 5c 92 10 93 b0 3f 23 0f a5 38 11 5c 72 bf
       0.06474402974366718 -0.004482333441334227
0004e0 79 da 5c cf 86 20 b5 3f 04 97 38 de b3 41 3a 3f
       0.08252756655279282 0.00040064469632948596
0004f0 bd d4 40 cb f4 8a bf bf 5a 5f 61 a2 4d 79 c9 bf
       -0.12321405374753432 -0.19901438168266844
000500 00 8e c8 79 e4 ea d0 bf d2 0d fb 74 f1 39 c4 3f
       -0.2643366994181804 0.1580182858652806
000510 7d 25 d7 0f eb a1 de bf b8 31 2d 84 6b 8d a1 bf
       -0.47863270327487567 -0.034282073864776164
000520 f1 09 dd fc 1a 0f b5 bf c2 08 ff 61 5c 75 ac bf
       -0.08226174043105751 -0.05558289238207827
000530 26 f6 40 8f ad 74 a4 bf 45 2a c1 dc 30 c7 a3 3f
       -0.03995268224433017 0.038629080722405486
000540 04 a9 a3 32 33 ef 95 3f c6 ef 24 0d 3a c0 b6 bf
       0.021420288053300332 -0.088870647629789
000550 f4 eb 29 f5 db 28 d7 bf 48 0f 2b 3c 49 e5 d1 3f
       -0.36186884824536425 0.27961951137352914
000560 d2 9c 50 24 f2 02 82 bf a6 62 38 ea f8 df b3 3f
       -0.008794681294672566 0.07763629644649458
000570 ca ee a3 40 d6 69 ad bf 34 40 c5 89 8b 69 bf bf
       -0.057448096647900806 -0.12270423997438301
000580 bd 14 a4 eb 21 b8 ba 3f ef 6a ff 62 33 c0 ba 3f
       0.10437213900520965 0.10449525038658768
000590 b4 a3 8d 91 26 32 68 3f 68 d8 6b b1 38 d3 a8 3f
       0.002953601197465317 0.048486491830701806
0005a0 ac 12 26 57 72 e7 c2 bf 13 ad 0d ec 83 94 a1 3f
       -0.14768819098767005 0.034336206975092896
0005b0 a9 4b 36 27 f3 4f c5 3f b9 3c 86 7c 77 ad c1 bf
       0.16650237478878907 -0.1381062849072572
0005c0 1d bc f9 6f 28 02 a2 bf 3a e2 a5 38 91 60 61 3f
       -0.03517271391762498 0.002121242175402463
0005d0 72 cf 67 43 3d 4b c6 3f 51 81 2d 91 1a ad a4 bf
       0.17417112151417374 -0.04038317701520334
0005e0 4b 7e ea 27 12 14 db bf e2 10 4c df 79 b7 ac bf
       -0.423100031834086 -0.05608731127543522
0005f0 ad ab bc a3 74 a1 ab 3f 52 e1 bb 1c 8c 19 c9 3f
       0.05396618365042314 0.19609214213393017
000600 40 ea 01 78 96 b8 56 3f 18 5b f7 3b 8a ac cb 3f
       0.001386782591025551 0.2162030022434116
000610 20 9d 85 c9 31 39 c8 3f 1e 2f 51 23 95 61 d1 bf
       0.18924543704927377 -0.2715809674161721
000620 36 cc b3 df 54 da d4 3f 30 2c 3d ef 3f 24 c5 3f
       0.3258258995621789 0.1651687544020617
000630 a3 c9 39 ae 29 43 99 bf 4d 3a 26 d6 56 8f b3 bf
       -0.02467026830567821 -0.07640593269591385
000640 f5 bc ee af 95 aa bb bf 66 a3 f6 71 e5 82 c4 bf
       -0.10807166619519022 -0.160244637151915
000650 74 5b 49 30 32 54 c4 bf 66 2b 03 6d aa 67 cf bf
       -0.15881945951215537 -0.24535112688894428
000660 b3 20 f3 64 a8 97 95 3f 50 10 03 44 df 03 ae 3f
       0.02108634105823688 0.05862329201912131
000670 5b c5 57 4e 4a ac dc bf cc 58 82 08 8f d5 b9 bf
       -0.4480157628123231 -0.10091489751571031
000680 f9 e9 72 d6 4c c0 d5 bf 8e 07 2e 30 37 79 c7 3f
       -0.3398620695330972 0.18338670589951928
000690 4e de 22 9d ce f6 d0 bf 74 4f e2 ae 1a 73 d4 bf
       -0.26506390900928956 -0.31952540472524693
0006a0 8d 05 d2 d2 f5 6a c6 3f b6 1c 30 62 c6 2a cc bf
       0.1751391677280875 -0.2200553874429027
0006b0 3b ef 7e e6 8e 99 d0 3f a6 92 50 0c 2f b3 a3 bf
       0.2593724490104596 -0.03847643876387012
0006c0 a5 ab 07 63 c9 2c bd bf 44 8d 5b a7 46 c5 a7 bf
       -0.11396464030955984 -0.04642697136821508
0006d0 5e 1d 34 37 88 38 b9 bf 06 17 4f 6a ff 5b 53 bf
       -0.09851886127227291 -0.0011816019334544583
0006e0 42 99 17 c7 71 99 53 3f 74 98 42 4e 8d bc c5 bf
       0.0011962519750966104 -0.16981664964004362
0006f0 e2 2f 39 af 78 47 88 bf e7 10 91 b1 cf ce a5 3f
       -0.011855070922273062 0.04259347002565211
000700 1d 18 25 c3 20 56 9d 3f 9f 50 0b 8f d1 f5 bb 3f
       0.028648864660930074 0.10921964399614346
000710 77 51 b7 56 cc 5b af bf 62 5a b0 ad aa 5b c4 bf
       -0.06124723967119199 -0.15904744606878568
000720 62 5a bd 38 9d 39 db bf df 87 c9 67 65 d8 cf bf
       -0.42539148846609554 -0.24879138534293951
000730 61 b7 28 fc 4a 25 a3 3f 22 72 68 62 37 91 9f 3f
       0.03739389732468968 0.03082739389548029
000740 cd 9a fe 54 37 71 c9 bf 77 20 e6 96 8c 39 c3 3f
       -0.19876758241772166 0.15019376152145344
000750 9a 80 18 4a 44 73 98 3f ad ac b3 3e f8 c3 a8 3f
       0.023877207777446154 0.04837013020900236
000760 18 f1 6e 6b f1 7d d2 3f c6 b8 76 31 eb f1 d7 3f
       0.2889369534639328 0.3741405470890523
000770 4a 64 0f 54 75 b6 af 3f de 26 62 86 9a bf ac bf
       0.06193892146229325 -0.05614931955740386
000780 8d 8d 8b 20 2e 75 d0 bf 53 d5 6a 7b 9b 92 be bf
       -0.25715211084590167 -0.11942455065839867
000790 ea 8f f5 ec 2e 08 cc bf 44 7f b1 2d 41 90 c7 bf
       -0.21899973459505812 -0.18408980113144413
0007a0 df 98 2e e0 9b 79 ce bf 16 73 29 fc 33 f0 b5 bf
       -0.23808620878589346 -0.0856964579229039
0007b0 19 6f 97 42 9b 8a a0 bf 9f 47 5d 96 f9 fd b1 bf
       -0.03230748355755803 -0.07028160019879558
0007c0 22 3d c0 f2 7e 0a 9b bf 91 8b d7 53 40 63 ce bf
       -0.02640722614893066 -0.2374039086708675
0007d0 8c 1f c2 2e 53 33 b9 bf 04 ae 92 e7 fd 67 a9 bf
       -0.09843940631446751 -0.049621519582924406
0007e0 e6 54 b7 0e c1 f5 be bf 54 12 a8 d4 1a 28 cc bf
       -0.12093741044312231 -0.21997390159244168
0007f0 46 25 cc e2 5e 18 d7 bf 8e d0 01 b4 73 fb c6 bf
       -0.3608624663180148 -0.17954870500000591
