attack_soft_generative_decision_tree/experiments/authent_params_state_dict/fnn_adt_epoch38.pth (torch, 111087 bytes, 8 tensors)

layer1.weight f8 [80, 4]
000000 ea c8 53 80 52 92 cc 3f 4c 11 50 83 25 fe da 3f
       0.22321540132504164 0.42176187346946814
000010 00 8d 67 16 a8 59 d3 3f fe 3e 01 db d4 f0 c1 3f
       0.30234720409335125 0.14016209310147326
000020 f8 36 24 e3 df f2 bc 3f 07 72 8a fe 36 54 b0 bf
       0.11308097167440312 -0.06378501619696673
000030 73 2b 97 47 7d ca bb 3f 9e 4d d7 ee fd 44 cd 3f
       0.10855849263968569 0.22866796648177695
000040 89 63 75 ab 49 c8 8c 3f 69 ee 34 01 36 7a c3 bf
       0.014053893609046646 -0.15216708239482848
000050 a5 fa b1 cb d5 02 c0 bf c2 7e 0f 07 cb 29 95 bf
       -0.1250865215879077 -0.02066724043458979
000060 57 7d f7 55 ae b8 d5 3f f9 ea bb 85 14 12 b4 3f
       0.33939703364554447 0.07840088143340641
000070 c4 37 4a d6 e3 f0 c1 3f e7 f5 2b 7c 72 db b5 bf
       0.14016387904524497 -0.0853797486451736
000080 2a 6c 5f 55 cd 75 c5 3f be 2b 96 7c 3e c1 c7 bf
       0.16765753429976488 -0.185584841569236
000090 b7 60 4c f0 5d ba de bf a5 03 78 8c 42 76 6c 3f
       -0.48012493578563514 0.0034743594912928937
0000a0 ff 27 a9 7f be 4c d1 3f 6a ba 9a be f2 88 e7 3f
       0.27030909029838307 0.7354673121206592
0000b0 6c b6 61 2a 2a 20 cb 3f 47 1b 4e f0 bc 9c b3 3f
       0.21191908902567336 0.07661038271735975
0000c0 f8 fb 5f 5f 3b 94 d4 3f 17 cc a6 1f 95 91 df 3f
       0.32154735864600026 0.4932606515023407
0000d0 d2 74 4a f4 88 e1 db 3f da 96 a1 01 36 97 73 bf
       0.43564056259658657 -0.004782877886190662
0000e0 06 df cc 71 fd 14 b5 3f 82 e9 9f d3 5d c6 d7 bf
       0.08235153225257016 -0.37148233095617667
0000f0 2e 47 97 60 91 e0 de bf 8b 83 83 c5 86 7e 99 bf
       -0.4824565356512832 -0.02489672260788071
000100 af b0 49 af cb 61 e0 bf c1 9d c4 5c 11 71 c8 bf
       -0.5119379447546829 -0.19095055608452863
000110 44 49 bb db 56 78 9b 3f b9 26 67 ff 42 47 af bf
       0.02682624546179936 -0.061090558697811166
000120 77 af 2f 48 91 d3 dd bf b3 64 b6 75 d3 12 d9 bf
       -0.4660380558914236 -0.3917740487609748
000130 0b 4f 87 c6 41 72 da bf d1 52 0e c1 f1 00 7c bf
       -0.4132236899142618 -0.006836838104295765
000140 03 f9 03 7b d7 fe d1 bf 1f a1 3c 5c 0a c5 de bf
       -0.2811793042491361 -0.4807763958692863
000150 0c bd 41 3f c3 dd d1 bf 58 e7 ec 42 48 16 dc 3f
       -0.27916032006665215 0.43886000190433583
000160 c7 b3 8d 09 e8 33 e2 3f d7 3a d0 8b 05 52 c2 bf
       0.5688362299530291 -0.14312810255838457
000170 9a 28 ea 39 26 75 c9 3f ae 26 49 cc 74 18 c3 3f
       0.19888761356225332 0.14918384528055156
000180 05 a3 db 71 ce c1 d7 bf 45 30 3f f6 dc 6a d8 bf
       -0.37120400542202986 -0.3815224079851343
000190 bf 48 18 1d 5a 24 dc bf 74 fa 79 71 88 28 b1 bf
       -0.4397187503938191 -0.06702473421499083
0001a0 5a a6 fd c2 21 fa e3 bf e9 aa 27 6e 39 34 cc bf
       -0.6242836769499249 -0.22034376028690097
0001b0 a9 8e e3 b0 7b 27 c3 bf cb 9c 21 ee a2 dc ca 3f
       -0.14964243065980057 0.20985828998093434
0001c0 56 6f 8b 39 d6 51 d1 3f 1b 2e 3b 4b f2 51 c3 bf
       0.2706199228248257 -0.1509383075084408
0001d0 1b 73 98 5e 1c c5 dc bf 4c a8 c7 af 44 6a a8 bf
       -0.4495306896003954 -0.04768576284170986
0001e0 83 27 6b 18 ad 22 e2 bf b5 7b e9 11 40 1b dc bf
       -0.5667329289365032 -0.4391632246897033
0001f0 7d 7a 43 ff 66 a5 d0 bf 61 ae 50 ae af 16 ad 3f
       -0.26009535720906013 0.05681370737906089
000200 42 4b a5 f9 14 e8 da 3f eb 16 76 0b 37 54 ad 3f
       0.4204151571222391 0.05728313460262576
000210 74 63 87 18 79 b7 d0 3f 32 d3 85 96 16 86 b4 3f
       0.26119830508610353 0.08017102408286972
000220 a4 43 f7 48 53 9d d5 3f 00 bf 9e d4 48 60 a8 3f
       0.3377273762280828 0.04760959239444951
000230 49 57 49 cc a3 b0 cc 3f 46 cc 6a 4d 7c 1b ce 3f
       0.2241406199925058 0.23521379261146275
000240 5d 46 3f 4d a8 cb d5 3f af e2 a8 44 02 c7 e0 3f
       0.3405552629820699 0.5242930737504902
000250 e7 68 e2 f7 28 cb d1 3f 92 d1 62 90 00 83 bb 3f
       0.27802490432226395 0.10746768498467521
000260 f1 93 88 06 f0 b3 d7 3f a6 15 29 2b 6f 7d d8 3f
       0.3703575195125373 0.38265589918986576
000270 e9 f3 3e b5 34 f7 cc 3f 81 27 86 f9 d2 6e c4 3f
       0.22629412507913507 0.15963208373824148
000280 40 b6 40 2a 01 23 ca 3f a8 21 9f fa 8d ed b2 bf
       0.2041932541191489 -0.07393729561511597
000290 52 c5 cd e7 05 e6 d1 bf e5 e6 30 cb d1 6a 73 bf
       -0.2796644939145 -0.004740542895029985
0002a0 e5 47 3d 05 20 6a c6 3f da 39 d3 c2 23 de d7 3f
       0.17511368041829126 0.3729333307827837
0002b0 c9 77 31 f7 f1 06 d0 3f 14 5c b5 ab 5e 3e d3 3f
       0.2504239000317026 0.3006817509498785
0002c0 bd 93 7e 32 ea d8 e2 bf 53 16 32 5c 0f c0 d2 bf
       -0.5889788614482466 -0.2929724121425796
0002d0 d3 4e 27 40 11 3a c9 bf a5 a5 d7 86 10 c5 85 3f
       -0.19708457596299542 0.010629777064383126
0002e0 39 61 7f f0 89 37 d6 3f 48 57 fe 6b 08 92 bb 3f
       0.34713982091990975 0.10769703518448381
0002f0 5a 7a e4 1c 44 2d 8c bf 90 17 35 5d 23 f7 cb bf
       -0.01375821316883934 -0.21847955752508286
000300 91 55 9a 83 de 03 d2 3f 43 c8 41 d6 8b 63 b8 bf
       0.28148615695803253 -0.09526895504839765
000310 94 53 19 3b 70 19 d3 3f 08 0e fe 3e 8c 78 93 3f
       0.29842763682727846 0.01901454100108249
000320 e3 c5 c6 cb d4 60 e0 bf 62 9f a4 2b ba e9 ca bf
       -0.5118202190407682 -0.21025778895386354
000330 fb 7f 4c ec c4 a7 b3 bf 75 c1 fe 21 35 a2 b9 bf
       -0.07677870530142165 -0.10013134078940829
000340 94 fe 14 c0 63 bc ce 3f fa c9 31 54 cf 63 e4 3f
       0.24012419585232136 0.637183823053703
000350 0b e2 e1 f3 5d 92 ba 3f 96 95 08 99 03 9e 79 bf
       0.1037958832183749 -0.006254209569794075
000360 aa 72 0d 67 9a 46 db 3f 81 e9 80 59 00 ca cc 3f
       0.42618427337383 0.22491459245959436
000370 bb 37 ad e9 00 6b d3 3f d4 29 39 a2 35 d3 b1 bf
       0.3034059793470722 -0.06962905130891467
000380 e2 d3 3f cd b7 5f d7 3f 3b ff 32 84 8b 87 e3 3f
       0.3652171615970571 0.6102960187927019
000390 63 06 e2 f0 cc 59 dd 3f 3f 47 f4 d0 ec 93 90 bf
       0.4586059906360786 -0.01618928933482455
0003a0 09 ff 4b 59 1b 21 cf 3f 33 94 35 6f d8 4d 82 3f
       0.24319784031103378 0.008937540906751895
0003b0 82 32 77 7a cf fe ab bf 68 63 23 01 1e e4 b3 3f
       -0.05467842454854567 0.07769954231060938
0003c0 64 06 dd 1f d2 75 dc 3f a6 5f 11 8a ae fc d9 3f
       0.4446912108579453 0.40604747279348385
0003d0 c2 17 bb f9 f4 b4 d2 3f f0 bb 4b 19 bc e9 ac 3f
       0.2922947348382615 0.05647075470721308
0003e0 f8 b5 20 98 bc 6b d0 bf c0 fb 7c 4b 0e 1e d7 bf
       -0.2565757260916537 -0.3612094628514875
0003f0 9b 4c 72 6c e0 8a e1 bf e5 7f 87 c2 7e 66 9f 3f
       -0.54820271664575 0.03066442549049943
000400 29 30 8e 44 0c 92 da 3f 2d 40 82 88 60 ed bb 3f
       0.4151640576826617 0.10909083683714078
000410 08 08 15 13 74 f5 ce 3f fe da 97 55 37 33 c1 3f
       0.2418656438040332 0.13437549285273315
000420 9f 60 d7 34 d0 df d3 3f 77 77 47 50 78 08 db 3f
       0.3105354801205155 0.42239196624529235
000430 8d d3 1d 62 1e a4 db 3f ea 89 87 63 cd 16 a9 bf
       0.43189200956049306 -0.049002092742529715
000440 51 90 0b 85 53 c1 cd bf 3a 33 68 12 83 8f da bf
       -0.23246234890314324 -0.4150092773204964
000450 0f 89 f3 c9 69 b8 e2 bf 35 69 d0 3c 05 6a 9d 3f
       -0.5850113815652395 0.02872474845580904
000460 25 83 e3 b9 a8 f9 ce bf 9e 63 cf 29 89 7b cd bf
       -0.24199399067495012 -0.23033251325139487
000470 de 17 a2 46 91 da ac 3f 52 49 ee 4d 69 dd 79 bf
       0.05635503756734271 -0.006314669938449606
000480 93 a0 f5 d0 60 36 c2 bf 02 a3 5e 71 5b f8 d8 bf
       -0.142284490614888 -0.39015852042443566
000490 04 e7 a9 62 0a 16 d1 bf d6 b0 00 d6 dc 18 cc 3f
       -0.2669702495110047 0.21950874757147315
0004a0 ae 7e 97 55 80 96 b4 3f c8 79 1a c1 ab b1 e3 3f
       0.08042146768229472 0.6154383441497027
0004b0 6b 89 0b d5 e4 53 a3 bf dc c6 af 57 00 79 bb 3f
       -0.03774943447730802 0.10731508389269656
0004c0 36 20 e8 53 7c 5f c8 3f c2 71 cc 57 a6 4e dc 3f
       0.19041399094590056 0.4423004014404591
0004d0 98 73 f5 d0 9e f0 d3 3f 76 f8 43 37 a1 fd d1 3f
       0.31156130224354106 0.2811053313925024
0004e0 14 d5 cd 67 d5 ab 6f 3f 39 94 30 65 2f d7 90 3f
       0.0038661163402432617 0.016445866156704823
0004f0 a4 23 06 0d 60 a1 a6 3f 34 9a e6 82 b4 d6 6d bf
       0.04419994505867145 -0.0036424184429109333
000500 7d b0 de 85 59 10 df 3f 74 39 4b 62 94 06 ac bf
       0.4853729064295818 -0.054737698553810527
000510 15 92 11 65 88 2c 7c bf 17 ab 9b 2a 24 1e b5 bf
       -0.006878407280144679 -0.08249116935955346
000520 bf 9f ff de 39 c8 e2 3f 1a 93 e4 bc 21 2d a1 bf
       0.5869416575851502 -0.03354745322056925
000530 d2 b8 56 d5 e2 75 d1 3f 33 95 4c 26 94 c9 81 bf
       0.272820194567328 -0.008685262125775672
000540 5f 79 a5 13 18 09 cf 3f 7a 33 14 ee e8 dc e5 3f
       0.24246502837463432 0.6832165384272308
000550 5e b2 dd 97 56 d8 b4 3f 87 ae a1 da 12 2c c2 3f
       0.08142605979600989 0.14197002101296993
000560 d6 86 01 01 30 d9 e1 3f 30 0b d5 58 8c df a7 3f
       0.5577621478698471 0.04662741264703241
000570 4c 23 a8 20 a6 ed d4 3f 79 bf eb b0 07 8e a5 bf
       0.3270049399293853 -0.04209922823599661
000580 a2 c8 ce 5c 3e 30 ab bf d6 d3 2c f4 b9 f6 d8 bf
       -0.053102444485731995 -0.39005898328042343
000590 8d fb 33 90 e3 f5 e6 bf b5 b9 b0 b4 30 a2 c0 3f
       -0.7175157371965369 0.12994965384264182
0005a0 29 6a 15 15 0a 0d d3 bf 1a be ce 3d 94 38 d7 bf
       -0.29767086085272126 -0.3628283122625092
0005b0 cf 9f 43 95 02 a5 c4 bf de 89 00 31 24 e9 c5 3f
       -0.1612857083157437 0.1711774100559315
0005c0 07 e3 1b 4f 2a 03 e5 bf 01 26 8c d1 8b 40 d0 bf
       -0.6566363854500147 -0.2539395853387703
0005d0 04 d4 85 a1 16 31 c3 bf 4e 22 2e 06 55 76 8c 3f
       -0.14993555914739443 0.013897575617890425
0005e0 d2 dc ff 8e 11 b7 a1 bf 30 ae f0 c6 bc 6d d1 bf
       -0.03459982748602787 -0.27232284000158113
0005f0 0d 51 d8 95 84 75 e1 bf 7e 47 1d 54 e5 fd ab bf
       -0.5455954481754205 -0.054671446340434735
000600 da c0 9b 19 34 05 e2 bf c8 71 af ac 25 d3 d2 bf
       -0.5631351947941099 -0.2941374002819228
000610 5c 4a 00 b1 39 fa b8 3f 4e d8 47 23 02 7f c0 bf
       0.0975681359416653 -0.12887598726928434
000620 9a 9d b6 92 83 67 e0 bf 5c dc 06 c2 6a f0 d5 bf
       -0.51263598113012 -0.3427988905709236
000630 40 5e e0 7c eb d2 81 3f ba 82 99 88 1f e9 c8 bf
       0.008703078983713586 -0.1946143548002704
000640 66 62 7a d7 ae e0 d7 3f 54 1d ec 80 93 ae d0 3f
       0.37308856051234895 0.26065528478689726
000650 97 fc dc 9e f0 3b d7 3f a8 02 a0 b6 53 c2 b1 3f
       0.363033442630646 0.06937144478434709
000660 bd 16 2d 89 b9 3c d2 bf 6d 91 c0 16 3c e0 d4 bf
       -0.2849563445673587 -0.3261862013044013
000670 15 c3 3a 0a 05 fa ca bf 16 11 14 37 d2 58 d1 3f
       -0.21075499534119815 0.2710462129473553
000680 03 df 18 ab d0 52 d2 3f ff e5 16 98 2c 29 e1 3f
       0.28630463322359406 0.5362761469361316
000690 da ad 28 90 14 a4 d7 3f ba df 1c 4b 0f 8c b0 3f
       0.3693896682550225 0.06463714202698059
0006a0 d7 fc a3 c7 21 01 bd bf 3c 55 6f 4a bc 17 c5 bf
       -0.11329852222478408 -0.16478685030475926
0006b0 73 85 62 db 69 90 da bf 0c d5 09 31 75 0c d0 3f
       -0.41506430076886786 0.2507603625193304
0006c0 8e b1 ee 68 fd c2 e6 3f 63 0a 6c 27 fb 3b a6 bf
       0.7113024758778452 -0.04342636924959178
0006d0 51 b8 9f 5f 34 6e 7f 3f fd 71 9c e4 2a 6d ad bf
       0.007673458656411184 -0.05747350731528298
0006e0 b3 ac 3e 47 b7 db e0 bf 01 dc ff a2 47 4e d5 bf
       -0.5268207923412745 -0.33290282171168434
0006f0 e2 b0 7d 25 80 51 be bf 9c f0 a5 51 6c 9c 87 bf
       -0.11843110003764282 -0.011528822175698665
000700 85 a4 fd 14 4e ed d4 bf 32 20 28 13 b6 d7 d5 bf
       -0.326983948229618 -0.3412909686162521
000710 a0 2d 87 4d 89 10 ad bf 03 93 5a bd 46 6c d6 3f
       -0.056766787256118834 0.35035866252501097
000720 6b aa 60 5a ba 6c cf 3f 1c 6b 46 03 a0 a5 ce 3f
       0.24550561345070618 0.2394294754020273
000730 b3 59 a0 0b db 1c d2 3f 66 c0 98 0a 11 6f ca 3f
       0.2830112088717229 0.2065144826642637
000740 ad be 18 9f 86 7c e2 bf 0e c4 d7 88 ce b8 d5 bf
       -0.5777009112698203 -0.3394047104221166
000750 65 ed 57 14 8c 92 cb bf 40 6a 1a cb b4 74 5d bf
       -0.21540976517995172 -0.0017978444633742902
000760 a2 bf ea d3 a3 78 d1 3f 88 a5 0d de e6 75 c0 bf
       0.2729882783414671 -0.1285980781788505
000770 d1 eb 2e b4 e0 c0 cb 3f a8 61 16 41 95 e9 a9 3f
       0.21682366178524018 0.05061022204899085
000780 19 fa 69 6a bc 5d dc 3f f4 5f 6c 6b a7 ee 80 bf
       0.4432211913298559 -0.00826769634799971
000790 a4 94 f8 f9 f2 95 d0 3f 99 d7 8a 69 72 f2 b9 3f
       0.2591521683810447 0.1013556964561232
0007a0 d9 b5 66 a0 cf 91 c0 3f d1 bc 11 cc 67 5b ae bf
       0.129449799843697 -0.059291118298341446
0007b0 13 2d a1 fa 94 0b ca 3f e2 d3 b6 e0 47 0c b2 3f
       0.2034784530427279 0.07049988971887403
0007c0 f3 db 62 0c b2 cc cc bf 3e b9 7c fe ff cf d3 bf
       -0.22499681095879928 -0.3095703110910967
0007d0 92 31 65 53 f7 09 c9 bf 12 1b f6 4f f9 29 e2 3f
       -0.19561664173160104 0.5676237642045143
0007e0 f1 70 f2 09 2c 49 c3 bf c1 92 a5 f2 23 7b d3 bf
       -0.15067053304381475 -0.3043908948514336
0007f0 3f fe 8f 94 b6 7b ca bf 28 0e 92 a1 44 51 d6 3f
       -0.20690042737986578 0.3487102105939095

layer1.bias f8 [80]
000000 ff ff bf b0 42 49 a4 bf dc 70 f9 f1 6d 77 d8 bf
       -0.039621433330466964 -0.3822893965750731
000010 8a da a8 5c 44 c0 c9 bf b1 1f 75 5e 92 18 d4 bf
       -0.20118002437967092 -0.3139997408329647
000020 cc e6 4e f8 48 41 c8 bf 40 84 96 68 bc fe b0 bf
       -0.189492341274493 -0.06638696244637377
000030 43 79 26 82 43 d5 ce 3f c2 ce c1 0e 19 12 c0 bf
       0.24088329176897547 -0.12555230351028085
000040 97 59 7a 76 2a b4 db bf 4b f3 d5 88 bf 9c ca bf
       -0.43287145204649263 -0.20790857488091272
000050 e0 cb 36 6d 33 5e d6 bf fe aa 56 f7 c8 cc a8 3f
       -0.3494995657485429 0.048437385742849046
000060 21 36 14 39 53 a4 c2 bf a4 93 4c 85 46 f3 ca bf
       -0.1456398037629905 -0.210549178206887
000070 7f 1c 43 83 c6 7c b1 bf 61 85 cb a2 42 bb c5 bf
       -0.06831017212526723 -0.16977723072981646
000080 7e 43 63 b8 10 02 c2 bf f3 5b d7 41 73 35 ce bf
       -0.1406880283671192 -0.23600617136864308
000090 90 47 00 3b 36 54 a9 3f 0a 33 f7 33 66 6f b6 bf
       0.049470610334665044 -0.08763731735889393
0000a0 c8 a3 e4 fa 58 47 d8 bf 76 7b 73 af b9 1f bf bf
       -0.37935471059114123 -0.1215778401706141
0000b0 fc c2 05 15 aa f1 d4 bf 23 9b ef f5 ad 70 c0 bf
       -0.3272500233934321 -0.12843870647994846
0000c0 b4 da 04 99 36 21 d4 3f 9e cb 70 4f 65 05 d2 bf
       0.3145271772695353 -0.28157933004256985
0000d0 79 b6 2e d0 ee 5f cd bf 02 bd 14 02 0d df cd bf
       -0.2294901386753059 -0.2333694706116845
0000e0 6a bb ba 4f 8d f9 c0 3f a9 7c 3b 90 f4 84 ca bf
       0.13261572258985704 -0.2071824745425819
0000f0 72 10 e8 b0 71 45 b7 bf d6 72 f2 b7 e6 ac c3 bf
       -0.0909033829594266 -0.15371402723112365
000100 4e 18 5f 4c b4 af cc 3f 8f 49 e3 67 5a 1a d1 3f
       0.22411206940722866 0.26723346848771085
000110 f1 2e 40 fc 26 90 c5 bf 48 c0 04 7c 75 51 e0 bf
       -0.1684616786663962 -0.5099437162625771
000120 86 a4 5c 43 03 0d d0 bf 4b da 13 53 0b ab bc bf
       -0.2507942350226319 -0.11198492792377938
000130 4a e4 a4 6e 24 f7 b1 bf 99 5e a1 df e9 fb c0 bf
       -0.07017734242698839 -0.13268779200983685
000140 47 b9 fd b6 55 dd d4 bf f8 02 5e 33 bc b1 84 3f
       -0.3260092055342238 0.010104627912143269
000150 b4 f3 3e 45 65 f4 ad bf 9f 7c 75 85 0d a3 9a bf
       -0.0585052153614706 -0.026012622137724702
000160 75 92 01 04 17 7f c7 bf 54 27 5b b9 44 21 cc bf
       -0.18356597610103945 -0.21976527262296008
000170 48 69 3f 14 45 a6 da bf ca 59 90 7c ad 85 c9 bf
       -0.4163983056765983 -0.19939201910228938
000180 ca 9b da 68 8c 3d dc bf 33 27 80 ce 5c 1e e0 bf
       -0.44125662078516525 -0.5037063630308921
000190 db 30 a6 21 e9 2f d0 3f 4f d0 79 43 be cb ce bf
       0.2529242352109244 -0.24059274954527374
0001a0 b5 bd ef 0e 09 80 be bf 19 9f 7f ca ab 14 d4 bf
       -0.1191411649194752 -0.31376166129347066
0001b0 2d e3 12 f8 7d 23 c8 bf ab 28 b5 df a0 85 d0 bf
       -0.1885831319139241 -0.2581560310978925
0001c0 56 09 b8 b7 59 a6 dd bf 71 64 4d bd 1d bf b7 bf
       -0.46327822629259197 -0.09275995132101557
0001d0 c7 db 90 f0 36 2d d9 bf 38 f3 0c a9 9a 60 b2 bf
       -0.39338468067893156 -0.07178656222545221
0001e0 cd e8 ea e1 3a bf cb bf de 97 eb 1f 28 52 c9 bf
       -0.21677337676175626 -0.19781972464187353
0001f0 fa 7d 13 af 26 b4 d6 bf 6b cd 64 b8 ef db d4 bf
       -0.35474555108336825 -0.32592385298922605
000200 6d e2 50 8a eb 60 c7 bf c8 f1 a7 e9 ca eb d4 3f
       -0.1826452660914301 0.3268916398808668
000210 df 2d 85 21 7f 23 d3 bf f7 7f d0 2d 09 7e b6 bf
       -0.2990415408464439 -0.08786065453068646
000220 01 6f 61 d8 84 7d b0 3f ca 5f b2 14 28 89 d2 bf
       0.06441526682595723 -0.289621372424787
000230 e8 ef 10 0f bd 3d c7 bf 8c 33 7b be 63 6b b3 bf
       -0.18157160983707787 -0.07585738563939354
000240 66 09 c8 d5 c6 41 d6 bf 17 4a 7b 14 d5 b1 d6 bf
       -0.3477646911343498 -0.3546040248885744
000250 36 84 de f4 ab 24 d8 bf 21 ee 31 fb 22 c5 ae 3f
       -0.3772382632542447 0.06009778324456883
000260 54 31 8b b4 b1 4f d3 bf 8d 73 a4 29 95 8f c3 bf
       -0.30173914557669446 -0.15281929524726615
000270 d7 8d 46 36 15 6b a8 bf 9a 76 37 86 c0 0f c5 bf
       -0.04769197738212554 -0.16454321435496838

layer2.weight f8 [80, 80]
000000 e1 1f 55 04 df 1b d4 3f 5d 59 25 2c b7 1b cd 3f
       0.31420112059686117 0.227408310466397
000010 e5 c2 eb 38 c8 61 cf 3f ac 7f b5 bb b7 32 bb bf
       0.24517157344191456 -0.10624264080752138
000020 f7 67 60 8f b0 89 a7 bf 67 97 97 05 25 b1 e6 3f
       -0.04597236395075293 0.709124098703552
000030 31 0b 16 17 a5 4e ca 3f 0e 0b 02 7d 97 10 b0 3f
       0.20552505137683277 0.0627531700320498
000040 98 52 0a 59 e1 3a d7 bf 19 c0 f9 2d 2d 4b dc bf
       -0.3629687661680605 -0.442088408372912
000050 cc f7 3b 5a 44 3d da bf f0 de 20 fb 93 b6 df 3f
       -0.4099894410318228 0.4955186798501776
000060 77 72 d5 c6 42 97 b7 3f 2d 82 4f 1c b1 5b d1 bf
       0.09215180734958915 -0.2712214256735333
000070 db d9 9d 71 33 d9 bf bf 53 b2 06 bd e2 28 c7 bf
       -0.12440797351687342 -0.18093523244660278
000080 1d a5 0a 20 3f 35 c3 bf 62 39 c4 d3 4c de e2 3f
       -0.150062456746391 0.5896362434448685
000090 c8 9c 9d 7a 1e ce e2 3f bc 0e f6 8f d4 17 d0 3f
       0.5876610178792356 0.2514544874067999
0000a0 60 f2 57 66 87 6a c3 3f 1c e0 f5 44 65 b2 c9 bf
       0.15168850419276492 -0.20075670115670696
0000b0 45 b3 5b 8e 73 15 d7 bf 70 ae f1 3b 2c 6f b0 3f
       -0.3606842889992559 0.06419636214712354
0000c0 aa 79 b2 a7 49 0b ad bf a0 56 c5 f6 ae 27 cb 3f
       -0.056726743431897944 0.21214854287488993
0000d0 36 e6 2b e1 ee 07 c4 3f 8b 4c 63 57 af f8 c3 3f
       0.15649209971143002 0.1560267616938272
0000e0 f0 7d 76 66 fa 22 df 3f cb 38 76 72 63 eb b3 3f
       0.4865098953832492 0.07781049293973578
0000f0 30 16 c3 93 c4 67 d5 3f 8e 81 f0 46 85 cf d9 bf
       0.33445848874939355 -0.4032910530823067
000100 4d 54 90 79 19 66 9d 3f 6b 17 65 f9 b5 f5 7c 3f
       0.02870979122606725 0.00707026561423683
000110 27 28 d2 89 24 f3 d4 bf 14 56 58 ef 23 f8 b3 3f
       -0.3273402543933365 0.07800507157693232
000120 21 75 9e 90 43 ba ce bf ad 41 00 70 f6 68 b4 3f
       -0.24005932389710785 0.07972660288238016
000130 c1 95 0e e2 f2 20 de 3f be c2 79 25 d9 fd c8 3f
       0.4707610328281043 0.1952468331324066
000140 a3 c8 5a 39 d5 4a dd 3f 43 10 4b 08 a1 fa ae 3f
       0.4576924381355047 0.06050589777217443
000150 4d 88 c5 2b 6e 0e e6 3f ee a0 5b d8 1c 8b d3 3f
       0.6892615179933813 0.305365763937984
000160 05 c5 85 d5 68 6e d9 bf 31 fd 47 87 4a 43 ba bf
       -0.39736386157808595 -0.10258928110851141
000170 30 ca ba e2 ed db d4 bf 9c e5 c2 e5 3f 90 bd 3f
       -0.32592341558043625 0.11548232421309595
000180 82 86 20 bf e2 7c cc bf ab 8b db e5 d9 eb c0 bf
       -0.22256120998740775 -0.1321976063109934
000190 c7 cc 3d e8 e4 33 e6 3f 98 7f c6 8a 90 f1 cd bf
       0.6938347373928985 -0.23393446708814447
0001a0 df 6d 47 a7 43 25 aa bf cb 1e 8b 56 80 06 e0 bf
       -0.0510655538270972 -0.5007936182309661
0001b0 ba ab 05 84 53 3a 9f bf b8 9a 3f 50 61 d5 d4 bf
       -0.030495934422485972 -0.32552368962062017
0001c0 df cf cd 86 b6 e5 d8 bf 83 68 a7 0a e2 22 d1 3f
       -0.38902056850861116 0.26775408783363036
0001d0 56 78 4d 60 b6 d3 d5 bf ad 2c 9b 93 d1 92 c3 3f
       -0.3410468998389481 0.15291804988223615
0001e0 29 a2 e2 dc 70 9c c3 3f 5c 26 84 46 bd f1 da 3f
       0.15321169648565672 0.42100459944103874
0001f0 f9 03 80 23 82 e4 cc bf 99 17 94 36 88 7a ce bf
       -0.22572352155114553 -0.23811438240971652
000200 fc 0c ea 1f 50 b6 c0 bf 5e 4f 52 ca bd f1 de 3f
       -0.13056375082314975 0.4835047221943024
000210 71 eb 66 cf 99 6c d7 bf fe 22 59 dd 95 65 d1 3f
       -0.36600346807579515 0.2718252812961025
000220 29 56 8a f4 3b 63 c2 3f 8a fe e7 3e ef da b2 bf
       0.14365338745544534 -0.0736531761722238
000230 68 96 f3 8c ef 4a c2 bf d1 4d 49 2a 04 bb c9 3f
       -0.14291185743711599 0.20101978363764642
000240 66 ad dd 63 c0 1c d1 3f 93 f9 c5 a2 e7 e3 c7 3f
       0.26737985374957984 0.18664260337750402
000250 4d 7f 7e 14 58 08 a8 3f 6f a7 a1 53 75 cf c3 3f
       0.04693866014645085 0.15476862510268627
000260 eb f7 e2 88 eb b6 a9 3f d4 7a 30 31 30 a2 ca 3f
       0.05022369428614567 0.20807459260773575
000270 03 87 e6 50 f6 8a c3 3f 1e 29 03 a0 6e 5b d7 3f
       0.15267828893870936 0.36495557428556136
000280 77 82 c9 8e 7a 82 c5 3f 05 fa 51 db 6d ec bd 3f
       0.16804439518002187 0.1168888721894988
000290 09 70 5d 28 75 f9 b2 bf b2 b4 d4 ce 4e 06 ca bf
       -0.074118921618208 -0.20331750010646982
0002a0 4d 5e 84 31 32 4c b2 3f 63 d8 84 93 b1 17 c4 bf
       0.07147515973007863 -0.15697307303497884
0002b0 75 ea 8e dc 66 18 d7 bf c6 cd b0 27 21 b2 ab 3f
       -0.3608643678559596 0.054093395323799906
0002c0 9c 17 17 fe 84 e0 c6 bf 5a ee b9 80 9f e0 ce 3f
       -0.1787267914461922 0.24122995171988998
0002d0 39 fa 5a c1 57 b1 e2 bf d8 ad 04 79 75 ff c1 3f
       -0.5841482902977254 0.1406084862622794
0002e0 e6 7a f5 f5 93 2c 96 3f 17 dc c8 11 ae c0 de bf
       0.021654426467075626 -0.48051025139597087
0002f0 36 68 e6 9f 5b 1b bf bf 03 a9 3e a5 6a 78 dc bf
       -0.12151119855698841 -0.44484964501556606
000300 56 57 bf 91 24 64 d6 3f e1 6c e3 8f e7 cb c6 3f
       0.34986223443171605 0.17809767270850954
000310 9a 54 b2 59 5a 91 c1 bf 75 e2 27 1b e8 42 d1 3f
       -0.13724831943242038 0.2697086587136604
000320 32 05 9d 9b 7b 4c b3 3f ca d7 f3 77 7e d4 b5 bf
       0.07538578557161627 -0.08527365139511214
000330 56 cc 95 6a 67 dd dc bf f1 d6 3f 6c 01 1e bb bf
       -0.451013425910053 -0.10592659848029108
000340 07 a4 d1 94 ef 1e d4 3f e8 0f 32 70 7e 32 d5 bf
       0.31438817532631486 -0.33120690304372014
000350 61 83 15 f3 c5 40 b3 3f c6 c0 dc d5 24 da d2 3f
       0.0752071112124333 0.29456444630615086
000360 c2 65 5e 1b b1 71 a1 bf 8b b3 20 dc 35 7f bf bf
       -0.03407052477923457 -0.1230348265095939
000370 7d 7a 91 6b 4c 8f bc 3f b8 a6 75 5e 66 72 94 bf
       0.1115615618341312 -0.019967650904993944
000380 5a aa bb 49 69 f7 b8 3f a1 03 30 ea 4b d0 c3 3f
       0.09752519655345662 0.15479420599879481
000390 f8 04 93 af 7a d7 e0 bf f9 e4 d6 fe 1d 4b c5 bf
       -0.5263036183534089 -0.16635489409762963
0003a0 93 97 f0 96 b3 df c5 bf d4 ad 81 1f 5c f0 b5 bf
       -0.17088932867153214 -0.08569885033801167
0003b0 e3 cb 0c 05 1b 3f b2 bf 1b fc 3b 68 f4 6c b0 3f
       -0.07127541421213794 0.06416251702101798
0003c0 de ef 07 3c b8 90 d2 3f 2d 33 cb 26 1d ce df 3f
       0.29008298742678373 0.49695519245578873
0003d0 13 b0 a5 d5 5f 79 dd 3f 22 5f 6c a6 3f da cd 3f
       0.4605331026457417 0.2332229197133922
0003e0 92 0e 91 73 37 3e b5 bf df 23 d3 99 c6 ed c1 bf
       -0.08298060008479016 -0.14006884108519466
0003f0 44 bb 21 91 a8 55 d5 bf 94 53 26 b3 bb 73 e1 bf
       -0.3333531777670269 -0.5453775881784275
000400 3b 0a 19 5e c7 9c cf bf 83 11 c2 46 48 2e dd bf
       -0.24697200865382904 -0.4559498492237923
000410 de c7 04 13 5d 0b c6 bf e6 c2 24 44 b3 bf d1 bf
       -0.17222178867956378 -0.27732545523308116
000420 b7 01 32 ec 18 b9 58 3f 9c e2 92 e5 ea d1 a4 3f
       0.0015089743981492162 0.04066404392637432
000430 a4 09 05 b8 a5 91 de 3f af 47 7a ca 29 1b dd bf
       0.4776396081034824 -0.45478291295250534
000440 f8 b2 f1 97 d1 a2 d9 bf 10 dc 2d 2e 4d 2d ad 3f
       -0.4005626663045372 0.05698624790868945
000450 67 0b db 10 6b 1c cd bf 9a d3 43 43 64 24 b6 3f
       -0.22742975543050223 0.08649279253206857
000460 eb 8d d4 30 e0 19 bb bf 1b 98 43 5b 54 23 cb bf
       -0.10586358253618015 -0.21201567131282748
000470 89 1b 42 14 30 6a c1 bf b4 c8 01 a0 23 0d b7 3f
       -0.13605309476062313 0.09004423767490516
000480 93 94 32 d7 4d 4a cd bf 09 b6 4a ad 95 77 d8 3f
       -0.22883008010572733 0.38229886935263885
000490 3c 78 cb 4c 06 ef cd bf 6e 4e 6d 41 66 ea db bf
       -0.2338569521879793 -0.43618160619118995
0004a0 67 9b 01 d7 a3 04 94 bf b5 cf 2a bf 73 da c8 bf
       -0.019548950193349592 -0.19416663011872762
0004b0 59 56 56 ed 67 cb cc bf 08 2f 6b 74 96 7b c8 3f
       -0.22495745743497045 0.191271597714483
0004c0 f6 7f a5 18 f6 dd bd 3f cf bf 48 87 d7 b6 ba 3f
       0.11666811086388393 0.10435244610630366
0004d0 fe d7 26 e4 9d 90 bc bf 6a 0f 3f ee ca c1 a7 bf
       -0.11158167667494465 -0.04640039594917662
0004e0 3a 76 44 7f d6 58 6e 3f 15 e0 29 f8 59 4c d9 3f
       0.0037044705769762295 0.39528512224888007
0004f0 fd f8 8a 6a b4 c4 df 3f 69 78 72 3f 86 ee be bf
       0.4963809051950106 -0.12082709359171563
000500 88 00 6b e5 72 a1 b6 bf f2 2a b6 75 4f 2a c2 bf
       -0.08840101338410211 -0.14191621062885634
000510 16 cf 43 5f ed d7 d6 3f 98 b1 2c 16 69 6f be 3f
       0.3569291525193291 0.11888748923656178
000520 16 c8 b2 c4 59 e0 cd 3f 40 bc 89 53 e4 c3 de bf
       0.23340913872158414 -0.48070629270563714
000530 03 ab 89 2e 45 40 b1 bf 74 b3 8e f9 49 e8 c0 3f
       -0.06738693605590744 0.13208889661236933
000540 26 50 27 bc 05 be d1 bf 16 da aa 54 06 00 ae 3f
       -0.2772230470120597 0.05859393867051581
000550 5a f8 31 89 b9 b9 c5 3f 89 ea a9 fa ee 5d c0 bf
       0.16973036955818338 -0.1278666233009356
000560 f6 19 a2 a7 63 3c d3 3f 4d ab f8 e8 65 52 e1 3f
       0.3005608689349225 0.5413083601209593
000570 39 08 a6 c4 85 f5 ae bf 71 3f 78 07 6e 02 7a 3f
       -0.06046693826193956 0.006349973489264347
000580 92 13 59 5c 18 a1 c3 3f c0 b9 58 3b 30 f0 d0 bf
       0.15335373410394176 -0.2646599368626106
000590 8d 23 3a 9e 29 a0 de bf c1 db 09 b1 db ab c6 bf
       -0.47852554752221793 -0.17711969513376682
0005a0 9c ac e7 88 84 a7 d3 bf 27 8d da fb 50 81 a7 bf
       -0.3070994698488876 -0.045908480399953704
0005b0 eb 79 52 ec 8f 0e a8 bf e1 db 8e a1 80 59 c9 bf
       -0.046986100767060744 -0.19804389847351359
0005c0 34 21 b0 53 d2 ac e0 bf 31 79 43 6e f7 09 c3 3f
       -0.5210963854342823 0.14874165424311905
0005d0 64 b8 ca 3d 8e 4a d8 bf 39 1c be 8d 58 c7 d2 bf
       -0.37955051454890154 -0.293417108936811
0005e0 45 d8 c0 c0 b0 96 ba bf da f4 33 de 30 4f c5 bf
       -0.10386185365573038 -0.16647921418908745
0005f0 5e 7c 9e 3f 50 3f ca bf ee 8b 8e 87 d1 fa 98 3f
       -0.20505717378998417 0.024394296549541332
000600 af cf 64 35 bc 24 cb bf 0e 4c b2 db 8f 1b d2 bf
       -0.2120585690223584 -0.2829322476838464
000610 0c aa 14 08 05 86 c0 3f 22 28 69 8d 28 af a0 bf
       0.1290899552780761 -0.0325863525982444
000620 b9 43 06 3c ab 95 ce 3f a3 b3 94 88 c0 91 a9 bf
       0.23894253188021056 -0.04994012515303516
000630 da 78 3d 91 ae ad d1 bf 81 db d9 27 e6 99 ca 3f
       -0.2762257021294211 0.20782162614679225
000640 78 3f 15 77 c0 93 c6 3f d0 8b a7 bd d5 61 b8 3f
       0.1763840276203117 0.09524284248577364
000650 ba a7 13 e9 5c 24 c9 bf 51 76 76 49 bb c9 b2 bf
       -0.19642220860197118 -0.0733906797745132
000660 7b 5a 3d 67 02 af c5 3f eb d7 0a 79 56 ec c9 3f
       0.16940336266516795 0.20252495680114121
000670 33 f0 03 38 e0 79 d2 3f f2 fa 13 4a 80 eb d5 3f
       0.2886887118363603 0.34249884828743327
000680 36 4e d9 35 b4 8e c6 bf 0b 83 b1 ba f0 6f bd bf
       -0.1762299788411938 -0.11498932416862943
000690 24 63 6c 2d e9 90 c1 bf b7 de e3 29 3b 48 cc 3f
       -0.13723482816637855 0.22095431847968935
0006a0 ee 8a 9c e0 f8 c8 c5 bf 5b 10 80 c1 7e 5e bf 3f
       -0.17019568412168645 0.12253563140990435
0006b0 85 fd a1 08 fb 88 ba 3f 07 56 9c d4 6d bc cf 3f
       0.1036526580883131 0.24793789750462755
0006c0 fc 23 e4 fc 94 b2 c4 3f b0 a1 b9 39 de 3a c1 3f
       0.16169988964273319 0.13460901087388555
0006d0 7b 05 68 84 8b 97 a0 3f 75 ab 28 d8 76 ea a6 bf
       0.03240619651115658 -0.044757570158558226
0006e0 2d e0 97 d9 2d 18 c4 bf 7b 3f 80 9b fa 5e a6 bf
       -0.1569878876177894 -0.04369338176922973
0006f0 c8 82 7b e6 3f f8 da 3f ae e8 32 5d d1 98 df 3f
       0.42140195377400547 0.4937022600312372
000700 a8 e4 a8 59 c2 f0 d4 3f 4a fe 8c fd a4 7a d6 bf
       0.3271947742064847 -0.35123562584701473
000710 af b2 a6 34 94 d3 e5 3f 14 75 3b f6 d8 e7 e4 bf
       0.6820775059073493 -0.6533016976569876
000720 22 ec 6e 18 11 37 d9 bf a4 5d 4e 2e 75 a9 d3 bf
       -0.39398600946486984 -0.3072178795059364
000730 bc 62 7f db 34 59 ae 3f b6 60 3e 61 88 d5 d9 bf
       0.05927434138692919 -0.4036580037732266
000740 fa 2c a3 40 98 81 ce 3f 8f d9 c7 da 07 b0 d5 3f
       0.23832991748927396 0.33886906018542445
000750 80 98 3e 7b 2e cb bb bf 62 b6 8d f5 e7 aa c7 3f
       -0.1085690546884468 0.18490313997192503
000760 20 fa 3c ad 4e 42 83 3f c3 dc ea 58 5f 98 c4 3f
       0.009403814946947142 0.16090003816291273
000770 ba bd 60 58 21 45 d8 bf 47 81 34 d0 54 fd a5 bf
       -0.37921937590268906 -0.04294838944975026
000780 fc e1 1b fe ca 9c d0 3f f0 86 30 c6 6e 9b c2 3f
       0.2595698815853493 0.14536842992043075
000790 ee c8 69 db 3a 47 d0 bf 3c 3c f4 13 3e d6 86 bf
       -0.2543475287158249 -0.011150822624158
0007a0 f6 31 1f 5c c0 82 c3 bf 9f fb 91 c0 41 34 c8 bf
       -0.15242771623742585 -0.1890947523388293
0007b0 e8 d3 c4 31 2e d2 c7 bf d8 35 e5 5b 37 b0 da bf
       -0.18610169820900002 -0.4170053861060672
0007c0 92 18 c8 44 d7 2a ca bf 8b fd 6b f5 69 f7 87 bf
       -0.20443240030744342 -0.011702373315982914
0007d0 0a d7 a3 85 8f 88 95 bf a7 a9 e6 d4 ff 84 b6 3f
       -0.021028749973047524 0.08796690891055069
0007e0 02 2f aa 4f 07 df cd bf 15 66 2d ed e4 d3 a0 bf
       -0.23336879148370576 -0.03286662478667438
0007f0 68 1a 6d dc 63 38 cb 3f 12 97 f6 5f a2 34 c3 3f
       0.2126583887386062 0.15004377065377433

layer2.bias f8 [80]
000000 26 d9 92 51 09 7d b6 3f 5a c1 ea df a7 21 a4 3f
       0.08784540406745531 0.039319273074741104
000010 bd 60 28 e6 f4 7b c7 bf fc 58 41 f7 33 5f cf bf
       -0.18347035635156841 -0.24509286473284664
000020 78 ce 60 b1 e7 44 d3 bf 50 28 42 e3 21 d7 a6 bf
       -0.30108063051304823 -0.04461007975722053
000030 b9 2e 1b aa 05 9b c1 bf 07 6e 23 41 85 89 c6 bf
       -0.1375433998676863 -0.17607179337106535
000040 8d c3 bb bd 9c 7c c5 bf c8 eb f5 26 b0 19 c5 bf
       -0.1678653646881937 -0.16484643843054259
000050 b8 e3 99 d8 07 f6 bd 3f 5f b0 9b 04 91 62 a9 bf
       0.11703537977326917 -0.04958012753726914
000060 3c 29 83 21 c1 e2 c1 bf 5a 85 1d 64 2b e5 cf 3f
       -0.13973249565453638 0.24918119800990263
000070 e3 fd 23 2b d6 55 c5 bf a3 0a 1e 2e ef 8e be bf
       -0.16668202501749282 -0.11936850429450856
000080 1a e8 d5 9d 59 b0 a4 bf aa 64 14 82 c2 a9 c6 bf
       -0.04040794421867151 -0.17705565787836025
000090 1b f2 5f 4b c1 d0 c7 bf c4 6f 5a 38 f9 27 b1 bf
       -0.1860581987420041 -0.06701619745075421
0000a0 ea 5b 7f 4a 68 91 c4 3f fe ca 1a 9e ed d8 c2 bf
       0.16068748128483828 -0.147245123099843
0000b0 89 76 67 48 9f 79 cc bf bf c2 d9 92 63 50 c6 bf
       -0.2224616149459744 -0.17432827635231793
0000c0 21 75 be 9c a8 84 ce 3f d3 f9 92 f2 bc ea c9 bf
       0.2384234204627456 -0.20247613758506464
0000d0 70 30 ea b5 80 b5 9c bf 7d 1c ac 37 fb 01 a8 3f
       -0.028036128142546024 0.04689011625856041
0000e0 6b 49 fd a9 41 d8 b3 3f f6 79 24 b3 ba c3 b5 bf
       0.07751856231815217 -0.08501784204097604
0000f0 bf d7 df 85 ed 82 cb bf 44 ec c5 1b 7f fd b2 3f
       -0.21493310009799235 0.0741805498891362
000100 6c 96 ea 8e 35 88 c9 bf 2f e4 9a 19 5e 92 b5 bf
       -0.19946927526796132 -0.08426464200137283
000110 f6 b1 b2 39 82 58 65 bf 2b 02 cd bc 83 20 90 3f
       -0.002605680796099681 0.015749033354270175
000120 f0 a4 2e b2 e6 41 ba 3f 30 a4 6d 87 e2 76 b4 bf
       0.10256807184363814 -0.07993903929094937
000130 e9 93 4b 7c 51 94 bc bf 1a e7 f4 c1 8a 19 be bf
       -0.1116381576972142 -0.11757724032659347
000140 ab e9 72 d4 45 c5 cd bf 64 15 81 19 74 eb 93 bf
       -0.23258278726082202 -0.019452871376662087
000150 27 f8 e8 8e 0f 22 b4 3f 0d 17 6d cf 91 ba cb bf
       0.07864472617163241 -0.21663115146855497
000160 5d 8a 52 42 17 f9 c7 3f 90 53 99 13 57 d7 d0 3f
       0.1872891496505699 0.263143319263059
000170 10 39 a4 4f 69 75 c1 bf 88 48 bb cb dd 52 a5 3f
       -0.13639561070198924 0.04164784538228711
000180 56 62 b8 e8 4e de bf bf 58 41 39 d4 c2 3f c0 3f
       -0.12448590451857319 0.12694583284838745
000190 63 fe 26 8a 2a 8b cb bf 67 99 8c f3 d3 2e bc 3f
       -0.2151845144817229 0.11008953758264327
0001a0 3e 86 be 33 72 35 c0 bf 3f c7 6c c2 fb 0c 55 3f
       -0.12663104559492128 0.0012848337734791685
0001b0 37 dd 6e 5c 58 d3 cc bf dd f0 f7 93 25 c6 d0 bf
       -0.22519974244435456 -0.26209392023134886
0001c0 c2 b3 d3 c5 3f 5f b3 3f d6 2a 07 4b 9e ff a4 bf
       0.07567213611373716 -0.041012713106814466
0001d0 31 6c a6 7f 65 05 b3 3f ff 06 ec 6c 1c c8 c5 bf
       0.07430109373528705 -0.17016940420585766
0001e0 f5 9c 79 23 f3 10 c8 bf 4a ec 56 da c4 49 c5 3f
       -0.18801726562671886 0.1663137498961496
0001f0 bc a7 6e 3d ca 78 aa bf 33 39 88 d4 f3 c2 b3 bf
       -0.05170280456452711 -0.07719348849079637
000200 aa b4 9c c5 9e de ca bf 32 d5 3f c5 0a 7f cc bf
       -0.20991882943181867 -0.22262701636615528
000210 d5 ae 74 f6 f7 1b c9 bf 1c b8 ee 47 95 1b c4 bf
       -0.19616603406881575 -0.15709177028969712
000220 f1 1b d3 2d 5e c1 85 3f b1 a5 6b b1 e2 d5 a8 bf
       0.010622726224381625 -0.048506817014480126
000230 24 b2 09 31 73 b8 88 bf 74 28 cc cb 30 1f b6 bf
       -0.01207056039239613 -0.08641343093418802
000240 7b 26 20 37 ad c8 87 3f 3e 14 46 3e 7f 84 ad bf
       0.01161322903137151 -0.05765149722268646
000250 67 a1 3c 69 26 81 b5 bf 90 30 f0 26 9d a3 c0 bf
       -0.08400192326792465 -0.1299930992248659
000260 bb 85 44 0b d4 cd c3 3f 64 47 9d 0a 41 6e 90 3f
       0.15471888113192542 0.016045585892534034
000270 f0 b5 cd c3 44 ca b4 3f 40 41 7b d2 84 e6 ac 3f
       0.08121137409553802 0.05644621915201009

layer3.weight f8 [80, 80]
000000 31 e3 3e a9 d1 d7 b4 bf 7c 59 36 24 71 a0 c5 3f
       -0.08141813642477015 0.16895880001238683
000010 db a7 28 3d e3 2c ca bf ee 3c 10 56 d5 56 d1 bf
       -0.20449486242551881 -0.2709248867476636
000020 ee d8 b9 92 98 12 a1 bf a7 9b a9 ad f0 52 99 bf
       -0.03334500113571602 -0.02473045406295751
000030 c4 a8 25 de 27 2f b8 3f c1 9c fe 21 ff ae c6 bf
       0.09446953938973751 -0.17721547279254504
000040 11 75 38 35 75 59 c2 bf 7b 4f b0 cd 0f 2c be bf
       -0.14335503672274588 -0.11785982867905702
000050 3d d3 38 ef b2 c3 c4 bf e0 70 2e c2 45 3b ac bf
       -0.16222225838432705 -0.05513971324327982
000060 82 5a 9f 5d 46 1f b5 3f 13 67 d5 9e b5 ec c3 bf
       0.08250846658425284 -0.15566129928156922
000070 64 1e 45 1a 68 ee cb 3f 0b db 7e 0c b6 29 ca bf
       0.21821309359278296 -0.20439792261250775
000080 8b b2 49 8a 2a 66 a9 3f dc 73 fc 85 c7 05 c8 bf
       0.04960759103855591 -0.18767637293140538
000090 64 1b 6e ab 35 02 bd bf 5b e6 ef 3f 7e 07 d9 bf
       -0.11331496653847989 -0.3910823463807895
0000a0 03 c0 48 56 a1 80 b5 bf 5f 7c cd 35 c1 46 b6 bf
       -0.08399399143740997 -0.08701713145772903
0000b0 78 7c d6 b3 3e 42 99 3f 22 65 be 37 e0 fa ae 3f
       0.02466676685946509 0.06050778084245169
0000c0 0a 3e 0d a2 f1 d0 b0 bf ce 14 e0 c6 68 a4 a6 bf
       -0.06568823057499898 -0.044223093296787405
0000d0 3e c8 e6 bd ce 64 d9 bf 5d 61 36 a6 56 de b5 bf
       -0.39677780671184226 -0.08542386587067115
0000e0 b2 17 e6 f6 32 b2 bf bf 18 7f 6e e4 27 bf ab 3f
       -0.12381285217097007 0.05419277823898322
0000f0 2b 38 4a 62 96 22 cb bf 27 db fd bd 65 c1 c3 bf
       -0.2119930248194931 -0.15433952118811442
000100 ac c2 bf 71 89 ff be 3f 21 f7 2e ac 2a 1e b9 3f
       0.12108668353153956 0.09811655715654101
000110 b9 ea b5 02 c4 4f b7 3f 41 9b d7 ee fc 39 ab 3f
       0.09106087747742721 0.05317678847841601
000120 fd 37 5b 14 43 93 9b bf 42 1b 29 2f 30 ed bf bf
       -0.026928947560740813 -0.12471295501118809
000130 8b 31 ea 88 af 48 cc 3f 2d 07 6a 78 a9 99 c5 bf
       0.220968191006602 -0.16875189189527742
000140 24 17 fd 91 de d7 a4 3f af 1f 71 07 98 bc b8 bf
       0.04070945293510267 -0.09662771398245583
000150 95 c4 f0 b7 0f 51 a1 3f 20 7b d0 90 cd 97 d3 bf
       0.033821574405359524 -0.30614031927136587
000160 01 ba c1 87 64 10 a2 bf 91 14 02 9a cc 99 92 bf
       -0.035281316348903864 -0.018164822482976965
000170 11 d6 da de 60 08 bf bf 3b 7e 72 6b 01 c2 c2 bf
       -0.12122159424583169 -0.146545579399559
000180 d5 b1 67 e4 73 ea 8b 3f bf a2 b4 23 02 94 9a bf
       0.013630776794308833 -0.02595523207597483
000190 97 e9 f5 9d 79 11 ca 3f d4 7f 71 c7 2e b7 94 bf
       0.2036582967082949 -0.020230036662155573
0001a0 23 5a b5 f7 7d 0f b6 3f bd 5a 31 93 95 db b3 3f
       0.08617389009064218 0.07756934016775126
0001b0 7e d4 b1 48 a2 54 b5 3f 87 b5 fa 43 46 5e ce bf
       0.08332266115924544 -0.23725202864936198
0001c0 f2 2d ec 7f 75 67 c6 3f ee b6 0b 80 72 bc a0 bf
       0.1750323176023439 -0.03268773854311556
0001d0 7a 70 c1 83 58 ff b1 bf 96 b3 4d c4 16 d3 b5 3f
       -0.07030251709642413 0.08525221149984782
0001e0 98 ff 8b b5 97 0c a8 bf d8 75 af 23 a7 70 bc 3f
       -0.0469710740198927 0.11109394665933026
0001f0 0c b0 8f ee 96 81 82 3f c1 41 4f ee a5 bc 97 bf
       0.009036235003769398 -0.023180573148978704
000200 18 21 97 e6 33 22 b4 3f 22 b8 6f 5b 9b 89 a4 3f
       0.07864689235350786 0.04011235705534967
000210 e3 90 36 1b cb 5c c5 bf d0 c6 b5 da a7 0d 7c 3f
       -0.16689432934538848 0.006848960572243448
000220 26 bd bf 0a 19 61 89 3f 9c 3f bd 41 5e cc b3 bf
       0.012392230644734225 -0.07733716111147121
000230 dd b1 b1 42 28 96 c8 bf 44 7a 86 4b c2 c1 b3 3f
       -0.1920824361472019 0.07717527717475386
000240 03 f0 83 8f dc 45 b9 bf f0 69 ab ad 98 8c c4 bf
       -0.09872225288194163 -0.16054066162071434
000250 c3 9c 83 82 56 e5 76 3f 1c f6 ed 0b 1b 6f d0 bf
       0.005589807442652975 -0.25678135075563246
000260 92 99 f3 52 e4 ce ba bf 0d ca 08 9b 67 56 c7 bf
       -0.10471941971954937 -0.18232436246906084
000270 64 a9 1a c1 d5 92 90 bf 2e b7 9e cc 25 2f c7 bf
       -0.01618513098825626 -0.18112633219919289
000280 f2 aa 08 de 33 32 bf bf 76 5d 87 01 b5 fc bc bf
       -0.12185978098629471 -0.11323100364039881
000290 2a ab 37 b6 8f 38 ce bf 07 d9 08 c3 32 5c 97 3f
       -0.23610111615502066 0.02281264605900282
0002a0 6b 85 a5 41 42 99 a2 bf fa 42 57 d9 cb e6 ce bf
       -0.03632552195882507 -0.24141834366175613
0002b0 70 e5 20 ac dd dd c9 bf 25 59 97 7c 82 ec c5 bf
       -0.20208331017219505 -0.17128020366244204
0002c0 df 79 34 9f d8 20 c2 3f c9 87 57 d8 e6 2d d4 bf
       0.14162738584214105 -0.31530161978855326
0002d0 ac 8b e4 15 ec fa c9 3f e7 56 54 83 88 f7 cf bf
       0.20297003811819303 -0.24974161541529513
0002e0 06 9e c9 84 dd 3e d2 bf 00 b6 6f e7 3b 56 c3 3f
       -0.2850869938615407 0.15106915283779188
0002f0 38 33 62 01 11 90 cc bf a8 0c a9 7b 75 c6 c8 3f
       -0.22314655845220854 0.19355648553946492
000300 35 15 35 2b de 4d be bf c4 dc 7e 8c 68 63 a6 3f
       -0.11837566904894888 0.04372717585595745
000310 9b 18 8c 3c d2 cb a8 3f e1 26 34 4c 3c 66 d0 bf
       0.04843003262617281 -0.25623996202248916
000320 ce 01 ea 3f ff e5 ad bf 63 1d be 17 38 3a 91 bf
       -0.05839536338044447 -0.016823650788436405
000330 e9 5b 38 c5 ec 5c c7 bf 46 40 59 69 51 61 9c bf
       -0.18252334241762405 -0.027714988760920066
000340 b3 4e b7 d3 12 12 87 bf a0 fb 68 5c ba dd b0 bf
       -0.011264941297589237 -0.06588330036264134
000350 05 6e 7c 73 9a 46 c8 bf 17 65 28 4d 2a 62 cf bf
       -0.18965464247672528 -0.24518326537580812
000360 a7 83 5a 25 e0 b2 b2 3f af 9b c5 54 66 69 cc bf
       0.07304192459061075 -0.22196654452565442
000370 67 6c 55 b2 6f fb bd 3f f6 30 cb 60 ff 92 86 3f
       0.11711786369180431 0.011022563115510736
000380 30 48 e2 9f fc 59 bc bf cc 44 fa 9c 6c 70 c5 bf
       -0.1107480898229205 -0.1674934164516685
000390 4e 79 06 ba eb 51 d4 bf 96 04 50 5e 4f 97 bd bf
       -0.31750004927188946 -0.11559005787423113
0003a0 55 01 f2 26 ef 1b b8 3f 65 90 4d 76 4d e5 c2 bf
       0.09417624188245573 -0.14762275959504048
0003b0 c9 09 07 58 92 5c c0 3f 92 88 18 4f bf 9a 9c bf
       0.12782506273477015 -0.027934064104677754
0003c0 94 1b 28 0a 3c 85 c5 3f 44 ea ad 0b d9 1d 94 bf
       0.16812849517756645 -0.019645110452510176
0003d0 00 68 c4 ea d7 c7 a4 3f e3 9c 24 75 ba 5f c0 3f
       0.040587184341532634 0.12792139739870043
0003e0 e8 f9 eb d2 9f 22 d0 3f 37 b7 55 4b 99 aa a5 3f
       0.2521133003027942 0.042317190595765934
0003f0 1f cd 6c d4 d8 28 cc bf b3 55 4c 1b 36 cd c2 3f
       -0.2199965512496442 0.14688755352896762
000400 11 7e 66 13 48 c0 b4 3f 0a cf 7f fe 6e e1 c0 bf
       0.0810589835514224 -0.13187968661042532
000410 cb 71 d5 a7 61 52 c0 3f 1d ce 37 0e 52 fc d0 bf
       0.1275140828610247 -0.26540042294002025
000420 c2 5c cd a3 59 07 b4 bf 72 02 e1 00 4e 1e cb bf
       -0.07823715447499338 -0.21186232607762495
000430 69 d2 bd 0d 3a 06 b3 bf 16 c2 d8 eb 42 96 be 3f
       -0.07431376300321237 0.11948030717827182
000440 2c a6 04 d9 ef ff 8a bf 10 b3 d1 3a b9 49 c7 bf
       -0.013183473406189604 -0.18193736431148766
000450 ac 3d d1 bb 3c f2 9a 3f 7b 63 d8 a2 13 8b d3 bf
       0.026314686740361345 -0.30536356833322714
000460 8a 3a 4c a4 f9 fa b9 3f 2b 9a b8 ec f4 61 b9 bf
       0.1014858270757292 -0.09915095118831434
000470 20 1e 14 fa b9 9c 7d bf 76 62 0f 44 fe dc b3 bf
       -0.007229544136186955 -0.07759083901999894
000480 be 1f 23 17 db 8a a0 bf 3f f8 2d d6 60 83 c5 bf
       -0.03230938584744035 -0.16807184656130578
000490 ff 1b 44 8f ab f2 c0 3f b9 1d 5e 48 38 b6 ad 3f
       0.13240570540821747 0.05803085215944343
0004a0 05 71 ec d3 3d 0e c0 3f a3 a2 f5 c2 ad 05 97 3f
       0.12543461654502877 0.02248260023535188
0004b0 72 7a 9c 15 7b 22 d5 bf 36 07 d3 e4 b2 23 d9 bf
       -0.3302295409247683 -0.3928038820850931
0004c0 28 9c 96 b9 bc 69 b1 bf eb b0 2c d0 ea 34 b1 3f
       -0.06801967173542833 0.06721370298754763
0004d0 fa 56 15 b5 08 a1 6a 3f ee e6 d9 2b b2 4d a6 3f
       0.0032506151261867374 0.04356152329724049
0004e0 2c d5 12 48 b0 2e b8 bf b4 d0 8b 8b 99 3d 8e bf
       -0.09446241149529006 -0.014765929766760479
0004f0 67 68 30 2c 30 0f b2 3f 3e aa 58 ff 5d d7 d2 3f
       0.0705442531474617 0.2943949693314244
000500 f8 90 59 9a 96 8b c1 bf 1f 30 a8 9a ba f0 c4 bf
       -0.13707239662756598 -0.16359646369562683
000510 2c 5d fe 97 3a bf b9 3f af 3a c2 18 e6 ad 84 bf
       0.10057417116910433 -0.010097310667587093
000520 8e fc 42 0b 88 87 ae bf f4 64 67 2c 80 25 76 bf
       -0.05962777268859397 -0.005406857183026793
000530 8a 70 46 3e 46 42 b8 bf 5e 42 81 ef 26 cb c2 bf
       -0.09476126690282363 -0.1468247098405468
000540 58 17 2b 83 20 3e d6 3f 78 d2 f6 43 e0 95 9a 3f
       0.34754193124205335 0.025962356708719686
000550 a4 cc f5 ac 57 a1 ae 3f 58 af 5d 6b c6 d6 c9 3f
       0.05982469545679095 0.2018669151542507
000560 3c 10 74 33 99 4a ad bf 7a 5e 25 54 a9 71 d0 bf
       -0.05720976594059876 -0.25693734376316224
000570 07 9c 83 b7 22 4f bc bf 61 65 55 a8 fa 9e ae bf
       -0.11058251362156578 -0.0598066645131421
000580 a4 e3 82 87 54 94 ad 3f d1 1b 30 95 9c dc b2 3f
       0.05777229456129554 0.07367876665385543
000590 da 81 e7 94 6b eb ad 3f 1a fa 98 aa 18 7c a6 bf
       0.058436738898084165 -0.04391553003778288
0005a0 7c 71 5a 87 e0 b0 d4 bf 40 81 50 06 da cc ce 3f
       -0.3232957193192971 0.24062657650302732
0005b0 3c 6d f2 7c b6 a3 b3 3f 0c c5 8a 02 3f e5 c0 3f
       0.07671680975402223 0.1319960367596099
0005c0 ad fc aa a1 d4 7e 85 bf 99 73 6e 61 14 54 c3 bf
       -0.0104958164059766 -0.1510034061183461
0005d0 1d 03 26 21 48 df c9 3f 19 6e d0 0d 1a 69 b2 bf
       0.20212651842668886 -0.07191622578869107
0005e0 81 16 16 c2 a3 02 b5 bf c3 00 bb c9 c3 0c ab bf
       -0.08207152832445709 -0.052831762671759395
0005f0 b7 56 1b 8f 6f c5 b2 bf c8 88 b0 5f 2a 2b d0 bf
       -0.07332513088052904 -0.2526346144169449
000600 cf b2 a6 00 7c b8 b5 bf 57 47 e7 62 fa d7 92 3f
       -0.08484625831506352 0.018402015959345288
000610 06 bf f2 ec 23 87 cd bf 4e f5 d3 51 ff 9a 99 3f
       -0.23068665570962582 0.025005330438024935
000620 a7 17 dd 18 af 52 da bf 97 7d 9a 61 5c 53 9f bf
       -0.411296629219914 -0.03059143396114691
000630 36 da 16 b0 fa 97 a2 bf a1 91 a4 e2 8a 4f c1 bf
       -0.03631575965430438 -0.13523994509263296
000640 5f 40 a1 25 d1 23 c5 bf 23 a5 54 9d 09 a4 b9 bf
       -0.16515554749867342 -0.10015926447944827
000650 bd 5a a3 5d d3 44 b4 bf d8 52 59 fd 08 4e c9 3f
       -0.07917519603811747 0.1976939427428508
000660 61 cc fc 60 19 1b b7 bf 87 b9 cb 68 5c 1d bf 3f
       -0.09025725000246744 0.12154176290980533
000670 af 9c d2 77 e8 61 b2 3f 34 b7 a9 14 72 30 aa bf
       0.07180645871504752 -0.05115086080773637
000680 ae 76 17 ae a6 0f 9b 3f 7f 16 c2 01 cb c5 bb 3f
       0.026426891685210556 0.10848683159755444
000690 57 f4 42 07 d5 43 7d bf b1 34 18 d9 1a a9 ca bf
       -0.007144767896702118 -0.2082856712371828
0006a0 ee ab 78 d4 7c 0b a1 bf 69 20 bd 72 85 fa a1 3f
       -0.03329076856274314 0.03511445069904157
0006b0 e9 10 41 c8 ec 6c d0 3f 68 8e 81 53 97 40 c1 3f
       0.2566482501608918 0.1347836644882705
0006c0 64 dc 85 97 23 bc d3 bf c8 3f 21 62 56 e5 c3 bf
       -0.30835809514196044 -0.15543632308481237
0006d0 32 f9 1d 8d 20 56 b6 bf ee 4d 67 ff 38 a8 b6 bf
       -0.08725169606438923 -0.08850437388837637
0006e0 ee 5b b0 fb a6 f2 b5 bf 0a 65 09 00 55 d9 d2 bf
       -0.08573382992504694 -0.2945148945196513
0006f0 8d cb 48 4b 07 93 b7 3f 41 6b 06 d2 81 16 c0 bf
       0.09208722675320598 -0.1256868625176484
000700 9e 21 e0 70 ed e8 cd 3f e8 f7 89 35 4a 02 83 bf
       0.2336708832883802 -0.009281711348418
000710 8a 5c 6b f2 3c 23 bd 3f 8c f5 23 a9 e4 94 b3 bf
       0.11381894033853449 -0.07649068002134224
000720 9c d5 d6 d9 e5 5c c5 bf 01 ee 1f 44 c6 88 83 3f
       -0.166897517554088 0.009538220361711149
000730 ab dc 92 09 17 d0 b3 3f 32 bb c6 f1 be ba 87 bf
       0.07739395126087582 -0.011586658242632806
000740 40 ba db 92 38 9a bf 3f ab 09 6d 27 a8 6d 9f 3f
       0.12344697556884743 0.030691745191924785
000750 0f c9 8e 97 41 94 c7 bf 53 69 dd d8 40 9f 9e bf
       -0.1842119207409003 -0.029904378162748668
000760 d6 8a f9 74 89 ba c9 bf 6b 08 9b 98 cf 97 b1 3f
       -0.20100515567454263 0.06872270084116543
000770 1e 8d e4 04 54 05 b2 3f 91 b1 de 37 a7 38 b5 3f
       0.07039380187466235 0.08289570917140156
000780 3b f6 f7 66 65 85 d2 bf b3 d3 f6 4c 24 ad 92 3f
       -0.2893918519547218 0.018238608548660284
000790 b9 7e a5 25 f3 45 c4 3f 38 66 8f 42 1d e9 91 3f
       0.15838469827848714 0.01749082297087609
0007a0 3e 42 b6 7f 1c ad af 3f c8 bd 5e 91 da a3 c1 3f
       0.061867609586560665 0.1378129205527172
0007b0 c5 3c d3 5d 5b cf ce 3f 42 77 fb f4 10 4c a9 3f
       0.2407030304079624 0.04940846434122516
0007c0 e9 25 e9 b1 13 01 cd 3f 31 6f af 65 e2 c9 c4 3f
       0.22659536540076822 0.1624110218534667
0007d0 c8 39 b1 54 dc f8 c2 bf 4d e9 a5 37 1b 75 d5 3f
       -0.148219624856621 0.33527260240920925
0007e0 e3 96 f2 05 ee 47 b1 3f f3 06 2c 91 38 a2 c9 3f
       0.06750381131368104 0.20026309097743641
0007f0 ae ec 4d 54 2b d5 ca 3f 64 20 63 af 99 77 c8 bf
       0.2096304093973677 -0.19114991248921165
