attack_soft_generative_decision_tree/experiments/wine_red_params_state_dict/fnn_epoch76.pth (torch, 10399 bytes, 6 tensors)

layer1.weight f8 [32, 11]
00000000: 3c4a cc57 f6fc e9bf 1531 b0a4 aa29 9c3f
00000010: 00b5 e182 0b7e cebf 5d1b aca3 414f e93f
00000020: 62f4 4a71 79aa c6bf 2b21 0433 2cb6 d0bf
00000030: 2de1 bc9f b6ea afbf 46cd 94ab e570 b1bf
00000040: 8689 9042 e990 e1bf 3299 a9be 30e3 00c0
00000050: 01eb cb09 b1c4 e03f 34c1 2648 83cf b23f
00000060: cbd1 be32 5072 d53f 8e4a 0acd 7ea5 ef3f
00000070: 812b 5101 3d71 de3f 15b1 cdfd 290c f3bf
00000080: 945e 6ae7 0eb7 e83f 973d 684f 7bd7 d6bf
00000090: 9944 d7bb 89e8 dabf ae89 0f20 c278 dbbf
000000a0: 3330 750a fc2f f33f b63b fdee 4b22 d23f
000000b0: 23be e8aa 10a6 e83f 0936 6a42 5276 dcbf
000000c0: b80e 8243 3b16 eebf 9bb4 e18b 13ac e73f
000000d0: a60c b882 db94 e2bf bef6 a2bf 2034 c13f
000000e0: afb0 7da3 02ed dfbf 322c 8fc0 cd98 f1bf
000000f0: 5a8a 0d12 1d2f e33f d180 827e 3080 d83f
00000100: 7620 e6db b40f cf3f 30cd 53af 1d3d e3bf
00000110: a5b9 0a5d 152f e9bf 224c 41f2 3e12 c43f
00000120: 98c2 7827 a767 f2bf dade b70a d42c b5bf
00000130: 41e9 6366 b61a df3f 7094 e7af 98c3 f0bf
00000140: f693 8d31 b64f d33f 151c 3334 62ef f0bf
00000150: c290 18f8 538b cd3f bdf5 ec45 aee3 f1bf
00000160: d607 e2d0 4c02 e73f 2696 766f f4b6 e3bf
00000170: fb06 36b2 c60a f4bf d091 e7a2 dc52 febf
00000180: 854e b70e 2db1 96bf 6701 cd2b 7b41 dbbf
00000190: 6326 2972 3902 aabf 2108 c39a 93a6 d83f
000001a0: cbf4 18a4 6056 cd3f 51fc 6b8f 8342 d63f
000001b0: 0bd8 dbd3 183c d9bf 54d0 6562 6d14 f1bf
000001c0: 5ecb 0c7c 18e8 c6bf fe3f 2ad8 f586 a9bf
000001d0: 0755 3dbb b88e adbf f0e0 3971 f1f7 d53f
000001e0: 7487 b355 8fde d33f 6a80 6cde dc29 97bf
000001f0: 0bb2 94e6 e5da d03f 3d79 bc57 d1ae db3f
00000200: c4dc fdd5 e15a e53f 0fec 6a76 01ac ebbf
00000210: 7a83 7971 4caf e1bf 22b9 8697 3402 c73f
00000220: 1649 654d d04e d8bf c518 c560 652c de3f
00000230: a3f2 7fe2 f960 e33f 2985 74c5 3e0a de3f
00000240: 5ec6 1995 007b e13f d3f5 425d a4c3 e83f
00000250: 57e4 afa1 91f9 d5bf 7af7 7508 6ec5 e0bf
00000260: de6e 6aaa 11b7 bb3f f9c8 56ba dc2c ee3f
00000270: feeb 1e54 aa8c d43f 7a7f b1f3 760e ca3f
00000280: 51ed 4d94 a2cd eabf de09 c803 1a05 df3f
00000290: 23cc 6c70 3840 cf3f 2928 d175 7a7a ddbf
000002a0: bda3 c86d 3a11 cf3f 3988 f66e 5ee6 d03f
000002b0: 0388 c190 1d74 d43f 394e f275 8807 f73f
000002c0: 03c5 02fe 6699 99bf 667e a380 9e93 e4bf
000002d0: 551f 8705 688c f0bf 4d61 12ec 7129 e63f
000002e0: 1503 dde5 9f3c ed3f 1eb0 c7c1 082b df3f
000002f0: 37d6 29a7 7313 d13f a02a 324f 7abd e13f
00000300: 1a9e 6c4c 0799 f8bf e30e ada0 4303 d7bf
00000310: 3305 9ffe 730e ea3f a6c8 3560 d172 d3bf
00000320: c78d 8462 c529 ba3f c265 d052 6d4b fb3f
00000330: 62a7 c065 f110 c6bf 8576 5d28 ec61 d0bf
00000340: 5ab9 460b b649 e73f 72bf 723d f425 e13f
00000350: 38c4 3b3e a4d6 e3bf cf67 cb91 b0b9 eb3f
00000360: 2bd1 dba1 90d9 d13f 8200 d338 ea71 d33f
00000370: 899c 379b b5c6 e93f d391 6f00 b0a2 e6bf
00000380: 3af8 b627 904b ddbf 4f9c 8eed 6e81 fdbf
00000390: bd6f c7b8 9b98 e63f 07bf 2cf0 8159 efbf
000003a0: 162c 1119 ef6c bbbf 2a71 8ccd 308a e73f
000003b0: 29f2 5f5c e30c dc3f 081e 1712 a0dc e73f
000003c0: 69fe 17ec 1b4d ed3f f53f cbf8 799a d43f
000003d0: 31ec 4ae7 b52b e83f 4f5e 9ff7 1676 d13f
000003e0: 3126 bb92 72d2 a2bf e796 1274 0b5d d0bf
000003f0: f1f5 e3f5 771e f4bf f162 333f 386a e03f
00000400: 9cf6 f72d dfca f23f a961 be65 b877 b53f
00000410: aedc 1db0 0503 dc3f 8d5a 9c48 fee5 d03f
00000420: 5608 c8a8 2e24 ee3f 4b1e d219 3571 e03f
00000430: 4235 abe7 f317 e93f c88c 5e9c 7085 e0bf
00000440: a71d 1769 bc81 db3f a8eb 1990 bcc6 d13f
00000450: 9316 81e0 dc8f ee3f 2a5d 9b73 9c5e ea3f
00000460: b58a 8da5 57e4 cb3f fe4b 0176 77b5 963f
00000470: 9c03 bd4e 7296 b7bf a3ea 42d1 37b9 e93f
00000480: b534 eb01 db07 e3bf 39a4 e333 df6f 853f
00000490: 3f64 4249 7144 e3bf e816 32d3 5e0a b5bf
000004a0: 3456 ac51 8f1b e73f 4148 36de 6b96 df3f
000004b0: 0214 4aa5 0c55 d4bf 0c03 e825 d7db 93bf
000004c0: dbca c46f 5f7e fbbf fc97 66ee 8a48 e63f
000004d0: 5f9c 03bc 19c0 cc3f 4c1d 2dcc d29a e83f
000004e0: 39f5 b900 6594 f53f 19d3 0ca3 c159 f9bf
000004f0: 2398 3604 0502 d63f f3de bdc3 2e87 e43f
00000500: b76b 4e99 b33c e8bf 3c56 c98b 6aea e63f
00000510: 26d6 f4c1 608a d23f 0cb2 e4f2 bc4d ccbf
00000520: 4f8f 8343 a91b 67bf acf6 f9ba 2dd4 e33f
00000530: 87af 1567 c5ea f8bf 87b5 8078 c0ee e0bf
00000540: 09ed a5d9 4fa5 e53f 27d0 6960 0954 e7bf
00000550: 07db a58a 2be9 d9bf 5c14 f90f a38b d33f
00000560: 6a02 f6ce ddb4 ee3f 58a3 efc8 0cb9 a83f
00000570: 7f67 067d 1e1d ec3f 1e1e 5f81 d5bc f03f
00000580: 44d3 9ac8 a28c e1bf 177d 37d0 a0d3 f2bf
00000590: 4b9d 3fdc 6961 c43f 2160 a806 58e5 e0bf
000005a0: e3ed 8f71 115b d3bf 05fc 81e7 5658 d8bf
000005b0: 26a1 d3aa 602e de3f 90a5 9f87 0c01 acbf
000005c0: cd3d cef7 98f1 ee3f e922 aedf 10f2 e3bf
000005d0: 22e3 8952 bada e3bf 6d55 9025 266a ee3f
000005e0: 8f2c 70ad 8d5d b9bf 5565 4eb4 ee65 d2bf
000005f0: db75 8675 da9c e43f cc14 eae4 4d0b d03f
00000600: 407b 95f6 8fc0 e93f dffc 1171 81c2 f33f
00000610: 4951 b4b2 a274 e2bf 507c 0aff d53d c53f
00000620: a439 b3a6 b5a2 ee3f 92a9 e4da e678 b83f
00000630: 8b3e ad18 0aa9 e83f 8903 d4ee c7fa e73f
00000640: 9a46 1890 c8cf 7cbf 59d1 ec6d 847c d1bf
00000650: 8b01 e7d2 a34b f1bf 6cf7 b4dc 7839 d9bf
00000660: 6a3e fa53 3d43 d53f aa60 e702 3016 a13f
00000670: 8b07 0f94 6b27 e73f 5674 65fd 7c82 f6bf
00000680: d24a 9dbf 3a1c cfbf bda1 aab6 1ae9 e6bf
00000690: 1925 2b94 1e7b d23f e1eb 6e44 b06e f2bf
000006a0: 8741 e8a0 bfd4 e2bf 4b52 3ff8 701f d4bf
000006b0: dcd0 6199 ca1b f03f a17b 7312 9e05 e0bf
000006c0: 8adc 4bee 39f2 b0bf 3fe6 180c 5254 e1bf
000006d0: 2f69 558f cb4a e63f ec9a 9ff5 54ae e2bf
000006e0: 60c6 8ef1 e644 cabf 58be 00bf c411 e5bf
000006f0: a8c5 a69d 7a01 d4bf de15 932d e5a6 c33f
00000700: a423 32dc 4c0a c23f e4d5 1aa5 6978 f9bf
00000710: ebdd 8739 6779 d4bf 5e5e fd6f 05ce d33f
00000720: d92c 877a e713 ea3f 48e7 bb67 e5f6 66bf
00000730: de65 f542 b6f9 e7bf fa59 0654 5dec e23f
00000740: e638 c346 f069 f1bf ce46 1409 d6bc f1bf
00000750: 1aa3 4a0f d7f4 d93f c36d b685 1ebc c6bf
00000760: 27bb 09a1 3cdc f03f 98ab d06e 4520 d2bf
00000770: 0d84 ccbf ef2c cf3f 114b 8917 34dc c83f
00000780: a649 31f1 d2c7 c03f 87c0 6ca9 ff44 f3bf
00000790: b360 b7fa fdc0 c73f 869f dd5b 3f23 ba3f
000007a0: fa4f e64a 3de1 ba3f 01ce dbf9 08e0 e93f
000007b0: fe4d 0c96 c514 e7bf 11c7 2929 efd0 dabf
000007c0: 346c f925 8118 ebbf a019 23f6 e150 d5bf
000007d0: a8ad 8848 14d3 fbbf 3c69 b70f 2a83 e4bf
000007e0: e17f 7545 9df4 e9bf 1786 03e8 df63 dbbf
000007f0: 700b edf2 d31a e7bf 03eb ed77 6ba2 e73f
-0.8121291842274512 0.02750269537141133 -0.2382215870924611 0.790924853966185 -0.17707746536135277 -0.26111893636745503 -0.062337595938915726 -0.06812892378802812
-0.5489393520440877 -2.110932817030652 0.5240101996745069 0.07347889434345661 0.33510212855915417 0.9889520649615677 0.4756615174161923 -1.1904697336386267
0.7723459739526839 -0.3569019580326879 -0.42044299453579864 -0.4292455018131943 1.1992149742609512 0.28334329928196256 0.7702716196126328 -0.4447217606146699
-0.9402138060108518 0.7397554142059052 -0.5806710770706516 0.134403317997501 -0.49884096113124604 -1.0998055955740367 0.5995011665912202 0.3828240619132091
0.24266682374241427 -0.6012104439127253 -0.786997491571857 0.15680682019100894 -1.1503058950294527 -0.08271527539897808 0.48600540160227373 -1.047753035666826
0.3017402156750103 -1.0584432639168473 0.23081445325909128 -1.1180861216993059 0.7190307693238036 -0.6160833527580436 -1.2526308976525218 -1.8952299464664186
-0.022160247824855723 -0.4258716514341558 -0.05079822081149812 0.3851670276018258 0.2291985322243931 0.34780968671833984 -0.3942930287297492 -1.067487129560523
-0.17895799691322173 -0.04985779060109506 -0.057729504448312645 0.34325824792132575 0.3104589783598535 -0.022620631290124406 0.2633604766622574 0.43254502838125913
0.6673440150761043 -0.8647467911572465 -0.552648755674553 0.17975480459922105 -0.37981040533226584 0.47145971727549024 0.6055879043411391 0.46937531740884936
0.5462649261591641 0.7738820859446441 -0.34335747518304544 -0.5241003194093843 0.10826216135540842 0.9429763450082468 0.32108553137703655 0.2035664262684767
-0.8376019379206047 0.48468637818601035 0.24414735307218036 -0.4606004858547999 0.24271326408896057 0.2640606006262974 0.31958712707830744 1.439339123467006
-0.024999245885458 -0.6430199158166487 -1.0342788902216473 0.6925592051293649 0.9136504640119677 0.48700159953910027 0.26681224178841795 0.5543796107097769
-1.5373604760478714 -0.35957422915474363 0.8142642949170863 -0.30388292689816365 0.10219987540454332 1.7059148058818754 -0.17239205807100705 -0.25597671453383725
0.7277479381789747 0.535883064285356 -0.6199513640878029 0.8664172027158602 0.27890411192426495 0.3038278155254447 0.8055065185152596 -0.7073593147766196
-0.4577370059813607 -1.8440999297688625 0.7061289414373203 -0.9796762171663155 -0.10713095056523544 0.7356189741726997 0.4382866289231822 0.7456817963911258
0.9156627284246045 0.3219284944179884 0.7553357617792981 0.272832624262695 -0.03676183739805728 -0.25567900023666684 -1.2574386220070404 0.5129662737263897
1.1745292468689632 0.08385803684212213 0.4376844615830561 0.26403767672437867 0.9419167801390909 0.5138192657768256 0.7841739201336753 -0.5162890485848033
0.4297934557220863 0.2777549178351202 0.9550613770340582 0.8240492113062932 0.2179059561122664 0.02217661531205905 -0.09213938162157692 0.8038596236359193
-0.5947089230991397 0.010467284937890496 -0.6021048003050352 -0.08218948990005581 0.7221142382792949 0.4935559911765531 -0.3176910032419188 -0.019393312157265405
-1.718352734180988 0.6963553100838449 0.22461244278312884 0.7688993442360839 1.3487291363120006 -1.5844131821770076 0.34387326632929865 0.641501791294074
-0.7574098581566123 0.7161152582363637 0.2896959203820607 -0.22112237796808676 -0.002820807069030019 0.6196507121928412 -1.5573171641108006 -0.5291445115632748
0.6764296770992654 -0.7290083773682497 -0.40485657253104573 0.3053977638231282 0.9595784227568178 0.04828681900818904 0.878554577054487 1.046102052075987
-0.5484174650251608 -1.176667035433473 0.159222824614725 -0.5279960756333858 -0.3024333580976572 -0.38039181335619815 0.471580664465835 -0.054695502811067276
0.9669918861345025 -0.6232990616564084 -0.6204501735765897 0.9504576429050481 -0.09908376201944889 -0.28747146232634196 0.6441471381582987 0.2506899581424704
0.8047561470119504 1.2349867264563767 -0.5767377367324481 0.16594958260700077 0.9573620086537642 0.09559481472084588 0.7706346971480839 0.7493629135716314
-0.007034095238411498 -0.27322493300314005 -1.080966781461117 -0.39413281968506086 0.33222897721223055 0.0333724025292111 0.7235620395442636 -1.4068574808400363
-0.2430489955537128 -0.7159551208215401 0.28876461476882437 -1.1520235703635466 -0.5884702818603252 -0.31441902392297 1.0067850104797378 -0.5006857262013577
-0.066196079900566 -0.5415430294298814 0.6966302680478175 -0.583780746205631 -0.20522772593317296 -0.6584190111661412 -0.31259026904725795 0.15353073811836188
0.14093933822394178 -1.59189762586663 -0.319909864599565 0.30944953857895097 0.814929713547282 -0.002803276116421314 -0.7492324168953777 0.5913530961141185
-1.0883639110721162 -1.1086025576263867 0.4055688523608737 -0.1776159432309737 1.053768757872328 -0.2832196790865793 0.24355885377102063 0.19422007703050118
0.1310981443117047 -1.2043453806072948 0.18557715169914032 0.10210033409896199 0.10499938086132934 0.8085980300951975 -0.7212856226564666 -0.41900233287661687
-0.8467412702260675 -0.3330616859133446 -1.7390330155711613 -0.641011267372313 -0.8111101490612748 -0.4279708638915464 -0.722024893250234 0.7385766355867819

layer1.bias f8 [32]
00000000: a7a8 e35f 3922 ccbf 4bf2 5204 1f8f dabf
00000010: a8ed 9cd8 0263 e1bf 9789 01a8 2a68 e4bf
00000020: 2578 a777 aae3 e6bf 0cee 54ab 5598 d03f
00000030: f200 853e add8 c6bf 0f85 2382 5000 e13f
00000040: e6d7 06d4 efa8 d0bf 70ea 698f e489 e2bf
00000050: 91df b7eb 5409 e2bf aec3 8fb1 efbd e13f
00000060: 46d6 b099 df51 f1bf a8df 9b11 3455 e4bf
00000070: 51bd 537c 0830 afbf 5a21 8aac 0ca2 e2bf
00000080: 4a56 7e09 0f7c 48bf c36f 4b66 7c5f f3bf
00000090: ebf1 699c cb15 eabf 9fbf 8e74 b881 cbbf
000000a0: 72e6 1e25 bcb4 e9bf 5065 fba9 4c17 ccbf
000000b0: 2ea4 546b 80ec 8c3f 4050 f339 56da e13f
000000c0: 7cdf 0941 eeb7 de3f eb0c 33ac d7cb e2bf
000000d0: add5 e15d a4ab d4bf ec44 4a40 6051 e1bf
000000e0: 022f b010 e569 8b3f 4fb5 8d94 91f2 d4bf
000000f0: 342a dd00 ea74 e6bf c439 7819 4e19 f5bf
-0.21979443723768563 -0.4149854223467499 -0.5433363180849726 -0.6377156525962161 -0.7152912461276669 0.25929776889435696 -0.1784874491950244 0.5312883893749659
-0.26031108575568707 -0.5793326188134653 -0.5636391261932535 0.5544355838775255 -1.0824886325402914 -0.6354008048938242 -0.06091333882965933 -0.5822814340508942
-0.00074721082909219 -1.2108119960675914 -0.8151605658491098 -0.21489625636376972 -0.8033123707784411 -0.21946104335692462 0.01412296607539262 0.5579024440617175
0.47997623778746124 -0.5873831141729203 -0.32297619980030384 -0.5411835914293568 0.013385572025093054 -0.32730521685774233 -0.7017717377542056 -1.3186779971034506

layer2.weight f8 [16, 32]
00000000: 8cdf 459d 3ca8 8d3f f6b8 cf76 e3c9 cdbf
00000010: 1f92 531d 6830 d8bf 75ef 617d ae52 d8bf
00000020: 462d f2b4 3708 c0bf 8b5f 0097 75e9 a5bf
00000030: 2d41 05cd a72d bebf 18ca 607f 1c04 c53f
00000040: eb94 3e92 f76a debf d7ce 2a48 2a47 cfbf
00000050: df8c 8212 073e 9ebf 4838 b389 fd99 d9bf
00000060: 0202 2ac0 4bf8 d5bf 2673 dff9 4e80 bdbf
00000070: d4b8 26b7 a18e 96bf 750b e8fd c0e4 be3f
00000080: d5a1 2c3f 52df 96bf 98b9 c559 4e1f c1bf
00000090: c394 6764 3224 d9bf 004d 093a 943a 84bf
000000a0: 7ea6 6ce6 2061 d8bf 5d0e 8823 ccc3 aabf
000000b0: dece 294a ff28 c2bf 74c7 6dbc 0f69 bf3f
000000c0: b4d4 63e9 5e89 cabf 1270 add7 ff06 cdbf
000000d0: a25e 7b34 01d4 a7bf 6d86 9091 615a c8bf
000000e0: b5c2 3c30 fdb1 d3bf 548b bd51 bda6 cabf
000000f0: 86f3 bd00 6e35 d0bf de17 c108 72d5 c4bf
00000100: 2e97 2ad4 adcb cabf a93a 0607 296a c5bf
00000110: 5c8b c666 65c6 ddbf 8025 bd87 cee0 b6bf
00000120: c3cd d9d0 84a9 b9bf a00e b191 3682 e1bf
00000130: 8cc7 fd0a c40e bebf fafe 976a 9fd4 dfbf
00000140: 9fab a226 6ccf d9bf 001b baa3 8ea9 c0bf
00000150: 0540 8114 ea60 c23f 2d7a 6e80 316b d6bf
00000160: 421c ba9d 1eaf d4bf abf8 1a62 24e6 aa3f
00000170: efbf 3985 86cf d9bf a2f9 28c6 3ed6 99bf
00000180: 094a 8496 889c c1bf 5f6c 8551 3713 d4bf
00000190: 8980 ed8a 4cfe c53f ae24 9947 8e08 e2bf
000001a0: a4ac 2c06 4caa aabf 5472 e118 64de b1bf
000001b0: 312c 301b 6dcd d1bf 2435 253a b87d c23f
000001c0: 5df0 66fa 90e1 c3bf b2fd 6f4a 1fcd c13f
000001d0: 9155 c632 907b dbbf 3441 27d4 b1b7 c33f
000001e0: f84f 8810 178d ce3f 338b dc13 183c a03f
000001f0: 6e92 9ac7 8027 a83f 9d29 1446 6336 d6bf
00000200: f557 883a d0f2 f33f e825 e87e b7fd c8bf
00000210: 293c 269d d878 d13f 7716 4177 76ad e93f
00000220: 29a2 708c bb5f ec3f c413 7f99 f864 fbbf
00000230: feb2 e713 5c95 e73f cd0d 5955 b435 cdbf
00000240: 7add c808 9c97 c1bf 6129 0da7 5df5 e03f
00000250: 097c 12ed f1c9 f53f cc8e d6e4 8df5 fcbf
00000260: 2393 e9c2 c68b e13f 83c3 8372 c848 bdbf
00000270: b5cc 4006 41ad e6bf e378 408b 2027 d53f
00000280: 14f3 2bd5 f51b f1bf ae5b a15a b8bd e73f
00000290: 2beb 67c5 9791 02c0 c782 79b9 c68c f9bf
000002a0: 5878 75eb 3e1e f1bf 5f15 377e 345b abbf
000002b0: a74b d9d5 ff3c b7bf 1664 e798 5cc1 dabf
000002c0: 07f9 7e9d 7427 f8bf 1d41 ab36 e188 e13f
000002d0: b73c f863 9282 d73f 9404 46af b7a8 d23f
000002e0: 618b 2f4c 0148 d33f aeea 6a9f c243 8cbf
000002f0: cf79 38eb c6a8 c9bf 693b ae29 0321 e2bf
00000300: 7f20 e029 3c7d c3bf 48ea 5ec2 aab6 b23f
00000310: 364f da1c fad7 d5bf 6a7f 4bce e82c c53f
00000320: 87c6 b7eb d531 b9bf 23a2 0e32 8a32 d5bf
00000330: 5c8b 0bc0 6808 c9bf 620f 8ff9 366c d5bf
00000340: ca0b 11dc 67c9 d6bf 7be2 c900 4b5c 77bf
00000350: 84d8 8b3e 81d8 b23f 9852 f76c e7d1 a6bf
00000360: aca1 4f9d d901 d8bf 7840 07e5 bc7f d3bf
00000370: 9634 5c3b 833c 98bf df6a e595 9f2c bd3f
00000380: 7263 4d04 886b cc3f be79 bc8d 0fe4 d2bf
00000390: 13a7 7b13 453b d8bf 6c97 6f4f 3b48 cf3f
000003a0: 052c 78c5 c1f2 cbbf 3782 3437 8dc5 c0bf
000003b0: b6a0 6ee2 9914 babf 5012 8aca d8e0 d0bf
000003c0: 92c3 f7f2 d5d6 c1bf 5710 a012 9e48 d6bf
000003d0: c046 f8a2 f2e1 9cbf 7eb8 8c12 619f 7ebf
000003e0: 889b 60dc 9390 6f3f 168e f042 a0c5 d4bf
000003f0: 913d 5ae2 b945 cabf b46c 5901 d66a c03f
00000400: dcbb a301 7344 f53f 9d0b d20a 95c2 f23f
00000410: 7065 d8a5 8104 d43f d7b0 380a f843 febf
00000420: a3ff b68b be70 b33f 6641 59c1 9995 d0bf
00000430: 0a79 1dee 6ce1 e73f 8b02 069e 9e89 e9bf
00000440: 1c8a 75c7 ade4 f9bf 8d08 b67b b5b7 f4bf
00000450: bcb0 6d9d 01fc c13f d4ae 1ff9 627a c73f
00000460: c2fe e33e 7369 f73f 72cf 450b 9640 edbf
00000470: 1453 a61b d6fa d93f 73cf d315 ec1b f8bf
00000480: 85a7 f6ea 1e2a d33f dc77 9854 4501 fbbf
00000490: e8ec 3af1 d8b4 da3f bbca 15bd e662 e1bf
000004a0: 16fd d56e ead2 df3f ba72 b65a 71e1 d33f
000004b0: bc0d 3a7c 893b dcbf 3757 882c 6159 803f
000004c0: fe31 c9f8 2c79 debf 71b9 738c ad84 eebf
000004d0: 5302 b050 797b e8bf 0c1d d23b 50b8 e03f
000004e0: 1ec3 a500 c460 973f 11a7 ccd3 7a53 d5bf
000004f0: 31f6 a226 bbc0 efbf 1627 217c 8a7d d13f
00000500: 00b6 ff90 32f4 dfbf c566 be6a 8320 d6bf
00000510: fda5 fb53 8ee5 f6bf 4c66 1ef6 ad5b bebf
00000520: b294 f940 d7d0 f7bf 19bd 0c71 f551 d93f
00000530: 8c08 729e a8c7 d43f 7322 3d35 9ee7 01c0
00000540: 1d7d 24a6 1304 be3f d3b3 29c8 befd ed3f
00000550: 375e 98c9 1241 c3bf 44ee fb77 964f d33f
00000560: 7a26 fafb 195f f03f f3c7 9f4b cb94 e3bf
00000570: 27ad fd9f b858 e23f 176c f3ff dc72 a0bf
00000580: 3ba4 cba4 8948 80bf a76a c9b6 b27d f23f
00000590: 6292 c9d0 adcc b5bf 98e1 69fb c417 e83f
000005a0: 4021 6c20 d838 cd3f 24d2 b575 a96d e53f
000005b0: 3113 50ad 83dd d1bf b68b 5724 df33 f2bf
000005c0: 80e8 d246 e25e 1ebf d513 f719 467b d7bf
000005d0: a7a4 4ca1 c55d f8bf bc00 71ec 11c1 dabf
000005e0: 7a7d 5258 4833 bcbf e081 ec8c c549 f8bf
000005f0: b91a fe6b e422 f6bf 7b2c dfd0 ceaf dfbf
00000600: 5d55 ad94 86ba d93f 3040 ac25 acef c9bf
00000610: b19c 107b f0de d13f e56b 68fa 2112 ea3f
00000620: f82c f9a2 f44f e9bf 40d8 440d f7d2 e7bf
00000630: f547 4a0c b878 dd3f 178c a231 f45e db3f
00000640: 269b 6691 0910 debf 7751 3e25 40c0 f13f
00000650: 9ca1 ba5c 3c69 b8bf 948e 9ccd 3ca0 d13f
00000660: 91d3 243c ceca c6bf cf1e 290d 53df ba3f
00000670: 2fad 98bb b3ea d9bf b531 a0ea ac05 b83f
00000680: 7b9b aa92 8a5a f2bf e41b ce2b 6121 e4bf
00000690: e170 ea1f bc65 f1bf f1c1 85dd d864 e93f
000006a0: 2fbe caab afa1 dcbf 0602 0bcb 8a69 e4bf
000006b0: 7fa3 8de8 1f57 e53f bb76 58ad 809e e63f
000006c0: e3f1 3350 5eed dfbf 42cc 9adc 74d8 f43f
000006d0: 17df 1ef1 bda4 bc3f 7f9c c762 27d2 e73f
000006e0: 3a0a 667d 2366 e9bf f448 3b59 6bdc f13f
000006f0: 7461 c43e d37d 92bf 9d9e b22e 6b7c c0bf
00000700: 039c c13e 5ba0 b53f 6ba1 4002 f612 fcbf
00000710: 36f3 8dba 34d2 d03f 89cf 560c 0f65 c9bf
00000720: 7c16 5e4c 8d3f 02c0 8a6b 5fa5 8df2 d73f
00000730: 6b6a 2a38 0309 cc3f ae3f fc01 0bc3 f2bf
00000740: c942 c278 ce43 f23f 9af4 cc6a 81ef e9bf
00000750: 7aca 46e0 7a40 f4bf c234 15ee f9df d83f
00000760: 74a3 a748 230f d5bf cdaf 74f5 5fc6 cb3f
00000770: 0650 1c3d 7fde dfbf 582f 70ef 7c49 e43f
00000780: 3fbc 8c35 2b41 dabf 29e1 0b81 760f d1bf
00000790: b1f9 be40 1aa7 ee3f 7921 0ecb 7213 af3f
000007a0: 12b9 1c5d 4f15 c33f faee b546 2097 c53f
000007b0: dc02 ff73 26d9 d8bf 2ae2 2cf9 b3ef aabf
000007c0: ee40 4234 896e e0bf caf7 ea59 7344 dd3f
000007d0: 572f cb55 d84b e53f 4ac9 d768 69f1 ccbf
000007e0: 0850 6ea4 1e47 e63f 82c8 23bb 0121 d93f
000007f0: 4afd b3c3 ed73 ce3f 5761 2efe b7a5 d83f
0.014481042432393364 -0.23272364903772996 -0.37795451034461 -0.38004648441687233 -0.12525078139547413 -0.042796778376383925 -0.11788414721855096 0.16418796748764986
-0.4752787521523049 -0.24435928844251606 -0.0295334916160187 -0.40002382704995343 -0.3432797791101906 -0.11523908234034916 -0.022028471759477267 0.1206780071152432
-0.022336278062683085 -0.13376788504997417 -0.3928342800630384 -0.009877355595711013 -0.3809282541502411 -0.05227506574376826 -0.14187613602881916 0.12269686079323866
-0.207317222557014 -0.2267761042702437 -0.04653934255264615 -0.1902582131161127 -0.30773858748129196 -0.20821348658781835 -0.25326109001598984 -0.16276383807615863
-0.20934079036413195 -0.16730225413308134 -0.4652341369311921 -0.08936777891098835 -0.1002429017915381 -0.5471451612033498 -0.1174128081163685 -0.4973524609522283
-0.40328506253234225 -0.13017447466355492 0.14358259202208515 -0.3502925638403294 -0.3231884517958329 0.05253709504676015 -0.40329134950934437 -0.025231343121271295
-0.13758952474070466 -0.31367285691312036 0.1718230894430273 -0.5635444067385345 -0.05208051276562145 -0.06979966742933047 -0.27816321997733257 0.1444616588509372
-0.15532123781838694 0.13907233366624677 -0.42941670378180513 0.15404341563272228 0.23868072802781604 0.031708481239795104 0.04717638432092462 -0.3470695671427622
1.24678061355871 -0.19524282166120988 0.2730008635198283 0.8024246529755165 0.886686109825921 -1.7121511455491012 0.736982382657146 -0.22820142905594168
-0.1374392550367068 0.5299518835757163 1.3618029842980397 -1.8099497736920283 0.5483125502474632 -0.11439183040398686 -0.7086491701251335 0.33051313017666767
-1.0693262412089029 0.7419091959117077 -2.3210902616823623 -1.5968692059615692 -1.0698842237102522 -0.05343021431648753 -0.09077452631872394 -0.4180518620683541
-1.5096326973139769 0.5479589526894731 0.36734447252906527 0.2915477000861497 0.30126984062206047 -0.013801117410698307 -0.20046316609746248 -0.5665298284601309
-0.15225936932279535 0.07309977765445652 -0.3413071901097625 0.1654330260562305 -0.09841668133574376 -0.33120970619578055 -0.19556912781907954 -0.33472990389804214
-0.35604282847287705 -0.005703251820357576 0.07361610199936491 -0.04457019047882688 -0.3751129184952571 -0.3046715008358727 -0.023668337343270972 0.11396214875768916
0.22203159532616784 -0.2951697239058396 -0.3786175432456826 0.24439183596330893 -0.2183458532529984 -0.13102879710733514 -0.10187684801224148 -0.2637235620425473
-0.13936876643813584 -0.3481822187316132 -0.028205672451867114 -0.007476214589401063 0.0038531196505746136 -0.32456213509633025 -0.20525287201278933 0.1282603746975376
1.3292112411543178 1.1725054190326099 0.31277505107717385 -1.8915939711833312 0.07593909178740303 -0.2591308963938189 0.7462677622495744 -0.7980492674251577
-1.6183297911999324 -1.2948508102859109 0.14050312220513728 0.18342244304891742 1.4632446724571513 -0.9141340465707641 0.40593483638922234 -1.5068169453270144
0.2994458479466789 -1.6878102592959214 0.41728805120119583 -0.543322915369877 0.497248275983979 0.3106349359384627 -0.4411338532592841 0.007982978030706895
-0.47614597602367315 -0.9536960356906957 -0.7650724960258891 0.5224991958974967 0.02283006910278395 -0.33322020228898547 -0.992276740514802 0.273287411899774
-0.4992796340946768 -0.34573445724673163 -1.4310439377389905 -0.11858641871222025 -1.4884865320284857 0.3956273654939238 0.3246861979788569 -2.238094726494006
0.11724970632757388 0.9372247609550136 -0.1504233822204115 0.30173265187452025 1.023218139920941 -0.6119133450540616 0.5733302235434267 -0.03212633728409047
-0.007950854627283835 1.155688013087152 -0.08515440318439851 0.7529015455648276 0.22829724867939127 0.6696364687946397 -0.27914516377522874 -1.1376639766319676
-0.00011585479815581952 -0.36689903770121407 -1.522893552852375 -0.4180340584753244 -0.11015751034073232 -1.5180106644476083 -1.383518621297908 -0.4951054610980418
0.40200962561842407 -0.20262672271246762 0.27923213975959543 0.8147134676722741 -0.7910102065156073 -0.7445025691183744 0.4604930992146586 0.4276705250469503
-0.46972884368226386 1.1094361738988405 -0.0953557707204084 0.27540512160542474 -0.1780641359015616 0.10497016021065096 -0.4049500782009145 0.09383660057228023
-1.1471048096807113 -0.6290746551102271 -1.0873376127920482 0.7935604406939644 -0.4473685434013274 -0.6378835645373904 0.6668853323036358 0.7068484674125196
-0.49886281807246585 1.3028458230371744 0.11188876282437508 0.744403546265758 -0.7937180947486191 1.116313313065402 -0.0180581099567418 -0.12879695682680828
0.08447809488426121 -1.7546291435229147 0.2628299543210234 -0.19839656927581142 -2.281031223889668 0.37417927884751434 0.21902504198517944 -1.1726179196884732
1.1415543286458834 -0.8104865156125414 -1.265742183761772 0.38867042780186634 -0.3290489396591092 0.21699141965052463 -0.49795514076072356 0.6339707066085607
-0.41022758702724 -0.2665687809199136 0.9578982605524314 0.0606952545995822 0.14908783003324594 0.16867450192136585 -0.38825379684207717 -0.052610038916501914
-0.5134931584052802 0.45730289250411416 0.6655084300668744 -0.22611730212481468 0.6961816035786805 0.3926395728623292 0.2379128652173484 0.38511466810588985

layer2.bias f8 [16]
00000000: e792 2f49 dd61 c5bf 66c8 fb6d 3027 c2bf
00000010: 029b f50c ee2f cdbf bce3 0e32 4012 b5bf
00000020: 7098 e37f eb68 debf 192b a782 f298 ca3f
00000030: 22c5 5628 504b 9f3f d417 9eb6 cc1b d53f
00000040: 129b 319f 50bc ed3f 4c5c 79e3 ebd9 b83f
00000050: 89de f21a 43e5 bd3f e865 5e26 e2dc a2bf
00000060: cee4 c39c ecaf bf3f 5a87 bc77 181c ef3f
00000070: b134 a543 3ae4 da3f 9b31 5b9e eff9 f03f
-0.167049084410926 -0.141820958807844 -0.22802520401747733 -0.08230973455546481 -0.4751538037220433 0.2077925813631161 0.030560734235853045 0.32982175668473457
0.9292376622441643 0.09707521728101759 0.11677951248099751 -0.03684145658844412 0.12377814128184925 0.9721796358682966 0.4201799069022157 1.0610195337095323

layer3.weight f8 [6, 16]
00000000: 79aa 20fd fef2 d6bf 56d3 e2a8 5190 ad3f
00000010: 0273 b06b 090e 02c0 9cde 2a8a 08f6 d7bf
00000020: 8526 220a 3934 f03f 0cb5 30e7 512e 0440
00000030: 6db9 1423 571b d93f b45b ed82 0ce3 bb3f
00000040: 7f5c 1457 2585 d53f 6fe8 65a4 5846 f03f
00000050: ab01 bb14 9d27 e63f fe79 d029 aa15 07c0
00000060: 9d48 de57 f449 df3f 0837 778e 589b ce3f
00000070: 1060 f2e5 0bde f3bf fed2 0d2d 4330 e33f
00000080: a306 2a68 abec d5bf 90c0 5f75 3930 d5bf
00000090: 5726 9141 a0b0 a33f 3839 6890 8c28 c2bf
000000a0: 1c27 a342 6ecc fabf 8d54 5bcc e4f8 fbbf
000000b0: 5fbc b608 e9bb ce3f 652a 49a3 9ead f43f
000000c0: e41b 8e61 f5c8 ec3f de11 280e c65e efbf
000000d0: 1dfa 7faf 0f16 e1bf d339 47bf cc11 e13f
000000e0: 76be 54a2 6561 e03f 7c97 9205 9a51 eb3f
000000f0: 38df 999b 8618 93bf c90a e0d2 49c8 c73f
00000100: cd99 f2fb 43d3 a43f e106 1312 fcf5 c93f
00000110: 020c cf24 167c f83f 4ffc c60e e8d0 d53f
00000120: dd4f 6a67 2443 03c0 ab3a 0748 6a31 f3bf
00000130: d10e 63d5 5704 d43f 04f7 ffdb a943 fdbf
00000140: 62f8 1f05 d637 903f c810 6fcb 13a6 d9bf
00000150: b23f e9b7 03e4 10c0 511c 5285 6d70 d63f
00000160: f042 3351 0237 07c0 4998 ab87 d6ca cf3f
00000170: eb5f 83ca b522 f23f 01ea 0ef3 253a ce3f
00000180: 1844 3f8f 888e d4bf 308b 2cfc 5ecb d43f
00000190: f0bc b0e4 bfc1 f33f 1677 0c22 6259 a7bf
000001a0: 6952 bbc4 ca99 e63f 6174 4d18 e6aa 00c0
000001b0: 8547 167f 6570 0dc0 1aef 4b34 6037 dfbf
000001c0: b1e2 2f18 aca1 ebbf f0df abbd c77c c1bf
000001d0: 4e3d e9bd 81ec ed3f 99b5 7f9a d97e d6bf
000001e0: 62be 6dc8 5dee cebf ff08 f2e5 02fd ec3f
000001f0: 8b3a 7604 ab30 e83f e679 580a 16eb f4bf
00000200: 1af0 252a a701 d9bf 4873 37a5 6c00 d4bf
00000210: 50b4 dca7 c68c e2bf 4dba c4ab 91da a6bf
00000220: f000 7b84 d2e5 fbbf 1515 8200 8d25 babf
00000230: 000d 480e 4f86 e43f 86c6 ade2 f8fc f2bf
00000240: d2e1 dfac f05b 00c0 100b 8011 28cd debf
00000250: 7255 a500 25cb d7bf a111 74e0 f2db e43f
00000260: ba48 34b5 ef5f f6bf 9168 10c8 4f98 03c0
00000270: 9656 f913 9e32 fdbf 40e5 84a6 4056 e3bf
00000280: 0bda 4dbb 4970 a83f 05e0 d29b a12a e1bf
00000290: a803 8803 3bc1 d1bf f573 7b52 d165 e3bf
000002a0: 35c8 0738 b86c d63f c572 f4ff b86c d1bf
000002b0: df4c e721 7b9b 08c0 b403 ca46 23c6 e73f
000002c0: 845e 4c38 548e e1bf 14dc 399c 2ba4 f5bf
000002d0: 7589 bc82 c1a1 e73f 9ac9 8fac 7e02 d7bf
000002e0: ee1e 4966 c86d f13f fb34 76a7 d31d fdbf
000002f0: a4f6 95d0 6c60 c93f 6684 08a9 df2c f8bf
-0.35858130187504106 0.05774169146153578 -2.256853905985168 -0.3743916844646067 1.0127497096858928 2.522617155240942 0.3922937243068166 0.10893324085678452
0.3362515783678148 1.0171743795204085 0.6923356442348924 -2.8855784670588482 0.48888882237327796 0.23911578136760903 -1.2417105657859828 0.5996414070092155
-0.34257016346246355 -0.3310683866720945 0.03845692444208442 -0.14186245967034394 -1.6749098399181497 -1.748265074032392 0.24010956693152516 1.2923876169540105
0.8995310693143179 -0.9803190495009024 -0.5339430263264294 0.5334228263762334 0.5118892832305864 0.8537111386146843 -0.018648246047148848 0.1857998160995378
0.04067432833226157 0.20281935579810464 1.5302945554583407 0.34087563937277293 -2.407784278804668 -1.1995642484286388 0.3127650817734607 -1.8290194123978276
0.015837997496412355 -0.4007615553530397 -4.222670434581163 0.35061204928974116 -2.9018598884361992 0.2483776247456169 1.133474150721663 0.23614954345778474
-0.3211995505235463 0.3249127829205234 1.2348021443574986 -0.045603815704664694 0.7062734453598526 -2.083446683753707 -3.679881089084065 -0.4877548704823639
-0.8634853813556075 -0.13662049065874227 0.9351204594803819 -0.3514923104074455 -0.24164936338955828 0.905885171043593 0.7559409224648602 -1.3073940662503616
-0.39072589031252536 -0.31252590307649486 -0.5796845701748996 -0.044636299341040166 -1.7436089682597036 -0.10213547956853504 0.6413951186117686 -1.1867607931748423
-2.0448926454375647 -0.4812717600727163 -0.3717739588076575 0.6518492111068107 -1.3984219625749987 -2.4493709211356607 -1.8248577862008566 -0.6042788746191619
0.04773168956210235 -0.536454014151787 -0.2774188551412018 -0.6061789141637052 0.35038571807592983 -0.272260904270109 -3.0759184502327197 0.7429367430305462
-0.5486241435600765 -1.3525806524828612 0.7384955933996894 -0.35952727176404553 1.0893024440319397 -1.8197819272493791 0.19825515923360115 -1.5109554865705603

layer3.bias f8 [6]
00000000: a23f d404 6200 dfbf 487b bd43 bf46 e33f
00000010: 5245 d5ad 0853 ea3f fd6e 9333 c54d c23f
00000020: 8158 8ffa 5279 f0bf 08c0 8f4e 3d6c e1bf
-0.48439836951819804 0.6023861239481016 0.8226359744241256 0.14299836176257222 -1.0296201503274747 -0.5444628271488918
