attack_soft_generative_decision_tree/experiments/wine_red_params_state_dict/fnn_adt_epoch81.pth (torch, 10399 bytes, 6 tensors)

layer1.weight f8 [32, 11]
00000000: e427 6084 59f7 eabf ee5f e00f 89d0 823f
00000010: 02dd 3844 9de0 cdbf a4b0 b874 81fa e83f
00000020: c707 8804 83fe b5bf 4ac8 b272 d4c5 d4bf
00000030: 0646 28f9 5f5f c1bf e053 0536 a3cc b7bf
00000040: e1ca 2d93 b6eb e2bf 7fef 72f1 8912 01c0
00000050: 66e3 a91e 667c e03f 9ac2 6f36 c7d9 bd3f
00000060: aa68 61a9 d06d cf3f 864b 56bf 9463 f23f
00000070: edba a872 ff4d df3f 5271 b115 3c19 f4bf
00000080: 1ae5 1ec5 7a4e e73f 632b 2848 a09e d3bf
00000090: d238 1ede 8c23 dfbf 302c 3603 494f debf
000000a0: f9a0 3691 9ba2 f33f 479e a4f9 dfb9 d73f
000000b0: 931d 56a1 6fb2 e73f 7578 9641 2bee dbbf
000000c0: a575 27db b294 efbf 3e36 fa05 53e8 e73f
000000d0: ae86 14b9 4f02 e7bf 4d0b 202e 97be ca3f
000000e0: ae91 967c 886c cfbf dfe5 042b 14de f4bf
000000f0: c153 0462 8804 e03f efc5 1cb9 85b1 db3f
00000100: 29e8 168a a893 d93f 9ef6 a510 d0b3 e3bf
00000110: f059 c793 20cb e7bf feeb 2300 da93 c33f
00000120: e401 f06a 4263 f3bf 3268 5a85 fe05 c6bf
00000130: deca 7b81 ee6c dc3f 2165 0cd6 27c4 f0bf
00000140: 93b0 5a26 ff39 d63f d1c2 1572 0b94 f1bf
00000150: cb74 7a5a 1632 cd3f 4516 1e69 f3ee f2bf
00000160: 8fa7 2797 f3af e63f a30f a978 a56f e5bf
00000170: 9a81 c5f5 1dc3 f5bf 6c7e 8035 e09d ffbf
00000180: 4221 1a5f ca73 afbf b425 de1b 49c8 d9bf
00000190: 700e 4389 92d1 733f dd00 9aa0 b6c0 d53f
000001a0: c55f 07f6 64d1 ce3f 9cd5 b72d 39b3 d43f
000001b0: aa61 5bfd 2b63 d8bf 40d2 052b c305 f2bf
000001c0: b473 c8b2 a79e cabf 8f11 201e e2df 70bf
000001d0: eadb 6054 b45b a9bf ab75 4239 c907 d63f
000001e0: 1638 942f 5409 d63f a085 3c56 812a b03f
000001f0: 4b27 6137 b561 ca3f d38f ce6a 9780 de3f
00000200: 9c50 32ab ae61 e63f ac40 d2d8 cf37 eabf
00000210: c5a6 f745 c570 e0bf ccfe 0a18 8821 d03f
00000220: 1432 2a9c 0393 dcbf 4a0e a92e fc3d d83f
00000230: 991f 988a a112 e43f 0a74 2886 75f0 d63f
00000240: 1688 2ab3 2e52 d83f 8c5f a69d 5d3d eb3f
00000250: be42 6ec4 12b4 d5bf 35e8 6a8b 0e72 e0bf
00000260: edab 801c 52ad b03f 9880 6fa6 a10b f03f
00000270: e507 9df2 d5fe d03f deb0 f8ad 9805 c43f
00000280: c383 d5af 6ff4 e8bf 9455 c6e7 33c4 df3f
00000290: 9e53 f18c 7054 bc3f 1f33 ffe4 8122 e3bf
000002a0: ff16 c938 fb2c ca3f 8ff5 af1a d6f2 cf3f
000002b0: d8ce 19dd 53f9 d33f 5c94 ec03 55c4 f73f
000002c0: 24c1 db85 3544 a2bf 1e0e 4793 ed40 e5bf
000002d0: a830 26bf 3100 f1bf c8a0 f3d9 71df e53f
000002e0: 5b91 7c50 3eb0 f03f f252 2169 2922 e23f
000002f0: cfd1 26ec 821e d43f 4e77 8a1a 5435 e23f
00000300: 10e2 c95e 5642 f9bf 8800 496f a549 d7bf
00000310: 696d b69d 6c03 ea3f 25d4 ea76 d881 d1bf
00000320: e934 23f2 f9fb c63f 6f31 bdda 2728 fc3f
00000330: ccf5 abb2 095e c5bf 8513 88ac e990 c8bf
00000340: 39d1 89e8 8127 e93f 6a67 7718 5ada dd3f
00000350: cb81 7601 ab55 e2bf 1754 7b42 e4a3 ec3f
00000360: 63ce d0e3 bdcf cf3f 51ed d37a cdda d03f
00000370: db84 a315 8157 ea3f 5eed 5a4f 67b6 e7bf
00000380: 04be 8f7c 8480 dbbf 7401 b9d5 e65b febf
00000390: e578 0b1d 2e54 e63f ccfd 4d6a 44c2 eebf
000003a0: e031 99da 7604 bdbf f232 65b2 ff75 e83f
000003b0: e73c de80 4aec db3f 02b5 0bf4 847e e93f
000003c0: a6dc dfc3 9795 ec3f f12c 0ac9 820a d63f
000003d0: b889 5990 67bb e73f 61a9 7894 00a6 d13f
000003e0: c4f1 a6ec 0f71 a9bf 8934 2943 d7a0 d1bf
000003f0: e989 aa87 a79c f4bf 4c9c a993 bf1c df3f
00000400: 4b65 87d1 9f5f f23f 5cb1 09c5 3406 b73f
00000410: 816c 58d0 47d2 dd3f 52d3 3624 10c1 d33f
00000420: 34cf 858d c5bc ed3f 8032 ba1d 3ff8 e13f
00000430: 4287 6ccb 4023 e93f ecb9 0b48 42cc e1bf
00000440: 7168 1afe b391 dc3f 30b1 fbc9 84ec ce3f
00000450: 8373 0c67 a507 f03f 933f 90db 9dc9 e93f
00000460: 61b9 02d2 ba37 cb3f 5c2f e926 93bf 7a3f
00000470: 8fd6 a3a0 97be a5bf cbb7 d296 8896 ea3f
00000480: 38fd 26a5 83be e2bf 400a a458 507e 8fbf
00000490: ca0a fb69 43c3 e6bf e3a1 2dea cb10 b7bf
000004a0: 0e32 9884 6bfb e63f 1d3c 57a2 a33d da3f
000004b0: 29d3 e75b 9c22 d4bf 1800 638f d838 a53f
000004c0: 9838 9979 89f7 fbbf c109 4d67 e731 e63f
000004d0: b141 1aba c2ff d13f afff 6187 2e3f e73f
000004e0: 4ad0 7c45 50e7 f63f 46e4 383f 9097 fabf
000004f0: 5d5e e376 fec6 d63f c1b5 2926 ed0b e53f
00000500: b3b1 23fe 8d62 e8bf 8d65 7153 62c4 e63f
00000510: ae84 cd6b fab1 d03f bb45 423a de81 cebf
00000520: a582 be4c 5653 b53f 5e1e 33dd 056f e33f
00000530: b207 07c6 8421 fbbf 4317 718a ae33 dfbf
00000540: 481a 65f4 cdb3 e93f c920 7160 9902 eabf
00000550: 34c9 4fb4 f150 ddbf 5777 39ae 7d9a de3f
00000560: 5bf3 b67e d669 ed3f 4cba b780 679f 97bf
00000570: ecc6 d21e 898e e93f d0d4 bd93 2292 f23f
00000580: 0b74 fc7e 8576 e0bf 63da 19f9 6915 f3bf
00000590: 6ed5 59b8 0dda c43f 2796 0930 605f e0bf
000005a0: 5673 c260 f459 d4bf 39a7 69fd dc9e d9bf
000005b0: f04b f700 0867 e03f 5242 3c15 3a44 bebf
000005c0: 0525 febf 9132 f03f d7ab e877 87a7 e5bf
000005d0: b031 c752 d7db e0bf d78a c30f d86c ee3f
000005e0: 27bb 035c da16 bdbf 7c85 f43b a1da d7bf
000005f0: e423 6119 5756 e63f 3a2a a8d6 75e1 cf3f
00000600: 36c4 eacf 53ae e93f 3a78 375e dd8a f43f
00000610: 10ee bd65 5aa0 e0bf b8cb fce9 236a c83f
00000620: 1681 b73c 3740 ef3f 8f2a 0315 4f49 c03f
00000630: 33ec a2c1 4cb8 e83f 7f75 84e5 c10b ea3f
00000640: eaef 5a48 e8ae 9fbf fb51 5637 b45b d0bf
00000650: 8630 acf4 e85f f3bf fc2f 2578 85c1 dabf
00000660: 3f55 046d b9bd d23f 32a9 366d 8471 b63f
00000670: 3a21 6838 28bf e83f 647c 6657 fa04 f7bf
00000680: 11f2 8d33 da28 cbbf dcf6 439f e3c5 e6bf
00000690: 592e 6dea 1f9a c93f ee4c 24b3 3c32 f2bf
000006a0: e34a 031d 90a7 e2bf dea1 c1cc 6c5b d5bf
000006b0: de65 6d9f ca6d f03f 92ec bc52 2b1b debf
000006c0: 9277 3393 d3f9 b1bf 3978 62c3 4e07 e3bf
000006d0: 712c d6bf fb46 e83f f62a d085 9e34 e2bf
000006e0: e5c3 0f7c aeb2 c7bf ea48 b1b8 8a81 e6bf
000006f0: 31a5 40f6 f2e3 d6bf c1f3 a502 f327 c93f
00000700: 8504 40af 7103 c63f 3451 de17 8fac f9bf
00000710: a4cf d7e3 631f d5bf e4af 9ac5 f416 d43f
00000720: 4e0d e8fa 67c5 e83f d657 b453 3fa6 bdbf
00000730: e2cc c3be e764 e7bf 342e 20dc f09a e13f
00000740: 69b6 c6e1 352c f1bf eb32 825b fab0 f2bf
00000750: b3fc dfa6 5c2a d93f cecb 185e 792b c8bf
00000760: 2827 089a f2fd f13f 6f8d 5e8b ff75 d1bf
00000770: 8351 eaf7 1880 c23f 2624 f528 dc78 c23f
00000780: 8a56 6ee5 ca8e c93f c54b a224 6934 f4bf
00000790: 2c78 9d2a 9ee5 ca3f e15a 6fee c5b3 ba3f
000007a0: 062d 8269 96ca c23f d0e8 6e97 3358 e93f
000007b0: 256f 261a 4646 e8bf 90d4 4eff 6a5e debf
000007c0: 1103 34bd a889 efbf 5ae4 80d1 8f88 cebf
000007d0: d06d 885b 247b fbbf be48 0116 5e42 e3bf
000007e0: 6ade 9c38 0fc6 ecbf 00ff 7b54 76b6 dabf
000007f0: 6b3c 0099 1d9a e7bf e37d 2356 628b e93f
-0.8426940522633655 0.009186812207232688 -0.23341718512686077 0.7805793075290421 -0.08591479168538206 -0.32457457734119954 -0.1357231108273 -0.0929662711035486
-0.5912735819423142 -2.1340521681976834 0.5151854132555911 0.11660428122537284 0.24553879042179477 1.1493117784600329 0.4891356105535312 -1.2561608168972112
0.7283300256741854 -0.30655676886151734 -0.4865448159333826 -0.47358918489107094 1.22719914173109 0.3707199037475885 0.7405317450620025 -0.43641168026977734
-0.9869016914705538 0.7471099011178877 -0.7190321554991976 0.20894136192517934 -0.24549966891676206 -1.3042184524950853 0.5005533136742245 0.432710104726623
0.3996373508958891 -0.6156997990762709 -0.7435458074858712 0.15294957167483852 -1.2117332627532216 -0.1720579291475715 0.4441486610877926 -1.0478895531908352
0.3472898363641061 -1.0986437279172387 0.22809104364288255 -1.1833376032021914 0.7089784576648855 -0.6698787075661027 -1.3601359940003932 -1.9760439004820922
-0.06143028651155415 -0.402849461760151 0.004838535696936583 0.3398872917532694 0.24076520932317017 0.32343892540606034 -0.3810529684247067 -1.126406829888893
-0.20796676854743412 -0.004119761726546391 -0.04952777414330696 0.34422522155531493 0.34431938787827343 0.0631485782182808 0.20610680774762566 0.47659860067710474
0.6994241088564368 -0.8193129763403895 -0.5137659422445827 0.2520466074747503 -0.4464730286643157 0.3787832694690435 0.6272742945593449 0.35842645741814805
0.38001601692860854 0.8512409285640259 -0.3391158025997746 -0.5139229510307418 0.06514466472496823 1.0028397084607032 0.26555393879618655 0.1564207887144055
-0.7798384126909855 0.49635026582958486 0.11066344681724025 -0.5979623291583244 0.2044977214119896 0.24959827712147528 0.3120927485644933 1.4854326394354507
-0.03567664393438211 -0.6641757847323253 -1.0625474421276895 0.6835259682530017 1.043028177643541 0.566670136768691 0.31436226903613557 0.5690098303200359
-1.5786956503562841 -0.36387000911418754 0.8129180031132083 -0.27355014431970154 0.17956470797654525 1.7598036331647469 -0.16693230842785878 -0.191922387355728
0.7860726873173355 0.46645214452075 -0.5729575184414498 0.8950063036414829 0.24852727531252858 0.2633546542635559 0.8231816694862134 -0.7410160589128443
-0.4297190872593719 -1.897436938146794 0.6977758948594582 -0.9612142635596057 -0.1133493694007437 0.764404152324998 0.43629705986763984 0.7966942564504793
0.8932608438180025 0.34439153321063914 0.7416265315371708 0.2757569742122055 -0.04969072116680054 -0.27544194754302304 -1.288245706506695 0.4861296598450664
1.1483457741472474 0.08993844805235568 0.4659595045683958 0.3086586335805822 0.9292934192767235 0.5615535336124395 0.785553357422238 -0.5561839491982119
0.4463930112339148 0.24159297811946479 1.0018667245232968 0.8058614052151704 0.21263823751855696 0.006530356228335279 -0.042469728812574485 0.8308756776584628
-0.5857561326628575 -0.015377643303968402 -0.7113358564314123 -0.09010004489176242 0.7181909169899556 0.41001215795125906 -0.314612474204568 0.04144932508779692
-1.7479338407461338 0.6935917871090213 0.28123539136961556 0.7264626163669073 1.4314730371816204 -1.6620027989977344 0.3558956299798178 0.6577058549279898
-0.7620305980358836 0.7114726667161207 0.260862927700212 -0.2383382591693087 0.08330287336003524 0.6073026008898059 -1.6956832633445456 -0.48752940673545114
0.8031987927759667 -0.8128172763472544 -0.4580654393058865 0.4781793786440764 0.9191696619887851 -0.023069016677192786 0.7986493684786331 1.1606775065568407
-0.5144679527471693 -1.1927280169017187 0.1629044675970976 -0.5116425455314059 -0.31799039315392486 -0.4003212427838779 0.5125770586840854 -0.11822855966989579
1.0123460292546167 -0.6767003385515363 -0.5268360726127437 0.9507866199386069 -0.11362995859574863 -0.372719105291331 0.6980395789806804 0.24906800252240818
0.8025301991348275 1.2839025192584033 -0.5195743548533205 0.19073914456529706 0.9765888391375792 0.1272372105216459 0.7724975377999556 0.8139352305185382
-0.030940656105244026 -0.2555971660997611 -1.2109155232929267 -0.4180616067212666 0.29282985349830776 0.08766963640542683 0.7733346082396004 -1.4387153066707237
-0.21218421475704521 -0.7116563902524962 0.20001601168256647 -1.1372649190641897 -0.5829544607789469 -0.33370513911952837 1.0268045642500208 -0.47040827827340437
-0.07021829932952375 -0.5946420494181047 0.7586649653252505 -0.5689232457674211 -0.18514042909330822 -0.7033132178569563 -0.3576629071054241 0.19653165463742364
0.17198010499126695 -1.604628651844064 -0.3300409054784217 0.3139011316040963 0.7740974331394825 -0.11581798356596038 -0.7310675359607581 0.5501636790590454
-1.0732935733207347 -1.168207509475162 0.3932105664861851 -0.18882672400067552 1.1244989411229174 -0.27282703981673867 0.14453422646750988 0.14431335449106192
0.19967018320737778 -1.2627955847753907 0.2101323803025833 0.10430562087217822 0.14680748130590632 0.7920167882614582 -0.7585783491844934 -0.47451281483092433
-0.9855540938734483 -0.238542535111068 -1.7175639701371104 -0.6018515043054078 -0.8991771798818722 -0.4173866105120254 -0.7375629413890129 0.7982646639247232

layer1.bias f8 [32]
00000000: 98f6 7cae 8530 cfbf 70b8 4616 97b0 dcbf
00000010: dcef c811 221d e1bf dcce c932 fb7a e4bf
00000020: d6fe d07d c136 e6bf f435 520f defd d13f
00000030: 8ae2 0811 8251 cdbf 7943 4b18 5c81 de3f
00000040: 1bb4 ba81 d520 d4bf 4728 c57a 1782 e1bf
00000050: e87d bcad 6b62 e2bf 825d 4407 f160 e23f
00000060: 00bc 8900 0e45 f2bf b406 d972 f1e6 e4bf
00000070: b48c 16cf aa19 9ebf e9b2 d897 5b52 e3bf
00000080: ce77 1921 71b2 abbf bb35 89b4 6674 f3bf
00000090: 3647 0ce6 cb50 eabf 0f12 299c a3e0 cfbf
000000a0: 17be 511c 032e eabf 74de 1910 3173 cbbf
000000b0: 364c 9174 4253 a1bf d96a acdf 6e9d e13f
000000c0: 0502 6bc2 1895 de3f e23f 6a48 a939 e3bf
000000d0: cf7d 082d 7ff2 d5bf 5969 682c 66e1 dfbf
000000e0: 3a0d d38e 5cc9 83bf 333b d20f ca14 dbbf
000000f0: 22eb df93 96f3 e7bf fe43 6b26 a281 f4bf
-0.24366827983788109 -0.4482782094518205 -0.5348062846528552 -0.6400123588523132 -0.6941840607978189 0.28111983772473015 -0.22904992896817006 0.4766454922910764
-0.31450402897718427 -0.5471303365568553 -0.574514235809997 0.5743336812910658 -1.1418590565697286 -0.6531913035507473 -0.02939478768315658 -0.6038034406425058
-0.05409577874227943 -1.2159182598291938 -0.822362851440835 -0.24904294133206448 -0.818116717635294 -0.21445287023719894 -0.033838345269622414 0.5504679077742721
0.47785014139302034 -0.6007887281757542 -0.34292582891245343 -0.4981322702093585 -0.009661410435347951 -0.42314387841263396 -0.7484848869492888 -1.281648778986209

layer2.weight f8 [16, 32]
00000000: 8cdf 459d 3ca8 8d3f f6b8 cf76 e3c9 cdbf
00000010: 1f92 531d 6830 d8bf 75ef 617d ae52 d8bf
00000020: 462d f2b4 3708 c0bf 8b5f 0097 75e9 a5bf
00000030: 2d41 05cd a72d bebf 18ca 607f 1c04 c53f
00000040: eb94 3e92 f76a debf d7ce 2a48 2a47 cfbf
00000050: df8c 8212 073e 9ebf 4838 b389 fd99 d9bf
00000060: 0202 2ac0 4bf8 d5bf 2673 dff9 4e80 bdbf
00000070: d4b8 26b7 a18e 96bf 750b e8fd c0e4 be3f
00000080: d5a1 2c3f 52df 96bf 98b9 c559 4e1f c1bf
00000090: c394 6764 3224 d9bf 004d 093a 943a 84bf
000000a0: 7ea6 6ce6 2061 d8bf 5d0e 8823 ccc3 aabf
000000b0: dece 294a ff28 c2bf 74c7 6dbc 0f69 bf3f
000000c0: b4d4 63e9 5e89 cabf 1270 add7 ff06 cdbf
000000d0: a25e 7b34 01d4 a7bf 6d86 9091 615a c8bf
000000e0: b5c2 3c30 fdb1 d3bf 548b bd51 bda6 cabf
000000f0: 86f3 bd00 6e35 d0bf de17 c108 72d5 c4bf
00000100: 2e97 2ad4 adcb cabf a93a 0607 296a c5bf
00000110: 5c8b c666 65c6 ddbf 8025 bd87 cee0 b6bf
00000120: c3cd d9d0 84a9 b9bf a00e b191 3682 e1bf
00000130: 8cc7 fd0a c40e bebf fafe 976a 9fd4 dfbf
00000140: 9fab a226 6ccf d9bf 001b baa3 8ea9 c0bf
00000150: 0540 8114 ea60 c23f 2d7a 6e80 316b d6bf
00000160: 421c ba9d 1eaf d4bf abf8 1a62 24e6 aa3f
00000170: efbf 3985 86cf d9bf a2f9 28c6 3ed6 99bf
00000180: 094a 8496 889c c1bf 5f6c 8551 3713 d4bf
00000190: 8980 ed8a 4cfe c53f ae24 9947 8e08 e2bf
000001a0: a4ac 2c06 4caa aabf 5472 e118 64de b1bf
000001b0: 312c 301b 6dcd d1bf 2435 253a b87d c23f
000001c0: 5df0 66fa 90e1 c3bf b2fd 6f4a 1fcd c13f
000001d0: 9155 c632 907b dbbf 3441 27d4 b1b7 c33f
000001e0: f84f 8810 178d ce3f 338b dc13 183c a03f
000001f0: 6e92 9ac7 8027 a83f 9d29 1446 6336 d6bf
00000200: 273d 74fe 0905 f43f 2630 668f 09dc c6bf
00000210: 23c2 6cc0 7085 d03f 7257 fb60 d508 ec3f
00000220: 6654 ae7b 2bb8 ec3f 563b 5573 8980 fdbf
00000230: ed33 8fb1 ca07 e43f 0bd6 0285 2090 d0bf
00000240: 8e4f 9f39 9d42 bebf 7843 cf97 2aa4 e13f
00000250: 7c84 eddc fbde f53f ab34 c31b 901d fdbf
00000260: be38 8a2f 86f3 e03f 263b 8888 694c b7bf
00000270: 1048 5fcc 59da e8bf 240c 8c58 26dd d43f
00000280: 5598 d474 66a2 f0bf f67d dbea f5dc e73f
00000290: 9663 d8c2 18bf 03c0 1556 556e d029 fabf
000002a0: 24f6 200c 0e4f f2bf 7c09 2b5d 56c0 b9bf
000002b0: c015 aedb 34ec aebf c283 c517 a4ad dabf
000002c0: 7cd0 693f 40b1 f9bf 8045 e0db 9d0e e23f
000002d0: 6fab e592 3c7c da3f 80e9 127c e765 d03f
000002e0: 449d b955 e182 d43f 47ef 989c be13 643f
000002f0: 5c96 6e86 015f c5bf 27c7 9f50 ba59 e2bf
00000300: 7f20 e029 3c7d c3bf 48ea 5ec2 aab6 b23f
00000310: 364f da1c fad7 d5bf 6a7f 4bce e82c c53f
00000320: 87c6 b7eb d531 b9bf 23a2 0e32 8a32 d5bf
00000330: 5c8b 0bc0 6808 c9bf 620f 8ff9 366c d5bf
00000340: ca0b 11dc 67c9 d6bf 7be2 c900 4b5c 77bf
00000350: 84d8 8b3e 81d8 b23f 9852 f76c e7d1 a6bf
00000360: aca1 4f9d d901 d8bf 7840 07e5 bc7f d3bf
00000370: 9634 5c3b 833c 98bf df6a e595 9f2c bd3f
00000380: 7263 4d04 886b cc3f be79 bc8d 0fe4 d2bf
00000390: 13a7 7b13 453b d8bf 6c97 6f4f 3b48 cf3f
000003a0: 052c 78c5 c1f2 cbbf 3782 3437 8dc5 c0bf
000003b0: b6a0 6ee2 9914 babf 5012 8aca d8e0 d0bf
000003c0: 92c3 f7f2 d5d6 c1bf 5710 a012 9e48 d6bf
000003d0: c046 f8a2 f2e1 9cbf 7eb8 8c12 619f 7ebf
000003e0: 889b 60dc 9390 6f3f 168e f042 a0c5 d4bf
000003f0: 913d 5ae2 b945 cabf b46c 5901 d66a c03f
00000400: 1f04 efaf 9c37 f63f b827 5502 a855 f83f
00000410: b70f c1ed 9d81 d43f 0458 513d a787 ffbf
00000420: 7930 dcd4 1ff6 ba3f b0d7 8ffd d7a7 c9bf
00000430: 7c23 8fa4 3665 e73f 4b5e 747a 55c3 e8bf
00000440: 4677 444e 230d fabf 88f6 632a d0ab f4bf
00000450: 2bb6 6f7f 9d58 cb3f 503d 4b04 22a8 c63f
00000460: f82a e222 800d f83f 66e9 6ba8 c73a edbf
00000470: 8a11 8d1a c074 de3f 0cf1 5e79 265e f9bf
00000480: 5bef adf9 7bcb d43f 8d4f c25f 6a6a fcbf
00000490: b6b0 46a0 6498 dc3f 44e8 a104 64ed e0bf
000004a0: 82de be6d 782d e23f 239e b85e 33db d53f
000004b0: cbe1 deac 7062 ddbf d4dc 2551 ab72 993f
000004c0: 48e9 d447 2101 dfbf 348a 2a30 7fba eebf
000004d0: 5b50 8861 f2af e6bf 1bfe 5360 f976 e33f
000004e0: d85f 4a7e ff5b 8f3f a0d2 4c25 4646 d5bf
000004f0: 1920 4def a178 eebf da68 0b6e cbb5 d33f
00000500: a185 aa98 0dfc e1bf f4b8 4db8 4917 d1bf
00000510: 576e fa61 d85b f7bf b0cf e0db 613f c2bf
00000520: 97f3 1169 dbb8 f8bf eb0d 5725 6eb0 d83f
00000530: 5f32 3a69 57e3 d63f 7c81 1d8a 992f 02c0
00000540: a952 6d75 3f88 c93f 7035 b233 d607 f03f
00000550: 5cf1 e286 14ba c3bf 3577 7b07 f6be d33f
00000560: 6e93 0200 38f5 f13f dba8 bf13 0db1 e4bf
00000570: 3e62 9ed8 0409 e13f d4b6 31f9 6dd9 bfbf
00000580: 308f 7db5 aab2 a7bf 2a54 0f74 0687 f33f
00000590: 1598 3112 bcf0 c2bf bbf8 cd7e c29e e73f
000005a0: 615b b121 e66c c43f d378 6f4a 54cc e53f
000005b0: 331f ae99 681b d4bf e512 bba6 8c7f f1bf
000005c0: 1cc7 ee50 a082 9fbf 40f2 1ae1 58b1 d3bf
000005d0: 3821 a2f7 f7f3 f8bf 21e8 bfde f50c dfbf
000005e0: ec06 38b1 05b4 bdbf b1ba 3f2f 5dc8 f8bf
000005f0: 5390 5a96 0606 f7bf 440e 533f 77a2 debf
00000600: a3c9 638e d63d db3f dcd2 8e83 57c6 cdbf
00000610: 970b 8771 c1b8 d03f 949c fb3b 97aa ea3f
00000620: f582 b7ea 03a0 eabf 2e9c 5602 5b61 e8bf
00000630: caf3 0c0e cac5 dd3f 69b2 5fc0 8c32 d63f
00000640: 5816 0cb7 ef84 dfbf eb7b c7cf 8666 f13f
00000650: d3ba a8bd 13af c1bf 22a8 5aef 22eb d13f
00000660: 3f19 2de3 a143 cebf fca6 8819 a8e7 583f
00000670: 82c6 e764 5f7a d9bf 9b7f 2c22 d82f bf3f
00000680: ff72 4818 4f11 f3bf 7b08 7398 2448 e3bf
00000690: 14c8 7d66 0b41 f2bf 096a 77b4 e112 e93f
000006a0: 80f7 3edc 4ea4 ddbf 2183 52c2 dae1 e3bf
000006b0: fbc8 f7b6 4258 e73f 3206 bc5b 91b0 e63f
000006c0: a7d7 f5f8 fb0b dfbf b739 c672 fe86 f63f
000006d0: 803e 69cb 0558 c23f d5b8 3d86 8b9b e53f
000006e0: d83b b1b3 f263 ebbf 6b5b 33f7 691a f33f
000006f0: f785 a847 9031 a53f 1579 c0fb 0b14 cdbf
00000700: c0bd 6fdc fd99 a03f 9a83 7528 68b8 fbbf
00000710: 1c87 0813 939b cd3f 600f 6614 f668 cfbf
00000720: fbb7 cd69 3958 03c0 ec89 1a7b 4301 d53f
00000730: 7e94 a276 e893 cb3f 63c5 2722 7e05 f4bf
00000740: d0ea 57ec 0ce4 f23f d670 f9cf cd3a ebbf
00000750: 9acb 7349 4da9 f4bf 98c0 382b f1d8 d93f
00000760: ac90 7fbb 3901 d5bf 62b2 f124 7b8a c93f
00000770: 27ed 8ca2 07cf debf c8da fa2d 5e21 e33f
00000780: a01c abc3 6f72 e0bf 5abf 3606 e598 d5bf
00000790: 1a73 26c6 a713 f03f beb0 1e10 16d4 be3f
000007a0: e1d7 fb1e 2c63 ca3f 766d 98f4 d7d1 b13f
000007b0: 1190 fa3e 55ca d7bf dee3 1b67 c7e0 abbf
000007c0: a97d b33d bb59 e0bf 4318 3806 6fb2 df3f
000007d0: 6714 2a52 3876 e53f 0053 b359 4180 d1bf
000007e0: 7b48 3854 5248 e63f c952 a952 87f6 dc3f
000007f0: 93d8 ef88 2d3c d63f fabb b058 41f5 db3f
0.014481042432393364 -0.23272364903772996 -0.37795451034461 -0.38004648441687233 -0.12525078139547413 -0.042796778376383925 -0.11788414721855096 0.16418796748764986
-0.4752787521523049 -0.24435928844251606 -0.0295334916160187 -0.40002382704995343 -0.3432797791101906 -0.11523908234034916 -0.022028471759477267 0.1206780071152432
-0.022336278062683085 -0.13376788504997417 -0.3928342800630384 -0.009877355595711013 -0.3809282541502411 -0.05227506574376826 -0.14187613602881916 0.12269686079323866
-0.207317222557014 -0.2267761042702437 -0.04653934255264615 -0.1902582131161127 -0.30773858748129196 -0.20821348658781835 -0.25326109001598984 -0.16276383807615863
-0.20934079036413195 -0.16730225413308134 -0.4652341369311921 -0.08936777891098835 -0.1002429017915381 -0.5471451612033498 -0.1174128081163685 -0.4973524609522283
-0.40328506253234225 -0.13017447466355492 0.14358259202208515 -0.3502925638403294 -0.3231884517958329 0.05253709504676015 -0.40329134950934437 -0.025231343121271295
-0.13758952474070466 -0.31367285691312036 0.1718230894430273 -0.5635444067385345 -0.05208051276562145 -0.06979966742933047 -0.27816321997733257 0.1444616588509372
-0.15532123781838694 0.13907233366624677 -0.42941670378180513 0.15404341563272228 0.23868072802781604 0.031708481239795104 0.04717638432092462 -0.3470695671427622
1.2512302341090817 -0.17859000684654908 0.25814455787170426 0.8760783094573823 0.8974816718715715 -1.8438810830300176 0.6259511440235862 -0.25879681577075137
-0.11820395142359372 0.5512898411781029 1.3669394140236184 -1.8197175106500179 0.5297270706667161 -0.09100970824532037 -0.7766541473049546 0.325997911903132
-1.0396484912576132 0.7457227313097394 -2.4683089468275723 -1.6352085409065513 -1.144300505998566 -0.10059108519184251 -0.060395862404259315 -0.4168482048171961
-1.6057741620143409 0.5642842573599154 0.41383280129837535 0.25621974102582357 0.32048829433047765 0.002450821197980266 -0.16696185173093425 -0.5734530996980752
-0.15225936932279535 0.07309977765445652 -0.3413071901097625 0.1654330260562305 -0.09841668133574376 -0.33120970619578055 -0.19556912781907954 -0.33472990389804214
-0.35604282847287705 -0.005703251820357576 0.07361610199936491 -0.04457019047882688 -0.3751129184952571 -0.3046715008358727 -0.023668337343270972 0.11396214875768916
0.22203159532616784 -0.2951697239058396 -0.3786175432456826 0.24439183596330893 -0.2183458532529984 -0.13102879710733514 -0.10187684801224148 -0.2637235620425473
-0.13936876643813584 -0.3481822187316132 -0.028205672451867114 -0.007476214589401063 0.0038531196505746136 -0.32456213509633025 -0.20525287201278933 0.1282603746975376
1.3885771629723036 1.5209121790999074 0.32041118829897236 -1.9706184764122563 0.10531805941372054 -0.20043468361808214 0.7311051572843179 -0.7738444701853465
-1.6282074982950276 -1.2919465690496583 0.21364182207564517 0.17700600824034973 1.5032960283885455 -0.9134252824290285 0.4758758792197787 -1.5854859105157315
0.32491969473607235 -1.775980352457711 0.4468013348766918 -0.5289783564069315 0.5680505889385616 0.34150394678224155 -0.4591333091916822 0.024851490810274893
-0.4844439698678298 -0.9602657261605771 -0.7089778809481787 0.6082732087524535 0.01531219104917618 -0.3324141849764519 -0.9522256540158224 0.3079708647397986
-0.5620182019958301 -0.26704638479613085 -1.4599231555247536 -0.14255927311171268 -1.5451311210920033 0.3857684483193384 0.35762582088572076 -2.2732420721296744
0.1994704554914695 1.0019132632617946 -0.15411621652846008 0.30853033762638243 1.122367858924203 -0.6466126809803215 0.5323509436448786 -0.12441146215288806
-0.04628499474963943 1.220465138777636 -0.1479716385685498 0.7381298519756209 0.15957333226352957 0.6811925367180954 -0.31417288787678216 -1.0936399948997686
-0.030771737041226918 -0.30769941313682025 -1.5595626519371546 -0.48516604187864415 -0.1160281713164541 -1.5489169927274526 -1.4389711259073195 -0.47866612609889025
0.42564929871800866 -0.2326154129383643 0.2612765892665094 0.8333240672626681 -0.8320331177056618 -0.761884216849358 0.46519709941986476 0.3468353155756519
-0.4924887931414097 1.0875309101463653 -0.13815542946527745 0.2799765908663422 -0.2364389762171388 0.0015200749968564123 -0.3980940328029662 0.12182379564592198
-1.191725821357238 -0.6025565125967342 -1.1408800128524534 0.7835548901305752 -0.4631535673942082 -0.6213201327665027 0.7295239995567323 0.7090536872567041
-0.4851064616444724 1.4079575045940211 0.14331123764212705 0.6752374288460269 -0.8559506902328122 1.1939487129472706 0.04139376520857845 -0.22717428009577448
0.03242486301303016 -1.732521207850573 0.23131025723801535 -0.2453906631091014 -2.4180782571702344 0.3282021238502739 0.21545129578331407 -1.2513409933274822
1.1806763870396715 -0.850928217124898 -1.2913334721785987 0.4038660928808979 -0.32819979963665946 0.19953860572731502 -0.48138609766074797 0.5978232286496103
-0.513969309010367 -0.33745694739171983 1.0047986736528345 0.12042367833663811 0.2061514998710541 0.06960820886199834 -0.37172442579526527 -0.05444930204061625
-0.510953541288406 0.4952657280667873 0.6706811527989317 -0.27345308074772845 0.6963283200186788 0.4525469119301247 0.34742296574348436 0.43684419308823375

layer2.bias f8 [16]
00000000: e792 2f49 dd61 c5bf 66c8 fb6d 3027 c2bf
00000010: 8fec 9e2a 8fc2 cdbf bce3 0e32 4012 b5bf
00000020: 71af e8ac 4e02 debf 18dc 8764 3fb9 c93f
00000030: b6e7 5c0f 4260 a83f 517c a976 2516 d13f
00000040: fd93 59f1 dfd5 ee3f d0d5 4bbd c4b3 b13f
00000050: c441 4e8a f0cf c53f 8b1d 4ced 3f7d a4bf
00000060: 8d2f 7978 caf4 b93f ee30 a28e 8b09 f03f
00000070: bed4 509a 8d9b db3f 85bc 7b22 2f19 f13f
-0.167049084410926 -0.141820958807844 -0.232499976931511 -0.08230973455546481 -0.468890827995657 0.20096580895162286 0.04760939061675577 0.2669767054375756
0.9636077607980266 0.06914929982652684 0.1704083133049733 -0.040018079487761225 0.10139146271938966 1.0023303577063944 0.43136920995614136 1.068648466778343

layer3.weight f8 [6, 16]
00000000: 79aa 20fd fef2 d6bf 56d3 e2a8 5190 ad3f
00000010: 82d0 46d6 f6fb 01c0 9cde 2a8a 08f6 d7bf
00000020: 8fc4 ec44 96f1 f03f fd5f ca0c 1247 0540
00000030: 497e 889f 64d7 da3f a499 1b58 2db0 b63f
00000040: e47e 2a5c ca82 d63f 70b2 21e1 8e78 f13f
00000050: 24e5 f41e de71 e63f f2ca 3f91 89b9 08c0
00000060: 5b87 a28a aad4 de3f 815a c2e2 6c2f ca3f
00000070: 8dc1 2638 5581 f4bf 8ebc cd48 1d12 e63f
00000080: a306 2a68 abec d5bf 90c0 5f75 3930 d5bf
00000090: 3d6f f598 a498 a6bf 3839 6890 8c28 c2bf
000000a0: cc19 1253 5b0e fbbf 8766 98ce f631 febf
000000b0: 0be5 4d7d 48d5 cb3f 44ca 56f7 a32c f53f
000000c0: dba5 aed1 41fc ec3f aaf3 e0cf ad12 f0bf
000000d0: 8293 4d1e cef0 e2bf 8c7b 81df 4cd9 e03f
000000e0: 7765 657e 6241 e13f 8cd7 5380 dc93 eb3f
000000f0: c4de 32a1 9fd2 913f 72cf 516d 8322 c13f
00000100: cd99 f2fb 43d3 a43f e106 1312 fcf5 c93f
00000110: 742c 0305 9ecd f93f 4ffc c60e e8d0 d53f
00000120: 8b63 4069 7497 04c0 f941 659a 77d9 f3bf
00000130: e1b0 9551 5954 d43f 32b3 837f de9a febf
00000140: fd0c ec1f a047 833f 9a0f a131 1cc7 debf
00000150: ec27 ca00 e83c 10c0 bfee f6f9 81e2 d73f
00000160: b53c d265 1e99 08c0 dcd7 ae2f 015d d23f
00000170: 69e4 3821 2c38 f23f d250 e613 9a90 c93f
00000180: 1844 3f8f 888e d4bf 308b 2cfc 5ecb d43f
00000190: 12a8 a563 8136 f43f 1677 0c22 6259 a7bf
000001a0: 9117 4c5a 4751 e63f 0972 25cb 85e4 00c0
000001b0: 677f 78f4 f8eb 0ec0 e583 4aa6 6bc0 e0bf
000001c0: f256 0864 8d95 edbf 43e0 094d 4817 c5bf
000001d0: d0a6 4c19 5332 f03f 4a22 e4f7 2819 d3bf
000001e0: ed7e ecbd 8f48 d1bf 5488 836b aa36 ee3f
000001f0: d5d8 6f36 9a81 e83f 585a 9ce4 9bd3 f5bf
00000200: 1af0 252a a701 d9bf 4873 37a5 6c00 d4bf
00000210: e4c5 790d 4869 e4bf 4dba c4ab 91da a6bf
00000220: 73fd 49d9 9861 01c0 2c32 901b 5b26 babf
00000230: c4ca 801b 3e23 e53f 91f8 5891 ec2c f3bf
00000240: 2a45 6c11 1b9e 00c0 eb82 7479 0b4a e1bf
00000250: 83c5 0bf4 80ec dcbf 74a8 48d5 43ab e63f
00000260: 7c9e 604c 4887 f6bf fd8f 2e26 b2a7 04c0
00000270: da21 2334 4ba5 fbbf 8557 8fb1 f0ca e2bf
00000280: 0bda 4dbb 4970 a83f 05e0 d29b a12a e1bf
00000290: 3971 b1d5 f3fe cabf f573 7b52 d165 e3bf
000002a0: b995 5389 ab7b dc3f 5120 f06f bdb0 cebf
000002b0: a63e 9acd 14b3 08c0 af60 9bb7 f151 eb3f
000002c0: b6d5 a832 46b3 e0bf 5dae f132 b9c4 f6bf
000002d0: d740 9330 93b8 e83f 5c87 7c30 3541 d1bf
000002e0: f96e 49a3 b65d f23f e732 77c2 6f89 fcbf
000002f0: 9dc1 2f8c 19fa c73f c458 2274 5e88 f9bf
-0.35858130187504106 0.05774169146153578 -2.2480293979988923 -0.3743916844646067 1.0589811985376263 2.659702396322244 0.41939654902850926 0.08862574959821373
0.3517328167017537 1.091933135433603 0.7013998608228218 -3.0905944202034954 0.48173011339723865 0.20457230636812443 -1.2815754121221261 0.689711229509969
-0.34257016346246355 -0.3310683866720945 -0.0441333233563612 -0.14186245967034394 -1.6910050625752886 -1.8871982641343565 0.2174463855588232 1.3233985578232401
0.9057931037288499 -1.0045602913153098 -0.5918951598983855 0.5265259137485017 0.5392315357850482 0.8617994791409145 0.017405027593411018 0.1338657649790736
0.04067432833226157 0.20281935579810464 1.6126995273396263 0.34087563937277293 -2.573952505376331 -1.2405925780368519 0.317648248360241 -1.912809846976597
0.009413958524879801 -0.4809027180347073 -4.05947877153265 0.37319993410686075 -3.0747650103363307 0.28692655235806597 1.1387139604323926 0.1997253987470971
-0.3211995505235463 0.3249127829205234 1.2633069889511757 -0.045603815704664694 0.6974217189424384 -2.1115833159258313 -3.8652209376595468 -0.523488831317192
-0.9245058969270004 -0.16477302323960616 1.012286280465947 -0.29841064651603644 -0.27005380198714485 0.9441730594519506 0.7658206046314954 -1.3641623430354652
-0.39072589031252536 -0.31252590307649486 -0.6378517401882928 -0.044636299341040166 -2.1726548171715705 -0.10214776442462242 0.6605520760698131 -1.198467796100463
-2.077200065724033 -0.5402886745615353 -0.4519350417386578 0.7084063687991731 -1.4080279334538366 -2.581882761283849 -1.7278549229250673 -0.5872729747741096
0.04773168956210235 -0.536454014151787 -0.21090553220973066 -0.6061789141637052 0.445048221691049 -0.23976867643091507 -3.087442022580791 0.8537529550622106
-0.5218840588992666 -1.423028182029973 0.7725311230406317 -0.2696049664974589 1.1478792551415025 -1.7835538479150104 0.1873199400429372 -1.5957932030192277

layer3.bias f8 [6]
00000000: 36a2 5f73 366f e0bf 76df e591 a372 e33f
00000010: aeda 4603 845a eb3f 9ace 4b35 6854 c33f
00000020: e715 b4d5 aec6 f0bf e1cc be64 9c04 e1bf
-0.5135757687940614 0.6077440118378792 0.8547992767333505 0.1510133991465537 -1.048506579188478 -0.5318128554994496
