attack_soft_generative_decision_tree/experiments/vowel_params_state_dict/fnn_epoch320.pth (torch, 69599 bytes, 6 tensors)

layer1.weight f8 [80, 12]
0	0x3f9d8bc0b3abfbd4	0.028853426901146964
1	0xbfd30299cff91226	-0.2970337420449901
2	0x3fce4d6f5ec9e9b0	0.23673812988620346
3	0x3fb5b9dc2ca5961a	0.0848672493935613
4	0x3feb63215e4f8fa8	0.8558508722312483
5	0xbfca5410c21b3c54	-0.20569047429896392
6	0xbfe8606b2fe2d63d	-0.7617698607707052
7	0xbfe1324af0371735	-0.5373892490103801
8	0xbfe1c9b09cfb2ba0	-0.5558703485524923
9	0x3fe00cdde42750cd	0.5015706497311158
10	0x3fc92e605bcd84be	0.19672779543456004
11	0xbfdc6360de68fa6b	-0.44356557578786376
12	0x3fa756c92745f8d4	0.04558399776850455
13	0x3fa19fa58beab145	0.03442113240211823
14	0xbfd735b4c6ace64e	-0.36265296365636324
15	0x3fdf973204085938	0.4936032332783671
16	0xbfd3710a3bd091cc	-0.3037744125488444
17	0xbfe2f3be47a0760b	-0.5922538184128724
18	0xbfd671482dbf90b4	-0.3506641814003715
19	0x3fda6246e9b01595	0.41224835225178796
20	0x3fd9e39b8136a74a	0.40451705568795104
21	0x3fd60c6d00d931ca	0.344508410290271
22	0x3fe5ae5d02fd68fd	0.6775345857998044
23	0xbfddad7560f4cdc5	-0.46371206730256304
24	0xbfb2944a96913893	-0.07257524658163765
25	0xbfef45120c17d7d6	-0.9771814571565709
26	0x3fc88bea68c00aa8	0.19176988711122545
27	0xbfe862aa65aee9dd	-0.762044142341718
28	0xbfdd88a85dfa8f1c	-0.4614659230958169
29	0x3fd5601ff189f53c	0.3339919909265807
30	0x3fb5416af6a4ca33	0.08302944680762252
31	0xbfc9dd8fda571b4d	-0.20207403336663746
32	0x3fe1d54320210ed0	0.557282984497272
33	0x3faaa7b6965c347e	0.052060800413621586
34	0xbfe064fe948f0ce7	-0.5123284246004943
35	0xbfc89458b19dc5d2	-0.19202717468901526
36	0x3fb50421219004d7	0.08209425992392326
37	0x3fc05eb5a8134c54	0.1278903074913581
38	0xbfede96d5afad38e	-0.9347445275258097
39	0x3fd0d4c6d0640f15	0.26298685408276984
40	0x3fe1c99140d3280a	0.555855394946094
41	0x3fd12289241bcdb1	0.2677328922865981
42	0x3fd6effeb89e2b68	0.358398132601613
43	0x3fb7792aff073c77	0.09169262625003848
44	0xbfc2ea13544fd9c3	-0.14776841751854705
45	0xbfbd86e22d6644e8	-0.11533940895448647
46	0xbf9f2fe50c934c82	-0.03045614136938158
47	0xbfc844411258a380	-0.18958295245945678
48	0x3fb143a384b63fdd	0.06743833532368577
49	0xbfcfe40430aee305	-0.24914600731951722
50	0x3fc5e044fca63138	0.17090666138063582
51	0xbff2615ca6dba89f	-1.1487700002567534
52	0xbfe9336e9fa8d533	-0.7875283354139014
53	0x3fd00674fd3f293a	0.2503941033470657
54	0xbfc681328e94fbb8	-0.17581779443750434
55	0xbf827d59de0f0a56	-0.009028150643534943
56	0x3fcaf70d9519d2d9	0.21066446094814387
57	0xbfd9546385f88987	-0.3957756813344066
58	0x3fc3e67165a73ff6	0.15547006095448496
59	0x3fd1505473375561	0.27052794696404275
60	0xbfc8255df925ace7	-0.18864035287274492
61	0xbfdb1d8e94394cda	-0.4236790130136804
62	0xbfbf621bcb92db17	-0.12259076805171919
63	0x3fa6e8e40e4eb4c5	0.044745566126360305
64	0xbfb8df04c14bbbc2	-0.09715299338470998
65	0xbfddbb7e20659821	-0.4645686451316369
66	0xbfe0bd93a04db645	-0.5231416827134089
67	0x3fdbeaddb0c39d72	0.4362100816928979
68	0x3fda6b5791b2e1b7	0.412801639827673
69	0x3fcac81069ac09ee	0.2092304721810047
70	0x3fe0290baa2cbaa4	0.5050104449963624
71	0x3fd861c6b0163beb	0.38096778102857226
72	0xbfb45e7a808d86cd	-0.07956662786957765
73	0xbfe492ef6d4b068e	-0.6429364332800149
74	0x3fe05e4ffb17f172	0.5115127472086398
75	0x3fe2c75896374e74	0.5868342336566017
76	0x3fb46b4ab33a9358	0.07976214290336026
77	0x3fd9ce6f5957ae24	0.40322478985646826
78	0xbfe20865b667b934	-0.5635250628090831
79	0xbf700cfacb382371	-0.003918628371601383
80	0xbfdce0825e3f73e4	-0.4512029571904448
81	0x3fd56af5973343a8	0.334653279930587
82	0xbfc63d0cfc6f8b06	-0.17373812032663966
83	0xbfa7465b50e8430c	-0.04545865404737101
84	0x3fa0700ab2060e99	0.03210481093540558
85	0xbfe19c9ac13e2b0d	-0.55036676161521
86	0xbfc43cf9242b08f9	-0.1581107546426848
87	0xbfe476dce4b84b61	-0.6395096270738173
88	0xbfd5a8901aabec94	-0.3384132633652339
89	0x3fe1f3d3162ff7d4	0.5610137399050878
90	0x3fdd03ba517bab26	0.453352527211495
91	0x3fd110cc5488628e	0.26665027861739865
92	0x3fe3d4623dfd5d99	0.6196757517563355
93	0x3fe4e15c03feda41	0.6525096967732865
94	0x3fcba3360def0d4c	0.21591830902444042
95	0x3fd318f791fdb851	0.29839886910383934
96	0x3fb00ff0d66ac0cf	0.06274323687353277
97	0xbfc3c245afcde644	-0.15436621746248325
98	0x3fb0e037b259cd5c	0.06592128853099183
99	0x3fe063036331cfac	0.5120865762132687
100	0xbfcdd9ffbee9bd17	-0.23321530172277313
101	0xbfce6128756a4222	-0.23734002812536042
102	0x3fb8d1aac17b792d	0.09694926475228689
103	0x3fe3cc7955217289	0.6187101996143421
104	0x3fdc4a20e8263e59	0.44202444716299777
105	0xbfd9c9bccc4bd5d8	-0.40293807936481363
106	0xbfd77f572479427b	-0.3671472412288847
107	0xbfbb28cfbd51437e	-0.10609148380286901
108	0x3fbe62c6118bd632	0.11869466713309221
109	0xbfca47ff81951146	-0.20532220675716867
110	0x3fe49ca4e6d6f72d	0.6441216000164097
111	0xbfc0a2d6178de24c	-0.12996936941250892
112	0xbfbee7740a9576ec	-0.12071919687647509
113	0xbfcebb1869dbf880	-0.24008469742688376
114	0xbfc25d9b6b6e7f19	-0.14348166223225503
115	0xbfda5b026265ccf0	-0.4118047676958687
116	0xbfce27fdfa89fdba	-0.23559546216345756
117	0x3fcdffb70a1fa5db	0.2343663024360428
118	0xbfd8dc90897f6992	-0.3884621947051069
119	0xbfd795517dbf6be7	-0.3684886672978664
120	0x3fc0582d356569d6	0.12769093615754795
121	0x3f96c418d22afe57	0.022232425525315538
122	0xbfa9019850f78d0f	-0.04884029377333309
123	0x3fd8891b3192404f	0.3833682998747507
124	0x3fcab65cc6df9b2d	0.20869025908106079
125	0xbfd14dd3a7c174bf	-0.27037516958609936
126	0x3fce1963d5100f21	0.23514984038785605
127	0x3fe1081973f1b3d2	0.5322386993917638
128	0x3fd8e5efafdcd2c4	0.38903419660645633
129	0x3fe28c835d4ed320	0.5796524832172487
130	0x3fbb4c157c0ac9a0	0.10662969854710136
131	0x3fd0aad9c626e798	0.26042789793756915
132	0x3f8110d5fe398f79	0.008332893200708945
133	0x3fc288f38eabec59	0.14480442491899018
134	0xbfc0661acf5e0689	-0.12811598897319623
135	0xbfe4f169e3b4b619	-0.6544694373494081
136	0xbfcd42390d09fc68	-0.2285834611575155
137	0xbfc309da285738a1	-0.148738164613353
138	0xbfa070ce8a7d9728	-0.032110647588338204
139	0x3fe7200a16da655f	0.7226610609388152
140	0x3fe760c9a9396a5b	0.7305649094735814
141	0xbf9eae4e8d66e58b	-0.02996180284546805
142	0x3fd91c41889387dc	0.3923496087792253
143	0x3fa7fd4c772bdeef	0.04685439066628116
144	0xbfa2053c67f0b5df	-0.03519619721224009
145	0xbfc023b34001f1b2	-0.12608948350306332
146	0x3faf9e85a362ff79	0.06175630206553157
147	0x3fb7444da2c2d800	0.09088597510967134
148	0x3fe1940f7928fe25	0.5493237844856976
149	0x3fcf4ef860136493	0.2445974797363176
150	0xbfdfcacecbe4f86b	-0.49675340568126697
151	0xbff24e05bfdac236	-1.1440484518353862
152	0xbfd4e851773f2425	-0.3266795792119999
153	0x3fc2583b22e06b40	0.14331759646378295
154	0x3fe3ff37173cd7a8	0.6249041990147264
155	0x3fd0fecc7aa7dbcc	0.2655516813096568
156	0xbfc8cdd1ea470875	-0.19378112735109068
157	0xbfdde193cc660f32	-0.46689314804847293
158	0xbfdd5edf297f445a	-0.45891551067785985
159	0xbfc5049959e1e928	-0.16420285118858513
160	0x3fe7e1a341d0c47f	0.7462936673602057
161	0xbfd10cc44cd3ea1a	-0.2664042234679599
162	0x3f70cb603596dc8a	0.0041002042939261105
163	0x3fdf022b15cb612e	0.48450734260906614
164	0x3fdc1e30bcc0bb67	0.439342674569096
165	0xbfe3acb741b6e11c	-0.6148334773525082
166	0xbfbaaf5244781a5a	-0.10423769160852583
167	0xbfe1e48fa59abaf8	-0.5591505274258841
168	0x3fab9747b7a847b3	0.05388855091963709
169	0xbfac33f44bf345be	-0.05508387972953298
170	0xbfe0e02a23ae1955	-0.5273638436199614
171	0x3fd57bac806792f5	0.3356734518004452
172	0x3fd8671ff86a0aed	0.38129424342348167
173	0x3fe50b5508933ec9	0.6576333205684587
174	0x3fb1eb98d9bbca93	0.07000117603073823
175	0x3fce62aae0bcaa21	0.23738609288678084
176	0x3fd546575f9e1ba3	0.3324182924047198
177	0xbfc2124803ef47d4	-0.14118290130733036
178	0x3fe29cf213395740	0.5816583991497524
179	0xbfc2695759abcc1b	-0.14383975866766793
180	0x3fb9f9de9f1e43be	0.10146895775530049
181	0xbfa5d3a0e7abdaa6	-0.04263022258776532
182	0x3fe4f00ef038377d	0.6543039981640814
183	0xbfd1135e3b4827a5	-0.2668071345257153
184	0xbfde22c93ae0bfa9	-0.47087317228123965
185	0xbfe3b1f0b06cab62	-0.6154712148466894
186	0xbfd45838847ed38f	-0.3178845685864013
187	0xbfd1ec5540f3ef89	-0.28004962294630126
188	0xbfc1bf58e59afc39	-0.13865195475770678
189	0xbfd360749aad7e12	-0.3027621756100142
190	0x3fd088e84e8067bf	0.258356167470648
191	0xbf9a5405783fa8f1	-0.02571114107551237
192	0x3f99fd97b4973b8a	0.025381441495308667
193	0xbfc176906d7ef18e	-0.13643079134443464
194	0xbfd55c002a09d2ee	-0.33374027352628743
195	0xbfd4c15ece914df7	-0.3243023888837508
196	0x3fd88610ce2f1799	0.38318271765853634
197	0x3fbd9ed3e9395919	0.11570476955362032
198	0x3fb5094f59c7cbe3	0.08217330877214084
199	0xbfe8a06965a7345c	-0.7695815072453445
200	0xbfd186ac81cf636c	-0.2738448398281921
201	0xbfbec7d93510784c	-0.12023694558635717
202	0xbfd8dc83ece290ff	-0.38845918782523364
203	0xbfd3ef95ed8358d9	-0.31149814791332414
204	0xbfd3dbe356442939	-0.31029590057791584
205	0xbfb52df0e7500a0b	-0.08273225447923253
206	0xbfd9b4022deeb146	-0.4016118477400322
207	0x3fb4e76764e53606	0.08165594304337995
208	0x3fdd3ce20e7e27da	0.45684100547134465
209	0x3fd25670ed7a47a2	0.28652594748666094
210	0x3fa71212027274ee	0.04505974082824503
211	0xbfd0f0cbf12f4a8e	-0.2646970610923426
212	0xbfe06ad639a35f5f	-0.5130416036363207
213	0x3fdb8050d19a3a60	0.4297067686938245
214	0xbf65717eddee9d4f	-0.0026175954694342206
215	0xbfd30361b9e6fbd1	-0.2970814052059128
216	0xbfba319d1133391d	-0.10231954259800032
217	0xbfcbfd618244438d	-0.21867007122685003
218	0x3fd24718b2e972d7	0.28558938476434775
219	0x3fd57becd2585b94	0.3356887869026022
220	0xbfe5efb82f4107e0	-0.6855126307420925
221	0x3fdd220d3ca3814f	0.45520335122821093
222	0x3fd6ae27d0e03dcf	0.3543796100429661
223	0xbfbaeed1fae910da	-0.1052066075872661
224	0xbfe93670495a9640	-0.7878953392689212
225	0x3fd694fa9eb31232	0.35284295557019896
226	0x3fde2bbd63d255d9	0.4714196657963306
227	0xbfe18ad5e35d5be3	-0.5481976929394218
228	0x3fc04b86c1278a3e	0.1273048823487261
229	0xbfb62378047cece1	-0.08647871121950203
230	0xbfb6709ebb768467	-0.08765594555599564
231	0xbfd2844e3ad0d4c9	-0.2893252920506027
232	0xbfda5b66d8bafc26	-0.4118287197597418
233	0xbfc430c3078360f0	-0.1577380930600678
234	0xbfd1c161d5506c3f	-0.2774281104227078
235	0x3fbf0122caf396c6	0.12111108260031775
236	0x3fdc0f93b3bb0489	0.43845074226198527
237	0x3fbc2823d72d8899	0.10998748782506808
238	0xbfbd7c8f120d2832	-0.1151818675108707
239	0x3fd3b6acc81c8941	0.3080245928014343
240	0x3fa8408df44f0214	0.04736751181872392
241	0x3fdc657757d13bef	0.44369300437841636
242	0x3fe7d28abbc3bdc1	0.7444509188916798
243	0xbfcb6a27c111d7d7	-0.21417710234862739
244	0x3fc1eb0817d59aab	0.13998509563244474
245	0x3fcb1861b414856d	0.21168156903244598
246	0x3fe34482a737ebe2	0.6021130815491882
247	0xbfe4a601bcef6b90	-0.6452645006314572
248	0x3fcefca47793e5b7	0.24208503569370318
249	0x3fdb97113d8dc47c	0.431095419036019
250	0xbfc3482797ef8459	-0.15063948553782572
251	0x3fd5f818056af66e	0.34326744584163904
252	0xbfc8d5dea3a8334c	-0.1940267848116498
253	0x3fb7885f46442e9a	0.09192462411390992
254	0x3fe87c42c84eaf33	0.7651685631039754
255	0x3fbb235e2da95e5e	0.10600842108521522

layer1.bias f8 [80]
0	0x3f8a202c5d4c6dfc	0.01275667819714154
1	0xbfb3416558fed97b	-0.07521661207906576
2	0xbfad42cbed4efe90	-0.05715024253686096
3	0xbfd56c5cf7e5fd0d	-0.3347389622576465
4	0xbfced3ba373dd9b8	-0.24083640763610759
5	0x3fc07637c267ff93	0.1286077212571369
6	0x3fcfea1ad9ed66fa	0.24933181420310985
7	0x3fbabdfe08a935be	0.10446155272912613
8	0xbfb0aaff15741bc3	-0.06510919832008626
9	0x3fde8940841b56ad	0.4771271982293495
10	0x3fd3f86cd3a6b591	0.3120376650720909
11	0xbfd12bae296827bf	-0.26829103511465385
12	0xbfd2056f7ccd3abf	-0.28158175647415
13	0xbfa64be5a24dd9d9	-0.04354779821635519
14	0xbfa5782efa227a09	-0.04193255237008848
15	0x3fe13436de9b28fd	0.5376238200927045
16	0xbfb64556dae2c5e0	-0.0869955334080923
17	0xbfbd8d77e7e318df	-0.11543988620096311
18	0x3f86b9986e9be3e9	0.011096182704465067
19	0xbfd3344ef5716183	-0.30006765336067803
20	0x3fd147848deddc28	0.269990099528004
21	0x3fd75278e7464d43	0.3644087084332634
22	0xbf9f5b1d35d10fb6	-0.030621010217387577
23	0x3fc9b0b8c3b0c340	0.20070561938475784
24	0x3fa44356f40ba1a0	0.03957626084394694
25	0x3fa89e5764baecd0	0.04808304886452108
26	0xbfc61c5cd6130137	-0.1727405591282236
27	0x3fb551236faa6dd2	0.08326932407583534
28	0x3fa1534c47147914	0.03383863799739309
29	0x3fc577f1e8e30237	0.16772292968200173
30	0x3fd4f466371ff0c8	0.327416948159009
31	0xbfc26c7794dbf6da	-0.14393515366093973
32	0x3f82dd51cc56c78f	0.009211195991927016
33	0x3fc7a05579381eb9	0.18458050173670928
34	0x3fd9fa730f6f8392	0.4059112215746207
35	0x3fa203405e4d8b7d	0.03518105651053014
36	0x3fca78d907da7f36	0.2068129814479051
37	0xbfd78659bc58f101	-0.3675751056032511
38	0xbfd5aaf7aff5b846	-0.33856002982691213
39	0xbfd1940cc1e838d3	-0.2746612447380247
40	0x3fdc5bb19b6b80dc	0.443096544053345
41	0x3fd3b195413793ae	0.30771380776269097
42	0xbfc27668320e21bb	-0.14423849529363317
43	0xbfc8b3d9caabd299	-0.19298860927633113
44	0xbfc2a7be9a45bdbe	-0.14574415715058636
45	0xbfa556148121d03a	-0.04167236400908832
46	0xbfb92ad90b58e3db	-0.09831005599052338
47	0x3f9d20e2ff8175cf	0.02844576534731918
48	0xbfcc7a3b36a44c64	-0.22248020332390006
49	0x3f94522aa18aa967	0.019844690427512825
50	0x3fd8a32807c9bac6	0.38495827446506004
51	0x3fc7590fb8db8d29	0.1824054386735068
52	0x3fe1122d261461cf	0.5334687942259339
53	0xbfc130f63803574d	-0.13430669531833886
54	0xbf9c77bb293379a7	-0.02780048788997083
55	0x3fb13a2d5e156085	0.06729396388016269
56	0x3fd16e7597ed5340	0.2723669036543477
57	0xbfc0e4da57926286	-0.13198403621642657
58	0x3f9c610cbf845320	0.02771396559645034
59	0x3f9c7359cce960d2	0.027783778316320014
60	0x3fb50709baceaad7	0.08213864145970305
61	0xbf90a8b685108cfe	-0.016268588897344387
62	0xbfa00ae421bf592a	-0.031333092803537646
63	0x3fe64219ebd69aae	0.6955690008370163
64	0x3fc1928af75ffd34	0.13728463248114908
65	0xbfb2493c8ab92d3c	-0.07143000017929507
66	0x3fd2c737a0c37e98	0.2934092588384174
67	0xbfbb3aa3f6ebf5d2	-0.10636353281366631
68	0x3fd1a0be91acba42	0.27543606020018185
69	0xbf915d3bb7f391ad	-0.0169572192215967
70	0xbfc353461209009c	-0.15097881203292196
71	0xbfc5d2e32430d819	-0.17049826876763133
72	0x3fc44c219af539ca	0.15857334200195644
73	0x3fd9eecdb8c39618	0.4052004150711084
74	0x3fb6b0f8a0c7fa3f	0.08863786626168578
75	0xbfb44fd83b39435b	-0.07934333272829745
76	0x3fc78fe4b96a6e01	0.18407877973082523
77	0xbfbd9a4b5516a5de	-0.11563559367518603
78	0xbfcb76ee5dcfa259	-0.21456698971384716
79	0x3fda9623eec1de52	0.4154138404478306

layer2.weight f8 [80, 80]
0	0x3f9815e28ded77fe	0.02352098456628226
1	0xbfa99fc9ec340d28	-0.05004721649495486
2	0xbfe0bd94baa34ef7	-0.5231422086021372
3	0x3facde21df76d393	0.05638223507722908
4	0xbfd556ebc2378051	-0.33343023268208066
5	0x3fdd794bb9311c82	0.460528307773025
6	0x3fd4d79e89f2b7d3	0.32566035720344394
7	0xbfb6c915c30b0e68	-0.08900581371113392
8	0x3fcd540efba0b662	0.22912776266587104
9	0x3fceea6353240dcd	0.24152795371638405
10	0x3fdc6613d61773b1	0.4437303152788515
11	0xbfba907e1c650dcb	-0.10376728242140769
12	0x3fb1ac2b1d195bb3	0.06903333149362716
13	0xbfccb36bf02119ef	-0.2242255136972768
14	0x3fbd96a7f3c9afa8	0.11558007909633139
15	0x3fd2e53dfa428478	0.29524182738720794
16	0xbfcc08ccaee8b97e	-0.2190185407684559
17	0xbfd63a5ec09c276c	-0.3473126297909548
18	0x3fe205ac10d16d75	0.5631923988798194
19	0xbfabb91a0a02d8cb	-0.054146589014111145
20	0x3fce78585436f8c1	0.23804763900802153
21	0x3fd3f295b6d4cc58	0.3116812024556501
22	0x3fe75b2987f11a5a	0.7298782019723362
23	0xbf9955d74dafd3fd	-0.02474152003920337
24	0x3fe02d83ef50b0ae	0.5055560754895134
25	0x3fd47b630b4e2c29	0.3200309381870193
26	0x3f7e56823d58ea44	0.007406719921670805
27	0x3fd5fe5d397e76d7	0.34365015616081734
28	0x3facd8defb1f30a8	0.056342094568749446
29	0x3fce46c58fc04322	0.23653478163807856
30	0x3fdb259301c3a355	0.42416834995542746
31	0x3fc1f89e2f0e3507	0.14039971635467216
32	0xbfcbcce72f099db9	-0.21719064518695833
33	0xbfc493b599a8a4f5	-0.16075773241872296
34	0x3fc1bff00e5ead17	0.1386699743428401
35	0xbfac3df6b3e94c7d	-0.05516024538214823
36	0x3fd4a74866e6816a	0.32271013306492213
37	0xbfbc0b6aedcc9a9d	-0.10954922013898245
38	0xbfd2c033aa512e49	-0.2929810679677059
39	0xbf99eec7c5062a06	-0.025324937248607092
40	0x3fc53f9028bd4f30	0.16600229253037346
41	0x3fccb24b7c7369be	0.22419112755490106
42	0xbfcf936ace64be25	-0.24668631627854257
43	0x3fb333794783bb7f	0.07500417705499095
44	0x3fd8e4fc04a2ba3b	0.38897610142422295
45	0xbfdc6a842f894abd	-0.4440012420865676
46	0x3fb2cf583c2ae740	0.0734763285535367
47	0xbfc9aa372b5bc171	-0.20050706498251317
48	0x3fd3237919e25075	0.29904010322321223
49	0xbfcb34843ad8e982	-0.21254017709163625
50	0x3fa5786bfb57ac21	0.041934370452360044
51	0x3fd4d9ef6f4176a4	0.32580171456161566
52	0x3fcb3de8cb320a16	0.21282682344106324
53	0xbfe27dc271742076	-0.577851506795027
54	0x3fc4ba50b6c8a8f4	0.16193589138976672
55	0x3fd19ee0fde91cf0	0.2753221969218904
56	0x3fd3ce809a72d324	0.30947890360703156
57	0x3fc0789dbabf7882	0.12868091219474215
58	0x3fcef35b6bb1b558	0.2418016696787315
59	0xbfb4fd44d223d0cb	-0.08198957567566649
60	0xbfc0fc4e35b93698	-0.13269975302903414
61	0xbfd5a486de3bb5c1	-0.3381669206854348
62	0x3fd3ed59f24d247d	0.311361776945496
63	0x3fd2a2f7f9844787	0.29119681708208883
64	0x3fd8f7d8e69827b7	0.39012739676456526
65	0x3fd8d640859e518d	0.3880769066684245
66	0x3fb369a65db4f20b	0.07583083904041403
67	0x3fe20dc9a4a9f774	0.5641830650417732
68	0x3fcebb003be6d4a3	0.2400818150032694
69	0x3fd17a3f0f7c2303	0.27308632385442894
70	0xbfb58ccfd2f4790f	-0.08417986774700047
71	0xbfe4858e2b43b20c	-0.6413031430252558
72	0x3fe45b1ff0e2de0f	0.6361236290749178
73	0xbfddcd11418b13aa	-0.4656413211890206
74	0x3fc2268e969f8924	0.14180166582725307
75	0x3fc99fc6db467af8	0.20018850046923098
76	0x3fbe8dedbb724000	0.1193531592018644
77	0x3fb4fb2480443373	0.08195713168625023
78	0xbfb227effead8b1e	-0.07092189758035913
79	0xbfe8642728e09263	-0.762225704038951
80	0xbfc6e4a49337e0ec	-0.17885262668983815
81	0xbfd9e72032d1789b	-0.40473179781646146
82	0xbfa71bc0daae02d4	-0.04513361615591341
83	0xbfc0c23a4c5224bd	-0.13092735983471995
84	0x3fc415362576f5dd	0.15689732388811609
85	0x3fdaedbf02a14c31	0.4207608724293009
86	0x3fb12a62621a80a5	0.06705298323731997
87	0x3fb4ad3ad4156e7f	0.08076827695679788
88	0xbfd3935ed67b9f01	-0.3058697790679475
89	0x3fca152da72769c2	0.2037713113957818
90	0x3fa5f22b920aebea	0.0428632369780287
91	0x3f94b299554fb744	0.02021255095672038
92	0x3fb887df0f1cc7ae	0.09582323187785732
93	0x3fc203e9a917bb18	0.14074440723876402
94	0xbfccf40af502c080	-0.22619759524741667
95	0x3fbefc805f3d9b66	0.12104036641322366
96	0x3fba8d2350910359	0.10371609417871976
97	0x3fb1f4a8c5719e67	0.07013945408254472
98	0x3fb36661a6b775cc	0.07578096695166109
99	0xbfbc20fadc0ed6d8	-0.10987823364743166
100	0x3fd17d7cf5b37657	0.2732841872619693
101	0xbfd793b2f8f770ae	-0.3683898383440106
102	0xbfe0a1d16a8ca75a	-0.5197531777423408
103	0x3fca03b656262e54	0.20323828894139473
104	0xbfdd8492cb80a0b7	-0.46121663926397666
105	0xbfc9910501198f25	-0.19973814538672588
106	0x3fb07e29501256e0	0.06442506985544183
107	0xbfc88c00310f6ce7	-0.19177248378296172
108	0xbfd34f7a9e63c2eb	-0.30172601192229703
109	0x3fda9220ef87039b	0.41516898528430496
110	0xbf95a6965bcfd991	-0.02114329276442956
111	0xbf896a99b072c8c3	-0.01241035527923307
112	0x3fd5d10006b19748	0.34088135389025753
113	0x3fd40f494071cf73	0.3134329919187088
114	0x3fd91cfd179f10d5	0.39239432627460974
115	0x3f8d93280e8719e0	0.014440834945060155
116	0xbfc32a945d48b9f7	-0.14973692469489183
117	0x3fb85d412629893b	0.09517295057006418
118	0x3f84668d4cc617dc	0.009961227326822746
119	0x3fa7f100018e9499	0.04676055926328466
120	0x3fcd75a7efa0d726	0.23015307617759467
121	0x3fd0114042d60e05	0.2510529186913291
122	0xbfab15d0237e6299	-0.052900795300222465
123	0xbfe359d40cc09db8	-0.6047153710432474
124	0xbfd12f80f1b98b6c	-0.26852439504562287
125	0xbfc73718e62ea081	-0.18136893500673426
126	0xbfb0614a33bd2739	-0.06398452532917255
127	0x3fa9b9671c394fa5	0.05024263591317827
128	0xbfd02b7b154ac13c	-0.25265385703371
129	0x3fb585f115d4d03d	0.08407503874769957
130	0x3fd4ee74e0942d81	0.327054232898
131	0x3fde3226f1c9007d	0.471811042898487
132	0x3fb541b8314c7f0c	0.08303405002197567
133	0x3fd5248f7cf585c0	0.3303564758590163
134	0x3fa81f224a0251a9	0.0471125331252183
135	0xbfe36a58c0b57c26	-0.6067317737432674
136	0x3fd3bc148b55c0d8	0.3083545075123886
137	0xbfc1fbc9c3f51264	-0.1404964644263088
138	0xbf951982f24db5b4	-0.020605131186518924
139	0xbfcb0d4e2c024d3a	-0.2113435473334933
140	0xbfa9227af3f3a5a4	-0.049091188697114846
141	0x3fd4b4f3bc4dd99f	0.32354443921158266
142	0xbfc4ef3856b4ba8c	-0.16355041726770414
143	0xbfd951c867d88836	-0.3956166280860346
144	0x3fe02b9a4995e0c0	0.5053225934234646
145	0xbfb208a2203a8028	-0.0704442337687402
146	0x3fcb41816a094b15	0.2129365699534779
147	0xbfe3d0124b9d5584	-0.6191493489119897
148	0x3fd7ca8fb3b415e5	0.3717383627811997
149	0xbfc9ae2857884cb1	-0.2006273677257915
150	0x3f70c2734c0367ec	0.0040916923319062985
151	0xbfc88c92006eb3d1	-0.19178986569514092
152	0xbf9159928bb83ff6	-0.01694325425893336
153	0x3fe2448f72848923	0.5708691822694941
154	0x3fd36c7cdff3ed65	0.30349656935114516
155	0xbfd9428069d9e23f	-0.3946839364721519
156	0x3fc650f2edff5323	0.1743453657242294
157	0xbfc16b1c2f6e9e0c	-0.13608124080677475
158	0x3fc1255fa3eabda3	0.13395305160291313
159	0x3fe6c8defe394250	0.7120203938776033
160	0x3fbde1d27b28f4d5	0.11672702318988411
161	0xbfc47847ab146e57	-0.15992065289980203
162	0xbfddf5b2a66b8ffd	-0.4681212067791874
163	0x3fc911dc04c147c9	0.19585752708604634
164	0x3fd194e8f815792c	0.2747137472814696
165	0xbfe1f0296d5fe93d	-0.5605666290496526
166	0xbfc8fc13897c4c1d	-0.19519275868569333
167	0x3fc12efd966c44b3	0.13424653859013844
168	0xbfca1cfaec7bb453	-0.20400940463096848
169	0xbfb5b08971ac8b18	-0.08472498917812421
170	0xbfa22d8f66e32ada	-0.035503846463674285
171	0xbfd05b988e2dca3c	-0.255590571257162
172	0x3fd0025ddbdb0104	0.2501444479967321
173	0x3fca65618847055a	0.20621890215083277
174	0xbfbc3551f44b0dd1	-0.11018860067547755
175	0x3fd0e8e3028f9c46	0.26421427965255295
176	0x3fc425e6f1eba796	0.1574066811802452
177	0x3fbc8eccd47653c7	0.11155395686212365
178	0x3fcddef2265a9c24	0.2333662688517687
179	0x3fbd7a4d65c68d8f	0.11514743551975058
180	0x3fd37d88dbc61bd6	0.30453702413836703
181	0x3fe562ad46374b9c	0.6682955142408562
182	0xbfcca0da503aa485	-0.22365883748469542
183	0x3fcc3be7d175d919	0.2205781719928346
184	0xbfd08a6aab5aa06a	-0.25844828351774274
185	0xbfcb375fef991610	-0.21262740325089213
186	0x3fb5d70d567c8285	0.08531268464549598
187	0xbfc1150a8c47d37e	-0.13345462655675172
188	0xbfd39181db6646c9	-0.3057560579846777
189	0xbfbad2bba639c5f3	-0.1047780304741293
190	0x3fd2719d8f100b30	0.28818453761066376
191	0xbfd143829d4f39e2	-0.2697454963899003
192	0xbfd97080a6bb19cf	-0.3974916103583412
193	0xbfd2838c2191bf17	-0.28927901533369166
194	0x3fd72745d0e74959	0.36177201653221897
195	0x3fcc0a3b57685ebc	0.21906224983171352
196	0x3fc3d7d6de0642c7	0.15502439347303307
197	0x3fa9bfd8b4a13a41	0.050291797685180224
198	0x3f99dcc18d5e219f	0.02525618005123109
199	0xbf97d08ac5b8319a	-0.023256462400284762
200	0x3fa6e0b3729d1dbf	0.04468308233350226
201	0x3fbbc4db70fac1a6	0.10847255237854955
202	0xbfa717cc253da083	-0.04510343508337746
203	0xbfc6dd0a768481f8	-0.1786206320475825
204	0xbfbbdaab72775c20	-0.10880538506113213
205	0x3fa59f3e14565361	0.042230548842019607
206	0x3fb77ae9bea55623	0.0917192545360526
207	0xbfccac1e594ce727	-0.22400264129992672
208	0x3f940f256bce0688	0.019589028077013043
209	0x3fb28af38163a8ba	0.07243272694509786
210	0xbfe49beb352ad74c	-0.64403305420158
211	0xbf9053a7ccfade71	-0.01594412029837006
212	0xbfb0e0539eeaae0c	-0.06592295293619815
213	0x3f9871f85729410c	0.023872261352438293
214	0x3fd643e43a3826ad	0.3478937691257709
215	0xbfcbfafc7345c845	-0.2185969889501981
216	0x3fd69c4d6324632a	0.35328993493890215
217	0xbfba3f1f219aa398	-0.10252565927898016
218	0xbf814f50af5b81ab	-0.008452062942013358
219	0xbf893043dc80ddc4	-0.012299089590768093
220	0xbfc5ac33697d4dc8	-0.1693176522336286
221	0xbfb6f1a1a18987f5	-0.08962450212268876
222	0xbf93d1c14a427b95	-0.01935483947510937
223	0x3fe426b5409b5080	0.6297250997399857
224	0xbfc97c7d55c22486	-0.19911162078304673
225	0xbfc96fb351a8a4fa	-0.1987213276600313
226	0xbfd58de1a6ef6e3c	-0.3367847566821387
227	0x3f8390ef04b26373	0.009553782778583408
228	0x3fbf41dbf6883b4e	0.12209868210650862
229	0x3fded6cc923cc507	0.48186029702181127
230	0xbfc669ad317ccf3d	-0.17509999195464757
231	0xbf7b42a08dececcd	-0.006655337491618241
232	0x3fc10f9e62e11cb6	0.1332891447839068
233	0xbfe6b93fe15840ae	-0.710113468290748
234	0x3fca4b1dd5713b01	0.20541737482059122
235	0xbfc5b552456b01b6	-0.169595989127641
236	0x3faa06422b1a1e91	0.050828998338201654
237	0xbfd572eea320ba6e	-0.3351399033589705
238	0xbfaca20dc1d9509a	-0.055923871911234005
239	0xbfe83b65b97b3aa2	-0.7572506544764404
240	0x3faf3dde7e226ac1	0.06101889886595791
241	0x3fd653a320ea36f1	0.34885481085153375
242	0x3fddc37e1c576371	0.4650569226046662
243	0x3fddd8eee054d7d3	0.46636554629674015
244	0x3fdf1a59d7caa055	0.48598333428754376
245	0x3fd061add7c205cf	0.25596185751063855
246	0xbfbf28b588bf2f8f	-0.12171492184205433
247	0x3fc54a159f1e9e25	0.16632337827216861
248	0xbfc637075862e665	-0.17355434241999315
249	0xbfb498f70e11472e	-0.08045906156010282
250	0x3fc55f51eb2c037d	0.16697143538479145
251	0x3fe85b442641d9a8	0.7611408946238969
252	0xbf95397654b68d67	-0.020727013512112615
253	0x3fbe6eebe147f038	0.11888002634071959
254	0x3fb75366e8650ac7	0.09111636327456117
255	0xbfd3a01891513da1	-0.30664648238322384

layer2.bias f8 [80]
0	0x3fd6359ed2752846	0.34702272942070456
1	0x3fc436f3d6121835	0.15792701676054013
2	0x3f9c5dd09b32e185	0.027701625320987872
3	0xbfcf8ce8398fd95e	-0.24648764429702913
4	0xbfc3c7c976dc8f45	-0.15453451446330227
5	0x3fd44b82f383da74	0.31710885792509846
6	0x3fa438ab0be99e34	0.039494843677683994
7	0x3fd32dfb3c4c9a1e	0.2996814812526355
8	0xbfb83e010a15101a	-0.0946961068739828
9	0xbfb964a724d0da7f	-0.09919209145378181
10	0x3fd07cc52c467e7a	0.25761536906973215
11	0x3fcbf0153653370e	0.2182642474421574
12	0x3fca6aa986c92cee	0.2063800724157327
13	0xbfc209057a0642a4	-0.14090031107163725
14	0xbfc69361626a887f	-0.17637269311405032
15	0xbfc21d4ab4ab1693	-0.14151891538329106
16	0xbfc20af9711c1977	-0.14095991156518625
17	0xbfa4913e25fffae0	-0.04017061437479241
18	0x3fc1ef1549e507f1	0.14010873897683454
19	0xbfc164b14f2fed99	-0.13588539473117292
20	0xbfa8b27c523c482f	-0.04823673728800803
21	0x3fb17d6bf6085bf3	0.06832003361374443
22	0x3fb554b148d075f7	0.08332355525677558
23	0x3fd198bb2639a0ab	0.27494696362419785
24	0x3fabe7f6f1141a9c	0.0545041245732609
25	0xbfcb67fd0e426cd0	-0.21411097713721583
26	0xbf9ebf7dad389824	-0.030027354905676998
27	0x3fa6a1f2bd9f0de5	0.04420431675637441
28	0x3f6a5f64effc5ae5	0.003219315665670452
29	0x3fc4b23bc6219147	0.1616892545163273
30	0x3fd157940324a186	0.2709703474706874
31	0x3fd245eb9666afe4	0.28551759421929845
32	0xbfab81ce548a576f	-0.053724716014740596
33	0x3f99274c1db09a74	0.024563969909787223
34	0xbfa8669dfa3a8861	-0.04765790633725043
35	0x3fd5b0ec89a03809	0.3389235824587336
36	0xbfb4732dd17c5c45	-0.07988249172591207
37	0xbf909311dc262755	-0.016186026632147705
38	0xbfaad9085ed88c2e	-0.05243707807337504
39	0xbfacc6eb47c4e576	-0.05620513201797454
40	0x3fda6aec1f790743	0.4127760226584664
41	0xbfbd80a721325d15	-0.11524433670489416
42	0xbfc6c4088dec42dd	-0.1778574650748145
43	0x3f91a2fd85acec65	0.017223321231750428
44	0x3fdf674c4abc92af	0.49067981050965676
45	0x3fd9cca855092079	0.4031163053919112
46	0xbfcc8f24349ecf2b	-0.2231183297095581
47	0xbfbb3ecd4a0cd4e6	-0.10642703111519189
48	0xbfc4f1302b87017a	-0.16361047864303285
49	0x3fc5be887a58624e	0.16987710927857552
50	0x3fc79361ed59d031	0.18418525781055586
51	0x3fcd6c3969aabaa5	0.22986524257199395
52	0x3fb5548374525a6b	0.08332082357297003
53	0x3fd61520d40af903	0.3450395651560855
54	0x3fc31a1984e83e13	0.1492339991532253
55	0x3f91530a6e291b08	0.016918337796847843
56	0xbfa8504dce12bdd5	-0.04748767033140281
57	0xbfb4d7f1972b36ba	-0.08142003956455826
58	0x3fcf7b9c3b17df3f	0.2459597862759839
59	0x3f749b2d30aba051	0.0050308003653541525
60	0xbfc76a945d5de134	-0.18294004973336941
61	0x3fa8a3910c8fef7d	0.048122914107778116
62	0xbfc671619b768354	-0.17533512202228485
63	0x3fc22bb9b8eae681	0.1419593956869001
64	0xbfc0a440fa87561e	-0.13001262886852855
65	0xbf5b98b629223bd3	-0.0016843584931256386
66	0xbfd0709bbee63dfb	-0.25687307016866584
67	0xbfd4418264ad3c98	-0.3164983733340221
68	0x3f87d406f5b1e623	0.011634878514303065
69	0xbfc010540dff6065	-0.12549830134844622
70	0xbfa660eed78f88e4	-0.0437082899222945
71	0x3fc01ff2ed97d613	0.12597500420785987
72	0x3f55b3cd60526b31	0.0013246064784541817
73	0xbfc065cb73f9b6d9	-0.12810652888167942
74	0xbfca1ed7777a91d6	-0.20406621297764954
75	0x3fc112cd14a773dd	0.13338626392842814
76	0xbfc0fe8a04e16989	-0.13276791799837565
77	0x3fd92a3b2022e831	0.3932025731879803
78	0x3fb9072aaae27303	0.0977656047056819
79	0x3fd1385594c375d0	0.26906337287604476

layer4.weight f8 [11, 80]
0	0xbfe8edb7a43ff4fa	-0.7790182312016036
1	0x3f8477c40f4b3d21	0.009994060246212801
2	0xbfc0e29836b62849	-0.13191511794531355
3	0x3fd9b7c2d0e63c3a	0.4018408813507822
4	0x3fe95850fdb7ee73	0.7920308070601564
5	0xbfc3e8076edb76a0	-0.15551846421197002
6	0x3fc905a82468b7c3	0.19548513200555648
7	0xbfbbf7bf51e02303	-0.10924907444872294
8	0x3fe028f1b0baa109	0.5049980594385782
9	0xbfc0f547f3b45d5c	-0.13248538398395737
10	0xbfd86067f2405a25	-0.3808841577278222
11	0xbfee3c5215b4afce	-0.9448633598271898
12	0xbfda4fb6bda7648e	-0.4111153461540845
13	0x3fdc5720a322a76b	0.44281783991993134
14	0xbfe03597546fc06e	-0.5065418862486817
15	0x3fddeee8ef25dd26	0.4677069030216948
16	0x3fc08f5e2b916b6f	0.12937523963304495
17	0xbfd34b4e0e1ba4bc	-0.3014712465070024
18	0x3fb2282fc885f446	0.0709256996687638
19	0x3fc03707d12532fc	0.12667939865277578
20	0xbfc5e2fa47afabc8	-0.17098930836013282
21	0xbfe45dbb6f4d04e1	-0.636441914925083
22	0x3fc5e7b7d73352d4	0.17113397605739655
23	0xbfd961c2854933b8	-0.39659178749280555
24	0xbfd1500436248612	-0.2705088165986079
25	0xbfba21b61d76f903	-0.10207689494470533
26	0xbfc08dc4124a72fb	-0.12932635205370233
27	0xbff3d8ddcd08c1c0	-1.2404459008358657
28	0xbf98ed80331857b0	-0.024343493574711494
29	0xbfd4252abd53ed7b	-0.3147684906868659
30	0xbfdd91001c602ae1	-0.4619751240831374
31	0x3fb3e7f7d7e47446	0.07775830288706329
32	0xbfcc788c79fbbf1b	-0.2224288554784771
33	0xbfcedc55555564a9	-0.24109903971365057
34	0xbfb5524a607fed53	-0.08328690391492914
35	0xbfe142f9ee84280d	-0.5394258173485028
36	0x3fc9a536616196bd	0.20035438303891864
37	0x3fd8daf8238bc792	0.3883648249749224
38	0x3fd32d463b018946	0.29963832628540776
39	0xbf9af42dc9a85385	-0.026322093423079024
40	0xbfd33b9ede99d53a	-0.3005139516675005
41	0x3fd0d0a3b9efa0ee	0.26273434789483374
42	0x3fd6556da18a83f8	0.34896412635322305
43	0x3fc840679d87f090	0.1894654769129187
44	0xbfde8bc2af7c467d	-0.47728030335665733
45	0xbfe9d4f02cd5b2f8	-0.8072434306792209
46	0x3fd7b29b60e70e96	0.3702763029398083
47	0xbfb08232644005d4	-0.0644866461516565
48	0x3fd2a5d06bf5c6dd	0.29137049239134943
49	0xbfa300c9867071a2	-0.03711538091758661
50	0xbfdb201776b81ced	-0.4238337191931823
51	0xbfe26e1de032f5de	-0.5759419802558872
52	0x3faee1522d192e4e	0.06031281281010746
53	0xbfe49167acb002a8	-0.6427496311954046
54	0x3fb68534d0184cdb	0.08797006683771562
55	0xbfc2f49fb773a701	-0.14809032876592457
56	0x3fabd3c1f58a340e	0.054349957678916025
57	0x3fce12653b2e9d09	0.2349363841032999
58	0xbfd7d0dde49b7350	-0.37212321591305386
59	0xbfe0e0cac496d9b9	-0.527440437281988
60	0x3fc84bec7ce9daeb	0.18981700991908865
61	0xbfb56a2372e8955e	-0.08365079455741894
62	0x3fb7a58062b17594	0.09236910256864511
63	0xbfd88b06ef6977f0	-0.38348554020001213
64	0x3fb26bf9ec370476	0.07196008698430653
65	0xbfc4b24eabd8205f	-0.1616915072520468
66	0x3fce3a03e127980b	0.2361454820049292
67	0x3fd25982fc42eb10	0.28671335825826905
68	0x3fc412e75922b149	0.15682689525909613
69	0xbfc9973f93b153a6	-0.19992823325688142
70	0x3fb694e546529309	0.08820946661814956
71	0x3fc07aaa0d18d0ed	0.12874341620921062
72	0xbf9d20be987156c1	-0.028445222906461568
73	0xbfc8c377d7f70439	-0.1934652142063287
74	0x3fbb85aa075092eb	0.10750830343802036
75	0xbfc07ee8473d40c6	-0.12887290457229578
76	0xbfb3555929b031f3	-0.07552106159000242
77	0x3fd3a6a84b8bf132	0.3070469606170888
78	0x3fbe0e792d648890	0.11740834577770642
79	0xbfd67fa4b7bfa322	-0.351540736619926
80	0xbfd20b470b4fbcdb	-0.28193832497249866
81	0x3fd18927b905b66f	0.2739962870462937
82	0xbfb98ef1f3a82f77	-0.09983741949707602
83	0x3fc78ecdbd92d726	0.18404552227519239
84	0xbfe25d01db9de7aa	-0.5738534249678555
85	0xbfd45e3b687b5bd2	-0.318251468689991
86	0xbfce5e096e41cdb3	-0.23724477656979345
87	0x3fbada6ff8018a4c	0.10489558987459552
88	0x3fa07c3dcc53f204	0.03219788665044024
89	0xbfc227b4062673dd	-0.14183664608290672
90	0xbfe26c40b1fa7cdb	-0.5757144428388544
91	0x3fd0bb0e8f148754	0.2614170453326683
92	0x3fa93ba271b1c066	0.04928310048933397
93	0x3fd27947495b246c	0.2886522499434878
94	0xbfa4c67a8740eab3	-0.040576771746107985
95	0x3fb9c519a9f9cb8a	0.10066376113699796
96	0x3fadd3a720443255	0.05825540799023502
97	0xbfd59009fe1eb8a4	-0.33691644493490913
98	0x3f7f19e46c3d087b	0.007593052174174382
99	0xbfc29e947a7dc2d3	-0.14546447735803855
100	0xbf9c0c55ad8c1db3	-0.027390803067673008
101	0x3fcac815605449c7	0.20923106387688348
102	0x3fc01330e2e202ca	0.1255856616808358
103	0xbfd23d6c413107ec	-0.28499895445213386
104	0xbfd697c6c69e315d	-0.35301370044978403
105	0x3fb87fc336432b53	0.09569950175061352
106	0x3f856749b21c76e5	0.010450912235281115
107	0x3fc81daa63ccd41b	0.18840532181789701
108	0x3fb686ee5a6b3eff	0.08799638469212921
109	0xbfd7bd517d2b53db	-0.3709300730091038
110	0xbfc126abd34e1801	-0.13399265115384654
111	0xbfcb31b74a8e7a35	-0.21245471134621288
112	0xbfeed01015c4c849	-0.9628982949418595
113	0xbfd860c5ad95e886	-0.3809065051242516
114	0x3fc9d31ca506c931	0.20175512369093831
115	0xbfbdec72e0818e27	-0.11688917142014842
116	0x3fd5b6fad7dc5d55	0.3392932041183106
117	0xbfdc0135fbade1c5	-0.4375739057354873
118	0x3fd42488c8a38bd5	0.3147298774112504
119	0xbfd1305ba777d366	-0.26857653955749183
120	0x3fc508072440ddee	0.16430749197182543
121	0x3fca125263e57814	0.2036841380858624
122	0x3fbda9d2e63b6e6d	0.11587255593206587
123	0x3fb7ace44e716ed4	0.09248186984171564
124	0xbfac04504b9c3667	-0.05472041056610238
125	0x3fd363427962dc12	0.30293332914465154
126	0x3fc77f5fd43052ee	0.18357465611247598
127	0xbfdad07f897a17f9	-0.4189757196949127
128	0x3fb0dab39f950ac5	0.06583712240266511
129	0xbfef3f3b2ddf6164	-0.9764686485241723
130	0xbfe489d6ac5c7847	-0.6418259970121277
131	0xbfc82b34bf150249	-0.18881854372195253
132	0x3fcebe1ba8b76c07	0.24017663705930678
133	0xbfd41540d743e810	-0.31379719755170843
134	0xbfd731a8b04a6a41	-0.3624059411610326
135	0xbfac789877b2b8f2	-0.055607571231449784
136	0xbfc5e4ffc800f367	-0.1710509993153224
137	0x3fb63f3880b6ad4b	0.086902171539511
138	0xbfd8d7e8a2dd7b4a	-0.388178023384104
139	0x3fcb93c0c1ce5a81	0.2154465624159521
140	0x3fca81da0fda5bdd	0.2070877625853588
141	0x3fcc1f897454ab65	0.21971243076526573
142	0xbfdb0b9eb96db0fc	-0.42258422954797914
143	0x3f8f108b9bf2df99	0.015168276497533205
144	0x3fdde51690bbe2f0	0.467107430783968
145	0xbfe66d161992fef1	-0.7008162021156449
146	0xbfd28f4ae1b9401f	-0.2899958805401201
147	0x3fc81dee35b00a1a	0.18841340657680022
148	0x3fbfc1c746c1b11c	0.12405057408767955
149	0xbfd290b2fa49586c	-0.29008173410455274
150	0x3fcb651763d20b5f	0.21402256368682068
151	0x3fc77bd769b3a0b6	0.1834668413278046
152	0xbfd5915796e0272d	-0.336995980586482
153	0xbfa5ad4d45dc8fd0	-0.04233781316568719
154	0xbfe4b73fc6aeb5ae	-0.6473692780033866
155	0xbfcdb1c207714e2b	-0.23198724139602808
156	0xbfc40a72ada5fcf7	-0.15656884650159217
157	0x3fcc0c63dbfba0ba	0.21912811509469582
158	0xbfca0a3c91fd49a1	-0.2034373963202372
159	0x3fb7a1fc15d390c6	0.09231544049140714
160	0xbfdb8220b5cfce5f	-0.4298173690324116
161	0x3fd486e05913c62c	0.3207321996588657
162	0x3fb8682565cf40ae	0.09533914313874689
163	0xbfe53be019f6a148	-0.6635590083215357
164	0x3fc1e81194bfcfa7	0.13989467394969532
165	0x3fd8ecc5b28036a1	0.3894514315769389
166	0x3f9d5b5e079fc681	0.028668851104106444
167	0xbfbd7eb8c182bc96	-0.1152148697317322
168	0x3fa198cff0ffb585	0.03436899010544451
169	0x3fa1a1188eabea24	0.03443218938442197
170	0x3fce27e3a3b6e5ae	0.2355923222910809
171	0xbfbc3d6f711dc98b	-0.11031242858533667
172	0xbfd1c5fb9a937c46	-0.2777089128048299
173	0xbfcd4a453a9cf6ee	-0.22882905351610056
174	0xbfd104ab89bc7c6f	-0.2659100384789274
175	0xbfc7c8dbcd4a329b	-0.1858172180549403
176	0xbfd4ff07379dd93a	-0.32806568557079496
177	0xbfeec1052642f0d4	-0.9610620257658646
178	0x3fdbd9b8e5fe4dbe	0.4351637121228257
179	0xbfcb8bcefcc3342e	-0.21520411817474056
180	0x3fc23ea785a574cb	0.1425370600290193
181	0xbfe7463166a0ceda	-0.7273184780555895
182	0xbfd4ced16ba87224	-0.3251231719348502
183	0xbfd4180b66f483e7	-0.313967562238814
184	0xbfd14af726badac3	-0.27020052702156877
185	0xbfd163790f0b87d0	-0.2716963431286077
186	0x3fc58d7b60316f3e	0.16838018605164423
187	0xbfdd3cad07a23071	-0.45682836289848355
188	0xbfc28dbddf1eacab	-0.14495061296961373
189	0xbfe4650992dfc589	-0.6373336666712685
190	0xbfa6a0dcfa7d6670	-0.044196038796781134
191	0x3f691bef52c36c87	0.0030650781901449572
192	0x3fdb676bb59bf891	0.42818730101851893
193	0xbfddeb18fc475d99	-0.46747421871756384
194	0xbfab84b5b42391f6	-0.05374687026941054
195	0x3fd15463e5cbc49c	0.2707757705785043
196	0x3fb7764fe32d2b1b	0.09164904876994877
197	0xbfb4da54e86f0c47	-0.08145647692349299
198	0x3fa374d2ecee5801	0.03800067083572856
199	0xbfac78d8709e810f	-0.05560947775598112
200	0x3fc2064c3f36d729	0.1408171948111712
201	0x3fc6bd334014a4e5	0.1776489317792659
202	0xbfe58f23897bd0bb	-0.6737230000712978
203	0xbfc8494b313aa576	-0.18973674682392144
204	0x3fd09a5c418a3757	0.2594214096105722
205	0x3fbb49589970aa4b	0.10658792253585962
206	0x3fd1b9a39fad27e9	0.2769555148448704
207	0x3fab4430e8ceb86d	0.053254631441959834
208	0xbfdacc907fb5ae67	-0.41873562308931017
209	0xbff303c8f13df5ef	-1.1884240554348897
210	0xbfcfdb32b3e1b8d7	-0.24887689383780895
211	0x3fdba1fa3e4e642a	0.4317613228282108
212	0xbf969a0c10240cf0	-0.022072018132360094
213	0xbfe6036abf87449d	-0.6879171124256974
214	0x3fdd79cae9958d5c	0.4605586320014561
215	0xbfd8eac9986f730d	-0.3893302906633814
216	0xbfa68aee9d8a9769	-0.04402871773827039
217	0x3fd19dafeadcb5e6	0.2752494615150155
218	0xbfe8a65de440ef33	-0.7703084428862667
219	0x3fdf99b4baa6f22f	0.4937564680838333
220	0xbfcc6f1328972d1e	-0.22213973504981593
221	0xbfb1554221ac72c1	-0.06770718881711969
222	0xbfe296b87fe113c8	-0.580898523105696
223	0xbfe1a58a8919c753	-0.5514576604602816
224	0xbfb0086d62f9e42a	-0.06262859026345838
225	0x3fd87c18f093d521	0.382574305476128
226	0xbf99b79222a173f1	-0.025114329684914286
227	0xbfe411b7c7896023	-0.6271628281783744
228	0xbf8d09f58f2357b4	-0.014179151945807301
229	0xbfc8ba0e27ba20fa	-0.19317795696066026
230	0x3fc5859075c508a4	0.16813855886909324
231	0xbf9cb2c1c2740afd	-0.028025653356062986
232	0x3fd828cb97050424	0.3774899458695151
233	0xbfd60de2377fa100	-0.3445973913171798
234	0xbfe150c43fa637d5	-0.541109203639048
235	0xbfc5a6a30c31ce69	-0.16914785476147934
236	0x3fbbf920aec0d438	0.10927013651310424
237	0x3fd4b3f569b9ca53	0.3234838039854015
238	0x3fa4761072fa91b7	0.03996325877713807
239	0xbfe74e852fbf1ff8	-0.7283349926519795
240	0x3fc512fafa471568	0.16464173527325987
241	0xbfa0f8c57e5b7ca4	-0.03314797561119434
242	0x3fd2b585101bac74	0.29232908795410784
243	0xbfcb66da5b947794	-0.2140763232391093
244	0x3fd95c5064cee395	0.39625940174624336
245	0x3fb83f75ca2607df	0.094718324520755
246	0x3fdc3bbae6a7f0c8	0.4411456348896192
247	0x3fcaa9c5f2ce0640	0.20830606799795426
248	0xbfebd7e6fd530fae	-0.8701052615874596
249	0xbfc2d000cb1d8f3e	-0.1469727508330098
250	0xbfe5c9131c460115	-0.6807952453819178
251	0x3fc6b447cef46f4f	0.1773767242929076
252	0xbfb2fbc5b0e7effb	-0.07415423935884739
253	0xbfd104e8c46ea177	-0.2659246366770484
254	0xbfe2e9711f90b9da	-0.5909963242063967
255	0x3fce2d1e3d59e608	0.23575189586317458

layer4.bias f8 [11]
0	0xbfd128e018082aa6	-0.26811983439317044
1	0x3fa324e865e750d3	0.03739095920505666
2	0x3f96d73da4b7c68f	0.022305453470784328
3	0x3f741144c266db09	0.00489928111203742
4	0xbf3d258f37d0c2d8	-0.000444743600215109
5	0x3fc9de50ec2ed1aa	0.20209704906814113
6	0xbfb06ccad489aa99	-0.06416003884229794
7	0xbfd17a60488b4a2d	-0.2730942448080523
8	0x3fcec8b3a1576fad	0.24049992921834243
9	0xbfc545d0cae40517	-0.16619310290119735
10	0x3fccfd76ecf89c2f	0.22648512431007492
