attack_soft_generative_decision_tree/experiments/vowel_params_state_dict/fnn_epoch141.pth (torch, 69599 bytes, 6 tensors)

layer1.weight f8 [80, 12]
00000000: 3ae8 4cc4 94e6 8d3f b570 a729 156d d4bf
00000010: 691b fd54 faec d03f 33b0 8843 de4d ad3f
00000020: d576 5444 58ca ea3f 9b88 e7fd b4a6 c9bf
00000030: e83a 017a 07dc e7bf df3a 2b1e 785e e1bf
00000040: 9c78 35db e822 e1bf c8a3 29b8 d844 de3f
00000050: 1d60 073a 1acc c73f 5c9f ea20 33c4 dbbf
00000060: b20f 6247 c235 a63f 29ff 47be d1b2 a53f
00000070: f9b7 724b 942a d8bf 26ee d75d c582 de3f
00000080: b176 1829 9c9e d1bf 1005 d1c8 ae96 e1bf
00000090: 0af9 d0d3 d775 d4bf 9af3 a9c7 a740 d93f
000000a0: fa77 df0c 9a55 d93f 5712 2d2d 37a7 d33f
000000b0: b006 3116 730b e53f 1077 57c7 64e7 dabf
000000c0: 008c c10d 23f1 b7bf 9f02 baa4 6617 efbf
000000d0: 74c8 1b8c 12c6 c73f 877b 6440 2c61 e7bf
000000e0: 5f82 d3b6 9621 ddbf 8d36 f325 d94f d43f
000000f0: 52cb b765 13f5 b53f 0955 d29e 1dd6 c9bf
00000100: 283d 9a7f 254c e23f 9f2b 4c79 d6d1 a73f
00000110: 5c8b e252 aaf4 dfbf c45d 4090 c90e c9bf
00000120: 0c7e cbae 6db6 b23f 3fe2 d095 3cdb bb3f
00000130: 577b 4485 87ca ecbf f6c4 de8a 5b52 d03f
00000140: e1ef b8dc 9dc1 e03f caaf abb7 4de1 d03f
00000150: 8c50 1aa5 5284 d53f a5f7 6852 08fb b43f
00000160: 5aaa b24b 0206 c1bf 3fea f0ef 48eb babf
00000170: 1800 9034 9cf5 99bf 9d96 b5ee ba32 c4bf
00000180: 84ab 86e4 4e50 b03f d648 a03b bcc3 cdbf
00000190: 6c5c dd0b b11d c93f 3393 73ae 3e7e f1bf
000001a0: 63fe 8454 d507 e8bf f6a9 995b a7d1 ce3f
000001b0: a8ee 1530 4ac4 c3bf 1c26 6d10 1541 a2bf
000001c0: 21bc a53b 821d cc3f c553 f5ff 77af d8bf
000001d0: 9e9c 544d f235 c03f 4202 91a5 60c3 cf3f
000001e0: 38a9 008b 8334 c9bf 1011 d66c 0c58 dbbf
000001f0: 9305 6684 9947 c0bf a3fd 4034 f34e aa3f
00000200: 1e1a 8315 f3ca b8bf 9f18 a2d8 a4bc dcbf
00000210: ae01 3ec4 1c21 e0bf e124 b9c8 55cf da3f
00000220: 140c 6973 3a74 da3f 075c 6bb5 cda2 c93f
00000230: 28e0 434d 2ed7 df3f 0621 070c 0d8c d83f
00000240: 88ba fba3 aacf b4bf a9cc e789 ca18 e5bf
00000250: 73e6 d1a5 c61e e03f 0484 6f8a 3391 e23f
00000260: 94a7 34bf d400 b53f 28a1 125a 608c d93f
00000270: 779d 4e32 137a e1bf cfca fe53 d738 82bf
00000280: 1671 3168 fc2b ddbf 6a77 730e dda3 d43f
00000290: 3742 da82 a0c0 c5bf 0d08 0442 80f6 a7bf
000002a0: ad13 7c44 210b 953f 9c92 5e1c 0523 e2bf
000002b0: e886 4cfc d09d c4bf 3805 e0a4 cb86 e3bf
000002c0: 0aa4 ec59 0338 d5bf 73f1 7f5e 08fb e13f
000002d0: 8685 5c27 6e26 db3f faf8 f97b 9850 d03f
000002e0: c031 aa72 8f67 e43f b491 6062 b8b7 e43f
000002f0: 3015 84d3 c3aa cd3f f505 dfb7 6304 d23f
00000300: be4e cc9c 6bce ac3f eeeb f748 ded7 c4bf
00000310: 4b76 783f 243a b23f 4187 9972 de32 df3f
00000320: 4129 94a5 e470 cbbf 6d3f 101b 4f77 cbbf
00000330: 8db7 f267 d3cd b23f 5fff c22b 45d7 e23f
00000340: dc8f a376 4c58 db3f 28c6 2e6f 5ca3 d8bf
00000350: 27cd 239f 90f5 d5bf c578 2fdb c8ad b8bf
00000360: 87e3 c9d1 3558 bb3f 9e0b ec47 8cd2 cbbf
00000370: 1499 8828 bea4 e33f 9b72 1097 f5b4 bdbf
00000380: 26b8 ae60 f405 c0bf 07f8 e52c 9192 cfbf
00000390: 0203 108f bf83 c1bf f098 e12b 5d22 dabf
000003a0: fb66 a9a4 8bac cdbf f516 960c e59c cd3f
000003b0: ec82 f69e 86e7 d7bf 7b5c 094c 98fe d7bf
000003c0: 24b2 fa19 25f9 bd3f a326 2121 f37e 813f
000003d0: 52b7 f89e 0da5 afbf e1d1 dcdb 0219 d73f
000003e0: 8793 eb37 3b53 ca3f b643 870e 0a8e d0bf
000003f0: bc7d 5f43 3432 cc3f 762c e40b f6cf e03f
00000400: 6e2f d6a0 e835 d83f 1f1c 8e88 262d e23f
00000410: 256b 5dbb 6b79 be3f 79e2 004d 1f56 d13f
00000420: dd98 e911 18fc 7e3f 345b 7acd 8d09 be3f
00000430: c3bb c4ec aa4b bfbf 0571 a96c 6c4e e4bf
00000440: a22b 37ef b27b cdbf 4cb5 d160 c5b9 c3bf
00000450: abd2 4e36 a4d3 4b3f 96e3 1f19 12c3 e63f
00000460: 1b09 5969 88b4 e63f 4b08 53ce 2b64 a9bf
00000470: a711 d025 6a59 d83f cad4 208f 2b74 aa3f
00000480: 535e 376a 998d a1bf fa62 052f 5307 bdbf
00000490: 316a 00d9 2f8f b23f d6e8 9bf1 5b91 b53f
000004a0: a657 cfa8 8817 e13f 8c49 8874 cdc7 cc3f
000004b0: bd21 c8cc f416 debf 86db 0479 6003 f2bf
000004c0: 5170 df18 ed17 d4bf 897a 61c8 296a be3f
000004d0: 0999 d684 b51d e33f db12 3f21 4370 d03f
000004e0: 55f7 c788 13cb c9bf 952c 927f 6030 debf
000004f0: 0f59 12ff b0d2 dbbf bea6 095e 413d c5bf
00000500: 760b e644 f800 e73f 7d87 f446 ba02 d1bf
00000510: 67ff a895 379c 89bf 9485 9e8e cabd dd3f
00000520: 87ab 9605 7b2c dd3f e41c 9f59 ef3d e3bf
00000530: 3934 1965 31a1 bdbf ec81 df34 e189 e1bf
00000540: 19c7 387d 69d7 a33f f282 5a25 27e6 b4bf
00000550: 0810 8116 386e e0bf 9f62 0a97 4bb6 d33f
00000560: a3ab 9f39 68c3 d73f b861 6ba7 1bb3 e43f
00000570: 3de4 a9cc fe6f b33f e1ff d9cc 35a0 cd3f
00000580: adbd 7ad5 e9f7 d43f 796e 286f 7cf1 c2bf
00000590: a1cf a218 4cb0 e23f e34c 02ae 66cc c0bf
000005a0: ac93 ebca 4f46 b63f 97f2 b501 eb78 a4bf
000005b0: bc46 aab6 c986 e43f afa1 2152 7da9 cfbf
000005c0: 84fb f37f 58d9 dcbf 5b4c 427a cf92 e3bf
000005d0: aa94 53de 42d6 d2bf 9034 ccfe 7d3a d3bf
000005e0: ba84 9676 58fc c0bf d9aa 9bae 4871 d3bf
000005f0: e189 e448 5ac3 cf3f e623 ad5e 3e87 abbf
00000600: f9e6 77b6 f22c 993f 9cd0 8371 907d c1bf
00000610: db99 fda3 b4b6 d5bf cbdd fe13 8de9 d4bf
00000620: 9c5f ba74 c306 d73f 9910 f18a 3792 bd3f
00000630: 92ff 61f9 9296 ae3f 9a00 86e7 18c0 e7bf
00000640: 1c56 2916 34ac d0bf 4b3a fa6e 5a91 c0bf
00000650: e3fa 0a92 85da d7bf c354 f40d ba59 d3bf
00000660: ffa7 4ba7 f597 d3bf 9d81 24b3 c7de b3bf
00000670: 4d95 69e6 9639 d9bf 811f 3303 2dc5 b63f
00000680: 8bcd a15f bc04 dd3f 15c3 4f9e 20b6 d13f
00000690: 1a11 abd5 decf ab3f 0564 ea81 d0ee d0bf
000006a0: 1020 931c 315c e0bf 12a0 f683 5e42 db3f
000006b0: ec7d 011a e41b 80bf 0b77 287b 7bb6 d2bf
000006c0: 1570 1f78 3c48 bcbf 8c67 8746 5cf0 cbbf
000006d0: 302e 281a 3828 d03f 8d3f 55dc 8467 d53f
000006e0: 0b59 f3f9 e70e e5bf 3123 ad07 c836 dd3f
000006f0: 1cd0 ffbe f420 d43f f0f1 862d 67d2 b8bf
00000700: d454 51cd c4f5 e8bf 74c3 d10d 7efa d53f
00000710: 8244 2fe7 db6e de3f 3699 12ec 86cc e0bf
00000720: 9cab 5861 135d bd3f 2a84 e2d5 d00a b5bf
00000730: e704 5341 a02a acbf 156b c78c ce1a d2bf
00000740: 2350 2be4 02a3 d7bf c5f9 dd80 bf43 c4bf
00000750: 019b 9146 8c4e d0bf e50c 8bf7 8227 bc3f
00000760: 243d e079 5eb9 da3f 1ac9 ee08 54cd ba3f
00000770: f134 0ddd f4cf b9bf 7099 f7fe d50d d23f
00000780: e650 238f 59ed a53f b07f e282 9551 db3f
00000790: 4c83 7944 00c3 e63f 9848 8ba3 c2b6 cabf
000007a0: e284 dc76 64f9 c13f 5f50 f8e0 9ae7 c83f
000007b0: 8424 450a e770 e23f 98b2 5398 48bd e3bf
000007c0: b2e1 7c71 296e cf3f 3d87 e960 d205 db3f
000007d0: 7698 54f2 df96 c2bf 7946 7e88 4efd d43f
000007e0: a8b7 7c6d c78b c8bf b6c4 893e 117f be3f
000007f0: 5a5c b8c9 7f0e e83f fc3a 5bcf 23ba bc3f
0.014599954834569318 -0.3191578776147808 0.2644639806716698 0.05723471235646151 0.8372002920693499 -0.20039999387433202 -0.7456090338617658 -0.5427818860278782
-0.5355114251540445 0.47295206055292427 0.18591621240079884 -0.43385008062840824 0.04337889787078043 0.04237990806359299 -0.3775988327787441 0.4767316261711322
-0.2753057862590636 -0.5496438905903762 -0.31969257054505873 0.3945712518541825 0.3958497167312768 0.3070810261890861 0.6576476510455986 -0.42037314860304864
-0.09352320752945786 -0.9716065614048438 0.18573219147907916 -0.7306119210878571 -0.45517509321329 0.31737354951915436 0.08577080949161811 -0.20184679274522235
0.5717952244030231 0.04652281027491444 -0.499308186476062 -0.19576377433325665 0.07309613721326275 0.10881403596511861 -0.8997228243714329 0.2550267082361438
0.5236348448738647 0.26375143944346446 0.33620134471244323 0.08195545207942574 -0.13299587913691618 -0.1051526628297461 -0.025350990970764625 -0.15779816299180008
0.06372540549516087 -0.23253586684638233 0.196218615334803 -1.0933214964399667 -0.7509562159320463 0.24077312443417015 -0.15442778919156308 -0.0356527884055817
0.21965053474875254 -0.38570976253441486 0.12664631629852335 0.2481499489240538 -0.19691509520755246 -0.4272490561345572 -0.12718504872104272 0.051383590820928825
-0.09684676432798553 -0.4490139117773512 -0.504042037282536 0.4189047298610387 0.4133440138868434 0.20028087004058667 0.49750859780715695 0.38354803251833436
-0.0812937403058901 -0.6592762654749055 0.5037568319959987 0.5802247718639824 0.0820439307032344 0.39919289394539925 -0.5461517317352634 -0.008897478342850288
-0.45580969023809936 0.32250143443331203 -0.16994100941930565 -0.046802528437197656 0.020550269894574025 -0.5667748979654621 -0.16106617278369773 -0.6102045269218825
-0.3315437677543406 0.5618936391543187 0.4242205986393731 0.254919167586095 0.6376416434809968 0.6474267884664671 0.23177383258750117 0.28151791530771614
0.05626236237563152 -0.16283777773773472 0.07119967031072709 0.4874797934663669 -0.21438272557163354 -0.21457852193315877 0.07345315254016622 0.5887781004639513
0.42726432405311043 -0.3849707685249961 -0.34311309376717464 -0.09640174246985385 0.1068147313288944 -0.21736291419810255 0.6138602058097455 -0.11604247034160624
-0.12518171997857158 -0.24666037266064242 -0.1368331383273685 -0.40834740910794576 -0.2318281702053396 0.2313505469757541 -0.3735062172291197 -0.37491424012609514
0.11708289989719184 0.008542918633014656 -0.061806131034571124 0.36090156050638994 0.20566501837234005 -0.25866938990389643 0.22028210916231028 0.5253858787776966
0.378290326182415 0.5680115382282372 0.11904023479784749 0.27088148612850876 0.007564634345362556 0.11733328119804015 -0.12224834709625924 -0.6345731851866111
-0.23033749275631715 -0.15410678126810706 0.0008492042367068316 0.7113123408044995 0.7095377023290753 -0.04959236997230273 0.3804574364915205 0.0516675579278086
-0.03428344174943434 -0.11339301965689322 0.07249735877886888 0.08424925469072106 0.534122781474015 0.22484749021584738 -0.4701511382886812 -1.1258244254401872
-0.31396033696160425 0.11880742208584584 0.5973765940186989 0.2568519425079054 -0.20150989702954783 -0.4717026944933392 -0.4347345820364276 -0.1659318646591625
0.7188683839489005 -0.26579148225038535 -0.012504991774335129 0.464708937908733 0.45583987756497674 -0.6013104200764272 -0.1157408592054744 -0.5480810196568746
0.038752838645804207 -0.08163685476257479 -0.5134544791731068 0.30800142049842266 0.37130170466724105 0.6468637723838162 0.07592766281767722 0.23145172598378763
0.3276314339409179 -0.14799457004197672 0.5840206605121133 -0.13123782631428246 0.08701037124735816 -0.03998503108866663 0.6414536063841392 -0.2473599101097199
-0.450765728906781 -0.6116711986418396 -0.29432746612139715 -0.3004450786837163 -0.13270097532680386 -0.3037893014103879 0.24814919051375653 -0.0537662020274821
0.02458552588175331 -0.13664441626281565 -0.339276466509913 -0.3267548270482307 0.3597878112718662 0.11551234380846366 0.059742539350735716 -0.7421993753378218
-0.26051046528059074 -0.12943582934208772 -0.3727125097465615 -0.3023514877580277 -0.3061498769517356 -0.0776181042060728 -0.39413998128141686 0.08894616439931548
0.4534140523821512 0.27674117527117065 0.05432030065779454 -0.26457607924527365 -0.5112538869952932 0.42592585455941034 -0.007865697902331235 -0.292387838622617
-0.11047723705945629 -0.2182727188472281 0.25245478205099214 0.33444329754728913 -0.6580695993277755 0.45646858930244877 0.31451147701523197 -0.09696049558164765
-0.7800010690795269 0.3434138426737754 0.47551629616379654 -0.5249666796487762 0.11470147253628088 -0.08219628545568072 -0.05501271054664319 -0.2828861594004349
-0.3693244198050271 -0.15831750671709535 -0.2547941865108641 0.10997789901289286 0.4175640287584932 0.10469556062779298 -0.10082941433684646 0.28209447764529383
0.04282646057404964 0.4268544939204686 0.7113038384814927 -0.20870240197706802 0.14042335323123384 0.19456802353727462 0.5762820435130753 -0.6168559050689337
0.2455493740215054 0.4222303339393994 -0.14522933323422976 0.3279606182996769 -0.19176571699193556 0.11912639405069822 0.7517699184271678 0.11221526920710895

layer1.bias f8 [80]
00000000: 180c 5992 d4f8 663f ae15 cd04 e92f b6bf
00000010: c06d 77ca 7a08 b2bf 74fc 2e76 0f24 d5bf
00000020: 622c 19ab b9a8 cdbf d78c afed c2f9 bc3f
00000030: 5977 d695 2a1d ce3f 6431 7ca3 f586 b83f
00000040: fc2e bb96 825d b3bf 97c0 8f97 bdc2 dc3f
00000050: 844e 0462 bb55 d23f 4ee2 c3c3 12bc d1bf
00000060: bf60 de81 a99b d2bf a966 7d74 51ed acbf
00000070: 4a63 441c dc67 abbf 77ce b4cd 5e3a e03f
00000080: 1aa0 2350 65d0 b6bf 4bb7 aff6 a346 bfbf
00000090: 60db 1b35 cc43 80bf ba62 eaf2 c45f d3bf
000000a0: d535 1b35 7a23 d03f ea45 e793 8608 d73f
000000b0: 144c d938 903c abbf 1225 03f1 3ae0 c73f
000000c0: 6176 cb90 2b22 a03f 815c 8019 8741 a83f
000000d0: ee19 8705 0f4f c8bf 4f02 936c e8ae b23f
000000e0: 6a6b a85d f9e1 983f 3aec 8d9a 1404 c23f
000000f0: 037b 806c 12c9 d33f e29f 7677 0b0c c4bf
00000100: e4b6 2562 85f2 833f 6a5c 9ed5 2885 c43f
00000110: a163 79e6 59b4 d83f 22b1 2e0b 5e39 853f
00000120: 427f dcc5 6168 c73f 7588 4799 24ad d7bf
00000130: 88cc 6400 fa65 d6bf d979 8c2f 5011 d2bf
00000140: a077 9e5a 15a6 da3f 406d 5692 d321 d23f
00000150: 69b3 382e b43d c1bf 0645 519b 4266 c8bf
00000160: ac2a 8a08 aceb c1bf 3e03 47b2 e2cf a9bf
00000170: 8a51 e13a 9a98 bbbf c184 3995 8aa5 8e3f
00000180: 65c8 4435 1f18 cdbf e813 169c 4a59 983f
00000190: 2c25 be1f f193 d73f db46 5f54 e9f2 c43f
000001a0: da55 ab10 be63 e03f 3f50 b240 71a6 c4bf
000001b0: 7d89 06ea ed9f a3bf f748 9efe faf0 aa3f
000001c0: fb43 9b82 71ac d03f 4508 33d3 0482 c1bf
000001d0: 8994 0ace f82f 753f a90f b5fd 9654 76bf
000001e0: 7ef7 81b8 8711 ae3f d90d 9a90 ff87 a3bf
000001f0: 77d7 457b d747 a4bf 1a90 27d7 7a3f e53f
00000200: b759 40df 1126 c03f 82f7 18bc 16a4 b4bf
00000210: afdf 4aae 7e2c d13f 874e e1eb fa37 bdbf
00000220: 56ba d285 beac d03f 9931 ba6c c2ec 9abf
00000230: 0723 1dc8 1795 c4bf 932f ba42 1898 c7bf
00000240: b527 8152 4732 c23f 3673 7dca 6234 d83f
00000250: b5be 3bce 0fa5 b43f cf4c 86ae 9481 b8bf
00000260: 5873 3873 eecf c53f 8594 37b2 b043 c0bf
00000270: 3745 c7df 16ad cabf aa89 7e88 7920 da3f
0.0028041984358266984 -0.08666855208601618 -0.0704418892195724 -0.33032595197068493 -0.23171158651743712 0.11318605711817341 0.2352650863294297 0.0958093189366927
-0.07564560108147228 0.4493860225766268 0.286482663840822 -0.27710408322994773 -0.29075086290823643 -0.056498094053222765 -0.05352676243837225 0.5071252839756671
-0.08911736685297492 -0.12217163822762449 -0.00794181382251019 -0.302720296118007 0.25216536699448727 0.3598953670853847 -0.05319643682437217 0.18653046386888456
0.03151069777025551 0.047374936926808615 -0.1899126793852725 0.07298138285387633 0.02429952272550954 0.14074952646828526 0.3091474589909213 -0.15661757786915503
0.009739915902823033 0.1603137057361182 0.38600776202434345 0.010363325802096816 0.18287298356244192 -0.36994280785268724 -0.34997415579272984 -0.2823067154257877
0.4163869271231935 0.28331460276395504 -0.13469555146130155 -0.19062073310718847 -0.14000463883379177 -0.050414165747048476 -0.10779727876189873 0.01496418254754628
-0.22729864216813947 0.023778119827983973 0.3684046564090575 0.16366306895957092 0.5121755910465098 -0.16132941874514192 -0.038329539125032654 0.05261978490956836
0.26052510981122595 -0.13678036034076704 0.005172702688161065 -0.005451764878049583 0.05872749450007485 -0.038146959687789646 -0.039610608861877 0.6639990045773658
0.12616179848619222 -0.08062879650330326 0.26834074993848395 -0.1141354394797479 0.26054347103755526 -0.02629379070872204 -0.1607999541395417 -0.18432906397026425
0.14215938118496543 0.3781973817292966 0.08064364228243444 -0.09572724591116642 0.1704080641365191 -0.1270657415581448 -0.20840726782493288 0.4082321007682831

layer2.weight f8 [80, 80]
00000000: e6ae df05 5b17 983f e81d 2196 14af abbf
00000010: 6cbd 3da2 9783 e0bf d414 d7c4 b819 ac3f
00000020: 3209 e70f c73f d5bf 6c20 f9ce 497e dc3f
00000030: 7973 468f 8e63 d43f 391b 2446 1fd7 b7bf
00000040: 7f4d 009f 9a70 ca3f 29ce 8538 a789 ce3f
00000050: 6ae6 095b eb42 db3f 7a10 7136 749f bbbf
00000060: 7685 b530 091a b13f 0b81 3b6d 32f8 cebf
00000070: dedb 75c9 b9c1 ba3f 8337 0061 a2b8 d23f
00000080: 6f69 588a 90ea cabf 8ad3 5657 1b3a d6bf
00000090: bd2e c485 310f e13f 5a59 2e94 5acc b0bf
000000a0: c1d6 e8e6 f43b cd3f 1c0c aad1 d49c d33f
000000b0: 8875 04b7 7278 e63f a22b 0ba3 7285 9dbf
000000c0: 1cb1 0204 0c63 df3f c0b6 81cc e810 d33f
000000d0: bd32 18dd 7a77 76bf d56c 5987 42bc d43f
000000e0: 1e11 d710 741c ae3f bc65 d839 72ab cb3f
000000f0: da3c 008c 43b3 d93f 513a 28c9 b021 bd3f
00000100: b60a 776a a93b cbbf ffa4 5cc2 6c25 c5bf
00000110: a1ff cce2 d678 c03f 7b24 9f9b 95a4 aebf
00000120: b04a 6abc faec d33f 22b1 3d71 ecae bebf
00000130: c370 8c0b 15a1 d1bf fab6 73eb c07f 9cbf
00000140: 62c7 30ee 7b45 c43f f9d5 6fe9 0aa2 cb3f
00000150: 1feb 49b2 653e cdbf 0ad1 fb89 e456 b13f
00000160: 38ed 3f74 0ecf d73f 8971 9625 f92d dbbf
00000170: fe55 ac4e a0d4 b13f 25c8 e259 b199 cabf
00000180: 1a2f 4ad0 1754 d23f a416 ec59 e067 cbbf
00000190: 4fdb 3f4f 0583 ab3f 2ae7 0a81 39ff d33f
000001a0: 72c2 e2fe 76ca c83f deeb a2fe 9364 e2bf
000001b0: 4bf4 f89d 9409 c43f 3fc4 aea3 90bf d03f
000001c0: db26 1aa8 a52f d23f 8f4a 3233 b406 bd3f
000001d0: 2ff7 b31a 13fc cd3f eb86 cad9 86cd b6bf
000001e0: 8d28 7f92 739a c0bf ddb1 c9dd 9458 d6bf
000001f0: 8deb f612 9f8b d33f 011f 4612 0c23 cf3f
00000200: b03e 4471 8a43 d83f 49a3 be22 6695 d73f
00000210: 87bf e2b8 268d ae3f a6ff e02e 63cd e13f
00000220: c967 c735 ea40 cd3f 559d 1899 41be d13f
00000230: 8f2a 96dd d12a b7bf c9ed cd1e d929 e4bf
00000240: 4075 d12f af43 e33f cc34 5720 3da0 debf
00000250: 8adf 853c eca8 c13f 5550 92ac 8b6b c93f
00000260: 9530 66c1 ab50 bc3f 070c bbcd 58bf b33f
00000270: 0b62 48c0 8eeb b2bf f8bf f76f 86b5 e8bf
00000280: ca6a 352a ba2e c8bf b63b eeeb 0920 d8bf
00000290: ebbe 5f5c 6373 abbf ab83 a574 1fce c0bf
000002a0: 35ce fa0d 87da c13f 4e92 8093 e8a5 da3f
000002b0: b7ef 91bf 06ed a33f 75e0 22be e790 b23f
000002c0: 7572 f748 b071 d3bf 5249 2ebe 14d9 c73f
000002d0: f8da d10d 449c a13f b6db 97e7 491b 9c3f
000002e0: e02f 5862 708b b73f 297a 403a a6ad c53f
000002f0: 0808 eebc 76dc ccbf a809 dd47 632c bc3f
00000300: 8541 67b5 dcde ba3f ada7 36b2 9e9f b43f
00000310: 052e 98c4 8b49 ad3f cb69 3ea7 8645 bdbf
00000320: 6410 03e1 4465 cf3f 0008 89ee bfad d8bf
00000330: a867 11b1 5a2c e1bf aba2 5021 6207 c83f
00000340: b195 20b0 f9c3 dcbf 1ed8 6c6f e678 c8bf
00000350: 0ee7 1c73 4251 b43f 1227 2c91 d285 c9bf
00000360: ed52 ec3b ad05 d3bf b890 5835 fa67 d93f
00000370: af5f 6d77 0d9d a1bf 2e8e ca7a 4420 86bf
00000380: 2b73 a8fc 89f1 d33f 045a a495 74b5 d23f
00000390: 4579 7539 63d6 d73f a2e0 0de0 d757 6e3f
000003a0: f4f6 c820 2c18 c4bf dc07 1eb4 03da b73f
000003b0: e350 3401 5ffc 7d3f d778 41a4 2f61 a63f
000003c0: 1daf 2087 090a ca3f c1c1 4a47 9c8a cd3f
000003d0: ee4b ccca edd6 abbf 82c9 7413 74a9 e1bf
000003e0: 9f29 ca9c 77d9 cebf 6934 cf37 c5ce c4bf
000003f0: 513f 3e2a b27b b1bf 3e88 3d72 e924 a13f
00000400: ba5b b5f9 203f cfbf 24ed 7283 b1d4 b23f
00000410: 2151 042c 0aaa d23f fcc5 1ff6 0f18 dd3f
00000420: 2b01 966b 372b b23f 8577 6cf6 3e3d d43f
00000430: a61e 2981 ab01 a73f d56f 788a 285d e3bf
00000440: de0c c861 c919 d33f 9b01 575a 4a27 bfbf
00000450: 02ff 973f 2a7a 9cbf 62de cec2 8782 cabf
00000460: d6e0 a3aa ebca afbf 8c4b bdd8 1d10 d43f
00000470: 07ea 96ec fb61 c6bf 83a0 a180 a490 dabf
00000480: 4e90 25f9 6c6e df3f f5ca 9318 9ba7 b4bf
00000490: c607 d195 3b4b ca3f a712 5788 e366 e4bf
000004a0: a693 6780 b219 d73f 8ac0 e675 b805 cabf
000004b0: ab17 aa04 f3ff 723f c42a ab9a 96e5 c7bf
000004c0: 4a4b 8b3f 6457 a1bf dc7f 086c 5d15 e23f
000004d0: 1c72 aab6 9801 d23f 1178 d146 7ff5 d8bf
000004e0: 9c1f 55a4 24e0 c43f 62ab b362 e72c c0bf
000004f0: cce0 d52e 3672 be3f 98ca afd3 b411 e63f
00000500: 04ea a0c9 4a8c bb3f 2170 571b dbbe c4bf
00000510: 2d99 6c47 8fa6 ddbf c799 004e 47a8 c73f
00000520: 9fd1 f86c c8f0 cd3f 9b60 f4ed 4cfb e1bf
00000530: 2742 0f51 719c c8bf 9d88 614e f989 c03f
00000540: b980 0a3a b3f6 cabf 6ac4 08b3 1515 b6bf
00000550: c2ea 0b72 10cb a7bf 9fab 58df 85a6 d0bf
00000560: f704 c1ea f572 cf3f 31d7 b38b dc15 c53f
00000570: 1092 6f92 80b1 bebf 639f 52dd 999e d03f
00000580: 436b 3e7a b3bb c33f 3adf ff4c 0436 ba3f
00000590: c898 7c3c 76e8 ca3f a6a5 fe64 e578 b93f
000005a0: 5b95 a3af e649 d33f 45f7 4951 8f9a e43f
000005b0: 8d86 36e2 599f ccbf 411d df2b 3429 cb3f
000005c0: bd37 99fc d4cc d0bf b37c 59a4 6d85 cdbf
000005d0: b233 64c3 2699 b33f 7adb 591a 2a6d c1bf
000005e0: 5c8a 3738 dd90 d3bf 7899 c88b b513 c0bf
000005f0: e169 4b39 b7b2 d13f a070 22b5 ea78 d2bf
00000600: 1737 2162 4f94 d9bf de54 7059 ae0b d3bf
00000610: ff59 2eac 826a d43f a1ba e993 c15e cb3f
00000620: 3369 aeae 54da c23f 6ef0 9305 a421 a33f
00000630: 00c9 2da1 e105 973f c988 21ed 8aa0 9ebf
00000640: 605c 7235 bdbf a43f fac9 3e22 09e3 b93f
00000650: 7dbc cfcb 4487 aabf 16fd 3d67 beeb c7bf
00000660: 8492 80e2 b887 bdbf 01c3 416f df8e b03f
00000670: 7e0c ae0b 97a8 b73f ce47 3c18 c803 cdbf
00000680: a8de deac 25ae 943f 0625 52b7 f533 b03f
00000690: 85f3 44a9 4b8b e5bf 33da 696a 3c78 a3bf
000006a0: d2c1 5736 fd57 b8bf caf1 7b82 125d 93bf
000006b0: 9074 2828 8b51 d53f c748 2dde 3a51 ccbf
000006c0: fef8 de8d 31b2 d43f 97ba 178c a7f6 bdbf
000006d0: 6e87 76a8 c953 85bf 3785 c549 b2ed 92bf
000006e0: 048e e3c5 5a12 c5bf d5a1 4192 7da8 b5bf
000006f0: c042 79e5 5391 9cbf 9377 2228 19ce e13f
00000700: dba7 3262 3027 cabf 788f 792a 2a3b c9bf
00000710: c344 e4c8 c1e6 d5bf afd7 ec1b 1723 6e3f
00000720: 9a0a b9c7 c809 be3f 90a7 6559 1674 dc3f
00000730: 6994 1eb3 2e7a c7bf c81a 381c d4cf 96bf
00000740: 3937 592e 2a02 bc3f 8891 3a19 52cf e6bf
00000750: 32fb 25da 0c9a c83f 701a d349 9fdf c5bf
00000760: 055d 7ba7 51da a43f 1055 8157 34af d5bf
00000770: 1f92 8657 c9e6 aebf 31ba 7d55 a04e e7bf
00000780: a375 936c 404f b13f 3722 6711 ebaa d53f
00000790: 7ee7 b69f a24f dd3f 91cb 6908 9c9f dc3f
000007a0: eb6c 51e4 21c7 de3f c9fc fe99 b1d4 cf3f
000007b0: 59ef 3036 955b bebf a0fd cd27 c58c c23f
000007c0: 7883 ce37 f9aa c5bf 5d33 307f 0579 b3bf
000007d0: 0589 d2ee 53ba c43f 4f2c e0ea 3ab1 e73f
000007e0: 12f3 e51a b35c 97bf 333c 329d 7b02 c13f
000007f0: 3ca1 3ec4 c20d b83f dd78 c6ac 129f d3bf
0.02352659438467599 -0.054070132566774565 -0.51606351554612 0.05488374140581134 -0.3320176749513336 0.44520802700254225 0.3185764693424101 -0.09312625372340912
0.20656140102128615 0.23857584247490252 0.42595943346495935 -0.10790182427541764 0.06680352629839156 -0.24194937070479514 0.10451852005449733 0.29251918289889306
-0.21028334384102318 -0.34729655770507206 0.5331046688674729 -0.06561819188786924 0.22839223170165293 0.3064472243788161 0.7022031378325417 -0.028829375459092817
0.49042034522678235 0.2979070660720531 -0.00548503869641753 0.323990471055095 0.05881083207671821 0.21616962265470174 0.401566397399575 0.11379532729208931
-0.21275823305594138 -0.16520461550070561 0.128687725775305 -0.05984942936590528 0.31133907699510655 -0.1198566223590132 -0.2754566777018789 -0.027831091280794397
0.15837048654935432 0.21588264845165364 -0.22846671300416063 0.0677321278452078 0.3720127234698398 -0.4246809832636918 0.06965066834194286 -0.20781533135374378
0.28638263073729464 -0.21410755530103132 0.053733983921054766 0.31245267488303574 0.1936787361678572 -0.5747776006095326 0.1565423747396458 0.2616921995605174
0.2841581479666339 0.11338354349053702 0.23425520709855038 -0.08907358948865933 -0.12971348431739607 -0.34915658625575735 0.30539681293492366 0.24325705425530234
0.37912236272039035 0.3684935893348223 0.05967064864068932 0.5563217082599194 0.22854354501651944 0.27723731947704283 -0.09049712810353071 -0.6301084138535141
0.6020122465085151 -0.47853019865290203 0.13796761470052515 0.19859453131050722 0.11060594054851187 0.07713847182007792 -0.07390682405856112 -0.7721588312979284
-0.18892600117654573 -0.37695549049470445 -0.05361471655475988 -0.1312903708995042 0.13948143179514863 0.41637625126376043 0.03891774261953123 0.07252357856748566
-0.30381400228160454 0.1863122871987551 0.03439533871362771 0.027447848091437264 0.09197142029751104 0.16936185688332842 -0.22547802186096555 0.1100523043105911
0.10496310642998281 0.080560606488375 0.05720173621019956 -0.11434213240719442 0.24527798640167753 -0.38560484213314794 -0.5366643389090671 0.18772532107074844
-0.449461385726262 -0.19118957939798603 0.07936492262242842 -0.19939643944263047 -0.2972214780032079 0.39697127542082056 -0.03440134127475802 -0.010803732869425788
0.3116173713076928 0.2923251592013971 0.37246018038958467 0.0037039963066796836 -0.15698768235045402 0.09317038676638795 0.007320757972838462 0.043710221100569484
0.20343131158858166 0.23079255562835324 -0.05437415218889173 -0.5519352321628477 -0.24101157336947396 -0.1625601313120655 -0.06829370051695817 0.033484740443569624
-0.24411403839869 0.07355794390871445 0.2916284017421891 0.45459364924963075 0.07097193123445737 0.31623815598310784 0.044934615627935146 -0.6051218704701521
0.29844889210671777 -0.12169327455104055 -0.027809772616818947 -0.20710846912492104 -0.062095036106201526 0.31348367849312164 -0.17486523678037733 -0.4150782829442578
0.49111484843001996 -0.0806824622157299 0.20542092147121432 -0.6375596678631908 0.36094343699942966 -0.2032995773020086 0.0046386235141024175 -0.18669397880724692
-0.03386986995396642 0.5651080236457307 0.28134744490106 -0.38998395839541994 0.16309030555771364 -0.12637035674500924 0.11893023150867349 0.6896614202981537
0.1076094381577733 -0.16207445941006518 -0.4632909963132928 0.18482295330723117 0.233910611351928 -0.5619263312865032 -0.1922742505835384 0.12921062781521622
-0.21065368970903878 -0.08625922795251176 -0.046471132203767876 -0.26016375361603566 0.2456958194980314 0.16472966023837324 -0.11989596915334055 0.2596802388529708
0.15416568249642112 0.10238673095579723 0.2102191729874845 0.09950097766581809 0.30138556625600693 0.6438671672510529 -0.22361300988727742 0.2121949400154595
-0.2625019518644612 -0.23063440823441325 0.0765556551961726 -0.13614393507642913 -0.30571680536210066 -0.12560147595759097 0.2765329417722154 -0.28863017739218755
-0.3996771295831975 -0.2975879548478825 0.319000881333892 0.21382922861399314 0.1472879269538879 0.03736603324975439 0.022483373129440487 -0.02990929672558521
0.04052535321641737 0.1011205395323386 -0.05181326854641897 -0.18688182870025888 -0.11535220651473749 0.0646800657866713 0.09241622958329462 -0.22667790587780562
0.020195568729575314 0.06329284406287536 -0.6732538515130818 -0.03802670287125345 -0.09509260727623506 -0.018909730161782247 0.3331020252388237 -0.22122894142609636
0.3233760724505287 -0.11704489870292388 -0.010413718656142126 -0.01848486495271581 -0.16462263739150285 -0.084602211196063 -0.027898131257020564 0.5564084800605421
-0.20432095331972175 -0.19711806367842732 -0.34220928781821786 0.0036788417195578664 0.11733679653210985 0.44458540659126644 -0.18341621156756396 -0.02227717802272869
0.1094080317645564 -0.7128077023267432 0.1922012391259727 -0.17088690857618216 0.04072814149338381 -0.33881863160543535 -0.060354511198316134 -0.7283479375599368
0.06761553431302629 0.3385570211362707 0.45798554989925566 0.44724179097755107 0.48090407654463146 0.2486783983167469 -0.11858494351411987 0.14492096370302665
-0.1692801973813649 -0.07606539111311635 0.16193627511263045 0.7403845393577145 -0.022814558521974844 0.13288827109906406 0.09395997325066657 -0.30658404228769404

layer2.bias f8 [80]
00000000: c024 59c9 53fe d43f 6916 5e46 8625 c23f
00000010: d28a 5d6c 8139 8f3f 8f9d 98ee 00b2 cebf
00000020: f0ab 70a2 da65 c4bf 1eff 5813 ae0c d33f
00000030: 30b5 17fc 95bc a03f 1105 09c1 de49 d23f
00000040: 30d1 9471 463e b9bf 3f3f 436f 4e18 b8bf
00000050: 87d3 afcf 5514 cf3f 5be7 a6ea 4931 cb3f
00000060: 180f d150 a6b8 c93f 76ab f952 fa60 c3bf
00000070: 87ec 9a11 e175 c6bf 03ac 7906 5e6d c2bf
00000080: e552 ffac 3bca c2bf a25d 779c 18b8 a4bf
00000090: e35d 75a8 7836 c03f 6924 b9bb bfd7 c1bf
000000a0: 2f48 3c52 7cb2 a8bf c117 63a1 69b6 ad3f
000000b0: 3085 68ef 3715 b53f a53b 9901 702d d03f
000000c0: d1e8 814d f28c a93f 6f5c 2c52 a1c2 cbbf
000000d0: 2498 38ad 7dbf 9ebf 72a8 50b1 e023 743f
000000e0: ee82 c72e 995c 89bf c4ff 5170 e0a4 c23f
000000f0: 9d1e e2e0 fe7d d03f 563b 7770 c902 d13f
00000100: eafa 5da8 5879 abbf 830c 1476 82fa 973f
00000110: 930d a66d 0466 a8bf dcdf 7d01 9382 d43f
00000120: 503e a6d2 fd21 b4bf 3443 6e4a d6dc 91bf
00000130: 676d 5731 38f5 aabf 76e5 c447 ebc6 acbf
00000140: 190a c9b3 a8bf d83f 729c c325 faa3 c0bf
00000150: 87bb 0037 2522 c7bf 15a9 c9dd 5492 7c3f
00000160: 7a61 43ec c34f de3f f432 c154 d1d5 d83f
00000170: 3a62 421f 5acc ccbf 7fa5 9f24 0d86 bebf
00000180: dd42 9494 6a10 c6bf 10ae 7487 0832 c53f
00000190: 799d fee8 ae58 c63f 1360 3e64 dc8e cb3f
000001a0: 3fbc f909 74ba b23f 972c 4adf 9ae4 d43f
000001b0: a63f 0bcd 8bf6 c03f 818c ed14 5373 66bf
000001c0: e0f5 fefb b44f a8bf 2285 3e90 50f3 b5bf
000001d0: 3fa2 e58e 5401 ce3f e075 6a13 b4d0 683f
000001e0: 6eb7 e227 e0d7 c6bf 86d3 1218 329f a53f
000001f0: aee9 ed76 e616 c7bf aecc 15c7 4ca0 c03f
00000200: a4b4 9e89 3a8f c1bf 2c9b fef1 b36c 6ebf
00000210: 6f6a 8425 54da d0bf 1a2b c5b8 f108 d4bf
00000220: be31 266c 2787 503f 0de4 1c50 fb59 bebf
00000230: 4185 78b7 d0a4 afbf 0969 3fc4 2459 bc3f
00000240: 0634 f2e6 ab1e 70bf edb3 74e9 bf73 c1bf
00000250: 66b8 9561 b4eb c9bf 1322 f6b6 417a be3f
00000260: 7638 4c5a 8b0f c1bf c502 d03a b1f2 d73f
00000270: 32b7 25a5 24fd b23f 207e f7ec 81fc cf3f
0.3280229059497053 0.14177015720285915 0.01524640190081553 -0.2398072400112423 -0.15935833865782412 0.29764892472666016 0.03268879606535291 0.28575867510888125
-0.09860649369222041 -0.09412088600515477 0.24280808106382443 0.21244167287459956 0.20094756075024445 -0.15139702846075992 -0.1754723869288208 -0.14396262470413043
-0.1467966646875062 -0.04046704206455877 0.12666233277808123 -0.13939663568661168 -0.04823673728800803 0.058032322836467205 0.0823550185673596 0.2527732864008903
0.049903461419448576 -0.21687714111678555 -0.030027354905676998 0.0049170281463749455 -0.012383648624508106 0.14565663799657902 0.25769016228921676 0.26579509718879046
-0.05366017394316265 0.023416555840424024 -0.0476533302162593 0.3204696192328791 -0.07864366905982334 -0.017443989079370684 -0.05265212633431809 -0.05620513201797454
0.38669793660315716 -0.13000418514204487 -0.18072953401266664 0.00697549010201672 0.4736184890039322 0.3880503966982325 -0.22498632932981072 -0.11923296112185787
-0.17237598662224843 0.16558939565707975 0.1745813977879427 0.2152972688170399 0.0731575512270277 0.32645294004095987 0.1325239897910226 -0.002740537900011442
-0.0474831159221869 -0.08574393769824387 0.23441559770005146 0.003029205046302094 -0.17846300075091953 0.04223019164911705 -0.18038636023613946 0.12989196511225515
-0.13718349189494916 -0.0037139429623097766 -0.2633257261638055 -0.31304591220821154 0.0010087857232036058 -0.11856051164512867 -0.061804315944991924 0.1107352236862519
-0.003935500614841386 -0.13634489917004036 -0.20250563397297866 0.1190529891665693 -0.1332868758112828 0.37418776267444925 0.07417515785138276 0.2498934180321024

layer4.weight f8 [11, 80]
00000000: 91ae 9de7 9046 e8bf 0712 f6df 1c8b 853f
00000010: bbb3 74c4 3eb8 bfbf 9b39 71f9 7625 d93f
00000020: 523d e8e1 4af5 e83f 2d0a 07d0 3690 c3bf
00000030: 560d fe46 70c4 c73f e9d3 f2e2 6308 bbbf
00000040: ae86 6398 14fa df3f 01f4 297a 47f5 c0bf
00000050: 4698 bafc a35a d8bf 2789 b25d fb0c edbf
00000060: d671 cd1f 9a1d d9bf bdd4 48a3 3072 db3f
00000070: 087e 67f8 a932 e0bf 1435 792a 0552 dd3f
00000080: e4b5 db9e d129 c03f 339b 90ab 2d4a d3bf
00000090: b4e5 0e29 07ba b03f 0e59 1894 563c c03f
000000a0: c8ab af47 fae2 c5bf 9511 c1ff 3c0a e4bf
000000b0: 127f 75ff 6a1a c63f 98f9 8cf1 3f68 d9bf
000000c0: cac0 b463 a54e d1bf 27d2 3066 8100 babf
000000d0: fb72 4a12 c48d c0bf 16da 07f9 9df7 e0bf
000000e0: 8bcc 5908 89d9 93bf a022 6655 1921 d4bf
000000f0: 0276 15c4 eb37 dcbf 8d63 6b49 3db1 b23f
00000100: 2ec9 a71e 9c30 ccbf 4e58 a89f 79d7 cebf
00000110: 5b35 cdef 4a52 b5bf b539 42d9 e8dd e0bf
00000120: b9e6 8e85 4602 c93f 014f 1391 5d7a d83f
00000130: 5940 46cb 01e2 d23f 8553 a8c9 2df4 9abf
00000140: d0dd ff70 c227 d3bf c6b1 e0ac 315a d03f
00000150: 17f4 9442 d1dc d53f 58e8 3f21 4902 c83f
00000160: 32ab 0fe0 4ad9 ddbf fc3a 4134 944f e9bf
00000170: f4cb 2a1c bc06 d73f baae ac92 fac0 afbf
00000180: 36ab 23bd ef80 d23f cb99 0cb0 f315 a3bf
00000190: b215 83a4 8459 dabf 2972 4864 a919 e2bf
000001a0: 306e 475c e533 ae3f e228 e5dd 3f04 e4bf
000001b0: 6e66 3b39 5d12 b63f c7b2 70b7 9ff4 c2bf
000001c0: 0e34 8af5 c1d3 ab3f e653 adbe f74d cd3f
000001d0: 4868 9c25 e087 d7bf 2fe8 a045 0673 e0bf
000001e0: a435 ab14 226f c83f 5594 e302 ff6d b5bf
000001f0: 16a0 3fe3 3f01 b63f 2277 5c21 05b4 d7bf
00000200: 6944 62b5 e811 b23f ed76 ee02 bbf4 c4bf
00000210: b1a6 6715 e56a cd3f 636c 4117 5203 d23f
00000220: 12de eab4 d35d c23f 38bd b180 c596 c9bf
00000230: 3dae 0a3e b13e b63f 7d60 3aad fd78 c03f
00000240: 6c58 a7f6 cfa4 a0bf cfe3 d1d0 3dd7 c8bf
00000250: 6f2d bc07 5935 bc3f 0db3 380a e77e c0bf
00000260: 361c ce13 5955 b3bf 002c b4e8 885b d33f
00000270: 8246 b6a4 0b2c bc3f d1cc 3078 440f d5bf
00000280: 0db6 d4cd 01bc d1bf 3111 2220 7e19 d13f
00000290: f181 6b11 99ba bbbf 2915 9e0b dddb c73f
000002a0: 3455 aa22 82a4 e1bf 4e25 d3db 20f6 d3bf
000002b0: 04af 452b b1d7 ccbf 0ac3 40f7 bef3 b93f
000002c0: a437 2fbb 3211 9f3f aabb 7102 8827 c2bf
000002d0: eb8e c841 b36a e2bf 6f8a f78e e262 cd3f
000002e0: 9287 b814 247a a33f 3192 0f0a 0374 d13f
000002f0: 2e2b 3365 eb06 a5bf d5cb 7085 bdcc ba3f
00000300: e7a8 7d5b 899f b03f 1a53 1785 be8e d5bf
00000310: 7021 fc8f b287 7d3f b448 e681 d61c c1bf
00000320: b31d 8cad 550c 9cbf fc6d 6727 a176 c93f
00000330: 9753 6b02 5402 be3f 5748 ec5c 60af d2bf
00000340: 8a48 7cf0 0912 d6bf 3a4e 8ffc 592b b93f
00000350: e576 1cb2 4967 853f 156b 0d09 8bd7 e03f
00000360: 5d96 05a0 d943 b23f 5bc8 807d 74a3 d7bf
00000370: 0a85 e3dd e2f7 c0bf 5b23 62a0 ed9d cabf
00000380: 98bc 5922 6fe9 ecbf 241b f27a 1b5e d8bf
00000390: a4c1 9a2a 1fd3 c93f 2837 f528 b5f8 bdbf
000003a0: 688f e41c 2fc4 d53f b740 2b64 433b dabf
000003b0: 23db 1158 47fc d33f 66d3 77a7 5b30 d1bf
000003c0: 3e62 5652 d7af c43f 1a11 f530 c19c ca3f
000003d0: c4c1 d8bb 9802 be3f ed88 72c6 46e8 b73f
000003e0: 7906 745e adc8 adbf 8a78 e04a 51b4 d23f
000003f0: 7a73 f0da 0e02 c83f 5d3b 9ebf ddf1 d8bf
00000400: dd5b 15c5 cf72 b03f 7cf2 3145 62d0 eebf
00000410: 622a 8a80 2ef0 e2bf 606a 4171 abf6 c6bf
00000420: 92c7 9ca5 bb92 cd3f ebcf de8c e910 d3bf
00000430: 9c0a d4ca 52b0 d6bf 41bc 572e 9878 acbf
00000440: 67f3 00c8 ffe4 c5bf 6d57 1672 cad2 b63f
00000450: 122d 3f62 fcb6 d7bf 7c5f 0a3f 249a cb3f
00000460: 089a 55e6 90bf c93f 0607 25fe e76b cc3f
00000470: d8d3 1ea1 bab4 dabf 4231 9017 c4a0 783f
00000480: 8ff0 9614 9d35 dd3f 7f6b d0be ee64 e5bf
00000490: 41c2 3b43 7512 d0bf 4625 a22e 8302 c83f
000004a0: f811 5090 7893 bd3f 727c f439 768d d2bf
000004b0: 42e3 4ae8 cd25 cb3f d27a 8d4e 6aef c63f
000004c0: 30ad 607a 4c19 d4bf 6783 70d7 e2fd a3bf
000004d0: dc98 c527 eaf5 e2bf 1e3c 02f5 bd21 cdbf
000004e0: bc18 84f1 6d0a c4bf f4a6 d947 e133 cc3f
000004f0: dc3d a018 d501 c9bf 29ad 1c73 e7bc b53f
00000500: 93ed 91e0 8d84 dabf bf3f 2623 461c d43f
00000510: c7a0 72d0 7320 b63f 6863 f981 d8e3 e3bf
00000520: 294e 8e32 3a90 c13f 052d 862a d5cd d73f
00000530: 9f94 1585 9639 933f 88d7 28c4 2f7b bcbf
00000540: 7643 673f 5f3b a13f d13a 2692 912c a23f
00000550: ddcc 09a0 f850 ce3f 721a f030 cc60 b4bf
00000560: dc56 7e6c bd30 d1bf 497d 8e00 5cc1 c6bf
00000570: d119 c842 b3e6 d0bf 4dce ace3 79b4 c5bf
00000580: 78d5 820d 07ff d4bf ca93 f974 6696 edbf
00000590: ae06 8ce7 d2b6 da3f dd4d f3c9 837b cbbf
000005a0: cb74 a585 a73e c23f 3f5c 567b 4844 e6bf
000005b0: 4af6 e0e8 3029 d4bf 1302 d487 f677 d3bf
000005c0: 91e2 006c 5208 d0bf fc24 43fc 3265 d1bf
000005d0: 3e6f 3160 7b8d c53f 0c8f 1567 ea76 e2bf
000005e0: a1a6 2c0d 1b03 c1bf bca7 cd32 02cf e2bf
000005f0: ebb1 3672 8fad a9bf 96f4 715e c48d 78bf
00000600: c1b8 6181 0964 d93f 5ccc 961d ce9e dcbf
00000610: f691 23b4 b584 abbf 497d 6317 8aed d03f
00000620: 1bde 5007 56b3 b63f 5412 1d39 4c94 b4bf
00000630: 13f4 58e7 8fa8 a23f 0f81 9e70 d878 acbf
00000640: 57f5 b3a4 22a4 c13f d01a 397f 96b4 c53f
00000650: 8f12 81b4 38c1 e4bf be64 45a3 f807 c6bf
00000660: 531e 6663 dc58 d03f 90ff 5669 20a8 bb3f
00000670: 9ddd 9ecf 3b6b d03f 7a83 1a43 3d44 ab3f
00000680: e3b5 0c06 ddc7 d9bf db78 7cf8 28c5 f2bf
00000690: ec18 b237 06da cdbf 96d9 7945 2088 da3f
000006a0: 5ebe 147e 2866 93bf d557 d202 0602 e5bf
000006b0: 3f19 cc54 0b82 dc3f cf3f 8994 c9ea d8bf
000006c0: e845 8975 e78a a6bf 163b 7575 a9cc d03f
000006d0: f3c3 f010 1c5d e7bf a6d7 b459 1060 dd3f
000006e0: fd8e cc8c eb43 c9bf c8be e439 723a aebf
000006f0: 194c b77e 2d6f e1bf fb96 c798 b3c0 e0bf
00000700: e3c1 3312 2558 aabf 335e 1715 6312 d73f
00000710: 4426 9b45 bfa7 88bf 647d b471 8502 e3bf
00000720: 3427 eca7 668f 82bf 86f6 eb97 6d98 c8bf
00000730: 4cd1 c677 fe87 c43f fc3a d80a 7f2e 96bf
00000740: 44f0 4682 bf65 d63f 9ab8 70a2 9561 d6bf
00000750: 4492 5319 a618 e1bf ccaf 8444 221f c5bf
00000760: 791c d711 07f8 bb3f f622 d7b6 223e d43f
00000770: 71fc a212 7b44 a33f 8a41 f747 7edb e5bf
00000780: 6302 61f9 54ea c53f 1fb5 d13b 4ee6 a1bf
00000790: 024d 4c9a 6033 d23f bfe9 b933 0511 cdbf
000007a0: db44 5b7f 68a9 d53f 0cc9 411e 586a b83f
000007b0: 5e28 8400 7a7a da3f 8469 dcca 5110 cb3f
000007c0: a5aa 984d c887 e9bf 3f99 6709 62e6 c1bf
000007d0: 5dc8 5451 a360 e4bf 34de db7d 8813 c43f
000007e0: dd32 2eee f8a9 b0bf f561 ee40 25ee cdbf
000007f0: 4085 36d1 b05d e2bf 2d8a fa42 ab78 c53f
-0.7586140178440975 0.010519242844346811 -0.12390510841642215 0.3929116664848153 0.7799429332971306 -0.15283856542198873 0.18568232981133787 -0.1055967740129088
0.4996386993571872 -0.13248532738717247 -0.38053226166301035 -0.9078347044017264 -0.3924317656108348 0.4288446039748342 -0.506184563793739 0.45813111446189336
0.1262762094187756 -0.3014024901807943 0.06533856155774381 0.1268413756485604 -0.17098930836013282 -0.6262497897337648 0.1726812121732953 -0.39698790158208785
-0.2704251741115625 -0.10157021279230403 -0.12932635205370233 -0.5302266944771101 -0.019384518751803397 -0.31452020015471227 -0.44091314457713804 0.0730169586417004
-0.22023345467420924 -0.240950777967273 -0.08328693727999818 -0.5270885699590538 0.19538194199940564 0.3824685971023741 0.2950443730451347 -0.026322093423079024
-0.2993017295370608 0.2555050075777924 0.34160262586721174 0.18756975291745692 -0.46638748055436274 -0.7909642239190755 0.35978605986309664 -0.06201918640576083
0.2891196581901342 -0.03727685474432326 -0.4117137533724772 -0.5656325300838648 0.058989684595612935 -0.625518735302901 0.08621771476045989 -0.14809032876055125
0.054349957678916025 0.22894188700106993 -0.36766818688341063 -0.5140410766537168 0.1908915139123738 -0.08370965786487379 0.08595656679210636 -0.3703625512879275
0.07058576992337041 -0.16371858256473307 0.22982467217598448 0.28145267745066443 0.14348837217197336 -0.19991368087674188 0.08689410938921412 0.12869234999084603
-0.0325074184981283 -0.19406864830287282 0.11018902243465843 -0.12887275694938474 -0.07552105649493587 0.3024618408678066 0.11004708071984662 -0.32905685174337146
-0.2771000394885455 0.26718094957347477 -0.10831600833217415 0.18639720027219056 -0.5513315846498359 -0.31189748255981875 -0.22533239949131467 0.10137551819276439
0.03033904330714389 -0.14183139914845572 -0.5755249295075066 0.2295802305298653 0.03804123642863923 0.27270580275061024 -0.04106841669416493 0.10468658931567572
0.0649343345991472 -0.3368374156682862 0.007209489354643814 -0.13369256346465408 -0.027390803067673008 0.19893278526329528 0.11722302493156032 -0.2919541270686116
-0.34485100254927004 0.09831774154673037 0.010450912235281115 0.5263114144139275 0.07134781033308842 -0.3693515039077561 -0.13256488642131387 -0.20794458705156668
-0.903495375719916 -0.3807438564912664 0.2017554243116254 -0.11707622766445225 0.34009912320674696 -0.40986714155316 0.31227286911546254 -0.26857653955749183
0.16161624451048512 0.207908772377899 0.11722712122060047 0.09338800759227057 -0.058171670703825513 0.29225570976439796 0.1875628060378423 -0.38976234162048745
0.06425188600165606 -0.962937483927433 -0.5918190489331432 -0.1794027617459788 0.23104043566268878 -0.2979072452246771 -0.3545119267220487 -0.05560756269175516
-0.1710509993153224 0.08915391240438249 -0.37054357141887906 0.21564152792120328 0.20115863081737495 0.22204303655058072 -0.41728082403579725 0.0060126933904139385
0.4563973141737358 -0.6685708739126851 -0.25112659040226865 0.1875766732885415 0.11553147814999665 -0.28988414439840604 0.21209119646462155 0.179181373935498
-0.31404411269132293 -0.03904637222172518 -0.5925188805383885 -0.22759222472493063 -0.15656828205846363 0.2203332520323823 -0.19536842062414805 0.08491369781829818
-0.4143404667917931 0.3142257064109763 0.08643268431717664 -0.6215631998594349 0.13721396893071017 0.3719380297922757 0.018774368164845453 -0.11125467814494361
0.03365609787909467 0.03549628171014308 0.2368460446774411 -0.07960201449177776 -0.26859984965390793 -0.17777586009195037 -0.26408082505841174 -0.1695701944059799
-0.328065646356968 -0.9246094021478879 0.417408681984038 -0.21470687256679258 0.1425370600290193 -0.6958353432590981 -0.3150141023832914 -0.30419696106403754
-0.2505079321595441 -0.27180170664776404 0.16838018605164423 -0.5770160687793306 -0.1329072775200091 -0.5877696029904125 -0.05015228528222678 -0.005994574609869427
0.3967307818883335 -0.44719269647175053 -0.05374687026941054 0.26449825557752554 0.08867395094500134 -0.08038784403204008 0.03644227694574211 -0.05560947775598112
0.1378215126241382 0.16957360469878902 -0.6485866094086122 -0.1721182629796995 0.255423638409842 0.10803415843747488 0.2565450217766399 0.05325499958167419
-0.4028236922339074 -1.1731347757809576 -0.2332160732223153 0.4145584753490764 -0.018944390006423333 -0.656497006903687 0.44543727189047283 -0.38933028703195033
-0.04402850446480128 0.2624915740060926 -0.7301159220570511 0.4589882732428755 -0.1973852574820895 -0.05903965908725933 -0.544821498386571 -0.5235231384255877
-0.051453741523690665 0.3604972558946173 -0.012038702308376455 -0.5940577717591791 -0.009062578200900263 -0.19215173643162958 0.16040020798176113 -0.02166174415293208
0.349960210059866 -0.3497060858088702 -0.534258889642452 -0.16501262994404298 0.10925335107377689 0.3162924562025603 0.037631841683371976 -0.6830436139662635
0.17121374298769174 -0.03496021728720166 0.284385824853601 -0.2270819189614723 0.3384648555484781 0.09537268389411596 0.41372537660993725 0.21143553166696105
-0.7978250041536127 -0.13984322985852235 -0.6367966259479193 0.15684610505535235 -0.06509357275917745 -0.23383012457340127 -0.5739368520918688 0.1677450253528873

layer4.bias f8 [11]
00000000: 34b6 57b4 fafe d0bf 950d 8ef0 5a2d a33f
00000010: ff61 6d97 ec14 953f 2f71 8e7b d10f 843f
00000020: 4655 d782 fbf4 543f d7b4 00be 5162 c93f
00000030: 5753 cdac 3faa b0bf f4b5 a507 e80f d1bf
00000040: 6b8b a121 e8f7 cd3f 4bc1 3b11 9f75 c4bf
00000050: 6c01 bc9a 7bb0 cb3f
-0.26556270228943224 0.03745540796719663 0.020587631933581815 0.009795795996801885 0.001279111496264322 0.19831296708563315 -0.06509778946685905 -0.2665958475762118
0.23412801401272118 -0.15983951894259926 0.2163233285464331
