attack_soft_generative_decision_tree/experiments/vowel_params_state_dict/fnn_epoch183.pth (torch, 69599 bytes, 6 tensors)

layer1.weight f8 [80, 12]
000000 e6 6e 6a b0 06 51 94 3f cc 02 b5 57 ec e7 d3 bf
       0.019840340154231216 -0.31103046956199587
000010 8f 14 4a ca 27 6a d0 3f 0b 11 f6 8e a5 37 b1 3f
       0.2564792132837476 0.06725535145057308
000020 e8 16 dd ac 43 f9 ea 3f 7e 40 10 8e 9d 11 ca bf
       0.842927777885703 -0.20366258084004935
000030 32 f3 4d eb a6 05 e8 bf ae ee 95 b3 6c 4c e1 bf
       -0.7506899448195326 -0.540579176667469
000040 e8 b2 6b 30 93 4f e1 bf d4 1d 0d d7 73 da de 3f
       -0.5409637399403353 0.48208328248116783
000050 f7 79 8f 5d e3 17 c8 3f e9 91 9d 37 d7 fc db bf
       0.18822900837308484 -0.4373071711654846
000060 1c 7d a9 86 51 06 a6 3f a2 cf a0 ce f9 5a a4 3f
       0.04301695603202857 0.03975659034077174
000070 85 f6 1e 0c b2 d8 d7 bf 1b d6 86 7c ee d0 de 3f
       -0.3726010435455936 0.4815021720963572
000080 90 c7 6a ff bb 29 d2 bf 77 de 69 81 6b f6 e1 bf
       -0.2837972635562602 -0.5613305595024504
000090 4d 23 a0 1c ed f6 d4 bf 42 e7 0d 87 ea 75 d9 3f
       -0.3275711803003574 0.39782202900788743
0000a0 56 17 53 55 e1 92 d9 3f d3 a7 d3 d4 76 4d d4 3f
       0.39958985645750056 0.31722803863396826
0000b0 cc ec d4 a8 5b 3c e5 3f 88 1a 39 58 17 a9 db bf
       0.6636179254050147 -0.4321955071976977
0000c0 79 7b 40 28 c3 4b b6 bf a8 b7 02 32 8a 17 ef bf
       -0.08709354145729077 -0.9716235138673612
0000d0 e2 fb 9e 0a 4c f9 c7 3f 9c 22 bf c6 0f ab e7 bf
       0.1872954418049338 -0.7396315461893042
0000e0 d4 9e 1a dc 2f 39 dd bf f9 a1 40 cb 33 b5 d4 3f
       -0.4566154145672787 0.32355971192239924
0000f0 d9 7e 94 b1 6a b3 b5 3f 71 b2 22 e5 b4 eb c9 bf
       0.08476893268061349 -0.20250569523104248
000100 25 17 46 b8 1a 2b e2 3f a2 27 45 49 a3 a1 a8 3f
       0.5677617644402956 0.04810819882784691
000110 bc 3f 9f 77 72 15 e0 bf da d6 90 fa 43 ec c8 bf
       -0.5026180588119966 -0.19471025213868282
000120 5c 67 32 0e c6 6c b3 3f e3 ba 7c 78 e7 92 bd 3f
       0.07587850424388648 0.11552282992918665
000130 4c 64 27 f6 fd 0f ed bf 15 72 da 84 d4 78 d0 3f
       -0.9082021529858451 0.25737488721804996
000140 6e 95 39 04 65 0d e1 3f 3a b9 f9 79 95 d5 d0 3f
       0.5328850824850357 0.2630361262480566
000150 30 bc d3 34 5e f1 d5 3f d0 32 e0 ff b7 fb b5 3f
       0.34285693320174726 0.08587217328040286
000160 3f 0b d6 57 e1 8e c1 bf ce 0e 0c 66 b2 c4 bb bf
       -0.13717285908577456 -0.1084701060427122
000170 9e 41 dd a2 fc 23 9b bf 35 0f 6a ee 32 95 c5 bf
       -0.026504466476866655 -0.16861569062540985
000180 4d d3 b8 a5 4b d6 b0 3f 02 ef 50 9a 88 46 ce bf
       0.06576988979288707 -0.23652751479118456
000190 51 95 b1 b3 41 31 c8 3f ef ca 10 d9 f5 b9 f1 bf
       0.1890031936083383 -1.1079004744648804
0001a0 d9 da 07 76 fd 58 e8 bf bd 41 f8 f8 4a 66 cf 3f
       -0.7608630471503047 0.24530923039175248
0001b0 4c f9 49 8f 00 72 c4 bf 11 d9 97 0e 0c 77 9e bf
       -0.15972907063037167 -0.029751003637977173
0001c0 28 fc 0d 38 9d 03 cc 3f 53 6c d9 2b 4c e6 d8 bf
       0.2188602946953051 -0.3890562465873632
0001d0 a3 84 ef 9c d2 d2 c0 3f 25 2f a1 e9 9e 58 d0 3f
       0.1314337984358974 0.2554089814700425
0001e0 17 59 37 40 fe c1 c8 bf 5c 1f 0d bd 4e 52 db bf
       -0.19342020164067072 -0.4268986555293759
0001f0 dd d1 04 f4 a4 bc bf bf aa dd 08 8a 46 2b a9 3f
       -0.12397223432055378 0.049158291196757034
000200 f4 62 91 62 69 ef b8 bf bc 72 7b bf 2d ea dc bf
       -0.09740313202327028 -0.4517931337302732
000210 42 e7 8c b1 2f 5d e0 bf b6 94 2f 0f e4 28 db 3f
       -0.5113752811223338 0.4243707798289721
000220 15 7d f8 9f ce 62 da 3f 91 71 c8 97 ef 4c ca 3f
       0.41228070852408055 0.20547289763716184
000230 b0 3f a0 22 f5 f5 df 3f bc 5e ea 65 ad 96 d8 3f
       0.4993870580810791 0.3841966147678979
000240 97 c0 e7 08 2b cf b4 bf 4c 2d a2 04 f9 01 e5 bf
       -0.08128613440908548 -0.6564908113954657
000250 30 dd b7 69 7d 37 e0 3f 27 e7 ce 9b 88 a2 e2 3f
       0.5067736687478028 0.5823405306939308
000260 06 19 b7 2d 57 a8 b4 3f 32 a4 f5 fa a4 9e d9 3f
       0.08069367281050085 0.4003078890587545
000270 7f 01 25 38 51 9e e1 bf 54 b7 68 ce 28 f1 7f bf
       -0.5505758377621958 -0.007798346900512804
000280 f4 00 3e 77 0d 09 dd bf d1 5f e4 7f a3 d5 d4 3f
       -0.45367752690073293 0.32553946961843133
000290 59 a0 a5 5b 9d d3 c5 bf 1e bd 10 33 27 f6 a7 bf
       -0.1705204675192842 -0.04679987429005393
0002a0 e1 16 0b b5 dd df 97 3f 7f 66 c1 26 19 f8 e1 bf
       0.02331491868496627 -0.5615354306166437
0002b0 b4 83 05 e0 f6 54 c4 bf 01 74 40 e7 8d d6 e3 bf
       -0.1588429063658886 -0.6199407116542944
0002c0 15 42 57 7a 74 4d d5 bf 56 01 1f 0d 97 f8 e1 3f
       -0.3328524775252231 0.5615954643508683
0002d0 ab 9f 5f fe 04 b2 db 3f 5a 7f 60 b0 cb 75 d0 3f
       0.43274044839062736 0.2571896765166365
0002e0 b0 be ee 7d 97 33 e4 3f 01 66 1a 6b 0c c3 e4 3f
       0.6312978229161299 0.6488096324785034
0002f0 db 68 b3 74 b8 18 cd 3f a0 da eb bd b0 5d d2 3f
       0.22731691072733082 0.28696840807917035
000300 98 50 18 06 7a a7 ae 3f 73 52 a4 79 15 14 c4 bf
       0.05987149547959908 -0.15686291160149643
000310 05 df 3b 98 0a c1 b1 3f 0c 0e ce 13 99 b1 df 3f
       0.0693518277802206 0.4952147191436047
000320 f8 a4 ce 5e b6 fc cb bf 31 52 f2 0d 97 88 cc bf
       -0.21864966992624324 -0.22291839772209834
000330 23 03 56 7c 2c d6 b5 3f 79 01 51 00 ee 01 e3 3f
       0.08529928241297262 0.5939855581455468
000340 e0 39 95 82 25 a0 db 3f 82 44 a4 cc 7e 1f d9 bf
       0.43164956810224275 -0.3925473211721241
000350 a1 2b 37 c1 d9 72 d6 bf 1f 99 86 2d 02 10 b9 bf
       -0.3507599245901308 -0.0979005204340848
000360 36 81 cc cd 76 37 bc 3f a4 78 d8 52 64 62 cb bf
       0.11022131466279891 -0.21394018216318955
000370 ec aa ee fd c3 e5 e3 3f a5 84 7e 5b d3 02 bf bf
       0.6217975577941082 -0.12113686546082876
000380 bf fa 14 12 d1 8c bf bf 35 93 e5 57 45 3d cf bf
       -0.12324244204954037 -0.24405733863673054
000390 e6 c3 33 34 dc d7 c1 bf 28 75 ce 0f f6 22 da bf
       -0.1394000296491235 -0.40838386100388613
0003a0 aa 7f b9 4b cb 0d ce bf 83 c1 0a 7a a5 a8 cd 3f
       -0.2347959632634205 0.2317091794880178
0003b0 07 99 7f 4c b1 2a d8 bf a2 8c 92 40 56 d3 d7 bf
       -0.3776057478957146 -0.37227398210434093
0003c0 a6 b5 30 c6 aa b9 be 3f 79 7e 59 31 4f 19 8e 3f
       0.12002055491094285 0.014696711247949456
0003d0 eb 57 ca 34 2d 6b ad bf 43 17 0c 4e b5 82 d7 3f
       -0.05745831746496307 0.3673527967624645
0003e0 9a ea 64 10 1b 8c ca 3f 66 72 64 32 d5 d2 d0 bf
       0.20740068722246435 -0.26286821290140094
0003f0 85 f0 b4 d2 36 db cc 3f 28 c3 1e a3 9b df e0 3f
       0.22543988502900816 0.5272958932820062
000400 f1 b3 a5 3f e3 65 d8 3f cb 52 81 1e a7 33 e2 3f
       0.3812187310748519 0.568805274563226
000410 e7 d3 77 96 59 46 bd 3f a1 f4 67 05 55 27 d1 3f
       0.11435470508133926 0.2680256417077747
000420 e1 4b 6c f5 61 01 7f 3f 44 16 5f e3 26 17 c0 3f
       0.007569677973850526 0.12570654012795235
000430 f1 5a a7 ce 77 a0 bf bf ef 15 12 5a e9 7c e4 bf
       -0.12354229731804957 -0.6402479895775154
000440 ac b1 21 b4 5c 76 cd bf 67 1f 05 fe 18 95 c3 bf
       -0.23017462535370947 -0.15298759845085927
000450 36 f9 60 19 e8 9f 80 bf ea 06 06 f5 4a d4 e6 3f
       -0.008117497705936044 0.7134146485916208
000460 d4 75 81 ac 4a e4 e6 3f 98 49 82 6c 66 43 a6 bf
       0.7153676385166201 -0.04348297190257994
000470 e0 d8 04 67 19 a2 d8 3f 0c 79 8e 67 29 21 aa 3f
       0.3848937517208366 0.05103425397031644
000480 0c ce 59 32 08 95 a1 bf 8d 29 da 03 c4 e5 bd bf
       -0.03434014906533997 -0.11678719610259787
000490 4e ca 08 d7 50 7b b1 3f d5 92 0e b1 e3 23 b6 3f
       0.0682878994928526 0.08648512909583002
0004a0 ff d3 1a a7 56 3b e1 3f b3 2f 59 76 b9 7f cd 3f
       0.5384934676900456 0.23046034125070278
0004b0 c6 5c 07 27 2c 84 de bf 13 09 91 98 fc 19 f2 bf
       -0.4768171673908451 -1.1313444099074033
0004c0 57 96 96 e7 21 49 d4 bf 8c c4 c4 1d 44 06 c0 3f
       -0.31696364990270837 0.12519122556253526
0004d0 fe e7 a8 d5 c6 59 e3 3f 08 8a 3c 06 4f 89 d0 3f
       0.6047090695421955 0.25838065728217474
0004e0 cf 48 6e 1c 59 7e c9 bf 06 0f e4 39 27 13 de bf
       -0.19916833770964223 -0.4699190202083944
0004f0 f1 a8 6e 4a 82 51 dc bf 80 66 eb ec 11 0e c5 bf
       -0.4424749113919822 -0.16449188297592698
000500 07 87 5e a3 e6 46 e7 3f 37 55 ce 6b 89 fa d0 bf
       0.7274048987203238 -0.265291552809987
000510 41 5d 39 9c 3b 55 82 bf fe 0e c5 9d 71 fc dd 3f
       -0.008951631264763395 0.46853294760897757
000520 02 86 ef eb ff e8 dc 3f cc 1b 5f c5 77 57 e3 bf
       0.45172117271985723 -0.6044272284424266
000530 a7 29 4f 95 b7 91 bc bf ef 99 26 10 11 a1 e1 bf
       -0.11159846682782036 -0.5509114566273733
000540 93 da 7d 48 63 94 a5 3f a7 41 22 15 d0 5e b2 bf
       0.04214773425967624 -0.07175922885858786
000550 9b ec 6e 76 72 96 e0 bf 85 d0 d1 ee 7d 4c d4 3f
       -0.5183651269102428 0.31716869661546127
000560 80 f9 e6 11 2f e5 d7 3f af 24 e8 b0 7a bf e4 3f
       0.3733632731272323 0.6483739333354118
000570 13 a2 9e e4 1e a7 b2 3f 40 5b 96 b6 5b a8 cd 3f
       0.07286255914244348 0.2317003861942002
000580 3f 22 c7 47 a4 18 d5 3f 6a 5d e5 0b cb 7d c2 bf
       0.3296290112453199 -0.1444639022908903
000590 8f ec b1 3b 05 b4 e2 3f 05 56 5c 27 20 56 c1 bf
       0.5844751516264227 -0.13544084474476406
0005a0 9b 06 d3 78 eb 83 b7 3f 9b 92 3a 8e 7f 71 a5 bf
       0.0918566865903138 -0.04188154803458596
0005b0 4d 57 a2 40 6a a3 e4 3f a0 4b 7a 39 ff 36 d0 bf
       0.6449481260667455 -0.25335674870546576
0005c0 4f bd fe 3d 98 3e dd bf f9 d7 24 ff 1f 96 e3 bf
       -0.45694547704893734 -0.6120758040694901
0005d0 ea 2d 47 d9 49 2f d3 bf c4 75 65 f3 a6 cd d2 bf
       -0.2997612592559721 -0.2938020111958759
0005e0 aa ca 51 58 9c 45 c1 bf 71 d8 58 11 9b 70 d3 bf
       -0.13493685066676636 -0.30374790853546246
0005f0 f4 1b c1 33 d8 0c d0 3f 58 a2 5f 22 2b 3a a7 bf
       0.2507839684880644 -0.04536566538428549
000600 a0 c7 f3 66 48 35 99 3f d4 96 dd 4a ba 71 c1 bf
       0.0246173203312946 -0.13628319411798506
000610 87 77 5c 96 8a a6 d5 bf 73 3b 2b 1c cd db d4 bf
       -0.33828987773619484 -0.3259156012617758
000620 7b 07 f4 46 96 6c d7 3f 1c 7c 4c c8 9b 7e bd 3f
       0.3660026257422186 0.11521314277750644
000630 82 90 7b 89 13 95 b0 3f ea 08 47 3d fb fa e7 bf
       0.06477472406874266 -0.7493873783899094
000640 ae 80 5f 72 e8 ef d0 bf ce 6f fa 6f da 0b c0 bf
       -0.2646428219723117 -0.12536173312844173
000650 95 9d 86 98 0a 29 d8 bf 7e 43 fb 3e 89 7a d3 bf
       -0.3775049676428009 -0.30435401106392834
000660 7a b1 65 c9 be ac d3 bf e2 3d 47 3c 54 6c b4 bf
       -0.30741853397082475 -0.07977797004354373
000670 39 80 14 66 a4 58 d9 bf 51 c5 11 ee db 75 b6 3f
       -0.396035289466457 0.08773588716737392
000680 69 8c e9 cd ec 15 dd 3f 09 7f 01 08 56 e1 d1 3f
       0.4544631968366902 0.2793784216100766
000690 46 59 e2 72 90 37 aa 3f f9 34 56 02 19 f8 d0 bf
       0.05120517160792075 -0.26514268139074165
0006a0 ab 46 26 ad 5d 60 e0 bf d8 d6 59 24 94 58 db 3f
       -0.5117634183718186 0.42728141355415294
0006b0 1e 1b 7c 5e 6d b9 78 bf 8f 52 58 50 0e c2 d2 bf
       -0.006036212180112325 -0.29309423299972875
0006c0 45 24 d6 e6 2f 4a bb bf 34 30 0c 88 3c a6 cb bf
       -0.1066007555547382 -0.2160106338782285
0006d0 9b c7 9c 0f c4 a6 d0 3f bc e8 83 97 4a 68 d5 3f
       0.2601785805192038 0.33449044033444486
0006e0 23 58 37 27 14 4a e5 bf 27 01 9d 28 e7 3e dd 3f
       -0.6652928129140075 0.4569642922033545
0006f0 20 01 ac eb 72 dd d4 3f 97 e3 39 65 63 65 b9 bf
       0.32601616873582095 -0.09920331212369003
000700 78 bb db cb a7 ff e8 bf 46 25 41 cb 9c 3a d6 3f
       -0.7812079412086481 0.3473274216563208
000710 fa 8d 4e f9 11 8f de 3f 52 43 ca 66 d0 0e e1 bf
       0.47748231264469576 -0.5330583579653683
000720 fe b8 db 51 44 91 be 3f b6 5c 0c a9 4f e5 b4 bf
       0.11940409658902593 -0.08162401082187185
000730 08 e4 9c 50 ad 18 b1 bf 65 bf 41 98 4a 34 d2 bf
       -0.06678279131018894 -0.28444161290007336
000740 49 83 33 b6 35 60 d8 bf 86 e4 98 7c c1 4b c4 bf
       -0.38087218087280356 -0.15856188377236807
000750 b0 c8 a8 b2 17 41 d0 bf e8 6f 97 88 7d 79 bc 3f
       -0.25397293517302 0.11122879585985823
000760 11 b9 27 d4 f0 12 db 3f 8f 85 66 fd 6b c4 ba 3f
       0.4230310508563813 0.10455965935263677
000770 66 f8 e8 1b cc f3 ba bf 58 46 48 99 8c 93 d2 3f
       -0.10528255158803432 0.29025568932511225
000780 56 fa 15 e1 ab 8a a6 3f 65 c4 64 75 46 a5 db 3f
       0.04402672884588259 0.43196259941311715
000790 f0 5d 9e 0c 8b 0a e7 3f 88 9d 4d 56 24 0f cb bf
       0.7200370069940032 -0.21139959539435105
0007a0 35 0d a8 f4 51 e4 c1 3f 8f a2 19 c4 cb 9b c9 3f
       0.13978027769199178 0.2000670154113959
0007b0 41 94 be 77 3b a0 e2 3f 5e 89 13 0a ec f6 e3 bf
       0.5820596064337523 -0.6238918492129348
0007c0 68 ab 40 41 e9 28 cf 3f a3 97 0d 0f 40 37 db 3f
       0.24343600927508224 0.42524720640209973
0007d0 57 d9 d3 27 a4 ae c2 bf 0f c2 59 a9 74 3f d5 3f
       -0.1459546274633776 0.33199802911897874
0007e0 35 69 63 cd b7 a6 c8 bf 24 ba 88 6e 48 b6 bc 3f
       -0.19258782891012918 0.11215641687952221
0007f0 d8 5a 5b 5a ff 2d e8 3f f8 d9 fb 00 29 2a bc 3f
       0.7556149258405993 0.11001831316011834

layer1.bias f8 [80]
000000 96 a9 fb ec b2 5d 7b 3f 21 c8 85 09 12 a5 b5 bf
       0.006681155136656255 -0.08455002529606805
000010 f8 10 83 2b 6b 19 b1 bf 67 13 f0 fe 65 3b d5 bf
       -0.06679410755447523 -0.33175039192456385
000020 e0 92 ec de cf e7 cd bf 73 f8 ae e0 9c 76 be 3f
       -0.2336368406769429 0.11899738774715889
000030 4e 66 c7 94 bd 9e ce 3f 8c 16 8a c9 e3 0f b9 3f
       0.23921937718005143 0.09789870901485126
000040 a3 53 bf 9c 5c 09 b2 bf 5d ef 25 ca f2 44 dd 3f
       -0.07045534922447287 0.4573332761863094
000050 9d 47 39 88 c9 ca d2 3f 3e c6 82 52 c3 99 d1 bf
       0.29362715056515204 -0.27500994737338036
000060 68 b1 67 ed ed 73 d2 bf 10 b9 d6 32 18 cd aa bf
       -0.28832576927268017 -0.052345997053054316
000070 79 da f0 c4 06 8f a9 bf f2 42 6c 4d f2 85 e0 3f
       -0.049919330158833604 0.5163508903661678
000080 d7 d3 34 d8 a9 9d b6 bf 92 3f c4 b1 d5 d5 be bf
       -0.0883432534072449 -0.1204503592491604
000090 3f 04 61 03 1d 98 54 bf f4 0c 7f 37 60 3f d3 bf
       -0.0012569697696707264 -0.30074315471229274
0000a0 39 76 0e 45 0c 72 d0 3f 88 74 1c c3 a0 1d d7 3f
       0.2569609331493186 0.3611833482153277
0000b0 cc 93 0c 86 93 9e a8 bf 49 c3 cb 05 39 76 c8 3f
       -0.048084840882701124 0.19110787184720326
0000c0 55 33 3c 4b 3f 7d a1 3f 1f 57 ba e5 16 78 a8 3f
       0.03415868562124184 0.04779120973868899
0000d0 6d b9 bc 9b b8 b2 c7 bf 89 6a ed ae 9a 51 b3 3f
       -0.1851416359363144 0.07546393175781864
0000e0 17 72 62 89 75 52 9c 3f 59 c2 fd dc 8e f2 c2 3f
       0.027658306608474428 0.14802728453243466
0000f0 fe bb 64 ec 93 16 d4 3f 8a 12 33 fa a8 4b c3 bf
       0.31387804112722495 -0.15074646202824155
000100 c6 bc ea a5 6e e3 83 3f 8c 21 7a 98 4e 90 c5 3f
       0.009711136282332677 0.1684664005772557
000110 c5 dc b9 99 28 0b d9 3f 1c 35 a8 4d ad 69 93 3f
       0.3913060666304314 0.018957813134013
000120 0a 4b 5c c1 74 74 c8 3f 98 5f f8 bf 31 92 d7 bf
       0.19105395738059655 -0.36829799410906494
000130 ea 5b 13 d3 d9 0f d6 bf 9b 63 e5 54 1e d0 d1 bf
       -0.34471746075490606 -0.27832754412298194
000140 22 85 13 d0 97 21 db 3f 2c b6 ed a7 89 8b d2 3f
       0.4239253551478034 0.28976670645974667
000150 1b 92 fe b2 ff 7c c1 bf 0b 42 b2 de 8c 8e c8 bf
       -0.13662716140710604 -0.19185028909534227
000160 7c de 20 e6 e5 26 c2 bf 20 57 2b 46 ba a0 a7 bf
       -0.14181207405794172 -0.04614812952574554
000170 f3 e8 bf b5 f3 2e bb bf 4a 74 2e 07 f9 1e 96 3f
       -0.10618518054244301 0.02160252672512212
000180 7d b4 81 11 78 cd cc bf e8 51 51 2c 7b d4 96 3f
       -0.22502041678254506 0.02229492624276644
000190 cb f2 38 5b 2d ed d7 3f a6 8f 78 5b 25 89 c5 3f
       0.37385114582484097 0.16824786154131494
0001a0 ef b5 d0 6c 7b 94 e0 3f 44 21 53 af 96 ff c3 bf
       0.5181252599047051 -0.15623744545724538
0001b0 6d 46 d8 58 19 52 a2 bf e5 af 0f 33 e0 da ad 3f
       -0.03578261575252104 0.05831051467234242
0001c0 e4 bb 7a d6 e4 e7 d0 3f e5 b9 47 a1 33 38 c1 bf
       0.2641536802793196 -0.13452763915070345
0001d0 3d 49 5c 74 92 43 86 3f ff fe 54 a2 b0 07 71 3f
       0.010871071029701635 0.004157724358549108
0001e0 a7 6d 85 ff b7 f6 b0 3f 18 84 fc cb 3f e0 a0 bf
       0.06626462925253539 -0.032960885668451734
0001f0 5e f6 1c 6a d7 8f a3 bf 33 a9 c2 70 8f 91 e5 3f
       -0.03820679827047678 0.6740185930587245
000200 17 8e 2b fe 83 5f c0 3f ea 38 4e 66 41 54 b3 bf
       0.12791490469599928 -0.07550438640302884
000210 10 48 c7 ae d3 ac d1 3f 0c 1b aa 29 5e c0 bc bf
       0.27617351597030027 -0.11231030003737547
000220 4a 84 94 f8 0a eb d0 3f 8f 8f f8 8b 98 b9 98 bf
       0.2643458774128403 -0.024145492118023134
000230 e3 43 4a d5 18 25 c4 bf c6 b8 75 fb 57 1d c7 bf
       -0.157382110734516 -0.1805829980689337
000240 54 61 ca e1 27 de c2 3f 8e f6 c3 41 1a ac d8 3f
       0.14740465664795954 0.3855043070069336
000250 ff 4c c6 ec dd 3a b5 3f 65 aa d5 e3 0f 19 b7 bf
       0.08292948752050576 -0.09022616684311797
000260 a4 2a 73 96 b1 4a c6 3f be 24 8a 98 1d 4b bf bf
       0.17415447088418035 -0.12223992323028463
000270 85 af 0a de a5 de ca bf 10 ab 66 a4 d9 3c da 3f
       -0.2099196752727687 0.40996399931707206

layer2.weight f8 [80, 80]
000000 0c 8d 5b d2 6a 5e 97 3f 8f e2 28 dc a8 59 ab bf
       0.02282111081048037 -0.05341842353340553
000010 57 6c 6a 15 03 8f e0 bf f3 c3 f8 9d ac 13 ac 3f
       -0.5174575250888535 0.05483760288587538
000020 77 8f 9e f4 56 4f d5 bf 9c 36 86 c0 e6 db dc 3f
       -0.33296750916110035 0.4509217147941429
000030 92 6a da 7b d3 7e d4 3f a6 06 e1 20 07 a5 b7 bf
       0.32024085135496094 -0.09236187508306645
000040 e9 27 4a 90 74 3b cb 3f 5b 4a 07 0d 80 97 ce 3f
       0.21275193257707706 0.2389984191527955
000050 0c a9 8e 8e c1 90 db 3f e8 6c 0e 1e 9d 30 bb bf
       0.4307102100525675 -0.10621053680226888
000060 a2 a6 79 f1 b7 0b b1 3f d8 32 8f 2e 4e 1c ce bf
       0.06658506055250737 -0.23523881219298093
000070 50 c5 76 4e c0 50 bb 3f 02 5c 73 42 b4 b7 d2 3f
       0.10670091548560845 0.2924624108249533
000080 c6 f9 66 dc c1 3c cb bf 99 f6 54 ed ea 33 d6 bf
       -0.21279166471317817 -0.34691880394880453
000090 a9 f9 7e ad 67 56 e1 3f cc fd 14 dc f5 0d b0 bf
       0.5417974842637722 -0.06271301863761564
0000a0 6c ed 83 80 95 8a cd 3f fc eb 8c d0 5d c3 d3 3f
       0.23079174781001244 0.30879922262437254
0000b0 16 fa 38 e0 a8 b4 e6 3f 3d 81 65 e9 ea cd 9c bf
       0.709553182539653 -0.028129263396637006
0000c0 a7 3c 5e e9 a3 98 df 3f 42 13 ae 5d 69 7a d3 3f
       0.49369142331938537 0.3043464102595871
0000d0 b0 5b ee 09 40 cc 62 bf 7f ec 11 3b 09 14 d5 3f
       -0.002294659686821153 0.32934790390545027
0000e0 85 9a 32 18 f8 a8 ad 3f ef 32 d9 5c 24 77 cc 3f
       0.05792975707418172 0.22238592656721987
0000f0 59 1c 45 93 5b 21 da 3f 25 99 b7 c0 97 bd be 3f
       0.4082859934027901 0.12008045630463877
000100 a6 2c 23 93 b9 5a cb bf ef 28 ea 1e 52 0a c5 bf
       -0.213706204266008 -0.16437746533876615
000110 55 9d 06 2c 29 ea c0 3f b3 ab 79 86 1b 3c ae bf
       0.13214602136325007 -0.05905233398956202
000120 3c 2a 0f 68 a1 12 d4 3f c4 5f 51 6a 71 fe bd bf
       0.313637115116453 -0.11716374250079215
000130 f9 d7 24 78 1d f1 d1 bf 4e 9a 26 60 ee 55 9c bf
       -0.2803414986877893 -0.027671551340654958
000140 5a ee bd 83 97 7b c4 3f 6c e7 17 d6 27 e1 cb 3f
       0.1600217240592084 0.21780870393541407
000150 3b ed 58 09 5d 0b ce bf 11 7c 06 3c bb 9b b1 3f
       -0.2347217841760115 0.06878252234899686
000160 3e 67 43 3f 57 08 d8 3f 9a 98 9c 9c 9c 7d db bf
       0.3755090825849158 -0.4295417336856048
000170 53 57 05 59 ba 09 b2 3f 45 d1 e0 96 7a 38 ca bf
       0.07046093629227572 -0.20484859816645887
000180 14 4a 53 3f a1 92 d2 3f 86 8e 69 54 42 54 cb bf
       0.2901995771800625 -0.21350888368316506
000190 be 8b 00 1c a8 cd aa 3f dd 09 df 95 05 3e d4 3f
       0.052350285928944626 0.31628551135886857
0001a0 60 d6 cb f2 64 72 c9 3f fc f9 71 e7 57 66 e2 bf
       0.19880353789601468 -0.5749930878080813
0001b0 5a 06 72 d3 1c 48 c4 3f ae 93 05 ba 7f ee d0 3f
       0.15845070194704897 0.2645568195933333
0001c0 7c a2 2a 6c 0a a9 d2 3f ce e8 2c fe 3f 49 be 3f
       0.2915674263299832 0.11830520587401169
0001d0 a5 22 70 57 43 30 ce 3f 67 09 56 19 ea 15 b6 bf
       0.23584787148890488 -0.08627188795620598
0001e0 a2 be 45 60 ad d4 c0 bf 8a 5a 8c 01 df 2d d6 bf
       -0.13149039459994066 -0.3465497508163159
0001f0 07 42 60 ef f0 a7 d3 3f f1 1c fe 78 c2 95 d0 3f
       0.307125314489014 0.25914060416876256
000200 94 a4 2e 35 ab 7d d8 3f 85 1c 7f 19 2e f7 d7 3f
       0.38267021363805864 0.37446167459388163
000210 ac 69 c2 28 39 80 b0 3f 57 19 93 14 c3 db e1 3f
       0.06445653195479534 0.5580764200065386
000220 85 ef f0 f9 21 aa cd 3f d3 8a 65 5f da ad d1 3f
       0.23175453857572506 0.2762361461265474
000230 43 b2 08 f6 08 eb b6 bf 9a 56 bb 33 14 37 e4 bf
       -0.08952384955109331 -0.6317235002886321
000240 c5 3b 8d 81 bf 9b e3 3f 06 6a b0 f8 5e 51 de bf
       0.6127622156435498 -0.473716490612475
000250 ca a7 1f 38 22 c5 c1 3f 4e f0 94 a7 5c 5c c9 3f
       0.1388285421410827 0.19813116247849155
000260 a9 70 41 6d 36 cb bc 3f 04 55 97 e2 ed 09 b4 3f
       0.11247577826856293 0.07827650815973547
000270 d1 0c 91 d9 04 bb b2 bf d1 43 6c b5 7f a7 e8 bf
       -0.07316618262943854 -0.7704466384330947
000280 80 9f ed a4 bc aa c7 bf 3e e2 4e 00 6e 71 d8 bf
       -0.18489797642837047 -0.3819231989869286
000290 8d fc f5 4c 35 80 aa bf c7 4b 52 21 39 bf c0 bf
       -0.05175940098251273 -0.13083566786789744
0002a0 40 07 9d 7d 9d 9c c2 3f c1 b4 79 ab 23 b8 da 3f
       0.14540451653925324 0.4174889730991929
0002b0 f1 40 98 0e c3 e2 a8 3f 75 df 57 dd f6 23 b3 3f
       0.04860505631597956 0.07476752189529441
0002c0 2f b9 71 9b 72 66 d3 bf b1 96 e5 2f 20 a4 c8 3f
       -0.30312791042423987 0.19250871981346543
0002d0 50 b2 cd ff ec 63 a3 3f 6c 20 73 3c c2 d7 9a 3f
       0.037871748186124266 0.026213679256017405
0002e0 43 a8 87 42 dc 08 b8 3f 82 91 e0 58 c9 cc c4 3f
       0.09388519882455264 0.1624995883913805
0002f0 61 c8 e7 a9 4a cd cc bf 65 5a a1 6a a3 84 bd 3f
       -0.22501500412141964 0.11530515054014641
000300 3f 42 a0 3a ad d8 ba 3f be d3 b7 17 47 40 b4 3f
       0.10486872369097798 0.07910579995207365
000310 5e b8 ac 20 dd 69 b0 3f 6f 1b 68 5f 81 a1 bc bf
       0.06411535308572655 -0.11183937625183459
000320 e4 cc d9 3f 95 46 d0 3f e0 7c b7 bd 6a 4d d8 bf
       0.2543080447714614 -0.37972515608812607
000330 8d 3f 94 41 fd fb e0 bf e8 62 72 e7 ec ce c8 3f
       -0.530760410389108 0.19381486226190892
000340 ec 6e 94 04 3c ef dc bf 6d a5 df 54 6b 89 c8 bf
       -0.45210171172378355 -0.19169370311946513
000350 17 9d cd 91 5b 47 b3 3f f6 74 d8 e0 44 31 c9 bf
       0.0753075819935599 -0.19681607226167558
000360 26 f6 8d fb 4a 14 d3 bf 2a e9 07 f0 96 b2 d9 3f
       -0.29811358037827274 0.40152524414556245
000370 b6 84 96 21 d0 47 9e bf 76 9a 1a cb 43 24 84 bf
       -0.029570819902464428 -0.009834794650783279
000380 72 a0 fc ac 78 76 d4 3f f7 30 18 a3 75 11 d3 3f
       0.31973091977352575 0.29794064452359187
000390 0b ae 9a 6a 30 45 d8 3f 4b 0a e4 c5 9d 83 7e 3f
       0.3792229691559618 0.007449737835715962
0003a0 de 53 2e 6e 69 7e c3 bf 72 15 5c 71 d2 14 b8 3f
       -0.15229528312616386 0.09406771915026527
0003b0 9e c1 0e f0 c2 ba 82 3f 8a 09 e3 b2 ba af a6 3f
       0.009145281744935837 0.04430945810010474
0003c0 89 03 83 ae b6 38 cb 3f af d3 e1 42 70 78 ce 3f
       0.21266826172907496 0.23805049195985137
0003d0 dc 83 01 35 56 b5 aa bf 2c 90 66 ab 51 07 e2 bf
       -0.052164739580582625 -0.5633934352558803
0003e0 34 de 7c 44 a2 68 cf bf 24 27 5a c9 4d ab c5 bf
       -0.2453806719220083 -0.16929027873657632
0003f0 53 12 c7 dc bd ec b0 bf 0c 11 ec eb 97 92 a3 3f
       -0.0661123909004087 0.03822779421719433
000400 16 11 0d be ea 1f cf bf f8 5b ec 6e c5 ae b3 3f
       -0.24316152839504274 0.07688554723823404
000410 2f 71 70 a8 e4 63 d3 3f 5b 06 05 68 8b 5e dd 3f
       0.30297199677603975 0.4588955417458231
000420 ad c2 30 b7 5f 31 b3 3f 60 e5 39 da 9e 76 d4 3f
       0.07497213575767132 0.3197400218119437
000430 99 92 45 6f b8 c9 a7 3f ae 81 0b 0d cf 5c e3 bf
       0.046460879881839286 -0.6050791983398562
000440 3b 2d 26 90 55 65 d3 3f cc b9 a7 56 8b 90 bf bf
       0.30305995060981034 -0.12329932084660483
000450 07 c9 e3 b2 e0 eb 98 bf 7f 8c e1 47 a7 95 ca bf
       -0.024337302130285312 -0.20769206056420228
000460 a1 ee ce f6 ac 40 ad bf 43 67 ca 97 55 3c d4 3f
       -0.0571340609817217 0.31618251632027156
000470 ab 46 b9 66 95 fd c5 bf 56 b2 ec ba 0e 34 da bf
       -0.17180125728423454 -0.4094273400722036
000480 76 90 2e 4a 7a 90 df 3f 61 dd 11 83 89 cd b3 bf
       0.49319321865392085 -0.07735499811120895
000490 54 41 7a c4 0e 88 ca 3f 5e cf 3d 60 db 2f e4 bf
       0.20727715104704691 -0.630841911288808
0004a0 98 dd c5 69 b0 56 d7 3f 07 6a 1f 51 4f f7 c9 bf
       0.36466608361612307 -0.20285979710645582
0004b0 27 0b fd 2d fa 92 72 3f b1 b4 b2 c8 bf 11 c8 bf
       0.0045346996919899745 -0.18804166125975066
0004c0 e7 98 8b 20 9b 35 9c bf 53 ee 04 27 0d 26 e2 3f
       -0.027548240529449066 0.5671449434370949
0004d0 3c 73 f0 a1 e4 71 d2 3f 90 b5 cf 35 40 f8 d8 bf
       0.28820148290997216 -0.3901520276548007
0004e0 77 c3 e5 eb c7 5b c5 3f 82 2f 85 24 aa 75 c0 bf
       0.16686343210633556 -0.12859083922591813
0004f0 f4 b3 99 b5 e9 93 bf 3f 2f a1 2f 89 37 4a e6 3f
       0.12335072215655868 0.6965596846976377
000500 99 29 61 89 ca 6a bc 3f fe 28 78 58 b2 c4 c4 bf
       0.11100450376503658 -0.16225270576280332
000510 ba e4 2e 7f 30 c4 dd bf b9 1f ac c2 e7 09 c8 3f
       -0.4650994531653613 0.18780228620039255
000520 77 d2 65 d6 6a 96 cf 3f 59 e0 5a e9 dc f7 e1 bf
       0.24677787274017124 -0.561506706019837
000530 4a 7e 7d 3e 1f d0 c8 bf cd c3 5e 3d 41 b6 c0 3f
       -0.1938513808372469 0.13056197640028558
000540 89 c5 1d 74 9d f3 ca bf c4 65 1d 90 2f 3b b6 bf
       -0.21055954141369806 -0.08684060352734152
000550 a1 4d 69 09 6c a3 a6 bf e0 5f 2f 35 b2 8d d0 bf
       -0.044215561055035886 -0.258648445070774
000560 97 2b f3 d3 80 9a cf 3f 76 e9 d3 ab c0 cb c6 3f
       0.24690256451716827 0.17809303655651448
000570 3f b1 19 8e 99 fd bd bf fe 88 de 47 0b 93 d0 3f
       -0.1171508762287816 0.258974857506601
000580 9a 95 0d 86 14 e4 c3 3f dc 62 3f 34 23 e2 ba 3f
       0.15539795442161336 0.105013084655535
000590 7f 11 e1 7e 56 9a cb 3f 2c 8d ac 03 21 76 ba 3f
       0.2156475181128705 0.10336500491807915
0005a0 d7 c5 6b 5a 27 51 d3 3f 4f a0 7b bb ce c7 e4 3f
       0.3018282301919419 0.6493905698562318
0005b0 82 12 05 4d a1 ac cc bf 36 6e d1 aa 68 69 cb 3f
       -0.22401825199826325 0.214154323012609
0005c0 e8 c7 f6 c7 aa b9 d0 bf 07 83 93 bb 40 47 cd bf
       -0.26133222129567324 -0.22873696478838942
0005d0 32 61 c4 6f de 25 b4 3f cd 85 98 b7 18 5b c1 bf
       0.07870283344926035 -0.1355925461257769
0005e0 44 b3 3d 58 e9 90 d3 bf eb cf 4a 1d 88 90 be bf
       -0.30571969620978146 -0.1193928786768194
0005f0 53 33 02 96 79 d3 d1 3f 10 09 b8 07 7a 2e d2 bf
       0.2785324063232128 -0.2840867114429253
000600 96 37 27 a2 8c 85 d9 bf c6 d9 69 28 8a f2 d2 bf
       -0.3987762053992524 -0.2960534472144015
000610 36 01 40 f0 6c 30 d5 3f d3 2f 8e 45 f8 6b cb 3f
       0.33108066045680873 0.21423247715244872
000620 b7 52 e3 be 53 dc c2 3f 08 76 61 b3 6f fc a4 3f
       0.14734885044767562 0.0409884363623228
000630 02 70 d3 7a 26 a4 98 3f ea b8 44 de c1 1d 9c bf
       0.024063683745097826 -0.027457265082539907
000640 5a 37 46 ad 40 ef a4 3f 83 69 2f c2 e1 3b ba 3f
       0.04088785281338288 0.10247622481202794
000650 cc b1 70 cd 8b d9 a9 bf e6 bb fb 7e 4d c0 c7 bf
       -0.05048787005248165 -0.18555611324651905
000660 36 84 4c 10 73 5d bd bf 09 5b 06 e2 bb 74 ad 3f
       -0.11470717571184327 0.05753123411266443
000670 73 6a d3 bb bc 7e b7 3f 15 4b 9c d9 7d cd cc bf
       0.0917776068267047 -0.22502110600961403
000680 e3 99 53 ca 6e 0d 92 3f ea 0a d6 7e fe a9 b0 3f
       0.017629366969140647 0.06509390446266719
000690 9b e4 af 90 2b 36 e5 bf f5 59 35 db ee 33 9f bf
       -0.6628625703734942 -0.030471546296519453
0006a0 cf 93 ff 44 16 43 b6 bf 61 81 29 72 e4 19 84 bf
       -0.0869611662343026 -0.0098150107707517
0006b0 d7 dc ad 94 ae 90 d5 3f e2 74 f1 68 0e 3b cc bf
       0.33695568580101337 -0.22055225490740954
0006c0 42 0d a4 29 16 28 d5 3f 5f 9e ea 84 e8 91 bd bf
       0.3305716902397827 -0.11550763363867976
0006d0 36 a7 7a 3b 31 9c 85 bf 18 35 d2 ec 23 47 91 bf
       -0.010551819446238047 -0.016872941331304764
0006e0 95 1e 22 79 cf 35 c5 bf 67 66 c0 d2 35 d7 b5 bf
       -0.16570466437064071 -0.08531509776403255
0006f0 65 ed be 27 92 d1 9b bf e7 51 22 d4 2c 77 e2 3f
       -0.02716663711156055 0.5770477431529429
000700 e9 78 2f 67 35 f0 c9 bf 98 20 9d b3 d8 38 c9 bf
       -0.2026430848918104 -0.19704731722072633
000710 77 cc 98 d6 c5 cb d5 bf 6b cb 9b bf 9a 7b 73 3f
       -0.3405623050377424 0.004756550298895638
000720 8c 86 34 91 65 02 be 3f 6e 90 14 f9 46 3b dd 3f
       0.11722407145546238 0.45674299549342023
000730 d5 1c 70 08 d8 29 c7 bf 1e e5 1c 8f e0 37 91 bf
       -0.18096447383888994 -0.016814717039982267
000740 ce 44 d7 ab bd fe bd 3f 65 75 07 94 53 c4 e6 bf
       0.11716828770956342 -0.7114656344598812
000750 37 54 e2 0e dd 19 c9 3f 95 be 71 1f fb be c5 bf
       0.19610179163706373 -0.16989077601782712
000760 79 2d 92 1a 77 2e a6 3f 27 b3 dc ef 8b a1 d5 bf
       0.04332325171807389 -0.3379850237277417
000770 c4 0c 42 c0 71 7d ae bf e8 b4 a8 d0 9d 92 e7 bf
       -0.05955081436061385 -0.7366475177165315
000780 34 9c 4a db 9f 17 b1 3f 27 51 16 cb 25 e6 d5 3f
       0.0667667303447253 0.3421720965645982
000790 c3 32 ea 3f 27 72 dd 3f f4 78 fc 47 48 fa dc 3f
       0.46009236566241557 0.4527760222425876
0007a0 cf 35 f4 ba b1 e5 de 3f 2c 16 7f 9d 49 01 d0 3f
       0.48276942498418135 0.250078586392507
0007b0 12 33 4e 25 23 4a be bf a2 3d f3 72 30 5c c3 3f
       -0.11831874523904798 0.15125089276123754
0007c0 3a cb 41 04 db b3 c5 bf 27 73 91 22 45 88 b3 bf
       -0.1695512553011101 -0.07629806608151722
0007d0 f6 78 ac 20 36 fd c4 3f f6 1c 72 72 18 e4 e7 3f
       0.1639773997821476 0.7465936885136262
0007e0 c8 f5 6e 9c 35 40 96 bf 8b d0 6b 94 ce 44 c0 3f
       -0.02172931449216778 0.12709982154013164
0007f0 e2 88 2e 02 86 f8 b7 3f 9f 91 c0 d7 7b 7d d3 bf
       0.09363591721788425 -0.30453392095139437

layer2.bias f8 [80]
000000 6f 53 08 b0 86 51 d5 3f da 2f b6 bb 2c e1 c2 3f
       0.33310095968891223 0.14749678769692204
000010 1b 4b dd 77 9e d3 92 3f 16 d0 aa 80 bd cf ce bf
       0.01838538748354344 -0.2407147291429516
000020 b9 17 d4 cc 9b 1e c4 bf c1 9b 42 c0 9e 72 d3 3f
       -0.1571841001643273 0.30387085700425237
000030 8b 50 1d f7 7a 3e a2 3f c9 e2 c7 96 b8 8c d2 3f
       0.035632937112184036 0.2898389313191215
000040 23 a6 b9 01 a8 f5 b8 bf ad 1f d1 84 21 70 b8 bf
       -0.09749841730231217 -0.09546098225211948
000050 3a 0c fc 66 6c b6 cf 3f b3 c7 4d 7f b2 66 cb 3f
       0.247754621777945 0.21407157150275466
000060 55 1f d1 c6 0b eb c9 3f 0c 32 79 73 42 f7 c2 bf
       0.20248553474288636 -0.14817076338148671
000070 30 ad a4 0e 3c 71 c6 bf d6 29 db 5b bd 32 c2 bf
       -0.1753306457043009 -0.14217345223580818
000080 e2 b0 75 23 13 98 c2 bf e4 5b 51 0a 1b 6e a4 bf
       -0.1452659533637251 -0.03990253926229295
000090 fc 72 50 86 f2 0f c1 3f 9d c4 fe 74 31 b3 c1 bf
       0.13329917486489495 -0.13828104221969265
0000a0 2f 48 3c 52 7c b2 a8 bf 7b d7 87 92 99 c5 af 3f
       -0.04823673728800803 0.06205444253639222
0000b0 ba 3d 02 3a c1 0d b5 3f 86 73 c7 98 35 96 d0 3f
       0.08224113146046977 0.2591680519088232
0000c0 5c d2 9d 66 a7 9f aa 3f df 54 b6 9b 2d 8b cb bf
       0.05199931266443933 -0.21518488028656343
0000d0 24 98 38 ad 7d bf 9e bf 31 4c 82 f6 48 fc 97 3f
       -0.030027354905676998 0.02342332844325429
0000e0 e0 a5 78 59 3a e3 80 bf 6c 96 61 c7 b4 2b c3 3f
       -0.008245902877280054 0.1497713063756011
0000f0 19 9c 23 4b 47 bd d0 3f 0d 70 12 96 81 67 d1 3f
       0.26155264222910685 0.27194251685591625
000100 62 d7 b6 27 e4 9c aa bf 8c c2 4e a5 cb 0e 98 3f
       -0.05197823509972356 0.02349394031961309
000110 6d 40 fe e1 5a 66 a8 bf 8d 4d ed 15 ac db d4 3f
       -0.047655906760270074 0.3259077276354326
000120 5b 9d 99 13 40 42 b4 bf d0 ef be b4 51 0e 90 bf
       -0.07913589933888458 -0.01567962327656841
000130 5f 40 33 c8 7e 02 ab bf 76 e5 c4 47 eb c6 ac bf
       -0.052753412188054176 -0.05620513201797454
000140 dd 13 95 eb e3 3b d9 3f 67 e1 84 d0 b3 07 c0 bf
       0.3942804146393522 -0.12523505860896053
000150 f4 5f 05 bd 6c fd c6 bf 7b 95 7e fa 9a 0b 8b 3f
       -0.17960890988865652 0.013205729264721402
000160 27 9a 68 59 9e aa de 3f 88 3f 0e d3 05 22 d9 3f
       0.4791637299662476 0.3927015839662933
000170 bb 47 72 f1 02 93 cc bf cb 1e 8e c9 d0 c8 bd bf
       -0.2232364348351988 -0.1163454525068303
000180 92 7f 5e e2 d0 c3 c5 bf ca e6 03 d3 30 55 c5 3f
       -0.17003832867794394 0.16666231444815188
000190 84 f3 fe 45 e1 bc c6 3f 2e aa 0e c1 0e 25 cc 3f
       0.17763915937203134 0.2198809092199822
0001a0 10 2e e8 70 3f 9e b3 3f bf 36 a9 e6 20 42 d5 3f
       0.07663342005269436 0.3321611645268198
0001b0 71 b5 96 f6 0f a6 c1 3f 77 81 e5 25 01 0c 69 3f
       0.13788032093490757 0.0030574819967769634
0001c0 6f 56 a4 82 e7 4f a8 bf 92 cd 26 33 e5 6b b5 bf
       -0.04748462171316425 -0.08367760180299502
0001d0 3b 2b 46 d8 44 72 ce 3f 41 13 f0 d5 8f 80 71 3f
       0.23786221084841394 0.0042729967672173194
0001e0 6e 53 dd 35 e7 04 c7 bf 4e 01 6f 15 2e 4b a6 3f
       -0.17983713274102392 0.043542327991874616
0001f0 7f 81 9d c0 84 f2 c6 bf 31 87 fa c9 8b 19 c1 3f
       -0.17927607922593933 0.13359210359799925
000200 4e 5c 28 52 26 0e c1 bf a4 6a 38 5b 6a 67 70 bf
       -0.13324431430439393 -0.004004874662792677
000210 50 0d 94 65 1e bf d0 bf 98 8e ca 94 3e 10 d4 bf
       -0.26166496200331313 -0.31349148302454344
000220 24 8e 81 03 a0 c8 6b 3f d7 4e b3 e2 a7 ed be bf
       0.003391563917874556 -0.1208138397662951
000230 e5 d3 f7 47 d4 cb ac bf 5c cc e8 dd b6 70 bd 3f
       -0.05624259356037679 0.11500113408765017
000240 78 10 1e f0 6e ed 68 bf 63 b8 d8 79 ab 1d c1 bf
       -0.003042904544544863 -0.1337179512933658
000250 21 cf 7c 81 a1 f8 c9 bf f1 c3 2a 27 5a 90 bf 3f
       -0.20290011236795016 0.12329638916231979
000260 90 a0 5b 30 8e f6 c0 bf 2a 9a 8a 3a 19 57 d8 3f
       -0.1325242744562769 0.38031607357916875
000270 5c f7 c9 5e ed 13 b5 3f 95 4d 81 af 6e 5c d0 3f
       0.082335315362767 0.2556416238705535

layer4.weight f8 [11, 80]
000000 06 da b1 1f 36 6f e8 bf 4d 95 12 33 cb 36 85 3f
       -0.7635756129300837 0.01035841703044107
000010 9c 86 bc 78 c5 2e c0 bf c3 b1 df bc e9 4b d9 3f
       -0.12642734904607245 0.3952583641501201
000020 a2 06 b8 2a 09 10 e9 3f 9b fd e3 d7 81 b2 c3 bf
       0.7832074961044848 -0.1538851074364914
000030 d9 36 99 35 3c 17 c8 3f 37 b3 76 f8 45 34 bb bf
       0.18820908181299137 -0.1062663776016962
000040 05 ec 58 c0 2e 08 e0 3f f3 88 04 ad 47 f5 c0 bf
       0.5009988552841383 -0.13248535106783485
000050 04 f6 5b 1a 0c 5c d8 bf 6f 00 c7 f7 a9 5a ed bf
       -0.3806181199468883 -0.9173173751260161
000060 36 8d 46 17 82 68 d9 bf f3 77 28 78 04 a6 db 3f
       -0.39700367234236766 0.4320079015177491
000070 ad 7c b4 37 31 33 e0 bf a9 7f ec 1e ae 7d dd 3f
       -0.506249054716951 0.46079590816406807
000080 1a 59 ba 48 0c 44 c0 3f d5 9f 36 84 81 4a d3 bf
       0.12707665969055243 -0.30142248069250616
000090 b8 ad 2e 33 0d 22 b1 3f cc bc 35 b8 33 3b c0 3f
       0.06692583560532384 0.12680670256256688
0000a0 c8 ab af 47 fa e2 c5 bf af f8 50 6e 44 1a e4 bf
       -0.17098930836013282 -0.6282064585318688
0000b0 db f0 a6 66 db 03 c6 3f dd 7e bf c1 a2 62 d9 bf
       0.17199270736990155 -0.39664524956422814
0000c0 d0 b1 28 87 24 4f d1 bf 8f 49 30 37 48 06 ba bf
       -0.27045548628919125 -0.10165835711840131
0000d0 fb 72 4a 12 c4 8d c0 bf f8 ee 38 7d 3f cc e6 bf
       -0.12932635205370233 -0.712432617735856
0000e0 d3 87 42 a5 bb e4 94 bf a0 73 b4 21 97 22 d4 bf
       -0.0204037971130971 -0.3146112279080686
0000f0 12 3c 9c 90 86 89 dc bf 0d 32 2d e2 7c 03 b3 3f
       -0.4458938991746787 0.07427197000397019
000100 2d e1 5a 74 0c 39 cc bf e2 72 1a 04 66 d9 ce bf
       -0.22049098664661795 -0.24100947571141434
000110 91 ac 2a 6c 4a 52 b5 bf 84 57 09 08 ed f6 e0 bf
       -0.08328690663135975 -0.5301423222506263
000120 31 f0 13 e3 2c 35 c9 3f 79 a0 45 c5 ba 91 d8 3f
       0.19693528259074491 0.3838946272358111
000130 e9 9d 08 d5 46 f2 d2 3f 85 53 a8 c9 2d f4 9a bf
       0.29603739551609337 -0.026322093423079024
000140 8b b8 82 09 83 2a d3 bf 7f 38 a7 52 d8 79 d0 3f
       -0.29946971825382523 0.2574368292961324
000150 95 bc a2 28 ce fa d5 3f 84 8e 6e f1 55 13 c8 3f
       0.3434329411347304 0.18809007919945853
000160 6e 19 21 8e 06 06 de bf dc b6 7c 84 8a 70 e9 bf
       -0.4691177738171949 -0.7949879253044076
000170 73 c5 3b cd c8 35 d7 3f a8 7a ce b1 2b f9 af bf
       0.3626577381356448 -0.06244789643755172
000180 a3 4e 9e a3 43 8a d2 3f 66 82 6d 59 36 0f a3 bf
       0.2896889779887976 -0.037225435654140424
000190 11 f6 8e bd 04 88 da bf 33 4c f0 21 b0 29 e2 bf
       -0.4145519114643728 -0.5675888693680292
0001a0 4c a0 39 21 c4 43 ae 3f 65 ed 80 8a ce 25 e4 bf
       0.0591107645566927 -0.6296150880001902
0001b0 2c 11 56 60 7d 32 b6 3f b3 20 71 b7 9f f4 c2 bf
       0.08670791246374127 -0.1480903287613323
0001c0 0e 34 8a f5 c1 d3 ab 3f de 38 d0 86 76 86 cd 3f
       0.054349957678916025 0.23066598494228335
0001d0 3f 86 92 90 2f 9b d7 bf f3 01 b2 1f 6e 8f e0 bf
       -0.3688467895354712 -0.5175085658120778
0001e0 07 c0 3c 5e cd 64 c8 3f 85 3b 5d e4 83 58 b5 bf
       0.19057623959952272 -0.08338188481614679
0001f0 ae 19 df 39 20 65 b6 3f b7 24 dd 97 25 eb d7 bf
       0.08748055851820055 -0.3737272246404006
000200 13 c0 88 44 7e 14 b2 3f 0f 29 6f ff 38 e1 c4 bf
       0.07062520192334913 -0.16312324974416767
000210 c5 d1 41 12 6a 91 cd 3f 98 ff 6d 1e de 19 d2 3f
       0.23100019351444537 0.2828288361706597
000220 cb b4 15 5b 67 ca c2 3f 75 31 87 31 fb 96 c9 bf
       0.14680187175273426 -0.1999200813137453
000230 53 e7 b9 4d 56 5f b6 3f 6c 0b 0a 10 af 77 c0 3f
       0.0873922290574261 0.12865246089139803
000240 d5 69 7f e9 80 2c a0 bf 10 5b 86 be f6 cf c8 bf
       -0.03158953523935152 -0.1938465528771407
000250 5b d3 45 19 2a 11 bc 3f 99 13 99 0c e7 7e c0 bf
       0.10963690869341518 -0.1288727580560163
000260 2f b8 db 1b 59 55 b3 bf 79 5f c9 f7 b8 70 d3 3f
       -0.07552105836995858 0.3037550372878211
000270 49 c2 96 31 b0 a7 bc 3f 9c 12 02 3c 4a 66 d5 bf
       0.11193371973673395 -0.3343682847992484
000280 a1 76 80 15 6c d1 d1 bf 7f 6b 17 87 a9 33 d1 3f
       -0.27840711688791414 0.26877821152236686
000290 fc 44 1a 92 d3 14 bb bf 39 13 e2 74 0f da c7 3f
       -0.10578653637846352 0.18634217459853078
0002a0 c5 aa f2 20 b2 d6 e1 bf ba 26 9f e8 2d 0d d4 bf
       -0.5574579852594402 -0.31330440251313585
0002b0 5c 2c 40 35 69 47 cd bf 47 71 14 9a 55 11 ba 3f
       -0.22874178981905657 0.10182700168337987
0002c0 66 d6 ca c6 fe 19 a0 3f 4f 1c 12 32 9c 27 c2 bf
       0.03144832779564126 -0.14183380551205224
0002d0 bf 16 46 c9 25 6c e2 bf 12 cd 64 2a 0f 68 ce 3f
       -0.575701611626492 0.23755063600547338
0002e0 ba 0f 78 56 3c d3 a4 3f 85 4b 22 ae 24 c8 d1 3f
       0.04067410045175231 0.2778407764937401
0002f0 76 ee 33 6f 98 fb a4 bf 08 84 40 d7 f1 92 ba 3f
       -0.04098202092606311 0.10380469803978098
000300 ce e1 46 7e 63 35 b0 3f a7 12 60 22 47 8f d5 bf
       0.06331464608127321 -0.3368699870773448
000310 9e a0 5a 40 13 e7 7c 3f 9a f3 69 9c 11 c0 c1 bf
       0.007056307984079661 -0.13867397439380796
000320 b3 1d 8c ad 55 0c 9c bf 67 d0 9b aa 34 d2 c9 3f
       -0.027390803067673008 0.20172746973514963
000330 03 7f ff 26 8c cb be 3f cc 72 14 ef ae 9c d2 bf
       0.1202933879098929 -0.29081319186824994
000340 81 06 2a f9 60 33 d6 bf 3a cc 93 87 c6 08 b9 3f
       -0.34688591320455237 0.0977901535987237
000350 e5 76 1c b2 49 67 85 3f 43 fd b0 28 3b f1 da 3f
       0.010450912235281115 0.4209735772492033
000360 3a 9f 15 00 87 3e b3 3f 39 8e 1a 7d de aa d7 bf
       0.07517284156858475 -0.36980402199899093
000370 ff fa a1 cb f4 1d c1 bf 11 d9 a4 00 54 ce ca bf
       -0.13372669165615744 -0.20942163497392888
000380 05 57 aa b9 98 66 ed bf 31 dc 23 14 42 5f d8 bf
       -0.9187739969517855 -0.38081409422688056
000390 3f 50 8f d9 1c d3 c9 3f 96 34 c6 3f 83 11 be bf
       0.20175514815366744 -0.1174547224711254
0003a0 eb b8 f1 37 27 bc d5 3f fd 87 39 43 b1 9b da bf
       0.3396089598017073 -0.4157527119151608
0003b0 80 ad a8 a3 6e 0c d4 3f 66 d3 77 a7 5b 30 d1 bf
       0.31325880033792686 -0.26857653955749183
0003c0 d3 c2 e1 8a a4 c2 c4 3f 8b b9 f6 61 9e 78 ca 3f
       0.1621900251516509 0.20680599006068365
0003d0 ab 7b cb c4 ff 1c be 3f 99 eb b9 d1 3c eb b7 3f
       0.11762999109804066 0.09343319053907208
0003e0 ea 63 d3 b0 d6 83 ad bf f4 86 60 94 66 d9 d2 3f
       -0.05764647396581053 0.29451908578822317
0003f0 59 7b ee 25 79 d4 c7 3f 15 7f 58 f6 89 5e d9 bf
       0.1861716685497992 -0.39639519746013835
000400 e8 c2 9a c0 3c a0 b0 3f b8 5e 2e 79 dd eb ee bf
       0.06494502737292474 -0.9662921301669121
000410 9a 84 09 29 97 5e e3 bf 9a 70 06 51 64 7a c7 bf
       -0.6052966882235922 -0.18342260319048337
000420 4a 8c 1c 9b 33 ea cd 3f ae 60 1a 51 58 4f d3 bf
       0.23370976518444514 -0.30171783371180083
000430 3f 52 c2 23 ac d5 d6 bf fe a1 d8 51 98 78 ac bf
       -0.35679152958008226 -0.05560756682490718
000440 67 f3 00 c8 ff e4 c5 bf 70 8a 83 76 04 8c b6 3f
       -0.1710509993153224 0.08807399648098069
000450 3d ce 51 72 a5 00 d8 bf 46 df 9b d5 f2 84 cb 3f
       -0.37503944553393237 0.2149947684299553
000460 d1 5f d9 4f 96 0b ca 3f 2e 5a c5 60 87 53 cc 3f
       0.20347861193545083 0.22129909730092961
000470 fb 4b 58 db d2 c6 da bf eb 70 81 de e1 59 81 3f
       -0.41838523311997705 0.00847221813472073
000480 00 02 3f b6 cd 68 dd 3f 32 7d f8 3b 42 a6 e5 bf
       0.4595217017886455 -0.676545254831501
000490 15 4c 0f e0 a7 92 d0 bf 57 b9 53 29 68 11 c8 3f
       -0.25895115738711755 0.1880312158386441
0004a0 c1 04 85 f4 99 22 be 3f 56 77 d1 84 78 8e d2 bf
       0.11771547527043237 -0.2899457261136055
0004b0 20 af 4f 35 ac 32 cb 3f c6 8e 59 12 9e 1c c7 3f
       0.21248390772904546 0.18056083580005672
0004c0 21 c2 b2 e0 3f 77 d4 bf 8c 32 e8 42 79 03 a5 bf
       -0.3197784132308091 -0.041042127053605076
0004d0 74 6f fa 57 5b 55 e3 bf c5 5c 2e 23 25 44 cd bf
       -0.6041695326161816 -0.22864212243869111
0004e0 6e 3f 13 06 70 0a c4 bf 4b 38 eb 76 12 1f cc 3f
       -0.1565685300506589 0.2196982460649813
0004f0 bd 34 01 e1 58 44 c9 bf 62 38 d1 05 37 e9 b5 3f
       -0.19739829050596383 0.08558982746146307
000500 70 5c 58 37 a3 c4 da bf bc fa 0b ea 67 3c d4 3f
       -0.4182518043975909 0.31618688446171084
000510 e1 19 1f f8 84 fa b6 3f 02 da 50 0b e1 41 e4 bf
       0.08976012284902125 -0.6330418797504651
000520 c8 63 a9 37 5c ab c1 3f 3a a4 24 24 c0 22 d8 3f
       0.13804199903350267 0.3771210053406012
000530 48 cc b6 b2 bb 66 96 3f d8 71 39 0f 94 bd bc bf
       0.02187627104076409 -0.11226773616494456
000540 71 6c e4 f5 2d 58 a1 3f 15 4e 97 97 52 f6 a1 3f
       0.03387588144888632 0.03508241749264244
000550 88 40 5a c9 64 42 ce 3f 26 1c 92 87 c8 79 b6 bf
       0.2364011748472914 -0.0877957659705407
000560 c3 ab aa c1 57 56 d1 bf 23 c4 57 61 40 8c c8 bf
       -0.270894946220036 -0.19178013566082183
000570 18 e1 aa 79 15 ec d0 bf 9b a6 f6 47 cb 45 c6 bf
       -0.26440941697684783 -0.1740049458870104
000580 60 64 80 19 07 ff d4 bf 62 4c 7f e6 17 ea ed bf
       -0.3280656575239558 -0.9348258497142405
000590 20 49 b3 6a a7 0f db 3f c7 b5 43 d4 0f 4f cb bf
       0.42283044261889025 -0.21335027565457507
0005a0 cb 74 a5 85 a7 3e c2 3f 4b a3 8e a7 dc 92 e6 bf
       0.1425370600290193 -0.7054274818993717
0005b0 10 3b 26 5c 96 57 d4 bf 55 6c be 81 ce 88 d3 bf
       -0.3178459072013746 -0.3052250163106625
0005c0 bf 60 be 27 f7 5d d0 bf 22 96 db 5c 66 64 d1 bf
       -0.2557351959344593 -0.2717529208005961
0005d0 3e 6f 31 60 7b 8d c5 3f 7a 93 32 9b 47 7f e1 bf
       0.16838018605164423 -0.54678707420372
0005e0 9f 32 9a 2e 56 77 c1 bf 3c ae 57 b0 f2 37 e3 bf
       -0.13645436549667964 -0.6005795902432918
0005f0 10 20 87 f1 ae 7a a8 bf d9 4d 01 64 78 c2 69 bf
       -0.047810999854448366 -0.00314448846624214
000600 04 c1 28 e9 b9 e6 d9 3f 43 77 46 cd 96 ef dc bf
       0.40470741052105574 -0.45212335630809636
000610 f6 91 23 b4 b5 84 ab bf ea f4 7b c8 25 12 d1 3f
       -0.05374687026941054 0.2667326410153935
000620 50 04 04 8a 26 db b6 3f 89 ef 70 e0 2c a0 b4 bf
       0.08928147191547109 -0.0805690811111487
000630 25 92 f3 11 de ea a2 3f 0f 81 9e 70 d8 78 ac bf
       0.03694814652570625 -0.05560947775598112
000640 35 31 c6 f0 58 c6 c1 3f ba ff 83 dc ff 00 c6 3f
       0.13886558300544896 0.17190550105442332
000650 c4 6c f4 94 42 fa e4 bf 88 72 7d be 25 a8 c6 bf
       -0.6555493268273485 -0.17700645257254544
000660 e0 be ca d5 da 71 d0 3f b1 62 1b 54 40 a4 bb 3f
       0.25694914701578675 0.10797502568619667
000670 11 89 39 79 b1 d4 d0 3f 95 12 35 76 39 44 ab 3f
       0.26298176611284513 0.05325488632164369
000680 3d 45 1d 5f dc 13 da bf dc 86 0f 26 6b d9 f2 bf
       -0.40746220863828225 -1.1780807005638314
000690 6e 0c 75 3d 0c 29 ce bf e0 b5 70 4a f9 e4 da 3f
       -0.2356276798328482 0.42022545117910504
0006a0 d3 13 ab a0 50 44 94 bf 67 ab c3 97 85 49 e5 bf
       -0.01979185085908226 -0.6652248348376418
0006b0 57 14 5a 06 f1 cd dc 3f 1e dc d1 96 c9 ea d8 bf
       0.45006967182445606 -0.38933028915875123
0006c0 9f c1 8f 6b ea 8a a6 bf 35 d5 55 e1 10 0c d1 3f
       -0.04402859271056347 0.26636144643210297
0006d0 be e9 4c 0c 9c b9 e7 bf 32 6b e3 b2 e9 10 de 3f
       -0.7414074173205376 0.46978228063169347
0006e0 ad 2f f6 30 be 1d ca bf 9b 86 ff 2c a9 3b af bf
       -0.2040326823301916 -0.06100205110830111
0006f0 bf 1c 2a 31 42 b6 e1 bf 45 4b 81 2d d5 fd e0 bf
       -0.553498359703461 -0.5309854401369668
000700 dc 44 48 79 29 cc ab bf db 9c ff 6d 60 87 d7 3f
       -0.054292007498710965 0.36763773672141803
000710 f7 62 a2 d4 fa aa 8c bf 29 a7 b1 73 ab 40 e3 bf
       -0.01399799310120063 -0.6016442546508404
000720 0d fe 51 dc e3 7b 84 bf 7a 40 94 46 01 aa c8 bf
       -0.010001926575795595 -0.19268814035649823
000730 f8 a4 7f 37 2e d1 c4 3f 63 39 10 da 78 f1 97 bf
       0.16263368329899897 -0.023382080373317914
000740 8e fb d9 55 b3 fa d6 3f a0 c7 5f 97 ff 35 d6 bf
       0.35905154594359423 -0.3470458009970745
000750 48 60 5e 91 bd 26 e1 bf 6b 8c 35 4b 12 3e c5 bf
       -0.5359790648681235 -0.16595677063296263
000760 44 0e 6e c2 86 f8 bb 3f 71 58 29 fa e8 64 d4 3f
       0.10926096197913987 0.3186590617164092
000770 18 51 08 4e 37 03 a4 3f 5c 9e cd 43 3b 30 e6 bf
       0.039087036395502206 -0.6933876346856311
000780 e7 02 52 7f bd 8c c5 3f 36 ba 12 92 cc bf a1 bf
       0.16835755078138634 -0.034666436034389056
000790 6e 0c 40 b9 1c 4e d2 3f cd 24 04 0e 66 a7 cc bf
       0.2860175904353984 -0.22385860142120464
0007a0 98 9f 3c b5 e6 86 d6 3f b1 b4 14 5c ff 3a b8 3f
       0.35198371600062606 0.09465023038929378
0007b0 ef 61 ab 28 98 f0 da 3f c4 e8 01 9f 30 e1 ca 3f
       0.4209347150004125 0.209997251167641
0007c0 92 37 1f 52 c9 30 ea bf 62 c2 b9 2c c2 0e c2 bf
       -0.8184553722328352 -0.1410753935229137
0007d0 69 bd a2 4e 57 be e4 bf b3 1b f6 e4 1a 79 c4 3f
       -0.6482349906781738 0.15994583301309503
0007e0 9f 1f 56 b7 75 99 b1 bf b9 db 9b 3d 76 e7 ce bf
       -0.0687478611563379 -0.2414386559318851
0007f0 d9 04 80 01 45 87 e2 bf 35 38 50 c1 a5 07 c8 3f
       -0.5790123967455215 0.18773338259819786

layer4.bias f8 [11]
000000 f5 61 b2 be 91 09 d1 bf 68 ef 47 d1 55 0e a3 3f
       -0.2662090647004612 0.03721874408435505
000010 95 8f 8f 31 3a fa 95 3f e7 72 13 92 b2 8f 80 3f
       0.02146235396857284 0.008086581309208763
000020 e7 af a4 db 4e 06 30 3f 78 09 f5 6b 44 8b c9 3f
       0.0002445166134232832 0.19956259986254188
000030 97 0d d4 0d c6 9c b0 bf 9b a5 2d 8b ed 2e d1 bf
       -0.06489217603307505 -0.2684892520106474
000040 ce b5 9e 2a a6 30 ce 3f 64 09 d7 c3 27 b5 c4 bf
       0.23585965233853162 -0.16177842199801795
000050 81 36 79 b9 bc 2d cc 3f
       0.2201457887298837
