attack_soft_generative_decision_tree/experiments/vowel_params_state_dict/fnn_epoch36.pth (torch, 69599 bytes, 6 tensors)

layer1.weight f8 [80, 12]
0	0xbfa613a09c7b7e1a	-0.04311849508462391
1	0x3fc400a002d8f4af	0.156269074812291
2	0x3fe007943b627732	0.5009251746994094
3	0x3fce8f401c32cb0b	0.23874665619731447
4	0x3fde2243f0d5b598	0.4708413936521878
5	0xbfbe6a5436ee3058	-0.11880995122027238
6	0xbfacccc7897d817e	-0.056249843152502685
7	0x3fb063878395e8a7	0.06401869738138775
8	0xbfe3126d245772ab	-0.5959993085667369
9	0x3fdc6595e616a500	0.4437002894361086
10	0x3fda60924292d419	0.41214424611399775
11	0xbfe66a613dc04a00	-0.7004858213497869
12	0xbfe086b0bc41630e	-0.5164416958678844
13	0x3fdebe571dc327f5	0.4803674498222102
14	0xbff14f3e5143708b	-1.081846539912507
15	0x3fc9a2e3ab63a5d6	0.20028348797431644
16	0xbf816f2dd530b584	-0.008512838429022514
17	0x3fe4262c9daf26b7	0.6296599464196423
18	0x3fc59534d8dea261	0.16861591901148912
19	0x3fbecf745f00da85	0.12035300559441893
20	0xbfd8d028d652f1cb	-0.3877050488479454
21	0xbfc78ef5b7985ea8	-0.18405028786286448
22	0xbfb656cd586400f1	-0.08726199539160341
23	0xbfe823add997e4db	-0.7543553590650406
24	0xbfb8656a3d622d1c	-0.0952974700796187
25	0xbfe4abed2793ef18	-0.6459871075635162
26	0x3fe27500eb23a3db	0.5767826645434256
27	0x3fb463723514f69b	0.07964242740578202
28	0xbfe2d0daa9797c93	-0.58799489117145
29	0x3fdde86ce7defded	0.4673111214032975
30	0x3fc3059b1d27a667	0.14860857890680565
31	0xbfd95196f1e5b743	-0.39560483572755717
32	0xbfdc88c783aa6854	-0.4458483491704375
33	0xbfe0c7cfb4ab1f64	-0.5243910340004558
34	0xbfcb9d3b059b47c0	-0.2157357957244681
35	0xbfe1bba6287db431	-0.5541563788261837
36	0xbfe66ecb0737b5b3	-0.7010245457619732
37	0x3fb2e5674c778988	0.07381291977757176
38	0x3fb0ac01cbb79202	0.06512461875497169
39	0xbfcac7d1fd6d7d81	-0.2092230307998584
40	0xbfcf1843873c5096	-0.24292797187138565
41	0xbfd4fa6f95b9d498	-0.3277853929678911
42	0xbfbfa01a6969c0b8	-0.12353673051416336
43	0x3fd302dc403e0bbc	0.29704958223026856
44	0xbfe16936932604cf	-0.544093406104503
45	0x3fd0225136fdfd87	0.25209455843283773
46	0xbfcd4af68aeb4b1d	-0.22885019095573336
47	0x3fd83429db50a9a0	0.3781838075398358
48	0x3fc0ce187a66bcdd	0.13128953911425514
49	0x3fbe630e9db004d8	0.11869899129671369
50	0xbfe3362475328482	-0.6003591813097418
51	0xbfe1e50154527635	-0.5592047354618389
52	0x3fe696864374e2a6	0.705874568701877
53	0x3fe78b9063974c4f	0.7357866234909894
54	0x3fd4b9fc348dadb9	0.32385163433238123
55	0x3fde1f20d4141530	0.47064991675172774
56	0x3fbcf29b0840f0e9	0.11307686759477388
57	0x3fe2d917cfc5c53f	0.5890006120736543
58	0x3fb293270f708cc5	0.07255787016815692
59	0xbfb0717944134023	-0.06423147117607235
60	0xbfac8105843bef74	-0.05567185630022112
61	0xbfa016d13f41607d	-0.03142408272896178
62	0x3fd8d67cfe9552e8	0.38809132444047956
63	0x3fd4178ac18dc7d4	0.31393689061871766
64	0x3fd35777e0ba2cfe	0.30221363969822324
65	0x3fdd82902d9c0291	0.46109394506496765
66	0xbfea6c6ece0ec0eb	-0.8257364296496496
67	0x3f90792a4dd01588	0.016087208747213505
68	0xbfd9036963043f8c	-0.3908332316359455
69	0x3fe65d1ffe6ddcf9	0.698867794925632
70	0x3fa8e59467b5b45a	0.048626554164777416
71	0x3fcb380df4b6a190	0.2126481480493223
72	0xbfa9a1136f45b8a4	-0.050057036717462894
73	0x3fd7766bb5dddfa2	0.3666028286020212
74	0xbfd8aad5acb7609d	-0.38542692057445455
75	0x3feec841488953b2	0.9619451920249189
76	0xbfcf1e66de477cad	-0.24311529019812408
77	0x3fbb46f89a11a007	0.10655168305822836
78	0x3fd0e4ff1c4ccadb	0.2639768387190721
79	0xbfccdb9ee1d5fd26	-0.22545228984015714
80	0xbf80fafa6bc458c0	-0.008291202939784248
81	0xbfcafa4c6faf7a8e	-0.2107635064448527
82	0xbfda4c328d9d60aa	-0.41090072469297445
83	0xbfd1f2c83aa06eec	-0.28044324612868254
84	0xbfb913bf66b66ee2	-0.09795757539398722
85	0x3fdc0befa9fb5371	0.43822852706698884
86	0x3fcedc33567afaed	0.24109498713183744
87	0xbfd14a4afa4aaf52	-0.27015947763969905
88	0xbfd46fb4c9270797	-0.3193180050258148
89	0xbfe8021df0d1384e	-0.7502584174596991
90	0x3fe46bdc90a44f1f	0.638166697028712
91	0xbff5dcb82bdf217f	-1.3663865770086827
92	0xbfe5635dad9b0df3	-0.6683796301589936
93	0x3fc22933b23fac22	0.14188238338042064
94	0xbfe6bfe60743611c	-0.7109251157626519
95	0xbfd6c7bbe3f3d10c	-0.355940792665266
96	0x3fb640a9ab237a20	0.0869241755312733
97	0xbfd2bab8c3ebc768	-0.2926465905467155
98	0x3fd6b525d16017f1	0.35480637976468105
99	0x3fc8c8df9522082d	0.19363016874200537
100	0x3fe8227c8a8b687d	0.7542097764919756
101	0x3fb23facedc3b32c	0.07128411106868943
102	0xbfe48e2758ff9ae2	-0.6423527467967143
103	0xbfe51ced01a11f39	-0.6597809821914559
104	0xbfdf481d04771a0b	-0.4887764495473738
105	0xbfb2cec07ede130c	-0.07346728417730847
106	0x3fa21b8f19fa2a8a	0.03536650840859064
107	0xbfe4859b52baeb67	-0.6413094154189424
108	0xbfd87d6854894bc3	-0.38265426879405257
109	0xbfc9c458f334419d	-0.20130454898072694
110	0x3f5fe7a5971f5400	0.0019473187535272718
111	0x3fe0e36afb37e1f5	0.5277609736068017
112	0xbfbe21733cb23ac2	-0.1176979087051491
113	0xbfb53da342542def	-0.08297176713329411
114	0x3fcba6e450e196a0	0.21603063535001343
115	0xbfa6ba80cbc43e3c	-0.04439165580162949
116	0xbfd5de5e19af87a3	-0.3416972399555737
117	0x3fc2fbaa3a50f8f6	0.14830520484424142
118	0x3fe4c6cdf4c6eb84	0.6492681294251814
119	0xbfde28d873c03268	-0.47124301246439027
120	0x3fb776a91092a638	0.0916543641530091
121	0xbfb3ed3137294462	-0.07783801647862412
122	0xbfd7eff1c49d5f89	-0.3740200443330584
123	0xbfcdad1e684b79ae	-0.2318456658603742
124	0x3fc17d2f62295c3f	0.13663284581227406
125	0x3fdc0a1933543b19	0.4381163598308589
126	0x3fd4f7a8fda4f770	0.32761597413979526
127	0xbfdc39ca57ce5a2d	-0.4410272462349976
128	0x3faec07c0d36d688	0.0600622907763127
129	0xbfc0c72d2f06a6ba	-0.1310783843630839
130	0xbfe24b6308343e68	-0.5717024955974468
131	0xbfcf8b0ab0804a87	-0.24643071764201727
132	0xbfb3fb0f4b054592	-0.07804961759145204
133	0xbfacd5f2eb69853c	-0.056319800602759845
134	0x3fdcb2785f26fbfa	0.4483929566594608
135	0x3fcd55dbfa037cc1	0.22918271739670185
136	0x3fb7cda30c55ca8c	0.09298152018690525
137	0xbfed6c2275944b2b	-0.9194500252218395
138	0x3fe916ac143b86ed	0.7840176005522302
139	0x3fe689f2c95d775c	0.7043394024765166
140	0xbfd49f9c81e1b405	-0.32224190410380543
141	0x3fbe7a3295c2610d	0.11905208736641644
142	0x3fc7495a138245d5	0.18192602112371384
143	0xbfd5cb40be793ead	-0.3405305729001878
144	0xbfb6b9b570ccee43	-0.08877119068068233
145	0x3fdd8a5021f703f0	0.4615669566811098
146	0x3fe5e95bcbc92a37	0.6847361545745291
147	0x3fc3436ffa5a8c7c	0.1504955265455442
148	0x3fe85bf717b92d2c	0.7612262214037506
149	0xbfe5679dc8da85bd	-0.6688984797403276
150	0x3fe2a8d1973d4237	0.5831077531711973
151	0xbfb9e123ea6dd056	-0.10109161828387533
152	0x3f9b20fbaf1f63f3	0.026493008197437672
153	0xbfe1d440ddb9fa41	-0.5571598368258678
154	0x3fcc45d13d4eb301	0.2208806561806327
155	0x3fc676164eff270e	0.17547873360882033
156	0x3fc359765bd1eeef	0.15116767390633565
157	0x3fb03eb60b45ed41	0.06345689559195923
158	0x3fdd7fd06bebd65a	0.46092615641768975
159	0xbfe8f57c7caab50b	-0.779966586580174
160	0xbfd556d2c6f2f2d8	-0.333424276624823
161	0x3fd87f517bf623bb	0.38277089219678445
162	0xbfc447c6bb3887c4	-0.15844043866769486
163	0xbfe0e01593388970	-0.527354037800519
164	0xbf9f8344ea9269f0	-0.03077418977464136
165	0xbfe37deccdeb8d7a	-0.6091217061879626
166	0x3fdf0b83a9d7f8d0	0.4850777777318287
167	0xbfb078bc521bcb8b	-0.06434227947811004
168	0xbfa5546844ba6a6e	-0.04165960158316727
169	0xbfeddbb013a3792f	-0.9330673583570269
170	0xbfdfc949e5bb3403	-0.49666068491643517
171	0xbfed964d1979b2f2	-0.9245973107877872
172	0x3fd1f0a2a1f18ceb	0.2803122121315044
173	0x3fd024befcf2be02	0.25224280073140914
174	0xbfce6407240534df	-0.23742760905080382
175	0x3fe6baf34ce92810	0.7103210928119115
176	0xbfe8b93c1808277c	-0.7726116628048056
177	0x3fcee0dea1634464	0.24123747711431343
178	0x3fd8f79f7a6d8f2e	0.39011370616775565
179	0x3ff07238b1dcae05	1.0278860995994148
180	0xbfd6bfdfabb0aea8	-0.3554610420858162
181	0x3fd97efaf8a95628	0.39837526591631667
182	0xbfb6092e189ce749	-0.08607757664586048
183	0x3fd42e7c2a117db9	0.315337220270489
184	0x3fd52706bc4c3ef7	0.3305069769712498
185	0xbfa19829cb83ecce	-0.03436403855627078
186	0xbfd1d4eaf849c3e0	-0.2786204743088643
187	0xbfe2b38d08ce2faf	-0.5844178363781704
188	0xbfb9a148656ac8fc	-0.10011723018650182
189	0x3fdb593a42762142	0.42732101908088194
190	0x3fd6c7b809d044d3	0.3559398742518855
191	0xbfdc5827229399d7	-0.4428804242765216
192	0xbfd6d5ecf9b893e2	-0.3568069876367287
193	0xbfb513ba4a035731	-0.0823322706886216
194	0xbfe329cf911627f0	-0.5988538583490008
195	0x3fe533bdb337eb0c	0.6625660419807402
196	0x3fca62ca6e65bb38	0.20613985434052906
197	0x3fc1374af7dd0d43	0.1344999037047306
198	0xbfc8f50ebf2d8668	-0.19497856459479412
199	0xbfb949d4e3e23316	-0.09878283084453829
200	0xbfd1790a8762d079	-0.2730127641800731
201	0x3fd5dfc7ebcf7183	0.34178350475647096
202	0x3fba850b9a933e50	0.10359261058624125
203	0x3fde6d784c77af5e	0.47543151347666945
204	0xbfbad13c57f3337c	-0.10475518367020514
205	0xbfd40517bd99e68f	-0.31281083598842313
206	0x3f8abaa854c2542e	0.013051333510057796
207	0xbfe40ef84e638613	-0.6268273860006864
208	0xbfe378a468db8cb5	-0.6084768341064747
209	0xbfb37859b0796012	-0.07605515058946846
210	0xbfc79c25aa9e1eea	-0.1844527323812522
211	0x3fb69b16436ab8ac	0.08830393930358821
212	0x3fed01b160966727	0.9064566503977617
213	0xbfc4c58ac188726b	-0.162278503893407
214	0xbfe60146b5f9628e	-0.6876557878668608
215	0xbfdd648b3299582f	-0.45926170293148777
216	0x3fb387518f987932	0.07628354793312012
217	0x3fc48f36f203257d	0.1606205636692656
218	0x3fe0829ad7ab5b6e	0.5159429752628577
219	0xbfcf150212413296	-0.24282861605970102
220	0xbfd717442f37cdbb	-0.36079506503230235
221	0xbfe7a92191a1efae	-0.7393958897005086
222	0xbfd663f7ea1ad1dd	-0.34985158788484033
223	0x3faa953c8669eae4	0.05191983357231836
224	0x3fe07e193cef243d	0.5153928938026479
225	0xbfe76aa5ee2e080c	-0.7317685749005718
226	0x3fc0644e011d36d2	0.12806105665588646
227	0xbfd641d35c3246bd	-0.3477676773410215
228	0xbfd39485ee7d8b00	-0.3059401349075159
229	0xbfc40475014dd6b8	-0.15638601840662658
230	0xbfb7ccd4de3d9f1a	-0.0929692308978897
231	0x3f74a5bf9b9ea07c	0.005040882557217793
232	0xbfc47b378ea95a60	-0.16001028505225445
233	0x3fa21aa47bd9c2b4	0.035359516256794704
234	0x3fc042835b70678a	0.1270298191528208
235	0xbfc8f61d9bb2241d	-0.19501085378968322
236	0x3fa19dcab924f1ca	0.03440698156416351
237	0x3fba3c42de2e9051	0.10248201298105754
238	0xbfbee7bc5b69374f	-0.12072350722993729
239	0x3fcaeec1290936bf	0.21041121009550598
240	0x3fc6c93325f0c445	0.17801513054431176
241	0xbfda8224d6f4f768	-0.4141933535755613
242	0xbfe0e00b739949d5	-0.5273492105282523
243	0xbfdce2eb44ef067c	-0.451350037878093
244	0xbfa7e168a64faa62	-0.046641607572230695
245	0x3fe6a1b418b1eee6	0.7072391969990945
246	0xbfc8f23f94cea0d1	-0.1948928333852167
247	0x3f7f95f665b4db2c	0.007711374749581872
248	0x3fb074232b5e91c7	0.06427211579154522
249	0x3fc5e85e79545a9a	0.1711538402966724
250	0x3fd0d2c63860f668	0.2628646421979739
251	0xbfe22c269e7cae07	-0.5678895087671102
252	0x3fbaf942dcfe3916	0.10536592383707374
253	0xbfb94ce3b2a0a9ff	-0.09882948981309168
254	0xbfdb6680efb3e526	-0.42813132675617493
255	0x3ff0f084dbc87d86	1.0587204537658592

layer1.bias f8 [80]
0	0x3fe0adf87bea96c1	0.5212366504899465
1	0x3f8b087ce717f464	0.013199783136764683
2	0x3fc56edd094caa59	0.1674457831771459
3	0x3fad8883268bb584	0.057682131247797336
4	0x3fbdc6d75da48ac9	0.11631532703590176
5	0x3f52b35cfc1ed574	0.0011413963370448784
6	0xbfd78395a9a8f2c0	-0.36740628784518137
7	0x3fc15c09f68f46e8	0.13562130488440194
8	0xbfd48e0b96ad6cd1	-0.321169755121173
9	0x3fbe2824a83b9ba3	0.11780003649947317
10	0xbfa9e35d0ee4fb72	-0.050562770908519364
11	0x3fd1eb4303a71d6b	0.27998423916547804
12	0x3fe0b19bad145d34	0.5216806774578004
13	0x3fb601b1fd05435f	0.08596336772212741
14	0xbfc1faa30c811032	-0.14046133146814693
15	0xbfd2b01c46fc0126	-0.29199892932958205
16	0xbfbe82cfeeb8ed51	-0.11918353632147684
17	0xbfc8d54cffb497d2	-0.19400942311875596
18	0x3fce0e190ba1623d	0.23480523174181825
19	0xbfbdc9d02833f980	-0.11636067372817216
20	0xbfdf6ba69314e456	-0.49094547618330375
21	0xbf9620a966fdd06b	-0.021608969603633826
22	0xbfbfb78345a7204d	-0.12389393282421786
23	0xbfa0fa9c147a3ee2	-0.033162000179002296
24	0x3fd7367eebc37f42	0.36270115875048614
25	0x3fc80ae13be76557	0.1878320257663215
26	0x3fc3400c77d6f670	0.15039211131618258
27	0x3fdbe353bba4591a	0.4357499439660316
28	0x3fb54d529aa128e6	0.08321110034117715
29	0x3fce3064ae997309	0.23585184598314182
30	0xbf892772ffc2f9c3	-0.012282274656510666
31	0x3fde176c20d027c7	0.4701795883598802
32	0x3fd3ef7675efa0a5	0.31149064557258505
33	0xbfb23f8c6d8d282c	-0.07128217386812769
34	0xbfc197026fcdc18b	-0.13742094477812503
35	0xbfa434cf47e51042	-0.039465405966013126
36	0xbfb24f6c10b497bd	-0.07152438552711167
37	0xbfc8929c2d452e13	-0.1919741841360155
38	0xbfd1cc95cd4a8496	-0.2781118874355085
39	0xbfc3f9c0a6d1c2dd	-0.15605934281804582
40	0xbfbdb3c133e00de6	-0.11602408901676817
41	0x3fc7fecef9e40782	0.18746363832184093
42	0x3fcb52dcf7f90017	0.21346628292121814
43	0xbfdd9dee62807435	-0.4627643548900012
44	0x3fd20d51046d776b	0.28206277305968425
45	0xbfd01ffed20ee8aa	-0.2519528437948205
46	0xbfc6a1646c0fc88c	-0.17680030132720892
47	0xbfc114e0ea7cc044	-0.13344966363502142
48	0x3fc71e6e632891ab	0.18061618653986264
49	0xbfaae7f8ddbec274	-0.05255105692720444
50	0xbfda1b557c0bdf08	-0.4079183303251601
51	0xbfcdbedb229bbeac	-0.23238696279394355
52	0x3fb81b2f359d9349	0.09416480120632999
53	0xbfbb215146920ea1	-0.10597713444627256
54	0x3fd9b6c55c4ed4b0	0.4017804528660447
55	0xbfd67ab9b6c694fa	-0.35124056672277926
56	0x3fcf94abace29cd1	0.24672456685696045
57	0xbfab488bb3cf99ef	-0.05328785486181064
58	0x3fe2249e043aaba3	0.5669698793984604
59	0x3fe164bf2e97525c	0.543548193929904
60	0x3fba665ab407cf74	0.10312430281902413
61	0x3fbda4ff372fdc29	0.11579890343988154
62	0xbfcd1b47481e930e	-0.22739497205216036
63	0xbfd3f83f7d653080	-0.3120268559039303
64	0x3fd2f456c43cf4c4	0.2961632648837844
65	0xbfdceeb249d4d2b2	-0.4520688744553737
66	0x3fd5e6b8a1e04718	0.34220710571490676
67	0xbfd730ab56d50c56	-0.3623455379458326
68	0xbfd0f199e7a029a3	-0.2647461664170356
69	0xbf81a6f72183217c	-0.008619242391788566
70	0x3fd16383137f3fa0	0.2716987314606687
71	0x3f93d415ce677835	0.019363728259001973
72	0x3fcb069f1937a003	0.21113957148850213
73	0xbfba1a03bd376f95	-0.1019594513849696
74	0xbfb4bb3660bd7e44	-0.08098163472959025
75	0xbfc45b596598d7a4	-0.15903775654595365
76	0xbfbe690021fc972e	-0.1187896807647035
77	0x3fcb54c24c23b397	0.21352413861987138
78	0xbfab17ca12d1137c	-0.052915873333893665
79	0x3fd603bf77023535	0.34397875425277685

layer2.weight f8 [80, 80]
0	0xbfd58bcb68b39325	-0.33665738320114463
1	0xbfc7dca08d44c747	-0.18642050645717687
2	0x3fbb2daee958cf2b	0.10616582104631493
3	0xbfd6018b5727e7ea	-0.343844256508986
4	0xbfc3a37fcd9a2a16	-0.15342710055513525
5	0xbfdcfcae7ff93d6b	-0.4529224633924602
6	0xbfbd325cc561464f	-0.11404971903655191
7	0xbfd56c96ac38a81b	-0.3347527200554638
8	0xbfc53b7f586a4819	-0.1658782178606664
9	0xbfd547834dcebab3	-0.33248980139152734
10	0xbfe1f1a70a710bc3	-0.5607485965668889
11	0xbfc6963cd762f066	-0.1764598895732689
12	0x3f84461216566eb9	0.009899274164858128
13	0xbfb94d7f8e767a82	-0.09883877971740598
14	0xbfb24196c5b678f9	-0.07131330801937343
15	0xbfd2f2d44f947f1b	-0.29607112666598007
16	0xbfd50e21cdd5080b	-0.32898755169674193
17	0x3fd3edb8f777e69d	0.3113844315226773
18	0xbf78793d714733ae	-0.005974998483407141
19	0xbfbb2d23f8a9859d	-0.10615753956655856
20	0x3fa013a5711a03ee	0.0313998890460495
21	0xbfc8cad8c3d611fc	-0.1936903911811355
22	0xbfc788bb8c5cd564	-0.18386024812358948
23	0xbfad3dd5a8354837	-0.057112385543078785
24	0x3fe98e9960e1e5c3	0.7986571209177601
25	0xbfcbd7db3a916ab0	-0.2175249134041528
26	0xbfc0194bd105d768	-0.12577197748367586
27	0x3fd16294e8a4ce9f	0.27164194792860913
28	0xbfdcddf543816b84	-0.45104724495256954
29	0x3fde3ea66ff241a9	0.4725738614297606
30	0xbfdae7073614a916	-0.42035084039038517
31	0xbfb9769b7300fd25	-0.09946605260573856
32	0xbfc52d2db2ebdd50	-0.16544123875039896
33	0xbf77f2bbeb5d5ed4	-0.005846723613863698
34	0xbfd42f951fb9af20	-0.3154042062585507
35	0x3faa059b4d3d7f8b	0.050824025324572274
36	0xbfd1c2f3d1013257	-0.2775239506779931
37	0x3fd5491f766feb0a	0.3325880676854217
38	0xbfd20eb6acd57b64	-0.2821480453330223
39	0x3fb631b434190df0	0.08669592163010242
40	0xbfe6df66852679f0	-0.7147705650893936
41	0x3fe4bd82bf6899b2	0.6481336344193578
42	0xbfd6f54660b24130	-0.35872039263724087
43	0x3fbf7198d0101b32	0.12282710151349077
44	0x3fc1adfd88e7aed7	0.13812226471724529
45	0xbfa4d16a46881463	-0.04066021071415873
46	0xbf81b5e864cfc88f	-0.008647742821242836
47	0x3f90b00645895a0f	0.016296480173275948
48	0xbf37486a7bb7c120	-0.0003552684754302305
49	0x3fa9f148f5fd6dc8	0.0506689834862431
50	0xbfc713d6279a6bac	-0.1802928632140185
51	0xbfd80f2d562cbf89	-0.37592633643634393
52	0xbfc29523321f964a	-0.14517631480628018
53	0x3fa5d0758623e914	0.04260604155020267
54	0xbfdaa4543a952bd5	-0.4162798473450356
55	0xbfc6d1442c8b96c9	-0.17826130080282201
56	0xbfb9679b66710bac	-0.0992371678449177
57	0xbfd5c171eb89a1fc	-0.33993194581719854
58	0x3fd013b4fefc202e	0.2512028207861502
59	0xbfa645dd6da6114c	-0.043501777300692795
60	0xbf906c080479ceda	-0.01603710677450363
61	0xbfafa4a18ec026fd	-0.06180291049538587
62	0xbfa5a41b00edf332	-0.04226765047403659
63	0xbfd87ed5d0d90b42	-0.38274140734954554
64	0xbfbb11645a81707c	-0.10573413095102241
65	0xbfd63c91e6784b43	-0.3474468947107889
66	0xbfcc542c16a583fb	-0.22131873231685958
67	0xbfd12817b78fde2e	-0.2680720608327388
68	0x3fcac6af344dae19	0.20918836645010755
69	0x3fcc2dd4980227dc	0.22014863416944663
70	0xbfd0574841ae8260	-0.2553272859022737
71	0xbfe2f4c538c174ff	-0.5923791988858794
72	0x3fa6cc7742a54b3a	0.04452870071931732
73	0xbfd06e60ee16aff3	-0.25673697710840243
74	0xbfe39ebbfe6df162	-0.6131267518353918
75	0xbfe11bc0fd4f6d57	-0.534637922999006
76	0xbfde4357dc4491c4	-0.47286030302555226
77	0xbfd0f5ce33428f30	-0.26500277524813765
78	0x3f763fe00026f86c	0.00543200969917566
79	0xbf90e9b53702f51e	-0.016516524775160517
80	0xbfd4db28f278bf54	-0.3258764617812535
81	0x3fe041fbd15b9043	0.5080546463982575
82	0x3fa0b34367445cf1	0.03261767039855979
83	0x3fa492b85eb88c64	0.040181886255844984
84	0xbfb285ae99dff33a	-0.07235232598027333
85	0xbfdaf5d5d9cc0dd4	-0.4212545992779415
86	0xbfda85eb47ed42e6	-0.4144237711343933
87	0xbfe3b75aba869875	-0.6161321299630474
88	0xbfdf899d6f4c76dc	-0.4927743517781502
89	0xbfad4c016eab8c0a	-0.057220501670393345
90	0x3fd0ca14dc709c14	0.2623340752347201
91	0xbfd4141f0a6a525a	-0.31372810380097393
92	0x3fe0aaed3057eae0	0.5208650535781452
93	0x3fcf8474947788e3	0.2462297177253908
94	0xbfe49f059c038d79	-0.6444118544717831
95	0x3fcbc6fa5278fb03	0.21700982119542553
96	0xbfdc3d8318be21db	-0.4412544004085512
97	0x3fe306107ebc5f77	0.5944902873334134
98	0x3fb9f5e74feee95d	0.10140844060416528
99	0xbfb492d79381802c	-0.0803656325456365
100	0xbfb31b8038821015	-0.07463837985602624
101	0x3fb9db39ff9cc13e	0.10100138178382154
102	0xbfb41bb48ba666fe	-0.07854774865554856
103	0x3fab42d3fef88288	0.05324423301158726
104	0xbfd259c264aa425c	-0.2867284758622526
105	0xbfc211e6bc14e154	-0.14117130454702453
106	0xbfb50740b3ba6ee2	-0.08214191806694829
107	0xbfd6d66e7b12722c	-0.35683786410098395
108	0x3fce1dab3a16ef4e	0.23528042160421098
109	0xbfd1a3609cb31ffc	-0.2755967645903181
110	0xbfa958c972f0d492	-0.04950551536641358
111	0x3f9af6d6a8d60095	0.02633223920338475
112	0xbfdae41843e59ab8	-0.42017180090480677
113	0x3fc76109302f07ac	0.18264880039901976
114	0xbfe15cc100f1f127	-0.542572500081893
115	0x3fca22acb91f2944	0.20418318785807277
116	0xbfdb5094f9ecff9e	-0.42679333121122365
117	0xbfe06e4c9c78b0fa	-0.5134642654498116
118	0x3fcad37f103f3007	0.20957935612966613
119	0xbf9d4d13983149aa	-0.028614336170287004
120	0x3fe04e507dd86d8a	0.50955986575302
121	0xbfc55cb02467d103	-0.1668911149751083
122	0xbfe087b2e9abd272	-0.5165648044481499
123	0x3fa4efb7be288657	0.040891401255305375
124	0x3fba5c75f9df40fb	0.10297334051506717
125	0xbfbf64429a277990	-0.12262359870462647
126	0xbfc4012e584f47da	-0.15628604232784832
127	0x3fd2009635356854	0.28128581234125716
128	0xbfb9852a4f59af25	-0.09968819081558118
129	0x3fe4aa38450175fc	0.645778784539004
130	0x3fb0dae25c41db7b	0.06583990814566036
131	0x3fe1a5b65fcdf354	0.5514785643750693
132	0xbfb31260f1002f14	-0.07449918636137581
133	0xbfcb6e0638ab0d61	-0.21429517523766164
134	0x3f7e312426dea0d7	0.007371083467582382
135	0xbfbbcbada1a91eb3	-0.10857663342278094
136	0xbfce88332943f20f	-0.2385314895144721
137	0xbfc4892a2f485aa1	-0.16043593701097783
138	0xbf985ceaaa55a56c	-0.023791948934932902
139	0xbfb2487f9c936380	-0.0714187390580161
140	0x3fb75907859d91e5	0.09120223056886052
141	0xbfcea2db91e03d07	-0.23934502241943553
142	0x3fd9613fd5fda7bf	0.39656062982123425
143	0xbfd118222639dfb5	-0.26709798558249115
144	0x3f91039899a90fec	0.016615280512510752
145	0xbfc9e1e5a134194e	-0.20220632907166664
146	0x3fbe10f223542dbe	0.11744607317466824
147	0xbfd46b0a6ab6b57d	-0.31903324528942517
148	0xbfe290b4abbd9aa3	-0.5801642755803481
149	0x3fc62679da195184	0.17304919385300022
150	0xbfda6acd90f7ea36	-0.41276873738357567
151	0x3f9b7f5363094b5b	0.026852896613785187
152	0xbfe79f1c15d7fa26	-0.7381725718149184
153	0x3fcf4564ed763501	0.24430524439632254
154	0xbfc2efab4911e312	-0.1479391199861984
155	0x3fa98bc7133f4fa5	0.049894543742680576
156	0x3fc53c7a27c2becc	0.16590811673585504
157	0xbfc449f789a827c5	-0.1585072919991132
158	0x3fb36fad59f0ec97	0.07592280813053019
159	0x3fcfbcc78f4d862f	0.2479485940667003
160	0xbfb0afbbfe3c2a42	-0.0651814933482138
161	0xbfd1e98991f626c5	-0.27987899068885397
162	0xbfc8a616b7a2d535	-0.1925686260853269
163	0x3f8f8e618e29c8c7	0.015408289099671525
164	0x3fb8f23e66dfc41a	0.09744634639334074
165	0x3f94a2774216eeaf	0.020151008042133153
166	0x3fe37729476c8fcf	0.6082960505486826
167	0x3feb3d8ec46e230c	0.8512643658187655
168	0xbfcfcb34cfb6cb5d	-0.24838886396681917
169	0x3fc972cd84daf9ff	0.19881600367621385
170	0xbf9080d1d0505c84	-0.01611640771815505
171	0xbfcd0cbeaf20b580	-0.22695144225273722
172	0x3fc165f4e4e8eda8	0.1359239690517431
173	0xbfc31e0dd08513f7	-0.14935467416412937
174	0x3fd3b299aabed21c	0.30777589487414203
175	0x3fc750c07bbfe9c4	0.18215185205902007
176	0x3fc349876130dc4e	0.15068142171523607
177	0xbfd3685384e69413	-0.30324256876548467
178	0xbfc93fd8f1762d07	-0.1972609690677489
179	0xbfb1d9e29c8590da	-0.06973091431933956
180	0xbfb5d2e3f86387b6	-0.08524918379001076
181	0x3fe0b2d482997a12	0.5218298483630994
182	0x3fc5565db9112756	0.1666981843612187
183	0x3fcb34a3c4f8b883	0.2125439368987295
184	0x3fecd7cf0768ba91	0.9013438362797662
185	0xbfa1935d0afc1ecb	-0.034327418890880056
186	0xbfc75dedb5db4d8c	-0.18255397205085122
187	0xbfbfb1cede15f6d7	-0.12380688592926546
188	0x3fcdc8ef7a0f2417	0.23269456348342096
189	0x3fd1cfdfb048b5eb	0.27831260886418246
190	0x3fc2593577d21882	0.1433474383413263
191	0xbfd56ba227a19b14	-0.33469442243806324
192	0x3fd56e08f18bc2f3	0.33484099949332274
193	0x3fdfa536146a02cd	0.49445869439663853
194	0x3fce38baabf690e6	0.23610623737943753
195	0x3fb09fc021c9ff97	0.06493759941986209
196	0x3fd0d47ed9d205bd	0.2629696967270226
197	0x3fd103f5ddfe9613	0.2658667247690982
198	0x3fcaf4948251c144	0.21058899272203224
199	0xbfc35a727c267de0	-0.1511977297022744
200	0x3fa82e3bd4c577d9	0.04722773525530472
201	0xbfb5e2fdf9e9f667	-0.0854948744908711
202	0x3f6e7f0f611e1735	0.0037226963403921517
203	0x3fd59822c13a7bf2	0.3374106299397105
204	0x3fb66fc5d0ef55c1	0.08764301634740602
205	0x3fc68a3118edf861	0.1760922786451742
206	0x3fbede3e8e2e9d5e	0.12057867976419831
207	0x3fb2670a4c1b509b	0.0718847690398569
208	0xbfb96f212801fa64	-0.0993519518542399
209	0x3fc536827d8bde08	0.16572600488846967
210	0x3fb00fa2ffd8e134	0.06273859735745618
211	0xbfa2c6105ed71443	-0.03666735799519263
212	0x3fe7275f90415589	0.7235563104137991
213	0x3fc53c3e723d4667	0.1659009988602975
214	0xbfc13137fab9d13d	-0.1343145345923719
215	0x3fd06e4a32d9004c	0.25673155751792787
216	0x3fb93fcdb2337c7e	0.09862981415379754
217	0x3fab3505bc21f2b8	0.05313890382328651
218	0xbfc74c0554de923a	-0.18200747150435054
219	0x3fa61b93bd7e8424	0.04317914665376346
220	0xbfd0e96fef76a16b	-0.264247878886201
221	0xbfc7152f4ae62a50	-0.18033400685483736
222	0x3fdace2ca0819385	0.41883388208798805
223	0xbf850ad8aec5ce6c	-0.010274594148291537
224	0x3fbdb480407962d0	0.11603547643734236
225	0x3fe11a5bdd2013be	0.5344676321843662
226	0x3fad2a2a77ca76f8	0.056962325213346376
227	0xbfba2168c0d7e419	-0.10207228382195445
228	0xbfcfe7ef386cdbf6	-0.2492655778421235
229	0x3fe0e5a85d9de9e0	0.5280343845800495
230	0x3f9fb7c44bdb8119	0.030974452142687434
231	0xbfb42b4295f51077	-0.07878509675089328
232	0x3f84bdbb737b4bf0	0.010127510511130894
233	0x3fcfd9f464f9f376	0.24883894854056238
234	0x3fdaf6b6aaac6ecf	0.4213081995710412
235	0x3fe5a72da1e204d0	0.6766575013899914
236	0x3fab78c1a3e3ed1a	0.05365567327131711
237	0x3fc2a81fe74af693	0.14575575631709067
238	0x3fe199d8dad7ec55	0.5500301622663623
239	0xbfcdb9c676cce9c9	-0.23223191071322294
240	0xbfbe52a5db166278	-0.11844860647978261
241	0x3fd27ca9b6021980	0.2888588216232151
242	0xbfd973eeba75fd22	-0.3977009602458158
243	0x3f9a8cf0c51dda7f	0.025928270369571123
244	0x3fd15af0a63a95a3	0.271175539334161
245	0x3f93fdc05fe97a45	0.019522672513966794
246	0x3fc3849109d28558	0.1524831102333717
247	0xbfd1654bd0a27e72	-0.2718076264809276
248	0x3f972705356fd1de	0.02260978830959625
249	0xbfdd24c2a2c78432	-0.4553686704294392
250	0xbfc51a31871813c3	-0.16486186119450794
251	0xbf73fbd1fb9dfe11	-0.0048788263756019004
252	0xbfe73e9669ee4b90	-0.7263900822602967
253	0xbfd268de4aeb3882	-0.2876506549481591
254	0x3fd9c22a55f1fa0c	0.4024759139355474
255	0x3facdfd82c306487	0.0563952974263851

layer2.bias f8 [80]
0	0xbf82009b4ee8f06f	-0.00879021963657342
1	0xbfc1e6a16a9eff4a	-0.1398507853136784
2	0x3f9ecfcc8b99cc41	0.030089565296702373
3	0xbfc90b8284b2fdc3	-0.19566375235988973
4	0x3fb70bc2da03ac29	0.09002321074119436
5	0xbfa9d45b8dd0ca54	-0.050448285161469514
6	0x3fc656fcaacd0342	0.17452963199505162
7	0xbfc2b97898aca22f	-0.14628512816240533
8	0xbfb189a60b18e70a	-0.06850660105638098
9	0x3fc33298269e0005	0.1499815167007911
10	0xbfb79fad2a94f0e3	-0.0922802189788317
11	0xbf855aa9fd49ebaa	-0.010426834146746906
12	0x3fa940bdc3f039a7	0.049322061699160806
13	0xbfb009b1027035db	-0.06264787969140377
14	0xbfbc476ad6537b09	-0.1104647420174666
15	0xbfd16139c5038bd6	-0.2715591834987071
16	0xbfb4dfbd8297c420	-0.0815390056448142
17	0xbfb447b5e6be418f	-0.07921921618822679
18	0xbfd5588a34235ec7	-0.333529044071366
19	0xbfb90355747f7752	-0.09770711988627781
20	0x3fc09fc54f211104	0.12987581599930575
21	0xbf980faf50c03d1a	-0.023497332862516186
22	0xbfb5aa51a475f75f	-0.08463011040836708
23	0xbfcd9a366261e245	-0.2312686901457416
24	0xbf6a6ac41edc4e5e	-0.0032247381667589855
25	0xbf960707d50c954c	-0.021511194590080593
26	0x3fe22c51ed3a3ccf	0.5679101594304486
27	0xbfcb0b5c0c5c8dda	-0.21128416637030406
28	0xbfc400bfb8a5d09c	-0.15627285495759657
29	0x3fb101a5904a78a7	0.06643137715079438
30	0xbfb7b2ce4c680b2b	-0.09257211079970477
31	0xbfb49838b4e6bf3b	-0.08044771591698645
32	0xbfbaab0353d02491	-0.10417195125787006
33	0xbfcbc7e9a6390e89	-0.2170383512148997
34	0x3fd1dff6f3add19d	0.27929471775794373
35	0x3fde22cdcc5ce0d8	0.4708742614489103
36	0xbfab1b3ad72be2c5	-0.05294212223629339
37	0xbfac76145f5b074a	-0.055588375701985784
38	0xbfd31a8394e33cf4	-0.29849328555879073
39	0xbfc40a92691c8d62	-0.15657262928389587
40	0xbfd0c61ee33f6c9a	-0.26209232513583347
41	0xbfb7be80830d9479	-0.09275057982957148
42	0xbfb065474a9392ff	-0.06404538698877714
43	0x3fe11001055e851e	0.5332036118381074
44	0x3fc0ad22eda6a5a6	0.13028370479632406
45	0xbfc47f09ffc31070	-0.16012692440392895
46	0xbfbc78db6fe884e5	-0.11121913416038216
47	0xbfb9b1ffe243c219	-0.10037230752983141
48	0xbfc1dd6e22094e60	-0.13957001363688715
49	0x3fd696ac14a60139	0.3529463006634788
50	0x3fc2496dfdb28cca	0.1428658951527722
51	0x3fbefd3d242dcc44	0.12105161793969993
52	0x3fb8f9d844602495	0.09756232899975921
53	0xbfd32a4649b90b65	-0.29945523452277306
54	0x3fe0aedbc0479761	0.5213450198614106
55	0xbfc052031714a102	-0.12750280978185208
56	0x3fc395797b00e5e9	0.1529991007426326
57	0xbfa74fe3221a74bd	-0.0455313662653025
58	0xbfc6b35955c7b91f	-0.1773482960556487
59	0x3fd065f5e2fda54e	0.2562231747347895
60	0xbfb4814f686fcbe6	-0.080098116872065
61	0xbfc2be27c8ad1279	-0.14642808245311636
62	0xbfc0f7ace86c0939	-0.13255845402461278
63	0x3fd4dbc599f70a54	0.32591381106991446
64	0xbfa2500b1baed48a	-0.03576693261076354
65	0x3fb23b9e4e4f3e70	0.07122220432142412
66	0x3fd8e0b2077e606a	0.38871432048609356
67	0xbfb78a5cf948ef36	-0.09195500455910807
68	0x3fa22ff151188662	0.0355220233434579
69	0x3fdd0e3e310e4a5f	0.45399431982619903
70	0xbfb20df1c6a09e63	-0.07052527522375267
71	0xbfb2439589d5470f	-0.07134375205103204
72	0x3f959d026831be7a	0.021106755837932735
73	0xbfc36cb89256e094	-0.1517554010913541
74	0xbfab573059053117	-0.05339957319901794
75	0x3f9d4669266db3ed	0.028588908167353756
76	0xbfcd92d965603940	-0.2310439820289023
77	0x3fc875c34f5c7305	0.1910938394074934
78	0xbfb46bfa68ea83fe	-0.07977261601855898
79	0x3fc96c502b240329	0.1986179552696055

layer3.weight f8 [11, 80]
0	0xbfd21382adc1f3be	-0.2824408242084323
1	0x3fd6baaa28204157	0.3551431075911941
2	0xbfdd37b3f1e3b46b	-0.45652483579653474
3	0xbfd385c07912c0e2	-0.3050385649066937
4	0x3fb658456123f142	0.08728440877525137
5	0x3fb0d0261e2b3a7b	0.06567610012573681
6	0xbfeb912265a53256	-0.8614665971050026
7	0x3fd70334551fdd75	0.35957058251320656
8	0x3fa8e5e672cce154	0.04862899924632083
9	0xbfd80edb59bf7cd5	-0.3759067894406603
10	0x3f9780e3a3c871f0	0.022952610847015664
11	0x3fd284df70f62431	0.2893599131717251
12	0xbfd3875827c5dd8f	-0.3051357639701217
13	0x3f670958631a4c37	0.0028120733557641902
14	0x3f4e3e01f88c6abb	0.00092291923747053
15	0x3fc8adb5b3e6baf2	0.1928012016701
16	0xbfd2c3d53b829b8f	-0.2932026940492784
17	0x3fa3693e22bf08f1	0.037912313214762856
18	0xbfd4f34104838be2	-0.327347044380245
19	0xbfb0a9bc9daf9732	-0.06508997773889005
20	0x3fb1f3792374b9a6	0.07012135615943879
21	0xbfb93de3c9f33881	-0.09860061340734384
22	0x3fb75e6a1703016b	0.09128439962205952
23	0x3fe0cd9d1b6d4808	0.5250993285828836
24	0x3fbada382fe27a20	0.10489226502475235
25	0x3fd3f7138388dcbe	0.31195533604791226
26	0xbfe60b6667a1204d	-0.6888916038524343
27	0xbfcf9ea994a3bfee	-0.24702949292941362
28	0x3fc0c6a692ccd393	0.13106233756994054
29	0xbf89cc38a98f2c46	-0.012596552538431404
30	0x3fc9c4b9ecc940bd	0.20131610929320756
31	0xbfbac14d594349c4	-0.1045120566298357
32	0xbf9da72a2981a042	-0.028957995208117156
33	0x3fdb2c7ef33236f6	0.4245908141100324
34	0xbf890cf629b55909	-0.0122317534902945
35	0xbfd327f9e191f072	-0.29931494739844944
36	0x3fc0da49a4a8b167	0.13166161098468906
37	0xbfad4b0fac14caeb	-0.05721329665757032
38	0x3fd146ab9693feb5	0.26993837075131505
39	0x3fd1b9bb154e2eea	0.2769611080227451
40	0x3fd0465ac473b610	0.2542941015697986
41	0xbf81628122662ec3	-0.008488663542059688
42	0xbfb1e96cf4e678c2	-0.0699680421734881
43	0xbfc29fd38f536335	-0.14550251482321533
44	0xbfdf3e42ca4cc126	-0.48817510372011197
45	0x3fc95b9d4b9bd266	0.19810835067586935
46	0x3fc6c458a45b194a	0.1778670122641393
47	0x3fcf8fd5ae0b0ea1	0.24657698629572614
48	0x3fd87ed39284883b	0.3827408724629355
49	0xbfe56a661d0d2102	-0.6692381446273716
50	0xbfd1b5a2f8880475	-0.2767112185538914
51	0x3fa8ea8e8c660ce0	0.04866452659464371
52	0xbfd66466c3682a40	-0.3498780163069206
53	0x3fe937f87b4a1268	0.7880823524470317
54	0xbfefd94f9ca1ce7d	-0.9952772196979393
55	0xbfc33ac790591c78	-0.15023130939718832
56	0xbfce344e5333a320	-0.23597125113089934
57	0xbfa67dceb6b21dcb	-0.04392858486340464
58	0x3fcdbb4c1684f014	0.23227835750174164
59	0x3fc4ba799002c381	0.16194076091553813
60	0xbfb1e22a889c64a9	-0.0698572715304119
61	0xbf7d2a9e40cbd1c7	-0.007120721985064588
62	0x3fdd1735476f2a28	0.4545415113067599
63	0xbfcd715c3f882809	-0.2300219831670918
64	0xbfba22de5f346ca3	-0.10209455322585596
65	0x3fcd25c0a491f949	0.2277146152081946
66	0xbfe9078cc2e2af0e	-0.7821716123921492
67	0x3fd7ddd6e30400ff	0.37291500253196824
68	0xbfa7e98134fb4f1a	-0.046703374593248095
69	0xbfce4b1774de00bf	-0.23666661459356494
70	0x3fc5e616afd645eb	0.17108424745360593
71	0xbfbf716142f80f3d	-0.12282379040703702
72	0x3fc939dc34454468	0.19707825233720944
73	0xbfbc08847d21f8f1	-0.10950496726033855
74	0x3fc6d85ccaf132ee	0.17847785863195703
75	0xbf9323d903bab88e	-0.018691435673354344
76	0x3fe26b65ea39afe8	0.5756101202691726
77	0xbfe92e13d121928f	-0.7868746838181141
78	0x3fbb53dee5c2aa00	0.10674851521859097
79	0xbfd6fa6cbcc05b75	-0.3590347140574786
80	0xbfd2811632050d80	-0.2891288269495007
81	0x3fc9692a0586dde7	0.19852185506691386
82	0xbfbfb6668016041c	-0.12387695910548796
83	0xbfde4fbef09ac770	-0.4736173009542801
84	0x3fd823ed7d04ec9c	0.37719285210523323
85	0xbfe5302ea9c36cc4	-0.6621316257182106
86	0xbfc026f0b1a39b84	-0.12618836091789032
87	0x3fd02a1568d73740	0.2525685809931595
88	0xbfa01af6a8c12b44	-0.031455715274737034
89	0xbfd5e2a1ec927216	-0.3419575510286291
90	0x3fa8d7199afa94bd	0.048516082924189054
91	0xbfb764cb65965598	-0.09138175230176271
92	0x3fb53fce07eb70cf	0.08300483411170777
93	0xbfa211cf18ac8e7d	-0.03529212166020288
94	0xbfa7cdf3a11c3dab	-0.046493161598955744
95	0x3fce71ed5b08bac5	0.23785178132080467
96	0xbfc8367a2a21d6e8	-0.1891625123714029
97	0xbfa1bd5214479527	-0.03464752671770049
98	0xbfd945954e842cd0	-0.394872023273547
99	0xbfdea7bc83692dc3	-0.47898781617251646
100	0xbfab597143c58fdb	-0.05341676666537839
101	0xbfd95d3088b677d9	-0.3963128409467323
102	0xbfd0beb9b399f525	-0.2616409543914691
103	0x3fb717a5c78591d3	0.0902045833696044
104	0x3fca8dc8d3d498d6	0.2074519190147785
105	0x3fb3af46ea911d96	0.07689326502542423
106	0xbfc1283c4353bbf6	-0.13404038703399096
107	0xbfd4c54c20e74734	-0.32454207623696907
108	0xbfd17b0310b06aa0	-0.273133055017448
109	0xbfd0741a7c9a738d	-0.2570863930539467
110	0xbfe0808cd59b71cf	-0.5156921550765733
111	0xbfad05cf07c99dec	-0.0566849419599825
112	0x3fce366828649c2b	0.23603536579432335
113	0xbfde6de37131e7ca	-0.47545705846971187
114	0x3fc21e8da29bb4ea	0.14155741157393403
115	0xbfdbcfd4bf91afd4	-0.4345600004951369
116	0xbfb95d3a4a8a99b8	-0.09907879180773349
117	0x3fb9777cb14c2c4d	0.09947947815469256
118	0x3fc6944f6aa489fa	0.1764010687557656
119	0x3fd67736b748420f	0.35102622889192586
120	0x3fc36cc7cc05c169	0.15175721609149243
121	0x3fa05c47467bfeeb	0.031954028467223804
122	0xbfad6b5857673db8	-0.05745960299429548
123	0xbf7c12e4ace1623e	-0.0068539555196243645
124	0x3f9250c63a938f5d	0.017886254620761977
125	0xbfa800f0b30b5d51	-0.04688217340088364
126	0x3fd622f2bc1308d1	0.3458830677665335
127	0xbfce3998e51f4350	-0.23613272845843847
128	0xbfddfafb3c9066a9	-0.4684436885305368
129	0xbfd74527adf2c601	-0.36359588610784505
130	0xbf7759e32a656a2b	-0.005700957647003106
131	0xbfb8a043b4cd5557	-0.09619544185746541
132	0xbfcd2d981ab631b0	-0.2279539232662393
133	0xbfd4422d66a76722	-0.31653914475247025
134	0xbfd1a5e94275dd18	-0.27575141420625604
135	0xbfe0d175397f3e23	-0.5255685923565959
136	0x3fb599d42b45e03e	0.08437849098652436
137	0xbfa18b32bc5a2e7e	-0.034265122883053487
138	0x3fd0c2a2983e14b5	0.26187958590919475
139	0x3fc3d73e7758c650	0.1550062258480005
140	0xbfd07485086a94c6	-0.25711179563434106
141	0xbfbbf7a4a8987f53	-0.10924748531442434
142	0xbfcc0cb3fd928197	-0.21913766747912852
143	0x3fce8c10aa21f741	0.23864944751033515
144	0x3fa95942e8b93784	0.04950913515914038
145	0xbfd4727097864276	-0.31948485181150177
146	0x3fc4c3c1088828c4	0.16222393910022082
147	0x3fbe1da2f2a4b217	0.11763971733007171
148	0x3fcf21b01da4be29	0.2432155747169287
149	0xbfb24c406884df6e	-0.07147600700124965
150	0x3f8deb980c3c7f6d	0.014609516023085434
151	0xbf98e25eef5019f9	-0.024301036221027392
152	0x3fcf5866001d290c	0.24488520627557653
153	0xbfe716fb60b58c6a	-0.7215554131365824
154	0x3faafd4d63268081	0.05271379313785563
155	0xbf8a00cbe9507886	-0.012696831758202142
156	0x3fc19946be338a88	0.13749012267279093
157	0x3fe3f083cf2d5c48	0.6231097265653114
158	0x3fa7e2c40341d1f2	0.04665195979842797
159	0x3fd12ec832cbdb96	0.26848034821107924
160	0xbfddc23aedada638	-0.4649798699452705
161	0xbfac34813bd95b50	-0.05508807998255938
162	0xbfe0a89407128ff0	-0.5205783975729883
163	0xbfcd18320ce64fc9	-0.22730088834634746
164	0xbfcd19c6dd115273	-0.2273491458351092
165	0x3fd1bf024b552da0	0.27728326183997787
166	0xbfabe7883db0ef1b	-0.05450082543435838
167	0x3fd1a117175fa7aa	0.2754571655519792
168	0xbfd3514e30aaf6d4	-0.30183748963086754
169	0xbfe18df9ce9e5d95	-0.5485810313720544
170	0xbfc2c3cbcd1bbbcc	-0.1466002227311648
171	0xbfc2780895be6f7b	-0.14428813277924832
172	0xbfc475a4ce2c1438	-0.1598402029705157
173	0xbfc43d0f9c62726b	-0.15811343322720303
174	0xbfc3b937db53f1c0	-0.15408991059656607
175	0xbfdd3559325ac31d	-0.4563811294311096
176	0x3fc5dbcb5abe50a0	0.17077009135085053
177	0xbfc18991241f8112	-0.13701071037122198
178	0xbfba105a7813ae22	-0.10181203300060607
179	0xbfdce387e4fed03e	-0.45138738024548164
180	0x3fcb98086be18dd7	0.2155771757853546
181	0xbfa1b5031add5b1e	-0.0345841379445828
182	0xbfbc9a7567af48ae	-0.1117318514000398
183	0x3fc77eeb2352cfb1	0.18356074547557236
184	0x3fc38eee5adc669b	0.15279941021508567
185	0xbfd10cf07d34bd1f	-0.2664147589411687
186	0xbfa014e2cd0a4208	-0.03140934708529036
187	0xbfde562d9d7d4d57	-0.4740098989470502
188	0xbfcdf8c32624ed41	-0.23415412294876073
189	0xbfd4af07edaf5a6e	-0.32318304263518527
190	0xbfdec0ae84045f8e	-0.48051035778325335
191	0xbfc33c908de72ee0	-0.15028578690395644
192	0xbfb988482add4c65	-0.0997357468270806
193	0xbfcc0f36dee3b4e9	-0.21921430476451256
194	0x3fd611c0f3d5c91f	0.3448336011125707
195	0xbfdd4d91046bbe91	-0.45785928184248187
196	0x3fc371a5e8a19e24	0.15190576418830048
197	0xbfce4374c8fc4260	-0.2364335996030773
198	0xbfdd6bcc1960670f	-0.4597044227426616
199	0x3fb81aa70bf580bf	0.09415668527572317
200	0xbfaae3084f093a38	-0.05251337017817942
201	0xbfd6c5ca71751af2	-0.3558221919997059
202	0xbfd0b8d2c24b756d	-0.26128071760270793
203	0x3fc3076ce3fcc285	0.14866410381502618
204	0x3fe4ed5103771cc7	0.6539692943269068
205	0xbfdd2bcc4e43a367	-0.4557982219981142
206	0xbfc50d7ea16a15d8	-0.16447432405054374
207	0xbfb11bd57ce3db69	-0.06683096217225927
208	0xbfd27a413d04987b	-0.28871184309753745
209	0x3fdb51a0960c5807	0.42685713437219913
210	0xbfe71c5d17e89ed5	-0.7222123591390878
211	0xbff376abf6bb246a	-1.216472591202797
212	0x3fdbe5fa482e310b	0.43591172264929473
213	0xbfe338771f4e141b	-0.6006427394319219
214	0xbfd2321c8ac17cc7	-0.28430856275913324
215	0xbfb89af9c072779d	-0.096114739879765
216	0x3fb88c14319d1360	0.09588743411320655
217	0xbfd080fcab7b6c17	-0.2578727411871013
218	0xbfd679c3b86874ac	-0.35118191727253634
219	0x3fb427d69e82275b	0.07873288507303526
220	0xbfd01603b4c40104	-0.251343657044359
221	0x3fd09f9c32fb4000	0.25974183062226075
222	0x3f69f8938506254d	0.003170288204448346
223	0x3fc6dd91d06f063c	0.17863676717210974
224	0xbfc9c74dc98da1d1	-0.20139477101771644
225	0x3fc3ed37cd6dc2e3	0.1556768181867688
226	0xbfb19d5e88712ec0	-0.06880751448732791
227	0x3fd20a9a78584007	0.2818971801034426
228	0xbfdca4bc629fde0e	-0.4475546801690776
229	0x3fda3bda8d33e716	0.409903180974298
230	0xbfce8bc8fc45ff75	-0.23864090269125496
231	0x3fc2b19ee6983c76	0.1460455537748861
232	0x3fd5af2a7c517b78	0.3388162817045024
233	0xbfe449ccb20b072c	-0.6340087392238494
234	0xbfd48a3e1a46cfcc	-0.3209376579864027
235	0xbfd358b282a63f93	-0.3022886539338227
236	0xbfd9d74d1bba5c61	-0.4037659426480272
237	0x3fb1f935528b347f	0.07020886674145464
238	0xbfbb86c93f3e9f78	-0.10752542299326062
239	0x3fb61056bcdfb76f	0.0861868106000807
240	0xbfdea24e8c499371	-0.4786564226144981
241	0xbfea3930aa1d024d	-0.8194812128568373
242	0xbfccd1c818fbb959	-0.22515202731978937
243	0xbfe209f20c2abb7d	-0.5637140500674459
244	0xbff19f8ba5ae2281	-1.1014515373118743
245	0xbfe59df22e81a6c6	-0.6755305202798005
246	0xbff43c21982710a7	-1.264680475565038
247	0xbfc0c77d5e412678	-0.1310879430987375
248	0xbfd4230a09532427	-0.3146386233389102
249	0xbf4a641480343080	-0.0008053875066322963
250	0x3fb150eb9ffe4204	0.06764099746784075
251	0xbfe48018bff753ed	-0.6406368016565672
252	0xbfd0e555ee115eef	-0.2639975380784411
253	0xbfba53589ee9f9e1	-0.10283426170096945
254	0xbfd64eb5c00f5f73	-0.3485540748201778
255	0xbfa7f98bdf447f58	-0.046825762752858935

layer3.bias f8 [11]
0	0xbfd825acaa137e3b	-0.3772994671726086
1	0x3fab58f4db913a8c	0.053413059046410444
2	0x3fb9e42eaa188223	0.1011380353234093
3	0xbfb02b01925461f9	-0.06315622160435187
4	0x3fb1e1181f42acaa	0.06984091532892714
5	0x3fc5690b47af3ed8	0.16726819038603113
6	0x3f9f46794440bf53	0.030542273321940993
7	0xbfd3f31848fe03a7	-0.31171233299397233
8	0x3fcfbf52c94d97c8	0.24802622632267757
9	0xbfcb8cce4f47ecea	-0.21523455496922078
10	0x3fcdf5257184ae49	0.23404377024540882
