attack_soft_generative_decision_tree/experiments/vowel_params_state_dict/fnn_epoch289.pth (torch, 69599 bytes, 6 tensors)

layer1.weight f8 [80, 12]
000000 3f aa a2 0d 9c 9c 9b 3f 81 1d a5 d8 03 27 d3 bf
       0.026964605648269076 -0.2992562881158492
000010 81 a5 97 2c 5f d0 ce 3f 6a 0c 19 26 e5 00 b5 3f
       0.24073400189744734 0.0820449083339995
000020 37 0d 94 a3 b3 4c eb 3f 12 8b 34 82 b5 56 ca bf
       0.853113002289695 -0.20577114923170164
000030 63 7d 0f 58 cc 52 e8 bf 00 d4 0f 38 5f 36 e1 bf
       -0.7601072044307496 -0.5378872008283224
000040 de df 07 b3 a1 ad e1 bf 72 dc 87 3a d9 e0 df 3f
       -0.5524452683157468 0.4980986663426342
000050 91 03 43 c6 fc e7 c8 3f 6b 84 dd ff 45 50 dc bf
       0.19457969361067431 -0.4423995016750896
000060 5c 0c 09 c2 1f ec a6 3f b8 69 17 30 35 93 a2 3f
       0.044770233570056134 0.03627935611776273
000070 f7 71 4e 82 73 52 d7 bf b9 fc 6f 24 97 69 df 3f
       -0.36440742230641326 0.4908197265467141
000080 8c dd 29 d4 2b 39 d3 bf 75 61 9b 88 b4 bd e2 bf
       -0.3003644534978427 -0.5856573742012602
000090 d8 22 9c aa 82 18 d6 bf ed a7 37 8d 3d 31 da 3f
       -0.34524599705814074 0.4092553977085334
0000a0 89 e9 4c 89 e5 cd d9 3f 9c b8 99 1e 5e a7 d5 3f
       0.4031919327568621 0.338340310939097
0000b0 f1 4c d2 42 91 93 e5 3f 5f 05 4d b7 37 3a dd bf
       0.6742636017901572 -0.45667832279658244
0000c0 79 5b 51 61 e6 3b b3 bf 89 9f 05 0a d5 39 ef bf
       -0.07513275028155232 -0.9758095927945628
0000d0 52 3b 79 f0 89 67 c8 3f 1b cf ea d3 96 3b e8 bf
       0.19065975419877162 -0.7572740687378173
0000e0 9c d4 d2 d7 36 75 dd bf dd 9a 66 b4 69 47 d5 3f
       -0.46027918888587194 0.3324836980558937
0000f0 af a0 56 43 12 28 b5 3f b7 ff 56 db 61 ea c9 bf
       0.08264269012454649 -0.2024652787204084
000100 1f a8 79 bc 88 e3 e1 3f 55 53 25 3c e1 2b aa 3f
       0.5590251618534728 0.05111602648927397
000110 db 8b 58 83 a9 56 e0 bf 91 67 71 0d bf a7 c8 bf
       -0.5105788770055101 -0.19261921078105762
000120 68 62 bd 6f 8e c3 b4 3f ef d9 d1 bc 89 24 c0 3f
       0.08110895374319116 0.12611505241120777
000130 f2 31 f4 cc 46 ba ed bf d6 46 19 77 8b c5 d0 3f
       -0.9289888384824379 0.2620571768830876
000140 ea 87 be 3e 2f a3 e1 3f e9 0a 83 00 bc 09 d1 3f
       0.5511699891542297 0.26621913957585136
000150 cc ac b3 49 19 bb d6 3f d9 0c ea 8e 38 5d b7 3f
       0.3551696033234293 0.09126618851773872
000160 f7 06 23 61 03 a5 c2 bf 60 d5 be 2c 11 2b bd bf
       -0.14566080325135264 -0.11393840162675906
000170 95 c1 62 c5 c8 8d 9e bf 7d 53 5d c9 7d d2 c7 bf
       -0.02983773903605565 -0.18611118633512183
000180 7e a1 d0 fd 80 32 b1 3f 8a 96 5a db 82 85 cf bf
       0.06717687794355773 -0.2462619372428672
000190 15 7b a8 35 b7 50 c6 3f b3 d2 d3 9f 6a 40 f2 bf
       0.1743382465365008 -1.1407266848811275
0001a0 8a 64 bc ab 9c 07 e9 bf c8 18 1c 09 a7 f7 cf 3f
       -0.7821791986672377 0.24974525399028935
0001b0 7d 0f c1 d6 76 14 c6 bf bd 46 cd ed 13 28 8b bf
       -0.17249951826135748 -0.013260036177288876
0001c0 1c 48 7e 50 3b 3d cb 3f c6 91 fd 8f f1 3a d9 bf
       0.2128061430963165 -0.39422263204167185
0001d0 f4 42 c8 3c 7b 19 c3 3f bb 06 8d 69 87 26 d1 3f
       0.1492151304996906 0.2679766207475997
0001e0 b7 5f 78 bb f2 3f c8 bf 1a d9 e5 34 05 2a db bf
       -0.18945154336756584 -0.42443971792035173
0001f0 b3 6d bb d2 f4 59 bf bf 19 29 91 bb b4 43 a7 3f
       -0.1224663748247881 0.04543843068730009
000200 80 47 65 cc fa ea b8 bf 28 22 56 d1 80 86 dd bf
       -0.09733550539138314 -0.46133442347539466
000210 24 31 b3 8d 99 ac e0 bf 65 5a 32 ff 1d c4 db 3f
       -0.5210693137719642 0.433845042434234
000220 d0 01 68 e3 52 65 da 3f 29 21 c7 0a 25 c8 ca 3f
       0.4124343128933363 0.20923293138754076
000230 78 b4 d3 ed 4e 1f e0 3f ac f0 0b 4d 0b 72 d8 3f
       0.5038218159730965 0.3819607021721463
000240 9e 70 d1 1b a7 7c b4 bf 28 22 a8 cc 83 ad e4 bf
       -0.08002705029633936 -0.6461810109331667
000250 ee 8c 2e 11 8d 58 e0 3f 6d d9 6c b0 4c c0 e2 3f
       0.5108094535429737 0.5859740682415527
000260 c1 61 33 a5 e8 68 b4 3f ba 11 79 93 87 c8 d9 3f
       0.07972578080387561 0.4028643551030445
000270 33 b3 3c 3b a1 f2 e1 bf d3 76 fe 7e 14 5f 74 bf
       -0.5608678967451851 -0.004973487913870494
000280 2a 35 96 e1 a7 e6 dc bf 98 28 be 97 c0 4b d5 3f
       -0.4515781119342416 0.3327485544074391
000290 05 af cf 79 b6 23 c6 bf b8 c1 16 51 d5 61 a7 bf
       -0.1729648680478634 -0.04566828360418945
0002a0 04 5f da 9b c2 27 9f 3f 60 90 2c ff 29 af e1 bf
       0.030425110590470275 -0.5526323303097449
0002b0 cd 99 8b 58 19 33 c4 bf 04 0c 7f 81 fb 59 e4 bf
       -0.1578094179487394 -0.6359841851448214
0002c0 ba ec ef c8 22 96 d5 bf 66 ff ef ed e5 f1 e1 3f
       -0.3372885668065454 0.5607785842148416
0002d0 d3 4f d6 bc b7 c4 dc 3f 00 57 26 e6 19 f0 d0 3f
       0.44950669709328145 0.26465461230814924
0002e0 f1 9a 8a 2d 88 e3 e3 3f 5e a7 c6 b8 9d da e4 3f
       0.6215248956185332 0.6516865357309418
0002f0 ec 8e 57 88 2a e6 cb 3f 85 67 ae 2c 49 f3 d2 3f
       0.2179616132481138 0.2960989891376971
000300 2b ee a8 1c eb fa af 3f d6 b6 f3 65 2a c2 c3 bf
       0.062461230515023246 -0.1543629644215147
000310 84 6a 1f 75 7d 1f b1 3f d1 e1 8f 5f 9a 48 e0 3f
       0.06688675031129249 0.5088626734205325
000320 50 fc 64 94 9e 73 cd bf 4c c4 e9 d6 3c 07 ce bf
       -0.23009092565368627 -0.23459587568098283
000330 52 2d 29 30 48 78 b8 3f f2 7f 30 6b 82 9c e3 3f
       0.09558535743524502 0.6128551572364798
000340 b4 0b 59 80 22 23 dc 3f a9 32 d5 e7 e3 af d9 bf
       0.43964445623367543 -0.4013604892723302
000350 76 fb 26 bf f2 48 d7 bf 00 f2 45 51 36 b3 ba bf
       -0.363827406570571 -0.1042970608159024
000360 0d fa d4 cd 2a f4 bd 3f 63 c9 61 b9 92 77 ca bf
       0.11700694585031375 -0.20677408267836048
000370 e2 ee 09 53 01 75 e4 3f 0a 61 18 4f 3c 71 c0 bf
       0.6392828580714787 -0.128455675717085
000380 50 00 43 07 70 1c bf bf d4 fe 8d 32 4b d8 ce bf
       -0.1215276735047166 -0.24097576111306884
000390 86 8d f7 4b 21 55 c2 bf ae 9e 60 87 a3 50 da bf
       -0.1432229634220727 -0.41117180080844207
0003a0 e7 77 fb 5a 3f 17 ce bf 59 3c 8f 1e 9f e5 cd 3f
       -0.23508445684905085 0.23356999389804647
0003b0 a9 0b d3 4f 37 b7 d8 bf 36 db 1b 3f 69 90 d7 bf
       -0.3861826209578632 -0.36818915522546847
0003c0 95 d7 ba e9 77 23 c0 3f f8 90 12 87 2b 9f 95 3f
       0.12608240997877532 0.021114997977421418
0003d0 f2 8b 2e df bc db a9 bf 31 9e ef c0 ad 52 d8 3f
       -0.050504591220736375 0.38004630891234387
0003e0 ea 12 62 ae df b7 ca 3f d2 96 ad 36 f4 34 d1 bf
       0.20873638167190417 -0.26885705318123343
0003f0 1f 3c 71 3d a7 eb cd 3f 3a 65 78 65 0d ff e0 3f
       0.2337540674220415 0.5311343175737087
000400 eb 2f be ee 49 c8 d8 3f 6f ee 5e df e0 74 e2 3f
       0.3872246581529441 0.5767673838340225
000410 61 13 8c 43 d1 a1 bb 3f 41 8f 32 91 50 c4 d0 3f
       0.10793788813687179 0.26198209933703615
000420 74 c3 e6 75 7f 00 81 3f 64 32 a3 d3 89 36 c2 3f
       0.008301730905118744 0.1422893794428034
000430 70 8f 3c ad ce 48 c0 bf 10 60 f3 4e b3 db e4 bf
       -0.12722190340820871 -0.651818899345928
000440 40 6b bf cc d2 48 cd bf ef 84 34 2d 98 1c c3 bf
       -0.2287848949188973 -0.14931013304980165
000450 cc 06 9f 1e c9 b2 9b bf ac 66 73 e6 d7 0d e7 3f
       -0.027049200529069492 0.7204398632995512
000460 ea 65 94 b0 6c 46 e7 3f 70 38 1d bb 57 90 a0 bf
       0.7273467491933705 -0.03235124739750084
000470 31 6a c1 9d 8e 06 d9 3f 52 09 e3 87 67 5c a8 3f
       0.3910252132970156 0.047579989755393584
000480 d8 a1 49 62 93 c9 a1 bf bb 29 b6 94 2e e1 bf bf
       -0.03474102568435783 -0.12452975397733372
000490 d0 56 a4 72 d9 f6 af 3f 1d 93 17 5f a6 3a b7 3f
       0.062430186504725094 0.09073867627700989
0004a0 cf ec c9 6e 00 7f e1 3f f6 ec 3b f1 2a ed ce 3f
       0.5467531360476644 0.24161278513916046
0004b0 22 09 76 c5 75 87 df bf 9c 41 30 11 29 43 f2 bf
       -0.49264282496746337 -1.1413965865541291
0004c0 52 4b b1 89 3b be d4 bf c3 05 16 dc 9d d8 c1 3f
       -0.32411087461985233 0.1394231152190014
0004d0 0e 05 df 03 bb dd e3 3f 3d 57 e0 b4 1f d5 d0 3f
       0.6208167148217016 0.26300804771141256
0004e0 19 63 ba fb e9 f5 c8 bf 5f ef ff 18 1b ec dd bf
       -0.1950046996251096 -0.4675357574594638
0004f0 c7 d4 61 ba 36 24 dd bf 98 0d df d0 70 07 c5 bf
       -0.45533531381017806 -0.16428957175058367
000500 05 9d 68 a2 2b c2 e7 3f 3b d5 38 4d e2 06 d1 bf
       0.7424524471324793 -0.2660451654549722
000510 59 7d 00 59 57 45 53 3f 85 3e 59 82 0a c5 de 3f
       0.0011762001995590714 0.4807764313636443
000520 ec b6 11 a5 42 48 dc 3f 08 4f 34 80 4d 99 e3 bf
       0.44191042060889063 -0.6124637130728567
000530 53 c3 7a 9b 1b 11 bb bf 94 14 94 a0 70 d5 e1 bf
       -0.10572979493987349 -0.5573046814248692
000540 f6 aa d5 8c 9a 3b aa 3f bf c7 75 ae 32 e3 ad bf
       0.051235990230301384 -0.05837400798453939
000550 c8 c0 9d fa e6 cc e0 bf f7 67 91 39 48 36 d5 3f
       -0.5250124831054785 0.3314381181895664
000560 5f f8 37 1c d7 55 d8 3f 11 4a 82 3d 7d 00 e5 3f
       0.3802392745564073 0.6563097192141091
000570 0f d7 0c a2 fe e4 b1 3f 5d 6c 3d 68 b6 3d ce 3f
       0.0699004312162652 0.23625831689682544
000580 fe 84 12 ac e5 39 d5 3f b7 58 b0 80 1d 0a c2 bf
       0.33165876201572064 -0.14093369277606424
000590 e8 9f 67 40 f1 a2 e2 3f 2f 7a d5 1d 32 2b c2 bf
       0.582390428343385 -0.14194323021634278
0005a0 63 d2 2f 45 a1 7e b9 3f be 3b e0 7b 64 08 a6 bf
       0.09958846987849194 -0.043032779809542884
0005b0 e3 ba 1c a3 61 e1 e4 3f 3e 53 1e e6 54 ea d0 bf
       0.6525123773370435 -0.264302468037659
0005c0 98 a2 de 5d f0 f7 dd bf 61 3b 54 76 f9 ac e3 bf
       -0.4682579914756757 -0.6148650466073883
0005d0 85 3f de 2e 1d 17 d4 bf ef 35 1e 84 dd 11 d2 bf
       -0.31391076638191634 -0.2823404112067171
0005e0 fb 4f b1 f1 ee a1 c1 bf e9 18 6b 7d 51 5d d3 bf
       -0.13775431443593775 -0.3025706982410968
0005f0 0a 1c 51 24 d4 67 d0 3f bc d2 aa 17 dc b2 9e bf
       0.25633719965520696 -0.029979170746360792
000600 ab f8 a4 61 27 7e 99 3f 63 aa cb 82 20 7c c1 bf
       0.024895301184408563 -0.1366005552911985
000610 a0 37 d0 a1 04 6b d5 bf 64 ea f4 59 d5 c5 d4 bf
       -0.334656866093491 -0.3245747927173055
000620 c6 e6 bc 8a a2 4e d8 3f 31 07 7d 00 bf 91 bd 3f
       0.37979949520704925 0.11550515901492699
000630 54 26 67 1f c4 00 b4 3f dd 80 b9 12 81 7c e8 bf
       0.07813668982194005 -0.7651982656207356
000640 5a 5e e8 ce 20 69 d1 bf fe 42 89 83 b4 f0 be bf
       -0.2720415134985835 -0.12086036883671267
000650 b9 be 1c b0 48 b6 d8 bf bb a9 97 0e c0 d5 d3 bf
       -0.3861257285925422 -0.30992127823870036
000660 95 2a fa 54 fb d2 d3 bf 79 28 77 04 e7 13 b5 bf
       -0.3097523050170506 -0.08233493670482685
000670 cc 85 e1 af 95 a1 d9 bf da e3 60 c2 ee 49 b5 3f
       -0.4004873483264333 0.0831593727642849
000680 54 4d 1f 19 d6 35 dd 3f b1 9f d8 15 2b 3c d2 3f
       0.45641090825411834 0.2849223817197482
000690 30 27 22 e8 71 a7 a7 3f 44 8d c2 d2 aa f3 d0 bf
       0.046199378573034244 -0.26487227041271333
0006a0 56 bd 47 18 23 68 e0 bf e1 6b 6a 06 38 75 db 3f
       -0.5127120470259949 0.42902947069677394
0006b0 a7 cd 96 17 85 98 6a bf 18 2f 0b bf 77 f4 d2 bf
       -0.0032465552764848363 -0.29617112785921185
0006c0 7d 20 de e5 d3 5e ba bf 12 2b 04 6d 4f d2 cb bf
       -0.10300945627216325 -0.21735565970478682
0006d0 67 fe 5a e7 e7 f7 d1 3f cf 98 e9 bf f8 6e d5 3f
       0.28075597375207056 0.33489817372754954
0006e0 d5 47 cd ba bd cf e5 bf d7 8e 06 c1 ac 28 dd 3f
       -0.681609024856011 0.4556075940147201
0006f0 31 b1 31 f8 51 5d d6 3f 91 38 f6 92 72 ad ba bf
       0.34944581258493473 -0.10420909965452753
000700 68 be 17 42 a0 28 e9 bf 70 1f 3a b4 ff 77 d6 3f
       -0.786209229552651 0.35107414818093385
000710 ca 49 cf 08 98 46 de 3f ad bf 38 22 6b 70 e1 bf
       0.47305870876621425 -0.5449729603187642
000720 da 75 38 58 9b 23 c0 3f ae ba ec 3b a6 dd b5 bf
       0.12608663375514945 -0.08541335070615716
000730 69 78 fa c1 c2 8d b5 bf 4f 0c 3e e0 1b 76 d2 bf
       -0.08419434772301461 -0.28845879458112206
000740 39 c5 4b c6 5c fc d9 bf 77 05 08 c9 fe 2f c4 bf
       -0.40602797856179823 -0.1577146989439304
000750 2b fc a0 25 06 55 d1 bf fa 26 b2 85 f4 75 be 3f
       -0.27081445383732 0.11898735298214183
000760 96 0d 5d 2b 7c d9 db 3f a7 f9 40 b5 27 c5 bb 3f
       0.4351492331954544 0.10847709822789985
000770 18 6e ad 76 54 19 bd bf d2 34 37 58 e8 79 d3 3f
       -0.1136677541484733 0.3043156491738276
000780 1c fa 5a bc 05 fa a7 3f d8 0b 8e f4 bf 3b dc 3f
       0.04682939457187649 0.4411468399268279
000790 f6 d0 40 b7 2d a7 e7 3f db d5 ac a7 2b 51 cb bf
       0.7391575411952818 -0.21341462790739638
0007a0 a9 c2 e6 ad 84 ca c1 3f 8b 94 32 12 41 d3 ca 3f
       0.1389928673866241 0.2095719660621039
0007b0 f3 56 ec d6 9e 24 e3 3f 74 30 78 95 4c 7e e4 bf
       0.5982202718466553 -0.6404173774076427
0007c0 32 b5 08 24 e5 f5 ce 3f d3 fe 79 a1 4a 7e db 3f
       0.24187912234757786 0.42958322304910473
0007d0 bb 0e 1c 9b 13 20 c3 bf b4 34 74 d0 d2 d4 d5 3f
       -0.14941639970503737 0.34111471516446135
0007e0 85 22 b0 8b 25 c6 c8 bf 8d 1a ea a2 5a 8b b8 3f
       -0.19354695625976973 0.09587637402919764
0007f0 d1 87 73 04 0d 6e e8 3f 5d 37 08 24 84 31 bb 3f
       0.7634339415492325 0.10622430686654867

layer1.bias f8 [80]
000000 07 ab 85 70 de e0 87 3f 34 fe a1 96 d6 c3 b3 bf
       0.011659372147467829 -0.07720700433309774
000010 b6 27 27 61 8d 4a ae bf 8b a6 07 a0 e5 61 d5 bf
       -0.05916253863286107 -0.33410015705030877
000020 76 a7 46 7e 19 9a ce bf 01 80 61 b6 0c 40 c0 3f
       -0.2390777460653301 0.1269546404391804
000030 41 35 62 f7 1d a9 cf 3f a3 ff 91 0b 13 68 ba 3f
       0.2473485429694993 0.10315054924467275
000040 13 70 42 88 b7 de b0 bf 77 ae f7 d8 77 4b de 3f
       -0.06589839054726125 0.47335621059639926
000050 2c 5c 68 52 5b b8 d3 3f d7 f0 7c 61 3d 3d d1 bf
       0.308127241588809 -0.26936277885739685
000060 46 01 7e 2a 91 1b d2 bf 2e a9 ef c3 01 45 a7 bf
       -0.2829325594866713 -0.045448355834951534
000070 15 57 b7 78 d2 54 a6 bf 4d 4a 60 26 8f 11 e1 3f
       -0.04361589168153849 0.5333934545072424
000080 f9 86 59 67 7d 61 b6 bf c6 b9 81 4e 68 d6 bd bf
       -0.08742507718264027 -0.11655284802120666
000090 14 a6 e7 2a 78 d5 81 3f 42 a2 25 33 6f 30 d3 bf
       0.008707941827156986 -0.2998311995966426
0000a0 73 0a 86 86 8a 19 d1 3f 0f 4e 01 e6 d2 46 d7 3f
       0.26718390595502867 0.36369774304805075
0000b0 de 55 f3 2e 45 9f a1 bf 61 1a 56 8d f6 72 c9 3f
       -0.03441826055647444 0.19882089520634152
0000c0 80 f8 c9 bd fb 8b a3 3f c3 5c ed 24 27 96 a8 3f
       0.03817736331710453 0.048020575769152106
0000d0 2c 42 2b 0e e1 6d c6 bf 2f 4a 61 6b 2a dd b4 3f
       -0.17522824470371867 0.08149972077925648
0000e0 28 df ad b1 29 cc a0 3f 24 e0 ca c9 ee ef c4 3f
       0.032807639064172556 0.1635721669497353
0000f0 d5 de 3b b0 e9 be d4 3f 5b a6 42 4c 8c 5c c2 bf
       0.3241523953470112 -0.14344934199953027
000100 92 92 90 8b f7 5e 82 3f 0b 65 3b aa fc 3a c7 3f
       0.008970197626760244 0.18148763954267397
000110 16 20 b4 c4 26 c6 d9 3f c0 a6 e1 d1 5f 87 a0 3f
       0.40271920403802264 0.032282823915762204
000120 b2 aa b0 a9 2e 18 ca 3f bc 02 e4 84 5b 7f d7 bf
       0.2038629845204319 -0.3671482846985261
000130 4d 65 cf c2 6c b4 d5 bf dc 58 f9 e1 e7 94 d1 bf
       -0.33913725876262363 -0.27471348827147124
000140 49 d7 f4 3c ab 1d dc 3f a6 7e 6a 48 15 78 d3 3f
       0.43931084587835706 0.30420429298281204
000150 ab 0b 8b 08 c9 38 c2 bf 2b db a8 11 ee b4 c8 bf
       -0.14235794942041244 -0.19302154409680247
000160 66 a0 8d 87 a9 92 c2 bf 81 27 92 e1 25 a4 a5 bf
       -0.14510077589807507 -0.04226797464896404
000170 60 9f 47 aa 75 a1 b9 bf 0d 7a 86 be b7 9b 9b 3f
       -0.10011992842885098 0.026961203578702398
000180 f0 b0 2a 70 49 78 cc bf ab b8 96 3d 8c 97 94 3f
       -0.22242086388485616 0.0201093590346139
000190 f8 6f 07 ff 92 89 d8 3f d6 88 ff 4c b4 e4 c6 3f
       0.3833968630331124 0.17885450133969155
0001a0 e1 55 54 fe 69 f6 e0 3f 67 4b cc 4c a2 c8 c1 bf
       0.5300798385021005 -0.13893536329177467
0001b0 93 32 18 0b 6d 16 9e bf a5 34 5e 43 60 f6 b0 3f
       -0.029382423212200037 0.0662593998406061
0001c0 b0 bb cf c5 7a 54 d1 3f 2b 14 0b 56 fd e6 c0 bf
       0.2707812244179264 -0.13204924298602924
0001d0 d9 18 af 7e aa c1 98 3f 94 7d 83 fb 1b cb 97 3f
       0.024176277143646317 0.023235738016294485
0001e0 87 ac 00 a5 b0 31 b4 3f 09 9e 35 dd 74 28 94 bf
       0.07888320949921211 -0.019685579301407716
0001f0 1a 8a fc 0e 7e 68 a0 bf 3a b2 44 f8 4e 21 e6 3f
       -0.032047213868527005 0.6915659760466675
000200 f0 b9 67 a2 11 46 c1 3f 67 9a ae 16 7e 63 b2 bf
       0.13495083265247798 -0.07183063558350399
000210 4f 1c f6 8e 9c 95 d2 3f 4d 48 6d d7 d5 85 bb bf
       0.2903815647227405 -0.10751091489262983
000220 26 db 93 58 57 77 d1 3f 5c ff 9f 63 cc 08 93 bf
       0.2729090085044156 -0.018588250713946194
000230 68 23 0d 26 2d 6e c3 bf 29 63 18 24 2d 1e c6 bf
       -0.15179981573080714 -0.17279590856994645
000240 ca a7 00 d7 64 fe c3 3f 83 fc 77 73 02 b2 d9 3f
       0.15620098589107406 0.40148984218826217
000250 08 c4 80 e0 45 6d b6 3f 4d 00 9d 03 73 e8 b4 bf
       0.08760487299947795 -0.08167189443793284
000260 a6 73 ef 89 79 48 c7 3f 65 21 cd e8 80 d6 bd bf
       0.1818992541801922 -0.11655431445718063
000270 b9 07 87 7c 2d 47 cb bf 42 72 46 7a e5 83 da 3f
       -0.21310967045252285 0.4143003172010006

layer2.weight f8 [80, 80]
000000 45 90 93 77 c0 8e 97 3f 5c 8d 19 62 b5 08 aa bf
       0.023005492494931685 -0.0508476907969235
000010 33 16 b3 af f8 af e0 bf 1d 7c 2e 3f 4b 8b ac 3f
       -0.5214808875686628 0.05575022836932695
000020 15 13 79 a4 b3 52 d5 bf 2a 38 3a 39 c1 62 dd 3f
       -0.333172712915528 0.45915251339545426
000030 d0 0d 3d 63 e4 c1 d4 3f f0 24 a2 77 aa ee b6 bf
       0.32433423701533304 -0.08957925244080278
000040 f7 a7 74 12 3e de cc 3f a8 d9 fd 3c 55 d6 ce 3f
       0.22553230191380155 0.24091592290978991
000050 b8 95 8c 3b d4 38 dc 3f ab e5 08 59 92 88 ba bf
       0.4409685689482461 -0.1036464183206564
000060 95 22 dc 4e dd 83 b1 3f 2b ea 88 21 34 f3 cc bf
       0.06841834235468476 -0.22617198598330054
000070 3d c7 6b 85 fc 08 bd 3f fd 5e 61 69 b9 d9 d2 3f
       0.11341837174748277 0.29453883448648793
000080 ae 37 f9 05 1b df cb bf 51 78 10 91 db 35 d6 bf
       -0.2177461413543233 -0.347037212051764
000090 28 0a c2 e8 4c e4 e1 3f 88 63 83 9f 1c a3 ac bf
       0.5591187044195225 -0.05593194434340548
0000a0 b9 fa 89 d7 54 49 ce 3f 9d 80 7f d7 bd f1 d3 3f
       0.23661289715160708 0.31162973446590475
0000b0 a5 bc ed 5e 7e 39 e7 3f 95 78 44 d7 91 07 9a bf
       0.7257682661128412 -0.025419501079448088
0000c0 6b 82 92 8f a3 18 e0 3f 32 18 d6 5d 66 41 d4 3f
       0.50300767938104 0.3164916912431891
0000d0 f1 cc e4 c4 a5 af 75 3f a9 72 18 47 c0 d0 d5 3f
       0.00529446366845153 0.3408661550800312
0000e0 23 16 69 87 cb fb ac 3f 58 58 e2 c4 ed e7 cd 3f
       0.05660854366264469 0.23364040482983017
0000f0 b3 ab 2a 2e 63 f0 da 3f 54 d7 e4 67 34 65 c1 3f
       0.4209220839354046 0.13590102265305382
000100 87 0d 01 63 83 af cb bf 05 30 37 b3 89 ad c4 bf
       -0.2162937386911887 -0.1615459561420495
000110 87 72 da 76 57 a3 c1 3f bd fa 1a 18 f9 ad ac bf
       0.13779729178795128 -0.05601480883841734
000120 f5 ce cc 50 70 83 d4 3f 82 64 63 e7 53 71 bc bf
       0.32052238360050406 -0.11110424422385459
000130 e7 a5 b8 24 14 95 d2 bf 4a 89 e7 43 e8 e3 9a bf
       -0.29034904085219043 -0.026260022301252385
000140 52 f0 8c 31 e8 11 c5 3f 3c c1 ef d8 22 84 cc 3f
       0.16460897845706995 0.22278247444729427
000150 84 dd 7d e8 4e 51 cf bf ac dd 43 00 9a cc b2 3f
       -0.24466883041507625 0.07343447214576909
000160 80 09 9c e0 b1 b1 d8 3f 28 3a 07 0a 05 35 dc bf
       0.3858456319286674 -0.44073606471366356
000170 f4 46 14 01 14 a1 b2 3f 6e 37 3d af c3 ba c9 bf
       0.07277035738323062 -0.2010120969447899
000180 dc a5 56 1c fa 05 d3 3f 08 f5 5c e8 8e 3f cb bf
       0.29723980681828066 -0.21287714334349794
000190 fe 63 31 33 47 fb a6 3f e7 12 a0 51 4f ba d4 3f
       0.04488584995187493 0.3238714501497228
0001a0 4a 8b 17 0c f3 df ca 3f 04 e0 f9 20 c4 74 e2 bf
       0.20995939340999775 -0.5767536777557329
0001b0 69 5c 89 f2 98 a7 c4 3f 85 ce ee 07 60 78 d1 3f
       0.1613646682987764 0.27297211432162555
0001c0 65 49 4b f9 6d 92 d3 3f 91 45 ac 65 94 31 c0 3f
       0.30581235261083456 0.126513051648129
0001d0 95 9d b1 1a 19 c3 ce 3f e7 7c b4 db fc 1c b5 bf
       0.24032892039688805 -0.08247356761829715
0001e0 cd c9 c0 70 53 06 c1 bf 5c 70 ad 53 d3 c7 d5 bf
       -0.13300555234452674 -0.3403213803446812
0001f0 01 cb 7a 63 61 de d3 3f 81 ce 8a cb 69 37 d2 3f
       0.310448023937326 0.284632157108014
000200 a8 af 64 6a dc e0 d8 3f f8 72 e8 2e 26 ae d8 3f
       0.38872442617388936 0.3856292207799892
000210 47 ac 36 93 31 ce b2 3f 57 41 2c cf ef 01 e2 3f
       0.07345876545029838 0.5627364202828556
000220 4c 1d 28 78 72 83 ce 3f 38 b0 e7 9f 73 86 d1 3f
       0.238386448545706 0.27383127799726337
000230 3d 97 fd 0f 6e f2 b5 bf 91 5f 21 f4 23 6b e4 bf
       -0.08573043718714941 -0.6380786674662763
000240 8b bb 71 18 21 33 e4 3f ff a0 8e 3e a1 d8 dd bf
       0.6312413670947178 -0.46634703740211586
000250 6f 98 c6 6d 0a 18 c2 3f ab 8e bf 48 34 86 c9 3f
       0.14135866508621883 0.19940808822786002
000260 5d a0 1b 78 26 1e be 3f 57 10 15 02 ed d5 b4 3f
       0.11764755661317979 0.081389248855943
000270 94 39 60 17 fe 3e b2 bf a9 ae a2 33 07 73 e8 bf
       -0.0712736899442688 -0.7640415199761793
000280 09 f6 4a 50 92 f9 c6 bf 60 29 a9 8f 11 93 d9 bf
       -0.1794913188986558 -0.3996013548791293
000290 4c ea 66 1d e2 df a7 bf fc d5 f5 e8 28 bf c0 bf
       -0.04662996872817313 -0.13083373427404854
0002a0 94 2a 83 9d d2 d9 c3 3f 1a ba 4c ed 75 e2 da 3f
       0.15508492175134292 0.4200720612888361
0002b0 af 8c b8 38 a3 4c b0 3f 3b 3b 13 7c 57 71 b4 3f
       0.06366939673221127 0.0798544576566486
0002c0 ff 00 89 ca 1c 87 d3 bf 20 d9 8d 02 93 d6 c9 3f
       -0.30512161043954217 0.2018607866736568
0002d0 7e 5f 6e 38 5a 9b a5 3f df 61 5b 76 ea b4 96 3f
       0.0422008699308085 0.02217451426881378
0002e0 4a 76 58 28 4e 7e b8 3f e0 fa 01 52 b1 9f c2 3f
       0.09567726597784901 0.1454984331539526
0002f0 ad 49 0b 27 93 dc cc bf b4 ba 2b 0d 16 d0 be 3f
       -0.22548140913438655 0.120362642493755
000300 d4 8e 93 28 48 9e ba 3f 26 ce 57 b4 49 89 b2 3f
       0.10397768965372772 0.07240734723000539
000310 f4 d8 8b 0b a0 dc b2 3f 0d 17 3f de 5d 22 bc bf
       0.07367897302524168 -0.10989939380587206
000320 e6 ae 68 e0 7b 42 d1 3f 57 d9 e6 7b f4 b8 d7 bf
       0.26968285479482146 -0.37066375827580117
000330 bd 96 96 d3 f6 b0 e0 bf 6a 06 42 3f bd d2 c9 3f
       -0.5216020710547223 0.20174375141873507
000340 1d f0 5a 32 9b 5b dd bf 41 b4 47 a1 44 64 c9 bf
       -0.4587162009954698 -0.19837243914608574
000350 0b 5c f3 1c 0f 15 b1 3f 17 0a 5e 81 75 ab c8 bf
       0.06672758538057637 -0.1927325135876152
000360 d6 8f 9c 54 0e 3a d3 bf dc a3 ad 22 eb 5e da 3f
       -0.3004184557232724 0.4120433653502553
000370 45 a9 cd 38 6b 32 97 bf 68 cf 5b bb eb 72 87 bf
       -0.022653270093919948 -0.011449662833434807
000380 e5 54 43 4f 41 90 d5 3f 34 84 eb 21 c9 df d3 3f
       0.336929633527076 0.3105337935685981
000390 b5 05 4c 80 7c fa d8 3f 47 56 15 39 82 13 8b 3f
       0.39028847245216564 0.013220803610845112
0003a0 47 f1 20 3e 40 34 c3 bf 05 ba 27 37 d8 58 b8 3f
       -0.1500320723879531 0.09510566088258805
0003b0 e4 b7 60 e0 bf 95 84 3f 91 5a 47 6d f5 ba a7 3f
       0.010051249537436698 0.046348256673515505
0003c0 22 32 fa 58 7e 0f cd 3f 52 0d 34 c8 3b d9 cf 3f
       0.22703532547565525 0.24881694102814805
0003d0 db cd 2a 95 b6 c2 aa bf 0f 43 f3 30 9f 10 e3 bf
       -0.052266793927085074 -0.5957790332850851
0003e0 60 8a 97 09 89 d9 d0 bf 05 66 08 fd ed f2 c6 bf
       -0.2632773011847913 -0.17928862433545603
0003f0 70 c2 dc 39 39 69 b0 bf e5 af 76 6b 0f 8c a8 3f
       -0.064105583788441 0.04794357477962289
000400 60 ff ad e5 97 08 d0 bf 0b c8 1d 2f 37 1b b5 3f
       -0.25052449636131335 0.08244652653027644
000410 3c 05 66 d8 d0 97 d4 3f f1 98 05 06 7d 01 de 3f
       0.32176610119502747 0.46884084308693647
000420 cf dd 31 a4 28 04 b5 3f 13 3d f9 e8 db fa d4 3f
       0.08209470757161984 0.3278112197048852
000430 52 34 86 42 67 4c a8 3f 29 df 4c 36 3b 63 e3 bf
       0.04745791136802126 -0.6058631954719874
000440 37 98 1b 88 56 b2 d3 3f e1 b8 bc d5 1a 7e c1 bf
       0.3077598885705614 -0.13666091381441617
000450 08 6d 72 cd 83 8b 95 bf 00 f2 df 4b 4a e1 ca bf
       -0.021040019430626195 -0.21000031189750246
000460 f5 25 8f fe 10 cc a9 bf 25 67 d1 a8 89 98 d4 3f
       -0.050385027956121244 0.3218101643193328
000470 89 eb a8 bd 02 20 c5 bf 89 f3 3e 18 a9 79 d9 bf
       -0.1650393892358262 -0.3980505692268755
000480 01 fe 53 d3 d7 0f e0 3f 74 ef 13 d3 c4 46 b2 bf
       0.5019339683057639 -0.0713923468901479
000490 fd e4 e0 16 22 16 cb 3f b9 20 79 f0 d3 e1 e3 bf
       0.21161295048822373 -0.6213168808690376
0004a0 70 cf e4 5f f7 b5 d7 3f e6 45 35 df 82 c5 c9 bf
       0.3704813419783397 -0.20134006403763677
0004b0 79 32 7c ba 20 1d 72 3f e7 5f f6 45 97 74 c8 bf
       0.004422309728181356 -0.1910580722440038
0004c0 7d 1e 5c 0c da 7e 92 bf a5 aa 52 bd 9b 3f e2 3f
       -0.018062026028046397 0.5702646920884332
0004d0 31 d5 41 ca 8c 3f d3 3f b7 b7 1e 11 94 27 d9 bf
       0.30075378181148255 -0.3930406729876909
0004e0 d9 1a e0 bc ba 22 c6 3f 66 9d e2 78 83 35 c1 bf
       0.17293485853607285 -0.13444560434912062
0004f0 fd a8 50 cb 99 db c0 3f da b7 08 00 28 ad e6 3f
       0.13170168330663748 0.7086372376122612
000500 cb dc 2e f3 41 9e bd 3f 92 a6 e9 8f b1 a1 c4 bf
       0.11569606959425298 -0.16118449713694766
000510 08 2e ce dd bf ea dd bf e4 0c 2d e1 e1 d8 c8 3f
       -0.46745297108347517 0.1941187238208847
000520 be 0f e8 9e 17 3d d1 3f ac 4c c7 4f 5b f1 e1 bf
       0.2693537761517709 -0.560712486092958
000530 4a 1f 53 ab 4d 0d c9 bf f7 e8 24 3f 09 14 c1 3f
       -0.19571848741019898 0.133423953849906
000540 c7 f3 13 7e e1 70 ca bf 97 cd 17 ab 5b f5 b5 bf
       -0.20656984954976407 -0.0857751171786759
000550 cf 63 6b 46 ec 66 a3 bf d5 41 8b 17 de 6a d0 bf
       -0.037894614788178786 -0.25652267741409435
000560 7b 63 8e be 80 e4 cf 3f 59 ae ec 2a 4a ac c9 3f
       0.24916085533621044 0.20057036491322114
000570 43 92 a2 96 b2 a0 bc bf 8f 28 f4 7a 8c c1 d0 3f
       -0.11182705094922434 0.2618132782669215
000580 d1 ca f7 02 ae 1b c4 3f c8 7b 83 44 5a 0e bc 3f
       0.1570947184078109 0.10959400341697212
000590 0b 8d 85 63 dd 47 cd 3f dd 58 91 c1 c8 b0 bc 3f
       0.22875563964326093 0.11207251287246174
0005a0 0a fe 3a 80 82 6d d3 3f 76 4e 76 e9 8c 3d e5 3f
       0.30355894587043564 0.6637634811217612
0005b0 ed 2c 05 8b 1c b6 cc bf d1 04 25 50 b4 02 cc 3f
       -0.22430760181519052 0.21883253014860896
0005c0 ad 63 21 8e dc 96 d0 bf 27 da dc 95 19 e3 cb bf
       -0.2592078578941777 -0.2178680402518733
0005d0 b8 22 4d 77 1a 64 b5 3f 83 95 76 b0 22 29 c1 bf
       0.08355870640401519 -0.1340678559910594
0005e0 13 09 65 53 75 91 d3 bf 6e 93 69 93 02 95 bb bf
       -0.3057530702973434 -0.10774246310172739
0005f0 6c a8 1a 50 ab 44 d2 3f 74 01 0e dd e4 81 d1 bf
       0.2854412348048132 -0.2735531004655265
000600 ca 58 f0 ca bd 6e d9 bf c9 09 94 a4 39 a2 d2 bf
       -0.39738411730048695 -0.29115143844697094
000610 6f 87 29 d7 e3 ba d6 3f a9 9c cd 2e c0 d3 cb 3f
       0.35515686046539136 0.21739961896239393
000620 7e bd a2 42 b8 73 c3 3f 4b 2b 79 fe 3f cc a8 3f
       0.15196898702332 0.0484333036552785
000630 9e 79 31 45 29 d2 99 3f a7 3f 37 ef 76 68 98 bf
       0.02521576390096813 -0.02383600077683892
000640 50 db 05 1b f3 08 a6 3f 28 b8 a6 3a 49 47 bb 3f
       0.04303703026646721 0.10655648881831381
000650 ed 57 23 a0 b2 d3 a7 bf b9 c6 5c b4 a5 24 c7 bf
       -0.0465370007020026 -0.18080588633306663
000660 02 99 0f cd 35 69 bc bf 34 54 6a 45 7d f8 a6 3f
       -0.11098037964220356 0.04486457321505846
000670 63 a2 d8 3b f8 62 b7 3f 85 cc c6 b2 77 aa cc bf
       0.09135390721406504 -0.22395225743602878
000680 20 e0 57 e9 bc d7 91 3f 03 ff 08 79 03 0e b2 3f
       0.017424537412779384 0.07052633004149915
000690 40 c2 e4 88 f1 b8 e4 bf 35 96 30 90 89 11 93 bf
       -0.6475761102393065 -0.0186215872055497
0006a0 df 9f e4 75 10 1f b2 bf 9e c3 c0 07 93 58 8f 3f
       -0.07078650358437198 0.015305660890676805
0006b0 7c d2 17 f6 50 1a d6 3f 69 87 e5 be 1d 0d cc bf
       0.34535621674084616 -0.21915027447817728
0006c0 ba cc bc fd 8b 3e d6 3f ce 93 e1 78 ef 6a bb bf
       0.34756755618145585 -0.10710045529556497
0006d0 27 23 99 65 30 33 83 bf 84 79 ae 39 ed d0 8a bf
       -0.009374979115038663 -0.01309380848198028
0006e0 08 b2 58 be 2f 95 c5 bf fd e2 be 02 8d 9b b6 bf
       -0.16861531061421453 -0.08831101719887254
0006f0 4d 37 58 0d 77 af 96 bf 8c b4 29 93 58 c6 e3 3f
       -0.022153721036424035 0.6179621576572045
000700 ea 49 c7 d2 b3 8f c9 bf bf 07 a5 4a 5a 65 c9 bf
       -0.199697950286079 -0.19840553898580812
000710 5d d5 ae b1 6f 97 d5 bf 10 a4 fa 02 a8 25 80 3f
       -0.33736793853616637 0.007884323683656574
000720 1b a0 84 b4 98 cd be 3f 00 84 10 6c dd 89 de 3f
       0.12032465369395633 0.477164607555153
000730 8d 1a 65 37 f3 8f c6 bf 20 95 0a e1 7a b3 80 bf
       -0.17626800732451323 -0.008154830925671208
000740 0c 57 d3 e0 c8 a9 c0 3f aa 69 2c 60 99 b6 e6 bf
       0.13018141725358878 -0.7097899320972847
000750 fa 54 0a 2a 18 08 ca 3f ae 9c c5 b5 e5 b3 c5 bf
       0.20337202122451697 -0.16955253005582932
000760 6b d1 40 80 37 12 a9 3f da 0e 56 38 e5 81 d5 bf
       0.04896710815993085 -0.33605318547800567
000770 96 1c 42 df 22 34 ad bf c7 c0 df d2 30 25 e8 bf
       -0.05703839278526705 -0.7545398825295927
000780 36 86 ff 5f 09 f6 af 3f 6c e1 93 05 8c 40 d6 3f
       0.062423985451243544 0.3476896337956734
000790 8e 4f 92 7d 88 b1 dd 3f 66 5d e2 3c 7a a7 dd 3f
       0.4639607645306051 0.46334701486326535
0007a0 1b c6 cf fc 98 0a df 3f 10 1e fa 30 72 4a d0 3f
       0.4850218266356891 0.2545438268939231
0007b0 85 aa a9 07 b5 e8 be bf 74 31 80 74 72 e3 c4 3f
       -0.12073832928732926 0.16319113434327515
0007c0 1b 8a ae 93 43 12 c6 bf f4 f4 37 a7 1e 5e b4 bf
       -0.1724323721983446 -0.07956115324482821
0007d0 ad 53 8e df c5 4e c5 3f 49 a9 7e 14 34 44 e8 3f
       0.16646645942514962 0.7583256149567116
0007e0 c0 e7 c0 18 56 38 95 bf 43 a9 c8 a0 aa d4 be 3f
       -0.020722718487583114 0.12043253350626508
0007f0 ae b1 82 4f 61 71 b7 3f 8b 0e 90 16 ef 97 d3 bf
       0.09157379332709212 -0.30614831164732753

layer2.bias f8 [80]
000000 bf 11 39 58 cb 04 d6 3f 10 2a dd 1a fd fb c3 3f
       0.34404262176056116 0.15612758456912035
000010 f7 19 3c b3 45 ec 99 3f 0c 32 fd b4 65 62 cf bf
       0.02531536966764666 -0.24519034707408627
000020 10 99 b9 67 61 d2 c3 bf bc 50 c1 01 da 20 d4 3f
       -0.15485780300804963 0.31450510188484393
000030 68 8a 36 7e d8 b6 a3 3f 88 b3 ce 9b 43 0d d3 3f
       0.03850437679945601 0.2976845761830238
000040 6a ef 0f 32 36 55 b8 bf 46 d9 8b 23 30 4a b9 bf
       -0.09505022737715554 -0.09878826968983842
000050 b7 95 78 38 85 63 d0 3f 7f d2 73 3b 4d cc cb 3f
       0.2560742427325197 0.2171722927374908
000060 22 1e 5a 4e f6 50 ca 3f 99 6f 45 95 bf 36 c2 bf
       0.20559576822073306 -0.14229578770288923
000070 78 9e 4a bf 2e 8e c6 bf e5 7a e4 88 99 1a c2 bf
       -0.17621406879810642 -0.14143675979808915
000080 67 6f 60 bd f1 28 c2 bf 1e 54 1f a5 fe 69 a4 bf
       -0.14187452074917958 -0.039871175438442416
000090 b3 cf f9 a2 ff d2 c1 3f 6f c3 d9 4a 98 6f c1 bf
       0.13925166566661815 -0.13621810583893132
0000a0 2f 48 3c 52 7c b2 a8 bf 7a ca 9b ce dd 3a b1 3f
       -0.04823673728800803 0.06730448049692397
0000b0 ff 70 93 c7 8f 46 b5 3f 71 92 dd bf 06 62 d1 3f
       0.08310793516597313 0.27160805451266073
0000c0 05 4e 34 d9 2e 73 ab 3f de 2e 06 a2 e0 6e cb bf
       0.05361315156383387 -0.21432121192298487
0000d0 24 98 38 ad 7d bf 9e bf ef ca aa d9 0f 83 a5 3f
       -0.030027354905676998 0.042015548058221934
0000e0 0e 8e f2 dc 70 86 41 3f 39 b9 02 b1 94 6f c4 3f
       0.0005348254288901082 0.15965517657373043
0000f0 d5 88 68 29 62 36 d1 3f 49 bf 0f 26 ba 16 d2 3f
       0.2689443020227718 0.28263715474075873
000100 11 e3 79 a3 80 23 ab bf 2b b3 59 04 c2 f0 98 3f
       -0.05300523753698461 0.02435591842224764
000110 77 27 d8 bd 8f 66 a8 bf e3 c5 87 39 7a 86 d5 3f
       -0.0476574820750803 0.3363328515834764
000120 f3 2d 8b f4 50 67 b4 bf 77 2f 60 d8 99 38 90 bf
       -0.07970148058227959 -0.015840915519262446
000130 47 98 69 61 ab ff aa bf 76 e5 c4 47 eb c6 ac bf
       -0.052731853142902234 -0.05620513201797454
000140 42 a5 74 e9 a3 2a da 3f 1a 5a 1e e4 17 d3 bd bf
       0.40885255621340744 -0.11650227851200903
000150 ba bd a2 1b 35 c8 c6 bf 44 3c 46 c2 9d e6 90 3f
       -0.17798484658622532 0.016504731161657085
000160 02 c1 a6 37 cb 42 df 3f 0a 3c 72 a0 04 a9 d9 3f
       0.4884517711134465 0.40094104450776114
000170 cb b3 42 be a5 7e cc bf 74 55 45 2e f2 bf bb bf
       -0.22261497297350127 -0.10839761380824148
000180 d0 dd ee 27 38 18 c5 bf 38 15 57 8d 33 a6 c5 3f
       -0.1648016161905006 0.16913456345916145
000190 e8 6b 16 d5 fb 65 c7 3f 6d 73 85 1d 68 24 cd 3f
       0.18279979614894093 0.22767354432553635
0001a0 70 f1 6d 5b 66 f3 b4 3f 66 6b bf 42 34 ee d5 3f
       0.08183898670353584 0.3426638271172834
0001b0 c8 9c 6b 8a b1 df c2 3f f8 79 2b 7a bf f0 8c 3f
       0.147451584423129 0.014131065288379027
0001c0 ea be 34 d6 3b 50 a8 bf 44 86 15 b2 1c ed b4 bf
       -0.04748713483638574 -0.08174304340129718
0001d0 f6 02 90 d8 e1 40 cf 3f 92 c3 dd 60 18 98 72 3f
       0.2441675479349425 0.004539580562650596
0001e0 12 15 0f f3 40 55 c7 bf d6 40 c1 f3 5b 0e a8 3f
       -0.18228923671828362 0.046984551911579395
0001f0 c1 fe 3c ab ea a1 c6 bf f9 74 cb a4 db f5 c1 3f
       -0.1768163047909095 0.14031549021357373
000200 26 de 34 e0 df a9 c0 bf ee ea de 58 fb b8 63 bf
       -0.1301841587789891 -0.002407542145161804
000210 de 46 09 0b ef 7d d0 bf 67 8b fa f5 21 34 d4 bf
       -0.2576863868499525 -0.31568192502361686
000220 f9 68 95 c3 d8 c2 83 3f b3 84 8c 86 c9 ea bf bf
       0.009648984402407456 -0.1246763185013318
000230 4a fe 38 44 66 ba a7 bf cd f1 48 43 54 bb bf 3f
       -0.04634399016185549 0.12395216601084443
000240 0b 57 2c 47 5a db 36 3f a7 19 0d 95 50 82 c0 bf
       0.0003487677960703906 -0.128976891306775
000250 26 23 18 e6 dc f9 c9 bf 25 8f 8f 2b af c6 c0 3f
       -0.20293771014282774 0.13106336237898933
000260 11 e8 c5 16 9a f6 c0 bf 80 82 2a 44 f0 00 d9 3f
       -0.13252569305387898 0.3906822839435691
000270 99 b7 4a 75 8b c8 b8 3f 0b 44 09 fe e3 0e d1 3f
       0.09681007016726396 0.26653384979459877

layer4.weight f8 [11, 80]
000000 b3 ad 79 d5 38 d1 e8 bf 5d ae e8 39 74 a0 84 3f
       -0.7755397958221039 0.010071666733970358
000010 a4 f5 8a ea ab bb c0 bf 7f 9a 29 88 5d 9f d9 3f
       -0.13072728111539533 0.40035188958282925
000020 a8 79 46 44 eb 47 e9 3f 9e b1 5e 0c 0f dc c3 bf
       0.7900291760923226 -0.15515316108702576
000030 19 18 fb ea ea cc c8 3f 63 24 a8 36 80 c9 bb bf
       0.19375359033273368 -0.10854340872187289
000040 45 d3 16 eb 3d 21 e0 3f dd fc 2a ec 47 f5 c0 bf
       0.5040578452668362 -0.13248538047444117
000050 bc 8c 6e 46 5f 5f d8 bf 02 a3 fd ce 9a 09 ee bf
       -0.3808210552035225 -0.9386724512852143
000060 31 3e a2 ef aa 1a da bf 14 f6 bf 60 39 30 dc 3f
       -0.40787766839727896 0.4404433674643269
000070 04 65 ef a9 03 35 e0 bf cf af 4b 86 66 d7 dd 3f
       -0.5064714736028297 0.46627200236139016
000080 ba 96 f5 06 c5 7e c0 3f c2 d9 a2 86 2a 4b d3 bf
       0.1288687023144826 -0.30146277568874436
000090 d6 c0 08 94 f3 f6 b1 3f d4 7b f0 56 3c 38 c0 3f
       0.07017443050495173 0.12671617741668106
0000a0 c8 ab af 47 fa e2 c5 bf e7 b1 02 17 78 4e e4 bf
       -0.17098930836013282 -0.634578747694431
0000b0 3b ef f0 0e 53 ec c5 3f 84 58 6b 68 19 60 d9 bf
       0.17127454976604803 -0.3964904327125469
0000c0 7b e8 f7 da e1 4f d1 bf 33 24 70 84 f7 1a ba bf
       -0.27050062545425363 -0.1019739816985215
0000d0 fb 72 4a 12 c4 8d c0 bf 52 fb 70 03 13 0f f2 bf
       -0.12932635205370233 -1.128680242006983
0000e0 50 9a 85 74 09 fb 97 bf aa c1 db 62 c9 24 d4 bf
       -0.02341856740658904 -0.3147452798284812
0000f0 50 c8 d5 bd 47 53 dd bf 4e 5d 36 ff 57 b7 b3 3f
       -0.4582080224855689 0.07701635342379129
000100 a4 e3 7a 9c 6f 64 cc bf 5f 59 15 73 ed db ce bf
       -0.22181506291033515 -0.24108665580088037
000110 49 bf 13 62 4a 52 b5 bf b8 4a 2d 21 31 31 e1 bf
       -0.08328690428220144 -0.5372548721300836
000120 91 ba 7b 95 91 8f c9 3f 65 dd 14 c6 c4 c9 d8 3f
       0.199693868627453 0.38731498092552946
000130 9f 28 78 9a 90 1e d3 3f 85 53 a8 c9 2d f4 9a bf
       0.29874053082370183 -0.026322093423079024
000140 a9 db 4d 72 bc 37 d3 bf ac 40 25 0f 88 bd d0 3f
       -0.3002768627406405 0.2615680835633707
000150 a3 11 08 8d 9b 40 d6 3f 3f 10 a7 0e 35 37 c8 3f
       0.3476933362255982 0.18918479171236588
000160 a8 ea 43 21 8d 6d de bf 7a b1 d2 ce 6a be e9 bf
       -0.47543648003162753 -0.8044942893516656
000170 78 9b d5 8d 6a 99 d7 3f b3 36 50 a8 fc 61 b0 bf
       0.3687387833692166 -0.06399516209804794
000180 0f c5 58 78 56 9f d2 3f 14 05 eb 51 c0 08 a3 bf
       0.2909752059232042 -0.037176141738664154
000190 fc d1 e3 02 aa fc da bf fe b3 c4 66 dc 5b e2 bf
       -0.42167139322489766 -0.5737134940333133
0001a0 c6 65 15 ef 4c b7 ae 3f b9 2b bb db 98 79 e4 bf
       0.05999222200871261 -0.6398433963416813
0001b0 32 f7 e0 c1 7d 72 b6 3f ac 2c 73 b7 9f f4 c2 bf
       0.08768449767464118 -0.14809032876505535
0001c0 0e 34 8a f5 c1 d3 ab 3f 95 97 ba 71 38 f5 cd 3f
       0.054349957678916025 0.2340460353199744
0001d0 1e fd 24 b5 64 c5 d7 bf 71 71 57 ee 26 cd e0 bf
       -0.3714229363431104 -0.5250429778202897
0001e0 23 5c 29 f7 a1 4f c8 3f f5 4f 89 59 97 60 b5 bf
       0.18993019646106388 -0.08350511489817321
0001f0 74 fa 65 27 7b 56 b7 3f 1c 5a ee 59 e9 67 d8 bf
       0.09116334640382623 -0.3813422563775093
000200 a2 99 6d 7a a6 40 b2 3f 64 36 56 da 83 be c4 bf
       0.07129898537605198 -0.16206405793166134
000210 17 dc 7d b8 62 0e ce 3f 76 b5 a8 78 0a 4c d2 3f
       0.23481401451474035 0.2858911684332591
000220 2d 8a e0 ef ed d2 c3 3f b6 74 c0 2a 37 97 c9 bf
       0.15487455570935663 -0.1999272307156496
000230 7f 44 56 9e cb 90 b6 3f 55 2e 01 1d 58 78 c0 3f
       0.08814690223359099 0.128672613298806
000240 14 40 b8 e6 36 fd 9d bf 0e 12 d3 bc c0 c4 c8 bf
       -0.029286249000563272 -0.19350442142435081
000250 e5 34 06 41 1f a1 bb 3f 08 6e 38 a2 e7 7e c0 bf
       0.10792727792268726 -0.12887282772941
000260 84 8e d7 27 59 55 b3 bf aa fa 98 f1 83 9b d3 3f
       -0.07552106116014029 0.3063669070578877
000270 78 1a 7b d3 a4 bb bd 3f c9 60 5c e2 dc 3f d6 bf
       0.11614446795565836 -0.34764787774612366
000280 f4 5d 57 42 fb ff d1 bf a0 73 b2 27 c8 75 d1 3f
       -0.2812488696922337 0.2728138339678541
000290 9a 26 93 2e 89 d5 b9 bf 38 47 f6 12 58 9f c7 3f
       -0.1009145487506892 0.18455029416923607
0002a0 0c 1b c9 4e 5e 3f e2 bf 91 61 c0 0f 5c 4b d4 bf
       -0.5702353991299289 -0.3170995858977444
0002b0 67 72 42 4b 5c 22 ce bf 4f a6 8c fd 68 a8 ba 3f
       -0.2354235999563514 0.10413223447962959
0002c0 ed d3 67 1b d4 80 a0 3f 5a 29 6e da b1 27 c2 bf
       0.032232883782775314 -0.14183638730566878
0002d0 28 80 a0 97 e0 6c e2 bf 0d e3 cc c2 e4 63 d0 3f
       -0.5757906877006507 0.2560970213267389
0002e0 f3 aa da 8c 19 37 a8 3f 60 fe c5 da 7b 52 d2 3f
       0.04729537815486209 0.28628441204634747
0002f0 15 d3 26 16 69 d3 a4 bf 6a 32 d7 94 6d ed b9 3f
       -0.040675434068736895 0.10127911456874875
000300 47 7b bf d2 12 66 ae 3f a6 8d 3e 19 f1 8f d5 bf
       0.05937250921828379 -0.3369105097319455
000310 ff f6 d2 83 50 2d 7e 3f a1 54 ab d6 4d 78 c2 bf
       0.007367434035755015 -0.1442963884534594
000320 b3 1d 8c ad 55 0c 9c bf dd 8e f7 a7 9e 90 ca 3f
       -0.027390803067673008 0.2075384445334895
000330 14 31 c8 0f 4a e4 bf 3f 8a d5 45 8d 48 55 d2 bf
       0.12457716832449633 -0.28645528598948344
000340 e9 6d 33 18 c2 80 d6 bf 39 3e 63 be c1 9f b8 3f
       -0.35160877574318633 0.09618769548546248
000350 e5 76 1c b2 49 67 85 3f 0a 92 c1 8f 9d 06 cf 3f
       0.010450912235281115 0.24238938826887618
000360 e6 52 5f 4a dd c3 b5 3f 01 08 12 b2 0c b9 d7 bf
       0.085019903809847 -0.37066953077021486
000370 e5 95 55 e5 da 2c c1 bf 34 c9 8f ad af 1d cb bf
       -0.13418136785473603 -0.2118434522122442
000380 d9 48 35 2c a7 7f ee bf f7 dd 53 90 8f 60 d8 bf
       -0.9530826438370027 -0.3808936032723688
000390 4d 3f 1e ac 1c d3 c9 3f e8 f5 4e 92 a4 f7 bd bf
       0.2017551269932433 -0.11705998012526886
0003a0 6a 70 7e 2d 21 b5 d5 3f 02 d5 ab ee 10 b3 db bf
       0.33918027346385904 -0.4328043299459098
0003b0 6d 72 f6 7f 08 20 d4 3f 66 d3 77 a7 5b 30 d1 bf
       0.31445515152316866 -0.26857653955749183
0003c0 ee bf ff 4b 94 f8 c4 3f 4a 1f 90 07 40 27 ca 3f
       0.1638360377396561 0.20432281846319206
0003d0 f9 15 21 db 3a c5 bd 3f af ab 2f 43 32 b7 b7 3f
       0.11629073953471182 0.09263910427368559
0003e0 a9 d9 1d ea 3d 63 ac bf 79 99 bc 6c 50 43 d3 3f
       -0.05544465525501902 0.3009835302240372
0003f0 e0 f9 8b 55 bb 8b c7 3f 39 b8 8f f3 10 7f da bf
       0.1839517753323454 -0.4140055063752502
000400 f6 87 97 fa f8 cd b0 3f 21 4f db 67 d5 2a ef bf
       0.06564289205519444 -0.9739787128878313
000410 d5 01 9c d6 f0 47 e4 bf 3a ff 14 0d 0b 10 c8 bf
       -0.6337818328466321 -0.18798959864397508
000420 c6 9c 4c 32 63 91 ce 3f 82 4a 4c 11 28 e9 d3 bf
       0.23881187397021203 -0.31110574425944304
000430 c4 53 e5 d0 12 1e d7 bf 7f c8 ca 74 98 78 ac bf
       -0.3612105407713069 -0.05560757089314538
000440 67 f3 00 c8 ff e4 c5 bf 60 6d f4 b5 6e 48 b6 3f
       -0.1710509993153224 0.08704273168807708
000450 97 8b 7c 2d 21 a7 d8 bf df bc 2a c1 f1 88 cb 3f
       -0.3852007812694693 0.21511671001414975
000460 e5 ee a4 2d 52 69 ca 3f d3 30 66 68 39 24 cc 3f
       0.2063391421196378 0.2198554763566621
000470 e6 6d c5 7a 5d f9 da bf 10 41 a7 cf e0 1c 8c 3f
       -0.4214700411737041 0.013726955735279961
000480 59 c3 e0 32 8c cb dd 3f c2 a2 28 53 95 40 e6 bf
       0.46554856270363626 -0.6953837036317838
000490 d7 f3 9c 53 4c 11 d2 bf b8 61 91 53 0a 18 c8 3f
       -0.2823057953390253 0.18823365288223015
0004a0 22 30 d9 cd c0 57 bf 3f ff 7a 7c 25 3f 90 d2 bf
       0.12243275666804768 -0.2900541177822759
0004b0 97 74 7f f8 2a 57 cb 3f b3 7a 42 68 05 68 c7 3f
       0.21359765180287546 0.18286197272114676
0004c0 0c b4 43 1b 5f 4f d5 bf 72 e3 51 63 10 b6 a5 bf
       -0.33296945250077736 -0.04240466320420112
0004d0 6d 4f fd f4 26 66 e4 bf c9 19 7e 6b 7f 96 cd bf
       -0.6374697480155028 -0.23115532635365657
0004e0 a7 e7 b9 6c 72 0a c4 bf a8 8a 57 e8 1e 0e cc 3f
       -0.15656881626983685 0.21918093056509247
0004f0 18 06 e9 cd bd df c9 bf c4 ac 92 09 ec 25 b7 3f
       -0.20214054636203183 0.0904223941203553
000500 1c f6 97 70 1e 58 db bf 4d 44 17 c5 0a 78 d4 3f
       -0.42725335116833363 0.31982678649098234
000510 98 b1 88 e6 03 24 b8 3f 82 33 90 7f f5 05 e5 bf
       0.09429954889555459 -0.6569774142713956
000520 b5 c7 86 ab ff db c1 3f 42 f7 19 c4 52 c2 d8 3f
       0.13952632785145416 0.38686055326967417
000530 da 94 8f 6d 6a 2e 9c 3f 68 3c e6 9d 32 54 bd bf
       0.02752081197458698 -0.11456600527729821
000540 c4 77 b6 35 77 9d a1 3f 91 d1 64 7a a7 b0 a1 3f
       0.03440449267075921 0.03455088967385501
000550 e8 77 85 db 50 2c ce 3f 79 75 6f d9 b4 0b bb bf
       0.23572741240326356 -0.105647376141368
000560 df 6b 65 81 fb af d1 bf 19 21 1e c9 9a 53 cc bf
       -0.2763661159166854 -0.22130141086768942
000570 09 ad 85 06 95 fe d0 bf ca 50 77 2f 36 78 c7 bf
       -0.26553846013003174 -0.18335606877975003
000580 63 cc de 31 07 ff d4 bf 41 26 b4 23 ce 90 ee bf
       -0.32806568021914567 -0.9551764199579297
000590 15 31 21 b1 b3 b0 db 3f d2 b6 f6 45 fe 73 cb bf
       0.4326600293905057 -0.21447733322332013
0005a0 cb 74 a5 85 a7 3e c2 3f 1b fb fe d0 ec 24 e7 bf
       0.1425370600290193 -0.7232574541047571
0005b0 fe c9 84 2c ce b8 d4 bf 74 be 84 05 b2 ef d3 bf
       -0.3237796244385719 -0.31150484599036266
0005c0 a8 d7 ea 9d 65 1a d1 bf ea 45 4b 28 9a 63 d1 bf
       -0.2672361414109852 -0.2717042344566766
0005d0 3e 6f 31 60 7b 8d c5 3f ab 58 d1 c9 c2 d3 de bf
       0.16838018605164423 -0.4816748591305308
0005e0 d3 95 7e ad 35 52 c2 bf a9 46 66 f4 c0 21 e4 bf
       -0.14313384028825613 -0.6291203282764474
0005f0 be f5 c6 79 d5 f1 a6 bf c8 78 b4 bc 97 f3 5e 3f
       -0.04481379615343027 0.001889131718435121
000600 32 0a 41 42 3f 0f db 3f 7f b9 f4 29 09 ae dd bf
       0.42280560941813683 -0.46374730202924036
000610 f6 91 23 b4 b5 84 ab bf 31 77 67 19 7d 48 d1 3f
       -0.05374687026941054 0.2700493572318577
000620 c5 f1 fb b5 10 4e b7 3f f0 c6 17 a6 2f d2 b4 bf
       0.09103493159268002 -0.08133218579294144
000630 6e 70 86 88 07 5e a3 3f 0f 81 9e 70 d8 78 ac bf
       0.03782676259581384 -0.05560947775598112
000640 4e 8b d2 70 ae fc c1 3f e8 16 85 bd b1 98 c6 3f
       0.1405237246409236 0.17653486017132214
000650 5c c2 70 2f dc 6e e5 bf 4d c8 60 eb 2c f1 c7 bf
       -0.669782726914558 -0.18704759114331396
000660 b9 d9 7b 57 dd 92 d0 3f b5 c4 51 77 01 61 bb 3f
       0.25896390479411086 0.10694893992492178
000670 4e 9a f3 1d f2 8b d1 3f fc b3 c0 9f 32 44 ab 3f
       0.2741666119094689 0.05325468254191176
000680 28 95 79 ba d5 a5 da bf 85 4f a4 55 3b fc f2 bf
       -0.4163717576069126 -1.1865800233253776
000690 66 fe 39 03 02 73 cf bf 55 f0 47 72 48 7d db 3f
       -0.24569726140542797 0.42952166710143064
0006a0 9f bf f8 7e e1 17 96 bf 7a 3b a3 57 27 db e5 bf
       -0.02157547318910213 -0.6830021583244694
0006b0 e0 0e b0 0f 53 58 dd 3f cc 9b 59 98 c9 ea d8 bf
       0.4585158971023997 -0.3893302905839249
0006c0 3e e4 4c da ed 8a a6 bf 64 0d 6d 4e 8c 80 d1 3f
       -0.04402869500922478 0.273470951640965
0006d0 9e 07 91 f0 8c 74 e8 bf da af ff 23 ce 44 df 3f
       -0.7642273615422146 0.48857453837876863
0006e0 36 62 ae dd 45 f0 cb bf 36 ca d9 c7 d0 ea b0 bf
       -0.21827004741932549 -0.06608300093811512
0006f0 1d 9e 76 d2 0d 64 e2 bf b6 13 9e 51 59 81 e1 bf
       -0.5747136221515948 -0.5470396608439987
000700 37 31 07 c1 9b 10 af bf 85 23 d4 6f 74 4d d8 3f
       -0.06067358714389786 0.37972746773498783
000710 bc 33 a9 14 93 6d 96 bf 97 f9 7e 29 f6 e2 e3 bf
       -0.02190236867527394 -0.6214552698582335
000720 97 7b 1b 1e 57 43 8b bf 73 28 37 8d d3 b8 c8 bf
       -0.013312035185149713 -0.19314045329366855
000730 d2 8f f6 29 0b 5a c5 3f 34 94 61 27 c5 b7 9b bf
       0.16681041287404114 -0.027068214920650216
000740 7d 5f 4c 6a ec ea d7 3f fe 81 97 53 9d 0f d6 bf
       0.37371359234520424 -0.34470303691162474
000750 49 06 8f 6d 7f 46 e1 bf c6 2c 04 d0 ed 8e c5 bf
       -0.5398556842630536 -0.1684243455605154
000760 12 1b 93 1b 0b f9 bb 3f 78 0c c1 f6 5e a5 d4 3f
       0.1092688505478743 0.322593441935346
000770 67 cc 5b f5 00 86 a4 3f 42 f5 6f a1 59 0d e7 bf
       0.04008486743068645 -0.720379653270051
000780 65 81 23 bf af 26 c5 3f d8 62 41 02 03 0d a1 bf
       0.1652431186003113 -0.033302396798438216
000790 b1 81 55 16 67 9e d2 3f 91 dd 01 03 ee a9 cb bf
       0.2909181326013153 -0.21612334391441526
0007a0 2f 34 c4 f7 25 c9 d8 3f 3a 15 21 4e 7a 34 b8 3f
       0.3872771186441381 0.09455074698879154
0007b0 91 bd 4b 76 0e f9 db 3f 86 1c e0 7e 77 b4 ca 3f
       0.43707620193796354 0.20863240904893504
0007c0 d3 9f c2 52 7a 82 eb bf 44 af ba bd 31 9f c2 bf
       -0.8596774689112813 -0.14548322452662366
0007d0 03 89 83 30 1d 90 e5 bf de 30 84 34 af 2d c6 3f
       -0.6738420436415996 0.17326917709613715
0007e0 fc 84 e5 95 2d c0 b2 bf f0 88 89 71 3d a6 d0 bf
       -0.07324490460952754 -0.2601464852106252
0007f0 eb de 68 dd c2 d9 e2 bf 3c 99 72 2b 58 01 cd 3f
       -0.5890821766288047 0.2266035282274944

layer4.bias f8 [11]
000000 2c c4 89 79 91 21 d1 bf 13 63 f1 43 f0 17 a3 3f
       -0.2676738440414421 0.03729201154118846
000010 1c 49 4b 19 b6 bb 96 3f 98 8c 17 bb a5 99 76 3f
       0.022200436872318638 0.005517623315856167
000020 10 8a c6 15 2c 01 39 bf 04 13 7b 3e dc cc c9 3f
       -0.0003815395955603382 0.2015643410760718
000030 e5 44 e8 43 6f 79 b0 bf 50 13 19 fd 5b 6c d1 bf
       -0.06435294540303323 -0.27223872868153354
000040 c1 e8 db 3a 75 ab ce 3f 19 6a d9 3e 33 27 c5 bf
       0.2396074807546196 -0.16525879448711647
000050 98 ab 0c 27 c6 d6 cc 3f
       0.22530438334191838
