attack_soft_generative_decision_tree/experiments/vowel_params_state_dict/fnn_adt_epoch15.pth (torch, 69599 bytes, 6 tensors)

layer1.weight f8 [80, 12]
00000000: af8b bf33 0f0c 9e3f fbcf dc30 3dde cbbf
00000010: 3f18 1f36 914f e73f f4c1 5549 3f3c a4bf
00000020: 3cbb 84fb e8e3 d23f 6f70 bd48 c66c ca3f
00000030: cc54 ca18 d836 e0bf fdbd 1cb6 6364 bf3f
00000040: 9137 d56e 52b2 dfbf 8ac1 a6a0 373d cebf
00000050: 3f62 67e6 c851 d1bf 93f1 e943 24b0 debf
00000060: e2c3 6f30 0572 b33f 09f8 7973 7419 cebf
00000070: dd77 429b e655 92bf f213 717c 4edc c83f
00000080: 976b 264e cb34 b83f ac34 9c37 a497 cf3f
00000090: 8d4b d634 8eb9 b2bf 06e3 7e24 624b e2bf
000000a0: 3247 96b3 3c74 dfbf 0bee 8c77 2eb6 cebf
000000b0: c3b2 8591 96a0 a43f 556d 4dc3 3c12 d8bf
000000c0: b6ec 5aa3 73c3 9dbf 0806 2723 7017 923f
000000d0: 4068 6142 aae1 d63f 17dc 8b86 6424 e5bf
000000e0: 6eae a9af f7e5 c4bf d1ac a0c0 0082 da3f
000000f0: b824 d735 e32a b8bf a7ef e063 d259 d43f
00000100: dec2 9714 261a d13f 8f3a 6687 5823 c53f
00000110: b51c 1430 4702 d43f eee3 95b6 54b4 d5bf
00000120: 9b28 aebc f4f1 9cbf 5f0c 8e43 62ea c1bf
00000130: de4f 7f0f 7a4b e03f d666 9dbc 7479 ac3f
00000140: fdb9 1ea0 d6ea c4bf 0eb1 240b 9381 cfbf
00000150: 50ff 1e04 9721 ddbf 6b3e 5a23 86ac d1bf
00000160: 57be 5839 e878 e2bf 13af 46b1 186e cbbf
00000170: a97f 426c b2b7 d93f 9049 b67b 7ad8 e1bf
00000180: 5166 a1a1 59c9 b43f ab7a ae19 382c c63f
00000190: 8bd3 6fdc 0dc2 e1bf 3136 c04b af76 c13f
000001a0: 24ac 9ea3 d537 d9bf 47a1 3705 5916 cd3f
000001b0: 9806 be5e 62f5 a03f b380 b314 ecf7 d23f
000001c0: d9e1 c90a f4da b93f 75b6 8fe6 f876 aa3f
000001d0: 6997 789b 1bd5 cd3f f61b 6d1b 9815 dbbf
000001e0: 6bb2 7c1a 3f17 b7bf 1c2e eb09 7fa3 babf
000001f0: c1db af63 56f4 d8bf 3f2b b720 1511 a9bf
00000200: c3f9 15fc be7c d63f 551f b9a3 716e dc3f
00000210: 8838 4db0 4585 b03f 320f 396a 2523 c03f
00000220: ff8d 2700 04eb d93f 5810 f180 985a dcbf
00000230: 5e37 43b4 9957 ccbf b761 50fa 9ddc cebf
00000240: e6b5 89a9 91b7 dbbf f331 f955 5263 d63f
00000250: 8c37 c143 20b4 c4bf 621c a6a9 c8af d43f
00000260: 61a1 54d9 0ebc dbbf 8fce 06f4 b0e2 da3f
00000270: e7a3 ce1d bf65 b1bf 99ac 0e70 813c 8a3f
00000280: ca0c 737c ec60 e43f 9395 bb0d fa49 eabf
00000290: 25cc 84a3 d41b a4bf e269 a830 3a7a dfbf
000002a0: 5e05 2196 4041 c23f 2648 9894 bddf c6bf
000002b0: 48e9 34a9 eb94 d83f 2c73 eea3 3b05 bdbf
000002c0: 4aac afda 7e53 a43f 2caa 82ce 7312 903f
000002d0: 710a e8af 0ea0 e53f 3b87 4d84 9cdc cb3f
000002e0: db9b 8b98 76cb d33f e715 cdcc cf22 e13f
000002f0: 4ab4 d5e0 c701 c5bf 2e8a 73c7 c3e6 d6bf
00000300: 7041 6ca4 57dc aabf fce0 def9 41d3 72bf
00000310: b597 5951 23d3 cebf 88a9 fccb d649 e1bf
00000320: 8ebf 68fd 16fa e23f d299 0965 1a77 d73f
00000330: db8e 87ad 5229 d83f dbaa dec4 4884 ad3f
00000340: 6f7e 1936 d1db d8bf fc83 5b37 5421 d7bf
00000350: 831a 5d3f 724f db3f a0eb 1b98 3a20 c03f
00000360: 64a7 d1f9 db6c 7dbf be3a 9412 dbc4 c13f
00000370: 09e2 bdba efe1 d73f f6cf 2731 ab65 e6bf
00000380: fc06 1d6e 0c82 ebbf c778 811c 0148 c3bf
00000390: 58de 55d5 87f8 72bf c50e f680 3912 d1bf
000003a0: 49ff afcc 6c98 913f cfc1 9f39 80c9 e0bf
000003b0: 6be9 e107 fee7 b23f 1cf1 2476 d0fc ce3f
000003c0: 07ad c191 9a35 c43f 06f1 f3b8 1e27 cebf
000003d0: 8a2a 4e87 c9c8 ca3f 085c 70e6 903c cf3f
000003e0: cdee c1e1 ee9e e0bf decf ea04 20e6 e3bf
000003f0: 4396 f800 434f d4bf d7ef 4934 7519 a1bf
00000400: 6970 f682 2379 ccbf 90e1 8e25 f940 ad3f
00000410: 5d2f 0b65 924b c33f ce93 5f1b 319a d2bf
00000420: f67e 3cc5 6ae1 babf d336 f9cd 3817 c2bf
00000430: 6e42 e995 e9c1 ca3f b545 7e97 7695 bcbf
00000440: e84f dbb2 602d d23f fa69 2f3e ccc2 e6bf
00000450: 435b 15b4 f7a7 c23f 6076 150e 888f de3f
00000460: 5636 0106 187b c1bf 9533 f00e 2064 64bf
00000470: 9d4c 0519 cecf de3f b5b1 0871 95b2 d53f
00000480: 464c 6b33 1183 dcbf 1031 23ab 4563 dc3f
00000490: b1c0 14b0 c9a5 ad3f 96da b27a 03d0 db3f
000004a0: 1a80 ac5f 9111 dabf 2a41 0a58 476a d5bf
000004b0: d3b1 7728 3eec cdbf 917f e24d cb65 b5bf
000004c0: 70a6 a87b 38c3 d63f a552 aacc 93c4 ba3f
000004d0: effb bca5 4fc6 d53f c92e 8ced b7b4 d2bf
000004e0: ecee 6a61 d6ec 93bf 7770 1d80 bce1 dabf
000004f0: 62b5 b10a a496 be3f 5b05 29ce d6de c63f
00000500: a8f3 b8e4 3410 de3f 9fde 2e64 0327 a63f
00000510: 553e bddf 37b1 e5bf 6d02 40eb afca d3bf
00000520: 9e23 eb0c 6bca e0bf bc34 5001 dfbc d83f
00000530: ba55 6de1 60f2 dc3f ce42 c534 8a60 d2bf
00000540: a3bc 7b3b 00ec d2bf c8b1 3e25 4873 c53f
00000550: 56ae fb07 be8a c83f c709 4ed5 fe15 c8bf
00000560: 2564 828e c2a2 cfbf 069b efde 0eb6 d2bf
00000570: 3a2a 5241 6657 b7bf b92a dec0 fd02 d1bf
00000580: f12e bc3c e647 a8bf 4961 aef5 839e d7bf
00000590: e555 41b3 f622 893f 4847 1768 3932 ca3f
000005a0: 4e25 85f3 e83d 943f 28c6 976b 5aa2 eabf
000005b0: 4ace 3423 df91 dd3f 0771 7546 f1c2 c2bf
000005c0: 9fc2 af21 c394 b93f 005a eb61 c87d bdbf
000005d0: 982d f9a8 aedc b3bf 1676 379a 68f1 aebf
000005e0: 039b 67db 7ae5 ddbf 1dcf 6386 3284 8c3f
000005f0: 7243 2f32 68fc 933f b859 831f af01 e7bf
00000600: 7d7a 64ca cb2b c03f a471 71fa 1a54 c7bf
00000610: ec94 4df6 f4e9 dbbf 2c60 69b0 5ed4 99bf
00000620: 64d2 c930 7e88 e13f c9fc e1e7 9211 db3f
00000630: 9e6a 57b0 6b02 d03f eaf3 ff4d 4046 c0bf
00000640: ef4f 1471 e17c b03f 6b1c 9cc9 251e c13f
00000650: f145 58c6 a32b ba3f 7841 ffa6 f0c4 c3bf
00000660: a42d 855c 5eab b1bf fa0b 7e27 dfba e23f
00000670: 567b ff42 fa42 d1bf 3c12 3b64 db8d da3f
00000680: f2db ed33 1d0e e6bf 57de 3290 82f5 dfbf
00000690: e9c0 5594 efe7 d93f 1d31 2021 ba4e b23f
000006a0: ae86 d649 a2a0 dd3f 10ff 0714 f2ee e5bf
000006b0: 643e 5b95 7dcb d7bf cf8a e083 b7ff c33f
000006c0: a451 0389 2329 c2bf 5e88 e241 5fe1 e5bf
000006d0: 1b1c 548b 8e6e ba3f 6a29 720f f726 d9bf
000006e0: 4bf7 b8b9 3615 e0bf 490d 018c 1241 bb3f
000006f0: 78aa 1a02 895e d13f 31e1 7cc0 c449 a2bf
00000700: b619 ec9b a255 e43f 04f7 a4c4 7a36 c13f
00000710: 29b5 ba6c 3a2e dfbf a1ea 0de0 b4ee d1bf
00000720: 4353 7c5d b230 993f 5701 f29d 33d2 c2bf
00000730: a490 56ea ff3a ddbf 47ee c9ff d08c 93bf
00000740: 1c84 1dda 9466 c8bf 9bd0 a84e a0d6 babf
00000750: 08af 4927 a94a c53f 4198 433c 8db7 d93f
00000760: c492 a1d5 393b e03f b57f 8c5e 1e75 e13f
00000770: fc95 52e1 dbc4 e93f 3a77 8c9c f120 ad3f
00000780: 15fe d7a5 8631 a33f 4563 a23b 1517 cf3f
00000790: ed77 420e db5c a43f 20c7 29af fb53 923f
000007a0: d3a0 2929 1497 c3bf 8478 bc8c 4d7a c8bf
000007b0: a2b6 2feb cc58 c43f 4b2a f312 9bf2 d5bf
000007c0: b2a9 252e 3629 cebf b871 a690 50f7 a13f
000007d0: b748 baf7 ff38 cebf 483f 34bd b41d d93f
000007e0: 84a1 678d 000e bebf 1f3d 82ab 080f d13f
000007f0: 5d1b 0a02 b6b2 b03f feb9 d63e bd9c babf
0.02934287789674855 -0.21771969686380985 0.7284627968845213 -0.03952214975550197 0.29516052782394175 0.20644453574903163 -0.506694839876809 0.12262557216740073
-0.49525891135714867 -0.23624320358568368 -0.27061674595237045 -0.4795008338185422 0.0759585612538696 -0.23515182150362104 -0.017905810571953274 0.1942232234597721
0.09455557496987264 0.24681523051586873 -0.07314385213821435 -0.5717020714574523 -0.4914695504931955 -0.23993473851611244 0.04028769041437876 -0.3761131198168262
-0.02906590160885677 0.017667534013304148 0.3575235031363526 -0.6606924655778837 -0.16326805188451793 0.4141847497109668 -0.09440441193068494 0.31798228982710913
0.2672209931470614 0.16514116870208226 0.3126390428082673 -0.33913152533165103 -0.02826673890698626 -0.13996532724931662 0.5092134764367946 0.055614135765336734
-0.16341669863091104 -0.2461417965327048 -0.4551751651997522 -0.2761550278891948 -0.5772591705371707 -0.2142973771673203 0.4018369729255889 -0.5576755920649692
0.08119735904747329 0.1732244611166228 -0.5549382501036332 0.13643447111864895 -0.3940328691339252 0.22724449877501682 0.033122133317204205 0.2963819696578966
0.10099721206086744 0.05168893637151665 0.23306603518829697 -0.42319300344792 -0.0901984634080663 -0.10405725471644484 -0.3899131749635068 -0.048958454364387276
0.351363893678265 0.4442409609659895 0.06453357271422722 0.1260725754419752 0.40496921553696547 -0.44302952377279814 -0.22142335225947368 -0.24110769960749476
-0.43307916218222287 0.3498121108612217 -0.1617470103105315 0.32322899405739325 -0.43335314963998967 0.42008613424989333 -0.06795877912249147 0.012810717804163029
0.636831515374433 -0.821530367681293 -0.03927483078077668 -0.4918351626562566 0.14261634188191413 -0.17870301967246965 0.384089389077094 -0.11336109878761808
0.03969952029714159 0.01569539020480641 0.6757882533714349 0.2176700254449829 0.3092934121800092 0.5354994773885523 -0.16411684492359974 -0.35783476331394837
-0.05246232874026446 -0.004596002310727206 -0.24081841919104155 -0.5402635559196804 0.5930285405538471 0.3666444765753144 0.377522153341699 0.057649873763997404
-0.38841657908594746 -0.3614092388725678 0.42672401607379856 0.12598354747009655 -0.007183894425091573 0.1388200607984426 0.3731650661134443 -0.699910732275838
-0.8596250677730661 -0.1506348981083134 -0.004631548499098047 -0.266737342775951 0.017183017724163894 -0.5245972753019091 0.07385242168849053 0.24209028023495527
0.15788585774439687 -0.2355688479509654 0.20925253969865693 0.24403582813167213 -0.5194010171248579 -0.6218414398231251 -0.3173377522929039 -0.03339735282221994
-0.22244686026249674 0.05713633140061625 0.15074376996778485 -0.2906611220662939 -0.10500209155406623 -0.14133367593097165 0.20904273815041868 -0.11165562819066717
0.2840196367881149 -0.7112790312342547 0.145750964099273 0.4775104653871036 -0.136569025928497 -0.0024891496791554315 0.4814334148733879 0.33902488745186626
-0.4454997064723937 0.44355909073489475 0.057905485862990054 0.43457114202775793 -0.4073222574534171 -0.3346117362753086 -0.2337720582576269 -0.08358450557216048
0.355665322075402 0.104562032191391 0.34022895036099404 -0.29228017995840766 -0.019458150573639907 -0.42002785216551025 0.11948609601104956 0.17867550913255567
0.46973917328051096 0.04326639745653193 -0.677883088102997 -0.3092460439075129 -0.5247092487635319 0.38652777794124993 0.452293605941431 -0.2871423259103211
-0.295654352273184 0.16758062189673084 0.19173407926369873 -0.18817124762797574 -0.24715454061950584 -0.29236194392289894 -0.09117735953092501 -0.26580756983518544
-0.047423548616363116 -0.3690500163297839 0.01227371916335591 0.20465772230687151 0.01976741777733553 -0.8323185063765708 0.4620282977877862 -0.14657417240494672
0.09992618153024545 -0.11520054236039101 -0.07758609414411521 -0.06043555147674 -0.4671313421844589 0.013924021459821351 0.019517543852831172 -0.7189555755128856
0.12633654959150312 -0.18225419262570342 -0.4361545949271448 -0.025224189297972696 0.5479117348573479 0.4229476227264511 0.2501477453312563 -0.12714389618477578
0.06440552721716107 0.1337325319693464 0.10222838966753735 -0.15444763330607336 -0.06902112730784055 0.5853114863715512 -0.2697129873540026 0.4149082640472306
-0.6892229093781437 -0.4993597419920425 0.40478124128186593 0.07151377972349278 0.4629293175768038 -0.6854181662783692 -0.371795078140144 0.15624135913193135
-0.1418804568298927 -0.6837612425627062 0.10324946309638998 -0.3930032397116948 -0.5025895717042003 0.10646167676991526 0.271394969992492 -0.03571905946449972
0.6354535146099838 0.13447508432175692 -0.48719654672716445 -0.280194491198623 0.024599825817023257 -0.14703984462904415 -0.456726054044575 -0.019091859447583095
-0.19063053751145353 -0.10483743591686549 0.16634096544600419 0.40182810673866604 0.5072297260745349 0.5455467077881538 0.8052806282836964 0.05689196620936206
0.03748722814998132 0.24289193546135315 0.03977093266551877 0.01789849526034637 -0.15304805765050009 -0.19123238918195196 0.15895997508726106 -0.34293248034069695
-0.23563267949368832 0.035089986474506174 -0.2361144981010221 0.39243811108552906 -0.11740115597024753 0.2665425944223489 0.06522691297332757 -0.1039541510024051

layer1.bias f8 [80]
00000000: 8860 ede9 d443 c53f edd2 481b 59aa cdbf
00000010: 27d6 4634 4bf3 993f f28d b2fc d243 d53f
00000020: ff49 b513 0a0d d1bf 4ce0 6b3c 5a32 bd3f
00000030: db5b ef6a 4402 c93f db7d 436a bd51 92bf
00000040: 7a16 b7f0 2fdf d2bf 96be 1932 574c afbf
00000050: 0d3b 2120 5f85 c73f 3900 dc58 6fbe c93f
00000060: 0e07 72ad 334a 99bf 0f23 a892 6139 d03f
00000070: 8714 bd87 ba49 c23f 1d65 cd90 5539 d03f
00000080: ca3f afe3 f7da d3bf 3baf d47d 65f8 963f
00000090: 76c0 a38d 15e5 cebf df3d 97c2 c653 b53f
000000a0: 951d 186e d400 ca3f 2e62 a0dc a479 d63f
000000b0: 58ba 5d94 0cdf c33f 0a83 d0b9 a176 c3bf
000000c0: 1a45 18e8 615b b3bf 3c28 93f0 0520 d43f
000000d0: 4952 36a1 71c8 c9bf f4fc 1650 e49c 873f
000000e0: c573 ab5c dd6c bdbf 1140 8c75 4645 acbf
000000f0: fd79 a6fc a86d be3f b134 83b6 ed64 d6bf
00000100: c1ca 76c3 618d cf3f 3451 ca50 d369 d33f
00000110: f134 f4bb 3cd8 d83f ec11 d3c9 d644 d3bf
00000120: fe17 3551 b079 c9bf 6317 9a62 751f ca3f
00000130: 5b3b 6c6f 76c0 cebf 836b ab21 2d21 943f
00000140: 383b 2d24 9acc c93f cb02 ff33 2328 b63f
00000150: 3dc1 5a1d 3993 b73f 41b5 fffb d82a e23f
00000160: 009f 9af3 297c a83f fbe7 6116 fa4c cbbf
00000170: e0de 22c4 2975 c33f 1034 13e2 115d cc3f
00000180: 7e66 e307 9492 d83f 822f 5fea e9ae c7bf
00000190: 88f8 8451 7128 c83f e8ea 7967 6ff4 a2bf
000001a0: 3f89 2fa3 d6f3 bdbf 51d0 1f6a e480 c93f
000001b0: 7d93 c1dd 2a05 913f 05f1 0b24 881c b6bf
000001c0: ab78 9124 2568 ca3f 7928 4db5 9b6b ca3f
000001d0: 5cf3 26fe 6843 ce3f 826f c061 22b9 d33f
000001e0: aaeb 0a8e 6ff1 bb3f 96d3 b972 0c75 c03f
000001f0: 858e f56d a607 d0bf d8b9 4a04 551c c2bf
00000200: 9c19 4875 e8a7 b3bf b34f 8a84 f0d5 d1bf
00000210: f9bd 758f d278 cf3f 095b a1fb 6375 a4bf
00000220: 311a 595d f2ea 9bbf 8e4c f1e7 9556 cabf
00000230: 6a82 6ede 0e9f 8fbf f90c 4cf0 81ff b6bf
00000240: dbd8 e2df 37f5 b43f ed91 0a8c 06ae d0bf
00000250: d823 ef17 11fa bd3f 0a1b 30a7 4a55 7d3f
00000260: 2bea ea08 1bb1 c1bf eaa4 6e10 6951 c83f
00000270: ffad de43 ea98 c23f a4b1 4752 8396 c73f
0.1661325590346261 -0.23176111061334073 0.025342154565541144 0.3322646587132275 -0.26642085957169565 0.1140495679391062 0.19538169118342705 -0.017889937983339137
-0.2948722697004552 -0.06112930761889605 0.18375767773473975 0.20112411345326267 -0.02469712015272934 0.2535022670931974 0.14287501933919008 0.25349940434314694
-0.3102397654993153 0.022431932263472048 -0.24136609474180987 0.0833095765185514 0.2031503236359923 0.3511745600276609 0.1552444195217102 -0.1520578534409867
-0.07561313549401341 0.31445454114566807 -0.2014295613449966 0.01152971620001473 -0.11494239342159947 -0.055216028069594476 0.11886078041286648 -0.34991019080627966
0.24650213283674385 0.3033340729682721 0.3881980739104867 -0.30107660016463345 -0.19902614560322712 0.20408503832384914 -0.24024849358144248 0.019657807521848546
0.20155646101417246 0.08654994983136104 0.0920901962915694 0.5677304193356251 0.04782229517632963 -0.2132866486825263 0.15201303555453816 0.22159026659792902
0.38394642610874274 -0.18502544349609812 0.18873421173515603 -0.03702114236962989 -0.1170019291307982 0.19924597913598288 0.016621274743005444 -0.08637286071820334
0.20630325589713058 0.20640894272429813 0.23643219384930603 0.30817470117630574 0.10915276735151616 0.1285720405755028 -0.2504669259853716 -0.14148962697568268
-0.0767808233577853 -0.2786828321779879 0.24587471012954135 -0.039958118883694445 -0.027263438174737146 -0.20576738190957083 -0.015440097964359373 -0.08983623615863569
0.08186673370332491 -0.2606216781225886 0.11709696611718756 0.0071614185462809486 -0.13821733413154055 0.18998444845536905 0.1452915984531131 0.18428079145031717

layer2.weight f8 [80, 80]
00000000: 6a08 0e74 9993 d53f 3cd6 2c69 e8ff b03f
00000010: fde4 e749 bc5d c8bf ffa2 7d82 3bff b83f
00000020: 3b82 acd6 a4c2 d5bf 65bd 054d d85e c03f
00000030: e550 4914 816e dd3f 3fea 09b7 08f1 adbf
00000040: 908d 91d5 4dcf cbbf 67ef 5431 77d4 a03f
00000050: 5382 dd51 9f4f c13f f5a0 e8fa 794e c4bf
00000060: 7c74 68f5 1fd9 be3f 111f b404 8fe8 cb3f
00000070: 6073 c6a5 c894 ca3f 2c14 5e67 1293 db3f
00000080: 5e03 2d96 5f47 51bf 8ef5 4b33 9143 bc3f
00000090: adc2 4efe 122c d7bf 5e86 a4b1 50c4 d5bf
000000a0: ba11 da84 ce85 d43f c909 d22d 849f cc3f
000000b0: 04ab f648 430c b0bf 848d 3cad c699 bebf
000000c0: ec71 bee7 715a d5bf 4660 cbfd 3256 d93f
000000d0: 399d b063 8b75 c0bf 9ad2 5d96 f1d0 c13f
000000e0: d08a 2a46 dbf9 c5bf 3400 1ce1 a60c d8bf
000000f0: 32f5 752c 3d2d aebf ed22 5d0c 0a86 b7bf
00000100: ec8b bb67 5bdd dc3f 8098 78c4 c2ac d33f
00000110: 9142 eb8a bb81 e13f 9679 63cf 8f85 d4bf
00000120: 1ae9 490d 81dd 923f d61b 2630 5def d13f
00000130: 53b1 6dca abc0 b1bf b505 2b4c 87cc d03f
00000140: dda5 8073 760f b93f bbfb bc6f d844 d23f
00000150: ab39 05b0 949f ad3f ca8d 2f07 8098 d23f
00000160: a5fa 926b f997 cc3f c3b0 27eb 72af c3bf
00000170: 94bc 5a08 f2eb a9bf 0062 98e3 e285 e33f
00000180: 1f2b 386f f4d7 e33f 78a0 5961 4cd6 ccbf
00000190: 1d39 b1ee de2d c73f df3f f364 ee66 cbbf
000001a0: f08c 8ee5 8527 c7bf d1c0 36ae 9533 b63f
000001b0: b68e 7a9a a29d afbf 5dc8 752d 2196 c33f
000001c0: a0ab e614 e8c4 c93f 424d 3bdb 8ea7 6cbf
000001d0: 1305 c793 043a a1bf 0858 105a 8931 d23f
000001e0: 24c3 d289 f697 b3bf f78c ab7d 8182 b63f
000001f0: f85d 49c6 863e 97bf 3893 239e 74df c4bf
00000200: a05f e8a7 7b23 d3bf 7bd0 c2d2 cc24 b1bf
00000210: 1d09 d3c4 1e14 e63f 46da 8472 4533 d8bf
00000220: fbc2 9e15 c126 b7bf cb2a 60c5 9cfa babf
00000230: 7ba8 2e8f 6923 b33f 0765 d205 5572 c93f
00000240: b7c4 5386 6319 b2bf 6960 0f8f 6df8 babf
00000250: c339 5f7a 4ab0 e03f 8ccf 8200 6760 e1bf
00000260: 9091 a0aa d2ca d5bf 2224 0130 77b6 97bf
00000270: e467 7dff b7a6 d03f 1df5 10fc 262d a6bf
00000280: 7fd6 c566 5ae2 c63f 87bf 0490 ad83 b5bf
00000290: 9d21 89c9 5280 d23f 8bfd e67e 247c c63f
000002a0: 3b07 476f 8a4a c23f 0d36 74bc e4ac ca3f
000002b0: 7457 6520 3b87 87bf 5555 ae36 fccf 443f
000002c0: 072e 567a 4a93 a33f 4537 1dac dcd4 d03f
000002d0: bbd2 5eca dc03 a2bf 9a53 0e86 14d2 cabf
000002e0: 62f5 f687 40c2 c5bf d926 f230 29f4 d73f
000002f0: 72cd ae13 a9f6 cbbf 6ced 3e66 de44 c33f
00000300: da40 147b 5625 c3bf 2e06 cbf5 852d dcbf
00000310: 8f94 c1b1 e93e d33f 3f75 820c 3723 d5bf
00000320: cf80 4e81 2b1b a7bf 8289 c88f 7311 c93f
00000330: bab7 09d4 7309 ab3f 27ee f959 b82b ccbf
00000340: 28de 0704 a46c 93bf 9ce2 bade 34c9 bfbf
00000350: 7d5e bbd8 5f4f c5bf eb57 c7d9 626a d3bf
00000360: e11a 8d14 48b9 d4bf d4a5 8ef4 b3a4 b83f
00000370: b3b1 ec81 3fb0 b8bf 916d ccef c459 cabf
00000380: 932e 200c e243 91bf 9216 fb91 ddb1 b3bf
00000390: 871a 269e ed31 ddbf 0a82 07ae 0b10 c0bf
000003a0: de77 bdf9 b435 a4bf 23f5 c125 f658 d1bf
000003b0: 1b75 d932 8d61 c1bf 7b4e ab1c 3b58 cabf
000003c0: d9f9 3ec8 ee32 a03f 7339 165b 4ae4 c83f
000003d0: 37b2 1d72 1f89 5abf 011a 07d5 d2e7 b4bf
000003e0: 8f27 3640 8046 acbf 1454 39a9 7892 a3bf
000003f0: 4320 3381 2c78 b2bf 20f0 5ec9 efde da3f
00000400: e9c8 eefb 2f91 dbbf 048b d2d2 9e43 c0bf
00000410: 3de6 f4fd a48c c9bf a369 3c1d a94b cfbf
00000420: e0c8 4679 0efa a9bf 3220 bc3a e3dc bdbf
00000430: 35de 9b59 1e24 c03f 56ca 7a53 34cc ae3f
00000440: 2bd7 a198 7dca c1bf bc99 2569 e268 d3bf
00000450: c7e4 f58b ac1f d3bf 5310 5204 39dc c73f
00000460: 6700 f1de 7893 b0bf 1b90 12e2 7c5d d1bf
00000470: 7408 37a2 860c e23f b0f6 e541 b4aa c5bf
00000480: 4526 fdbd e3ba c5bf d5db 644f d2d4 ba3f
00000490: e08b f470 67cb 7b3f ca89 0048 6a51 b23f
000004a0: 8cde aa3f d747 bfbf 7bf1 9988 1c17 a03f
000004b0: 6bd6 625b 5c46 e9bf bdbf 9791 dde4 d83f
000004c0: 0392 f88e e3aa d63f 5c29 abb5 60c6 debf
000004d0: af6a 49de 87f2 c43f 6491 8d98 4165 d2bf
000004e0: 8455 b4e3 5a58 cbbf 0010 e490 f0fa d3bf
000004f0: 3838 2888 ea57 753f e05f b824 5a86 c1bf
00000500: b066 f0a5 8ac6 b73f f693 566c 2962 d43f
00000510: 8160 2579 70bf d2bf 74ed c349 bd35 b5bf
00000520: 9d33 9c08 e323 b4bf 83d8 3d0a 1fe3 ccbf
00000530: e989 b626 3c52 babf 0401 95f7 4cb1 d5bf
00000540: fbf6 c278 f227 b93f dd99 0429 92ed c2bf
00000550: 7068 67a8 d0fe b3bf 1778 90a0 14e9 d0bf
00000560: 83b2 3ea6 6df6 d83f 3a3c e9af 09c7 de3f
00000570: 544d 3c48 df39 d0bf 4288 35dd d11b cfbf
00000580: 3eb8 de80 61d9 c7bf 71c1 fb65 9242 93bf
00000590: 57fb b8bc 3763 903f bba8 5cbe 5609 b33f
000005a0: 2bd3 9ef7 1f3d c13f 05d3 4294 611a e3bf
000005b0: 5964 32f2 1249 cebf a06f 26f9 fde5 acbf
000005c0: 9c9a 3695 9d33 d2bf 0e3c 8b21 e31b a43f
000005d0: ad02 4e43 7abd dc3f 9f13 12ad 05b3 debf
000005e0: b23b fec6 263e afbf 7b19 dcbb d2f6 c6bf
000005f0: a2b8 4d9b fe33 d63f 6728 158e eee7 c4bf
00000600: 441d 62ef 4694 cd3f e2af f524 60a2 c7bf
00000610: 24db 87e3 da49 b4bf 9cd9 d3cc a8a4 d93f
00000620: 6677 1d44 a740 c53f 7c91 27b8 6a41 c43f
00000630: 7c4f 694a 71a7 d03f 6fcc 2ac9 8f96 813f
00000640: b58a 8363 8ebd 84bf 4441 54ac a390 99bf
00000650: 9bd5 4192 4db9 c2bf 771c 7787 fe29 cfbf
00000660: d7ad 6a16 a1b4 d3bf 0407 5ff6 40e5 c13f
00000670: 8995 70c4 4417 d8bf b6f3 4756 fb1e d7bf
00000680: b682 fd2b b179 d43f 4e7f 98ed 1d47 a5bf
00000690: 816f d02c 78df d2bf 04bf 7519 94dc d5bf
000006a0: dda8 3d20 2020 e03f aab8 13ee 7194 7dbf
000006b0: 0614 ce43 663b c3bf cd7f 7b1b fa70 c33f
000006c0: 7367 daae 09aa a8bf 9ef9 f877 4419 a8bf
000006d0: 7d39 0c16 13f0 b83f b73a 340a dfb3 cebf
000006e0: 7b77 549e c890 d0bf 8c8f 3dbc 20bc ba3f
000006f0: c312 451d 4d2f c63f 2bc3 f3e7 6fc2 c73f
00000700: 181f 702f b93f d0bf 9acd bacf 49d9 d83f
00000710: cf67 5669 0dc8 cc3f 67a5 a3e4 d604 8d3f
00000720: 3cb3 3b22 ce87 823f 2256 6383 a5d5 b43f
00000730: e848 b5da 5a81 dc3f 3857 0640 2317 d63f
00000740: 154f 73a9 e22b debf dda2 baad 996d e23f
00000750: 256a ee10 849f dbbf e78d f29f cdf4 e43f
00000760: 7439 38c7 bb79 bcbf d715 c810 b1d0 e03f
00000770: 011b bb2e e9d6 c0bf c254 39fa dd19 bf3f
00000780: fe6a b213 1309 de3f 8451 c5b8 ff87 c33f
00000790: 66c7 64ee 1e58 d83f 8068 946a e0cc df3f
000007a0: 00c3 a9b5 c44b d0bf f9ac 78e3 c4d8 ca3f
000007b0: 8278 7c65 74f6 d93f c403 f0a8 fa8e b23f
000007c0: 9272 696b 375b ddbf 00d8 1819 8d11 d3bf
000007d0: a654 368e 3cc0 a6bf 976e abe0 5264 d0bf
000007e0: df1d 3fab 0604 a0bf d84f 64d9 b9f8 e13f
000007f0: dad8 3294 803b d23f 7508 1595 a81d de3f
0.33713375409582247 0.06640484397652185 -0.19036058052714813 0.09764453826722884 -0.34000512089008667 0.12789443741665277 0.4598696420773776 -0.05847956880912308
-0.21726391723778393 0.03287098385996395 0.1352423810704005 -0.15864491225625668 0.12050056210905952 0.21803462724368974 0.20766552061550225 0.4308515557716557
-0.0010546143973472959 0.11040599348412725 -0.36206507525188664 -0.34010712955396183 0.32066691373645606 0.22361805188491093 -0.06268711596809956 -0.11953393678100183
-0.3336453211902881 0.3958861807309443 -0.12858717315359927 0.13918895570863726 -0.1716875164612106 -0.37577220900857644 -0.058938895871487054 -0.09188902665949757
0.4510105622304639 0.30741948305729494 0.5470864976178565 -0.3206519627837222 0.018423096119002037 0.2802346201137288 -0.06934617702581151 0.26248342932020857
0.0978921920765496 0.28545199310240904 0.057858129965654946 0.29055786802038297 0.22338788750308428 -0.15379177553348286 -0.05062824584944639 0.6100935406894337
0.6201116726163923 -0.22528986695693098 0.1810873666276586 -0.21407871178826007 -0.18089364727811796 0.08672461989658876 -0.0617495359013253 0.15301909179430853
0.20132161160048856 -0.0034978666461512884 -0.033645766295658096 0.2842734698800773 -0.07653752198053759 0.08792886083715588 -0.022699457027867326 -0.16306932183865697
-0.29904071233021945 -0.06696777482540199 0.6899560779786814 -0.37812935050479657 -0.09043509271465304 -0.10538654154531028 0.07475909944210628 0.19880163940687387
-0.07069990186188845 -0.1053532099025475 0.5215198888852729 -0.5430178651790682 -0.3405043283730942 -0.023156988434753008 0.26017570448095584 -0.04331323458652945
0.17878274934962587 -0.08404049650266475 0.2890822380182046 0.17566353031541512 0.14289980348081052 0.20840129091122642 -0.011488401342528688 0.0006351453315455539
0.038233115609809736 0.262992065506172 -0.035185718253534636 -0.2095361380167134 -0.16999060286426998 0.3742773988711697 -0.21846497975421247 0.1505392073866959
-0.1495769597027053 -0.4402785206148988 0.3007148967647674 -0.3302743551410749 -0.04512916520548204 0.19584507485076236 0.05280649150232315 -0.22008423226712745
-0.018969118829742865 -0.1241639179014648 -0.16648481447804278 -0.3033682944054578 -0.3238086891837338 0.09626316757807923 -0.09643933221804595 -0.20586454113877697
-0.01686051558503594 -0.07693276227936455 -0.45617237514708403 -0.12548967359090596 -0.039472251401761346 -0.27105477988500776 -0.1357895372665688 -0.20581759357320437
0.03163858599099329 0.19446687171552987 -0.0016196066939883188 -0.08166234684822628 -0.05522537978966035 -0.038226862580508364 -0.072146207373522 0.41985697426912516
-0.43073653796012806 -0.1270636109739699 -0.19960462951876137 -0.24449647834337637 -0.05073590498376901 -0.11665172752339073 0.12610225081856333 0.06015170592344947
-0.13899202301734567 -0.3032766367745372 -0.29880822818774927 0.18640816412892267 -0.06475024645715309 -0.27133104398149194 0.5640290420781313 -0.1692719766396542
-0.16976591851043757 0.10480989874200415 0.006785778109846569 0.07155479677070456 -0.1221899538457995 0.031426326441734674 -0.7898389611134012 0.38896884172481433
0.35418023073205535 -0.4808580183131619 0.1636514506706894 -0.2874301900649441 -0.2136338817441975 -0.31219114446162166 0.005210796489803875 -0.1369126014039912
0.09287325431105375 0.31849132137205005 -0.2929345305506175 -0.0828512482730071 -0.0786725898762612 -0.2256811904914607 -0.10281730599539397 -0.3389465730470109
0.0982657952144698 -0.14787508967238142 -0.0781069193975854 -0.2642261093150195 0.39004079089026095 0.4808983056909174 -0.25353223852399265 -0.24303649235941022
-0.18632143776398097 -0.018808639025281907 0.01600348557826278 0.07436124942310844 0.1346778830608398 -0.5969703574870385 -0.23660504175203093 -0.05644220034011416
-0.28440036365138055 0.03927526268454794 0.44906479428031326 -0.47967664624621337 -0.06102105311503382 -0.1794074456485751 0.346923495925589 -0.16332799852017674
0.23108755768428513 -0.18464280895875534 -0.07925193839023997 0.4006750107068002 0.1660355646699216 0.15824636451646856 0.2602198816941763 0.00858795483268279
-0.010127174770280115 -0.02496581782639963 -0.14627999917472043 -0.24346906294360668 -0.30789973439342816 0.13980876951068677 -0.3764202040059322 -0.36126597810635575
0.31992749496388784 -0.041558203938847 -0.29488949180971963 -0.3415880440361294 0.5039215688423401 -0.007221646346108704 -0.15025022803106952 0.15188528386988623
-0.04817228564679867 -0.04706777538784766 0.09741324699664307 -0.23986423490756234 -0.25883689367207524 0.10443310352053298 0.17331851891699132 0.18562125039854868
-0.2538893664609403 0.3882622269258832 0.22485511439737002 0.014169386723056744 0.009048090381350009 0.08138498742786074 0.44539519651620063 0.34516221287173066
-0.47142855213063345 0.5758789437432729 -0.43161107686469996 0.6548832057928252 -0.1112325059295694 0.5254750564351366 -0.13155855924397744 0.12148845061286109
0.4693038647034625 0.15258785745630743 0.3803784683287773 0.49687967689681756 -0.25462453594722945 0.20974026782037195 0.4056673995090777 0.07249418854190909
-0.458692412275732 -0.2979462380493487 -0.044435398445025684 -0.256123275188409 -0.0312807163277815 0.56161205729813 0.28488172981759663 0.4705602126961204

layer2.bias f8 [80]
00000000: 17d0 b443 cb5b d63f f41d f241 d36a babf
00000010: 045b d342 cea9 8f3f e86b 8ada f0ca d43f
00000020: 2872 b828 1cf6 e03f 5a28 53b0 765f bdbf
00000030: 885e 9840 41d8 a9bf 72da 6df5 4ffe a4bf
00000040: 5370 8672 7ebf aebf 2060 6bde 35b1 b5bf
00000050: d138 cb0b a891 b83f d398 3946 eafd babf
00000060: 182f b381 9821 bcbf fc41 6052 2bc1 dd3f
00000070: bf10 c2b1 e18a cc3f 4ca1 e3b0 0a1d d1bf
00000080: 9b1d 1e21 d7a0 c2bf 2859 48ec 67cb aabf
00000090: 5de7 a276 d13d b4bf f578 1976 180a 96bf
000000a0: 52b3 ebd9 253b c03f 6091 4325 792b 9abf
000000b0: cbde 029d 4044 b4bf 2d95 a17a fd63 aebf
000000c0: 9b5e 0275 44d7 b8bf d110 bcc0 7ba2 a63f
000000d0: ab40 9de4 8ce9 b2bf e727 56f1 9cfb c73f
000000e0: 409c 4500 4e1f aa3f e32c dbff 73bc a8bf
000000f0: b447 7425 c11a cbbf 12c7 c146 7dd4 d13f
00000100: 8866 c784 727d c43f 9bd0 b86e 1712 b0bf
00000110: 9195 381d 272e c43f b6c8 c698 ecb9 c6bf
00000120: 147e 0d73 5236 9fbf 7079 7b5a 3ec5 c4bf
00000130: 0989 e8a3 4dd5 be3f 2141 c15a a74f c8bf
00000140: b256 3b22 9b10 b3bf 5c1d a19f ba66 c93f
00000150: 9d0a e60d 8cad ca3f e70c dce9 977d b7bf
00000160: 192f 28f5 ce9e 823f ee3d 180d 7e87 c43f
00000170: 2c39 7d71 c691 88bf 21c6 88f3 3bc5 d03f
00000180: 1039 b37d 75ea a03f 1992 5c29 72a3 803f
00000190: dd47 8846 c5b8 c7bf 6654 5548 1356 b03f
000001a0: a008 24c1 9c12 b43f cd7c 817f 0294 91bf
000001b0: 2c48 3463 8af7 c6bf 470c 902b 6711 b7bf
000001c0: e573 7f88 a38b afbf 3f37 e183 612e a43f
000001d0: ac60 f72a ea90 cabf 2dc6 3e76 026b c13f
000001e0: ca32 7058 6c63 bb3f 2e87 f673 088f b2bf
000001f0: 587e 2b3d fe94 acbf 19b1 0bef 4ff9 b1bf
00000200: 41a6 f55b f98a b4bf d956 7324 d3a2 b4bf
00000210: 5a1b f276 903f b23f 884d 1d85 652b b6bf
00000220: d01a 3c7c bee9 b93f 5ddf e7bb 5b1d b8bf
00000230: 3680 7307 fa6d b3bf f78b fb32 5e2d dd3f
00000240: 3e57 3e03 07c5 acbf ce2c 71d9 e287 773f
00000250: 6ce1 748f 3319 cf3f d1ee 93fb a173 bdbf
00000260: e393 08cd c0f0 c4bf d93d e5fd 0d0d b4bf
00000270: 8eb6 04e8 1595 ac3f 2957 e7f5 5bb7 b8bf
0.34935266124671344 -0.10319252357486858 0.01546059743342943 0.32488652555338016 0.5300427241632564 -0.1147379093628457 -0.050478018889575316 -0.041002749166115474
-0.06005473278057196 -0.08473526649629592 0.09597254074035112 -0.10543693747021914 -0.10988763014318825 0.46491511387378615 0.2229883306464497 -0.2673975684579275
-0.14553345791885594 -0.052333114235965816 -0.07906827112574662 -0.021522886474820663 0.12680504933032438 -0.02555646219197294 -0.07916644891053719 -0.05935661432230641
-0.09703472000762263 0.04420840003698035 -0.07387619573023822 0.18736612113963177 0.05102008584327011 -0.048312783224526056 -0.21175398186511318 0.2785943213449268
0.16007834895463113 -0.06277605488941378 0.15765847136314595 -0.1775489564875607 -0.030480659744510488 -0.16226939600069157 0.12044224979084474 -0.18993083888427356
-0.07447213731515026 0.19844754022981703 0.20842123678820182 -0.09176015338384823 0.009091965538594192 0.16038489951505092 -0.01199679406968509 0.2620382192863833
0.03303877982544823 0.008124248397117605 -0.1853262514492248 0.06381340518903897 0.07840900149679664 -0.017166174919449873 -0.1794293388744007 -0.0901092988352029
-0.061612234508835496 0.039416358326532556 -0.20754744623150623 0.13607817434017147 0.10698582800996373 -0.07249501067283567 -0.055824227301624674 -0.07021045290065721
-0.0802455758581795 -0.08060950889497621 0.071282414473996 -0.08659967899193621 0.10122290165973458 -0.09419797265570425 -0.07589686090386824 0.455894040858936
-0.05619069971650824 0.005744825487521156 0.24295658592906066 -0.11504566566503206 -0.16359720240976036 -0.07832419823284144 0.05582493264442433 -0.09654783967502269

layer3.weight f8 [11, 80]
00000000: ba83 cf2d ca28 e0bf c22b fa39 0ce0 d23f
00000010: 7dcb 57fa 19e1 c63f 3208 5171 e07f e2bf
00000020: 84eb 386d 9a65 cbbf cba7 5a13 4636 c0bf
00000030: d323 3217 f5e4 d3bf 19c6 cb21 9d8f c23f
00000040: 205a 7d1b 2eef 90bf 9289 c5f4 9ac4 9cbf
00000050: 2ad0 bb3d f1a4 d3bf c67d 4384 18f9 c63f
00000060: 5543 eabc 35ff c8bf bc69 4a95 132a d3bf
00000070: dd53 16d1 4ff5 e6bf 0bea c5d1 587d be3f
00000080: 269f e41e 1732 d63f 7f54 2352 a224 cbbf
00000090: b18b 59ee 6b46 c2bf d6f9 e45e 5a48 b93f
000000a0: 1be7 718e 112c c53f 3940 bf1d c6ad d33f
000000b0: 0403 a1ff 619f e23f 7628 176c 3c88 9c3f
000000c0: 9e84 e0f9 f274 92bf c448 4f63 7d5c c5bf
000000d0: 32f3 eb2b 1aff d3bf 4d91 96b1 44d8 cabf
000000e0: f8b6 bd84 0252 c23f 9119 d018 a724 c93f
000000f0: e14c 1616 a641 96bf 11b2 76e2 20e5 abbf
00000100: 533b 496d 1044 e0bf 76d0 be9d e40a c9bf
00000110: bab6 c948 887f c5bf 0b07 4f29 6a02 cf3f
00000120: 27f5 f3ae 4dc4 d03f 6757 44b5 79f7 d63f
00000130: 4fcf 0ecf 7b69 8a3f 405f 4ad4 25fd d23f
00000140: dc23 ed40 80e4 b4bf 6e9f b82d 4eab dbbf
00000150: b369 9009 5e0b d5bf 4edb f79a 3ed4 c2bf
00000160: 2b76 04fc 27dc b8bf 0011 df52 2d42 e0bf
00000170: f346 9067 c438 c63f 6e38 6c25 e0bc c23f
00000180: 9795 ed6f 7c93 aebf 906f 5786 ec32 c93f
00000190: d85d deaf 20e1 d73f 5b4e 2fed 1cf0 cfbf
000001a0: 53b0 e2bd 593f be3f fb58 3a64 f739 de3f
000001b0: 3a37 52a7 b46e db3f 5fe3 2532 34c2 9abf
000001c0: 6ba0 2bea 06df 8cbf 3a21 047a 4c55 d9bf
000001d0: 08f1 0027 ff8d c7bf 5213 e9bd 27f7 c5bf
000001e0: b8e1 e761 d44e c8bf f5d9 b7fc fe9e cc3f
000001f0: 5a23 631e 4ae2 d93f f09c 0fa6 7451 c23f
00000200: 6450 adf8 4b5a 95bf 0469 deb8 34dd c3bf
00000210: 2e06 bdbc 29a4 cd3f 8409 4386 185e c83f
00000220: fa7d f61f 1c21 cebf 1a65 1a50 0efa d53f
00000230: ab62 8501 02d5 b73f dcd7 369a 57e5 e5bf
00000240: c889 7992 7dc1 dbbf 4716 8b4f 2bd9 84bf
00000250: 1c80 fa2a f813 b43f e60a ebb7 434f 943f
00000260: 56a5 4afb 6de6 5cbf 9a3e a0ce 81f9 c23f
00000270: a708 ff0c 7928 d53f 9760 026f 655f d33f
00000280: 8212 7d3e 9b5d d3bf 9ed3 f024 a606 d2bf
00000290: c916 a9f5 adf5 c8bf da68 5b25 4e66 c9bf
000002a0: 049f d55a 8cab c7bf 7340 5383 e5a0 b43f
000002b0: 1344 ec79 baf5 d8bf 1b52 2dab b085 b0bf
000002c0: 3311 19c9 5cd9 c5bf d45c ce1d 7116 ccbf
000002d0: 70c8 7569 ec7a e4bf b874 64fa 1dbc be3f
000002e0: c7ca 86d2 cc6c c3bf 4f6e 45f3 d2c0 d1bf
000002f0: 208a ce33 36a6 b03f 28c2 f66e ac9e 9abf
00000300: 0e97 348d 2164 bc3f a651 dc50 914e b3bf
00000310: ea9c 20ea c41d 9e3f 421e efd9 f4ee b43f
00000320: 8f45 f30a 5058 cd3f 50fd 384a 5c46 c93f
00000330: 48b8 f474 0f15 c0bf 4786 baaa 7e28 a2bf
00000340: d8b7 e26e a13f ba3f 261a 4b08 eafd a8bf
00000350: 113f b267 9559 bdbf e6a3 6494 a82c bdbf
00000360: 55bf 3fcf babe d1bf dc48 bcac 5681 9b3f
00000370: 2af0 41d7 2b4c d0bf 933d 17b6 bc8b a53f
00000380: 427a fad0 5392 c53f b14a 734d 8f1f a73f
00000390: 1074 e843 0bdb afbf c237 feac 09a6 d03f
000003a0: 7b7e 415e 8315 d3bf f4f3 e45d 48d8 bc3f
000003b0: 32b0 516b c087 d63f f406 3bf4 c1f6 6c3f
000003c0: ef66 e3da 9a16 c53f 3ec4 af03 1fcd ddbf
000003d0: 868a 0596 067a d93f c908 993d dcc9 c53f
000003e0: 9c93 c970 6222 cebf ef15 1746 fa55 e9bf
000003f0: be81 fd03 40bf debf c7b2 5e71 e919 d33f
00000400: b54e c0ce 5f08 c83f 895d 6b72 62c7 d03f
00000410: ae42 f131 7264 cf3f 4d82 09bd d56d c6bf
00000420: 2329 cb29 b2f3 c93f eab7 9663 d4f2 dabf
00000430: 564a 3f61 9d96 cd3f 61c5 16fe f4f3 d0bf
00000440: f2c4 bb61 8d59 c63f 7b31 26c7 907f c23f
00000450: f2e5 a6aa 8891 b03f 705a fd5f b451 c1bf
00000460: 5d5d 3615 db99 d8bf 89be 0392 8d3c c1bf
00000470: 29a8 d3e6 6924 cebf 84ac 56e7 71ff a73f
00000480: 5c75 631c ee8d ccbf 4959 adff 33d9 c73f
00000490: 62ac bccd e4e7 d73f a3e0 8efb 3b4e d4bf
000004a0: 1048 b120 695b a0bf 60f8 d92c 289d babf
000004b0: 77d8 0296 b5c1 c73f e049 012b c6b0 9dbf
000004c0: cf1b 9a44 cb93 b13f 915b 2ca9 dca0 cabf
000004d0: ffa8 62cd 66e2 bd3f 3b8d f9e2 84be cc3f
000004e0: da7e 7ae4 fc3f cfbf f468 beaf 378e af3f
000004f0: c041 3237 52cc cf3f 6479 e6ed 15ca d1bf
00000500: a30b 99a3 77ff ce3f 7420 e72f 99c4 9bbf
00000510: 99dc a964 f931 dcbf 1497 f760 15de cdbf
00000520: 21cc aa73 de24 d63f 4ed6 7b05 58ab b7bf
00000530: cfde 448b 82ec ccbf 829f 9d4c 4020 d1bf
00000540: a4a8 6092 9d0a bdbf 4ec2 411d db9b c4bf
00000550: a730 c950 48d3 e4bf a866 6435 d301 d5bf
00000560: 0718 58d0 53d5 a23f 41b0 4c69 e11a c03f
00000570: ca3c cf26 6e99 e3bf 3d12 b3fa 3458 d4bf
00000580: 2fe4 53cc 479f d4bf 5f27 0a80 9529 b53f
00000590: 247a 92e3 7e96 c5bf 010a 2fe3 4a5d b5bf
000005a0: 7cc4 382a 292c b53f ae6b b2eb e6db ca3f
000005b0: 96c5 efb0 8580 d1bf 2a26 63c2 d74c 94bf
000005c0: 5b65 b67b b149 cbbf 72da a049 2e39 d23f
000005d0: 6ae9 508d d75b b83f 0b1f f896 ae2b c03f
000005e0: e6d7 0a42 764d d0bf be8c cc4f c952 d03f
000005f0: 1db1 ad2b 6360 c8bf d31d a78c ed15 cabf
00000600: d97f ecca 0a56 92bf df05 4daa 07ca abbf
00000610: a783 f0be 8b79 d6bf e066 1be2 5f68 b9bf
00000620: 7ff0 73fd 2c0d 9b3f 7bfe 2913 bdab b43f
00000630: a464 8e65 9fec c33f e2b0 2eaf d523 b73f
00000640: 3db1 2aef 4320 c3bf 191e 305f b907 dabf
00000650: f878 ef9f 6280 d43f 14b0 33c6 725c 9e3f
00000660: 8ecd 7458 471c bf3f 87d2 d83a eda9 e3bf
00000670: 433c 475b 53fa d0bf 1af8 f826 3ce8 a73f
00000680: 4dbe f4c4 312d bd3f 7a12 ede2 1bda d7bf
00000690: a49d c377 8dce d03f 1536 60e6 eeb7 c8bf
000006a0: c709 7939 32b6 d13f 1619 fc88 a994 debf
000006b0: 5c42 21d5 61bd d4bf 66c4 b734 8105 b73f
000006c0: fc60 6c40 8f67 c6bf 63c3 b185 08d1 be3f
000006d0: d254 a0ed f2e0 b3bf c8b1 f029 be78 b3bf
000006e0: 4c88 94c1 ac0b e5bf 36b7 a5dd 2234 c83f
000006f0: 2c8e e3a8 53c8 bc3f d74f 81bc a2df e0bf
00000700: ddf7 7028 ab8e b43f a015 de97 2412 c9bf
00000710: 704b bd7a ffe3 c83f 21d9 71da 6650 d7bf
00000720: 9381 e1ce 2758 9dbf a469 42ce 2125 d03f
00000730: 8b77 12b4 b781 bb3f 2d7e 6186 04a4 c93f
00000740: 2d36 4b55 c74b ac3f 072c 4554 3868 ab3f
00000750: 87cb 00bb 2417 b83f ca8e e283 b12e bcbf
00000760: fa10 8027 a2d8 8c3f fc61 799f c440 a5bf
00000770: 0095 0591 5921 6fbf 9358 8c64 681c d53f
00000780: 9728 fe8e 74f5 d43f 16be f087 d6b9 d23f
00000790: d9e2 1c57 fe9b e0bf 42b7 9e20 7e9b 9fbf
000007a0: cf3e 980f 3e4a d13f 3238 167f 51a5 c9bf
000007b0: 1f17 c7ee a78e d1bf 9e97 fbdc ea82 c63f
000007c0: ffe8 5737 5657 d3bf 57cb 2d20 0940 c93f
000007d0: d8ab d3a1 f667 b63f 23ed 4fa4 d4ca e3bf
000007e0: 60a9 dcb5 e5eb babf 47ba 76f0 35d8 d23f
000007f0: debe bcec 700f e7bf a69e 14b8 a192 e0bf
-0.5049792189348559 0.2949247900184525 0.17874455188538355 -0.5781099522794249 -0.21403818448183298 -0.1266563028814843 -0.31084944977970713 0.14500774526781937
-0.016537399700007893 -0.028093739690470416 -0.30694228199650075 0.1794767995661301 -0.19528838848466515 -0.29944314555327955 -0.7174452861532888 0.1191001426831592
0.3468072702112174 -0.2120554829658978 -0.14277409685300094 0.09876026932486268 0.16540736632651307 0.3074813166140334 0.5819559090378736 0.02786344918948954
-0.01802425050857847 -0.16688506459337848 -0.3124452046320584 -0.20972498580261814 0.1431277416372081 0.19643105231825733 -0.021734805200662847 -0.054482486385811886
-0.5083086142056835 -0.19564492895517888 -0.1679544787797818 0.24226119057680537 0.2619814117932315 0.3588547010598319 0.012896506554035318 0.2967009137296266
-0.08161164841762009 -0.4323306509490895 -0.32881880697245974 -0.14710218970113903 -0.09710931685227624 -0.5080782526570431 0.17360739762130314 0.14638902499467882
-0.059718979514211394 0.19686657485624126 0.3731157033411967 -0.24951516705788176 0.11815415273548639 0.4722879866398128 0.4286319383617073 -0.026131454048911148
-0.01409726526385687 -0.3958312217296399 -0.18402089504696328 -0.1716050793931126 -0.18990568905407001 0.22360217418436404 0.40443661658769303 0.14311082943388653
-0.020852267315902742 -0.15518816973492033 0.2315723582815265 0.19037157588725162 -0.23538543282209884 0.3433872015244376 0.09309399163374603 -0.6842458736416535
-0.433684723893887 -0.01017984234330095 0.07842970895080764 0.019833620167228803 -0.0017639230765474543 0.14823935116918535 0.33059526700174974 0.3026975235056936
-0.30258828260802073 -0.2816558228253657 -0.19499754424230378 -0.19843460868907564 -0.18492273745800258 0.08058008629018491 -0.3899980726865248 -0.06453994921805199
-0.17069587535127936 -0.21943487124801797 -0.6400053081290604 0.12005793917747354 -0.1517578151666241 -0.2773940444655851 0.06503618969740232 -0.025995916626643162
0.11090287873647872 -0.07541759704719783 0.029410435476305098 0.0817711860719266 0.2292575887172856 0.19745973228598723 -0.1256427117418204 -0.03546520074929709
0.10253342587631609 -0.048812211525320046 -0.11464818746230444 -0.11396268484953928 -0.2772662185588975 0.026860575001656936 -0.25464912434813647 0.042081734874609776
0.16852805809044652 0.045162656978978595 -0.06221804813342413 0.26013414281703373 -0.29818805889770034 0.11267521183340518 0.35203562240963315 0.003535631958443081
0.16475234687714344 -0.46564460144060493 0.39807285929251923 0.1702227879305325 -0.23542433268735585 -0.7917453164051816 -0.4804229773490326 0.2984565360191422
0.18775556178353772 0.2621694676758684 0.2452528709277621 -0.17522689562157936 0.20274951019957496 -0.4210711453005148 0.23115889786147886 -0.2648899537408252
0.17460791847364693 0.14451799129563966 0.06472067037875442 -0.13530592619891335 -0.38439061233062494 -0.1346604311906854 -0.23548625727500053 0.04687076519925262
-0.22308136354596797 0.18631601318583993 0.3735286721373027 -0.3172750431654185 -0.031947407952103046 -0.10396052451139459 0.18559903931390284 -0.02899465215188879
0.06866140770772165 -0.20803411732114488 0.11673586382190491 0.2245641811633535 -0.24414025455643334 0.061631908610438574 0.24842288680203062 -0.2779593299145715
0.24217124450850944 -0.027117150830037365 -0.44055018263265705 -0.233339950892678 0.34600030227301387 -0.09245824941521016 -0.22596771049733497 -0.2675934551430076
-0.11344322990103933 -0.16100634506757888 -0.6507913186883528 -0.3282363912017936 0.03678380888236182 0.12582032815532965 -0.612479282188269 -0.3178837249982143
-0.32222170785786636 0.08266577125519124 -0.16865526306078593 -0.08345478102186378 0.08270509033970258 0.20983587750091942 -0.27346937445607844 -0.019824382056674285
-0.21318644085549007 0.2847400397326175 0.0951513977060238 0.12633306857627988 -0.2547279019303218 0.25505287926553055 -0.19044150955904451 -0.2037941872388119
-0.017906349788176932 -0.0542757411371999 -0.3511685719150201 -0.09924887914840097 0.02641744896844544 0.08074552266952566 0.15565865000534018 0.09039054419435247
-0.14942216089310448 -0.4067214421815791 0.3203360139722373 0.029649537417682906 0.12152524861885736 -0.6144930028300032 -0.2652786628140726 0.04669368720759355
0.11397086199280544 -0.37268731270550115 0.2626069707461858 -0.19311319588489143 0.2767453728921762 -0.47782362344186546 -0.32405896962612757 0.08992774521881727
-0.17503538747474312 0.12037709487937102 -0.07765119840071869 -0.07606113933497405 -0.6576751499999403 0.18909107039092427 0.11243174432052488 -0.5272992784252847
0.08030194985710133 -0.19586617865949751 0.1944579457582125 -0.3642823346375668 -0.02865659904671387 0.25226636068841857 0.10744808336536786 0.2003179222256092
0.055265645181503543 0.05352951077164652 0.09410314145570285 -0.11008748502586765 0.014085070448353044 -0.04150976607042264 -0.0038000821443114896 0.3298588735500598
0.3274814030088548 0.2925926520865415 -0.5190421773359858 -0.030866595021215255 0.27015639803810826 -0.20035761552247916 -0.2743320304692691 0.17587028303313174
-0.30220561413410957 0.1972667128680665 0.08752385569429977 -0.618509598657884 -0.10516200723637814 0.29444645388403895 -0.7206349014067788 -0.5178993792842064

layer3.bias f8 [11]
00000000: 2c29 3aa3 2698 d2bf d96c f987 b6b4 91bf
00000010: 7377 5a61 9e26 a43f 01a8 12b5 5d3b b3bf
00000020: eb6a 0750 9495 813f a280 1615 704f c43f
00000030: 85f4 84e8 5a02 903f 1385 82df fdd2 bfbf
00000040: fb63 709a 3f15 c83f 0536 c936 f8e2 c7bf
00000050: 624c 8658 71ff d23f
-0.2905365556731734 -0.017290927933896725 0.03935713709255042 -0.07512460394596589 0.008586081211367133 0.15867424993212348 0.01563398403344653 -0.1243132277181938
0.18814845124214216 -0.1866140620717688 0.29684098858814967
