attack_soft_generative_decision_tree/experiments/vowel_params_state_dict/fnn_epoch282.pth (torch, 69599 bytes, 6 tensors)

layer1.weight f8 [80, 12]
0	0x3f9b3bcb4bc7e1a1	0.026595283985416555
1	0xbfd32fb9bc751c75	-0.29978793529557574
2	0x3fceec1aaf9ff82d	0.2415803296607363
3	0x3fb4d36e14d8547c	0.08135116585647667
4	0x3feb476ad8ab20d1	0.8524679405027432
5	0xbfca54ec9c1fa707	-0.20571668265557028
6	0xbfe84f51ca821713	-0.7596825556981649
7	0xbfe1377567ad0acd	-0.5380198502465078
8	0xbfe1a791a2006881	-0.5517051853269238
9	0x3fdfd3e4b9ededdc	0.4973079505650426
10	0x3fc8da1b2c9bd666	0.19415607145463126
11	0xbfdc4c4f30cb445d	-0.4421575523857138
12	0x3fa6c88218b810b0	0.04449850608583128
13	0x3fa2bd991d36e219	0.03660276872273389
14	0xbfd7592e472364a6	-0.36481816241355103
15	0x3fdf5fd16c1e1a7e	0.4902232700191361
16	0xbfd32b3fef468028	-0.29951475493180846
17	0xbfe2b0f05cb01d46	-0.584098988562723
18	0xbfd608a491b61b6b	-0.34427751760124775
19	0x3fda256a14d6d768	0.40853359255867483
20	0x3fd9cb49554b0006	0.403032620710292
21	0x3fd5922c93a7979e	0.337046760744096
22	0x3fe58e65d61c5546	0.6736325437401909
23	0xbfdd22379ba7d709	-0.45521345329994795
24	0xbfb353f30b56218c	-0.07549971606034073
25	0xbfef37ea70e23ea3	-0.9755756573449229
26	0x3fc864b7641bbd5d	0.19057361972907474
27	0xbfe83329a0acd153	-0.7562454355416243
28	0xbfdd738f259456f9	-0.4601781718241536
29	0x3fd541d1f7c0c481	0.3321423453772426
30	0x3fb522cd92dc10c8	0.08256230197372638
31	0xbfc9efb30243c7e3	-0.20262754068931974
32	0x3fe1e80ad68d1e79	0.5595754805044201
33	0x3faa1c0b7eb8f684	0.05099521562486323
34	0xbfe05341796bf75b	-0.510163056518404
35	0xbfc8b22abebae724	-0.1929372245120301
36	0x3fb4a9c2bac885af	0.08071534214152253
37	0x3fc0133e5d67124b	0.12558726845431276
38	0xbfedaeadd8b99f85	-0.9275731308853074
39	0x3fd0becfa4911788	0.2616461855981176
40	0x3fe19c05feccf22b	0.5502958275388371
41	0x3fd105c8dbfc3610	0.2659780643742531
42	0x3fd6aeda6c77c9c5	0.354422193456369
43	0x3fb74ddb4b64b3ea	0.09103174772890524
44	0xbfc298bcc32c4d90	-0.14528617410597322
45	0xbfbd184247713a64	-0.11365141147801122
46	0xbf9e3ab95591bb5b	-0.029520889137013877
47	0xbfc7b2ca81ed6540	-0.18514376968486523
48	0x3fb11e85f03ac333	0.06687199702242878
49	0xbfcf7e367c4eef00	-0.24603921003096474
50	0x3fc66f5a45223112	0.1752732122007577
51	0xbff238101581dc6b	-1.1386872139098851
52	0xbfe8fc7e75c71cd7	-0.7808220196101513
53	0x3fcff18767051eb2	0.24955837755464
54	0xbfc5fedc6bf9b4f7	-0.1718402411674231
55	0xbf8d47fcbc1e2346	-0.014297461024186508
56	0x3fcb52dee8bbdeee	0.21346651424368396
57	0xbfd931a8a15260f0	-0.3936559272201654
58	0x3fc2f89e34a06a61	0.14821221894893014
59	0x3fd116925a616bbf	0.26700266672349565
60	0xbfc84800991c39d4	-0.18969733692251955
61	0xbfdb2ce6e057bda6	-0.4246155920836493
62	0xbfbf5a4781d16615	-0.12247130317100414
63	0x3fa7566c50bbfee8	0.045581230979221676
64	0xbfb8f1eb499e6464	-0.09744139239627853
65	0xbfdd7c10ee83b843	-0.4606973962062321
66	0xbfe0a789a667f1c7	-0.520451378833564
67	0x3fdbbb728abd211f	0.43331588314733155
68	0x3fda651daaf926ee	0.4124216241512916
69	0x3fcac4c5b9364d96	0.20913001578865636
70	0x3fe01c2e6ffdf26f	0.5034401118605966
71	0x3fd874eb16e07c96	0.38213612779686323
72	0xbfb486ff08ef19fa	-0.0801848789988994
73	0xbfe4b3baf81c76a0	-0.6469397397920211
74	0x3fe056f3b1c3afc7	0.5106142494164424
75	0x3fe2be8f40183ca7	0.5857616664742594
76	0x3fb46a822663f692	0.07975018918292623
77	0x3fd9c64666bbd770	0.4027267459163033
78	0xbfe1ed3760e165f8	-0.5602070705601241
79	0xbf753e9b51c1ac1c	-0.005186659542327578
80	0xbfdce7b0bb765b01	-0.45164125735156807
81	0x3fd543c61c9cbf95	0.33226158899469144
82	0xbfc61d7125abadb8	-0.1727734979570934
83	0xbfa76c783e1ab24c	-0.04574943311795163
84	0x3f9ec76089fdca01	0.030057438299488485
85	0xbfe1b2fa80d76033	-0.5530979649001949
86	0xbfc42e3cd8a69506	-0.15766106203697222
87	0xbfe453e7bec3ed3a	-0.6352423406491774
88	0xbfd59333a2790d3c	-0.3371094786309248
89	0x3fe1f24616cc01ce	0.5608244366886141
90	0x3fdcb6afed2bca50	0.4486503425716011
91	0x3fd0e9a358fcbfeb	0.2642601365105281
92	0x3fe3e6a591d5268c	0.6219051216405247
93	0x3fe4d8f38b2fbf68	0.6514833181845292
94	0x3fcbf3e2f22b9e2a	0.21838032555318537
95	0x3fd2eb40e1a60b88	0.29560873065946014
96	0x3fafd1b754135197	0.062146882069700364
97	0xbfc3c785682d6776	-0.1545264013937488
98	0x3fb1285c9164d85b	0.06702211904198078
99	0x3fe0416d592e9183	0.5079867116769922
100	0xbfcd595ef292feee	-0.22928988308375814
101	0xbfcdf1da683f6d97	-0.23394327249739597
102	0x3fb85ef265b4e152	0.0951987741763152
103	0x3fe39226f8c47c62	0.6115908488026316
104	0x3fdc1b093c3ac311	0.4391501510790912
105	0xbfd9a5cc906aa573	-0.4007445726698144
106	0xbfd73b4c4a2e0e05	-0.3629942631161785
107	0xbfba9d7ec34d6588	-0.10396568554042152
108	0x3fbde182b22f07ea	0.11672226762951224
109	0xbfca847c531f5371	-0.2071681409712727
110	0x3fe46c575d5781d9	0.6382252524454614
111	0xbfc06536af60c5bc	-0.128088794359014
112	0xbfbf24c6cb0aeea7	-0.121654915400479
113	0xbfcedc3c1988fc6d	-0.24109603163558138
114	0xbfc251612f26cfbf	-0.14310850908588965
115	0xbfda4e1132d32dd0	-0.411014842637738
116	0xbfce1a23cfea548b	-0.23517272617451498
117	0x3fcddc7d9e271040	0.2332913419942333
118	0xbfd8aefe262b7c72	-0.3856807110550512
119	0xbfd78f25bda43bed	-0.3681120254486235
120	0x3fc0118664a6b312	0.12553481974227815
121	0x3f955a554366ce39	0.020852405775896286
122	0xbfaa14c678e13610	-0.05093975282271057
123	0x3fd843d35942a843	0.3791397449191473
124	0x3fcabb7d5e9fffd3	0.2088467323337669
125	0xbfd12eca0d1076dd	-0.2684807899075688
126	0x3fcde1315ee75087	0.23343484052623273
127	0x3fe0fdf3bed4f507	0.5310000159439888
128	0x3fd8bfc003d2b970	0.386703494771516
129	0x3fe26f8892c56cee	0.576114927923667
130	0x3fbbac05b84ee41e	0.10809360265456333
131	0x3fd0cb1b3277a059	0.26239662102171263
132	0x3f80b59e7814b6f6	0.008158910789088019
133	0x3fc21ab3e8d08266	0.14143990390677458
134	0xbfc0419fae6b11b5	-0.12700267807498525
135	0xbfe4d678e5c5ea7a	-0.6511806953197514
136	0xbfcd49e737cb0837	-0.22881784652969525
137	0xbfc3210ec17d1b3d	-0.14944633910837438
138	0xbf9a91c35fdca4e7	-0.025946667409844883
139	0x3fe70a12e47a8914	0.7199797117685045
140	0x3fe740528623c046	0.7266018505015459
141	0xbfa0c1cdbf7b6b92	-0.032728604912072204
142	0x3fd902921e381baa	0.390781907568846
143	0x3fa864710e4596b3	0.04764130877701458
144	0xbfa1bc7994d44067	-0.03464107457887238
145	0xbfbfc7fce3ee14e2	-0.12414532246301094
146	0x3fb00c1f092950d4	0.06268495534579027
147	0x3fb7341158d75714	0.09063824099515855
148	0x3fe17a5af9eb8a04	0.5461859589816531
149	0x3fced81f65787078	0.24097053961384396
150	0xbfdf782da9128a55	-0.4917101050470241
151	0xbff240ad733c54fe	-1.1407904149430688
152	0xbfd4b5a1f2261723	-0.3235859741911204
153	0x3fc1ba48d6bbf8fc	0.1384974525935333
154	0x3fe3d5fdef60e048	0.6198720622405824
155	0x3fd0cccc6cd39958	0.26249991061776745
156	0xbfc8fdd2de674348	-0.19524608478107042
157	0xbfdded724d1cfd08	-0.467617583566565
158	0xbfdd16d7ff34c6a1	-0.45451927111126095
159	0xbfc506796d5b2f60	-0.16426008071573062
160	0x3fe7ba9c83dcd338	0.7415297103349081
161	0xbfd106bc50691e6d	-0.2660361085185972
162	0x3f4454a98431580d	0.0006204440800370317
163	0x3fdeb742d63109a2	0.4799353687013995
164	0x3fdc511fc94e695f	0.4424514261132994
165	0xbfe394b9834b052d	-0.611904865676626
166	0xbfbb2ba6195588bf	-0.10613477819927918
167	0xbfe1d2be5811675d	-0.5569755287244608
168	0x3fa9ca98b5c61ff6	0.05037381380958543
169	0xbfae54bec41607c3	-0.05924030440929997
170	0xbfe0c87f5c17d67b	-0.5244747923558885
171	0x3fd523a306fab71c	0.33030009919717584
172	0x3fd852f14aae1ee8	0.3800624112413815
173	0x3fe4fdcf4cd04d52	0.6559826374308761
174	0x3fb1e95aa86f4762	0.06996695148634793
175	0x3fce35099d6ef6b3	0.2359935778348948
176	0x3fd537397c3f9572	0.33149563916807445
177	0xbfc20c9e3d6a9beb	-0.1410100746045083
178	0x3fe2a493958143be	0.582589904786907
179	0xbfc21b859ac03ff6	-0.14146490150642393
180	0x3fb95fe95e2d6c4e	0.0991197447705627
181	0xbfa62128e373999e	-0.04322173859127364
182	0x3fe4dd9e28768bce	0.6520529547018385
183	0xbfd0de7a201886d4	-0.2635789216457003
184	0xbfddedba021671a6	-0.4676346798312586
185	0xbfe3ab9f6d594902	-0.6147000442236108
186	0xbfd407c535d66965	-0.3129742646939547
187	0xbfd21a5bcb02a8f7	-0.282858799221358
188	0xbfc19dc5b0b5b4ef	-0.13762732628257576
189	0xbfd35c636be39c52	-0.3025139382938892
190	0x3fd0625c70afa8dc	0.25600348476895163
191	0xbf9fc6e16163190b	-0.03103210598853771
192	0x3f99970f68a51bee	0.02499031139566548
193	0xbfc1795565ce9812	-0.13651530715031918
194	0xbfd56dd21636bb0a	-0.3348279206210668
195	0xbfd4c6b3855ffbf6	-0.32462776207825017
196	0x3fd83f616a96ac6d	0.3788684407142629
197	0x3fbd8bef747d1aab	0.11541649431192506
198	0x3fb3c83a2c5376bd	0.0772739752023552
199	0xbfe8751301834309	-0.7642912892862067
200	0xbfd161e2cab9295a	-0.27159948155590075
201	0xbfbf03c217e4f1a7	-0.12115109523160204
202	0xbfd8af0030423557	-0.3856811972880982
203	0xbfd3ce7c085ddeec	-0.30947781388338913
204	0xbfd3d0b6e7b41159	-0.30961392047199393
205	0xbfb50ca308fa1ea1	-0.08222407311597603
206	0xbfd99ce49aaff52c	-0.40020098787484204
207	0x3fb560ab6be9cc13	0.08350631126977275
208	0x3fdd342813b7c320	0.456308383231816
209	0x3fd2365aab763742	0.28456751579584616
210	0x3fa7cadb23030d89	0.046469543479839955
211	0xbfd0f538cf83c952	-0.2649671579848888
212	0xbfe067a6badee209	-0.5126527452294464
213	0x3fdb73728cc7ecc3	0.4289213537992504
214	0xbf6ba287d6d89ee6	-0.0033733990774357124
215	0xbfd2f0afc3414918	-0.29594034259675217
216	0xbfba72e89976b4ec	-0.10331586596176451
217	0xbfcbd00690512443	-0.21728593870855847
218	0x3fd1e49aa0c48958	0.2795778818127892
219	0x3fd56dea8340c7ad	0.33483374421768525
220	0xbfe5c6cd186c6cd2	-0.6805177189848115
221	0x3fdd297e0c5d9c5f	0.4556574936636419
222	0x3fd6465a4a4564f7	0.348043987779945
223	0xbfba9741cde7fb7c	-0.10387049939161658
224	0xbfe925a226d89665	-0.7858439215385259
225	0x3fd672077e993b62	0.35070979464665275
226	0x3fde4e30b12caf46	0.47352235128595443
227	0xbfe16acf9e6fa8b1	-0.5442884535271074
228	0x3fc00f328d301db3	0.12546378988211657
229	0xbfb5e1ef71fed17d	-0.08547874959078246
230	0xbfb55e81d76766a4	-0.08347331532368202
231	0xbfd272bcef15c661	-0.2882530531706831
232	0xbfd9e20a98fa5a9c	-0.4044214719701047
233	0xbfc4308b0f1eeab8	-0.15773142088240433
234	0xbfd13de16a1acf08	-0.2694018875292703
235	0x3fbe5d8218e2514a	0.11861432178040335
236	0x3fdbce4e179e6395	0.43446686083330494
237	0x3fbbc1d0c8909145	0.10842614075278785
238	0xbfbcf19891c14e2b	-0.11306146200632188
239	0x3fd36731b0a3d6dd	0.30317346811294305
240	0x3fa7ffef96c71877	0.046874510913355864
241	0x3fdc3698640b69ad	0.4408322312353004
242	0x3fe79e1fafad6d42	0.7380522185516514
243	0xbfcb4b8f92e9d190	-0.21324343369964227
244	0x3fc1c5c721c39c0d	0.13884820126187983
245	0x3fcac061a45a4dcf	0.20899601483379945
246	0x3fe31b6e71f563ab	0.5970985627892466
247	0xbfe474f693580605	-0.6392777326402103
248	0x3fcef9f1b7f3aba8	0.24200269205115643
249	0x3fdb76cd0644d1eb	0.42912603008451694
250	0xbfc31f645970eeaf	-0.1493955075001074
251	0x3fd5cdd9e9056798	0.340689160880737
252	0xbfc8cfa13521a743	-0.19383635610875602
253	0x3fb8bc3429fbe04e	0.09662176156041477
254	0x3fe869c35e4b632b	0.762910541695509
255	0x3fbb3e5275f06acc	0.10641970996259004

layer1.bias f8 [80]
0	0x3f8768f95b7dd2bd	0.011430690865134147
1	0xbfb3e85bbbccd3c5	-0.0777642568107942
2	0xbfae71ef7f94c716	-0.05946300918948404
3	0xbfd560bca846a5f8	-0.3340293544120807
4	0xbfce93e4e08dc27f	-0.23888836826838042
5	0x3fc02f753ee9dcdc	0.12644830295514609
6	0x3fcf98b63c0c2447	0.24684789592746112
7	0x3fba565510b95d29	0.1028798261480587
8	0xbfb0f782b4ef50f1	-0.06627671162943095
9	0x3fde3e1daad99cc8	0.472541252942801
10	0x3fd3a7888ed04a82	0.3071004290260718
11	0xbfd1421e7bb8c62e	-0.26966058809475413
12	0xbfd220b3e3d7ae26	-0.28324601412052386
13	0xbfa784931c10b101	-0.04593333928673538
14	0xbfa6a1a76869c6fd	-0.04420207166266541
15	0x3fe1092ac603d5f0	0.5323690288047924
16	0xbfb65f638d22f113	-0.0873930186816703
17	0xbfbde73a890cf778	-0.11680951925242578
18	0x3f8073dda95646b2	0.008033496599441168
19	0xbfd33345f0f8c59a	-0.30000446827315275
20	0x3fd111b8cd6a92e3	0.2667066579836456
21	0x3fd742260f216ee8	0.36341239430997385
22	0xbfa21cc075461e1c	-0.03537560874525189
23	0x3fc9621a370fea0b	0.19830634773809694
24	0x3fa36b89d77cb388	0.03792982821901264
25	0x3fa8a2935461c615	0.04811535267880288
26	0xbfc6833805489cb2	-0.1758794809149769
27	0x3fb4c1d4fea65b27	0.08108264176403833
28	0x3fa0aa6daabffea8	0.032550265401366574
29	0x3fc4ce32dd52e584	0.16254268462015997
30	0x3fd4b45fa1b50042	0.323509128491427
31	0xbfc261c64e032680	-0.143608844844767
32	0x3f82723df6d5f537	0.009006961913423523
33	0x3fc725a2c1d4c2ca	0.1808360525551705
34	0x3fd9ba5e57945075	0.40200003197356377
35	0x3fa0406644063f9c	0.031741329005966906
36	0x3fca04acb2449cd3	0.20326765732281746
37	0xbfd784aec9899198	-0.3674733131540733
38	0xbfd5b611bc12e7cd	-0.33923762671076646
39	0xbfd196deedd32804	-0.2748334238536929
40	0x3fdc0ebb0d85ec79	0.4383990890561971
41	0x3fd369f3f347ea29	0.3033418536939814
42	0xbfc22bcc17e4a546	-0.1419615856805569
43	0xbfc8b4b53b57152a	-0.1930147685763271
44	0xbfc28eb1ae221ad4	-0.14497967722510074
45	0xbfa5bb118bb084c8	-0.042442844678825475
46	0xbfb9c1e10426a53f	-0.10061460830060741
47	0x3f9b27c31263bba4	0.026518867490206724
48	0xbfcc7723f79b22ec	-0.22238587942253873
49	0x3f94cbaa7cfba971	0.02030817401729607
50	0x3fd88346442dcf76	0.3830123582658794
51	0x3fc6ca493c3f77f2	0.17804828111451304
52	0x3fe0ef17d12c24eb	0.5291861615561663
53	0xbfc1f01cc99c5f21	-0.14014015049246445
54	0xbf9ea155dc9c99a5	-0.02991232069975926
55	0x3fb0e39920732955	0.06597287218315746
56	0x3fd14ca8d42808d4	0.2703039237823195
57	0xbfc0e8c53063b3dc	-0.13210358488814122
58	0x3f97c8d2608e00c7	0.023227011817198908
59	0x3f96c383a993d47a	0.02223020288962061
60	0x3fb4091fbc955fef	0.07826422075356708
61	0xbf950e7cde05d97c	-0.020563078929137543
62	0xbfa0929bbea1b791	-0.03236853315398414
63	0x3fe618aa9a450045	0.6905110371662962
64	0x3fc1324b95d4f18b	0.13434738937384014
65	0xbfb269d7417bd62b	-0.07192750309680977
66	0x3fd287e36ec1469e	0.2895439702598227
67	0xbfbb951e919440ab	-0.10774413160493405
68	0x3fd16d085b06059d	0.27227982415214474
69	0xbf9350af75efd8e9	-0.018862477849290214
70	0xbfc376874481b1c2	-0.15205469937371957
71	0xbfc62e174001c206	-0.17328158021292966
72	0x3fc3e997e37fc68f	0.15556620224338188
73	0x3fd9a0b5414cdfd1	0.40043383957845174
74	0x3fb657e7e1f2fda8	0.08727883592927432
75	0xbfb5104af8cc7b70	-0.08227985929668846
76	0x3fc73924fde59d55	0.181431411717521
77	0xbfbde6e2ce63a537	-0.11680429018783377
78	0xbfcb3c03923d7e62	-0.21276898041377296
79	0x3fda81dd34c1033a	0.4141762747931811

layer2.weight f8 [80, 80]
0	0x3f975ae10bfc64e6	0.022807613712846918
1	0xbfaa27c425b80a86	-0.05108464203296585
2	0xbfe0ad95b0bc41be	-0.5211895419943671
3	0x3fac6e69549815b5	0.0555298724903354
4	0xbfd553f3a1c080e3	-0.3332490043267297
5	0x3fdd5bd4c09c8f56	0.4587299233410155
6	0x3fd4bc6fe44fb122	0.3240012864687448
7	0xbfb6fc171ebd2a59	-0.08978409290754409
8	0x3fccc0d286782e67	0.2246344715680266
9	0x3fcecc3720c8d04f	0.2406071577148645
10	0x3fdc2ce1d128a428	0.4402393858495679
11	0xbfba89db5b45722d	-0.10366602876951765
12	0x3fb175f6b3395c68	0.06820623279178195
13	0xbfcd0397f5f9bf1b	-0.2266721678783988
14	0x3fbce225a1c0c532	0.11282572936103888
15	0x3fd2d3ae8af83f30	0.29417003222714566
16	0xbfcbd6a80aaacab9	-0.21748829384667603
17	0xbfd635de089ea863	-0.3470378002335847
18	0x3fe1db7d144e0b3c	0.5580430409030224
19	0xbface8a6992b77d5	-0.0564624845480776
20	0x3fce38915aec869f	0.23610131206173876
21	0x3fd3f060071e1a6b	0.31154633231236656
22	0x3fe73161f2525364	0.7247781498759704
23	0xbf9a52f4d62e8898	-0.025707078526132493
24	0x3fe0133fdf5b566c	0.5023497927129035
25	0x3fd43317a640dddc	0.3156184314316002
26	0x3f735c56ca2525cb	0.004726733228673517
27	0x3fd5c5f6c6bf9853	0.34020776185059737
28	0x3facf8e8938fe96f	0.056586521161039786
29	0x3fcdd0250b1ed5f4	0.23291457217207745
30	0x3fdae2cf5a40715a	0.4200933820118472
31	0x3fc13e073d78a4b9	0.13470545293356453
32	0xbfcbabc492bb37bc	-0.21617943920722194
33	0xbfc4b7259e232b9b	-0.16183920117904624
34	0x3fc195a45871d3c9	0.13737921064935524
35	0xbfacda1583d1e27e	-0.05635134920243433
36	0x3fd477cd71004bfb	0.3198121646429965
37	0xbfbc8d892fafa992	-0.11153466619695099
38	0xbfd28c4ffe733e08	-0.28981399391793206
39	0xbf9b24cd96253a73	-0.026507580079221115
40	0x3fc5015924a7c22e	0.16410364427385232
41	0x3fcc744c6821922f	0.2222991474583451
42	0xbfcf48c00feeeb72	-0.24440766122810548
43	0x3fb2ae33048ce0e5	0.07297057019320936
44	0x3fd8a33fbfc62503	0.3849639294426909
45	0xbfdc296a7df0d49f	-0.44002783106709303
46	0x3fb292b6baded624	0.07255117475764244
47	0xbfc9bfb863176167	-0.20116333807414863
48	0x3fd2fd656173eab4	0.2967160655677319
49	0xbfcb44aa434b8670	-0.21303299222840932
50	0x3fa7299f3d7e9a85	0.04523942590394817
51	0x3fd4b312bbbc05c5	0.3234297593445173
52	0x3fcac75c635c1e77	0.2092090115695446
53	0xbfe273c39bd520ee	-0.5766313594440626
54	0x3fc4a1cabbf3f068	0.1611874978769976
55	0x3fd16e764e11d951	0.2723670732879287
56	0x3fd382a6b2575bbe	0.30484931388985703
57	0x3fc01e68ac574255	0.1259280053623281
58	0x3fceb560376447ec	0.23991015152620265
59	0xbfb526e767f4512d	-0.08262487686107951
60	0xbfc10ceba191bde5	-0.13320680035711444
61	0xbfd5cfa7a7d12c66	-0.34079924953829843
62	0x3fd3daa6c213868b	0.3102204222942439
63	0x3fd21e8a5352e4cb	0.2831140340527553
64	0x3fd8dad827234572	0.3883571989254825
65	0x3fd8a425042014f1	0.38501859095443
66	0x3fb2a97f72522772	0.07289883175886105
67	0x3fe1ff0f3cfb05cd	0.5623851958300122
68	0x3fce7354b08e8f4e	0.23789461728039857
69	0x3fd1888f642c08d2	0.2739599683992654
70	0xbfb60e5efc60c95f	-0.08615678464483299
71	0xbfe465be54ed16a1	-0.6374198588097962
72	0x3fe42a3196b7ea63	0.6301505988806863
73	0xbfdddba1bbf4a53c	-0.46653025965732176
74	0x3fc211d42399184a	0.14116908777413278
75	0x3fc97cdd3238ff38	0.19912304832723193
76	0x3fbdfb525bf16855	0.11711611504270654
77	0x3fb4c9f147b0f0fa	0.08120639801285626
78	0xbfb24c612de169ba	-0.0714779603016841
79	0xbfe8768e508513a9	-0.7644721577313379
80	0xbfc70088003bc9a8	-0.17970371257213213
81	0xbfd97e9582325ae5	-0.39835107531091146
82	0xbfa804a843b2bd15	-0.0469105322493936
83	0xbfc0bfd9d0883995	-0.13085482294304698
84	0x3fc3cbe6c7f64d61	0.15466007961058906
85	0x3fdadfe02450635b	0.41991427942553167
86	0x3fb0174197d0de1a	0.06285486179773905
87	0x3fb45ff8f50fe140	0.07958942397079216
88	0xbfd3830ae7c4d0c6	-0.30487320550606645
89	0x3fc9ca26e4eb7351	0.20148168733330832
90	0x3fa5868277097612	0.04204185202682366
91	0x3f971044019439dc	0.022522986027121536
92	0x3fb87873d0db93f2	0.095587957850128
93	0x3fc2c5270b76d67d	0.14664161739135642
94	0xbfccdbd9c0d0ee33	-0.22545930781221699
95	0x3fbecaf4f3e2e69e	0.12028437570816172
96	0x3fbaa1aec5dbb066	0.10402958231469625
97	0x3fb2abe9447b3044	0.07293565675644326
98	0x3fb2bf570b07d006	0.07323211688327555
99	0xbfbc20b53d84d783	-0.10987408401419256
100	0x3fd13557d1387959	0.2688808005495012
101	0xbfd7c15c94914f88	-0.3711768580299055
102	0xbfe0b4ea74185708	-0.5220844523889534
103	0x3fc9c7f3741ddd8b	0.20141451997527002
104	0xbfdd546292684178	-0.458275454498128
105	0xbfc9540593460f48	-0.19787664118859483
106	0x3fb135c4ac395dd5	0.06722668842973374
107	0xbfc8b2627353cf86	-0.19294386512012468
108	0xbfd337120a0402fe	-0.300236234455994
109	0x3fda536f090c23de	0.4113423908570989
110	0xbf977907f2abbe69	-0.02292263430257294
111	0xbf8709106da8b17e	-0.011247757288480594
112	0x3fd580a8f8c6606b	0.33597778601097755
113	0x3fd3d4ab74333f1c	0.3098553309218788
114	0x3fd8f29f4c6d39bc	0.38980848754445296
115	0x3f8a8b6948bbc7a0	0.012961218387747497
116	0xbfc331899eb76325	-0.14994926690885638
117	0x3fb855324a76f523	0.09504999464021018
118	0x3f8487b2746e7719	0.010024446657378715
119	0x3fa7a936c2612ff2	0.04621287462995828
120	0x3fccfabd69cc4d95	0.22640197435303536
121	0x3fcfc9b28f279f02	0.24834281911829953
122	0xbfaaabf3379be0a5	-0.05209312490291155
123	0xbfe2ff8f45cb1a62	-0.5936962474014076
124	0xbfd0c50a4f7e2913	-0.26202638400049344
125	0xbfc6e3e346f4022d	-0.178829583783242
126	0xbfb068bc8cf15bef	-0.06409815255152272
127	0x3fa843610fd4bad8	0.04738906210183352
128	0xbfcff8b86b4eabe6	-0.24977784385313767
129	0x3fb5045398e4557d	0.0820972679396927
130	0x3fd48868d52a1f3a	0.3208257753071738
131	0x3fddf697e4ef0206	0.46817586285399704
132	0x3fb4ee318d9ac169	0.08175954539433906
133	0x3fd4f29f87f9602c	0.32730854300234813
134	0x3fa85a0cd591e405	0.04756202799848811
135	0xbfe362916bdc6448	-0.6057822329195313
136	0x3fd3b0cb607217b8	0.30766567629359143
137	0xbfc15a55314aa7b8	-0.13556923777406182
138	0xbf959c76ca5250dc	-0.021104675387122337
139	0xbfcad7525c03de98	-0.2096960973064952
140	0xbfa9ef5167281dc0	-0.05065397629010304
141	0x3fd4931ffe9df6db	0.3214797960753068
142	0xbfc5286dc835ec74	-0.16529629016790504
143	0xbfd9815d2c933774	-0.39852074959787065
144	0x3fe00a4c03092eb6	0.5012569484037701
145	0xbfb25b8870d25d5f	-0.07170918230473465
146	0x3fcb0c5028e01dcd	0.21131326671478093
147	0xbfe3e63aa3fca36c	-0.6218541338795212
148	0x3fd7b2444448d593	0.3702555338707835
149	0xbfc9caa82669372c	-0.20149709582840936
150	0x3f72457ef8b79638	0.004460807783720315
151	0xbfc86ead4f91b520	-0.19087759385312442
152	0xbf92baea9d1d4d30	-0.018291154708390767
153	0x3fe23eb1a2d8f43b	0.5701530628790644
154	0x3fd3343b688a275a	0.30006299218131505
155	0xbfd92296d6e14792	-0.3927361582219585
156	0x3fc61818316cf06c	0.17261030591351145
157	0xbfc1282fbfab2ee6	-0.13403889521429518
158	0x3fc0c8a82731fa88	0.13112356103734535
159	0x3fe6a74ba2b388ba	0.7079218080291618
160	0x3fbd92159752d423	0.1155103201334247
161	0xbfc4ab329eca1d27	-0.16147454026597893
162	0xbfddeaf2880371be	-0.46746505053104304
163	0x3fc8cb97b3d36a4e	0.1937131527000297
164	0x3fd122e948c118ff	0.26775581459914116
165	0xbfe1f1b5983cafb1	-0.5607555364017484
166	0xbfc90bbf1eeec3fc	-0.19567097673782985
167	0x3fc10bd772e3bece	0.13317387685628151
168	0xbfca81d5647a7717	-0.20708720594569094
169	0xbfb608fd88d727be	-0.08607468214827826
170	0xbfa3b087275a82b4	-0.03845617633237933
171	0xbfd0701b47687636	-0.2568424413055682
172	0x3fcfdf00cb8beee4	0.24899301470565327
173	0x3fc9845443329d77	0.19935086518419684
174	0xbfbcbb3c5e5afd00	-0.11223199180220789
175	0x3fd0b58ce80a0fd6	0.26108095798576636
176	0x3fc418e77e2d0d0f	0.15701001797615574
177	0x3fbbfd151d8de45f	0.10933048221149154
178	0x3fcd2ba0e385e3be	0.22789393529435914
179	0x3fbc7a5163587f62	0.11124142337257362
180	0x3fd36882ebe42734	0.3032538703561045
181	0x3fe535727abf8925	0.6627743146348491
182	0xbfccb6a6eccb0dd5	-0.22432409822623237
183	0x3fcbf1a4dc2396f4	0.21831188916183175
184	0xbfd09920feb9d661	-0.2593462455327878
185	0xbfcc01d1d70e74b7	-0.21880553246311304
186	0x3fb54b9fcf391e44	0.08318518456609875
187	0xbfc12cdcbdb9e69c	-0.1341815878293361
188	0xbfd3916f0f8aba46	-0.3057515765930571
189	0xbfbbbd58c3cd4e9f	-0.10835795193025398
190	0x3fd23b7b2dd34fe6	0.2848804423822443
191	0xbfd1920f886d58c2	-0.2745398361488577
192	0xbfd97264ab20d568	-0.3976070090460184
193	0xbfd2aa54124ea8ac	-0.2916460207731102
194	0x3fd6a0f33c2be819	0.35357361675380755
195	0x3fcbc4c6cf4f6ed7	0.21694264528820525
196	0x3fc35b3d3da0c536	0.1512219000738157
197	0x3fa882d31e2b1822	0.04787311309114296
198	0x3f99ccf332a321a3	0.025195884671832435
199	0xbf9895785f47dbff	-0.0240076835779881
200	0x3fa5c2d977e58493	0.04250220860081657
201	0x3fbb21d2c0f9623b	0.10598485194476208
202	0xbfa80e5751883f5d	-0.04698441381708449
203	0xbfc735168d65387f	-0.181307620087356
204	0xbfbc8c6503e410c9	-0.11151725144378867
205	0x3fa75a3574fb3796	0.045610113649316705
206	0x3fb75ed87d71dc8f	0.09129097998253342
207	0xbfccab196a373b22	-0.2239715355521748
208	0x3f9150174ad0e01d	0.016907085362817143
209	0x3fb1f55d42e74387	0.07015021212943227
210	0xbfe4c3027a2aff03	-0.6488048921673627
211	0xbf93b74e142dec26	-0.01925394056477727
212	0xbfb269faa748e7c7	-0.0719296129617809
213	0x3f8b0b2830a3a7a0	0.013204874023774071
214	0x3fd61158dedd49c9	0.34480878604986437
215	0xbfcc106f33043809	-0.2192515372375399
216	0x3fd6273e70344079	0.34614525754387376
217	0xbfbba1abac91db43	-0.1079356476128455
218	0xbf83aaca180ac4a1	-0.009603098734574824
219	0xbf8b4208066c961b	-0.013309538551378222
220	0xbfc58f84fc88b852	-0.16844236689343234
221	0xbfb689df672f9625	-0.08804126996218338
222	0xbf972923cf85fc1a	-0.02261787370798283
223	0x3fe3b1ee4bc6ab00	0.6154700737000383
224	0xbfc994f5d4bb1cfc	-0.19985840689898982
225	0xbfc961568caaa2f9	-0.19828302257999278
226	0xbfd59a4418d55209	-0.337540649653676
227	0x3f7f531edb297c60	0.007647629291198305
228	0x3fbeb72326a07369	0.11998195355449827
229	0x3fde779d1254e2b6	0.47605063238328726
230	0xbfc699e2919afbe9	-0.17657119855536443
231	0xbf818f0e936b9a28	-0.008573640703116572
232	0x3fc09318afec8cb5	0.12948902692833078
233	0xbfe6b7228930ca6b	-0.7098553351882634
234	0x3fc9f5d1fada8aeb	0.2028143381949897
235	0xbfc5b45ff85ee994	-0.16956710460165125
236	0x3fa8d229d3284cdc	0.048478419328739725
237	0xbfd583c5633c313e	-0.3361676663487464
238	0xbfad5624f5efbcd6	-0.05729785444406736
239	0xbfe81cf32c930841	-0.7535339232056303
240	0x3fb01023cab7d6c9	0.06274627398655776
241	0x3fd63c9e18fd4f0c	0.3474498027837718
242	0x3fddae04250f5776	0.46374610537656424
243	0x3fdd9bb7fff3d0a0	0.4626293181929757
244	0x3fdf073ccf305c0f	0.48481674416820025
245	0x3fd0468eb8232117	0.25430648786688564
246	0xbfbed90932af4cdb	-0.12049920546933228
247	0x3fc4cd136b2fe701	0.1625084184050181
248	0xbfc609b6d014c90e	-0.17217145118917937
249	0xbfb450e2497bdf61	-0.07935919088401767
250	0x3fc54add02333cda	0.16634714705876413
251	0x3fe83f280cb7260c	0.7577095268581515
252	0xbf953df1e42ad1db	-0.020744113494133614
253	0x3fbeeecb2b2acf15	0.12083120159041656
254	0x3fb77c203ad7aedb	0.09173776089272272
255	0xbfd395bc0d5fc0ba	-0.30601407342966136

layer2.bias f8 [80]
0	0x3fd5f74e4bcb9938	0.3432193508328001
1	0x3fc3eee8235735ba	0.15572835660570467
2	0x3f99561c88d6a373	0.0247425516624022
3	0xbfcf59474ac49efc	-0.24491206312926994
4	0xbfc3d53a9cc2e706	-0.15494473127710523
5	0x3fd417a1e19c3f1e	0.3139424041009863
6	0x3fa39582f6141ef0	0.03825005773438572
7	0x3fd3061852042c55	0.29724700936703147
8	0xbfb85b19adcc7a91	-0.0951400803864806
9	0xbfb9433508447ec9	-0.09868174983830182
10	0x3fd05d1123f88669	0.25568035614751367
11	0x3fcbc90deea2d33c	0.21707319404745273
12	0x3fca48f2cc61df95	0.20535120944600452
13	0xbfc24352d036cfad	-0.14267954985336698
14	0xbfc68dc83ea2819c	-0.17620184954013218
15	0xbfc22059ade4b2e1	-0.14161225310217332
16	0xbfc22f801e3b4879	-0.14207459903861144
17	0xbfa45ea7250c3fef	-0.03978464438671369
18	0x3fc1cae082874534	0.139003814444132
19	0xbfc170472be0efff	-0.13623895304215236
20	0xbfa8b27c523c482f	-0.04823673728800803
21	0x3fb12eeda0612007	0.06712231793892452
22	0x3fb5460e8bd18066	0.08310023225340188
23	0x3fd1540cd8f44dc9	0.27075501620239756
24	0x3fab60afd223b980	0.0534720367448811
25	0xbfcb706903dde653	-0.2143679875260199
26	0xbf9ebf7dad389824	-0.030027354905676998
27	0x3fa504645c765412	0.041049133574382904
28	0xbf126d43c900c300	-7.02927229674459e-05
29	0x3fc45bcff01cec38	0.1590518877436311
30	0x3fd12ef89e65a17d	0.2684918925138147
31	0x3fd20c8a02b1a206	0.2820153261477859
32	0xbfab030e90b4c22c	-0.05275769726211296
33	0x3f98cee9a72139d9	0.024226809335511
34	0xbfa8668fbdd82777	-0.0476574820750803
35	0x3fd57be5782ef05b	0.3356870340028359
36	0xbfb46937299de809	-0.07973046079669656
37	0xbf90345e249b790e	-0.015824767097790952
38	0xbfaaf6975aa77f2b	-0.05266259175891571
39	0xbfacc6eb47c4e576	-0.05620513201797454
40	0x3fda1aae559b067b	0.4078784786216613
41	0xbfbdee875c8141cc	-0.11692090996189747
42	0xbfc6c6230e26b30e	-0.17792165938353616
43	0x3f90af7fc7e743f9	0.016294476104864206
44	0x3fdf3a4d187c2590	0.4879334200964758
45	0x3fd9a1f2fbb3516a	0.400509591866714
46	0xbfcc7ba349c9cb61	-0.22252312758390771
47	0xbfbbe41f39b0fc86	-0.10894961508255294
48	0xbfc520cff5508e19	-0.16506385305648122
49	0x3fc5a156c2793c08	0.16898617263584037
50	0x3fc75bf8b1077bd9	0.18249424594884436
51	0x3fcd17c86cf1144b	0.22728829688472482
52	0x3fb4ddb470f434ec	0.08150794751800888
53	0x3fd5e42bf9469b8c	0.3420514997800914
54	0x3fc2d2113418eec3	0.14703574222391155
55	0x3f8b8738b3da0766	0.013441508282315783
56	0xbfa850372da65589	-0.04748699600456081
57	0xbfb4f17778afa8ea	-0.08180948921622969
58	0x3fcf318f310edfc1	0.24369993110098956
59	0x3f73892f1e9a3fb9	0.004769500790317177
60	0xbfc74ee2b54e6b22	-0.18209489682052388
61	0x3fa7e56337a19878	0.046671963253900495
62	0xbfc6a8c7f0787e0e	-0.17702578775150396
63	0x3fc1ec22fe0b21f1	0.14001881985156175
64	0xbfc0b0537338919d	-0.1303810417749788
65	0xbf64e50a266b6ce6	-0.0025506208652196103
66	0xbfd08064e7bdd6c6	-0.257836557684055
67	0xbfd430167ff87748	-0.31543505189062104
68	0x3f830e1cb46ac4fa	0.009304260497943851
69	0xbfbfd3ea91ce795a	-0.12432733592729531
70	0xbfa80622015aca64	-0.04692178980385078
71	0x3fbfa00106ce55e9	0.12353521743928976
72	0x3f18bf486834dae3	9.440307080841761e-05
73	0xbfc087a2f37118d0	-0.12913929831319715
74	0xbfc9f6c98283a058	-0.20284384606134398
75	0x3fc0b33053e262f6	0.13046840759195505
76	0xbfc0f4d551c5d459	-0.13247171871958832
77	0x3fd8f694a6af5e19	0.3900500896247379
78	0x3fb8adf17bc76ecd	0.09640416404675563
79	0x3fd104a3a88779b1	0.26590815980844257

layer4.weight f8 [11, 80]
0	0xbfe8cab2f0f1a036	-0.7747435289320552
1	0x3f84a6c26781305a	0.01008369329806429
2	0xbfc0b234f4c29c4c	-0.13043844176465524
3	0x3fd999e603e7b7dc	0.400018218816397
4	0x3fe9446d7895c289	0.7896029811073088
5	0xbfc3d8838f5e0877	-0.1550449800525404
6	0x3fc8c0f2d96d1891	0.19338832489501503
7	0xbfbbbebe26957441	-0.10837925378787451
8	0x3fe01f85c2c774ce	0.5038479618339353
9	0xbfc0f547e996e154	-0.1324853792737125
10	0xbfd85f25dfb140b6	-0.38080736966095274
11	0xbfedfdf28cb8e238	-0.9372494457703118
12	0xbfda0e7ad3c6a8c9	-0.407133776485932
13	0x3fdc274de52fcdf9	0.43989894277112246
14	0xbfe034e292b8f4da	-0.506455694739681
15	0x3fddd1e6e29f67f1	0.46593639498826095
16	0x3fc07af7019dcb33	0.12875258997845548
17	0xbfd34b2129df979e	-0.3014605435295098
18	0x3fb1eb00b43ef27d	0.06999210739645352
19	0x3fc038771fbe42a9	0.12672318506203809
20	0xbfc5e2fa47afabc8	-0.17098930836013282
21	0xbfe44b0751e87bb3	-0.6341587638634024
22	0x3fc5eedd40450b8d	0.17135205877465545
23	0xbfd95fbdd4b7d172	-0.39646859906431253
24	0xbfd14fd8548e5e87	-0.2704983545058685
25	0xbfba1976b0d3d137	-0.10195104424548594
26	0xbfc08dc4124a72fb	-0.12932635205370233
27	0xbff1a88dc705e415	-1.1036508344971072
28	0xbf97c4ddc133d341	-0.023211922566548585
29	0xbfd424acb38e8dbc	-0.3147384408459535
30	0xbfdd453ef6487d2c	-0.4573514371022209
31	0x3fb3ac4dc431040b	0.07684789695578347
32	0xbfcc6064e9e43256	-0.22169171734312226
33	0xbfcedbce62786e96	-0.2410829525768931
34	0xbfb5524a6213bf49	-0.08328690428220144
35	0xbfe12d1edd57b753	-0.5367578814600428
36	0x3fc98a2d8e71e77c	0.19952935653037318
37	0x3fd8c60744e75405	0.3870866940390559
38	0x3fd31b3b26c9e37b	0.29853705203964126
39	0xbf9af42dc9a85385	-0.026322093423079024
40	0xbfd336eb5ffea684	-0.3002270162056464
41	0x3fd0b8f4749b7c21	0.26128875148237013
42	0x3fd63bd1d9654d9f	0.34740110616731984
43	0x3fc835087027827d	0.18911843754087335
44	0xbfde66bf1db08615	-0.47502115153665275
45	0xbfe9b94d59441434	-0.8038698905444392
46	0x3fd79376dc7f37b3	0.36837550671486524
47	0xbfb05a9576fed8c0	-0.06388219981349419
48	0x3fd29decdcb7426f	0.2908889918735786
49	0xbfa30a4ac69d4442	-0.037187897438919496
50	0xbfdaf45ed7168ddc	-0.42116518978784057
51	0xbfe257e357283221	-0.5732285215650031
52	0x3faeaf4f03876de5	0.05993124883726945
53	0xbfe474220dd32ae2	-0.6391763944642117
54	0x3fb66eae593d18b4	0.08762635878256014
55	0xbfc2f49fb7730bd2	-0.14809032876482192
56	0x3fabd3c1f58a340e	0.054349957678916025
57	0x3fcdee5a547d2474	0.2338364517729904
58	0xbfd7c2bbe4091bb7	-0.37126061696147467
59	0xbfe0c8b09fd77209	-0.5244982835679944
60	0x3fc851142eeb0670	0.18997432986184348
61	0xbfb55eb8035f6076	-0.0834765442117503
62	0x3fb745c8229b7921	0.09090853543191148
63	0xbfd85f9d98ce4b60	-0.38083591387219506
64	0x3fb23a7446afc3e2	0.07120444036242149
65	0xbfc4c0aa6fd36c41	-0.16212969265220248
66	0x3fce05fc6fbd54a6	0.23455768066438515
67	0x3fd2490f9a9d27a2	0.2857092866803389
68	0x3fc3c313debdda51	0.15439079643302248
69	0xbfc99734a8d70cf4	-0.19992693180220267
70	0x3fb68fedf05ebe85	0.08813368910227311
71	0x3fc07837143ad4d6	0.12866867530616471
72	0xbf9e24d8764cd869	-0.02943742963835697
73	0xbfc8c513d2036e86	-0.19351432566223908
74	0x3fbba8f52be14069	0.10804683991705279
75	0xbfc07ee78881ef1f	-0.12887281575592
76	0xbfb35559274acf8a	-0.07552106103213255
77	0x3fd398fa547f5d57	0.3062120270892214
78	0x3fbdaabc1f4443a5	0.11588645709367869
79	0xbfd630e402c4d5f1	-0.34673404951476444
80	0xbfd1fbd47eb97f66	-0.28099548697900045
81	0x3fd171ed52b45e09	0.2725785548841207
82	0xbfb9ea133c3bc48d	-0.10122795315307283
83	0x3fc7a617ed95eeef	0.1847562704168619
84	0xbfe238d2bbae98a5	-0.5694364228882206
85	0xbfd44862b911e0b1	-0.31691806863046695
86	0xbfce1437e38be6c3	-0.2349920140330167
87	0x3fbaa06ad963f07c	0.10401027495749021
88	0x3fa0859c8e8c80f3	0.03226937522981812
89	0xbfc227b114ad9550	-0.14183629522009733
90	0xbfe26cf65706f03c	-0.5758010577915296
91	0x3fd051053359c9cb	0.2549450875732446
92	0x3fa802a0bf055460	0.04689504939839462
93	0x3fd249c1377f1f51	0.28575163287722655
94	0xbfa4d64d1b55ad6d	-0.04069748839068663
95	0x3fb9fb672cd39013	0.10149235577006292
96	0x3fae8979152c237b	0.05964258559658383
97	0xbfd58fe9854b0164	-0.33690870301145126
98	0x3f7e0c798139a965	0.007336115482397741
99	0xbfc26da002576762	-0.14397049059226236
100	0xbf9c0c55ad8c1db3	-0.027390803067673008
101	0x3fca81b4bb08dfec	0.20708331234504784
102	0x3fbfcffcaef59fbb	0.12426738044234657
103	0xbfd2599984ffef90	-0.28671873081452137
104	0xbfd67be96fd188c1	-0.3513129798867674
105	0x3fb8a6d93e6700cf	0.096295907721472
106	0x3f856749b21c76e5	0.010450912235281115
107	0x3fd042d5572ce394	0.25407918465821777
108	0x3fb59ca00656918e	0.08442115931263158
109	0xbfd7b81d8f662ac3	-0.37061251643960363
110	0xbfc12c5083af583f	-0.13416487150124287
111	0xbfcb181397c0003b	-0.21167225751560345
112	0xbfee6df221e5b4de	-0.9509211217934099
113	0xbfd860819d60a40e	-0.38089027756592564
114	0x3fc9d31cac1e3f4d	0.2017551269932433
115	0xbfbdfa0600531c5d	-0.11709630496908248
116	0x3fd5b645a4a86565	0.3392500026689816
117	0xbfdba04338743956	-0.4316566516216843
118	0x3fd41f7b1125847d	0.31442143129795125
119	0xbfd1305ba777d366	-0.26857653955749183
120	0x3fc4f673d876023e	0.16377113408454308
121	0x3fca2de9a265c350	0.20452614240232458
122	0x3fbdd182999c4a15	0.11647812128311615
123	0x3fb7bdb221a3ee3a	0.09273827859208775
124	0xbfac73d9d974ce39	-0.055571372790293734
125	0x3fd33d065ccf4528	0.30059966147844586
126	0x3fc7906db5362c9e	0.1840951094457965
127	0xbfda69f4210776cd	-0.41271689630034986
128	0x3fb0cf5c2f9812d0	0.06566406404460712
129	0xbfef263488715ed2	-0.973413721551845
130	0xbfe438eee89391c9	-0.6319498579510362
131	0xbfc8097626ade104	-0.1877887429107049
132	0x3fce8784904ba6ff	0.23851067586593186
133	0xbfd3dd6c61799a73	-0.310389609518473
134	0xbfd719938c16692b	-0.36093605690406844
135	0xbfac789873a4f6a2	-0.05560757075953161
136	0xbfc5e4ffc800f367	-0.1710509993153224
137	0x3fb64d2c235fc11f	0.08711505759834325
138	0xbfd89abe92851220	-0.38444485004973394
139	0x3fcb8493ed3da2d9	0.2149834545519045
140	0x3fca64dbef5bafcc	0.20620297610673644
141	0x3fcc28335955c73b	0.21997682439865138
142	0xbfdaf57910560473	-0.4212324771434119
143	0x3f8b8e38d366f2ca	0.013454860640984907
144	0x3fddc6070a26ec90	0.4652116393223844
145	0xbfe6378167f84a81	-0.6942755728399136
146	0xbfd1f825408ba83e	-0.28077060035014145
147	0x3fc81865ebf7d259	0.18824457189443214
148	0x3fbf40ec3c3df79e	0.1220843932223645
149	0xbfd2902403ff5a25	-0.290047649291781
150	0x3fcb54679db5edd0	0.21351332855907268
151	0x3fc764b48957064a	0.18276077943851227
152	0xbfd542cbc3959196	-0.3322019014360874
153	0xbfa5b1382c6fc4c7	-0.042367701935185624
154	0xbfe45400ba9574cd	-0.6352542537894351
155	0xbfcd90dbe1afce93	-0.2309832431779922
156	0xbfc40a72560b22a7	-0.1565688057073846
157	0x3fcc0fe31cede994	0.21923483765187923
158	0xbfc9d5d08ef595b7	-0.20183760624347055
159	0x3fb710e9d970ab67	0.09010182913395469
160	0xbfdb4c88fc4dd8f6	-0.4265463317782542
161	0x3fd47544a88b0105	0.319657482712515
162	0x3fb81ec1e070eec9	0.09421931962509257
163	0xbfe4fa5309753710	-0.6555571732257892
164	0x3fc1d8b010aee18b	0.13942528547864827
165	0x3fd8bb6767e9b454	0.3864382281088343
166	0x3f9c09c691134d94	0.027381041149806842
167	0xbfbd475c6926f348	-0.11437013213339953
168	0x3fa1a5ed0d83411e	0.03446903982114889
169	0x3fa1b44c979463b9	0.03457869863831981
170	0x3fce2d619c43d4d7	0.23575992708325685
171	0xbfbac2f0b8dae553	-0.1045370532327941
172	0xbfd1aa17d7e581ac	-0.2760066612591128
173	0xbfcc1c6796869e10	-0.2196168408383845
174	0xbfd0fd282809eaeb	-0.26545146856339724
175	0xbfc765b73ab2a3ce	-0.18279161802391147
176	0xbfd4ff0730863c14	-0.3280656789656302
177	0xbfee84d02fd176ff	-0.9537125524472855
178	0x3fdba86e6438141f	0.4321552256299714
179	0xbfcb6ee1e88febec	-0.2143213639791094
180	0x3fc23ea785a574cb	0.1425370600290193
181	0xbfe71a1654c01e0d	-0.721934476402511
182	0xbfd4b2a334323851	-0.3234031686523667
183	0xbfd3e7bc0243a53d	-0.311018945895359
184	0xbfd10bd81367dab7	-0.2663479032047848
185	0xbfd163a25b3d900b	-0.2717061892528824
186	0x3fc58d7b60316f3e	0.16838018605164423
187	0xbfdf172f17275b91	-0.4857900358305694
188	0xbfc246bf420a9c4e	-0.14278403019599967
189	0xbfe410d931f226a4	-0.6270566916948224
190	0xbfa6f38d9a281b78	-0.044826912944748665
191	0x3f5bf8efbb92c48f	0.0017073002948502535
192	0x3fdaff9ecd974049	0.4218518264506242
193	0xbfdd9d65ff353290	-0.4627318374885272
194	0xbfab84b5b42391f6	-0.05374687026941054
195	0x3fd147ce1a0ff6cf	0.2700076345935089
196	0x3fb7439cb1608021	0.09087542849056308
197	0xbfb4cf760786384e	-0.08129060443590783
198	0x3fa35940d545df93	0.037790323290152326
199	0xbfac78d8709e810f	-0.05560947775598112
200	0x3fc1fdf4dc5b50bf	0.14056263694386037
201	0x3fc6908462a46653	0.17628531281006818
202	0xbfe5680b65c230fc	-0.6689507472488283
203	0xbfc7dd9bb86d6a13	-0.18645044808620578
204	0x3fd0929dc1c84195	0.2589487450032036
205	0x3fbb69569b9f2358	0.10707608508449817
206	0x3fd181d0e71b8aa6	0.2735483414564136
207	0x3fab443304fda564	0.05325469432757293
208	0xbfda9dbcc42938a8	-0.415877524913308
209	0xbff2fa391e49867f	-1.1860896285146791
210	0xbfcf5106afedc38f	-0.2446602210070776
211	0x3fdb77ce2f03fce7	0.4291873416077138
212	0xbf95f0790322c122	-0.02142514306677968
213	0xbfe5d17dbc9d16cc	-0.6818226512775367
214	0x3fdd52fe19b45d6c	0.45819046507081995
215	0xbfd8eac9985012a0	-0.38933029054923374
216	0xbfa68aedaa911caf	-0.04402868945231241
217	0x3fd17a1871a8b8d1	0.2730771169616562
218	0xbfe86894b7b284cd	-0.7627662265623713
219	0x3fdf353044542fde	0.4876213710092524
220	0xbfcbd41ed636044a	-0.2174109025909579
221	0xbfb0d3e408c95a06	-0.0657331963969697
222	0xbfe257fda029778a	-0.573241055313461
223	0xbfe178e3f6440c72	-0.5460071382407377
224	0xbfaec89bf8574a63	-0.06012427717691506
225	0x3fd845e290dc07fe	0.3792654432910466
226	0xbf95ca94336104f7	-0.021280589710163302
227	0xbfe3d8c96d31864b	-0.6202132351574589
228	0xbf8ac20b301bd32a	-0.013065421491299373
229	0xbfc8b8625452e430	-0.1931269561517026
230	0x3fc552b0b9862c95	0.16658600863261044
231	0xbf9b72fc1e012b6c	-0.026805819827397867
232	0x3fd7de6b99983a92	0.3729504585216229
233	0xbfd60fef1b7c1f6a	-0.3447225349814206
234	0xbfe144435f8b0900	-0.5395829073025027
235	0xbfc585ce84694c5d	-0.16814595666309887
236	0x3fbbf905bed20a4b	0.10926853092863913
237	0x3fd4a32d29904828	0.3224594980139295
238	0x3fa4a1cfe810db87	0.04029702861628608
239	0xbfe6fd4924614890	-0.7184186659381044
240	0x3fc528701fabbec5	0.16529656931333228
241	0xbfa12f1071c4e23e	-0.03356219662459069
242	0x3fd297149bd46ed2	0.29047122209315746
243	0xbfcbbe9778bc3fd2	-0.21675389666825012
244	0x3fd8a6525e1525c2	0.38515147388224247
245	0x3fb82a1dc62ed77c	0.09439264381839324
246	0x3fdbe3c4c61345e2	0.43577689498223837
247	0x3fcab3928577b9a7	0.2086051131913795
248	0xbfeb71b0d92bdc8c	-0.8576282731654756
249	0xbfc2955586f46a1b	-0.14518231477343665
250	0xbfe581fd8e568e68	-0.6721179752389164
251	0x3fc60bd34f1b543b	0.17223588335642312
252	0xbfb2b4eb3e7af8bb	-0.07307310367011415
253	0xbfd092a75be76e47	-0.2589510343075045
254	0xbfe2d524145ee12e	-0.5885181806434383
255	0x3fccaeb474ec9c02	0.22408157071296847

layer4.bias f8 [11]
0	0xbfd11ff201efd6c6	-0.2675747889437442
1	0x3fa318c235e0bda4	0.037298268391505546
2	0x3f96c3bdf908399b	0.022231071781840233
3	0x3f76d983671ff69d	0.005578530590353428
4	0xbf38d454c7ff5f2e	-0.00037886686186315826
5	0x3fc9c6af8464644f	0.201375903744323
6	0xbfb07c5fa21f814e	-0.06439779003222165
7	0xbfd168394bd86478	-0.27198631674543305
8	0x3fcea233d23cf225	0.23932502522974733
9	0xbfc520352c39ae4c	-0.16504540118636368
10	0x3fccd2307007b246	0.22516446562021225
