attack_soft_generative_decision_tree/experiments/vowel_params_state_dict/fnn_epoch254.pth (torch, 69599 bytes, 6 tensors)

layer1.weight f8 [80, 12]
0	0x3f99736040f3519a	0.024854186977636063
1	0xbfd3528773d6e9a2	-0.3019121772046224
2	0x3fcf695858aa10c9	0.24540237740814622
3	0x3fb4008195997571	0.07813272383051185
4	0x3feb33d9f882112e	0.8500795224831899
5	0xbfca4fbd016fae91	-0.20555841989640958
6	0xbfe83e9e115adb48	-0.7576437319720322
7	0xbfe138b825cbef29	-0.5381737459387966
8	0xbfe18ede9c883a3e	-0.54869013378795
9	0x3fdf9a395d7037fd	0.4937880909427575
10	0x3fc89ab1aa7c713d	0.19222088646427862
11	0xbfdc392f0be6a124	-0.44099022066304117
12	0x3fa6773644d78e5c	0.04387826528889313
13	0x3fa37005f4a60569	0.037964044679948135
14	0xbfd77a402783a467	-0.36683658465205443
15	0x3fdf3887f6a0bb64	0.48782538494827166
16	0xbfd2eb0bb3370275	-0.2955960512299847
17	0xbfe27edcdc96050f	-0.5779861744232749
18	0xbfd5bf4ff4822420	-0.33980177762765784
19	0x3fd9f5f1938873ff	0.40563620955964547
20	0x3fd9bf5af7156053	0.4023044026303115
21	0x3fd539d6090f53d0	0.33165503391984164
22	0x3fe577c4e602d935	0.6708702556996174
23	0xbfdcb333cb8122d0	-0.4484376418445608
24	0xbfb410b681b83c83	-0.07838001887306416
25	0xbfef2edb202a9861	-0.9744697216272123
26	0x3fc83eff9d4485b7	0.18942256144604894
27	0xbfe80e461abcc6ab	-0.7517424127783746
28	0xbfdd5f0b9a0821c3	-0.4589261059013802
29	0x3fd528762fd84436	0.33059458420126775
30	0x3fb53122b9b489fd	0.08278100045985322
31	0xbfc9f7b968ee1cf8	-0.2028724443773411
32	0x3fe1f7e0280e868e	0.5615082533224312
33	0x3fa9a529cf4d987f	0.0500882211261322
34	0xbfe0431fae9cbdf4	-0.5081938181301084
35	0xbfc8bf6b8bbc0042	-0.1933416778847477
36	0x3fb44fe67673d520	0.07934418098360085
37	0x3fbf9a4a17ce0031	0.12344801980179977
38	0xbfed83413a569c55	-0.9222723140163774
39	0x3fd0acccbb318612	0.2605468586026244
40	0x3fe179019120bd35	0.5460212549714131
41	0x3fd0f4840019ce38	0.2649240494713214
42	0x3fd67cc7af6cc08d	0.3513659680493298
43	0x3fb70955dfc8cf6a	0.08998619760023777
44	0xbfc25622eec26f46	-0.1432536760156557
45	0xbfbcc33390936ef0	-0.11235353736577358
46	0xbf9d7e5069297f4d	-0.02880216256960404
47	0xbfc73a9577411e0f	-0.18147533724753415
48	0x3fb0f175cb410349	0.06618438923125071
49	0xbfcf3c274e4def58	-0.24402324031313571
50	0x3fc6e16cdb9d8a20	0.17875443194778118
51	0xbff216d566e72cc5	-1.1305746097230422
52	0xbfe8d062cee4d8ee	-0.7754377404114885
53	0x3fcfd91da47304d8	0.2488133481001913
54	0xbfc59e87515a9bad	-0.16890040848121882
55	0xbf92e2d6e8a49d92	-0.0184434489721333
56	0x3fcb96fa38f5c74b	0.21554496556523825
57	0xbfd9144f834c7f17	-0.39186466047429874
58	0x3fc257bcf07cc8a2	0.14330255262899977
59	0x3fd0e1790b6d441d	0.26376176944637725
60	0xbfc86182cb607030	-0.19047579699042805
61	0xbfdb39f9bb099289	-0.42541354432459194
62	0xbfbf4f0d30556e7e	-0.12229998044989007
63	0x3fa7a8206a6aa9bc	0.04620457934409525
64	0xbfb8f7d9fcf6ac8c	-0.09753191400402467
65	0xbfdd476ef1c712dc	-0.45748494731041744
66	0xbfe098a82ebba771	-0.518634883189618
67	0x3fdb9556384dd318	0.4309897947162411
68	0x3fda5b45008817f7	0.4118206505958137
69	0x3fcac4feac900b0a	0.20913680482780023
70	0x3fe014af9bde95bd	0.5025251430822021
71	0x3fd884e7e65c84ae	0.38311192985754416
72	0xbfb4a454e5bc9f60	-0.08063250168617975
73	0xbfe4cceba6c18cf5	-0.6500147110895386
74	0x3fe04f0545de83c5	0.509646069014814
75	0x3fe2b7784ad54b7c	0.5848962270341498
76	0x3fb46747e1d3a329	0.07970093978259442
77	0x3fd9bb6e7326775a	0.40206490750448654
78	0xbfe1d67a0b17848f	-0.557431241668512
79	0xbf779c298877b5a0	-0.005764162291126779
80	0xbfdced8e0ccbc569	-0.4519991993866684
81	0x3fd5238697e18d3f	0.33029332000861084
82	0xbfc606e7b1fc431b	-0.17208572569554623
83	0xbfa79ec10e1865d4	-0.04613307282506765
84	0x3f9cdc8d5b078f3e	0.028185089760781816
85	0xbfe1c2ff23ecbfa5	-0.5550533010154949
86	0xbfc4290e3883b5ef	-0.15750291594979113
87	0xbfe4373a36e3d87b	-0.631741625983309
88	0xbfd57d6896b95507	-0.33577933043609715
89	0x3fe1f3ad03105741	0.5609955844726998
90	0x3fdc7a51077faf89	0.44496560795118306
91	0x3fd0c77ea0cb8a1c	0.2621761865868011
92	0x3fe3f5bb3bf9ffd4	0.6237465068261323
93	0x3fe4d22161def57c	0.6506506835500399
94	0x3fcc30630c25dfc3	0.2202266511264935
95	0x3fd2c9783a73c695	0.2935467310736411
96	0x3faf84334bdae651	0.061555483827259956
97	0xbfc3cc41a44f5393	-0.1546709110540659
98	0x3fb1451d7d1aeadd	0.06746086410832271
99	0x3fe02641188cec0a	0.5046697120191095
100	0xbfccf828646d7c7d	-0.22632317451186515
101	0xbfcd9ac0517eeace	-0.23128513316426907
102	0x3fb7f04ac0f577cf	0.09351031504544881
103	0x3fe36a8725ddbcfe	0.6067538966725861
104	0x3fdbf8f35feb237d	0.4370697437957956
105	0xbfd9880cc761c5e3	-0.39892882796183765
106	0xbfd70528343ba3cc	-0.3596897611701564
107	0xbfba34c441bbc8d0	-0.10236765484640675
108	0x3fbd6869e9cf3f04	0.11487447698823067
109	0xbfcac9eaa0953ad4	-0.20928700295413327
110	0x3fe449c283c31a95	0.6340038846472732
111	0xbfc0333397a2d0ab	-0.12656254676915543
112	0xbfbf36607dec719e	-0.1219234759741483
113	0xbfcef28ec5580ca5	-0.24177727352080072
114	0xbfc235fbbe00c6e2	-0.14227244164935998
115	0xbfda4125f30df183	-0.4102263330057882
116	0xbfce22a4c32c2fb6	-0.2354322388640619
117	0x3fcdca01088723dd	0.23272717396164824
118	0xbfd889e9e4f802e9	-0.3834175811789878
119	0xbfd79f4e960f7d6b	-0.3690983262476581
120	0x3fbfbf5dd5f98ad2	0.12401377176278608
121	0x3f944b4fe6244ca7	0.019818542882671732
122	0xbfaaf2cfd2ef73ba	-0.052633757113404525
123	0x3fd80ddec9a63a3c	0.3758465737563801
124	0x3fcab995d3bd1b5a	0.20878861273578303
125	0xbfd117d298cc9122	-0.2670790188006028
126	0x3fcda7519d7dce72	0.23166866483699128
127	0x3fe0f67b43917bca	0.5300880737012161
128	0x3fd8a1dd76f5de9c	0.3848794614527635
129	0x3fe25bd3881d39ca	0.5737092646102664
130	0x3fbbfee8c8365039	0.10935835731498934
131	0x3fd0e559b908fe54	0.2639984423621844
132	0x3f805bbb80bb7103	0.007987465730757487
133	0x3fc19c6d9dc3680a	0.13758630946432532
134	0xbfc0255a0306480a	-0.12613988063509424
135	0xbfe4bdcedd43c9ba	-0.6481699296548904
136	0xbfcd579110c79431	-0.22923482245747231
137	0xbfc33d15c2f5241a	-0.15030166644490423
138	0xbf9604c65815a4c4	-0.02150258934617423
139	0x3fe6f9d9877cee05	0.7179992338419089
140	0x3fe72a5088474d50	0.7239153539361869
141	0xbfa220e77b485c66	-0.035407289313462084
142	0x3fd8ee8e664eb199	0.3895603179069212
143	0x3fa91a1e3adceb11	0.049027390180034776
144	0xbfa1af4b469bfe21	-0.03454051243715762
145	0xbfbf49563cabfd20	-0.12221278172727468
146	0x3fb044e050d5123e	0.06355096791691836
147	0x3fb7021a0c586006	0.08987582017323356
148	0x3fe1691b1958ba70	0.5440803046274834
149	0x3fce7fdb08948d91	0.23827684325179324
150	0xbfdf35245cd0a87d	-0.4876185327908685
151	0xbff2363a7d5ab05f	-1.1382393738413368
152	0xbfd494218896f205	-0.3215411981471166
153	0x3fc146b8df7c3568	0.13497076904642857
154	0x3fe3b41f373403ea	0.6157375410258485
155	0x3fd0b6b060a8f24b	0.26115045012901267
156	0xbfc921bcbd0d1c9a	-0.19634207945839394
157	0xbfddf7497ab0dce9	-0.4682182024148021
158	0xbfdce2e35bb971d6	-0.45134815175495413
159	0xbfc506a9637c9e0a	-0.16426579816582915
160	0x3fe79d791ca392fe	0.7379727897028656
161	0xbfd1009d7115bfd8	-0.2656625370354937
162	0xbf6097e8edd72f8f	-0.0020255612750811956
163	0x3fde7e0558b5970e	0.47644170439740285
164	0x3fdc790356ddbc71	0.44488605006239995
165	0xbfe382b005652a7f	-0.609703074014149
166	0xbfbb7fc41c21ac71	-0.10741830527119746
167	0xbfe1c514683a47f8	-0.5553075824448106
168	0x3fa895f7509d718a	0.04801915034360878
169	0xbfafc43be63172b9	-0.0620440214631563
170	0xbfe0bb62f085214b	-0.5228743264824883
171	0x3fd4ef6ea762a7d1	0.32711378427722787
172	0x3fd837d1c1257854	0.3784069429583543
173	0x3fe4ed6d1af505dc	0.6539826895242942
174	0x3fb1f8512015559c	0.07019526513371094
175	0x3fce0741a6b34d12	0.23459644927661621
176	0x3fd530afe9c200c3	0.33109662845528137
177	0xbfc21d73b335b86a	-0.14152380228501055
178	0x3fe2a9029ad0e952	0.5831311248541999
179	0xbfc1e78c4288b343	-0.13987878082971336
180	0x3fb8ed006b802975	0.09736635803725398
181	0xbfa640b4f95349aa	-0.043462424693319804
182	0x3fe4cedb6de239f1	0.650251116386981
183	0xbfd0b596b0c534b9	-0.2610832906983194
184	0xbfddc63da85a993c	-0.4652246612626134
185	0xbfe3a5eca4e17b9d	-0.6140044422462442
186	0xbfd3c74242369a83	-0.3090367933859072
187	0xbfd23f8da8ebadd9	-0.2851289891829914
188	0xbfc18915179da7fb	-0.13699592259519008
189	0xbfd35cf2a73fc56d	-0.3025480874340108
190	0x3fd048660810da7a	0.25441885745696136
191	0xbfa2037c36cdf18b	-0.035182840051649476
192	0x3f996584f0d54a91	0.024801327895441153
193	0xbfc178294eebba95	-0.13647953370624025
194	0xbfd57ec901fd8707	-0.3358633536755495
195	0xbfd4cb14298df795	-0.32489494379103095
196	0x3fd80923d2f6e1e1	0.37555785753241194
197	0x3fbd807cffa08ea0	0.11524182549379214
198	0x3fb2e7ea4caed06b	0.07385124561443639
199	0xbfe8543542124263	-0.7602793016868187
200	0xbfd14455693a912a	-0.26979575420615964
201	0xbfbf376ef55ad3f7	-0.12193959703547806
202	0xbfd88e3f5d0c9de3	-0.3836820992168823
203	0xbfd3b65b8ffb5400	-0.3080052286216528
204	0xbfd3c707cbe59d88	-0.30902285491762216
205	0xbfb4ec2fbe4e4a0b	-0.08172891994608038
206	0xbfd98aab52e192a2	-0.3990886983286065
207	0x3fb5b63093ba3161	0.08481124502777028
208	0x3fdd2d7f5d97c7a9	0.4559019483559675
209	0x3fd220a776ee238c	0.2832430516651179
210	0x3fa85169e7963751	0.047496137161131664
211	0xbfd0f8a1e9488c1f	-0.26517532140332095
212	0xbfe065ff4947cb96	-0.5124508315333169
213	0x3fdb6e3dedf5e7d9	0.42860363233887494
214	0xbf700ffcf9cbb5eb	-0.003921497522907806
215	0xbfd2e22545a71e6d	-0.29505283166915924
216	0xbfba8a7585dbf1d7	-0.10367521780057785
217	0xbfcbc3ec01489832	-0.21691656172441892
218	0x3fd190527695a7cf	0.2744337232639937
219	0x3fd56c919258e422	0.3347515038654497
220	0xbfe5a646359a3019	-0.6765471503181316
221	0x3fdd2b5772306abd	0.45577036048204517
222	0x3fd5e93689e8a94b	0.3423591944471311
223	0xbfba42d9c46c8d23	-0.10258256001957426
224	0xbfe91a37a8de6499	-0.784450368711208
225	0x3fd66834729f1ad5	0.3501101607657067
226	0x3fde6decad398afd	0.4754592601440633
227	0xbfe155dd55c1ea9f	-0.5417315173102287
228	0x3fbfad7766d550cb	0.12374063740327583
229	0xbfb5bce4fdf0baeb	-0.08491355132785443
230	0xbfb44bbc1c147fda	-0.07928062139080741
231	0xbfd2670319a043aa	-0.28753736021558984
232	0xbfd97cc0a1216ebe	-0.39823928580674905
233	0xbfc43656a90a4b8c	-0.1579082799331356
234	0xbfd0e554fc7b6436	-0.2639973130840788
235	0x3fbdd0ae2f3495b9	0.11646546032405682
236	0x3fdb9aedf8c5b009	0.431331150952929
237	0x3fbb963f49e5aa59	0.10776134065751232
238	0xbfbc635b7915e41f	-0.11089107233227978
239	0x3fd324b9684f2081	0.2991164702075438
240	0x3fa7a50608689bf8	0.04618090489048393
241	0x3fdc0fb4fe152c4c	0.4384586793209493
242	0x3fe778e31eb29e8e	0.7335067367138934
243	0xbfcb4aa860b4bc54	-0.21321587297413436
244	0x3fc1d230fe834c23	0.139227031968944
245	0x3fca7dee7ef03027	0.2069681281867599
246	0x3fe2f6bec9b54791	0.592620271645716
247	0xbfe453f70fc7f89e	-0.6352496441102351
248	0x3fcefd4f0411ea13	0.24210536669473068
249	0x3fdb68f24b30de77	0.4282804235731201
250	0xbfc2fc9fb2b4e8fc	-0.14833446718132126
251	0x3fd5ab877c1782ef	0.33859431379646215
252	0xbfc8ba5bbb509a17	-0.19318720480187387
253	0x3fb9b966705c35c4	0.1004852318112262
254	0x3fe85c4bb850f1a7	0.7612665748525175
255	0x3fbb5c78348ac4ce	0.10687972338452598

layer1.bias f8 [80]
0	0x3f852bddf1cea731	0.010337575857039734
1	0xbfb4603b16569b57	-0.07959336562508433
2	0xbfaf8105918c89e9	-0.06153123285027446
3	0xbfd55b23aab2ae33	-0.333687702843892
4	0xbfce6c9cd26ddcf3	-0.23768959307538004
5	0x3fc0005f133a3ccd	0.12501133383600518
6	0x3fcf55991636ed65	0.2447997435063868
7	0x3fb9f3e1536c8dc7	0.10137756621093451
8	0xbfb136923b0461af	-0.0672389406285052
9	0x3fddfa31cb75d770	0.4683956610600637
10	0x3fd36deeb3125dbe	0.3035847424266328
11	0xbfd157ea4b99c9e3	-0.2709909189499326
12	0xbfd237d64bca38fe	-0.28465802575455246
13	0xbfa86fa1dc0a30ea	-0.04772668658287833
14	0xbfa77351a3cb7841	-0.04580168842743194
15	0x3fe0e72ab00e951c	0.5282185972797921
16	0xbfb673646820e2fa	-0.08769824545096219
17	0xbfbe245ffda1f936	-0.11774253790097053
18	0x3f784c156235c394	0.005931933908286963
19	0xbfd337d64908ca8f	-0.30028302318820804
20	0x3fd0e8bc1970818a	0.26420500263522995
21	0x3fd7377e960ce3ff	0.36276211407999875
22	0xbfa3e293c07bbe6b	-0.038838021513467456
23	0x3fc9245aac8164a6	0.19642194197766577
24	0x3fa2c7a2f0fe2764	0.036679355543198594
25	0x3fa8a565e723b252	0.04813688704038967
26	0xbfc6da4a66978f03	-0.17853670129181162
27	0x3fb4647b7b0414dd	0.07965823891943864
28	0x3f9ff7c5cb9f6a88	0.03121861510576676
29	0x3fc459ddf212c31a	0.15899252243027534
30	0x3fd48add82891e39	0.32097566363924873
31	0xbfc29149f8200777	-0.14505886664852216
32	0x3f8222243b0509a5	0.008854182292115828
33	0x3fc6c44f3b11bb96	0.17786589035264616
34	0x3fd98c333184ce19	0.39918212734048236
35	0x3f9db879db87831f	0.0290240326156691
36	0x3fc9a22e48780338	0.20026186502948362
37	0xbfd786939627ce6a	-0.3675888983118286
38	0xbfd5c64c45241749	-0.3402281451420675
39	0xbfd1a50eee1dfb0d	-0.2756993604051992
40	0x3fdbced6cbecac9e	0.4344994536829264
41	0x3fd32ebb58291162	0.2997272835675827
42	0xbfc1ff067d6fa109	-0.14059525608832527
43	0xbfc8b6d88d1e54a3	-0.19308001413870554
44	0xbfc27ae4bbaf0f80	-0.14437541164636158
45	0xbfa60f017a49b53c	-0.043083234956478894
46	0xbfba30fc6f0e433e	-0.10230996810265666
47	0x3f99e93001c412a4	0.025303602321417387
48	0xbfcc85252dbeeb04	-0.22281326993637418
49	0x3f955b4c771c66cd	0.020856089372592024
50	0x3fd85b0de6af0ce1	0.3805575135012998
51	0x3fc66ef258593e4e	0.17526082338234733
52	0x3fe0d7833daec3d9	0.5263076977481617
53	0xbfc2b279c500aca0	-0.14607164496678582
54	0xbfa005a2cb755cb9	-0.031292998634563536
55	0x3fb0828234e4a747	0.06449140349709835
56	0x3fd131b690c43a7f	0.26865924966197235
57	0xbfc0f04fafee35b4	-0.13233371820790085
58	0x3f94439c119f0978	0.019789160323634175
59	0x3f9246becebce454	0.017847997062947776
60	0x3fb31d2fbe9f855e	0.07466410068402271
61	0xbf986e9f68e77b01	-0.023859492090077875
62	0xbfa15d6ea7b17aad	-0.03391595646893584
63	0x3fe5f766835f157b	0.6864502492759778
64	0x3fc0f1b360a365f7	0.13237611979165795
65	0xbfb28f5f610f9204	-0.07250019187592477
66	0x3fd2523df99caa13	0.28626965881508787
67	0xbfbbde54a960e221	-0.10886124739852977
68	0x3fd1484cb66bcb3f	0.27003782095487233
69	0xbf94e1ce94be1978	-0.020392635181928992
70	0xbfc39d57f89fd039	-0.153239246748514
71	0xbfc67277d43a428a	-0.17536828863787363
72	0x3fc3a1d9ad9f5c14	0.1533767793432338
73	0x3fd962e39bfd8faf	0.3966607116074056
74	0x3fb6163cb3c939a1	0.08627681149775991
75	0xbfb59e2e3cb3071f	-0.08444489461819814
76	0x3fc6f5a56cbf20df	0.17937152681248045
77	0xbfbe268c6fa250bb	-0.11777570462646995
78	0xbfcb17ce778fe764	-0.21166401708597526
79	0x3fda6ec02955dd90	0.41300968205128985

layer2.weight f8 [80, 80]
0	0x3f974a16d1cb6e70	0.02274356513485859
1	0xbfaa6f6ded408881	-0.05163138886588659
2	0xbfe09fd16d004253	-0.5195090416837708
3	0x3fac3862de7ad0c6	0.05511769262139547
4	0xbfd54ced2e818a49	-0.3328202203903499
5	0x3fdd4614298c7fc9	0.45740226800444056
6	0x3fd4aa8ee41f9cd9	0.3229100444572857
7	0xbfb70dfeec6565c2	-0.09005730887783783
8	0x3fcc55ce8326c098	0.22136861232639116
9	0x3fcec0fd84d60491	0.24026459680684245
10	0x3fdc04cbe0bd7907	0.4377927489021122
11	0xbfba784ce27a7da0	-0.10339813737163306
12	0x3fb154e599233998	0.06770167340002897
13	0xbfcd416d90b9a26d	-0.22855920378357855
14	0x3fbc6908783099de	0.11097767767260033
15	0x3fd2cdd8c04a1fe1	0.2938138845279337
16	0xbfcbaed81a5fc44e	-0.21627332008168526
17	0xbfd6329e2001d627	-0.3468394577570017
18	0x3fe1bb5e8c2230a4	0.554122232149457
19	0xbfadb50e5d335193	-0.05802197349263163
20	0x3fce1199d2ce5cc9	0.2349121360136677
21	0x3fd3eb2dbe9d4c62	0.3112291680783469
22	0x3fe711b3768453ac	0.7209107699187505
23	0xbf9ad4dcbe87a02b	-0.026202630166068424
24	0x3fdfff48fc7928af	0.4999563661155077
25	0x3fd3ffee7062f6ac	0.31249581313373187
26	0x3f678a4004f03eb9	0.0028735399605535864
27	0x3fd59bbb852456f5	0.3376301574911474
28	0x3fad27d2fd0045c2	0.0569444593276205
29	0x3fcd77f6edd505a5	0.23022352803131443
30	0x3fdab35915fcbe85	0.4171965326995422
31	0x3fc0bdbbf58aa414	0.13079022874197277
32	0xbfcb8923e1556985	-0.21512268545741278
33	0xbfc4c63a7f14f7d1	-0.16229945378466806
34	0x3fc17d9e8079b96c	0.13664609215943402
35	0xbfad39ad345204a6	-0.057080662380948596
36	0x3fd458832ecd9995	0.3179023701726689
37	0xbfbcdf9f62d6cf7a	-0.11278721011222884
38	0xbfd2636dfbc50ac0	-0.2873187025726729
39	0xbf9bb8b869cb6e69	-0.027071839768593984
40	0x3fc4df848cd6555c	0.16307122113054617
41	0x3fcc4df8e41d0742	0.22112952364300936
42	0xbfceff1480c9af01	-0.24215942657917114
43	0x3fb258f660255ff8	0.07166995856584879
44	0x3fd8758326173b18	0.3821723815898834
45	0xbfdbf891919d36c6	-0.4370464250576841
46	0x3fb271e99ff489a4	0.07205066828877321
47	0xbfc9cf5d8c95ec5b	-0.20164079060109227
48	0x3fd2e2d6c82ec869	0.2950951533231377
49	0xbfcb4c7ca3a578d0	-0.2132716940931858
50	0x3fa849295b4e47fe	0.04743317832539161
51	0x3fd494b1ed5c87c7	0.3215756242735747
52	0x3fca757688a9cfb5	0.20670968697561212
53	0xbfe26a24891657df	-0.5754568746076493
54	0x3fc49195650a21ab	0.1606928580624872
55	0x3fd14bb1c92980e8	0.2702450241540775
56	0x3fd34e8e89cd40d5	0.3016697259636321
57	0x3fbfb36aa445e6de	0.12383142958233459
58	0x3fce8e10f664a558	0.23871051817813327
59	0xbfb52b077666c7ca	-0.08268782272969513
60	0xbfc107be61ca5217	-0.13304881834905366
61	0xbfd5e499f2118f5b	-0.34207771911154844
62	0x3fd3cd02a3274e1c	0.30938783581697904
63	0x3fd1bc34cfb8530d	0.27711220059545455
64	0x3fd8c380b42defe4	0.38693254085205653
65	0x3fd881354c5133c7	0.38288624241687014
66	0x3fb2190eb2ea135f	0.0706948458483345
67	0x3fe1f4c51ed3f8f3	0.5611291505918231
68	0x3fce47f281784b4f	0.23657065698406618
69	0x3fd1932e1aae177f	0.2746081600711178
70	0xbfb65cdc81f8c9fd	-0.08735445187702591
71	0xbfe44f9a80ce4ef4	-0.6347172275295336
72	0x3fe4060ddc4128ce	0.6257390310140865
73	0xbfdde79dda7ca684	-0.4672617562924659
74	0x3fc2065e4d29a8a1	0.14081934707366364
75	0x3fc96f3aa643520a	0.19870694273289785
76	0x3fbd9b45efbaeae7	0.11565053084170139
77	0x3fb4977162d1df2f	0.0804358354815775
78	0xbfb269b0f40df2d6	-0.07192522009240618
79	0xbfe87ff20cc1153b	-0.7656183480363902
80	0xbfc7160e97cfa828	-0.18036062634138372
81	0xbfd926e416d0dd73	-0.3929987166224784
82	0xbfa8b14ff8d77266	-0.048227786184473584
83	0xbfc0c058ee3ad030	-0.1308699763518475
84	0x3fc385540bfe58a7	0.15250635705587465
85	0x3fdad57aa14aaf46	0.4192797255625361
86	0x3fae8518205b1767	0.05960917849510743
87	0x3fb40f2fad52595a	0.0783567236088393
88	0xbfd376ba3cf96ef6	-0.30412155108000094
89	0x3fc9914f4eb749ea	0.19974700301698017
90	0x3fa51fee955e2212	0.041259246571886746
91	0x3f986b723471e046	0.02384737439248876
92	0x3fb87366ec5acb21	0.09551089544656267
93	0x3fc3534e6b49fc57	0.1509798072692969
94	0xbfccd3219590abc5	-0.22519321253761695
95	0x3fbeaa7aaf20d214	0.11978880668250041
96	0x3fbab417af8e7b53	0.10431049381302886
97	0x3fb3356fca4cafab	0.07503412903741828
98	0x3fb24359055d0e97	0.07134014492936057
99	0xbfbc2e6e26126e11	-0.11008346967212669
100	0x3fd0fc00a8ba7f85	0.26538101651566876
101	0xbfd7e2e6cef8940d	-0.3732239743424664
102	0xbfe0c540f16215db	-0.524078818751771
103	0x3fc99697abfc8d74	0.1999082174089427
104	0xbfdd389ef4544b71	-0.45658086643486856
105	0xbfc91b6c0c2c68bb	-0.19614935488136162
106	0x3fb1d5e1d0eca1f8	0.06966983175937702
107	0xbfc8d0627c453c30	-0.19385939662831353
108	0xbfd32d799b4056e1	-0.2996505752683856
109	0x3fda2658586847fd	0.4085903991082203
110	0xbf98ce19765c9dd6	-0.02422370705531115
111	0xbf85cf9189acfcf4	-0.010649811758069984
112	0x3fd53c763b2674ed	0.3318152978552707
113	0x3fd3a338189ca2e2	0.3068371048307609
114	0x3fd8d30c530236e3	0.38788135629952886
115	0x3f883855de131025	0.01182620128600582
116	0xbfc332dcf9da5cad	-0.1499897212968099
117	0x3fb84400d397455b	0.09478764692109591
118	0x3f84a245f5777856	0.010075136712597448
119	0x3fa75df53eca439d	0.04563871757012026
120	0x3fcc99612309af45	0.22343076906997275
121	0x3fcf8492b55ef1d3	0.24623330932617069
122	0xbfaa5730f4a3aabf	-0.05144646631545901
123	0xbfe2b89cd6b3fc1d	-0.5850357240123035
124	0xbfd0717011ec337c	-0.2569236922288878
125	0xbfc6a3e09e6b379f	-0.17687614188474485
126	0xbfb06f3363f4d0ba	-0.06419678869571302
127	0x3fa7109858ebe5cd	0.045048485617325086
128	0xbfcf9bf7f1927b58	-0.24694728179471315
129	0x3fb4a797b282cbf8	0.08068225963761211
130	0x3fd43b585cca121d	0.3161221414705169
131	0x3fddcc1af73527bf	0.4655826009881103
132	0x3fb49ef257f6fc2e	0.08055033347680826
133	0x3fd4cfefa4bfaa33	0.32519141281833014
134	0x3fa86ca2f6ef565b	0.04770383133260899
135	0xbfe360a408c56e69	-0.6055469676316082
136	0x3fd3a4a47fa1400c	0.3069239851365644
137	0xbfc0db7ce5a31405	-0.1316982384943516
138	0xbf9606058d3428b4	-0.02150734590853949
139	0xbfcab3b899f5264d	-0.20860965268575385
140	0xbfaa8c45440b2138	-0.051851429515922864
141	0x3fd479fea3a43652	0.3199459646283219
142	0xbfc551e42208ac3d	-0.1665616193944021
143	0xbfd9a4aa03b5fa42	-0.40067530023944553
144	0x3fdfe9ca019147d9	0.49864435341907903
145	0xbfb2aff7d13c454b	-0.0729975591496174
146	0x3fcae77c0fa32681	0.21018934978046747
147	0xbfe3f67684257f1b	-0.6238358098016507
148	0x3fd79ebc5881fcaa	0.3690634598096475
149	0xbfc9da2b79e0dfd7	-0.20197051478476055
150	0x3f72d58ba6d57797	0.004598184122498148
151	0xbfc8549fb9f2224e	-0.1900825174273159
152	0xbf93e96f9200745f	-0.019445174490204994
153	0x3fe239dd029d0a4d	0.5695633936923713
154	0x3fd304502ac2fe82	0.2971382539362609
155	0xbfd90cba7dbccbaf	-0.39140188483286925
156	0x3fc5ea430c089c56	0.1712116059072481
157	0xbfc0f67e1d5e418f	-0.13252235826486156
158	0x3fc081bdc8ed5521	0.12895939169781293
159	0x3fe68e3bbeeb4aff	0.7048624733818939
160	0x3fbd66a00bd16db2	0.11484718597915025
161	0xbfc4bb942c71c85d	-0.16197445078029463
162	0xbfdde06b1971ac50	-0.46682240948456855
163	0x3fc89b38635f742a	0.19223694660368668
164	0x3fd0c79ab7dd15b9	0.2621828837912648
165	0xbfe1f351725da238	-0.5609519227701361
166	0xbfc8fd5f3f07611e	-0.1952323014982164
167	0x3fc0f64b1d6a5c3b	0.13251627861311185
168	0xbfcab1b4d557eb23	-0.20854816834602116
169	0xbfb62538925e5d42	-0.08650544713451772
170	0xbfa491eabe00855b	-0.040175758069618005
171	0xbfd07b028b7ad25b	-0.2575079309565688
172	0x3fcfcebe4e88b718	0.24849680742902858
173	0x3fc8d8134d9b158a	0.194094097989517
174	0xbfbd17521c7d19ce	-0.11363709636234562
175	0x3fd09c7073a85dc9	0.25954829497046866
176	0x3fc40f8ddcdd5d63	0.15672467502984508
177	0x3fbbbdfeeb879408	0.1083678555510944
178	0x3fccc0275425894d	0.2246140633461188
179	0x3fbbd6d6d7067fbb	0.10874693631785608
180	0x3fd35e29d42ac472	0.30262227744521575
181	0x3fe5168e47e6387f	0.6590033916743464
182	0xbfccb3f6cb42bc99	-0.22424206662023918
183	0x3fcbc464e7ccbce2	0.21693097418162838
184	0xbfd0a15a438b9d2a	-0.25984818073489413
185	0xbfcc6fe1940bfaaa	-0.2221643422016844
186	0x3fb4f8fb8315af6d	0.08192417097387557
187	0xbfc139689bb9041c	-0.13456447223328005
188	0xbfd3914bab441c14	-0.30574313855362445
189	0xbfbc7ceeb4ffd180	-0.11128131789138784
190	0x3fd21d4eca33dc00	0.2830388044962433
191	0xbfd1c50b3c44a9c3	-0.2776516045147696
192	0xbfd9793fc52eb914	-0.39802545791725774
193	0xbfd2c0f2db265e89	-0.29302665139537304
194	0x3fd64106f46dff41	0.3477189433105999
195	0x3fcb9d373a2a9a1f	0.2157353433623976
196	0x3fc31b1a9f3aa35e	0.14926464819771018
197	0x3fa77c181a7f74e8	0.04586863826237125
198	0x3f99d9d1f41de3a5	0.025244980358795428
199	0xbf9938ecbc64a61d	-0.024631213186841906
200	0x3fa538fb9b78a033	0.04145036957589845
201	0x3fbac382ba558ee2	0.10454575585532269
202	0xbfa8a4b856e776ec	-0.0481317144474199
203	0xbfc762010aaa1be3	-0.18267834683157877
204	0xbfbce33e9be294a7	-0.11284247689998726
205	0x3fa8f0924cfba04e	0.048710414788559406
206	0x3fb767c1c593cc56	0.09142695497193762
207	0xbfccb01ad1d60fac	-0.22412429090411246
208	0x3f906885530548b5	0.016023715202501083
209	0x3fb19af0a32e9fc5	0.06877044662417038
210	0xbfe4e3425a2a4e89	-0.6527416001358272
211	0xbf9667c79a236be7	-0.021880263121470647
212	0xbfb37c06ea45fe54	-0.07611125201764796
213	0x3f7997e37053cfe6	0.006248367722253767
214	0x3fd5f28a72e93f57	0.3429285165957387
215	0xbfcc1ba3f6f9f15e	-0.21959352073089183
216	0x3fd5da8e8e318cb9	0.34146465192879877
217	0xbfbc4eb5e4413d36	-0.11057602713230072
218	0xbf84883dcae4ad19	-0.010025484804450134
219	0xbf8cf0f60802e729	-0.014131471747862516
220	0xbfc56d83426bdb0e	-0.16740456336238946
221	0xbfb65099c9560122	-0.08716736951283058
222	0xbf98a739c921e3de	-0.024075415516992986
223	0x3fe35cdddc73f961	0.6050862603877186
224	0xbfc9ac1ebd2c63f1	-0.20056518780691548
225	0xbfc9502450c4304f	-0.197758235394192
226	0xbfd5a6bc5c0d1a40	-0.3383017443597147
227	0x3f7c2ecf995b7c96	0.006880579885289914
228	0x3fbe8946267d8720	0.11928213538842813
229	0x3fde2a79e441c848	0.4713425377914331
230	0xbfc6bb45d4b1eb8d	-0.17759011159418173
231	0xbf855ec5c0720674	-0.010434670386760582
232	0x3fc02ef0f6b77a61	0.12643253370966348
233	0xbfe6ba5353a91893	-0.7102448114390135
234	0x3fc9b9716bb041ef	0.2009717727492126
235	0xbfc5ab5d78effdca	-0.16929214863919945
236	0x3fa8060526ca9c07	0.04692092989471779
237	0xbfd58b516c592c7e	-0.33662829953090767
238	0xbfadbc95dd1fbddc	-0.058079417460131316
239	0xbfe7f7d158ed9616	-0.7490011917950052
240	0x3fb05a2e7868580d	0.06387606086386217
241	0x3fd62929c806e28a	0.3462624028575553
242	0x3fdd9cfa00802a9c	0.4627060894860422
243	0x3fdd6d483884185f	0.459795050803569
244	0x3fdefbb0dfeb40a8	0.48411199442944985
245	0x3fd03205070e9e9a	0.2530529564778391
246	0xbfbea7360836900e	-0.11973893833652502
247	0x3fc46d57fb192e30	0.15958690415060195
248	0xbfc5ed34e9686506	-0.1713014735876543
249	0xbfb41a1e64837325	-0.07852354005758551
250	0x3fc539140f7746bd	0.1658043933407977
251	0x3fe82864955db06b	0.7549307744316257
252	0xbf95613a89f4f687	-0.02087871043226255
253	0x3fbf5359f1cd1a0a	0.12236559060429655
254	0x3fb79e9e33f3e5fb	0.0922640683019366
255	0xbfd38cba046f8ae7	-0.30546427186179276

layer2.bias f8 [80]
0	0x3fd5cc795f891c4d	0.34060510949752115
1	0x3fc3b587c8e25b72	0.15397736843871318
2	0x3f976e92452447b3	0.02288273379333079
3	0xbfcf31ef8d045967	-0.24371141801448035
4	0xbfc3e260535f74b9	-0.15534595557156708
5	0x3fd3eeab74b2ca33	0.3114422454483787
6	0x3fa30f43ba648f13	0.03722583437254747
7	0x3fd2e519d1066fb9	0.2952332059155612
8	0xbfb88f5bef4cb59e	-0.09593748657490273
9	0xbfb90f621eb57847	-0.09789098024109065
10	0x3fd046839316461f	0.2543038307568128
11	0x3fcbb40c93fdf726	0.21643216348814426
12	0x3fca30346925e266	0.20459609159640307
13	0xbfc26dc4770fd333	-0.14397483647885564
14	0xbfc686f8f76239de	-0.1759940345695687
15	0xbfc22ac14ab82760	-0.1419297804680424
16	0xbfc24c586b1d5c64	-0.14295487623414538
17	0xbfa45f535d2502f8	-0.039789776916682784
18	0x3fc1a4490a49072e	0.13782608988008732
19	0xbfc180a2aa5b6e35	-0.13673814123363717
20	0xbfa8b27c523c482f	-0.04823673728800803
21	0x3fb0f05399e7eaf9	0.0661670923945329
22	0x3fb537881b2e460d	0.08287859595863996
23	0x3fd1213a6c58fdef	0.2676530893404267
24	0x3fab8e9c837b3040	0.05382241349215677
25	0xbfcb75de5575c25a	-0.2145345608983174
26	0xbf9ebf7dad389824	-0.030027354905676998
27	0x3fa3ea3777450221	0.03889630633284847
28	0xbf63bbf36698222a	-0.002408957855326817
29	0x3fc413553c00f943	0.15683999471543517
30	0x3fd10fe406ee5063	0.2665948932347019
31	0x3fd1df5c45e1c9ac	0.27925783943569615
32	0xbfaabff1fc92d86c	-0.05224567611860284
33	0x3f988542484ea40b	0.02394584242179935
34	0xbfa8668fbdd82737	-0.04765748207507985
35	0x3fd551f402227aef	0.3331270237776342
36	0xbfb463e7d0952e96	-0.07964943735458471
37	0xbf901cd89aa54847	-0.015735039175816003
38	0xbfaafefdbbca4435	-0.05272667806014689
39	0xbfacc6eb47c4e576	-0.05620513201797454
40	0x3fd9ded10499aceb	0.4042246384548906
41	0xbfbe54491d7d51e4	-0.11847359628638504
42	0xbfc6cd8cd24d005d	-0.1781478907450972
43	0x3f8fdb5995bac275	0.01555509555996191
44	0x3fdf180a9b198c92	0.4858423723837372
45	0x3fd9825f65a49640	0.3985823147398584
46	0xbfcc768abaafe2c4	-0.22236761203364186
47	0xbfbc796770d53047	-0.11122747902590034
48	0xbfc549c8c82ac918	-0.16631421827111903
49	0x3fc5903baef58ef6	0.1684641460698157
50	0x3fc7340daeb5392f	0.18127604513797155
51	0x3fccd8c5dd3af7c1	0.22536538412344778
52	0x3fb4903e736965d1	0.08032598798435876
53	0x3fd5be2836fd2f4f	0.339731267643164
54	0x3fc294a3c6ebb0fd	0.14516112530635175
55	0x3f85fe9e593578a8	0.010739552590788584
56	0xbfa850243529c332	-0.04748643063510939
57	0xbfb50b3b00a6766e	-0.08220261350512612
58	0x3fcefd7c77178da8	0.24211078467406577
59	0x3f743b2cd475d496	0.004939246289145013
60	0xbfc732116b032bdf	-0.1812154552956988
61	0x3fa7618d6e0fe28d	0.04566614120989696
62	0xbfc6c15872ae58b1	-0.17777543639812657
63	0x3fc1b5b32ff58310	0.13835754243611875
64	0xbfc0c3918d580d7a	-0.1309682788997682
65	0xbf6a7e720c88f2ef	-0.003234122039684421
66	0xbfd08f1bd8efce95	-0.2587346666834745
67	0xbfd422a01e257c9e	-0.3146133703612096
68	0x3f7f81adc7b0d676	0.007692030742921232
69	0xbfbf9d2e9c765ffe	-0.12349215812571399
70	0xbfa94e2ec7d1503b	-0.04942461194210109
71	0x3fbef68d556969fb	0.1209495862507665
72	0xbf48d73eea9018c9	-0.0007580811699206209
73	0xbfc0af17d829d8df	-0.13034341864449225
74	0xbfc9ee2cb1c02f14	-0.20258101157411856
75	0x3fc072b3845ab8d9	0.12850040400139198
76	0xbfc0ef956d883c96	-0.13231151436091143
77	0x3fd8ceaa89d93b37	0.3876139017274229
78	0x3fb7ec30bea0cad8	0.09344772962576131
79	0x3fd0dd383e7cd0da	0.26350217916775664

layer4.weight f8 [11, 80]
0	0xbfe8b0e71f783712	-0.7715945830002247
1	0x3f84b49a43fa5db6	0.010110097121738142
2	0xbfc0902dee1e452c	-0.12940000655047734
3	0x3fd982f277ef3656	0.39861737930627805
4	0x3fe935c1a30bd1b7	0.7878120598311885
5	0xbfc3d0402caacab7	-0.15479280644429647
6	0x3fc88e7db7c8c549	0.1918484828361591
7	0xbfbb954f7cc98283	-0.10774704739152167
8	0x3fe018aff3cfc7d9	0.50301358813726
9	0xbfc0f547df3f7fb3	-0.13248537445815387
10	0xbfd85e4ac3b20773	-0.38075512991792165
11	0xbfedd0b0b44b8472	-0.9317248841654318
12	0xbfd9df2e660fcf6c	-0.4042469021508086
13	0x3fdc020dc240a51c	0.4376253506657848
14	0xbfe0345566dc3cfb	-0.5063883790006963
15	0x3fddbaa1695a376f	0.46451602257081154
16	0x3fc06bbde86fc916	0.12828801965185538
17	0xbfd34afb4b586bbc	-0.3014515147967207
18	0x3fb1b5439d72ff15	0.06917212099051213
19	0x3fc03960c338b10e	0.12675103695199436
20	0xbfc5e2fa47afabc8	-0.17098930836013282
21	0xbfe43d0d5aacd3e5	-0.6324526568411072
22	0x3fc5f20594301ee8	0.17144841895809937
23	0xbfd95f3afb710fe4	-0.39643740229462154
24	0xbfd14fb347754ccc	-0.27048952082004685
25	0xbfba1333f658ea2f	-0.1018555141862769
26	0xbfc08dc4124a72fb	-0.12932635205370233
27	0xbff0013ebbe1b6a7	-1.0003039683464665
28	0xbf96f560e473f848	-0.022420419639267913
29	0xbfd4243fb81e9f02	-0.31471245747023613
30	0xbfdd0f1a7d92e2af	-0.45404684317649474
31	0x3fb37c8a5e1e3930	0.07611908719829752
32	0xbfcc512fda0d97b1	-0.22122762820361921
33	0xbfcedb5674327e7f	-0.24106865571683397
34	0xbfb5524a6213bf49	-0.08328690428220144
35	0xbfe11d7834a85fc8	-0.5348473576041153
36	0x3fc97398cb9513da	0.19884023609679852
37	0x3fd8b655b232c743	0.38612882997687253
38	0x3fd30dabf4bf6aee	0.2977094545473581
39	0xbf9af42dc9a85385	-0.026322093423079024
40	0xbfd3339e9b38be2d	-0.3000256076656765
41	0x3fd0a6cf532581cb	0.2601812660195974
42	0x3fd6282ac94d41a1	0.3462016073072168
43	0x3fc82ace0f041a05	0.1888063023872776
44	0xbfde4beb5c591004	-0.47338375109052344
45	0xbfe9a50bffebe53c	-0.8013973234621186
46	0x3fd77a5f882b7cc5	0.36684406564559097
47	0xbfb03e4c56ec0edf	-0.06345059511300687
48	0x3fd2978ffc436f12	0.2905006373891733
49	0xbfa30a62e67116cd	-0.03718861639985747
50	0xbfdad5216cdce69a	-0.4192584574808308
51	0xbfe248ca8d7d7594	-0.5713856471517595
52	0x3fae8310cb7ca7c3	0.05959370120974896
53	0xbfe45e3274da8155	-0.6364986688895821
54	0x3fb65cab6216cdd2	0.08735152382614977
55	0xbfc2f49fb77288b5	-0.1480903287638903
56	0x3fabd3c1f58a340e	0.054349957678916025
57	0x3fcdd23967556725	0.23297803445421397
58	0xbfd7b83150a009e4	-0.3706172263483991
59	0xbfe0b8246a4e6058	-0.5224783016483441
60	0x3fc8540aa4456128	0.19006474515004723
61	0xbfb5595fed38c916	-0.08339499990032481
62	0x3fb700a25a8082a2	0.08985342702409096
63	0xbfd83fc6bc345d12	-0.37889259700155364
64	0x3fb21f3794f9e01f	0.07078883540259583
65	0xbfc4ccab5d58cb5d	-0.16249601419402895
66	0x3fcde16e230018e7	0.23344208439829758
67	0x3fd23bac159dbab8	0.28489210234594564
68	0x3fc38062f3c6416a	0.1523555460266935
69	0xbfc9972a32a763b2	-0.1999256846745801
70	0x3fb6865e482a740f	0.08798779737340133
71	0x3fc07563ec5867d0	0.12858246841716303
72	0xbf9edb8372bc6b49	-0.030134252431803153
73	0xbfc8c70e73486a56	-0.19357472065969955
74	0x3fbbc4110bec2a78	0.10846048871113989
75	0xbfc07ee7344480d8	-0.12887277652862994
76	0xbfb35559250eff29	-0.07552106051207076
77	0x3fd38dc096bb538f	0.30552687377831317
78	0x3fbd60addc10322f	0.11475645659101795
79	0xbfd5f82de0fca899	-0.34327265712148286
80	0xbfd1f0f9c1a1c62a	-0.28033298405998386
81	0x3fd1616b063ae893	0.27157092674645716
82	0xbfba30a855558dbe	-0.1023049553237376
83	0x3fc7b977ffa1fb9e	0.18534755689685495
84	0xbfe21dfa366bb0e9	-0.5661593497184444
85	0xbfd4373cbe2086e5	-0.31587141577811756
86	0xbfcddc46507632fa	-0.2332847493056745
87	0x3fba75e16ef17bf0	0.1033612151963863
88	0x3fa07a3c581b0cfc	0.032182584529005326
89	0xbfc227addff973f3	-0.14183591305018659
90	0xbfe26d2166bbb87e	-0.5758215910443736
91	0x3fd003dc822c29ca	0.25023567878875197
92	0x3fa724acf3f5b3c2	0.0452016876032313
93	0x3fd2290f04e4a31f	0.2837560222420041
94	0xbfa4e2987ee5d871	-0.0407912878899176
95	0x3fba2bd32936dddd	0.10223121410569243
96	0x3faf0f4a08c25a2f	0.0606635223095292
97	0xbfd58fca204c0d42	-0.3369012179757257
98	0x3f7db3490ce49733	0.007251057961445362
99	0xbfc247cf6229b4fc	-0.1428164700804827
100	0xbf9c0c55ad8c1db3	-0.027390803067673008
101	0x3fca4b035deee41a	0.2054142197282836
102	0x3fbf927ecef09d79	0.12332909157031748
103	0xbfd26c9976c8d00d	-0.2878783855442187
104	0xbfd6678acba940ff	-0.35006971253189073
105	0x3fb8c23505efd4fb	0.0967133655065772
106	0x3f856749b21c76e5	0.010450912235281115
107	0x3fd33d0c9cfd3b7e	0.30060115176177493
108	0x3fb4f52b18f22f09	0.08186597212823811
109	0xbfd7b495cbee3dee	-0.3703970424184878
110	0xbfc12abfb7f89113	-0.13411709292370996
111	0xbfcb0339770961ca	-0.21103590309463832
112	0xbfee259338727c57	-0.9420868017658773
113	0xbfd86040c9b72c81	-0.38087482165128256
114	0x3fc9d31cac1e3f4d	0.2017551269932433
115	0xbfbe03a346cb583c	-0.11724300840737184
116	0x3fd5b7c4ce250797	0.33934135562241735
117	0xbfdb56860bc906fb	-0.42715598250298087
118	0x3fd41c1a5effed6d	0.3142152717334373
119	0xbfd1305ba777d366	-0.26857653955749183
120	0x3fc4e8c0e34267dc	0.16335307213449723
121	0x3fca4365d8e42dd6	0.20518181887051296
122	0x3fbdf2058487fcfe	0.11697420583367443
123	0x3fb7d143c0aaaeff	0.09303687528398184
124	0xbfacc130ae8f7576	-0.05616142397750938
125	0x3fd32149f7af5c3a	0.29890679538715725
126	0x3fc7a2a0ab0afbf5	0.1846505007906384
127	0xbfda1f988fea8d50	-0.4081784635001968
128	0x3fb0cb085f6febbd	0.06559803323754827
129	0xbfef169448354637	-0.9715062532724862
130	0xbfe3fcc993453fa2	-0.6246078373314854
131	0xbfc7ebefecff0bcd	-0.1868877322395676
132	0x3fce6029ebad8537	0.23730968482690581
133	0xbfd3b5a7113a3a90	-0.3079621952282787
134	0xbfd70720bd61d9bc	-0.359810051864226
135	0xbfac78986eec4776	-0.055607570209885646
136	0xbfc5e4ffc800f367	-0.1710509993153224
137	0x3fb65b8912487082	0.08733421989785664
138	0xbfd86f0a1827a88d	-0.38177730902555923
139	0x3fcb7ea9ffbea36f	0.2148029803040816
140	0x3fca519915b620ab	0.2056151729596015
141	0x3fcc3222a5680e03	0.2202800090454816
142	0xbfdae60620415712	-0.42028954648900296
143	0x3f88fc4f61de03e8	0.012199993299647674
144	0x3fddae0207d7e602	0.4637456013293503
145	0xbfe60f41adcbbb82	-0.6893623728227427
146	0xbfd18f1625fae8d2	-0.2743583079242288
147	0x3fc81927326a6ed3	0.18826761209208218
148	0x3fbeec87fbd806b5	0.12079667948276092
149	0xbfd28fb61d8ce98d	-0.29002144704613714
150	0x3fcb4b382cdb4d7e	0.21323301496759578
151	0x3fc7548345c96349	0.1822666254763823
152	0xbfd509f595bc6200	-0.3287328684105262
153	0xbfa5ab53d336ed76	-0.042322749646213007
154	0xbfe40b6799bf5772	-0.626392174041696
155	0xbfcd7a64f6ab5a87	-0.23029768032457218
156	0xbfc40a71f7356f0f	-0.15656876154650276
157	0x3fcc14310b169bb1	0.21936619798108617
158	0xbfc9b029c67ff762	-0.20068857376457588
159	0x3fb6b4c9f256d2db	0.08869611898883127
160	0xbfdb270a51f40c2b	-0.4242578316045093
161	0x3fd4663e07920adb	0.3187403749399615
162	0x3fb7d6522bcec05d	0.09311402864000358
163	0xbfe4c7c6197db689	-0.6493864534256356
164	0x3fc1cdda413cde2b	0.1390946215194487
165	0x3fd892c407186d85	0.3839578694621298
166	0x3f9aac62b915f577	0.02604822401689463
167	0xbfbd229c1cde2b34	-0.1138093538740293
168	0x3fa19dd9667ef654	0.03440741897746294
169	0x3fa1c2911a991dde	0.03468755197223648
170	0x3fce32229b04445c	0.23590500420735594
171	0xbfb9a0c2e2227018	-0.10010927220213295
172	0xbfd1956dce4170b5	-0.2747454179968927
173	0xbfcb3091b8c73cf8	-0.21241971514107383
174	0xbfd0f818c049fbca	-0.26514261987898335
175	0xbfc71ac8fb9f82b9	-0.18050491606029143
176	0xbfd4ff072a80c602	-0.328065673357827
177	0xbfee5927605f2db3	-0.9483830339681191
178	0x3fdb807415ba29f8	0.4297151767902103
179	0xbfcb5d20740e4a38	-0.21377950350559316
180	0x3fc23ea785a574cb	0.1425370600290193
181	0xbfe6f289fc21055d	-0.7171068119425105
182	0xbfd49b6960d30bcb	-0.32198557334430394
183	0xbfd3c7906e035e22	-0.3090554308268755
184	0xbfd0ddb0c48a34a6	-0.26353091424318575
185	0xbfd163c94aace51a	-0.271715472150008
186	0x3fc58d7b60316f3e	0.16838018605164423
187	0xbfe007ce29d797ec	-0.5009527985791897
188	0xbfc210dfd4436e19	-0.14113996376441731
189	0xbfe3d3ece61fa9fb	-0.6196197981456061
190	0xbfa74f071039bbe5	-0.04552480767312498
191	0x3f3f785a899021ad	0.000480196098181308
192	0x3fdab10db35b143e	0.4170564891358629
193	0xbfdd690bff965998	-0.45953655204484667
194	0xbfab84b5b42391f6	-0.05374687026941054
195	0x3fd13ae57de68371	0.2692197541710391
196	0x3fb71efa8273e206	0.09031644520644741
197	0xbfb4c4710123cbe2	-0.08112245824649691
198	0x3fa33d6fa5af5228	0.03757809541244611
199	0xbfac78d8709e810f	-0.05560947775598112
200	0x3fc1f022a096d410	0.1401408466460059
201	0x3fc66ab9fe8c0c0d	0.175132035532528
202	0xbfe54a4b501ceb78	-0.6653191151338964
203	0xbfc78cf917e3d760	-0.18398965517524868
204	0x3fd08a5885db9e15	0.2584439570623272
205	0x3fbb7bca6410840f	0.10735764449101758
206	0x3fd15531b0aa09e0	0.27082483532299584
207	0x3fab4434a667fc9e	0.0532547429211203
208	0xbfda7a37a97832be	-0.41370955991514424
209	0xbff2f2acab10c9f9	-1.1842467005013744
210	0xbfcef6f0c0cb8226	-0.24191102422538896
211	0x3fdb53a9675d8817	0.42698130697510933
212	0xbf9582442e0a68bd	-0.021004739103411597
213	0xbfe5aca80c626b89	-0.6773262254604201
214	0x3fdd31060e848f35	0.45611716668848895
215	0xbfd8eac9982587a7	-0.3893302903944637
216	0xbfa68aecf21cc557	-0.04402866797898735
217	0x3fd15d9935883778	0.27133779742950237
218	0xbfe83ab19c5f7f61	-0.7571647695694815
219	0x3fdee73389430ee9	0.48286140827643337
220	0xbfcb5bb134e494bd	-0.21373572428379886
221	0xbfb0756b80125172	-0.06429168583628611
222	0xbfe229d92425d168	-0.5676084238062176
223	0xbfe15799b11ffdff	-0.5419434031936702
224	0xbfadef2febd66f1c	-0.058465478457234904
225	0x3fd8179d4c0fb5d4	0.37644131114833823
226	0xbf93479aeabb5729	-0.018827839447872172
227	0xbfe3aded270c1650	-0.6149812472001006
228	0xbf890396fbb38aff	-0.012213878208461091
229	0xbfc8b65426400150	-0.19306423061062583
230	0x3fc52e3512527e33	0.1654726352180532
231	0xbf9a849ffa98d9ab	-0.025896548910361677
232	0x3fd7a782f8ec5f98	0.3695990973369532
233	0xbfd613de92182708	-0.3449627329542726
234	0xbfe13b878b65f502	-0.5385167811033684
235	0xbfc56ff59fc42feb	-0.16747923184482202
236	0x3fbbf8ec1557a8a6	0.10926700135283571
237	0x3fd493cdc40a8883	0.3215212263550102
238	0x3fa498c42c80fe1e	0.04022801440487121
239	0xbfe6c3686704139f	-0.711353493884065
240	0x3fc542320db2641f	0.1660826269988158
241	0xbfa148313cc2e5c9	-0.03375390879359547
242	0x3fd2839d10b2ca8e	0.28928305273726884
243	0xbfcbfdad2ba76f89	-0.21867909080071637
244	0x3fd80dc8eca24da1	0.37584136112965366
245	0x3fb82cc1327e3c77	0.09443290217153498
246	0x3fdba3a75b25f12e	0.43186363125984684
247	0x3fcac1a27eebfb9c	0.20903426358560473
248	0xbfeb1cd8ac6b6c4c	-0.847271286732743
249	0xbfc26e799b4bc8c9	-0.14399643023313605
250	0xbfe54fc88e07ed4f	-0.6659891866724282
251	0x3fc598e81d6f0283	0.16872884213627878
252	0xbfb26d2703ad4fae	-0.07197803344507633
253	0xbfd040bfcca25b1c	-0.25395197852906093
254	0xbfe2c44cf8726e45	-0.5864624836426137
255	0x3fcb7ada08f8c14c	0.2146866363341452

layer4.bias f8 [11]
0	0xbfd119d51689a7ba	-0.2672016830534819
1	0x3fa31610e5bf5720	0.03727772526296591
2	0x3f9699c31b4cbac1	0.02207093099712654
3	0x3f799268ba35a2cc	0.006243142215091434
4	0xbf3e3dffa3e0be6d	-0.0004614590760665175
5	0x3fc9b4ce57b9387d	0.20083026202559387
6	0xbfb081e57058c6d9	-0.06448205941049014
7	0xbfd159864a4337a6	-0.2710891461582555
8	0x3fce834b834c600c	0.2383818045716456
9	0xbfc504404b66a22d	-0.16419223481831705
10	0x3fccb2f5513551af	0.22421137299774105
