attack_soft_generative_decision_tree/experiments/vowel_params_state_dict/fnn_epoch268.pth (torch, 69599 bytes, 6 tensors)

layer1.weight f8 [80, 12]
0	0x3f9a704d7e968ff0	0.025819025851561095
1	0xbfd3421b8280b8dd	-0.3009098791543588
2	0x3fcf293d7b6cd98c	0.24344604994412256
3	0x3fb4764f83b50507	0.07993027654176298
4	0x3feb3d26c4864254	0.8512147749298244
5	0xbfca518041b30e91	-0.20561221321087378
6	0xbfe847c7d960775e	-0.7587622876778644
7	0xbfe1388c38c298ae	-0.538152800426152
8	0xbfe19ad8a257eaef	-0.5501521273393716
9	0x3fdfb7f3092a43f6	0.49560237784413574
10	0x3fc8bdd3e5e89dce	0.19329308248528182
11	0xbfdc42e2ba82c6a9	-0.4415823766131362
12	0x3fa6753fad8b4baf	0.043863286909661674
13	0x3fa2dce250c52ad5	0.03684146152462168
14	0xbfd76925ea2979cb	-0.36579273097404713
15	0x3fdf476255c99c33	0.48873194101037426
16	0xbfd30a90f344997b	-0.2975199103988399
17	0xbfe295633b730c40	-0.5807357941743092
18	0xbfd5e49c9dad9f03	-0.3420783557726141
19	0x3fda0dccb82e8db3	0.40709226595410114
20	0x3fd9c1d23f66e3bf	0.40245491210549383
21	0x3fd5679c0920889e	0.3344488228923498
22	0x3fe5857d66d1f65a	0.6725451477247575
23	0xbfdcec45e16c2447	-0.45192095769795454
24	0xbfb3b9bc931f9742	-0.0770528659046166
25	0xbfef32ec660c152a	-0.9749662392720542
26	0x3fc84fd86beb6a92	0.18993668813239545
27	0xbfe8201743da3abf	-0.7539173436396921
28	0xbfdd67e590ff153b	-0.4594663539868013
29	0x3fd535f7a812a605	0.3314189092003235
30	0x3fb5200ca9302fd1	0.0825202858979417
31	0xbfc9f3caaf1e3777	-0.20275243330655332
32	0x3fe1ee4e8abea260	0.5603401861054174
33	0x3fa9d761c26519b2	0.05047135828003792
34	0xbfe04b4d07a7ceff	-0.5091920041581658
35	0xbfc8b4c3be17cd20	-0.19301649839290125
36	0x3fb47a18c38fc7f5	0.07998804830984325
37	0x3fbfdc89cd2337b2	0.12445889719239636
38	0xbfed98ad57d0d813	-0.9248873438980375
39	0x3fd0b62ea042fc8b	0.26111951494744606
40	0x3fe18a8d1c8b15a1	0.5481629903303437
41	0x3fd0fbbc4e7485ca	0.2653647199786887
42	0x3fd6962a74a4850a	0.35291539564976004
43	0x3fb738e318267a5f	0.09071177806479501
44	0xbfc27c300e77166a	-0.14441490846927546
45	0xbfbceaa28bf13d92	-0.11295524517594505
46	0xbf9df6e5bd6d5de6	-0.029262151419372183
47	0xbfc77a67754acf05	-0.18342297770652052
48	0x3fb1016540d06584	0.06642754394888156
49	0xbfcf5d0c553de590	-0.24502710497089852
50	0x3fc6a182663155ae	0.17680387487295718
51	0xbff227e9de153e5d	-1.134744517814304
52	0xbfe8e77b0825a149	-0.7782569083329146
53	0x3fcfe390ef7ad58c	0.24913226788855203
54	0xbfc5d3f13fee04e5	-0.1705304681927721
55	0xbf9090b5e59dc6af	-0.01617702688185457
56	0x3fcb74a6ee5bb909	0.2144974387987946
57	0xbfd92457e58e84eb	-0.3928432218327333
58	0x3fc2abbac9341308	0.14586577247987287
59	0x3fd0feaa02a86347	0.26554346332118367
60	0xbfc853b1b24c2c36	-0.19005414205489196
61	0xbfdb33adb24b5a85	-0.4250292054324876
62	0xbfbf51b8d79f21d9	-0.12234072937201947
63	0x3fa77d6a5cd9004a	0.04587871917146964
64	0xbfb8f3bd3a89d719	-0.09746916464959234
65	0xbfdd60a226186b19	-0.45902303428890573
66	0xbfe0a0bd57f8eaa1	-0.5196215360841344
67	0x3fdba7bbddf6ff2b	0.4321126620888999
68	0x3fda5fc1c97c702a	0.4120945422780574
69	0x3fcac8fa1984c562	0.20925832983042897
70	0x3fe018c4a34122f5	0.5030234516680979
71	0x3fd87db9dd004507	0.3826737077916537
72	0xbfb496c3528c52dc	-0.08042546048484261
73	0xbfe4c0b6c1834c68	-0.6485246448086288
74	0x3fe0538b9d48ed09	0.5101984092683846
75	0x3fe2bae2da881c9d	0.5853132503697399
76	0x3fb4690512388aca	0.07972747511716274
77	0x3fd9c3421fde4a64	0.40254262077465897
78	0xbfe1e2315f1cd130	-0.5588614328067134
79	0xbf7693dbd0aa1d1f	-0.005512102749555297
80	0xbfdceb3e35238347	-0.4518580931599456
81	0x3fd5347fb4178ef8	0.33132927500831455
82	0xbfc61122a726f8a6	-0.17239792978029306
83	0xbfa7805e10b79bec	-0.04590124086444533
84	0x3f9dda41e60c6c67	0.029152898469970625
85	0xbfe1ba1969f44a13	-0.5539671964091347
86	0xbfc429b0fd7c32d3	-0.15752231957630744
87	0xbfe4466d7a71f389	-0.6335971251970572
88	0xbfd5891ceb66eb61	-0.33649371136168865
89	0x3fe1f2187dbc6d99	0.5608026939184355
90	0x3fdc9965210056e7	0.4468624899176192
91	0x3fd0d906b8fe5d45	0.2632462317064504
92	0x3fe3ed6f42e50cba	0.6227337175881964
93	0x3fe4d5b0509ccf48	0.6510850500548964
94	0x3fcc1038d10e6bc9	0.2192450543196556
95	0x3fd2da589a3de6ce	0.29457678854633407
96	0x3fafa18a45af8056	0.061779328352486715
97	0xbfc3cdb93c29072d	-0.15471568524849869
98	0x3fb12ec6d967ba80	0.06712000663513074
99	0x3fe034b4842737a5	0.5064337330929801
100	0xbfcd27d9a0a3ec7f	-0.22777862876668917
101	0xbfcdc7357a5a224e	-0.23264187311385104
102	0x3fb835bf54dec1ef	0.09457012006783548
103	0x3fe37efe737a52a0	0.6092521911073909
104	0x3fdc09670210baae	0.43807387544340315
105	0xbfd9956262b191f3	-0.3997426952176106
106	0xbfd7213434ea6b00	-0.36140160720394476
107	0xbfba7466da9f8a23	-0.10333865010719782
108	0x3fbdb664d25c1ada	0.11606435905205661
109	0xbfca9dc09d2b80f2	-0.2079392211371736
110	0x3fe45a5999ec076b	0.6360290533341247
111	0xbfc046eab354adba	-0.12716420894990482
112	0xbfbf2d6d3f53d36c	-0.12178690715866275
113	0xbfceed46d4402653	-0.2416161095027741
114	0xbfc2441be7eba9ae	-0.1427035219597434
115	0xbfda49b66a2ee59a	-0.41074905747844925
116	0xbfce18da814afdc8	-0.23513346970683657
117	0x3fcdd5cca3c5433f	0.23308713909730192
118	0xbfd89dfaa3d6a7e1	-0.3846422767625182
119	0xbfd7972c3c0977e5	-0.36860185492503056
120	0x3fbff93c9d0565dc	0.12489680131456943
121	0x3f94ec973004e1d1	0.020433771425105555
122	0xbfaa812a15927ac3	-0.05176669610340447
123	0x3fd82a069f166776	0.3775650552357698
124	0x3fcabc4a0eda6e2b	0.20887113309150726
125	0xbfd1236390860992	-0.26778496850615696
126	0x3fcdc71c21417785	0.23263885139288845
127	0x3fe0f95d54a9e763	0.5304400113666187
128	0x3fd8b0e754c30981	0.38579734113240965
129	0x3fe265d5b67e43fb	0.5749310077973172
130	0x3fbbcefdd41d7eee	0.10862718990892592
131	0x3fd0d83b792397b1	0.26319777326568344
132	0x3f8063364a2f569e	0.008001732005065872
133	0x3fc1db29b2527c31	0.1395008202279953
134	0xbfc032d6baa1e565	-0.12655147660170055
135	0xbfe4cb428329d594	-0.6498119890008405
136	0xbfcd4f0b6b786bfb	-0.22897475001886378
137	0xbfc32aa02a5068ca	-0.14973833147161592
138	0xbf9853bbb6ad0ee6	-0.02375691702333329
139	0x3fe70183e10d88bb	0.7189349551738567
140	0x3fe7338dfddf8123	0.7250432928522382
141	0xbfa16d17190d20b5	-0.03403541737367403
142	0x3fd8fac5463aa37e	0.39030582292848937
143	0x3fa8be2fb2b42024	0.04832600647392862
144	0xbfa1b85c622a1168	-0.034609686835241515
145	0xbfbf8eb31a57cf59	-0.12327117341174922
146	0x3fb01d623d4f10f5	0.06294836041258008
147	0x3fb728891b036cd7	0.09046227368837677
148	0x3fe17110d6f39a3b	0.5450519750855344
149	0x3fceae3055a41ad8	0.23969082051936286
150	0xbfdf57bc9c2ad468	-0.4897300267287563
151	0xbff23b5bb27cdc2a	-1.1394917461564185
152	0xbfd4a2f759ad5770	-0.3224466682198601
153	0x3fc184a2c2b48e2f	0.13686022288412533
154	0x3fe3c5b4ad1d539d	0.6178840047019666
155	0x3fd0bfc319c2687d	0.2617042304569919
156	0xbfc910b465056cbc	-0.1958222859637767
157	0xbfddf33db01fc446	-0.4679712505304149
158	0xbfdcfd55f14e8949	-0.4529623848449274
159	0xbfc5061f480eb6a6	-0.1642493345111024
160	0x3fe7ac38b993c840	0.7397731422954692
161	0xbfd103eb9f2fc5d6	-0.26586428208892465
162	0xbf44b76d0e478f75	-0.0006322176455424282
163	0x3fde9a342b9ddd9d	0.478161852449796
164	0x3fdc644d858c32e9	0.44362199823153375
165	0xbfe38b7e78610a46	-0.6107780791429114
166	0xbfbb5626b6683fc2	-0.10678331330586757
167	0xbfe1cbad8c399ff0	-0.5561130274554653
168	0x3fa91d4637e050ed	0.04905147010882325
169	0xbfaf2715fe48d0c6	-0.0608450768380933
170	0xbfe0c0bd557d43ae	-0.5235277814591563
171	0x3fd5068ebbfca254	0.32852524145213136
172	0x3fd8474e4400fe6d	0.3793521560764706
173	0x3fe4f683eba03914	0.6550922014301102
174	0x3fb1ed7642a03ac9	0.07002963186844648
175	0x3fce25e978be977e	0.2355319823811292
176	0x3fd533580f70bf3a	0.3312587881837207
177	0xbfc211df23b021f6	-0.14117039911822332
178	0x3fe2a6855ad02085	0.5828272603694279
179	0xbfc20583d43b3823	-0.1407933031354683
180	0x3fb92a016a85245a	0.09829720354640994
181	0xbfa628599649795a	-0.0432765956836529
182	0x3fe4d5f91eabf37a	0.6511197661453558
183	0xbfd0ca727214fc2b	-0.2623563875276342
184	0xbfdddae1eadd42e9	-0.4664845269772245
185	0xbfe3a94df33a067c	-0.6144170523186427
186	0xbfd3e77944a8d6b6	-0.31100303368598803
187	0xbfd22cee4bde4e38	-0.2839923611547621
188	0xbfc190df6cbe4209	-0.13723366555906605
189	0xbfd35c51098e97e6	-0.302509555180562
190	0x3fd0562b9d3a01d5	0.2552594218650744
191	0xbfa0e95d4a450031	-0.03303042918787503
192	0x3f997b215d353f5e	0.024883767427410823
193	0xbfc1787f79e3cb5f	-0.13648980571414435
194	0xbfd57536a388a9ba	-0.3352791401872782
195	0xbfd4c872deb56a9a	-0.3247344183816182
196	0x3fd825560eefa984	0.3772788186894547
197	0x3fbd8253233b2548	0.11526984796650652
198	0x3fb359e496e9f089	0.07559040722293466
199	0xbfe864d29eb26108	-0.7623074626490345
200	0xbfd152f2a7ae527e	-0.27068773627369314
201	0xbfbf1bea4782ae28	-0.12151970144139368
202	0xbfd89fe3b626e23c	-0.3847588805033728
203	0xbfd3c3e8ffb7fcd2	-0.308832406735701
204	0xbfd3cc296f31b046	-0.3093360505943149
205	0xbfb4fd510788475f	-0.08199030336279865
206	0xbfd993c31e7df5a8	-0.3996436879895904
207	0x3fb58df678330b1e	0.08419742998652821
208	0x3fdd30bb84f243de	0.45609939559022716
209	0x3fd22a596367c5e6	0.28383478839449905
210	0x3fa81301024f769c	0.047019988567382515
211	0xbfd0f6f4d8253ca3	-0.2650730238719438
212	0xbfe0669c2357733e	-0.5125256243005436
213	0x3fdb6fac0b72dfa7	0.42869092100181166
214	0xbf6e10fb3ee5ed03	-0.003670206751107964
215	0xbfd2e95924d745a7	-0.295492444970558
216	0xbfba7b10049971df	-0.10344028579988372
217	0xbfcbc8cbcbdd03a1	-0.21706531004204258
218	0x3fd1ba07b17982a9	0.27697937327870165
219	0x3fd56cacb810753b	0.3347579762938328
220	0xbfe5b6e3fdde397b	-0.6785755117760311
221	0x3fdd2a3a32abbfe8	0.45570235203103815
222	0x3fd618da5b0d65dc	0.34526690379933966
223	0xbfba73342059f416	-0.10332036771610861
224	0xbfe91f2d7e8714d2	-0.785055873035754
225	0x3fd66d0707047af6	0.35040450749686103
226	0x3fde609066c3d378	0.47464380298270425
227	0xbfe161130c3c0d51	-0.5430999030071836
228	0x3fbfd9d90533f190	0.12441784264587441
229	0xbfb5d87485293fc1	-0.08533409358028533
230	0xbfb4da9924bf6ac8	-0.08146054408227166
231	0xbfd270ca333e53d2	-0.28813414577717567
232	0xbfd9b0be11419826	-0.40141250310114385
233	0xbfc42dc5bf3dd7c0	-0.15764686429946373
234	0xbfd111e1f0b2d52b	-0.2667164660045553
235	0x3fbe25ed0aa0722f	0.11776620397035552
236	0x3fdbb34b4d38aa9f	0.43281824628017235
237	0x3fbba80db84451fe	0.10803304432585745
238	0xbfbca5f4261ade3c	-0.11190725260063855
239	0x3fd34a3fe979aaf9	0.3014068393737684
240	0x3fa7ea1f9ea0ee96	0.04670809565911076
241	0x3fdc276dfaa5c701	0.43990659215261024
242	0x3fe78c8e4183a408	0.735907676656212
243	0xbfcb47d57c9d0c73	-0.21312969765321874
244	0x3fc1cbb377704e51	0.13902896244018106
245	0x3fca9976c398a941	0.20780834723093203
246	0x3fe30908c9ab5ef5	0.5948528231483282
247	0xbfe464cf32afe91a	-0.6373058309539232
248	0x3fcf00437670d7e9	0.24219554217569275
249	0x3fdb71231f6336d7	0.4287803465384576
250	0xbfc3158cfa00f26e	-0.1490951748582065
251	0x3fd5bcc9d9af9ac9	0.339647734245244
252	0xbfc8cb4f2d208262	-0.19370450690714153
253	0x3fb9262b934d2126	0.09823868128035382
254	0x3fe8627e79403e03	0.7620231979544204
255	0x3fbb52dec1c488c9	0.10673324804932628

layer1.bias f8 [80]
0	0x3f8675e2c692eda8	0.010967036900516217
1	0xbfb433855724052e	-0.07891114594896884
2	0xbfaf067292482c0c	-0.060596065861396736
3	0xbfd55f0b480a63ee	-0.33392602954114536
4	0xbfce844e314c86e0	-0.23841264159368958
5	0x3fc019e1ff851723	0.12578988052899218
6	0x3fcf78e1989a356d	0.24587650252616858
7	0x3fba27664a90b28d	0.1021636898082738
8	0xbfb11c3fbf0c6e68	-0.06683729566832997
9	0x3fde20ae79c9762f	0.47074472325570843
10	0x3fd38cb03a7661b0	0.3054619379923009
11	0xbfd14cea72cf1ff6	-0.2703195687467991
12	0xbfd22bd8a2e4e2b6	-0.28392616183877395
13	0xbfa803e86173205a	-0.046904813667027326
14	0xbfa71eaa795f051c	-0.045155837360207424
15	0x3fe0f8b5faaecbc2	0.5303602119587298
16	0xbfb669dfd081d96a	-0.08755301323421852
17	0xbfbe08d62c307601	-0.11732233599510523
18	0x3f7cd53010933d11	0.007039249184529043
19	0xbfd3380fa1a058e7	-0.300296695554961
20	0x3fd1002acdb07061	0.26563520514333133
21	0x3fd73ab7c55f4890	0.36295885347966195
22	0xbfa2f8a0ba61c00f	-0.03705312991303355
23	0x3fc9430ce566ad3a	0.19735871506905217
24	0x3fa31ab7398861f3	0.037313199780502425
25	0x3fa8ab90f41b694b	0.04818394641707132
26	0xbfc6ad39788c9936	-0.17716139208023102
27	0x3fb495d7ad7ca5d2	0.08041141496200702
28	0x3fa049ac2328a78b	0.03181207589325571
29	0x3fc49417c5f8534c	0.1607694355631345
30	0x3fd4a1c1c74126e3	0.3223728605122302
31	0xbfc279427517f82f	-0.14432554929220617
32	0x3f81d2767c020e01	0.008702207240509631
33	0x3fc6f6fbc7eb55fe	0.17941233884509694
34	0x3fd9a4d8a7889a7c	0.40068642006591637
35	0x3f9f275e3c30017d	0.03042361490588651
36	0x3fc9d878caaa3fa7	0.2019186963630066
37	0xbfd7864eb2553371	-0.36757247367204743
38	0xbfd5be7d841745cf	-0.3397516050291331
39	0xbfd19d1ddc116ec1	-0.2752146386244299
40	0x3fdbf06d75f8342c	0.43654953499282345
41	0x3fd34f2c9d09e773	0.3017074140149056
42	0xbfc218b23d88739e	-0.14137866978208263
43	0xbfc8b1c36a86b695	-0.19292490674472576
44	0xbfc288449f55ec3f	-0.14478357105312686
45	0xbfa5eb541053559f	-0.04281103801046559
46	0xbfb9fb4abe4e7474	-0.10149066110757748
47	0x3f9a7f69da483062	0.025876668880343685
48	0xbfcc7f407f4b4368	-0.2226334210922929
49	0x3f9535c59f16f0a4	0.02071293624406735
50	0x3fd870654a7e1b5f	0.3818600871531341
51	0x3fc698a035cd74d9	0.17653277041509943
52	0x3fe0e351387b90ae	0.5277486899544976
53	0xbfc24b34c44783d1	-0.1429201086421288
54	0xbf9f1bbfafefb42e	-0.0303792906888029
55	0x3fb0b4c80c6f39f8	0.06525850585533266
56	0x3fd13f2484d0501e	0.26947892160501563
57	0xbfc0f73ef790cd0c	-0.13254534805455653
58	0x3f9639b6a6d3caeb	0.02170453446610569
59	0x3f9482019d44ab7c	0.020027184699908926
60	0x3fb39f13702eb31b	0.07664605606869339
61	0xbf96d54eaa0a9ee4	-0.02229807770586846
62	0xbfa0ff6fba720e47	-0.033198825368370204
63	0x3fe608dbac191609	0.6885813103951374
64	0x3fc110762cf36854	0.13331486887801935
65	0xbfb26f5234d34d62	-0.07201112546618085
66	0x3fd26dc0b0e4c7eb	0.2879487731435108
67	0xbfbbb7841c49c607	-0.10826898279790252
68	0x3fd1535e25623c15	0.27071336413149655
69	0xbf94117e59a4efc3	-0.019597982617810105
70	0xbfc3869ba300311a	-0.1525454088117691
71	0xbfc651e833248bd5	-0.17437460419850362
72	0x3fc3c9ee19a54894	0.15459991695621922
73	0x3fd9820162b4c3a5	0.3985599006583079
74	0x3fb6355003a5b67a	0.08675098504110137
75	0xbfb5506288d68683	-0.08325782624026527
76	0x3fc71ea9e392e740	0.18062327968601188
77	0xbfbe0a890018498b	-0.11734825374904838
78	0xbfcb285001b98ee1	-0.2121677406713536
79	0x3fda7811b4aeaf77	0.41357844013941

layer2.weight f8 [80, 80]
0	0x3f9757bd1e751f4d	0.02279563425443536
1	0xbfaa438996ba9bac	-0.051296519898918674
2	0xbfe0a687fa122613	-0.5203285106846941
3	0x3fac5b683eccdc5f	0.05538488165478194
4	0xbfd550126452c200	-0.33301219746775246
5	0x3fdd517e88ca10af	0.45809901579219575
6	0x3fd4b332037c0ec9	0.3234372171429923
7	0xbfb7042c3d0cab61	-0.08990742197481218
8	0x3fcc8e2345921942	0.22308770081526502
9	0x3fcec8d85398aefc	0.24050430375915954
10	0x3fdc1a80c12e053a	0.4391176115533032
11	0xbfba819ffa2e75af	-0.10354041917749755
12	0x3fb16842c9f9e359	0.06799714499528643
13	0xbfcd1fab9fbc44c9	-0.22752900409299162
14	0x3fbca8e6bf9e8368	0.11195223024561829
15	0x3fd2d1916f5c6ae4	0.29404102206323857
16	0xbfcbc16ab6cab961	-0.21684011388192473
17	0xbfd6345c11f5cff0	-0.3469457793610209
18	0x3fe1cb8a29aa61e2	0.5560961545734779
19	0xbfad442c8179458b	-0.05716075020303454
20	0x3fce27253365af4d	0.23556962022427755
21	0x3fd3ee71fc7aafb7	0.31142854362655775
22	0x3fe721e3a3bd67b7	0.7228868673366752
23	0xbf9a8800ef81ee2c	-0.0259094377692987
24	0x3fe00998f38fe857	0.5011715657303836
25	0x3fd41bacbf2bdbf8	0.31418913525652625
26	0x3f6f367bd1119456	0.003810159520571103
27	0x3fd5b1324c6435f9	0.3389402147302856
28	0x3fad108f117baeb7	0.05676695907990619
29	0x3fcda372ae9ce685	0.23155053640384807
30	0x3fdaccdc2f923958	0.41875366826652316
31	0x3fc0ff9a4989b725	0.13280037489624266
32	0xbfcb9ba30c8a3c91	-0.2156871615629581
33	0xbfc4bea2d82de022	-0.16206775241494237
34	0x3fc18b87555ba258	0.13707057636135533
35	0xbfad03d21928ecfa	-0.05666977460028906
36	0x3fd469d8f8def80e	0.3189604215984908
37	0xbfbcb9110be4433d	-0.11219889202426443
38	0xbfd2771e154e2c5e	-0.28852035599328996
39	0xbf9b73ece3033494	-0.02680940757345647
40	0x3fc4f23b6720b77e	0.16364233527695754
41	0x3fcc62c50223b421	0.2217642078825586
42	0xbfcf257e1962d4c0	-0.24333168258241322
43	0x3fb287c58fc06eee	0.07238421210825738
44	0x3fd88dbf26958ab9	0.38365153091414644
45	0xbfdc0fe061a7ba82	-0.4384690240539514
46	0x3fb2879d011156a1	0.07238179470126706
47	0xbfc9c8b300976ba3	-0.2014373543632618
48	0x3fd2f188570d3d96	0.2959919786562407
49	0xbfcb4429923da25e	-0.21301765099203157
50	0x3fa7cecb0eca38c5	0.046499581866656516
51	0x3fd4a397545b07ed	0.3224848102364593
52	0x3fca9e43a709096e	0.2079548421480228
53	0xbfe26ecda32312bc	-0.576025789858782
54	0x3fc49df6347653a2	0.16107060968047643
55	0x3fd15d59b3068988	0.2713226555153132
56	0x3fd36999135314f7	0.3033201874462316
57	0x3fc003604013410f	0.12510302666351733
58	0x3fcea389e26da7c7	0.23936580234595636
59	0xbfb53030b45ebf64	-0.08276657489363753
60	0xbfc10a05acb6f6eb	-0.1331183522542497
61	0xbfd5dd87cea73578	-0.3416461485001814
62	0x3fd3d618410151dc	0.30994230602416706
63	0x3fd1ee318fac4e3d	0.28016318350384833
64	0x3fd8ced2b88d9b47	0.3876234819676267
65	0x3fd892c7dc6e9727	0.3839587834030333
66	0x3fb25fb3d41fbced	0.07177280358131428
67	0x3fe1f9a7efa7b106	0.5617255860102268
68	0x3fce5f9121d1e225	0.23729147101745798
69	0x3fd18dc92f6b53ef	0.2742789233282669
70	0xbfb635366282b59a	-0.08674945740741294
71	0xbfe459e479c728ad	-0.635973203513705
72	0x3fe418ccc11a8256	0.6280273219636665
73	0xbfdde10f93c9c813	-0.46686162407343196
74	0x3fc20ca2868e6f8b	0.14101058550010878
75	0x3fc9776b0af6b3de	0.19895685229621923
76	0x3fbdcf7591330ecd	0.11644682688625636
77	0x3fb4b600f9f3bfd9	0.08090215780589406
78	0xbfb25247eee7b09c	-0.07156800825731796
79	0xbfe87c658d2388d5	-0.7651851421944921
80	0xbfc70ce6f7eea0f8	-0.18008124452649787
81	0xbfd954bf271f8476	-0.39579752750984853
82	0xbfa857c4013d2bd9	-0.04754459872363954
83	0xbfc0c0d8306bcd18	-0.1308851467543739
84	0x3fc3a957e160de09	0.1536054468613062
85	0x3fdadaef8a67aad0	0.4196127750025598
86	0x3faf5962863ec706	0.06122882736907624
87	0x3fb43819ab39dd0f	0.078981022170286
88	0xbfd37cbfe4afd488	-0.30448911030482195
89	0x3fc9ad6bfecf407a	0.20060491506456285
90	0x3fa5537c5fc7e337	0.041652571384423735
91	0x3f97cb48d32ce08c	0.023236406220548164
92	0x3fb871bbb42d1280	0.09548543118314434
93	0x3fc30cf6c14cef13	0.14883312643529986
94	0xbfccd7f23f0a3f8c	-0.2253401573002488
95	0x3fbeb9ba6c242843	0.12002148761908508
96	0x3fbaa8fbdff86799	0.1041409894754949
97	0x3fb2f14f1163ac4b	0.07399458097977278
98	0x3fb282b75ba6f5d9	0.07230707156755702
99	0xbfbc27d3e61dbb90	-0.10998272293157485
100	0x3fd119186f880910	0.2671567048238481
101	0xbfd7d256f0e5cca2	-0.3722131111637258
102	0xbfe0bd0c52d87fd4	-0.5230771654205406
103	0x3fc9afd85454df7e	0.20067886464834922
104	0xbfdd46b8a0e6cef3	-0.4574414798073427
105	0xbfc9383816e96a9c	-0.1970281707643452
106	0x3fb17ca279880aef	0.06830802409244162
107	0xbfc8c0f84735a32f	-0.19338897206332592
108	0xbfd332600bd9ba9d	-0.2999496570327354
109	0x3fda3c48c355f02e	0.4099294574332387
110	0xbf9817fce7835215	-0.02352900660555875
111	0xbf868499903f6e42	-0.0109951016565254
112	0x3fd55fd705cec536	0.3339746052470959
113	0x3fd3bb954a07a56c	0.3083241675327233
114	0x3fd8e270d5c5f103	0.3888208472851746
115	0x3f895ec55431e7aa	0.012387792236257262
116	0xbfc3337a8f7dfa1e	-0.15000850683641515
117	0x3fb84bfd35b5f58c	0.09490950166033069
118	0x3f84888b49294298	0.01002606217403583
119	0x3fa78143cc276044	0.04590808741676303
120	0x3fcccaab6e42cf8e	0.22493498691403285
121	0x3fcfa7d1531b3b55	0.24730888898781225
122	0xbfaa88c706e05b82	-0.05182477911892304
123	0xbfe2ddce014d0cd8	-0.5895757699403488
124	0xbfd09e0143cfcdce	-0.2596438562606779
125	0xbfc6c52eb1f7f486	-0.17789252939102002
126	0xbfb06c621f612688	-0.06415379778004582
127	0x3fa7b2ca6da268be	0.046285940058810024
128	0xbfcfcbf0dd56505c	-0.24841128165701576
129	0x3fb4d4435081708a	0.08136387553662608
130	0x3fd461c9995a6895	0.3184684751119076
131	0x3fdde0d2828047b0	0.46684706444022606
132	0x3fb4c2e3a886e122	0.08109877457070927
133	0x3fd4e1236f6f4427	0.3262413585881085
134	0x3fa8695db0e0e591	0.047678878633131146
135	0xbfe361a362616cfc	-0.6056687280173771
136	0x3fd3ab9b92f8f5dc	0.30734910347731925
137	0xbfc11759bc19a3a0	-0.1335251015146044
138	0xbf95cfdbb2113771	-0.021300728553164065
139	0xbfcac3ab0ed94fc1	-0.2090963194374336
140	0xbfaa418da8e8c086	-0.05128138243560536
141	0x3fd48630fd36febd	0.32069039085397916
142	0xbfc5386cd3cca558	-0.16578445760505178
143	0xbfd991b64244ee62	-0.3995185515557066
144	0x3fdffe67f49adb1f	0.4999027146072183
145	0xbfb28386ddf5f639	-0.07231944006886061
146	0x3fcaf956bb880572	0.21073421627810834
147	0xbfe3ee8191b18ffb	-0.6228645177438915
148	0x3fd7a87aefaf4bcc	0.36965821654046915
149	0xbfc9d326709dc06e	-0.20175629137839074
150	0x3f72657ecc34055e	0.004491324714082394
151	0xbfc8607ec55f4d05	-0.19044479977910825
152	0xbf93380b53ef3652	-0.018768479345274543
153	0x3fe23ccb69b535fb	0.5699212135893384
154	0x3fd31d056500849e	0.29864630568961015
155	0xbfd91949c10e9cb0	-0.3921684632609397
156	0x3fc60065258e6c24	0.17188705762677714
157	0xbfc10e8bbd2f29f1	-0.13325640428077137
158	0x3fc0a4a885e3a719	0.13002497232019364
159	0x3fe69a66b3636cde	0.7063477996520324
160	0x3fbd7ad7eba7d167	0.11515569213208253
161	0xbfc4b4324d7daf7c	-0.16174916061151723
162	0xbfdde5b5c9cc4b9a	-0.4671453924831269
163	0x3fc8b45fc252e4ed	0.1930045794340808
164	0x3fd0fa41241c2ca6	0.2652743199002522
165	0xbfe1f278c3994095	-0.5608486004148455
166	0xbfc90806093e280b	-0.19555736018475076
167	0x3fc101c7a6e5e7f0	0.1328668179447159
168	0xbfca991c6d51e044	-0.20779757821924438
169	0xbfb617ca0d0f5611	-0.08630049532742869
170	0xbfa41c05cd0711c5	-0.03927629592684271
171	0xbfd074c9cb47e4af	-0.25712818957942835
172	0x3fcfd65376bdcd7e	0.24872821138306372
173	0x3fc930a791f08cb9	0.196797319659799
174	0xbfbce9fbff98daea	-0.11294531812823619
175	0x3fd0a91d0e2abe7c	0.26032186873906205
176	0x3fc414f0ef679e15	0.156889073273519
177	0x3fbbdc526f5e2db0	0.10883059710447784
178	0x3fccf319d876ca87	0.22616885251553162
179	0x3fbc2f7ef28b686b	0.1100997297429857
180	0x3fd363cf89ce795f	0.30296696145696517
181	0x3fe5254d5f54d103	0.6608034955920917
182	0xbfccb7406799af08	-0.2243423944340679
183	0x3fcbdc8b04bd448b	0.21766793948566873
184	0xbfd09d20d0810da8	-0.2595903431103701
185	0xbfcc3586485ebc59	-0.22038343938536079
186	0x3fb5206b4b49c39a	0.08252592647637727
187	0xbfc133ff6769affe	-0.13439934300856743
188	0xbfd3915e76c98f0d	-0.30574761963201597
189	0xbfbc1a0e026514db	-0.1097725635382462
190	0x3fd22cc5e68daa85	0.2839827300546534
191	0xbfd1aaba5a388d12	-0.27604540644297615
192	0xbfd97544b04b6781	-0.39778248993172133
193	0xbfd2b5a0ef195939	-0.292335732932219
194	0x3fd66fb56d7a6c33	0.35056815806609903
195	0x3fcbb0e26e0e484b	0.2163355862981596
196	0x3fc33dc2bc08d6c5	0.1503222864281978
197	0x3fa8093e46d38b52	0.04694552054004099
198	0x3f99d473940170d0	0.02522450056891118
199	0xbf98e167d6e55384	-0.024297354212950775
200	0x3fa588383b81dc3a	0.04205489851386131
201	0x3fbaf50fe0a8d780	0.10530184969760903
202	0xbfa85cb35475611c	-0.04758224874484737
203	0xbfc74ce719d1cca0	-0.18203438530654115
204	0xbfbcb9428e5f7ec5	-0.11220184303192145
205	0x3fa82c13a591250e	0.047211278878032656
206	0x3fb764b5fe31b35c	0.09138047653114029
207	0xbfccad476d969ac1	-0.22403805590621143
208	0x3f90e175e0efff7f	0.016485063413710584
209	0x3fb1cb77148f05f9	0.0695108819191076
210	0xbfe4d0593eb6e9c6	-0.6504331803219479
211	0xbf9507cb6666e1ac	-0.02053754627715569
212	0xbfb2f7d0f9c84c3e	-0.07409387682155086
213	0x3f83c9ef6813dad2	0.00966250454301357
214	0x3fd6042ff8aa64a7	0.34400557788610303
215	0xbfcc163bfa4e4543	-0.21942853662452863
216	0x3fd6032538849b32	0.3439419795926596
217	0xbfbbeaac492c13f4	-0.10904957567625201
218	0xbf8413a8cf490bb2	-0.009803122354360958
219	0xbf8c0d94bf224720	-0.013697778780883463
220	0xbfc57f8198ff3166	-0.16795368166493602
221	0xbfb66d5f261a9386	-0.08760637932080159
222	0xbf97d307230acedd	-0.023265944970900832
223	0x3fe387fa6c8520b8	0.6103489036113592
224	0xbfc9a05b133edc90	-0.2002061695072581
225	0xbfc95a896120753c	-0.198075458932104
226	0xbfd5a1386aeb07cc	-0.3379651111719084
227	0x3f7d6c50fd4dd9f7	0.007183376660455646
228	0x3fbea42a0605d117	0.11969244620360474
229	0x3fde51f57e5e7201	0.4737523778983644
230	0xbfc6aaaf1ed04795	-0.17708386425561842
231	0xbf835ee517a5e727	-0.009458341392690152
232	0x3fc063499b513f9b	0.12803001483780183
233	0xbfe6b8bb629cbb8a	-0.7100502897281882
234	0x3fc9d9504a3fc2bc	0.20194438577120433
235	0xbfc5b13a90f10db5	-0.16947109296061816
236	0x3fa873e0b4656b8b	0.04775907709218704
237	0xbfd5875e92653459	-0.3363872937814612
238	0xbfad8893a3351002	-0.057682622597468494
239	0xbfe80b9734e1f31d	-0.7514148743499366
240	0x3fb0351eed45cd31	0.06331055920400243
241	0x3fd630f5e542f02e	0.34673831356826923
242	0x3fdda509f1afba6f	0.46319817163649807
243	0x3fdd840e55fb26e0	0.4611850585612114
244	0x3fdf021cc6b71527	0.48450393110063533
245	0x3fd03c46bb491fc7	0.2536789730988826
246	0xbfbebfddb24d7866	-0.12011514285174626
247	0x3fc49c5eb51193a1	0.16102203217738256
248	0xbfc6001b14e1de76	-0.1718782283748969
249	0xbfb43c1ca4dd89dd	-0.07904223465951739
250	0x3fc53e222ba12d9d	0.16595866327621148
251	0x3fe8334ff1e15829	0.7562637066100751
252	0xbf9549a3eef8293a	-0.020788728199513808
253	0x3fbf1ab69084d4ce	0.12150136020939614
254	0x3fb78b3420f4a79a	0.09196782879430856
255	0xbfd392bcfce1f8bf	-0.30583119102074

layer2.bias f8 [80]
0	0x3fd5e2ee961047d3	0.3419758286919407
1	0x3fc3d1a30d82a023	0.15483511123352497
2	0x3f986b07f2cf369e	0.023845791048919034
3	0xbfcf479a7c711ad6	-0.24437266422520193
4	0xbfc3db31ee32eb4a	-0.15512680178457067
5	0x3fd403f70dd4487a	0.312742007737263
6	0x3fa34003100c0b48	0.03759774752508932
7	0x3fd2f7957d837f61	0.29636132485574335
8	0xbfb87c44318a706c	-0.09564615449420594
9	0xbfb9320fd0ff5cb8	-0.09842013218382106
10	0x3fd05268bf693c84	0.25502985661018607
11	0x3fcbc182175f2578	0.21684290066904643
12	0x3fca3f4bd73936d7	0.20505664833984014
13	0xbfc25a5df942c29c	-0.14338278456627485
14	0xbfc68e05559c88b9	-0.176209132006141
15	0xbfc22933c293be30	-0.14188239098392463
16	0xbfc23e0530d53722	-0.14251770862977603
17	0xbfa4624184699496	-0.039812133229852595
18	0x3fc1b7784d6e4ae3	0.13841155796816115
19	0xbfc17769676a0c1d	-0.13645665692828937
20	0xbfa8b27c523c482f	-0.04823673728800803
21	0x3fb10a0b65510be7	0.0665595171313239
22	0x3fb53e6811deaef2	0.08298349796558194
23	0x3fd13e6a180056ca	0.2694344744098599
24	0x3fab90c09caeba1e	0.05383874809864529
25	0xbfcb770d22140723	-0.21457065738655343
26	0xbf9ebf7dad389824	-0.030027354905676998
27	0x3fa479882537c3e3	0.03998971418685195
28	0xbf5312ad70778155	-0.001164121031131134
29	0x3fc43ac44049cf30	0.15804341448858272
30	0x3fd11f5515a0bd9c	0.2675373755655188
31	0x3fd1f5cb55608aa6	0.28062709176644274
32	0xbfaad690f5c76559	-0.05241826057653993
33	0x3f989d4b9c867da4	0.02403753416876743
34	0xbfa8668fbdd82777	-0.0476574820750803
35	0x3fd56852be108bd3	0.3344923835849702
36	0xbfb473009257a50a	-0.07987979481517385
37	0xbf90249178ed53f6	-0.01576449680881705
38	0xbfaaf963332750c4	-0.05268392562325766
39	0xbfacc6eb47c4e576	-0.05620513201797454
40	0x3fd9fd8628ec682d	0.406098880733796
41	0xbfbe1d29fd36a0d7	-0.11763250762908527
42	0xbfc6cc3fa419b5ec	-0.17810817253796019
43	0x3f9041c74679f686	0.015875924755610636
44	0x3fdf2ae024a4331d	0.4869919164491863
45	0x3fd99359dcdc9491	0.39961859291572305
46	0xbfcc833f94b4eaac	-0.22275538216657276
47	0xbfbc2dc04ac5f936	-0.11007310700913284
48	0xbfc535f97f009102	-0.16570967389373698
49	0x3fc5975800b33c0a	0.16868114504038118
50	0x3fc74a2ca6818412	0.18195112352535198
51	0x3fccf934eb79a732	0.22635518548786987
52	0x3fb4b8983244cdda	0.08094168879761501
53	0x3fd5d2a73d524a9a	0.3409822558252614
54	0x3fc2b3759aab387b	0.1461016659945392
55	0x3f88b916460b24d9	0.012071775448378496
56	0xbfa8502e88f52dd6	-0.047486738413308124
57	0xbfb4fd7bdca31a51	-0.08199285637520261
58	0x3fcf18db3f8582ad	0.24294605828892682
59	0x3f7456269e0fa6be	0.004964972352334561
60	0xbfc73ea826573cd4	-0.18159963485820774
61	0x3fa7902b2a63d0d3	0.04602179424719712
62	0xbfc6b444d3dcdeb9	-0.17737636895048128
63	0x3fc1d2316cecf284	0.1392270833838617
64	0xbfc0b8c6688297a4	-0.13063888648065103
65	0xbf67334bbd02e05c	-0.002832076956192293
66	0xbfd088c0fee718ab	-0.2583467950138451
67	0xbfd429e4d9b8fda9	-0.3150570036122767
68	0x3f81f4b5dfc0ff04	0.008767529383589608
69	0xbfbfca20121117f8	-0.12417793694575596
70	0xbfa8ab2dc7ddbfc6	-0.04818099083684006
71	0x3fbf5c47d5037394	0.12250184011959525
72	0xbf33af3bc0f83e1f	-0.0003003617175360868
73	0xbfc097b36b8e0b0a	-0.12962954284383726
74	0xbfc9f1e9097ac070	-0.20269501650682598
75	0x3fc09362ac038e9d	0.1294978465949627
76	0xbfc0f3ff99124a5c	-0.13244624113265757
77	0x3fd8e378239fb249	0.3888836238755045
78	0x3fb852040572b705	0.09500146039018993
79	0x3fd0f3bb04f1759c	0.2648761318467565

layer4.weight f8 [11, 80]
0	0xbfe8bdbd99e25574	-0.7731616979169034
1	0x3f84994859489282	0.010057988381114717
2	0xbfc0a129b15b8794	-0.1299183002475358
3	0x3fd98d514afe86d8	0.3992503387799906
4	0x3fe93c971a577862	0.7886462702260923
5	0xbfc3d4ea391c76e0	-0.15493514813072462
6	0x3fc8a5644cad8e5e	0.19254735702553466
7	0xbfbbaadb0b32e493	-0.10807580016525468
8	0x3fe01bb669ac3c28	0.5033828796312081
9	0xbfc0f547e502642e	-0.1324853771409677
10	0xbfd85eb51c94c871	-0.3807804850686188
11	0xbfede786d41f4d4f	-0.9345125334752228
12	0xbfd9f6db9faf8673	-0.40569201082516954
13	0x3fdc145fa9eab864	0.43874351113743715
14	0xbfe0349b977b5112	-0.506421848166186
15	0x3fddc58a8f656d4f	0.4651819610932834
16	0x3fc07330f06570d7	0.1285153554735021
17	0xbfd34b0fda44019b	-0.30145641627316316
18	0x3fb1cd0f3cfef975	0.06953521002922065
19	0x3fc038f318fc487e	0.12673796386713215
20	0xbfc5e2fa47afabc8	-0.17098930836013282
21	0xbfe44469649452ed	-0.6333510364953249
22	0x3fc5efea0b3f00be	0.17138410138250565
23	0xbfd95f7a518ced8b	-0.39645250286022166
24	0xbfd14fc7a2f8bd22	-0.2704943744201548
25	0xbfba16405f95e267	-0.10190203031187083
26	0xbfc08dc4124a72fb	-0.12932635205370233
27	0xbff0d54edb55cd05	-1.0520771568088219
28	0xbf97643abe697514	-0.02284328257734554
29	0xbfd4247c68bb21d3	-0.31472692706713906
30	0xbfdd2a3cdcd085c9	-0.4557029873268133
31	0x3fb39144029aff1c	0.07643532813653703
32	0xbfcc588822d59201	-0.22145177555934484
33	0xbfcedb999d477258	-0.24107666186945909
34	0xbfb5524a6213bf49	-0.08328690428220144
35	0xbfe1254b2786e143	-0.5358024379739067
36	0x3fc97d927ab7311e	0.19914465896580053
37	0x3fd8bd887c6e7955	0.38656818534390897
38	0x3fd3138a675e5205	0.2980676660020268
39	0xbf9af42dc9a85385	-0.026322093423079024
40	0xbfd335cff652bc8d	-0.3001594453334711
41	0x3fd0af194a981ccf	0.26068718227948023
42	0x3fd6310a79ca13fd	0.3467432202672283
43	0x3fc82eec9b86e26f	0.188932014408937
44	0xbfde59b7de740410	-0.4742259666819004
45	0xbfe9af5ae3f0fc76	-0.8026556446055924
46	0x3fd78636308f7dba	0.3675666307662727
47	0xbfb04d01e95fedcf	-0.06367504069924411
48	0x3fd29a142cc91886	0.29065422414385755
49	0xbfa30a9cc8c65c26	-0.03719034148087301
50	0xbfdae4f2669017d9	-0.42022380844025303
51	0xbfe2502e63eb50d6	-0.5722877456232947
52	0x3fae9302385ce8ef	0.05971533716224708
53	0xbfe468fbc875b489	-0.637815372012157
54	0x3fb663a002e2eb39	0.08745765753239433
55	0xbfc2f49fb772ce97	-0.14809032876438685
56	0x3fabd3c1f58a340e	0.054349957678916025
57	0x3fcddf16b8abcec1	0.23337062852043824
58	0xbfd7bd6437bfa23e	-0.3709345383090613
59	0xbfe0c062f0bb3274	-0.5234846784383778
60	0x3fc8514f0e38ed8c	0.1899813479848088
61	0xbfb55d1efb8482a8	-0.0834521640831648
62	0x3fb71f8966237c2d	0.09032496207827086
63	0xbfd84fc966db8c31	-0.3798697952717616
64	0x3fb224be387a7d51	0.07087315443867694
65	0xbfc4c882d40db6fe	-0.1623691115777816
66	0x3fcdf3a55c14272a	0.23399798389464738
67	0x3fd241b148879bde	0.2852595527933185
68	0x3fc3a1daeca60a5d	0.15337692790133675
69	0xbfc997301553a41f	-0.19992638627380274
70	0x3fb6898bbbce9e7c	0.0880362828744356
71	0x3fc075141d0aaaa3	0.1285729543499957
72	0xbf9e85b07e59f7ab	-0.029806859695319748
73	0xbfc8c5ec67103ba5	-0.1935401442755992
74	0x3fbbb52541733216	0.10823281143093086
75	0xbfc07ee755782b6c	-0.1288727919894329
76	0xbfb3555926493548	-0.07552106079784437
77	0x3fd392987fed1784	0.30582249157702557
78	0x3fbd80ad5f651a51	0.11524470881440975
79	0xbfd614ecccf8d8af	-0.3450271608047712
80	0xbfd1f7cc08b2f49c	-0.28074932908550365
81	0x3fd16a17e342e27e	0.272100421843369
82	0xbfba0e69d8f2757a	-0.10178243204651052
83	0x3fc7b1462d5f616a	0.18509747710664765
84	0xbfe22ad78aec9d54	-0.5677297318806418
85	0xbfd43f5b34c76057	-0.316366960088549
86	0xbfcdf679b312fc17	-0.2340843319306891
87	0x3fba89963a63c5c9	0.10366190839319879
88	0x3fa0898fe97f54d2	0.03229951596555626
89	0xbfc227afae06b06f	-0.14183612820977795
90	0xbfe26d19479e39a1	-0.5758177183904999
91	0x3fd02a6dc67dccd8	0.2525896490471502
92	0x3fa79230b0152da3	0.04603721761176451
93	0x3fd239b5c0d81947	0.28477233726916434
94	0xbfa4dc7f585ec6e9	-0.040744761979466144
95	0x3fba1594faf970f6	0.10189181449226567
96	0x3faecd0c3b6e5718	0.06015814042545581
97	0xbfd58fdb45e9e443	-0.33690530612472375
98	0x3f7e0a976ec2956f	0.0073343196237706096
99	0xbfc25b93ace747cb	-0.14341970388937705
100	0xbf9c0c55ad8c1db3	-0.027390803067673008
101	0x3fca64fe7bcf9a25	0.2062070946260103
102	0x3fbfb2ab25b30533	0.12382001562493343
103	0xbfd2636e7daa2c83	-0.28731882354686195
104	0xbfd671ffa1f31374	-0.3507079202211607
105	0x3fb8b3eed56287e5	0.09649555883018442
106	0x3f856749b21c76e5	0.010450912235281115
107	0x3fd192c2ac8670aa	0.27458254669341875
108	0x3fb54981b90cfe24	0.08315287368622443
109	0xbfd7b659c3d6a7dc	-0.370504800079855
110	0xbfc12c4d8579a7f2	-0.13416451470703766
111	0xbfcb0cfca88a5e35	-0.21133383016125298
112	0xbfee494d7df877da	-0.9464480839121692
113	0xbfd8606351f43d0c	-0.38088305476499396
114	0x3fc9d31cac1e3f4d	0.2017551269932433
115	0xbfbe0003e4ab69c8	-0.11718773205522048
116	0x3fd5b7375bdd31ed	0.3393076321706577
117	0xbfdb7b2745ec436e	-0.42939168766411384
118	0x3fd41e6a56a7699a	0.31435640775966933
119	0xbfd1305ba777d366	-0.26857653955749183
120	0x3fc4ef71a08b68cc	0.16355724658098436
121	0x3fca39f8bdebb910	0.20489415429569435
122	0x3fbde3d98eea698b	0.11675796260025188
123	0x3fb7c7e6e22955b9	0.09289401074905514
124	0xbfac9a6c72592c4e	-0.055865658720528275
125	0x3fd32f2ab9b39aa3	0.2997538388721443
126	0x3fc79afaad5b19e3	0.18441709007875237
127	0xbfda450666f96403	-0.4104629521949052
128	0x3fb0cef8f1c74619	0.0656581487922029
129	0xbfef1e8c02f75c72	-0.9724788721022277
130	0xbfe41b09e18ce23f	-0.6283006100921468
131	0xbfc7fb48583d1150	-0.1873560362674973
132	0x3fce74a1cf036a20	0.23793432815621518
133	0xbfd3cae94bb12c7b	-0.3092597235851781
134	0xbfd7100123dc212a	-0.36035183431569584
135	0xbfac7898719718c1	-0.05560757052039512
136	0xbfc5e4ffc800f367	-0.1710509993153224
137	0x3fb655fd612748dd	0.08724959966574226
138	0xbfd885d533d43d07	-0.3831685072081687
139	0x3fcb83fb87e8cf09	0.21496528755380265
140	0x3fca5bcb050b20e7	0.2059263014437029
141	0x3fcc2c50d12ea593	0.2201024075887231
142	0xbfdaec89cbe557b1	-0.4206871501131629
143	0x3f8a38f6f85d77cb	0.012803964094640371
144	0x3fddbab24965c9fa	0.46452004592643414
145	0xbfe622b5c714e0f4	-0.6917370689689322
146	0xbfd1c1f3065f3eae	-0.27746272680540585
147	0x3fc819b0a62339b5	0.1882839976519343
148	0x3fbf175af8a29149	0.12145012445632121
149	0xbfd28fee0576e104	-0.2900347760546682
150	0x3fcb50a4527cf967	0.21339849498503868
151	0x3fc75d694fb89bc5	0.1825381888640704
152	0xbfd5262a0fcb2c85	-0.33045436422680324
153	0xbfa5afa61efb4039	-0.04235571983520043
154	0xbfe42fbe215adcbe	-0.6308279658759586
155	0xbfcd85da94f02888	-0.23064739487046304
156	0xbfc40a722c4229f1	-0.15656878624970674
157	0x3fcc12a30a6184e2	0.2193187523544458
158	0xbfc9c1b95785fc1b	-0.2012244870529408
159	0x3fb6de6590a514d5	0.08933100491875064
160	0xbfdb3a6808bd1205	-0.4254398427331412
161	0x3fd46d4b668e2f57	0.31917080893685096
162	0x3fb7f76fb284e633	0.09361932857873327
163	0xbfe4e0ef46e918db	-0.6524578461619756
164	0x3fc1d46409739b29	0.13929415189269292
165	0x3fd8a5a2e7e09c00	0.38510964054370334
166	0x3f9b53e25f67c941	0.02668718058880271
167	0xbfbd35d59b7aff2a	-0.1141026978102643
168	0x3fa1a090970ee1bb	0.034428137244904865
169	0x3fa1bac8f5561b39	0.034628181408200516
170	0x3fce2fc5dded1fd8	0.23583291374438775
171	0xbfba36a4229d0eea	-0.1023962578302037
172	0xbfd1a1319251aa31	-0.2754634789368167
173	0xbfcba7b37263faa0	-0.2160553272769521
174	0xbfd0fa95b5a6bd5f	-0.26529448260676775
175	0xbfc7419a54b3b9e3	-0.18168954025118386
176	0xbfd4ff072d9c81ab	-0.32806567625268696
177	0xbfee6f45ffd6432d	-0.9510831829848932
178	0x3fdb93e9db05f2eb	0.43090292347896647
179	0xbfcb6613059f816b	-0.2140525605636968
180	0x3fc23ea785a574cb	0.1425370600290193
181	0xbfe7059c1635b7f4	-0.719434779528227
182	0xbfd4a8121f0cf8cf	-0.32275822670261517
183	0xbfd3d737e3f4eebe	-0.3100108839168846
184	0xbfd0f57843ff274f	-0.2649822868375979
185	0xbfd163b502731929	-0.27171063651293764
186	0x3fc58d7b60316f3e	0.16838018605164423
187	0xbfdf725998f3a877	-0.49135436951349426
188	0xbfc22cd9c7ee0fbb	-0.14199373495295994
189	0xbfe3f25dae6d10ce	-0.6233356863745259
190	0xbfa72be046fd7c7e	-0.045256622949403344
191	0x3f518eb39a7f36d8	0.0010716203632798373
192	0x3fdad797c9c2ba43	0.41940874770344666
193	0xbfdd8385399800ff	-0.4611523687781442
194	0xbfab84b5b42391f6	-0.05374687026941054
195	0x3fd140a8d26bbc34	0.269571500290968
196	0x3fb72fc4548d25f2	0.0905726152824611
197	0xbfb4cad3238e25a9	-0.08121986024902718
198	0x3fa34aa6548c1ed5	0.03767890722343529
199	0xbfac78d8709e810f	-0.05560947775598112
200	0x3fc1f649dabe598a	0.14032862835729204
201	0x3fc67d335a200682	0.17569581890716185
202	0xbfe558fe35169696	-0.6671134030227275
203	0xbfc7b67518e32158	-0.18525565829464585
204	0x3fd08dc49da72789	0.2586528338985024
205	0x3fbb700ed668f7e0	0.10717861876125268
206	0x3fd16adce6f29d6d	0.27214739373672253
207	0x3fab4433d4541fdd	0.05325471846487038
208	0xbfda8ca57ab60511	-0.41483437522409
209	0xbff2f6ba09bf17a1	-1.1852360134812232
210	0xbfcf279a4f3909b1	-0.24339608066845878
211	0x3fdb651665a56112	0.4280448906552162
212	0xbf95c050b5c56985	-0.021241437048368467
213	0xbfe5bf459647c7e3	-0.6795986113704625
214	0x3fdd418304877794	0.45712352220822905
215	0xbfd8eac9983e1a38	-0.38933029048385803
216	0xbfa68aed55cdf64c	-0.04402867958468146
217	0x3fd16bb514c96415	0.27219893484067487
218	0xbfe8524e9114cf34	-0.7600472291582947
219	0x3fdf0bd6461c27d3	0.4850974735896873
220	0xbfcb98ecd5ab680e	-0.21560440476497472
221	0xbfb0a46ab7636080	-0.06500880219698679
222	0xbfe240fb30b30d60	-0.5704322768364527
223	0xbfe168cc0e947985	-0.544042614437601
224	0xbfae5f8ec9582766	-0.05932279784981524
225	0x3fd82e1524bf062a	0.37781265820021537
226	0xbf9474d9ba857b91	-0.019976999291766943
227	0xbfe3c3c44646777c	-0.6176473019183812
228	0xbf89ff1646cbfd9d	-0.012693571124599507
229	0xbfc8b788fb4c06ca	-0.19310104627952845
230	0x3fc53deabae1057f	0.165952054261691
231	0xbf9b045a53495ae5	-0.02638379224148481
232	0x3fd7c25fc85a558f	0.3712386566706635
233	0xbfd61251529672db	-0.34486802163318736
234	0xbfe13fc6c32291f8	-0.5390352069121596
235	0xbfc57b0fc2a1d11d	-0.16781804088135113
236	0x3fbbf8f97054768c	0.10926779739789988
237	0x3fd49b29e0d12ae7	0.3219704337576971
238	0x3fa499ebf03b6145	0.040236828875722476
239	0xbfe6e1426b0ec9f6	-0.7149974909755759
240	0x3fc5384dfde99cf5	0.16578078172754088
241	0xbfa12081770b2721	-0.03345112398308304
242	0x3fd28f9fcd11d1e4	0.2900161268837833
243	0xbfcbdb62c5e39527	-0.21763262426899496
244	0x3fd859b67854babb	0.38047563315459926
245	0x3fb83ad347f84f24	0.09464760310248416
246	0x3fdbca6088435733	0.43422711665094765
247	0x3fcabbdfe3f5b478	0.20885847693299175
248	0xbfeb46d5bfb50bd1	-0.8523968452722049
249	0xbfc2816c557e5e77	-0.14457468199246978
250	0xbfe56948917a1cec	-0.6691019860599261
251	0x3fc5d2652f449f99	0.17048325355540042
252	0xbfb28e7435c3d1a3	-0.0724861747037893
253	0xbfd0684dccff5545	-0.2563662053992924
254	0xbfe2cd67a0e76b9e	-0.5875738279968237
255	0x3fcc29afc95c1223	0.22002217609419103

layer4.bias f8 [11]
0	0xbfd11d32534e4a54	-0.2674070180447974
1	0x3fa317901cd5a671	0.037289145965428434
2	0x3f96a7a4ffb15703	0.02212388811707112
3	0x3f78861f0feccb22	0.00598728307413657
4	0xbf3bce62945e4667	-0.0004242888138544565
5	0x3fc9bb6baaa5492f	0.20103212196642903
6	0xbfb07b8f2e70d47c	-0.06438536533171829
7	0xbfd16268679c525c	-0.27163133733964684
8	0x3fce95ce3940fb81	0.2389467029151682
9	0xbfc513547fe7bd81	-0.1646524071252138
10	0x3fccc47ba301439b	0.22474618396020393
