attack_soft_generative_decision_tree/experiments/vowel_params_state_dict/fnn_epoch97.pth (torch, 69599 bytes, 6 tensors)

layer1.weight f8 [80, 12]
00000000: f303 0ff4 9448 c5bf 0b43 e244 a0e4 cebf
00000010: c0ba 143f 2d1c c33f 122f 7fec 056e c6bf
00000020: 50fe 8e42 3054 bdbf f958 a2d4 1743 ebbf
00000030: 1251 bbe3 e263 e8bf 3f30 ea82 3b0d d63f
00000040: 9448 ab79 72ab d6bf 960c 0c0c b7f2 bd3f
00000050: b830 cc16 7323 b13f 0cd6 d9dc 6cd7 91bf
00000060: d8fe 8c73 4d55 ba3f c05b a968 f004 ae3f
00000070: f935 476d 59d9 b03f 2de5 f815 2df1 e73f
00000080: 1181 7eb5 8844 c03f 6e82 8576 a016 a93f
00000090: 210a 0d54 8b62 d3bf a929 a4a1 4cc8 ca3f
000000a0: 54c0 7cc0 ed01 ccbf d899 34ce 8d47 e23f
000000b0: fcb0 28d2 b1b0 c83f bd8c c400 4408 b43f
000000c0: 250f c88c d321 b93f 6b7d 8aff b586 c13f
000000d0: 869f fcbc cecc de3f d9f6 f25b a3ba d73f
000000e0: 4d16 7200 3823 bc3f a190 73c6 fc10 e1bf
000000f0: abf5 00c2 057f bf3f 5730 e668 b241 c13f
00000100: 2d3b 0c42 fd1f db3f 0c94 11b5 7e58 81bf
00000110: 4486 4140 2550 bc3f f017 0c1e 7ed7 db3f
00000120: b9bf 411a 2077 ae3f e2e2 8c9e 853a f5bf
00000130: 2f74 3531 6ca8 d03f a308 8d18 210c d8bf
00000140: 8ebe 3809 ae70 ddbf b8a1 5d32 24a9 b53f
00000150: c358 c984 81f6 d13f 339a 82dc 10ef bf3f
00000160: 6c01 5c49 335f bebf f66a 211c 4f23 da3f
00000170: 12d1 0646 ac3e bbbf 6263 61ef 4124 e1bf
00000180: 0335 45e5 4438 d2bf d3d6 81e3 da72 bfbf
00000190: 1fd6 d246 cc8b e1bf 540c 70f3 03ee da3f
000001a0: 409c 0298 9f73 dbbf 465e 7ec3 1df7 c4bf
000001b0: feee 7be3 a71f d0bf c35f 0e0d 69f5 d9bf
000001c0: 4aab d253 81bc c53f 1862 095b 0b5c d23f
000001d0: 7f74 58ba 727b d43f 1c75 fdf1 ad3a bc3f
000001e0: b9ba 17aa a172 c73f 097f 7083 691c d0bf
000001f0: ba78 d26d a4c1 e7bf f16b 7f42 f7e0 a4bf
00000200: aa87 043a 31d2 dd3f f98c 2707 a890 d43f
00000210: 47e4 87ad a05f debf 714b 4f9f eadd db3f
00000220: 15f0 1fea 7b00 b9bf d55a 02df 1058 d43f
00000230: ab8e c92e 6933 d83f 6e83 e68a 0098 c7bf
00000240: a4a6 54dc f27e 88bf 480f 170f 5ae7 d0bf
00000250: 819b b71b 0aa2 e03f 0bb9 5927 76ac d13f
00000260: ce1b f425 0fe3 e63f 4866 1845 3a5b e0bf
00000270: b99c b467 90da eabf 2b51 0b3f 8b45 d2bf
00000280: 9ee4 89a2 29e6 ae3f c10b 5604 bb76 533f
00000290: c269 1d5d c1c3 da3f b68d 8a15 ccda 98bf
000002a0: 2655 c8c6 badc 52bf 2799 cc51 5753 b83f
000002b0: c560 5b93 d203 e23f 7269 ef89 18fd 7b3f
000002c0: c867 32c9 63e1 d73f ecbf 097c 215a ba3f
000002d0: 8aa7 e39e 8fde d6bf 94f7 b39f 4168 e1bf
000002e0: 3830 3810 c5e0 ccbf c57d 699b 72c7 a13f
000002f0: fb9a cd02 4416 c13f 15f9 b4dc b1ff e1bf
00000300: 85ae e5c7 9f41 b1bf 66dc e478 f784 b0bf
00000310: 72c3 0147 c845 c0bf f4ca d1c0 e1d0 cabf
00000320: af97 3543 347c a7bf 03a4 b9b8 10b2 eabf
00000330: 1f51 07a5 8249 d7bf f21a b409 0983 e13f
00000340: 168b 4d9a a3f0 ea3f 06fe b0bd 26a7 df3f
00000350: 2517 f620 3151 c73f d842 4859 4d7a bc3f
00000360: f301 2fb3 8e03 c23f 08cf 07af 4f9d d13f
00000370: bbe2 3d03 b693 cdbf 042b 9e82 553b e33f
00000380: f968 2a50 4a51 d2bf 9fd5 3d59 86eb dbbf
00000390: 8631 cb74 f32e e93f 7267 8ad3 c7ac e33f
000003a0: c9c8 512d a14e cc3f 8adb ea73 e5a0 cdbf
000003b0: d03d 66ef 081a a9bf f010 90ec c5fd e0bf
000003c0: a527 5f5a 796f ddbf 20f7 6c35 e9b2 ab3f
000003d0: 9cdc 26e7 a2a6 bebf e094 045e 8ef7 d0bf
000003e0: fec9 d4a8 a4ff b23f c882 2ff9 b74d b0bf
000003f0: 5909 fad9 316b bdbf 291b 30c1 2c51 da3f
00000400: 7d08 3122 4601 dbbf 9f41 3240 96a2 cf3f
00000410: eeba 8b04 0aa3 d7bf a2f3 77ec 656c c93f
00000420: 9615 8811 8c47 cdbf d11f 18b3 2481 d2bf
00000430: f7ec 9644 7957 d1bf d7a8 78e8 f13b e43f
00000440: ccc9 2a7c 49e3 d1bf e53c 1b30 d847 b4bf
00000450: 0bf2 5624 cd1e cf3f a752 771f b421 d3bf
00000460: 4730 06ee d4ef c93f 7f8e ba11 6231 d9bf
00000470: fea2 64c4 9b87 c83f 4143 8078 77b3 ed3f
00000480: 94b3 7617 c76a debf 4c95 8b15 0626 e6bf
00000490: e6d8 1acb a597 ab3f f736 b090 0eda a4bf
000004a0: 64d7 9dfc 11bf dd3f 8ae4 c7eb d5b7 cebf
000004b0: 63ca 51df c182 d5bf c66f 0e7d 48e1 6fbf
000004c0: e06d 51c4 dbdc db3f 096e dbe1 3d65 f0bf
000004d0: de86 5fd8 2f5d ba3f 4534 d898 97cc cb3f
000004e0: 0a1b 99bd 4e27 5e3f c0f2 e9ea d939 ecbf
000004f0: a3ac bd7c f1b3 d3bf c0be cc96 1121 d6bf
00000500: 8f11 9e16 e21b e5bf 2519 4fa9 4b27 de3f
00000510: 8fe2 0c6b 1ae0 ccbf be38 67b4 4eb9 d83f
00000520: d345 2569 0846 e33f cfad 5cd5 39b7 d13f
00000530: 4a5a 3f0f a53d d43f 030c 87e6 c770 e4bf
00000540: 6d8b a5a4 2242 c3bf 993f 599b 5c06 e93f
00000550: 591b 4596 1864 c23f 8e38 9a8f a324 c73f
00000560: ec79 7ad0 0248 df3f 50e2 2e34 45c7 a8bf
00000570: 4435 37d0 4b93 d73f 770f e6f6 227b e1bf
00000580: 8e77 3098 9077 d4bf 0a7e 5359 434b debf
00000590: 77cc 5f21 2148 d23f 91ec 8740 528c c93f
000005a0: 7604 3f8e 9c79 d5bf 3d04 3d04 4e01 b9bf
000005b0: b098 ae39 d71d e3bf 71a0 4186 53d1 c33f
000005c0: 19cd fbb5 c7ae de3f 5fc8 42cd d632 d53f
000005d0: df70 d19e 485e cc3f dee1 2595 24f7 8cbf
000005e0: b7e6 383e 960d d33f 6888 d6c0 4aa1 8ebf
000005f0: a829 7e8e c5c9 dfbf 7841 ca09 d0c8 bfbf
00000600: b3eb 0525 9369 52bf 35be 6285 adf2 bf3f
00000610: 2b69 c977 3d32 d13f 5ce9 6a5c d096 d13f
00000620: e246 759b a327 e93f 8a4d e3c5 4bbe c8bf
00000630: edf0 b491 fc18 d43f 61aa 6269 82a7 d9bf
00000640: c637 6938 a65a d0bf cad3 0066 2780 ad3f
00000650: 33dc 1150 b444 f2bf d262 dd23 bcdd c03f
00000660: 1af1 635d 0b38 b83f 894e 017a 8748 743f
00000670: 1421 5658 918c dd3f a96e b29d 7d64 d3bf
00000680: 04cb 3a33 3098 e1bf 8f28 41e7 f358 d4bf
00000690: cdef f45b 80a8 c3bf 2c45 d4f0 2257 c9bf
000006a0: 8bfc 87f7 22d7 c4bf 30f3 4cf7 1bf8 9e3f
000006b0: 49e4 f935 e08a c0bf 9ba2 8190 67b0 db3f
000006c0: abde 91c8 8402 b9bf 9733 37f0 8a10 e2bf
000006d0: 9435 55dd ede3 c63f b303 fd9b 4303 ebbf
000006e0: 8c9b 7c40 58cd d5bf 49f7 fda1 9815 dabf
000006f0: f018 e2f6 952f cebf 13d1 dbe0 b87e d03f
00000700: ce07 4706 51b3 d73f 00fc 5d6e 453c e13f
00000710: 471f 7938 8291 e63f 404a de3a 6c34 d03f
00000720: 11dd b014 6308 c23f 6303 2e8c d5e0 d03f
00000730: 576c a2d8 124e d4bf cb64 2014 4a2d df3f
00000740: ee12 c4b2 1bd4 d1bf 53c2 5b4e 09e0 e3bf
00000750: 0f6f 35f1 8aad e0bf 7a8f 6f9f d874 e93f
00000760: 2a34 4863 3497 cc3f 3d19 10e6 7392 a93f
00000770: 1d49 f06f 22b4 d03f 7bde 66db 6e98 c0bf
00000780: e181 8be2 ea3a b93f 5f75 a312 a2b6 d1bf
00000790: d5db db78 6932 e3bf 8cda 9235 0bca e83f
000007a0: 44be c165 278e adbf 595d 1995 7440 d43f
000007b0: a6a2 a0f1 bf55 d7bf ba90 cd65 04c8 9f3f
000007c0: 91ca 90f6 e076 d1bf 7726 7235 fabd bf3f
000007d0: a2f5 c6f4 0f96 c3bf 3e4d 89b5 f3d8 d5bf
000007e0: ab7e a51a fb8f c83f 0a4e 7e33 b227 c7bf
000007f0: d798 efe7 c0bf c93f 62f0 8b6e 1d5d e3bf
-0.16627752224852052 -0.24135211337536364 0.1492973859798976 -0.17523263976760767 -0.11456586480107345 -0.8519400742541442 -0.762193150318611 0.34455764565132435
-0.3542143047499249 0.11698478740804527 0.06694716745932083 -0.01742334459273391 0.10286411353171887 0.0586314323197068 0.06581648748325354 0.7481904439111183
0.12709149229068165 0.049000753848990594 -0.30288966377352905 0.2092376508010834 -0.21880885981363696 0.5712346103144297 0.19289229165713795 0.07825112360710569
0.09817239939735296 0.13692355134569864 0.4812504621099766 0.37076648692514663 0.10991239558105655 -0.5333236576084525 0.12303195940417903 0.13481741067914996
0.4238274712560493 -0.008469571972634447 0.11059792345761205 0.43502762731838995 0.05950260468023267 -1.3267875855801141 0.26027970128581307 -0.3757403125529299
-0.4600024309211016 0.08461214284546414 0.28067052810127907 0.12474160560177765 -0.1186401418781366 0.4084050917351044 -0.10642506322512116 -0.5356759715460664
-0.2846843947380224 -0.12284629873633017 -0.5483151801369707 0.42077730916225176 -0.4289320930933549 -0.16379138990008552 -0.2519321176075521 -0.4056036593915417
0.16981522171894375 0.2868679417638602 0.3200346774845641 0.11027037771187448 0.18318577580745002 -0.25173414073832184 -0.7423879761661489 -0.04077885328998566
0.4659541193560651 0.3213291234844316 -0.4745866484295828 0.43541970784752154 -0.09766363588272527 0.3178751161407665 0.37813787049365527 -0.18432623655555908
-0.011960885380705229 -0.26412059281959843 0.519780210623921 0.2761512169153241 0.7152171841888675 -0.5111361836927211 -0.8391801858423583 -0.28549462467823855
0.060349751559394024 0.0011879755341801387 0.41819795697452034 -0.024272145094654106 -0.0011512588490679237 0.09502168414164612 0.5629666212144221 0.006833167891239321
0.3731317009747923 0.1029377868487697 -0.3573340465214804 -0.5439766043852949 -0.22560942928282812 0.034724790068817714 0.13349199425575606 -0.5624627409631865
-0.06740759496977418 -0.06452891065133456 -0.12712958781369427 -0.20949956812872694 -0.045869477466836776 -0.8342364890969524 -0.36386171451637667 0.5472455205461684
0.8418748868683419 0.4945771076636166 0.18216528043211003 0.11124118261092109 0.140733563892368 0.2752265176088575 -0.23107028158462647 0.6009929228906405
-0.28621156529119635 -0.4362502929210112 0.7869813233497076 0.6148413783696312 0.2211495848928904 -0.2314726654055586 -0.04902675554614755 -0.5309781666151405
-0.4599288351570244 0.054099357387242586 -0.11973016875605186 -0.265109626592972 0.0742133056817593 -0.06368589242584755 -0.11491691180893805 0.4112045179939963
-0.42195275630013623 0.24714925894342074 -0.3693261188881668 0.1986205486899993 -0.22874594551118993 -0.28913228501960214 -0.27096397112082066 0.6323174992042152
-0.2794975006646865 -0.07922125982735258 0.24312748217006716 -0.29893210480558213 0.2026315843799031 -0.39363910418817477 0.19163844193942475 0.9281575540099781
-0.4752671937119939 -0.6921415730290987 0.05389135460193177 -0.04072614208426544 0.4647870032271071 -0.2399852181695546 -0.3361057930807531 -0.003891603068451463
0.43535513087928557 -1.0247172186417421 0.10298441917941711 0.21718115771401095 0.0018404263449995372 -0.8820619190369925 -0.30785786802034404 -0.3457683537153393
-0.6596537057635475 0.4711484101684554 -0.22558908679072373 0.3863102685690015 0.6022989324212012 0.2768082221616312 0.3162624977971161 -0.6387671949854624
-0.15045578994166978 0.7820265802529206 0.1436796888103469 0.18080563079678708 0.48877020224781975 -0.048395311946880626 0.3683652432781239 -0.5462813207854954
-0.3197976576064939 -0.4733436939550023 0.2856524301452689 0.19959476614881003 -0.3355475796816515 -0.09767615893817179 -0.5973926664926434 0.15482563071714453
0.4794177319701745 0.3312279705525096 0.22162730936805183 -0.014143262673983633 0.29770427776712033 -0.014956077585171992 -0.4966901675731159 -0.1241579078580396
-0.0011238038024134866 0.12479671961295298 0.26869141290593984 0.274829950572572 0.7860887562075869 -0.19330737268920145 0.31402506093196686 -0.4008489636568467
-0.2555327940834754 0.05761836166531216 -1.1417735221600764 0.13176681281290442 0.09460516958273893 0.004951981740379482 0.46170457483869254 -0.3030084648141647
-0.549827671106272 -0.3179292448372814 -0.15357975473477695 -0.19797169455754593 -0.1628154476784157 0.030243336648015873 -0.12923815379670803 0.43264187919570823
-0.09769468209003189 -0.5645193759643118 0.17883084590213782 -0.8441484495780202 -0.34065824792417554 -0.4075681287721307 -0.23582720331996354 0.2577345081219999
0.3703196107200001 0.5386073260887088 0.7052622893324746 0.25319963215693875 0.14088095197960418 0.26372278870990423 -0.3172652354784921 0.4871392437504027
-0.2785710569153669 -0.6210981874883806 -0.5211844168765952 0.7955134500484597 0.22336439941173697 0.049945470651481895 0.26099453860764915 -0.12965188706379024
0.0985552599991091 -0.2767720396057793 -0.599903808643712 0.7746635481224344 -0.05772517316006234 0.3164340454145154 -0.36460875126298686 0.031036442483483674
-0.2728807838313197 0.12399257473784951 -0.1530170388413526 -0.34136669853360846 0.191893947611779 -0.18089892877888786 0.20116435360905058 -0.6051165732492445

layer1.bias f8 [80]
00000000: 535e 13e6 f031 a33f 86d2 bd4e f0a9 b13f
00000010: 60b8 5fd4 5ee0 d03f 2dca 81d4 f731 db3f
00000020: d8f0 4ef2 bec3 cabf 7944 2c38 6caf d3bf
00000030: af51 9493 db0a c23f bac8 592c a591 d23f
00000040: 3175 74b7 e93e c2bf 5655 a560 7572 b93f
00000050: f0df 2f79 bc76 c13f 7970 c997 c278 8d3f
00000060: ed5f 1a8d 4b18 993f ed76 cadb 3b0d c1bf
00000070: c677 ccfe 9574 a03f 0f10 0078 7137 c5bf
00000080: 1db0 5d47 4702 b4bf ae76 f6cd 9cc1 c13f
00000090: c462 ef6b 1816 c93f 5d6f 75cd 604e d0bf
000000a0: 6663 43db 2858 d5bf c5b8 d91a 157d ba3f
000000b0: efa4 e402 c995 b93f 1aca a0e8 650d d93f
000000c0: e860 09cb aed5 b5bf 9779 0072 5a16 b33f
000000d0: d63d f938 a47b ab3f 92df 133d be8f d3bf
000000e0: 3ff8 f92b 6813 91bf 9826 3208 7e3f b03f
000000f0: c98a f87c edff d03f 8edf 229e 33e9 ba3f
00000100: 11d5 46d6 314a c03f 7484 007d 4b3f cc3f
00000110: 5a78 747b df88 b23f 4300 8724 f6cb d13f
00000120: 6a51 0f02 ba19 bcbf 892e 4dc6 27e8 d33f
00000130: a214 19be b2bb d0bf a349 f50a bb21 bf3f
00000140: fb98 359e 2b68 d43f 71a0 3dce 1fc4 b73f
00000150: d45d 725d e977 cdbf 1ca0 6efb fe3b d73f
00000160: c032 28fa cebb abbf 54d4 af92 4e71 c8bf
00000170: bf66 9528 56e4 c5bf f038 0aca ccf5 95bf
00000180: c89f e33b 751c d3bf b5ab 6e16 9ba3 103f
00000190: 6661 5409 6ba3 d63f b811 c7c3 7108 cd3f
000001a0: c436 10fb 2c9f b23f b1c5 554c 3fa2 d93f
000001b0: 3aa2 6a06 f4e1 a7bf dae6 7e14 c7d9 bc3f
000001c0: b070 3380 3039 d73f bfdc 9a88 0c08 bdbf
000001d0: 840f 5479 1397 d03f 145b 3189 b66d d13f
000001e0: 4f56 1b27 e97c b53f 47f5 c86e 4013 df3f
000001f0: a011 ec0b a0ce a73f 7986 3793 bc4c d93f
00000200: a2de f912 e3f3 c0bf 515e 4f5d 8df9 c83f
00000210: 0dbc 2400 17f5 d93f 3925 872b 2f64 cc3f
00000220: c15b 4d15 ac52 cbbf c272 a05d 7a21 d33f
00000230: ec09 9156 0ac7 b7bf b1a6 4401 3b3b c8bf
00000240: e8f2 1de9 cf1e b7bf 23a7 8557 7444 d0bf
00000250: 760c 2fcf bbc1 c1bf 017b ddcc c0ca d03f
00000260: 2a5c af3c a9ed c6bf fbf9 53c2 a998 bd3f
00000270: 57c7 652a fd76 d73f 0702 ae51 32be d63f
0.03749039467373607 0.06899930879974123 0.2636944841350495 0.42492480995784626 -0.20909869033301365 -0.30758195386540127 0.14095635133766168 0.29013947802662765
-0.14254495103606638 0.09940274819867531 0.13643604199728498 0.014390487916152704 0.024506741034741642 -0.1332163642118113 0.03213947997413373 -0.16575449332606282
-0.07815976612408844 0.13872108513617348 0.1959867980028972 -0.25478382171944763 -0.333505834697965 0.1034711065819663 0.0999417907775244 0.3914427539595252
-0.08529179055165381 0.07455983432053014 0.05367768474081529 -0.30564838375675507 -0.016675594028576986 0.0634688158044362 0.2656205864351873 0.10512087450740479
0.12726424181679666 0.22068160632719336 0.07240101589238304 0.27807382170795253 -0.10976755667008367 0.3110446392572404 -0.26145618976836194 0.12160843865902975
0.318858055592855 0.09283636841939981 -0.23022191107587153 0.363036866702261 -0.054167240177866116 -0.19095785295908974 -0.17103077870961234 -0.021445464927233482
-0.2986119351248786 6.347307281255497e-05 0.3537242499455914 0.22682020244077505 0.07274132852054566 0.40052778677553663 -0.04664576128317717 0.11269802332290216
0.36286556739447473 -0.11340406737405127 0.25922095154259517 0.27232135198339447 0.08393723683124076 0.48555002993437707 0.046498300032939754 0.39530863167428937
-0.13244284082951646 0.1951157289138217 0.40558409704220894 0.2218073809183723 -0.2134604553236539 0.29891833441960725 -0.09288086522523259 -0.18930757104799548
-0.0903139061101218 -0.2541781286914661 -0.1387247811927385 0.26237506872523403 -0.17912784064421433 0.11561070436798808 0.3666375078238295 0.35535867668662074

layer2.weight f8 [80, 80]
00000000: 39a7 4fcb b4dd 903f 9954 4134 faa7 e9bf
00000010: e708 df5f 1fe9 c4bf 5889 bfba 7a62 d53f
00000020: 5a00 212f 0453 b03f 5f35 7479 b6fd d9bf
00000030: ddfb 7eab e4b4 d4bf 502f 6f23 a172 8bbf
00000040: 856b 6dd7 c62e b5bf 2770 99bd 188f c0bf
00000050: c29a 797e 1f92 c0bf 7096 0022 eeec e0bf
00000060: 51ad 2341 00a1 98bf 7608 fe37 88f5 c8bf
00000070: c7de 5238 9910 c23f 9b8e f3ac c08a cbbf
00000080: e335 3352 2c85 da3f 5a88 9c49 d4e5 a23f
00000090: e246 6814 fc3f aa3f 2e1c 395e dd89 dfbf
000000a0: 37d2 0af2 0648 f3bf 73e6 713e efdf c63f
000000b0: 8772 71e4 358b b63f c997 2b12 c110 c4bf
000000c0: d0c5 b08e f6c2 d2bf 6aa5 074f 02d4 9b3f
000000d0: 60b6 ebe3 fc33 e8bf 237b 5b92 e324 d5bf
000000e0: 158d 3197 3740 b6bf 0826 385e 1987 e6bf
000000f0: 9edc 2d07 3afb cf3f 158d 48e4 158a ddbf
00000100: 0f76 6f41 c711 bfbf 50f0 341b d7c4 e4bf
00000110: 5e1e 72a5 ce94 b23f 15f8 4b53 af42 c33f
00000120: 72f8 f4cf 75ae d23f fbc7 bc21 6584 ca3f
00000130: f10d 21a3 c88a b63f 8c8a 4fdd d1ac c73f
00000140: 5ab1 de11 9773 c33f d42a 1822 2fc8 b2bf
00000150: 78ad a6a7 97e4 d2bf 0407 158c ac18 c1bf
00000160: f20d 076b 3c29 dabf 3724 0399 e383 c1bf
00000170: 43af d1ea e3e6 dcbf 6ccc e2bc f125 bd3f
00000180: ef58 5a21 d9b9 c1bf e160 7940 a3b5 dabf
00000190: 7989 5139 a4d8 8e3f be45 dfb7 52d7 d13f
000001a0: 60ca e0fe 90cd d2bf ba8c 5914 9100 ac3f
000001b0: 738b 1e1a 3231 893f 5c83 35e7 9820 c93f
000001c0: 5b90 24fb f8f7 d23f 5812 bdc7 8bf1 da3f
000001d0: 0ed9 402d 098c c83f bd2c c58b b667 91bf
000001e0: d16b beff c3d8 d43f 9638 67c8 b918 dd3f
000001f0: 85db 37e5 b0aa 793f 143c e076 fb7c d43f
00000200: c347 b6fd 4e4f 9bbf 4913 ed95 5a3b b73f
00000210: 64db 60f1 9b5e ce3f 509a 5918 7b8b ba3f
00000220: 8e8c e7c3 ce28 d6bf 6fea 6091 4c1a c83f
00000230: 1aa1 3990 0ab3 bd3f 18de 9965 01aa dbbf
00000240: fc5e f8a1 d450 d4bf a9c9 3a05 cc87 cebf
00000250: ef76 a237 713a f3bf 6415 1bf7 ca9f f0bf
00000260: 0b9a 79bf ae47 cd3f 8ee5 481d 6112 b73f
00000270: dced 5503 5301 d93f fd82 d02d 42b2 d33f
00000280: 07c9 94c4 8063 c33f b15e 8fe5 af9e d43f
00000290: f393 bdf6 478b c13f d3ee cc78 2b70 b13f
000002a0: 35c8 5c15 a5d2 b0bf b937 8a84 336a bd3f
000002b0: 6dc0 78e8 14ae a33f 5644 bce6 3cfe bdbf
000002c0: f061 ebce 1827 cd3f ba1e d90b ec80 df3f
000002d0: b8cf 6a73 eb11 d2bf 9ab1 ea81 b958 c7bf
000002e0: f1dc 6d70 3a71 d53f 23a4 b5f4 d5af d93f
000002f0: 70cd 41db ad35 d73f 2154 0135 9069 dbbf
00000300: a67f 22ee ac8e de3f 5852 4a96 daf9 ad3f
00000310: 464b 2565 4540 db3f 04c1 904e a9b2 c03f
00000320: 5d1b 825d 62b6 b33f 1752 9660 74ef 8cbf
00000330: c38d 0fb6 d492 bb3f c89e f158 955c c73f
00000340: 26e4 0665 307a c03f fb31 be7d f32d e1bf
00000350: bafa 28fb b489 db3f 56d2 dfe0 c172 cdbf
00000360: 7df2 e3b3 5ee5 c13f e804 4a3f c3cf d33f
00000370: a504 beca a68e c53f b38a 990e 3302 d73f
00000380: 43a5 3ceb 0aca a1bf a8ac b477 a8cf e13f
00000390: 0406 ef6d 8df1 b0bf c850 8d06 706d d93f
000003a0: c44e 2eee 0a62 eabf fcd7 d11a aeee b4bf
000003b0: 5cc8 c8bf 9daa d93f 129f 92e9 1b58 88bf
000003c0: 54ed 71da 138e b43f 687f d30c 07dc b3bf
000003d0: 1736 5eee 9b88 843f f0d1 7bc5 e4d4 a9bf
000003e0: d88c e815 5dd1 c23f f6c8 981f 38ac b13f
000003f0: 4597 24f8 fa8e 93bf eeff 0d92 13e4 d9bf
00000400: b1c3 516d 2fbe afbf 0609 afbe feef dc3f
00000410: c0cc 998c abcc d43f 9c47 4635 886c b9bf
00000420: 6015 4515 a236 cf3f 6cd9 5bd4 8c4f d53f
00000430: 573c 4411 5b55 e2bf d19a 1919 c11f c83f
00000440: 1f73 f201 0c71 a73f 5563 6dcd 6336 b9bf
00000450: a57e 8d9f 9343 e0bf 5e2f c86d 2e25 e03f
00000460: 444f 55ab 95ca bdbf 8396 d634 9543 cdbf
00000470: 6167 dd8e aa58 cabf 5ca3 5581 fa76 d6bf
00000480: b4b1 dae6 6353 dc3f c479 eeaf d4ba d63f
00000490: 1c1b 7248 b182 c4bf 5657 8e94 beab ba3f
000004a0: de01 2e20 989c b83f 4d4a 6f63 fb3b a03f
000004b0: 54e4 9ac3 5065 d93f 6c27 c8d6 b6ba c2bf
000004c0: cdb2 729e dc9f a33f 42ad f743 7760 c43f
000004d0: 0664 e037 a9ce d6bf 1618 c32d b83d d23f
000004e0: b1e0 d10f 731d ddbf cd40 e9e4 58ed 83bf
000004f0: c6c1 af34 6907 d53f fb80 1205 e56c ca3f
00000500: bf8d 299d dd06 d3bf 2324 54ac 0327 e03f
00000510: b725 8325 9514 b43f 8a9a da32 47dc debf
00000520: 73f4 db07 858d d23f fcc9 052e 437c b7bf
00000530: 151a 5b94 d770 b73f 807a 701b 7639 d03f
00000540: 417a 12fb 44bd eabf 3911 0b9c 7c05 ebbf
00000550: 8830 dfa4 d545 c7bf 5ec5 bd9c 1169 cc3f
00000560: 1304 9e99 40a7 e83f ef40 27aa ef23 b83f
00000570: d069 f9fd 8c00 e93f bd62 73c8 48ac d5bf
00000580: bfa2 f168 5ae5 aebf fc64 c228 bafb b4bf
00000590: ee81 85db d112 eabf b46e 586f 9e1c d1bf
000005a0: daea d999 4b43 bfbf 080a ce55 e230 c5bf
000005b0: ba40 4256 1764 c1bf d42e 9328 5fe7 bcbf
000005c0: 74c8 ef2d b784 ce3f 4aa0 997c cd54 c73f
000005d0: c9c4 c1d8 d9aa b3bf f9a4 f884 c726 a0bf
000005e0: 1ee6 b6e5 52f0 bfbf 0f60 6297 cd03 e53f
000005f0: 2dd1 2214 638d 63bf 5516 3a78 ff78 d03f
00000600: a9a7 9883 eb52 86bf 8f4a b1b2 5766 ccbf
00000610: 8046 b49c 50d0 e3bf fcf3 16d1 941f d53f
00000620: 6b31 be11 ff4a c0bf c5d3 b6f9 9237 d9bf
00000630: a109 05f9 0d01 c33f f13b 3c53 d0ab d0bf
00000640: e3f8 67de 495a b83f 2aad ddf5 50c2 8d3f
00000650: 0d50 9f22 51f0 d23f 9ba2 aa1a a238 b63f
00000660: bd96 48c6 a61d c2bf f48f 3dd0 6cf2 a1bf
00000670: 6d71 24b4 b846 953f 1fdc ef17 d5f8 c8bf
00000680: c3e5 a7fa 6c89 da3f 6a63 1d19 0d9c bebf
00000690: 3950 0168 9e83 ba3f ba5e a343 3adb d1bf
000006a0: 60f9 282a b1bd e1bf 2215 dd5e 1c33 b93f
000006b0: 59b3 2707 c19c 993f adf2 fd0d 112b cf3f
000006c0: 3d4d 823e 758d e13f 402c 7e6f c404 c2bf
000006d0: 934a 8763 3b7e d23f 53e6 7662 14d4 cf3f
000006e0: 1095 c22a 47ea d0bf 4828 fddc 89a4 e5bf
000006f0: 7a37 4985 3fc7 80bf 7008 ea3c 5e7a 1dbf
00000700: b287 1d78 a19a dbbf 2b3d 16b6 293c d53f
00000710: 9623 1fd6 a4e2 d43f a8cd e65f 1a73 d43f
00000720: 84b8 1aa5 7d39 d13f bd1e b214 685c c83f
00000730: 7eb3 2248 e9c7 99bf c543 dc5a d65a e03f
00000740: 498a a3b1 f504 d3bf f719 1ff3 aa33 c53f
00000750: 09ba 58f3 1cd2 b23f 6d33 bf0a cfe0 a63f
00000760: 4df4 9bc7 5290 cfbf 8f90 15a9 c061 ca3f
00000770: c51c a25a 40d7 a5bf a452 83e3 7d87 d6bf
00000780: 6277 9864 4669 d43f 82dc e7b5 2c0b aa3f
00000790: 51f9 796d ca0a 71bf 6da8 9434 61c6 b8bf
000007a0: f362 25db f7c7 af3f 8c93 9bf4 f056 c83f
000007b0: e8f9 17e0 6c2c c7bf 563c efd4 bbca d8bf
000007c0: af66 b40f 6862 e33f b493 a2cd 96b3 cf3f
000007d0: 28a7 4e5f 148c bc3f da42 995b 6e78 dd3f
000007e0: 89fe ff27 7353 cd3f 0878 e940 efe3 d53f
000007f0: 4aa3 3466 65ee c7bf 16d9 e275 28da dabf
0.016470742138984227 -0.8017550488099402 -0.16336433583462126 0.334135706301955 0.06376672888382143 -0.406110399825442 -0.32354084727915994 -0.013402232068891046
-0.08274500617464582 -0.1293669629839098 -0.1294593207887456 -0.5289221443278631 -0.0240516700513756 -0.19499304517745814 0.14113154649907342 -0.21517189450161286
0.4143782427534843 0.03690970800950373 0.05126941441643652 -0.4927895946643187 -1.2050847487236191 0.1787089400202607 0.08806168391442713 -0.15676129710408152
-0.29314960417385993 0.027175937722778633 -0.7563461734368495 -0.3303765229483579 -0.0869173759579563 -0.7039915886136336 0.24985432959122006 -0.4615530709581475
-0.12136502597373798 -0.6490283519156126 0.07258311785892022 0.15047256056999517 0.2918982058362253 0.20716537616095806 0.08805517180103785 0.1849615412348452
0.15196503040841486 -0.07336706716902636 -0.2952021729676839 -0.13356549110363158 -0.4087668461981756 -0.13683743449499428 -0.4515924256472667 0.11386023389313643
-0.13848413590012096 -0.4173362855558605 0.015061648368093416 0.27876728016152785 -0.29379677668035775 0.05469182370577515 0.012300864622209784 0.1963072899771089
0.29638504529635207 0.42099279885977614 0.19177355489382147 -0.016997196465393872 0.32573032355292947 0.45463413782716466 0.00626629924544531 0.3201283131501793
-0.026669725642541452 0.09074941788010195 0.23726224218418246 0.10369080872042358 -0.3462407029275675 0.18830258463443125 0.11601320286866149 -0.43225130960442604
-0.3174335080852726 -0.23851919417718406 -1.2017681287028912 -1.0390119221277354 0.22875007962575497 0.09012419667205604 0.39070582700489154 0.3077550361067976
0.15147409056368863 0.322185491733289 0.13706302211645002 0.06811782550078797 -0.06571418544334125 0.11490175233686174 0.03843751275815142 -0.11716061242283735
0.2277556429242078 0.49224377781909434 -0.28234373351301256 -0.1823951610907784 0.3350359056416457 0.4013571634046135 0.3626513138944665 -0.4283180730465706
0.4774582219633835 0.05854685864065762 0.42579779508121296 0.13045231186107042 0.07700171263614437 -0.014128598401648635 0.10770921177714059 0.182512920789341
0.12872891362147348 -0.5368592697064395 0.4302799656615367 -0.23006461601439082 0.13981231483184678 0.30955582790927716 0.16841587924503645 0.359509243257132
-0.03474458810371541 0.5565988862994304 -0.0661857980149066 0.3973045410141478 -0.8244681026430603 -0.08176696924951438 0.40103858689247374 -0.011886804643225033
0.08029293139582211 -0.07757610381258717 0.010026186191477255 -0.05045237456025464 0.14701427049394655 0.06903410693556453 -0.019100114245836925 -0.4045456816020295
-0.061997873396541954 0.4521481382509055 0.32499207239670724 -0.0993123178543826 0.2438547710282064 0.33298035371935586 -0.5729194009053441 0.18846906400286526
0.04578435443656858 -0.09848617329897753 -0.5082491031898441 0.5045387405566364 -0.11637244637432526 -0.2286249645232382 -0.20583087898085764 -0.3510118735344372
0.4425897364078779 0.35515324765028944 -0.1602384189356706 0.10418311240058861 0.09613943849217985 0.03170762623598886 0.39680880643897365 -0.14632306563754172
0.038329023687173704 0.15919390505528425 -0.35636358696643844 0.2850170561690687 -0.4549224524012159 -0.009730047689260246 0.3285773291127295 0.20644819972677184
-0.2972940478122971 0.5047624936861478 0.07843906560733314 -0.48219470945552045 0.2898876740217197 -0.09173984407042463 0.09156558391541865 0.25350716285348796
-0.8356041816476322 -0.8444197700232855 -0.1818186812437299 0.22195644524939956 0.7704165459000499 0.09429834274419922 0.781317230266092 -0.33864039969698095
-0.06034357577374782 -0.08196605200864221 -0.8147973334817473 -0.26737175820901915 -0.12212059503682884 -0.165554325005431 -0.1358670397935436 -0.112905452161779
0.2384251570034085 0.18227547248830184 -0.07682572881619189 -0.031545863134235526 -0.12476080044043455 0.6567142445301232 -0.002386754525185128 0.2573851274577
-0.010900344804287547 -0.22187324738714095 -0.6191790638569756 0.3300525705233779 -0.12728870741228646 -0.3940169752707415 0.14846968325771306 -0.26048668030210737
0.09512769393765867 0.014530785086853532 0.295917781649451 0.08680165434874214 -0.1415298908406636 -0.03505268136976261 0.020777593607918577 -0.19509376210018645
0.4146377990542442 -0.11956865180162671 0.10357084311664345 -0.2790055904892871 -0.5544057677687242 0.09843613925939512 0.025012031614028405 0.24350178893282273
0.5485178204420788 -0.14077048725116192 0.2889545890767888 0.24865965659937447 -0.26429919410505054 -0.6763352695645688 -0.00819253564364052 -0.00011244964773918383
-0.43131291131987404 0.3317970541183565 0.3263332453757867 0.3195253311671089 0.2691339599940721 0.19032002459083755 -0.025176663425259253 0.5110885405175557
-0.2971777186159313 0.1656392752758646 0.07351857129172158 0.044683904706835566 -0.24659189936201856 0.20610817199770223 -0.0426578627239507 -0.35201976030411175
0.3189254743937139 0.0508665058186404 -0.004160681469896525 -0.09677703412731527 0.06207251119730541 0.19015323585258803 -0.1810432523925123 -0.38737388414751217
0.6057625109417212 0.2476681236340973 0.1115124447520911 0.46047553010161624 0.22910918667911442 0.34203702296315486 -0.18696277132519362 -0.4195653105956735

layer2.bias f8 [80]
00000000: 08c8 a5bf 52dd 863f 4c11 8bd3 9023 d13f
00000010: 783a a6dc 49ef 9c3f 9055 735d ea42 ba3f
00000020: 5d72 9619 9636 b6bf 3b4b 3c8d 280f b0bf
00000030: fe52 a4d5 29cb b93f 43bc e00b 796f 603f
00000040: 06f8 ffbe a7e3 be3f 8557 4f1a 8b20 cbbf
00000050: f2cf 4bbc 4859 b8bf 3781 e3c2 2792 78bf
00000060: cd0b 610a fafa c1bf 0a58 7c61 3edc ba3f
00000070: 5729 27f9 ed70 dd3f 6b29 9e12 268c cd3f
00000080: 3298 df40 48e2 b3bf 5764 c410 5161 bebf
00000090: 5898 e7b8 ba63 b63f 94cd 5975 fda5 c43f
000000a0: 7e38 4040 b777 d3bf cf69 b71c 4b72 b5bf
000000b0: ecf2 f5c7 ad8b c73f 5ea2 c256 57b3 b5bf
000000c0: 935c 004b c32b c93f 3909 f455 b833 df3f
000000d0: 0ac1 d669 34ea e23f 8966 870f 9848 d3bf
000000e0: 2440 a45a bb02 b8bf bf84 1869 ceac a9bf
000000f0: df12 7a6a a335 ae3f 4588 79a2 d027 b2bf
00000100: 16fa 133d 6bbe babf ad6b fe10 cf80 c1bf
00000110: 3567 c3c4 9ac7 9dbf bc82 b716 8909 53bf
00000120: 6841 a997 a12c d9bf aab7 cc39 ffe0 b4bf
00000130: 0170 dcce 70e6 b23f 3bb8 2155 c7fe d33f
00000140: f6b3 cda5 093c b2bf 10e6 e886 2799 c43f
00000150: 811f d334 83fb e13f 3e25 7191 1c5d d53f
00000160: 1a9f ec75 d536 d03f f4ef c6ec 3bf1 b6bf
00000170: d3dc 5787 8f1c d23f 78d0 879b 009d 86bf
00000180: c13d 6333 3722 bbbf 1ea4 784e 5f7c c8bf
00000190: 0d50 a7a2 3fad b2bf 3420 2fa6 2a08 b63f
000001a0: ead7 3f87 82a6 cf3f 7a9f 6461 3821 c73f
000001b0: 0004 5f80 0beb ba3f 4754 0776 b702 cdbf
000001c0: e7eb af34 d3f5 b83f 6170 fc4d fff2 9e3f
000001d0: 2430 2bcb e831 b3bf ff99 a24b e014 c2bf
000001e0: 09cf 7328 81af 5d3f 8ea2 8a8b 2214 b5bf
000001f0: e14f bf55 99ed cbbf ef35 a890 6afa d43f
00000200: 5e1b 7732 91aa c73f 8608 7803 2d3e c8bf
00000210: 6f89 a329 f91b c03f ec7d 491c 0589 c3bf
00000220: 31a6 2469 a583 b1bf 87dd 27d5 e805 b7bf
00000230: b690 143f 96c7 a2bf 92d6 2446 5fa2 b73f
00000240: dbd4 993f 19bf bb3f 6486 506d 9a96 a33f
00000250: 67f1 bd8d 8178 c83f 7150 a2e5 5edc d1bf
00000260: 3732 095e 0ee9 b8bf 6196 f372 ac5d b0bf
00000270: 9316 283c 6dc5 b0bf b821 83de 2ac7 b3bf
0.011164328073139287 0.2677957597591287 0.028256563274732888 0.10258354932314817 -0.0867704212636879 -0.06273129890568623 0.10075627771250237 0.0020062793910465017
0.12066124356348959 -0.21193064484276306 -0.09511236760209821 -0.005998759572520654 -0.1404717016867764 0.10492315177938863 0.4600176747450368 0.23083949956010072
-0.07767154296706805 -0.11867243441919705 0.08745924963258866 0.16131561498660274 -0.3041818740320038 -0.08377522898755461 0.18395015968044193 -0.08476777904673713
0.19664803659609173 0.4875317420375214 0.5910894457975087 -0.3013057853364463 -0.09379168475084093 -0.0501465323725454 0.05900297808424226 -0.07092002836864804
-0.10446806183970411 -0.136743434236306 -0.0290817434878143 -0.0011619414097980138 -0.393349073511692 -0.08155818139195384 0.07382874536818919 0.3124254542698314
-0.07122860238969494 0.1609239014376702 0.5619522124988948 0.333808080704859 0.25334679142041383 -0.08961843996706859 0.28299320428000135 -0.011041645761885585
-0.10599083904820984 -0.19129554111103259 -0.07295606347116763 0.08606211240032807 0.24726897815679588 0.1807013011505168 0.10514900096951862 -0.22664540541760145
0.09750099216755324 0.03022383607377355 -0.07498030624555035 -0.14126208966372641 0.0018118630703697922 -0.08233848482871961 -0.21818844496613024 0.3277841961542824
0.18489279712795342 -0.18939745587710294 0.12585367711205772 -0.15261901742176975 -0.06841501061412526 -0.0899339218520848 -0.036678977203594185 0.09232135260102783
0.10838468363529634 0.0382583864632238 0.19117755337709783 -0.27907535958480084 -0.09730615421103371 -0.06392934614594871 -0.06551249235789162 -0.07725780422618456

layer3.weight f8 [11, 80]
00000000: d4f7 0c7b be78 d93f dc79 ca57 0c53 dbbf
00000010: 073d 0616 e3c0 a7bf 98df b7ea e751 e1bf
00000020: cdd3 6c20 c088 c73f a2f8 dda0 31ae 413f
00000030: 6f02 16d4 61cf c5bf 4dbe 50e3 c0cb c5bf
00000040: 3ca8 56ba fc09 b33f b4c5 351d 865e e03f
00000050: 23a1 e314 b831 a3bf 21ab 8ea8 8341 cf3f
00000060: 92f1 e660 f9a6 de3f 9e9d f83e a641 e0bf
00000070: caf4 86ca 7611 c8bf 2b4e 9846 89f2 cb3f
00000080: 6360 25e6 ff61 c53f 9171 5f82 4dcd a83f
00000090: 5cb9 60b2 fb2e d1bf 46d0 d115 ce6d b13f
000000a0: a021 c0e4 e8d0 e03f b274 9a1f 22ca a83f
000000b0: a53e a667 12dd 9fbf b71b 7ea6 6a92 c8bf
000000c0: 040c d9eb 0870 d6bf d84a 469a efaa cabf
000000d0: e6d7 bd46 e899 ccbf 5a51 cd41 98d8 db3f
000000e0: 83a2 ef81 3681 d6bf 8961 41bd e1bb d0bf
000000f0: f2af 86d8 f38d d6bf 8d78 c3c9 ecf0 c33f
00000100: 0949 2b10 a37d b7bf 8515 a73e 76ad d3bf
00000110: 0a40 8d00 80cd d6bf 35f1 f61c bb28 c0bf
00000120: 6f8b 35b9 a9ab da3f d4b7 19e0 af42 a8bf
00000130: bd23 8e5e 82a3 cbbf 7ae1 4ef8 5351 dfbf
00000140: 781d 39bd 41da 7ebf 745d 6346 dd0a d6bf
00000150: f1c5 561f bdc6 e4bf 547d 5751 c51c c1bf
00000160: 5b54 9387 80fc ebbf ff0c 56ee bc7a 823f
00000170: cd91 4a0d 3ccb e7bf 3087 f69b 5dc1 c33f
00000180: 46d3 991a 9666 ce3f 0830 e4bc 91a5 c73f
00000190: 05df f1b6 91d3 e1bf 7b56 0f53 d10f cebf
000001a0: 9170 c56f e2da dabf 51f7 ab84 daa0 cb3f
000001b0: 4c9f c520 4758 d0bf 918e 7d41 e1fa d03f
000001c0: 959e a35b 3f45 e2bf 138a 15c1 ff39 c73f
000001d0: b937 b00e 2a81 c13f 9aab 39ed 45e3 cd3f
000001e0: 1a29 bc1f 24ae ca3f 9aa2 0cf4 e176 c03f
000001f0: 06b3 0ee4 7bb4 d63f f4f0 2530 4752 c9bf
00000200: ba5b c603 4703 dcbf 15f2 1a67 fb5d db3f
00000210: effd f5bd 29d0 cf3f ac3f 9e51 345e d73f
00000220: 96e2 f36d d198 c43f 6f42 10dd 278e e8bf
00000230: a54a 19a4 4795 c3bf b7d8 82e2 f756 d7bf
00000240: 9c5d 72fa 6102 a83f 4993 3d00 9e27 cabf
00000250: bb92 d1be cb45 b53f 8c5a 1762 3a87 d83f
00000260: 7e64 0fea 0810 a1bf c58f f727 b745 b83f
00000270: ad12 38dc 7411 d2bf 7d04 23e9 dc8f c23f
00000280: e4f6 3541 29d2 dfbf f605 d55a 8a8d dabf
00000290: 0a32 7207 9195 cd3f 7bce 0a57 0ac0 993f
000002a0: 61f6 9cfa 2b8f acbf 1754 bd57 6868 b6bf
000002b0: cfd5 6312 94cd cfbf b7e8 0e21 1256 d3bf
000002c0: 59b9 eded e025 debf 30a0 7da6 c03d bc3f
000002d0: 0372 c253 29c6 d23f 9b47 0268 c445 d03f
000002e0: fbe4 2eb8 227b d1bf b8e8 95db 9959 92bf
000002f0: a616 268f 55ea 9cbf cf74 bfb6 aa13 c23f
00000300: 452e 31d4 7944 c53f 9f03 a8d9 23a6 d0bf
00000310: d8df e3c9 a539 953f d22f 235a 818f dcbf
00000320: 1d17 81d2 c9d3 d7bf 8823 7346 1dac 8dbf
00000330: 0bd6 a508 80f1 d2bf 0aed c254 b876 d1bf
00000340: 1bee d9a3 4dcd c93f 8390 6bb9 a924 c73f
00000350: f4dd 9886 5eca b73f e6aa 40fc 677b cd3f
00000360: 69b4 4c49 163b d4bf 8556 7274 e179 d13f
00000370: a71a 6905 f2da dabf d337 5685 616a a5bf
00000380: 2b3d ff35 9026 d33f 1442 a74f bad4 f4bf
00000390: cd71 0bf3 3668 c23f d46f 7539 0f81 c8bf
000003a0: 48ac 817e 1e2c c93f afee 2ef7 5e47 d23f
000003b0: e568 e21a e27b dabf 7a7d 7df2 6e8a dabf
000003c0: ba0b ad55 10d7 b1bf 1b0d f60b 8ecc f0bf
000003d0: 1c15 97af b790 dbbf 2fc9 9706 c54e c93f
000003e0: 8b8a 65af 0cfa b33f 57a9 8bc2 b694 bfbf
000003f0: 4349 6126 958a d8bf e216 95b7 e2d9 d13f
00000400: 6a50 26bb b38b cf3f af94 ff66 e727 d03f
00000410: eb54 d3e6 d7e0 d3bf d578 3efb b154 cf3f
00000420: 4a50 2334 406b ddbf 459d d816 1139 b23f
00000430: 432f 5584 74d8 c4bf f610 61dc 681c 953f
00000440: b2e6 026a 0739 dabf 2155 51a1 90a0 c7bf
00000450: 70cc 1a29 4922 c2bf 0f3f 8e79 4dfb b63f
00000460: b899 81b8 6ed2 dbbf f4cc 21e9 6c5d b6bf
00000470: d11b dd52 5dec d13f f544 0604 7870 cfbf
00000480: 0efb 2b61 6792 bc3f 475d 85d0 a197 cb3f
00000490: 01c1 e5ab 6a7a 9b3f c540 3bf6 078a 79bf
000004a0: 7c61 7f67 97be c5bf b8b4 dd41 9094 df3f
000004b0: 3a70 5629 17d8 dd3f 4618 77c1 6526 c9bf
000004c0: a385 94bb f7ff f0bf 6565 f99e 2b92 c23f
000004d0: 8b8e 50c3 7bbc cd3f 6b6a 7185 0053 c03f
000004e0: b186 aa66 1689 b13f 45fb 7112 a7ca a8bf
000004f0: 34d2 7bb6 4c5d b23f d8a1 36fb a4b9 ac3f
00000500: c275 5afa b0a0 e23f c952 a247 f5ea e5bf
00000510: f224 2061 258e cb3f ef0d 67ef fc47 ddbf
00000520: 5a40 3044 fb96 acbf 8fa2 8658 d9ff d3bf
00000530: 34a0 e1ff b1f2 c13f 1c0e 0240 517e e5bf
00000540: 5cb8 b70a 3fef e23f 5469 1e1d 0b5e a33f
00000550: 9786 3b8d 6d42 c9bf c390 f48b 0f73 b9bf
00000560: bac6 cfc6 3b70 6a3f 203f 5291 edf1 aabf
00000570: b99f adb2 b712 c33f 5a76 174c b3f1 be3f
00000580: 57da 7660 af29 c0bf 81b2 9289 9c78 dfbf
00000590: 7543 7e56 9bdf e1bf b846 419a 8d51 d5bf
000005a0: 59be 1205 79aa 8bbf bdcc 9f96 2d13 b1bf
000005b0: 05ab 950e 18ce b63f 8ce3 7c91 6ab5 c4bf
000005c0: 4f82 4999 8163 983f 484b c835 f8cc c73f
000005d0: fc8b 6aa5 cb08 cd3f 79c7 8034 42cf b63f
000005e0: 63b8 2a5b f695 96bf a60a a37c f635 cebf
000005f0: 01e3 ec6f a163 c0bf 4c44 3dd9 2944 90bf
00000600: 4449 ae07 7ac7 dc3f 731e 6a93 04d6 af3f
00000610: 552f eef8 a6fe d6bf 71b1 4615 d453 d63f
00000620: d73a 857d 056e babf e9ff 97f0 1ee3 84bf
00000630: f6ab 5863 6b99 d5bf b533 326f 5001 bc3f
00000640: baff b2ca da73 b6bf 6cbc cb3b 902a e7bf
00000650: c834 f4e6 76ab c7bf c3b7 b353 3c78 cf3f
00000660: cbbd d10c a14d debf b8c7 7269 4ce6 aabf
00000670: 465a 5ddd c0e1 dbbf ade9 dfe3 8a9e b9bf
00000680: 16a5 b120 9110 b4bf 36fd ecad 72f1 d0bf
00000690: d160 c795 795c d7bf d957 01f5 f281 c93f
000006a0: b0b0 42df d5d1 c43f 2783 d74b bdcf b83f
000006b0: 2951 aa6d 4b9c d8bf d283 1acd e85b c8bf
000006c0: 6bf5 7872 ca56 a13f c0de 9e0c 2624 e7bf
000006d0: 9924 efcf be7a d6bf ee40 8917 1b01 d3bf
000006e0: 8096 2dd6 cbcb c6bf 160f 1040 6276 d53f
000006f0: 0686 cad1 60b2 e3bf 4810 0f30 04e4 df3f
00000700: 14b1 38ea c8d6 b13f 1dfa 10a4 14ba eabf
00000710: 66cb f80e fe8a d53f 9011 acb6 da76 c8bf
00000720: d778 9e37 09fe ccbf 7610 ad33 3499 97bf
00000730: 702d f301 7ac2 c13f cca0 3477 b58c e0bf
00000740: ca3d 5ce3 407e e5bf 760b 8b31 2045 e0bf
00000750: 5b2f 51c2 63de 8c3f f44f 4ccd be44 b63f
00000760: 1907 6136 d289 b2bf f281 9d6d f4d8 c63f
00000770: 3ee9 b317 1b17 c33f 03b4 6553 f452 9a3f
00000780: 77df 5952 aee0 9e3f f395 76ca 7b7b dbbf
00000790: e969 84aa f352 d1bf 6791 5a94 fb23 c7bf
000007a0: ab64 edbb e85c bb3f c36f 9f06 ca72 c53f
000007b0: 2f1b cf3e ed0b b63f 79fb 7f4c 30f0 b03f
000007c0: c9c0 885f 5a2d d33f 8671 32b2 7a3f babf
000007d0: b84b c038 f715 c33f a04e 2d0c 7b18 e5bf
000007e0: e52f dd77 74f6 803f a035 81ba 9871 bcbf
000007f0: 591b bab7 88ee d23f 35c9 5265 816a ddbf
0.39799463287988357 -0.42694386075336666 -0.04639348644115598 -0.541248281892865 0.18386079390771073 0.000539564354525419 -0.1703913007331894 -0.1702805623949523
0.07437114285735985 0.5115385599621534 -0.03748870139117091 0.24418683748566486 0.4789412924108315 -0.5080138425736782 -0.18803295983335594 0.21833911845225037
0.167053210617044 0.04844133583512467 -0.26849262637815285 0.06808174164490408 0.5255016773017367 0.04841715465338704 -0.031116759849793358 -0.19196828012010567
-0.35058806449905 -0.20834155114115194 -0.22344687894991394 0.4350948946569325 -0.35163653077192 -0.26146739465686913 -0.3524140944016373 0.15578994609581223
-0.09176081795456893 -0.3074622737734319 -0.35629272512324006 -0.1262430087498473 0.4167274769480888 -0.047383781534207664 -0.21592740647272804 -0.4893388676532805
-0.007532364648404559 -0.3444131076225496 -0.6492601024712582 -0.13369051429524836 -0.8745730064353084 0.009023166678849835 -0.7435589084239439 0.1543385516679847
0.23750568674918265 0.18474027369700274 -0.557076318086701 -0.23485771709117728 -0.4196096507564642 0.21584636190521647 -0.25538805199038417 0.26531249423553854
-0.5709530629946636 0.18145749023376875 0.13675428120808222 0.2334983261419808 0.2084393649059358 0.12862800995323626 0.3547658660052523 -0.19782342768656458
-0.43770003670345725 0.4276112086188573 0.2485401322883116 0.3651247784664473 0.16091363781722084 -0.7673529927870514 -0.15299315941463934 -0.3646831237814569
0.046893178770172045 -0.2043340207266289 0.08309625061662988 0.38325366572591046 -0.03332546097926413 0.09481377340085746 -0.2823154593063844 0.14501534827835263
-0.4972022187065319 -0.4148889433891719 0.23112690795495922 0.025146638453135566 -0.05577981409304012 -0.08753063337401588 -0.24846125505398084 -0.30212834575980757
-0.47106192813125386 0.11031726898875216 0.29334481410640495 0.2542582526885952 -0.2731406019843942 -0.017919925715866397 -0.028237664091213553 0.14122518466220987
0.1661522184461878 -0.26014038329599914 0.02072772068729009 -0.44625886728749464 -0.3723015361505178 -0.014488438332038958 -0.29598999828826383 -0.27287109639628737
0.20157785893012278 0.18080636552543092 0.09293165956557187 0.23032855813047276 -0.31610638769308835 0.2730640065359256 -0.419613366397622 -0.041827247168029345
0.2992287185015409 -1.301935492654711 0.14380537860314604 -0.19143858247377799 0.1966589086253825 0.2856061376476004 -0.41381123185568774 -0.4146993034427947
-0.06968786327074286 -1.049940153811639 -0.4307078566310609 0.19771635839385612 0.07803420335907611 -0.12336294412276537 -0.383458411674969 0.27892368247954213
0.2464508689705583 0.2524355417102226 -0.3105983499675193 0.2447721936013695 -0.4596710690650566 0.07118326957480743 -0.16285568677482773 0.020616186571957372
-0.40973077156705096 -0.1845875537571056 -0.14167131907524633 0.08977207391421536 -0.43471878069103864 -0.08736305896472968 0.2800515469756962 -0.24561977573879515
0.1116089451061095 0.2155649440926288 0.026834170095242808 -0.006235152340835441 -0.16987888864128908 0.49344259674291946 0.4663141158760059 -0.1964842981962553
-1.062492115721718 0.1450857664338329 0.23231455838059775 0.12753302112362816 0.06849803930756583 -0.04842111683045983 0.07173613982360721 0.05610385481424246
0.5821156396593141 -0.6849314116576234 0.21527545206507842 -0.45751880053668875 -0.05583939750079088 -0.31249078412160086 0.14021897310453968 -0.6716696024090569
0.5917048653916583 0.03782686930135762 -0.19733971973532924 -0.0994119373977496 0.003227345229327519 -0.052627014150060214 0.149008714909767 0.12087555511194506
-0.12627212724847212 -0.49173654017321416 -0.5585457505531922 -0.3331026083370534 -0.0135087446854804 -0.06669888427113597 0.08908224445410091 -0.16178638557337555
0.023817086201577017 0.1859426748856896 0.22683091713869874 0.08910001546681014 -0.022056435884842417 -0.23602181516442505 -0.12804048504929003 -0.01588502300666432
0.4496750903137079 0.06217970180028667 -0.35929273900614095 0.3488664825224737 -0.10324129404510117 -0.010198823659266014 -0.3374889822177346 0.10939505305050441
-0.08770530174933713 -0.7239457290542197 -0.18492018010184652 0.2458568009091647 -0.47348810436139094 -0.052538287994493726 -0.4356538926853414 -0.10007541716905761
-0.0783777909106401 -0.26473681435523433 -0.36501922251546853 0.19927823031565486 0.16265366937057513 0.09691985227210563 -0.384539467902203 -0.19030485167334504
0.033865286325162135 -0.7231626745696857 -0.35124178224629926 -0.29694249437763076 -0.17809436757959318 0.3353505731213188 -0.6155246827585763 0.49829201405760104
0.0696836063222615 -0.8352149204654925 0.33660842382521705 -0.19112714690721733 -0.2265025636269857 -0.023045364049963678 0.13874745459757376 -0.5171763733133274
-0.6716618004447181 -0.5084382026328587 0.014096049659336243 0.08698647033844492 -0.07241548373806629 0.17849593498523536 0.14914263398515887 0.02570707091347303
0.030153964783010658 -0.42941183826255197 -0.27068797733377764 -0.18078560584866496 0.10688643062657614 0.1675655872667204 0.08611948760436115 0.06616498820947737
0.2996431286765185 -0.10253111696733272 0.1491078402619601 -0.6592383611518535 0.008282575519523003 -0.11110834649408341 0.29580896322334166 -0.4596255769239577

layer3.bias f8 [11]
00000000: 527f 75ce 8ac1 d7bf dd53 efc6 f735 b1bf
00000010: d1bf b157 aa80 b73f a1d3 6e1f 9f73 91bf
00000020: c733 417d 321c b73f 9729 a6ca b78e c83f
00000030: b537 d4df f13e 81bf 314b d9e0 1720 cfbf
00000040: 1e07 80ad 51f5 c33f 759f 2698 d2b9 c2bf
00000050: 8dab 81c1 3440 d03f
-0.37118787920006924 -0.06722973448570664 0.09180702820753985 -0.017042623799813254 0.09027400548912033 0.19185540575956558 -0.008420838969438774 -0.243166909017043
0.15592404338536253 -0.14629585675470094 0.25391882798310733
