attack_soft_generative_decision_tree/experiments/vowel_params_state_dict/fnn_epoch205.pth (torch, 69599 bytes, 6 tensors)

layer1.weight f8 [80, 12]
0.02155281544489513 -0.30778358017851126 0.25272268944164716 0.07104565075728439 0.8455026739681982 -0.20462810740374077 -0.7530315761247919 -0.5394810038860223
-0.5435428750796192 0.48622133846081705 0.18944296530330842 -0.43873054122850325 0.04337006204944545 0.03930604984646583 -0.37041740957814534 0.48351356546048824
-0.2880446944622227 -0.5666348527645881 -0.3313082540540546 0.4002551005408979 0.40056273403970105 0.32199065636494945 0.6661082593835269 -0.4372150798584338
-0.08471818577165348 -0.9719857710399156 0.18790866137852186 -0.7438012544512718 -0.45696869511524135 0.32628143921768343 0.08372218383710418 -0.20263704423754084
0.5656178956180146 0.04869102857550297 -0.5039495442766764 -0.19389730064340013 0.07731904768647418 0.11883277652995045 -0.9125831810595436 0.25844035432224827
0.5372447429105157 0.26329621310482065 0.3459273356008997 0.08738462061446094 -0.1395337819597749 -0.10993942601668312 -0.02730525058193033 -0.17274971377944476
0.06595733514025386 -0.23912463238999715 0.18529842388784873 -1.1157490713690317 -0.7660185086915078 0.24685458915961378 -0.16290921317039794 -0.025670852705921537
0.21780912642881137 -0.3898654221149265 0.13536588937489707 0.2584233781564196 -0.19216435825778574 -0.4265997288374612 -0.12291620836075877 0.04808249529497428
-0.09750339834078232 -0.45291861357896995 -0.5144297100455935 0.42663711980057173 0.41160830890146755 0.20756072148655277 0.5004803653287082 0.3842326901059075
-0.08108315497029295 -0.6546386006808317 0.5077582491433809 0.5833054132082417 0.08035443617345771 0.40090546010328004 -0.5528907543204042 -0.007193409602281939
-0.4531458225165587 0.32719857334868413 -0.17081327774043395 -0.046711097935238234 0.024777205305277508 -0.5590740073443313 -0.15824659439602096 -0.624139873745164
-0.3334598859010916 0.5615082136578473 0.436818802392356 0.258610221960053 0.6284201877360981 0.6492675213625931 0.225041521062533 0.289610865978226
0.06103597886472492 -0.15514567615808583 0.06808314554308818 0.49856576673685127 -0.22136354237484054 -0.22627594695085665 0.08983298712047094 0.5976654447398135
0.43314217481500855 -0.3951406855023521 -0.35396183570029044 -0.09907801763510692 0.11163319585417958 -0.21258727182015688 0.6257955993472442 -0.12295189943631839
-0.12255300859366555 -0.24332842295601528 -0.14062784736926404 -0.40899518309384536 -0.23514409613572365 0.2320654552630272 -0.3796998255453506 -0.3714205956270841
0.12125611139291605 0.01668316768115393 -0.05582199633393041 0.3703724392000687 0.2080898933847229 -0.2645849829185217 0.2276513755414358 0.5280909665553741
0.38243183289867577 0.5702250790390397 0.11257738218871517 0.26661483302330524 0.007649240238283774 0.12971841204902354 -0.12420676382679453 -0.6429663897364805
-0.23001773780666873 -0.15197626853604482 -0.012675676750380309 0.7146438432980098 0.7181622596517665 -0.04069287122273263 0.38684250156022915 0.0511706559407934
-0.03440787699987096 -0.11832760873483485 0.06652473145830735 0.08745792901229574 0.5403677822800093 0.2330779340744662 -0.48001011656657017 -1.1336627453173105
-0.31845689688792145 0.12819206093921573 0.6081265926484624 0.259498617052167 -0.1982657945543501 -0.46944443756488247 -0.44570757369153324 -0.16429355198078568
0.7310349050837525 -0.2649950266644049 -0.0069196606291756805 0.4709105992765836 0.44932479123032965 -0.6060186453255709 -0.10990244419807418 -0.5524984510755934
0.043636482331102504 -0.06848144688274035 -0.5198167575522449 0.3207275524817798 0.3750612470774412 0.6500697572469979 0.07170324313392402 0.23216002655136114
0.33022987613794247 -0.1434318946527374 0.5843495204605117 -0.1368696913403865 0.09376362363885554 -0.042819030376568666 0.6466555859026596 -0.25607723691871087
-0.4599711238056981 -0.6126103236900605 -0.3030169329854791 -0.2905183586617776 -0.1355144773011539 -0.3031452503331951 0.25184272336811525 -0.042337228278653875
0.02467299246140159 -0.13629179475917982 -0.3373955519310252 -0.32543194457161595 0.36925657963511194 0.11507016316988548 0.06742573318972513 -0.7532317799238282
-0.2663879195738603 -0.12402699014026126 -0.37939385774650314 -0.30559764174250575 -0.30796498504149583 -0.08054690420523704 -0.3970099845848006 0.08682283047764126
0.45492433450760095 0.2806820839652514 0.04991720354119262 -0.2651035066293808 -0.5120185159907079 0.42784490460092267 -0.005348035569321208 -0.29369464346579055
-0.10481988627693786 -0.2161835794778025 0.26437227372567745 0.33506718364903987 -0.6691135124417423 0.4566049379165055 0.33143336310507704 -0.10039443302725776
-0.7821393136295501 0.3487263894126595 0.4779842284808074 -0.5364081426566145 0.12112346048488531 -0.08242346258952171 -0.0714766505476565 -0.28577696658303575
-0.3872128606663409 -0.15863580933588084 -0.25600599475645675 0.11310789291479773 0.42561532997988305 0.10555246319647693 -0.1070582424665986 0.2931756199346985
0.04464903315643307 0.43407487703915815 0.7246150148245275 -0.21196699488869872 0.1397232046427562 0.2022420305561173 0.5852242956216948 -0.6278522066501129
0.24286780181373838 0.42630557954135867 -0.14665802061577396 0.33396524093912155 -0.19269770803343525 0.10840203229629075 0.7575046223492358 0.10889236084720878
00000000: b2e3 e3f5 f011 963f 3233 c7e6 b9b2 d3bf
00000010: 7ffa 86c9 9b2c d03f 068c 863a 0c30 b23f
00000020: 7ff7 ab9f 5b0e eb3f c61a 92fa 4031 cabf
00000030: 4cf6 09ad d518 e8bf 6e1e 90aa 6d43 e1bf
00000040: da1a 0e07 b464 e1bf 9e9e d31a 401e df3f
00000050: 2dad 37c6 aa3f c83f 9d4c 9543 2914 dcbf
00000060: ba76 41cc 9934 a63f b543 402d ec1f a43f
00000070: 7f75 0039 ebb4 d7bf 4bcf b4e1 e2f1 de3f
00000080: 8a19 a003 536f d2bf ceb9 2c6a df21 e2bf
00000090: 48a6 0389 2734 d5bf a157 b891 c79d d93f
000000a0: 6399 ace0 d1a2 d93f 3f1f adb2 7e9b d43f
000000b0: 3bba b444 c250 e53f 10d7 53f5 54fb dbbf
000000c0: 3105 444d 17b0 b5bf a866 59e7 811a efbf
000000d0: fec0 a019 640d c83f 8ef1 d249 38cd e7bf
000000e0: 5b35 34a0 f93e ddbf 31d5 ae8b cbe1 d43f
000000f0: 29b2 8729 d16e b53f fdaa faba 02f0 c9bf
00000100: 5dc6 76b3 8a19 e23f 2b47 aece 07ee a83f
00000110: e613 70cb 5a20 e0bf 0fe6 8572 a0d1 c8bf
00000120: 6cd8 2b5d 2ecb b33f 6496 e328 d36b be3f
00000130: edf8 b0a4 e133 edbf 21f7 7169 498a d03f
00000140: 79f4 17e3 1b31 e13f d488 1c5c d8d9 d03f
00000150: a2b0 4c68 ac23 d63f e764 b6a7 d65e b63f
00000160: b22a 1a33 3edc c1bf c55c 487f fd24 bcbf
00000170: ddad 0859 e8f5 9bbf dabc 89a1 a91c c6bf
00000180: e3d3 5b75 94e2 b03f 503b e4cd a29b cebf
00000190: bea0 4cd7 dbb7 c73f 6428 c1b2 1bda f1bf
000001a0: 33be 5e3f 3983 e8bf 6c6e a761 ee98 cf3f
000001b0: 8758 6487 35da c4bf c857 54c3 7549 9abf
000001c0: 011b 6461 2be1 cb3f 40ca 7419 8ef3 d8bf
000001d0: 32f8 ed61 ab53 c13f d008 6d35 028a d03f
000001e0: 3346 1679 d798 c8bf 24b8 f5f2 684d dbbf
000001f0: b7ca 0ec7 6f77 bfbf 399e 9ad1 449e a83f
00000200: 855d 1f93 fbf5 b8bf cb90 445a 9efc dcbf
00000210: 1e92 974b 3576 e0bf d265 33c7 054e db3f
00000220: 4598 5f60 ca57 da3f 3305 5c87 5991 ca3f
00000230: d80f 2c66 ef03 e03f 41c6 83b5 4497 d83f
00000240: b899 da9a ddc1 b4bf b1f2 93a6 ccf2 e4bf
00000250: 930a 4b3a 8e3f e03f ade4 291d 70aa e23f
00000260: e719 74bb 1b92 b43f 659c fb5f 6fa8 d93f
00000270: 1a24 82f3 47b1 e1bf 4a08 d12f d676 7dbf
00000280: dbc4 0156 5700 ddbf 2f26 f548 d2f0 d43f
00000290: bb11 cfa0 35dd c5bf b5f4 fb5b 84ea a7bf
000002a0: 84c8 e319 325f 993f 59cd 322c efe3 e1bf
000002b0: 5030 d1a5 6c41 c4bf 7aae 3b2f f4f8 e3bf
000002c0: f146 1e22 6857 d5bf 1411 c312 e0f7 e13f
000002d0: 4365 a3d9 d6f4 db3f e0b3 6ee3 118d d03f
000002e0: 8920 4fa7 041c e43f 286f 53ae ccc6 e43f
000002f0: 8a53 9a1a 29ce cc3f 8555 7c03 fc88 d23f
00000300: 14e9 349a 1b40 af3f 187e 9b42 d0db c3bf
00000310: f330 84a3 e56d b13f 648e c263 80e8 df3f
00000320: 4769 83fb a355 ccbf 013f 0338 9cf6 ccbf
00000330: 38cf c86d 4bff b63f dc6a 6348 1320 e33f
00000340: 5b52 d6f4 99b8 db3f cd4d 6328 fc49 d9bf
00000350: 135a 178b 4fa7 d6bf afcb 7e4d 2d5d b9bf
00000360: 4c77 573d fe93 bc3f 47b8 014a 0f36 cbbf
00000370: 12ab 257e 8406 e43f a360 0f93 c679 bfbf
00000380: d6aa ef4b a25f bfbf 8744 64c1 6225 cfbf
00000390: a4ce ade2 1700 c2bf a703 e721 fa2c dabf
000003a0: 890d 60a5 3319 cebf 2e6a 7122 52b4 cd3f
000003b0: 6de8 407f 004d d8bf dfdd d1e3 5ac5 d7bf
000003c0: c169 dff8 a30a bf3f 1643 566e 6415 913f
000003d0: c6a6 4d61 b394 acbf 0c0f 6d9a 2eb4 d73f
000003e0: e295 5b8b b0a2 ca3f 0e75 29da f5ee d0bf
000003f0: 3981 6b26 ae23 cd3f 3863 d506 1fe6 e03f
00000400: 10f2 cf5d c379 d83f 369d 3aaa 483f e23f
00000410: 3913 c50e dfd1 bc3f 92ab 1da9 3710 d13f
00000420: 3552 9a4a cf54 7f3f 1745 b8e8 9c9a c03f
00000430: f1fc 93b4 03cc bfbf 4d0d 0b40 2e93 e4bf
00000440: ee94 b0a2 3871 cdbf cfb1 9057 f573 c3bf
00000450: cfc8 c788 b4f5 89bf 2016 e8c3 5cde e63f
00000460: 22a0 4d6b 2ffb e63f c8f8 292e b2d5 a4bf
00000470: 5adb 390d 07c2 d83f a0a7 8f4b 0a33 aa3f
00000480: 97e3 e0c4 e89d a1bf 41e1 bad9 b74a bebf
00000490: b515 fdc9 c307 b13f 263a e290 a463 b63f
000004a0: ce8c 1660 b14a e13f 1871 226c 7fd5 cd3f
000004b0: a7c3 195a 7cb8 debf 854d fd8b 7b23 f2bf
000004c0: de6e 5409 9961 d4bf 5f9e abf2 9868 c03f
000004d0: 1119 68e6 c575 e33f 8929 6616 a09b d03f
000004e0: b360 c307 c660 c9bf 9356 a8ae 600b debf
000004f0: d46a 250f 7986 dcbf 4dbf 5934 9207 c5bf
00000500: bb36 3250 a364 e73f c214 48b3 adf5 d0bf
00000510: e3ad a041 ca57 7cbf 5be4 ce35 6623 de3f
00000520: 5a71 e7c4 bcc1 dc3f cc10 ce36 8164 e3bf
00000530: 1ac9 940b 9122 bcbf 05bb 4e3b 11ae e1bf
00000540: 0f94 0c61 8557 a63f 5e7f be06 0088 b1bf
00000550: 5b30 b3c0 56a2 e0bf ab76 35db cc86 d43f
00000560: 1774 8ce3 0001 d83f 11d3 6f17 5fcd e43f
00000570: c5ff 46cc 245b b23f d400 bd74 6bb7 cd3f
00000580: 8b2c 8b7d 7c22 d53f 4350 5ef0 f95b c2bf
00000590: 31f5 f9c3 fdb2 e23f fc6e 0f30 f284 c1bf
000005a0: 9455 1591 e400 b83f 1343 3a3e 60ec a5bf
000005b0: d748 270e 67b1 e43f d237 74c7 9163 d0bf
000005c0: c963 76b9 2a70 ddbf e71a 2ef7 809a e3bf
000005d0: 89a3 5322 a164 d3bf 77c1 5550 da97 d2bf
000005e0: 824d 12d4 8958 c1bf 859a 0756 bb66 d3bf
000005f0: 1b81 26f1 301e d03f a75f b8a5 39ad a5bf
00000600: d05c dd7e e043 993f d316 9a70 0272 c1bf
00000610: 1004 5783 e397 d5bf c68f c081 e0d3 d4bf
00000620: 6866 5759 e6a1 d73f e75e 8ffb 3c75 bd3f
00000630: c96c f516 d042 b13f 3095 a288 791a e8bf
00000640: 1ca1 a7ea 7f0c d1bf cd46 799a 3bc0 bfbf
00000650: bac4 d42c fd47 d8bf cd33 4169 e98e d3bf
00000660: 243f c4c4 b2b5 d3bf 8904 5bcf b89e b4bf
00000670: 298a fe90 9c68 d9bf 4f97 7261 053a b63f
00000680: 6a57 b7f4 7a1d dd3f 620c cdfc b1f6 d13f
00000690: 8934 6f69 bf8e a93f 8dcc c1b2 74f7 d0bf
000006a0: a50c a4a7 7462 e0bf 635b 4198 cf61 db3f
000006b0: 27a7 e35d d2e7 75bf 748a 2c9e e4cb d2bf
000006c0: b2a6 87df 79d5 babf 5b0a e54d e7ab cbbf
000006d0: 8fbd 67af 79eb d03f a611 efa0 bd71 d53f
000006e0: 95f7 a7bd 6069 e5bf bbc8 e2ea 0339 dd3f
000006f0: fdbb d547 3436 d53f e472 8d16 73b3 b9bf
00000700: c38d 9e06 4907 e9bf dfe3 717d 8851 d63f
00000710: 090c 5529 4b97 de3f 9a95 c068 412a e1bf
00000720: 2899 8f75 f201 bf3f 40bd 3e3c b419 b5bf
00000730: 50a1 8734 4b4c b2bf 7a26 5b79 2b4a d2bf
00000740: 33c3 4973 18c8 d8bf 903a 899e 2d4e c4bf
00000750: 7fc5 c3f7 6662 d0bf 1010 fd8c a3f4 bc3f
00000760: 7026 bc14 483d db3f b8ec 7079 7c05 bb3f
00000770: 9b49 2942 2b68 bbbf d9a8 e6ac 63c3 d23f
00000780: 9de8 68f2 3cdc a63f 7a7f 39fe e1c7 db3f
00000790: b194 dbd3 0b30 e73f 1b6e 7007 bc21 cbbf
000007a0: 036b 3731 73e2 c13f 73bd 8e1d 11e3 c93f
000007b0: 53a2 504d 28ba e23f d013 c982 5d17 e4bf
000007c0: 1d4d 05c9 4a16 cf3f a9e0 8e32 9748 db3f
000007d0: f1d3 1ea5 b0c5 c2bf f764 f5be af5f d53f
000007e0: fd45 0289 51aa c8bf 3852 884f 3cc0 bb3f
000007f0: ade1 7155 7a3d e83f 717c 9fa8 5ee0 bb3f

layer1.bias f8 [80]
0.00796034205217035 -0.08284314501948944 -0.06550981660208618 -0.33221878651392595 -0.23488872393320778 0.12145806575396806 0.24113359260009345 0.09888855089321344
-0.06863217439858943 0.46091003601891267 0.2969332019626091 -0.2736711156365722 -0.28719266748599903 -0.05070488135663238 -0.048884059393159235 0.5203783608552343
-0.08808368371710387 -0.11956127795888354 0.0018107348630848803 -0.3002793095958123 0.259282799660421 0.3617887551371959 -0.04534230713945867 0.1929472852666566
0.03477823461619821 0.04792683243003148 -0.183136075972857 0.07672988525067641 0.028807760029607776 0.15165097792599536 0.31606599187027934 -0.14841793222300267
0.008999891223148085 0.1718426495291514 0.39390987984711356 0.022302907728794754 0.1943448603004339 -0.3680420276179203 -0.3428374763945487 -0.2771840634689431
0.42728270886785874 0.2929552414879085 -0.1376740164595272 -0.19216597988596865 -0.14247492526697236 -0.04433140740547829 -0.10498440283993134 0.02299767674301225
-0.22419366306328317 0.021778485729992268 0.37598574178804584 0.170520017014118 0.5207199292428788 -0.15443376571126216 -0.03481429675522963 0.061271962183909616
0.26554240182733135 -0.13392133542881957 0.013871496540106462 0.008794260513813948 0.06943668587871686 -0.030328636687498366 -0.036256008719558426 0.6782841462141013
0.1289458066485555 -0.07395966879412395 0.27961137775228884 -0.11126573291344156 0.2661143552403684 -0.02303246395030268 -0.15597411855281032 -0.1789199195530133
0.14933974351630577 0.3888868794930729 0.08391473123167986 -0.08816022309726128 0.17573641333336967 -0.12048942167602804 -0.21053514465728312 0.41106237420559505
00000000: 0a7c 3b06 834d 803f 4a76 8e56 3535 b5bf
00000010: 8e77 df57 40c5 b0bf 6d6c cc95 1243 d5bf
00000020: af03 bf6d d510 cebf 7cab 3f34 e017 bf3f
00000030: 0f9a 172f 77dd ce3f c601 0994 c250 b93f
00000040: a4cc 7ed0 e091 b1bf c45c c6ce 8c7f dd3f
00000050: 7aa9 e11d f400 d33f da35 e1da d383 d1bf
00000060: 3037 a05a 5d61 d2bf 593d 597e fdf5 a9bf
00000070: a457 c7d8 5407 a9bf 0d6b 2d85 f0a6 e03f
00000080: 9a4c e0fc a68c b6bf 038d b362 919b bebf
00000090: 55ff 31c1 c5aa 5d3f 4849 98b5 c637 d3bf
000000a0: ac3c 3de2 1698 d03f dcfc d705 8c27 d73f
000000b0: 150d 945c 1b37 a7bf 3c40 0924 7fb2 c83f
000000c0: 3e10 94e8 73ce a13f 3f95 c6a3 dd89 a83f
000000d0: 6db6 82c0 0071 c7bf 7309 c7db 91a4 b33f
000000e0: 10f0 ca0c c87f 9d3f e09d 4c9b 4c69 c33f
000000f0: 517b 9dda 6c3a d43f b3d4 84da 5bff c2bf
00000100: 5b90 c4f3 886e 823f a891 e49f f0fe c53f
00000110: e6ef e0c8 d135 d93f a719 34cd 92d6 963f
00000120: 2a6a 91d9 4ae0 c83f 2f0a 0b26 008e d7bf
00000130: eb4b 3d99 0cf1 d5bf 7093 e439 62bd d1bf
00000140: a3f5 2e93 9958 db3f 6a78 5857 c7bf d23f
00000150: f2ef 195b 4d9f c1bf b5cb 8113 e598 c8bf
00000160: c0c6 424c 9e3c c2bf 36ff fb31 9bb2 a6bf
00000170: cd9f c900 42e0 babf 461a fbf5 b38c 973f
00000180: 25e3 69c1 60b2 ccbf b6eb dd6f 194d 963f
00000190: 3b7c 2f80 2610 d83f c4ca 3194 99d3 c53f
000001a0: b827 4fd7 bca9 e03f 3662 9052 7cc4 c3bf
000001b0: 4170 fef3 2dd3 a1bf 4fb8 7be3 095f af3f
000001c0: f02d e38e a5fe d03f 78a3 f395 5524 c1bf
000001d0: 4b03 e4bf a868 8c3f c809 65aa b902 823f
000001e0: f7e0 fd46 9ac6 b13f 33fe d15a 780e 9fbf
000001f0: 19ce 77c7 2590 a2bf ab50 2cf4 80b4 e53f
00000200: 7585 41d3 4b81 c03f df99 b156 05ef b2bf
00000210: fc46 c21e 27e5 d13f 0959 073c e97b bcbf
00000220: 7c39 3081 0408 d13f e2c1 a67d d295 97bf
00000230: b176 1abd f5f6 c3bf 6fa4 8a11 d9e6 c6bf
00000240: c1a1 3291 901d c33f 180a 51cb 85e3 d83f
00000250: 0cee 4a92 6f7b b53f dbc3 021b ab91 b6bf
00000260: 39d8 fde1 877e c63f 67cc 9c0d 65d8 bebf
00000270: ae17 7bcc d0f2 cabf b510 758f d84e da3f

layer2.weight f8 [80, 80]
0.022431547820571735 -0.052902724415617976 -0.5181054265785373 0.05495194608849994 -0.33310527126353034 0.45329325776535184 0.32097181287444637 -0.09171479707324201
0.21555743454820575 0.2393095632415469 0.43300891171574785 -0.10528463313067682 0.0667010092218828 -0.2326736471897756 0.10796892071902695 0.29271117541787073
-0.21390996938291068 -0.3468759252143529 0.5458780631000879 -0.061270088104346 0.23203510427222104 0.3096880044567848 0.7131821943112888 -0.02766324347509868
0.49564497869575896 0.3071474862884578 -0.0006878778283701051 0.3320087417487898 0.05763819735026667 0.22506037247523752 0.4113170637852851 0.12343384291816861
-0.21427723252239425 -0.16378442745002933 0.1337680342596781 -0.05848911570652221 0.3149183918217192 -0.11577469468027693 -0.2826816819303307 -0.02756727204559871
0.16080360743611818 0.2187051788126997 -0.23740259481928816 0.06962715264252188 0.37757285255117873 -0.43184437753512983 0.07094655905202855 -0.20367390422423953
0.29188762200180035 -0.2133160337774361 0.05078306814869508 0.3180808266941008 0.2013337502279029 -0.5750672048771175 0.15923803091463415 0.266306456093358
0.29485181870704963 0.12020672946209474 0.2366398750614482 -0.0849829155358037 -0.13223828476773894 -0.3451335828208964 0.3079249669458422 0.26545696501461313
0.38418291693507595 0.3772246208283474 0.06655809879020437 0.5589482974870761 0.2333391114312887 0.27574105095224294 -0.08886433183047476 -0.6325173910184102
0.6171523188195672 -0.4714393709767165 0.13933697650696145 0.19806603520226915 0.11342282103584868 0.07898410793280729 -0.07272119787554823 -0.7692122014204539
-0.18314949117024962 -0.3849623556132005 -0.050772156639234574 -0.13086683206403046 0.14793079815163224 0.4180688189271841 0.052465961277852684 0.0758414927805283
-0.3032388022765335 0.19510236724252808 0.039194596854666926 0.025505657162535465 0.09458118048443606 0.15889746874018892 -0.2251349749135899 0.11726909384354696
0.10470538858762848 0.07782527447394987 0.06665558259143749 -0.11105884840839424 0.2580674402545285 -0.3774773370494227 -0.5284149058405786 0.1961699639465057
-0.4535460409438299 -0.192784420591957 0.07355566826335075 -0.19581746844199904 -0.298592187679635 0.4037530071576284 -0.02759304295418649 -0.00986250770039812
0.3234944648197405 0.30065117669912755 0.3822673343215578 0.009028313489161152 -0.15100252973909065 0.0942688303993262 0.009511130039452002 0.04461419625500481
0.21643883986972487 0.24098841310167537 -0.051662902505578465 -0.5697619652373299 -0.24854110840654103 -0.17144397183947266 -0.06532218153284745 0.04038686861045266
-0.24357889883748185 0.07810861831872554 0.30764981997304974 0.46100117476849545 0.076798879821734 0.3213808449490394 0.04727097372827009 -0.6051905977429223
0.30461929546091193 -0.12527978801142972 -0.023153961639431432 -0.20801548012601861 -0.05529891899222601 0.31727179500706043 -0.16984916238365727 -0.4066121764406272
0.49467409728645517 -0.0759569547823018 0.20818097574624347 -0.6283431424292732 0.3661477704248193 -0.20266447843186602 0.0044396461393833185 -0.18872503906221236
-0.024855855783946654 0.5679926856199254 0.29115826901016617 -0.39042446832429234 0.16831409255676386 -0.12991602569873711 0.1250767032874254 0.6992339667814464
0.11236821398940115 -0.16231191294864072 -0.4656857527363811 0.1891368569271489 0.2521465224428371 -0.5613193396540898 -0.1944342348310208 0.1312058733390021
-0.2102351981082414 -0.08696676865166113 -0.0430796325744996 -0.2582141373372899 0.24739760523747437 0.18380116911906916 -0.11605434811689688 0.2587803936038178
0.1558556255353901 0.10617591628933462 0.21850291334618233 0.10502160018892004 0.3018871057262188 0.6525092486024958 -0.22414326502181445 0.2149722633664218
-0.26084169753250486 -0.22732356944557425 0.07971495462072867 -0.1352787698758869 -0.30572469936788094 -0.11669665395964134 0.2797645743934043 -0.2821301352966414
-0.3984376275789776 -0.2952102378914346 0.33672803493401887 0.214494602215857 0.14740473070596027 0.04260506356383936 0.024511925283330273 -0.026460896679583616
0.04080944690376903 0.1029371963357896 -0.04985302626172479 -0.18487878421695042 -0.11440760391482857 0.054619422155356236 0.09157107224329125 -0.22451089402251403
0.016638363728595628 0.06599788160543651 -0.6594485534153536 -0.027472517086995853 -0.08336290508200116 -0.00485640725667425 0.33879703136611455 -0.22025732315583124
0.33398021053692395 -0.11443610809909503 -0.01056228533062494 -0.015970508987975113 -0.16636583463893176 -0.08585074208946195 -0.026452188406988986 0.5863068658657694
-0.20192416611367084 -0.1971508589573903 -0.33979847200057345 0.0054185240119663984 0.11764396004441888 0.4617068220063933 -0.17988390518831063 -0.01454868954774426
0.12039885147412897 -0.7109321455898753 0.19772455723934781 -0.16964449148617994 0.04433191130274639 -0.33753907689878 -0.05927738217287436 -0.7408385560181178
0.06592173656314944 0.34337249556554783 0.4610201087480947 0.4549476200742597 0.4832625678454054 0.25096161620641827 -0.1185042220404496 0.15418396680212887
-0.17023977142240115 -0.07714546180841575 0.1644551950170921 0.7493373171430319 -0.02130718367606263 0.12516337632179833 0.093195238173307 -0.30498911942979
00000000: 95ed 26b1 4bf8 963f a500 78de 1016 abbf
00000010: 491e e1d4 5194 e0bf 7d73 9a56 a922 ac3f
00000020: bdee 8cc5 9851 d5bf f35d 66b9 c102 dd3f
00000030: f5f2 ce5b cd8a d43f 5625 fdf5 9e7a b7bf
00000040: 7ca8 e5d1 6297 cb3f d609 df1d b2a1 ce3f
00000050: 2886 ac02 6bb6 db3f 384f 1108 eff3 babf
00000060: b6da 373d 5113 b13f bd1a a904 40c8 cdbf
00000070: c6fe 78e7 d9a3 bb3f 7afb 65a7 c7bb d23f
00000080: f6db 64e1 6661 cbbf 4f2f a414 3733 d6bf
00000090: 68cc 9345 d577 e13f 432d 4301 cb5e afbf
000000a0: 07c3 2f88 53b3 cd3f c2be c6a2 edd1 d33f
000000b0: 1202 1577 63d2 e63f 6e7a 1bd8 c053 9cbf
000000c0: 9631 7bb7 a5b8 df3f 0c15 2aee 4da8 d33f
000000d0: 4020 6463 568a 46bf b404 f397 a13f d53f
000000e0: 0355 3df9 c082 ad3f 860f b43d c7ce cc3f
000000f0: a2a6 4fce 0453 da3f 489a 8d3e 5c99 bf3f
00000100: 5f04 fbb4 6f6d cbbf 91f8 be5b e3f6 c4bf
00000110: 90a0 329a 4f1f c13f 6850 430e 49f2 adbf
00000120: ea1f 7278 9f27 d43f 422e 5b0f 69a3 bdbf
00000130: 3a6b c4e8 7417 d2bf dccc 804f 983a 9cbf
00000140: 6b2b 826d 3695 c43f 41b2 3b03 88fe cb3f
00000150: 3800 5e4e 3563 cebf 2363 83c7 15d3 b13f
00000160: bf24 6453 272a d83f 1a64 9e99 56a3 dbbf
00000170: eb66 e4be 8d29 b23f 1a8b d88a fc11 cabf
00000180: 61b7 a66b 49ae d23f abac 6496 f04d cbbf
00000190: 3543 c701 3d00 aa3f 0fb1 08af 6f5b d43f
000001a0: 00aa 67e8 4dc5 c93f 1661 be56 f366 e2bf
000001b0: af65 876b e961 c43f d29d e83b 2a0b d13f
000001c0: 57d3 a029 dade d23f 3e7f cc43 dec5 be3f
000001d0: d7c2 2826 374a ce3f feeb f1ba 70c1 b5bf
000001e0: 35a4 2d22 2fed c0bf 45e4 bd2a ab16 d6bf
000001f0: 9ddf a9eb 0ab5 d33f 6aec ce35 3ffd d03f
00000200: 19c1 faf1 7396 d83f 480a 6dbc 7224 d83f
00000210: 517e 9699 f309 b13f 7294 3b8a e7e2 e13f
00000220: 93cf 3c56 0ede cd3f 994a 00cb bda5 d13f
00000230: e426 fe16 d0bf b6bf fd68 921c 953d e4bf
00000240: 2161 3f38 b6bf e33f 6613 190a 102c debf
00000250: 1947 9c46 cbd5 c13f 5731 d253 3a5a c93f
00000260: 6912 f82a 4709 bd3f dfa2 7970 4d38 b43f
00000270: f2f6 993e db9d b2bf d61e 19e8 629d e8bf
00000280: 4179 6d49 7171 c7bf 3930 e325 39a3 d8bf
00000290: a934 a0e0 cefe a9bf 274e ec8d 3ec0 c0bf
000002a0: b8f3 107a 65ef c23f 2741 31b8 a3c1 da3f
000002b0: 87e3 ae87 d1dc aa3f 9714 2c1b 596a b33f
000002c0: 9ffa a9b8 4368 d3bf 39e4 5647 1df9 c83f
000002d0: d965 576f 5011 a43f 961a 81ad 271e 9a3f
000002e0: fe6a ffe4 7836 b83f 6f01 d493 c056 c43f
000002f0: 6c46 380d 39d1 ccbf 1dbc e3ea 5805 be3f
00000300: eae6 b2eb f8cd ba3f 73f7 aa70 5bec b33f
00000310: 1378 531b 5710 b13f 0b71 d849 5a6e bcbf
00000320: 818f 034c 2d84 d03f adf0 66b4 9628 d8bf
00000330: 0bbc 6960 c6e8 e0bf 76ca cded 181c c93f
00000340: b060 45f9 e506 ddbf 3475 cfee 28ad c8bf
00000350: 6463 a055 8bd4 b23f a6d1 78fb 8b10 c9bf
00000360: 4635 3b68 221c d3bf b2d5 59da 16d7 d93f
00000370: 1767 57c4 5941 9cbf cff1 3c60 cb32 84bf
00000380: a59e b520 22b4 d43f 904e db6e de3d d33f
00000390: 425f cf68 1177 d83f 1851 64b9 6f7d 823f
000003a0: 57dc 6b07 0d54 c3bf 1fe7 9887 0022 b83f
000003b0: 2f56 bd43 927a 833f 3b84 b403 acd7 a63f
000003c0: 1b8e 6995 44b4 cb3f 034a 7e54 b5d8 ce3f
000003d0: 2e15 5b59 8f73 aabf 615e e671 7d3b e2bf
000003e0: e2a9 28ee 31d0 cfbf f7cc 1246 e0f1 c5bf
000003f0: 7b0f 6359 f4b8 b0bf f94e bd6f 96ad a43f
00000400: b857 40e6 972d cfbf caf4 3629 edfe b33f
00000410: ece3 d9de 88b0 d33f d416 4312 0b81 dd3f
00000420: 0c2b 3465 17a9 b33f 747c a7f6 8091 d43f
00000430: b60d 6dac e633 a83f a1e1 24ac b85d e3bf
00000440: 280d efed e17e d33f 8df0 2d08 2b09 c0bf
00000450: 8a89 0e10 acb5 97bf 82fb 1952 40a0 cabf
00000460: 8aca 26d1 2350 acbf 17e8 df5b 2e4e d43f
00000470: 2e6c d80a 9ebd c5bf acf1 fd13 ef05 dabf
00000480: 7083 818b bda8 df3f c098 b13c ea71 b3bf
00000490: c35f 3d99 aca5 ca3f 83c9 ec13 631b e4bf
000004a0: 2896 de0e f76e d73f 5e7f 76dd e8f0 c9bf
000004b0: 9367 976f 4e2f 723f efb0 5a5f 2428 c8bf
000004c0: 3c17 d33e d073 99bf 6f5a 23ff fe2c e23f
000004d0: dcf3 d64a 56a2 d23f 9cb4 c0e8 b6fc d8bf
000004e0: 275d 7ef1 508b c53f 821a cd9c 16a1 c0bf
000004f0: d934 0e6f 8302 c03f 6884 72e9 1f60 e63f
00000500: b3c4 31cc 29c4 bc3f 56cc ee02 a3c6 c4bf
00000510: 4bd1 8d9d cbcd ddbf f533 7cf3 a235 c83f
00000520: 9e4b ec2a 2b23 d03f f7a6 cdf9 53f6 e1bf
00000530: e637 e993 38e3 c8bf 735e 84a3 5acb c03f
00000540: b3e6 2baa fce8 cabf 539b 3243 7443 b6bf
00000550: c9f5 0f9a 880e a6bf f39f ce96 9486 d0bf
00000560: 1545 cd87 b9aa cf3f ab9e 2af5 cb86 c73f
00000570: ea7d b8dd bcb5 bdbf 41f6 d7a3 db8f d03f
00000580: 533b 49bf 13f3 c33f 06e5 1548 582e bb3f
00000590: 9487 7349 e7f7 cb3f 185c 2f12 b2e2 ba3f
000005a0: b267 8b4b 1e52 d33f 65ba 6213 5be1 e43f
000005b0: cf94 71fc b9b0 ccbf 4b5a 5a0c 3684 cb3f
000005c0: 7274 1560 a1b1 d0bf 1a7a 3050 f018 cdbf
000005d0: 9a20 1903 3368 b43f bbe2 3a92 d050 c1bf
000005e0: a653 5754 fe90 d3bf 872d 4ff8 d4df bdbf
000005f0: 8456 66ac a9e7 d13f 172b 148e 6b0e d2bf
00000600: 70a4 fc88 0080 d9bf b109 4c7b b9e4 d2bf
00000610: 7b07 6cbe f38c d53f e3c2 d722 8f74 cb3f
00000620: 5832 d480 28de c23f 6827 4db5 54d0 a53f
00000630: eaca d075 a719 993f 7e53 72b7 9018 9bbf
00000640: 489a a3cf f9e4 a43f 9adc cd93 175a ba3f
00000650: 6a2d cdfa 5586 a9bf 42d0 f7a5 1baa c7bf
00000660: 5458 3a15 d149 bdbf c570 c4af 13f7 ab3f
00000670: 346a 8ba8 3371 b73f d911 b6e1 c5bc ccbf
00000680: 8307 4bb0 a509 913f e0c2 19b7 3ce5 b03f
00000690: ce07 4ada 331a e5bf 07b5 b569 c121 9cbf
000006a0: e7d8 0677 4557 b5bf 86dd 7ee5 4fe4 73bf
000006b0: 1fc2 6cbe d9ae d53f 8453 d457 6431 ccbf
000006c0: 2a1b 7188 ee5f d53f e362 c44d af4b bdbf
000006d0: ab47 87f0 ada1 85bf 781e 37b7 925a 90bf
000006e0: 1515 79c5 794b c5bf d68f 9c71 50fa b5bf
000006f0: 706c 7650 4816 9bbf 250a ca9d 06c3 e23f
00000700: 117a ddac a6d8 c9bf a1d6 cc45 3d3c c9bf
00000710: 7a49 1e17 42bf d5bf f5a5 c8f6 bb31 763f
00000720: 2674 f620 ea1d be3f 23e2 36c5 9a8c dd3f
00000730: cb26 ee90 6f06 c7bf 0a2f 750e b4cb 8dbf
00000740: 2fae 8e89 75d2 be3f db79 5fc5 f4bf e6bf
00000750: 19c3 7acd 094f c93f ca99 7023 e9b6 c5bf
00000760: d1ce 6d1a acb2 a63f 1bbf 1980 3d9a d5bf
00000770: ee64 a6e3 9a59 aebf 77d6 360f f3b4 e7bf
00000780: 7d5e a236 3fe0 b03f 1a32 b3a1 d0f9 d53f
00000790: 83c5 777c 5a81 dd3f a82a 679f dc1d dd3f
000007a0: 53ba 111f c6ed de3f 8b1a 8a4f c10f d03f
000007b0: f505 1aee 4a56 bebf e4c8 7ddb 4cbc c33f
000007c0: e26d 5eb5 6aca c5bf a080 8013 cebf b3bf
000007d0: 32bb 202a de0c c53f 8ba7 d940 92fa e73f
000007e0: 98f5 3be4 8cd1 95bf a1c2 fa7f 5a05 c03f
000007f0: a0e7 18a4 a4db b73f e88d 6515 f184 d3bf

layer2.bias f8 [80]
0.33550558589935237 0.1497853756375995 0.01972674776597173 -0.24175559048292616 -0.15636552150663996 0.30645722553256544 0.03617977236607294 0.29163124916584254
-0.09719338862899657 -0.09628374256306059 0.249970212311636 0.2147448867760727 0.20324641817843533 -0.1468320134757304 -0.1754949757960367 -0.1423860878243195
-0.14452265335297573 -0.03994414910995578 0.13578002730325608 -0.13778275505011425 -0.04823673728800803 0.06357969480168528 0.08250372842223373 0.26182387233841364
0.05278149756012657 -0.21489983608648147 -0.030027354905676998 0.027181436172734115 -0.006374295671477997 0.15247944365656219 0.26320793025752476 0.2743054037999172
-0.051753025328934124 0.02376477907423198 -0.04765660935834778 0.32821180022095103 -0.07956635500728203 -0.015381009039801124 -0.05282909195634689 -0.05620513201797454
0.39762172443372495 -0.12263442100220695 -0.17907051240616595 0.014070439521648825 0.48144906397256426 0.3946245965202192 -0.22295629962534944 -0.11515663554549624
-0.16891494817743585 0.16727394382647554 0.1788783388073052 0.2217059567089453 0.07798361452789472 0.33475863030504566 0.1402760534211484 0.005629097234524714
-0.04748526986038233 -0.0831752445152541 0.23937287153375086 0.0043012207522311555 -0.180459101593159 0.044171601183193535 -0.17892977230134 0.135206078126078
-0.13223808950150465 -0.0038112354346481604 -0.2606150989330235 -0.3137540687437729 0.004475134596253424 -0.1220546182314607 -0.05387412031124121 0.117102943645076
-0.0023189080756467195 -0.13251815928842114 -0.2027676477589021 0.12512170852518611 -0.13236288392689163 0.38282829418798375 0.08610560705070917 0.2583849679282945
00000000: cd08 c46b ec78 d53f 172b e4cc 2a2c c33f
00000010: 838f 0ba2 3f33 943f 44ea 5fe1 d8f1 cebf
00000020: 88e7 8b10 c903 c4bf c741 52c4 fe9c d33f
00000030: 6f92 2db6 2786 a23f c32b 6a1d 16aa d23f
00000040: 8c88 8c79 aae1 b8bf 47e0 7125 0da6 b8bf
00000050: bd23 6d1f 06ff cf3f c3dd d7ac c27c cb3f
00000060: ab81 8d87 fa03 ca3f f929 f133 64cb c2bf
00000070: 4901 d48e 9e76 c6bf e02f 4e13 b539 c2bf
00000080: 8751 d7e2 b77f c2bf 8c07 303c 8f73 a4bf
00000090: 1fd6 5b6c 3d61 c13f 774e 7285 dda2 c1bf
000000a0: 2f48 3c52 7cb2 a8bf fbe6 dc45 c246 b03f
000000b0: 871e 5fdf f61e b53f 305b 40ea b8c1 d03f
000000c0: 5894 b52b 2d06 ab3f 151f f47b d681 cbbf
000000d0: 2498 38ad 7dbf 9ebf 124a ae4d 73d5 9b3f
000000e0: acc1 1af7 ee1b 7abf 509a e847 7284 c33f
000000f0: 3040 2013 66d8 d03f 32f3 9b40 388e d13f
00000100: 727f 835e 5f7f aabf 5495 ae53 cb55 983f
00000110: 8bc3 4375 7266 a8bf ab0e 0711 6c01 d53f
00000120: 7f42 9eec 755e b4bf 4983 7116 1480 8fbf
00000130: b1b3 752c 6a0c abbf 76e5 c447 ebc6 acbf
00000140: 67ce a763 a272 d93f fc80 912b f864 bfbf
00000150: 6631 3b55 c8eb c6bf 60c6 af6c f6d0 8c3f
00000160: 2aed 1cbc 0fd0 de3f 2e19 1086 8741 d93f
00000170: a3fd a9ff d489 ccbf 0ed6 95bf e77a bdbf
00000180: b622 1d49 019f c5bf 6494 1a8b 3b69 c53f
00000190: 88f1 9143 7ce5 c63f 0b58 b25c dc60 cc3f
000001a0: f16b 05f2 bbf6 b33f f5b0 4d76 af6c d53f
000001b0: 3e8a edd2 90f4 c13f cbdd 7348 890e 773f
000001c0: aa24 2f42 fd4f a8bf 44a2 070b f94a b5bf
000001d0: b0be 642f c5a3 ce3f 7a5a 6b27 289e 713f
000001e0: 2bd8 cda9 4819 c7bf 92cf fcfc a89d a63f
000001f0: 5451 28b8 2be7 c6bf 78ce e2c9 6e4e c13f
00000200: d5e4 d87e 2ded c0bf 5fcd 9271 bd38 6fbf
00000210: 86b6 b0f3 eaad d0bf c273 0ff2 8b14 d4bf
00000220: bc17 c7cb 8454 723f 6940 a1b1 f83e bfbf
00000230: 66d3 ac81 6395 abbf 078f 3861 75fa bd3f
00000240: 005a 1d4b 1aff 62bf ac8b 22e4 5af6 c0bf
00000250: bcd9 e74f 4af4 c9bf 2052 11f7 fc03 c03f
00000260: 8bca d558 44f1 c0bf b955 e13e 4280 d83f
00000270: 43f7 485e 040b b63f 13ec c11a 6189 d03f

layer4.weight f8 [11, 80]
-0.7660890032991848 0.010302130785693432 -0.12746408843176568 0.39638943398806864 0.7847596977803006 -0.15425734282530684 0.18942730543571465 -0.10666910447312455
0.5017223827940263 -0.13248536076780584 -0.3806597083444061 -0.921838528554895 -0.39924028763406055 0.43369040059636726 -0.5062890154726479 0.4620528061161713
0.12747713156618135 -0.3014325878882511 0.06771749400098998 0.12678971550355014 -0.17098930836013282 -0.6295044629376662 0.17176786984413447 -0.3965252981985981
-0.2704681576908361 -0.10171362808981121 -0.12932635205370233 -0.8031275863027055 -0.020965225720438862 -0.3146490745773639 -0.44838938294390573 0.07492577353326603
-0.22065751444030543 -0.2410322958731229 -0.08328690503472053 -0.5316022672685655 0.19763409185347267 0.384595772681796 0.29655260696644686 -0.026322093423079024
-0.2995964018815249 0.2583706461058104 0.3443415244043755 0.18836035540255844 -0.47044920895813885 -0.7969590859146576 0.36409353393650173 -0.06274230746665115
0.2899774387842708 -0.03722683599687241 -0.4160216475155395 -0.5686542915720889 0.059240410100234196 -0.6317432023234371 0.0869424719079607 -0.14809032876212033
0.054349957678916025 0.23147727791533415 -0.36942363044335036 -0.5191012855159645 0.19041692975682606 -0.08329025740039396 0.08823052651695032 -0.3753608975746509
0.07064421867711787 -0.16296517828113488 0.231697267436418 0.2835263686695057 0.14850675639591418 -0.19992233367046763 0.087647296589831 0.128645914389442
-0.031164541400419993 -0.1937432536277254 0.10926820924124428 -0.1288727584512505 -0.07552105920536602 0.30439401000882466 0.11289693748611124 -0.3371524224875865
-0.2790817734400593 0.269649164836622 -0.10470866383869504 0.1859243068020419 -0.5603405634894727 -0.314170966289147 -0.23025899148172277 0.10221780456144912
0.03168256624062428 -0.14183472020509155 -0.5757534316651812 0.2414080387636467 0.041997184830473155 0.2798559097077159 -0.040927841448941196 0.10322595566014975
0.06246194004666765 -0.3368822292788602 0.0070352951183755945 -0.14041333981986187 -0.027390803067673008 0.20296689877793136 0.12125109417197501 -0.28999880216134893
-0.34793262684140946 0.09746220867444065 0.010450912235281115 0.3692184528892591 0.07721377747751602 -0.3700054444681106 -0.13415805563902866 -0.21005932735571933
-0.9264120876816107 -0.3808378733191831 0.2017551337702009 -0.11750334324503307 0.3393789991226524 -0.4194463878726148 0.3135923162433525 -0.26857653955749183
0.16256740680200152 0.20629376480295764 0.11741607817243865 0.0932011709812966 -0.05723693992770915 0.2957905052403991 0.18550260082716966 -0.4000548173528215
0.06509132547234268 -0.9679162082242283 -0.6117743213208622 -0.1848899699969278 0.23485253683552862 -0.3036541186588111 -0.3577652935830106 -0.05560756826827243
-0.1710509993153224 0.087742985358845 -0.37714900980616173 0.2148086259166034 0.2040577513271018 0.22075282202872215 -0.4189655354429742 0.009526590009712255
0.4609466120853107 -0.6806690197509682 -0.2635115788388617 0.18794475672458047 0.1187314806121781 -0.2899723819316184 0.2125344180281706 0.18104154336193398
-0.3227389712870583 -0.04175027577033743 -0.611120240762632 -0.22919506769150216 -0.15656862834410207 0.2194801415305602 -0.1985118765671649 0.08614012647774286
-0.4202698605029754 0.31698082737658745 0.09099026615051442 -0.6384738583097855 0.13835242859827396 0.3794331173594214 0.023233256651718538 -0.11283534663589043
0.034019043628129395 0.03493017044225253 0.2362035165628418 -0.09210364573937278 -0.27233846667195677 -0.19877146630321677 -0.2646177419799048 -0.17622838392869059
-0.32806566210745114 -0.939351096420816 0.425113897818902 -0.21318905878995717 0.1425370600290193 -0.7094980031647917 -0.3192440979821149 -0.3061729766703322
-0.25833306477912077 -0.2717379948283145 0.16838018605164423 -0.528288598783315 -0.13812486245349462 -0.6068112035981762 -0.047084421218045784 -0.0019345302655956386
0.4085930427851578 -0.45446662282159633 -0.05374687026941054 0.26757771860814533 0.08947902009181827 -0.08074385351939964 0.037118017052398755 -0.05560947775598112
0.1392368894649133 0.17292066432872435 -0.65884084224809 -0.17939442783905402 0.2573990792314569 0.10769964108373647 0.2656173252752832 0.0532548391835498
-0.40965666985670746 -1.1803018854727532 -0.23757978782588274 0.4225483584501493 -0.02023485640507885 -0.6692893576108725 0.4520898577196579 -0.38933028974606104
-0.04402862321414467 0.2680100534435588 -0.7466871626402356 0.47404325060122077 -0.20721300456691535 -0.06198808440238429 -0.5580588636298282 -0.5346791005588818
-0.055721014642263804 0.3707782528617633 -0.015339089391565766 -0.605892520369236 -0.010674862464528206 -0.19285148443522837 0.16353184821506822 -0.024278735372829565
0.3629539249513649 -0.3459954506736789 -0.5367879162352662 -0.16639992044488686 0.10926331718085185 0.3196096896847977 0.03952451753429431 -0.6990851791673672
0.16755630424118756 -0.034273747799862475 0.2870814461570895 -0.22213387656870942 0.3596836755309511 0.09454264103988799 0.4246970007805443 0.20970629497277918
-0.8280742042395939 -0.14192655996047743 -0.6538667513532641 0.1625620637521248 -0.06997326154082481 -0.2455136160396418 -0.5816327809575921 0.19710611561420271
00000000: f7d8 df15 cd83 e8bf 87e9 6d96 4819 853f
00000010: 1f4c 9d45 be50 c0bf 6f5b ddc9 715e d93f
00000020: 72ed a55e c01c e93f 7620 4d61 b4be c3bf
00000030: 0d6c e868 273f c83f 44a7 349b aa4e bbbf
00000040: 6cb0 3819 1c0e e03f 8126 d9c1 47f5 c0bf
00000050: b49f 8f89 ba5c d8bf cfc0 8a83 b37f edbf
00000060: 3392 a822 278d d9bf 63a2 c961 95c1 db3f
00000070: 11ee 7805 8533 e0bf a4d0 d2ee 4592 dd3f
00000080: 1046 88af 2b51 c03f 906f bbe8 ab4a d3bf
00000090: a4f0 1906 ef55 b13f 3d48 c738 a53a c03f
000000a0: c8ab af47 fae2 c5bf 331b 208b e624 e4bf
000000b0: 5ff8 bd53 7dfc c53f 152d f3a4 ab60 d9bf
000000c0: 880e f9ac 594f d1bf f007 3482 e709 babf
000000d0: fb72 4a12 c48d c0bf edef b59f 38b3 e9bf
000000e0: b348 4a7b e877 95bf 3eb1 41df 3523 d4bf
000000f0: 5288 e761 69b2 dcbf f1ef f3e2 552e b33f
00000100: 1ba2 1164 813e ccbf 9b05 0772 25da cebf
00000110: 9426 4f65 4a52 b5bf edbb 0cc2 e202 e1bf
00000120: efeb 8aec 124c c93f 5248 7696 379d d83f
00000130: 3db9 1dc9 b7fa d23f 8553 a8c9 2df4 9abf
00000140: a425 0563 962c d3bf 8855 d108 2589 d03f
00000150: 582e 7e08 b109 d63f 0391 282f 311c c83f
00000160: abdf b9ff d61b debf be1c 4857 b080 e9bf
00000170: 514f 3cf7 4e4d d73f 7314 a53e e10f b0bf
00000180: 9300 0a88 fd8e d23f 25be 4756 650f a3bf
00000190: 4e77 a042 19a0 dabf 8a07 217c 6a32 e2bf
000001a0: 43da f64f c254 ae3f 1662 2e85 3d37 e4bf
000001b0: 1a64 7aa1 dc41 b63f 9b8f 71b7 9ff4 c2bf
000001c0: 0e34 8af5 c1d3 ab3f 5dec 3425 0ca1 cd3f
000001d0: 02ec c702 a3a4 d7bf b648 934c 7a9c e0bf
000001e0: 9e84 f4fa 945f c83f 6f30 9ca3 8252 b5bf
000001f0: 822f e699 4696 b63f f3f0 d1b6 e905 d8bf
00000200: 3ea4 de50 bd15 b23f 2c59 8dff 0adc c4bf
00000210: 3222 1b8d 41a8 cd3f 7f4e 3fc8 4b25 d23f
00000220: 814d faf6 4402 c33f 7065 6d16 0e97 c9bf
00000230: a4a6 6fa0 0d70 b63f 9e88 8825 7877 c03f
00000240: f845 70f8 98e9 9fbf 5d6b 1335 94cc c8bf
00000250: 5202 2f59 00f9 bb3f de5b 720d e77e c0bf
00000260: 7942 721f 5955 b3bf 4784 8503 317b d33f
00000270: 8c47 524e d0e6 bc3f aa7c 16c1 e793 d5bf
00000280: 516c 75cc 79dc d1bf 017d 1792 ee41 d13f
00000290: 9888 cbde 2fce babf cd84 9f20 5ecc c73f
000002a0: 66e7 5955 4fee e1bf 7c22 648a 601b d4bf
000002b0: 8710 036b 2079 cdbf 470c a92f f22a ba3f
000002c0: 12b3 b683 b238 a03f 47ed 5bde a327 c2bf
000002d0: a5f9 f175 926c e2bf 4c9d bd67 75e6 ce3f
000002e0: 18ed bdae a780 a53f b25d f2c2 28e9 d13f
000002f0: 4ac4 0979 7ef4 a4bf dc9f a827 046d ba3f
00000300: 5684 7deb 02fb af3f 43cd 567b 7a8f d5bf
00000310: ccd5 37a7 0ad1 7c3f 8666 3977 10f9 c1bf
00000320: b31d 8cad 550c 9cbf 27fc 35c0 d1fa c93f
00000330: 39a6 12cc 4f0a bf3f f560 ca22 578f d2bf
00000340: c6b1 5f35 8744 d6bf 4747 da86 48f3 b83f
00000350: e576 1cb2 4967 853f 294d 0f6f 46a1 d73f
00000360: 9909 1139 48c4 b33f 5747 d550 2bae d7bf
00000370: 3e77 bb56 172c c1bf 9535 9b5a 39e3 cabf
00000380: 72c5 66f6 2aa5 edbf 35fb bed0 a55f d8bf
00000390: 4beb abba 1cd3 c93f e777 68f8 b214 bebf
000003a0: 9595 8bb1 62b8 d53f 42a5 95a9 35d8 dabf
000003b0: 94b1 a281 e511 d43f 66d3 77a7 5b30 d1bf
000003c0: 8f18 ce3f 02cf c43f 0645 9986 d567 ca3f
000003d0: bc73 c6e7 fa0e be3f 5446 502d 08dc b73f
000003e0: 4daa 3902 294e adbf a163 9e4c 3bee d23f
000003f0: d914 f099 8cbe c73f cbce 4885 7f9a d9bf
00000400: 6331 283a d3a9 b03f a4ec 7269 2bf9 eebf
00000410: e261 d3bd a793 e3bf 9263 3f7b 79aa c7bf
00000420: 73ad 8bde a50f ce3f e8db 3baf 116f d3bf
00000430: bb4d e566 a0e5 d6bf 64a0 3e5e 9878 acbf
00000440: 67f3 00c8 ffe4 c5bf 54d4 9104 5376 b63f
00000450: 1685 b599 3523 d8bf fbf1 9a5b d97e cb3f
00000460: 68fc 387c 901e ca3f 1479 8ee3 a041 cc3f
00000470: ac3c 38d2 54d0 dabf cddd 4544 ad82 833f
00000480: 27f0 0638 2680 dd3f 9a62 6765 0ac8 e5bf
00000490: 33bc 4eab 5fdd d0bf 991a cbe3 920e c83f
000004a0: 8926 3cb2 2f65 be3f efed 4852 e88e d2bf
000004b0: 134a 5aeb 5334 cb3f cb7a fa89 5e2c c73f
000004c0: 74a5 b45b c1a7 d4bf 63ae 10ca 4a60 a5bf
000004d0: 0bf9 ff08 4c8e e3bf 66db 1194 4356 cdbf
000004e0: bea3 28d9 700a c4bf f562 ffde ec17 cc3f
000004f0: ae9d dc50 d668 c9bf a25f 1882 470d b63f
00000500: 69b4 968e b3e5 dabf 5ba7 c2f3 6949 d43f
00000510: 70ec 5e59 234b b73f b253 99ba 606e e4bf
00000520: ee6c 134a 88b5 c13f b0fe 84d7 a148 d83f
00000530: adac fe75 75ca 973f 0e4c a2fb c6e2 bcbf
00000540: 06e5 a5af f16a a13f 8de8 6207 5ee2 a13f
00000550: 7936 6bb5 ea3b ce3f 7700 4bc2 1a94 b7bf
00000560: 3320 f351 fe6d d1bf 713c 93e9 5771 c9bf
00000570: 05af ef40 7fef d0bf 5de2 ccd4 a68e c6bf
00000580: 304b 6c1e 07ff d4bf 4cda d207 2a0f eebf
00000590: e943 0dec 1035 db3f ef16 af71 c749 cbbf
000005a0: cb74 a585 a73e c23f 5671 0528 35b4 e6bf
000005b0: 8b8c 11cc 7e6e d4bf 7ff4 6d8a 5698 d3bf
000005c0: dae9 2c68 8788 d0bf 0c91 37c2 2764 d1bf
000005d0: 3e6f 3160 7b8d c53f d6f7 d37d bde7 e0bf
000005e0: fb49 8053 13ae c1bf 399e 4954 ff6a e3bf
000005f0: 4fb0 9002 731b a8bf dca5 530e 02b2 5fbf
00000600: 17aa 086f 6326 da3f d41b 892c fb15 ddbf
00000610: f691 23b4 b584 abbf 8bdb a34b fe1f d13f
00000620: def4 f8d8 18e8 b63f a205 3812 a1ab b4bf
00000630: 5833 aafa 2101 a33f 0f81 9e70 d878 acbf
00000640: 5404 53af 83d2 c13f 6d17 0cab 4322 c63f
00000650: 4430 d763 3915 e5bf 98a1 5388 65f6 c6bf
00000660: a874 d4fc 3979 d03f bcde 3e24 3492 bb3f
00000670: c5bb 53cf dfff d03f d24e 4be1 3744 ab3f
00000680: 68dc e79b d037 dabf a933 d83a 84e2 f2bf
00000690: 788e 73b5 0369 cebf 6d66 2145 080b db3f
000006a0: 270c ff39 72b8 94bf 48fc cf83 d16a e5bf
000006b0: 1f97 704c 0aef dc3f 5f4c 7397 c9ea d8bf
000006c0: 3dd7 9571 eb8a a6bf d983 a2a3 1327 d13f
000006d0: 4440 fc79 dce4 e7bf 9231 8e80 b956 de3f
000006e0: c7dc f5aa f485 cabf 98f6 7ff6 e6bc afbf
000006f0: a10e 1143 9edb e1bf b829 5858 171c e1bf
00000700: a74a 2dff 7687 acbf a3fe 86b5 d4ba d73f
00000710: 282d 4cba 196a 8fbf 6c0f fcb5 7863 e3bf
00000720: 4344 65c9 b3dc 85bf ac32 5181 5baf c8bf
00000730: 6e15 f891 9cee c43f 877d a859 86dc 98bf
00000740: a8bd 6719 a33a d73f ac53 4d1a ca24 d6bf
00000750: 64ca 23da 5d2d e1bf c513 2fb4 974c c5bf
00000760: 4bb9 f145 aef8 bb3f 1b94 2b33 7c74 d43f
00000770: d062 66bc 8e3c a43f 6f8c b4e1 e75e e6bf
00000780: ee2d 7a27 7c72 c53f 60d2 d223 548c a1bf
00000790: 0e1e a2db 8a5f d23f 9c20 9903 e26e ccbf
000007a0: 67df d3ad 0e05 d73f 6202 584f f233 b83f
000007b0: 4af3 4354 3c2e db3f 7d32 56e7 a7d7 ca3f
000007c0: 56d9 3b79 957f eabf 7465 bb46 a62a c2bf
000007d0: 0a21 20f7 79ec e4bf c15c b16d d5ce c43f
000007e0: 4e8c e985 c4e9 b1bf 8f75 ce7b fd6c cfbf
000007f0: 0ad2 8f59 bc9c e2bf cac9 33f0 c53a c93f

layer4.bias f8 [11]
-0.2664964164299939 0.037138183696551634 0.02167360830193413 0.007458874058827782 -1.0768907037838168e-05 0.1999428841549868 -0.06480439800151484 -0.269379967119476
0.23670690121770202 -0.16256006184846217 0.22169006358722182
00000000: 745a 44fc 460e d1bf dfad d1a8 c603 a33f
00000010: 295b 5f3b 9b31 963f 42c4 5c42 328d 7e3f
00000020: 4a97 3550 8395 e6be 26bd 417a ba97 c93f
00000030: 79b0 0d62 0597 b0bf f271 3e79 853d d1bf
00000040: 1dd8 bb67 694c ce3f 582f a3a2 c4ce c4bf
00000050: 8e46 7a0a 5760 cc3f
