attack_soft_generative_decision_tree/experiments/vowel_params_state_dict/fnn_epoch172.pth (torch, 69599 bytes, 6 tensors)

layer1.weight f8 [80, 12]
00000000: 98bc 1d24 4fef 923f 68a9 79bf 780c d4bf
00000010: 1f08 51fc 218a d03f 7bab 7996 1b9b b03f
00000020: 7eb7 27e3 6dee ea3f f641 b39a 27f7 c9bf
00000030: 072e c9c1 d1fa e7bf d0f3 2e31 0750 e1bf
00000040: 7635 d4c7 6244 e1bf 1735 de81 91b2 de3f
00000050: c32e 369c a505 c83f 60a2 2f66 52ed dbbf
00000060: d3ff 830c 41fe a53f b2cf c525 958b a43f
00000070: 60b9 e5f8 efec d7bf a2ed c4c2 79bf de3f
00000080: a071 6c4c 7507 d2bf 84ef 6792 10df e1bf
00000090: e2e5 b38c dcd5 d4bf 0db0 932c ca67 d93f
000000a0: 3f07 a10b ef89 d93f b01d b47c a122 d43f
000000b0: ddc9 076f c62f e53f 7174 5390 d477 dbbf
000000c0: 5b9c 30c5 b3af b6bf 913d 21a6 ec14 efbf
000000d0: 6c90 58c2 9be8 c73f 6ba9 dfa6 0999 e7bf
000000e0: 7879 ee57 cb32 ddbf dec9 2c53 3f9e d43f
000000f0: 70cc 4b2f f2d2 b53f c25f 5b6b 17e5 c9bf
00000100: 849e e4a0 b533 e23f 1e10 f4b4 3460 a83f
00000110: bd70 fd49 4410 e0bf 1eb9 cc56 fcf5 c8bf
00000120: 59ee 5883 1e42 b33f ff58 10a3 6b3b bd3f
00000130: 393f 50c7 69fe ecbf 8b07 794a 896f d03f
00000140: 6fbc c78f 7cfb e03f c0f9 3ebe 69d6 d03f
00000150: b5bf 19b0 9eda d53f d852 8525 5fb8 b53f
00000160: 36f3 afae d071 c1bf 4525 b261 0997 bbbf
00000170: bc84 a59f 09f5 9abf 8f1b 0150 a647 c5bf
00000180: dd01 f790 50a6 b03f bd69 0337 b22c cebf
00000190: 97c6 edb3 9b70 c83f 7fc1 d04b b6aa f1bf
000001a0: c25e e0a4 c545 e8bf b122 3878 ff46 cf3f
000001b0: a00e f531 f247 c4bf 26f2 9367 b81b a0bf
000001c0: e452 c034 5b13 cc3f 6ad9 56b5 36d9 d8bf
000001d0: 4b13 2cfc a5a3 c03f 04c9 9e32 1639 d03f
000001e0: e61e c043 84dc c8bf 20e7 6f9c aa53 dbbf
000001f0: d9e9 0d02 63ee bfbf 9086 3f81 9d75 a93f
00000200: 1b1e b6b9 09e6 b8bf cb3b 1599 aedf dcbf
00000210: d6b9 a5f5 d44e e0bf 4088 1761 3313 db3f
00000220: 562b 7a4b 6f68 da3f 9c99 2ccd 6324 ca3f
00000230: c3ec f0a5 fbed df3f cc7c d664 3795 d83f
00000240: 2d86 7042 9fd3 b4bf d2c4 8634 b70a e5bf
00000250: 2707 714b 1e33 e03f 5c05 e41f 0c9e e23f
00000260: 5452 2520 e7bb b43f ff79 30d0 a49d d93f
00000270: 3ddb 09b1 cb95 e1bf 0181 ce18 a3b5 80bf
00000280: 498a 3fab 8512 ddbf e011 2b93 e5ca d43f
00000290: c7c1 6be6 76c9 c5bf 5e63 0a68 3be0 a7bf
000002a0: 449b d3ee 3012 973f f3f3 04a2 88ff e1bf
000002b0: 9e27 4df9 2063 c4bf ec45 4cdf 94c5 e3bf
000002c0: b8f0 74e3 7846 d5bf 9aad 35d3 ccf9 e13f
000002d0: abf5 07f1 4b94 db3f 47e5 b6b6 656a d03f
000002e0: 6239 bf92 3c3f e43f 0cd2 4f11 c8be e43f
000002f0: 818b 3450 b93a cd3f a7a2 86ee 0f49 d23f
00000300: 30cc e5f4 6340 ae3f 608c f391 3f40 c4bf
00000310: a136 2f4b 3eea b13f 5ded fd90 7b93 df3f
00000320: 110b a2d7 3ed7 cbbf a40a 6ba0 8249 ccbf
00000330: 06c3 115c 6f2b b53f 954b 3f79 7ff5 e23f
00000340: e937 dfab a38f db3f e3c4 c370 0902 d9bf
00000350: a57e 5d7e c655 d6bf 7b11 d170 9ff6 b8bf
00000360: 3c70 e398 c705 bc3f 5513 9147 ba7a cbbf
00000370: d029 1c1d 93d5 e33f 3435 7376 89b0 bebf
00000380: 3fa2 c2cc 9da2 bfbf 5467 e5eb f84e cfbf
00000390: 886d 183d aed0 c1bf 5aaa 2839 3521 dabf
000003a0: 6a7e a1fa 5500 cebf a632 ad87 52ac cd3f
000003b0: 0a1d 5022 ef16 d8bf c336 0c2d f3db d7bf
000003c0: 8bad 1f97 d093 be3f 7dfd 91dd f794 8b3f
000003d0: 4d42 a377 a2da adbf 9589 a072 ee67 d73f
000003e0: 8eed f339 547b ca3f 910a 1835 cdc1 d0bf
000003f0: b21c 68c1 b0bb cc3f 72ed 72e5 8bdb e03f
00000400: 9b0d 8cc2 f156 d83f f764 f658 d52e e23f
00000410: b067 5c1a 017f bd3f 397e ada2 8535 d13f
00000420: 4c1e 1ce6 808d 7f3f f85d 4530 938d bf3f
00000430: a8c8 2477 3f8c bfbf e403 b425 8d71 e4bf
00000440: d2e1 0ba2 bb7e cdbf 7d6b be24 ef9d c3bf
00000450: c28c 0f9b baa1 77bf 013c 9cc0 03d1 e63f
00000460: d9ee b618 88d7 e63f 438d 4436 c5f0 a6bf
00000470: 04f3 f078 2891 d83f 4241 40fe 8de5 a93f
00000480: 5c67 c036 e48f a1bf cfaa 9340 d798 bdbf
00000490: c5a0 fa14 74b4 b13f fce7 85c5 1bed b53f
000004a0: d65b c82a b432 e13f 25e7 8be9 b64d cd3f
000004b0: fcec 9bae 2066 debf f20d a327 ea14 f2bf
000004c0: 21ad 272b 1e3a d4bf b240 4a51 08a5 bf3f
000004d0: 6ff9 a986 0a4a e33f 1cea 2313 5c85 d03f
000004e0: 8321 8bef ad93 c9bf 442b ab26 331e debf
000004f0: 8988 4a22 bd32 dcbf 4063 9af1 0018 c5bf
00000500: 3a0f 73e8 3335 e73f 14ea ee5d d3fb d0bf
00000510: 5865 d81c a62e 84bf 0089 4d26 82ed dd3f
00000520: 3e75 b46c adf8 dc3f ad3c a4cb 8c50 e3bf
00000530: 6602 ee71 9bd2 bcbf 275d c193 bc99 e1bf
00000540: 1403 2641 ba5a a53f c1fc b78d 72c0 b2bf
00000550: c33f b926 2b91 e0bf 5781 1cee bb28 d43f
00000560: 24d6 d506 a2da d73f 7ccc 2d98 17b9 e43f
00000570: 7ac5 aa99 7efe b23f 636f 6d49 b598 cd3f
00000580: a7c8 9874 fe0d d53f 18ef 1eb5 f0a6 c2bf
00000590: a0e4 56b3 8db4 e23f cc16 db9a 6138 c1bf
000005a0: 9782 a715 1c2b b73f 59c0 631b 9d64 a5bf
000005b0: 7219 707a ab9c e43f 88bc a1a5 741f d0bf
000005c0: 8ea9 148e 9b25 ddbf f423 f317 4c94 e3bf
000005d0: a9f2 ac1f 8d1c d3bf 4af7 2d9c a5e8 d2bf
000005e0: 809d 4b2f 6f33 c1bf 0209 7a51 a06d d3bf
000005f0: ca3f 878a c506 d03f 2185 8d56 8e1d a8bf
00000600: 312b 1bef 8c48 993f fc7f 85eb 1470 c1bf
00000610: 10ed a7af 8dab d5bf 1ee3 75d4 cede d4bf
00000620: d1a3 593f 7052 d73f 05e0 e610 a47e bd3f
00000630: ba36 82a5 ff3a b03f ec78 a579 10ec e7bf
00000640: a865 1719 53df d0bf 5df9 7856 a027 c0bf
00000650: 36bf 31d6 c918 d8bf 0b5e 0917 3373 d3bf
00000660: 0452 826e 8ea7 d3bf 3fd4 7243 424a b4bf
00000670: e0c7 bccf 1751 d9bf ac78 02aa be89 b63f
00000680: 9454 f9ec 8811 dd3f 1a06 501a 85d6 d13f
00000690: dcfc 756f 219d aa3f c299 de16 d9f4 d0bf
000006a0: bd47 408c 6a5f e0bf 75a8 bb1e 7653 db3f
000006b0: 5244 2f39 a097 7abf cc25 bf27 66bf d2bf
000006c0: 78bb 72a4 6274 bbbf 8671 e8ce 34a3 cbbf
000006d0: 9196 2da4 b185 d03f ed00 795a da64 d53f
000006e0: c1a0 568e 3b3b e5bf 7bfd ca4d 2646 dd3f
000006f0: 043a 74a9 3eaa d43f a3f3 ae67 bf45 b9bf
00000700: 339b f70b c2fd e8bf 8edb fe29 d936 d63f
00000710: 577d e2fb 8a8b de3f 7a60 d917 4100 e1bf
00000720: c04d 48c2 8542 be3f 42cb a52d 18f8 b4bf
00000730: df71 2f89 6570 b0bf eb1d 895d b330 d2bf
00000740: bfbf c5f7 f831 d8bf 85f6 c8ad 264a c4bf
00000750: bd78 0a59 6739 d0bf fb69 9cc3 b45c bc3f
00000760: 0c8a 311f eafb da3f 792c 0df7 b6cd ba3f
00000770: 3a38 4498 d899 babf 0e92 3f15 9774 d23f
00000780: 4a72 b929 0771 a63f 6f06 9f5f db92 db3f
00000790: 5e22 9af0 3ef8 e63f f297 68c9 effa cabf
000007a0: 59c5 88a9 93e6 c13f 8196 d6b0 9e6d c93f
000007b0: d1ef 42dd c192 e23f 3a1e ac0e 01e9 e3bf
000007c0: db47 fbc0 8437 cf3f 7b58 e45c cf2c db3f
000007d0: 7dd3 0cbd 62a6 c2bf 9c48 88f9 8d2c d53f
000007e0: 8662 a96e 329e c8bf d70a 150f 5d3b bd3f
000007f0: e2f2 9359 0d27 e83f 6058 2ec2 1761 bc3f
0.018491016940455823 -0.3132612104297068 0.25843095436369085 0.06486675666535106 0.8416051327346705 -0.2028550629970735 -0.7493675980453539 -0.5410190544713434
-0.5395978835019111 0.4796489494554676 0.1876723301651194 -0.43635997752293143 0.0429554298189029 0.04012743078320059 -0.37383651071913526 0.4804367448848216
-0.281705212242537 -0.5584795817844541 -0.3255530714082778 0.3969598231622065 0.39904380927702116 0.3146136968429927 0.6620819252551048 -0.42918886274657725
-0.08861850322920033 -0.9713042492602871 0.18678614606426736 -0.7374313601733723 -0.45622523867668674 0.32215865252069686 0.0852500310391393 -0.20230381719625085
0.5688121931497823 0.04760899266150907 -0.5019856877438752 -0.19500688780085168 0.0752276487991649 0.11418793421794148 -0.9060562985268695 0.25680763504726006
0.5306990440566447 0.2630867345686987 0.34146849820444497 0.08484453836474459 -0.13628586320546682 -0.10777338633683538 -0.026325369233181503 -0.16624907404385822
0.06503776110822153 -0.23573901830861912 0.19093652997576235 -1.1041777574101557 -0.7585170955889782 0.24435418481904983 -0.1584456199581057 -0.03146148933771924
0.219340706593946 -0.3882576723948633 0.1299941521939679 0.2534842962587762 -0.19422963436249246 -0.42698159482061904 -0.12473124313502328 0.04972545817123575
-0.09726010116548205 -0.45115246724611485 -0.5096230314064154 0.42304691774018366 0.4126241910059226 0.20423553007385642 0.4989003296393088 0.384107445215659
-0.08135409709986936 -0.6575580621630712 0.5062400315730188 0.5817928908219687 0.080992169712155 0.40024681406967483 -0.5495356042655214 -0.00815894526914507
-0.4542555019708386 0.32488383647821983 -0.1702107071973968 -0.04663262982393833 0.0225303312080556 -0.5624430813255671 -0.15927517102164485 -0.6178688393867424
-0.332426283002643 0.5617431760014597 0.4309263089961301 0.2564939770050682 0.6327193132545228 0.6482887590523787 0.22835461059829856 0.28570936482950987
0.05908501018975476 -0.1582107031491402 0.06998051963383968 0.493376628488212 -0.21750627068475883 -0.22099335511128004 0.08269401548183106 0.5924680107221884
0.4306420496403676 -0.39074932110004407 -0.34898531284668827 -0.09751316551507287 0.10946319086673467 -0.21468285078494867 0.6198211258463804 -0.11988124029013109
-0.12357507943182443 -0.24459754484524387 -0.13918092711615437 -0.40827684957426913 -0.23438524949868916 0.231821361778562 -0.3763997874343238 -0.3727996768874215
0.11944297494453886 0.013467728089607384 -0.058308674911704196 0.36571847147038145 0.206888702676093 -0.2618287104125239 0.22447785800634318 0.5268001061844372
0.38030666350115333 0.5682169663952256 0.1152191819532209 0.26889172445769166 0.00770330763931033 0.12325401237955436 -0.12323376330167213 -0.6388612495794601
-0.23043008243963797 -0.15325726789600572 -0.005769471100367686 0.7130144845885981 0.713810013075512 -0.044805682062611506 0.3838597470346914 0.05057948807382441
-0.03430092972139562 -0.11561341597159046 0.06915975105460166 0.0856492383226452 0.5374394260023745 0.2289341583598851 -0.4749833779494137 -1.1301061199491156
-0.31604723181108524 0.12361194595928529 0.6027882223277582 0.2581396281163124 -0.1998193187375926 -0.47059325004800123 -0.44059685086006845 -0.16479503438019982
0.7252444782284109 -0.2653702180211053 -0.00985460067299708 0.4676213621188623 0.4526780664035249 -0.6035827615140953 -0.11258861094939618 -0.5500166784139865
0.0417078213240584 -0.07324901542596064 -0.5177207714386828 0.3149862122827662 0.3727192942381825 0.6475942585224312 0.07419577838552086 0.23122278294874396
0.3289791239395847 -0.14571961253920374 0.5845402243350186 -0.13453311978644533 0.09050155190153429 -0.04178324660631522 0.6441247359623914 -0.25191990065554437
-0.45542038798398543 -0.6118526904839414 -0.2986176308948339 -0.29544964076909663 -0.13438215073913895 -0.3035660548849962 0.25041330841213194 -0.04710049444725884
0.024690820783500548 -0.1362329626090285 -0.3385957923307652 -0.3260991167840518 0.36440664469278966 0.11521363651888812 0.06340024748552767 -0.7475664497285641
-0.26363065195399793 -0.1262092993001244 -0.3765129653684086 -0.30390622377078164 -0.3071018294515684 -0.07925810000126975 -0.3955745247541227 0.08803931856752695
0.45419524328219407 0.27871825761403246 0.051980061393800375 -0.264944336255578 -0.5116474856642906 0.4269690799834572 -0.0064922579503710765 -0.29293207055578985
-0.10724464907501197 -0.215918160466469 0.25816002877250194 0.33428057513448445 -0.6634805469557464 0.457406593293818 0.3228909163307494 -0.09872051507313855
-0.7809763177618606 0.3470976743805573 0.47726702306859664 -0.5312810388377465 0.11820255273078484 -0.08191062082714232 -0.0642150363850713 -0.2842224515374869
-0.3780500812199498 -0.15851291165920514 -0.2535036439457022 0.11078958297404277 0.4216256432174823 0.10470145732431203 -0.10391000478213722 0.28836609911948663
0.04383108505564744 0.4308384355354979 0.7178034495601187 -0.21078297933962592 0.13984914567985632 0.19865783343009372 0.5804147073281404 -0.6221928869790141
0.24388179228713977 0.42460998603326744 -0.14570268851243987 0.33084439628977136 -0.1923277893390784 0.11418706529824917 0.7547671079224438 0.11085651865718793

layer1.bias f8 [80]
00000000: eedc a5c7 052c 773f 9ccc b8a1 c9d4 b5bf
00000010: 2ea0 0c18 194f b1bf 5812 ec18 b134 d5bf
00000020: 1458 9aed 3ee1 cdbf 9eac 211a 4c1a be3f
00000030: aa87 9c05 3280 ce3f e6d5 f7ee 1feb b83f
00000040: 5808 4476 3459 b2bf a27a afe3 5326 dd3f
00000050: db07 988f f4ae d23f 5f3d b3ed 3aa1 d1bf
00000060: dcf0 72b2 1c7d d2bf 6946 2f28 375c abbf
00000070: e67d 7c45 b3ca a9bf 03e4 8745 8772 e03f
00000080: ca4a 5c8c d2a4 b6bf 9e60 29eb 91f1 bebf
00000090: c469 c810 3013 64bf 63a7 cefa 9d46 d3bf
000000a0: 04e6 f4bc 5a5f d03f 93a3 d6e5 b71c d73f
000000b0: 7b8b a0ff 2056 a9bf a44c f198 394f c83f
000000c0: 3d2c 00f1 c147 a13f 7465 b679 5388 a83f
000000d0: 9487 6976 c4da c7bf 577d 80c5 2426 b33f
000000e0: e453 8961 dc83 9b3f ceb6 bb8a d6b6 c23f
000000f0: 1745 3ebe 7c05 d43f 119e e3db f675 c3bf
00000100: 7e78 3481 099d 833f 24f2 cfb5 bf48 c53f
00000110: 4d38 86cb 49f9 d83f 56a4 4997 1946 913f
00000120: 65a6 1635 a33a c83f da3b 5fe5 1a98 d7bf
00000130: d862 d79a a620 d6bf e5a2 3ae3 ddde d1bf
00000140: 406e 58d5 9a00 db3f f710 225a 056e d23f
00000150: 775e b98e 3d69 c1bf aec0 8941 fb79 c8bf
00000160: 9e13 e9a7 ed15 c2bf cbb2 d7c0 3432 a8bf
00000170: 208d 99fb f14d bbbf 3b33 8733 f4f5 943f
00000180: bd6e d752 08dd ccbf 8191 626a 4154 973f
00000190: ae8d d921 5fd4 d73f c935 c845 cf61 c53f
000001a0: 0699 9f2b 5388 e03f 3c10 6ef5 4c29 c4bf
000001b0: d2c2 e14c 03d6 a2bf 636c 00b3 ad01 ad3f
000001c0: dbe2 cfe5 02d7 d03f e153 78f1 b946 c1bf
000001d0: 4b63 2074 f045 833f 2878 a8eb 8d13 5c3f
000001e0: 879e 5bec 4795 b03f 26c8 70cd 33f9 a1bf
000001f0: 7c6b 3113 79b1 a3bf cb73 a670 807d e53f
00000200: 456e c578 c14c c03f ae33 7f0c 52a1 b3bf
00000210: 1c77 920e 678f d13f b8ef 1635 1cdd bcbf
00000220: 0d47 8d26 f2de d03f 39ad fbf2 e545 99bf
00000230: b6be 6746 c43c c4bf 1f0a 73eb b338 c7bf
00000240: 7fdf 634b 69bb c23f b2a1 14dc 948d d83f
00000250: b17c 6309 7e06 b53f b7ab 1704 2564 b7bf
00000260: 23b0 d2d6 bd2e c63f 8df4 dcf8 0b97 bfbf
00000270: d68b c5eb 86d3 cabf 1325 400b 6d34 da3f
0.005657217576632718 -0.08527813146865743 -0.06761319005147534 -0.33134105142406645 -0.23343645669655244 0.11758876455285125 0.23828721307751027 0.09733771881277384
-0.07167365920398205 0.4554643367281789 0.29192842505301336 -0.2754657098093584 -0.2888862364450355 -0.053437923102717395 -0.050374605400289416 0.5139805181526075
-0.08845249106188216 -0.12087356559038873 -0.0024505556850844285 -0.30118512623686494 0.2558199734954487 0.36112782902869717 -0.049485236362918315 0.18991775482081608
0.03375059191611072 0.047915085418206355 -0.18636375219199108 0.07480077573608433 0.026870196774627333 0.14620477460942144 0.3128349168628843 -0.15203748451971014
0.009576868300936289 0.16628261926224852 0.3902153480092963 0.016868972643724632 0.18928947536669508 -0.36865875625238476 -0.34574284669137745 -0.2792277068170235
0.4219119151545989 0.2879651432233596 -0.13602418393087465 -0.19122257900335654 -0.14129419993164744 -0.04725804189715673 -0.10665810005734899 0.02046948971274108
-0.22549537701603653 0.02278234683821401 0.3723371344151144 0.16704741389587088 0.5166412212390987 -0.15751039489635044 -0.036789038786883346 0.05665343103483946
0.2631232494600632 -0.13497089663056186 0.009410742324733731 0.0017136465018050637 0.06477784653145068 -0.035104388073151235 -0.03846338614740483 0.6715700340461067
0.1273423995688622 -0.07668030552959124 0.27437759802875106 -0.11274887367375086 0.2636075378878651 -0.024680703120720102 -0.15810445249325306 -0.1814179324774878
0.14634433919104237 0.38364144794698085 0.08213031510557546 -0.0913718352309577 0.17330143918422988 -0.12339854074248731 -0.20958029281891183 0.4094498262280279

layer2.weight f8 [80, 80]
00000000: 36b5 b711 fe74 973f 8f10 df53 b177 abbf
00000010: c359 1bcf a68b e0bf e100 091d 710d ac3f
00000020: 7998 af55 fb4b d5bf 96b5 12f2 99c6 dc3f
00000030: 9fc0 0963 8e75 d43f 4115 cb59 71b2 b7bf
00000040: 2919 f253 7206 cb3f 0dbb a177 ac94 ce3f
00000050: 5d5b 1e5e 697c db3f 626d 73a1 be50 bbbf
00000060: 450f 1cab b408 b13f a1bd 9d50 9051 cebf
00000070: 4a73 8bc6 8a28 bb3f 1bfa 3d93 21b7 d23f
00000080: 49bd 1288 7f28 cbbf f58b acde 6d38 d6bf
00000090: 6806 3057 fa44 e13f 4e6b 6260 0740 b0bf
000000a0: 537e 9edd 0277 cd3f 6000 c805 4fb9 d33f
000000b0: 1b35 da98 fba3 e63f 54bd 0460 6d0e 9dbf
000000c0: 2073 1915 0889 df3f b0bf ba63 9a5e d33f
000000d0: a9c5 6c5b 8641 69bf 2d41 ad9a 8bfb d43f
000000e0: 452c e1f2 e7c2 ad3f 4ead 940b bd47 cc3f
000000f0: e584 7851 1d06 da3f f958 1e59 d54f be3f
00000100: 2d1c 4d4c d051 cbbf f331 6e54 9710 c5bf
00000110: 18cd 43b7 38d2 c03f 1d91 f314 1256 aebf
00000120: 4e63 9a58 1608 d43f 0587 07f2 2729 bebf
00000130: e60c 3ab0 46dd d1bf 0ff8 e014 ce69 9cbf
00000140: b780 7c09 086d c43f e13a 163e 60d0 cb3f
00000150: 0e1a 7d6e b5d8 cdbf 54e9 e285 1683 b13f
00000160: e6ac 84f5 6ef8 d73f 25ec d14f 066c dbbf
00000170: 8f39 39fb 5dfc b13f 3786 61f2 4a50 cabf
00000180: 4094 3648 2485 d23f 04fd c228 a75a cbbf
00000190: 450e 743c 7be5 aa3f fb84 8725 862e d43f
000001a0: 648b acba d144 c93f 256c a535 5d65 e2bf
000001b0: 57d0 2616 0a38 c43f 9409 5072 eddf d03f
000001c0: e557 d5cd 0c8a d23f 6f82 a390 31f3 bd3f
000001d0: 36a3 133d 8621 ce3f b548 c62b 9643 b6bf
000001e0: b9c4 6c6f d2c6 c0bf 7bb6 a613 6c39 d6bf
000001f0: f8a9 1dcf bca0 d33f a7d2 1485 3756 d03f
00000200: be4c 8903 af6f d83f 25d5 bcb4 6cde d73f
00000210: ef50 7e72 6c34 b03f df54 f570 68d6 e13f
00000220: 344f 863b d690 cd3f 4262 d849 7eb1 d13f
00000230: 6702 a6cd 8efb b6bf a4b5 0af1 f533 e4bf
00000240: 4e7c 807c 7186 e33f 4a58 22a9 3866 debf
00000250: 4c9f 6211 40bc c13f 70e0 4dc9 815d c93f
00000260: 2b4d 3161 a0ab bc3f 1cd7 ba26 d1f2 b33f
00000270: df00 a1d7 91cc b2bf 558b e997 bdac e8bf
00000280: 43e7 dff5 b0c4 c7bf cb36 3b37 7358 d8bf
00000290: 2a06 df3a 08c9 aabf 65fb e507 14c4 c0bf
000002a0: f5ec 7e14 856d c23f 67f6 61ae 31b3 da3f
000002b0: 40bf 2a61 2eb3 a73f 827e b723 98fa b23f
000002c0: 754f 700c 8468 d3bf 7793 1d1e fa74 c83f
000002d0: 6f6c 413e d6f3 a23f 7876 3212 ed24 9b3f
000002e0: 996d 5308 1cf2 b73f 34f1 f9e7 2703 c53f
000002f0: 1d73 3ab4 61d1 ccbf 355c 2e3e c83a bd3f
00000300: 24d4 8dfb d4d9 ba3f da9c 372b a057 b43f
00000310: 28dc 30da 1cfc af3f 1f89 ce27 99c6 bcbf
00000320: 0d26 07e0 eb21 d03f 9b96 03d8 6263 d8bf
00000330: 4e01 cc73 b707 e1bf 416c 7fa7 d9a0 c83f
00000340: d6eb b7b9 50e4 dcbf 85cc 43f9 cb85 c8bf
00000350: afbf 7a56 8b93 b33f 3ac1 9cbb e746 c9bf
00000360: 05fe 0732 f410 d3bf 6ac8 df36 a49f d93f
00000370: f27c 1508 e589 9fbf b373 9af0 e689 84bf
00000380: ddb8 7f44 7753 d43f abad 94f2 e3f8 d23f
00000390: 758e da15 b92c d83f d491 d1ab 54cd 7a3f
000003a0: 23c4 5661 7e9e c3bf 7ea6 228f 6206 b83f
000003b0: 2582 5a27 5deb 813f 7765 65a0 df91 a63f
000003c0: 41ac fc77 fcf0 ca3f 28fb 5ece ca40 ce3f
000003d0: ea26 1b70 0ae5 aabf 4f02 8f7f 89ed e1bf
000003e0: f43d 68d6 4e3b cfbf ccf0 661a cd83 c5bf
000003f0: 49a5 95ac 310c b1bf 38cf a72d 89ee a23f
00000400: 94cd 9fcc b31e cfbf d9d7 6b00 4b75 b33f
00000410: db7d aa75 7834 d33f 5367 581a bb4c dd3f
00000420: 2e61 3a1f 56f9 b23f 57df 391d 2a67 d43f
00000430: e460 9b09 b285 a73f ec15 a121 d65c e3bf
00000440: 6d24 b0d3 df52 d33f d4e0 1e79 916a bfbf
00000450: d7b4 b35b 40b0 99bf 45c5 ed9f 0c92 cabf
00000460: 48d3 c9c5 a8d2 adbf f38d ff3a af30 d43f
00000470: 9000 59e5 d019 c6bf 7b26 7a33 924b dabf
00000480: e132 11f6 d884 df3f 8431 0997 1c06 b4bf
00000490: 4119 9586 f677 ca3f 7a90 344c f33c e4bf
000004a0: 54a0 ba1c e546 d73f f4f9 5737 2cfa c9bf
000004b0: 797c 0cf4 0e8a 723f 30b5 2c13 8f06 c8bf
000004c0: 40c8 85b5 34cd 9dbf 9545 a673 d221 e23f
000004d0: 8f49 5cea e555 d23f a46c 46fd 3af5 d8bf
000004e0: 0929 514f 4b3d c53f 879a 99ce a963 c0bf
000004f0: 9097 1ca0 c244 bf3f a0bb f0a5 693c e63f
00000500: 79a2 1a26 3d34 bc3f 5e53 3362 d2bf c4bf
00000510: 6bf1 11e1 91bb ddbf 0497 d909 65f0 c73f
00000520: b37b e0f3 ae3d cf3f 5c04 55c9 9ef8 e1bf
00000530: b7e9 8b98 ccc4 c8bf b79c a24c 42ad c03f
00000540: 82b2 1915 8af2 cabf 048f a974 9e2f b6bf
00000550: 2b5f b495 e4de a6bf fa14 b790 0091 d0bf
00000560: 947d 63b7 8390 cf3f b2c2 3754 9f58 c63f
00000570: 1dac 8e54 3529 bebf 9036 c4c4 8d98 d03f
00000580: 0ba3 c3af 95d8 c33f d5c0 b22f d6b1 ba3f
00000590: 1312 6337 a96c cb3f 98be 1c66 8c45 ba3f
000005a0: e3a4 1f62 b94f d33f 8132 fa29 0fbd e43f
000005b0: ad4a 65db 07ab ccbf 1067 20c9 735e cb3f
000005c0: 12e2 8db5 54be d0bf 973c 7ce7 f557 cdbf
000005d0: a3c9 bf6f 4803 b43f 2a9c 7684 4e60 c1bf
000005e0: 5626 199b e090 d3bf 7133 1274 11ec bebf
000005f0: 48ff 4aad 1dcb d13f 70c2 11ab 013e d2bf
00000600: 1ed6 19cb dd87 d9bf 1f62 d091 a6f6 d2bf
00000610: db0a ce3f f7fe d43f 1c05 94f6 e368 cb3f
00000620: b94c b3c4 46e1 c23f fb5f b74b aa8f a43f
00000630: ba0a c11a e12c 983f 2f02 6efe e5c1 9cbf
00000640: cb3c b5f5 acfc a43f 93c8 448f 652d ba3f
00000650: fa36 503a ab07 aabf ea0d cac4 30c9 c7bf
00000660: f08c 4ed0 bd60 bdbf 237f 6314 5f32 ae3f
00000670: ec38 a0e7 f28c b73f a26f 0661 22db ccbf
00000680: 518b 425f d4f8 923f 2fee ab4d 7386 b03f
00000690: 0cbf 4e06 1945 e5bf d757 bafa c878 a0bf
000006a0: 3fb0 d957 b3c6 b6bf d71d 2980 49a5 88bf
000006b0: 7b72 e12a c883 d53f 7822 1171 7d40 ccbf
000006c0: 4214 3412 b10e d53f 4bc0 273a eb93 bdbf
000006d0: a3bd dad1 5e60 85bf 5227 8efa 31ba 91bf
000006e0: d09c d56a e32c c5bf 5530 1e73 bcc4 b5bf
000006f0: 8faa 79f1 fff5 9bbf ea40 5299 074c e23f
00000700: c659 c78b 81fd c9bf 12ae 3f76 1d37 c9bf
00000710: ebfa 9948 16d2 d5bf 714f c5d3 5017 723f
00000720: 35b8 a9a5 370b be3f 1a2e d2d9 330e dd3f
00000730: 02e8 3411 c43e c7bf cb6d ce4f 178d 92bf
00000740: 2dc4 46b9 a085 bd3f fea2 8ca4 94c6 e6bf
00000750: f179 4086 a0fd c83f 990d aede 37c6 c5bf
00000760: b281 5bad dbdc a53f 963d c0d5 56a5 d5bf
00000770: 83da 520b 3f99 aebf a544 2441 fd80 e7bf
00000780: 8121 19d7 0b2e b13f d2a8 88c9 f3d8 d53f
00000790: 29c4 611e f46a dd3f f593 15cb 24e3 dc3f
000007a0: 5fa6 95ad 52de de3f 8a83 ba15 37f3 cf3f
000007b0: 7207 b53d d843 bebf 7aae b546 3e2d c33f
000007c0: 0db1 4727 03b1 c5bf fd02 8aab b87f b3bf
000007d0: 8e66 ef82 caec c43f eef1 be90 52d8 e73f
000007e0: 0b6d bfaa ed84 96bf f50c 5d34 0d72 c03f
000007f0: 0a66 b277 dd02 b83f b433 ca31 ff85 d3bf
0.022907228309056303 -0.05364755772419116 -0.5170473141723096 0.05479005317147468 -0.3327625595833364 0.4496216644282297 0.31967506095589643 -0.09256657068461484
0.21113423441801984 0.2389121612681823 0.4294684809805654 -0.10670081559822145 0.06653908898811974 -0.23686412750565203 0.1060873732307758 0.29242743853674974
-0.21217340606879478 -0.3471941637564549 0.5396701529391068 -0.06347700217376692 0.2301944334148965 0.308185344358213 0.7075174317739398 -0.02837534807730198
0.4927387434052424 0.30264911402900463 -0.0030830024874368323 0.32785310845521815 0.05812764015043873 0.2209392839953161 0.4066232009518685 0.11840566087480288
-0.21343425489087178 -0.16456882116871405 0.13141545246581 -0.059250416810558294 0.31299360897678674 -0.11781549128457065 -0.2791306229557463 -0.0277473640674018
0.15957737410736225 0.21729662925323281 -0.2331759252067091 0.06840649384222292 0.3745381734504022 -0.4284683017246514 0.07025706656825136 -0.2055753406048539
0.28937632610388064 -0.2137040089637382 0.05253205407100529 0.3153396002290518 0.19741269698087216 -0.5748735473420125 0.15796018678304577 0.263667451508945
0.28967590428271556 0.11699209004610521 0.2353980825639838 -0.08696878975595974 -0.1310675663058072 -0.34725477141441957 0.3066856405845608 0.25526226040100614
0.38181662888855417 0.3729507222190754 0.06329992099046299 0.5574228483407316 0.23098256975628717 0.2764583321709645 -0.08977596779551221 -0.6313428600166628
0.610161536376731 -0.47498909489639074 0.13855744217766597 0.1981661065035527 0.11199381230226339 0.07792384334137775 -0.07343398584726256 -0.7710864989315761
-0.18569004064175418 -0.3803985633247577 -0.052315003572868626 -0.13098383317625487 0.14396728039523735 0.4171871378856395 0.04628891883964892 0.07413626548759036
-0.3032541390868951 0.1910698554085248 0.037016577815585865 0.026508049235977243 0.09353804782170129 0.16415880991906706 -0.22513982105456246 0.11417819517224433
0.10488635198073887 0.0794620614538987 0.06247034228766096 -0.1124053690132638 0.25207039716460217 -0.38106604666823224 -0.5321919690759758 0.19240875891304834
-0.451435262075106 -0.19158315344938984 0.07647009717288598 -0.19747635517843226 -0.2979097832285052 0.400368741596259 -0.030799463861851124 -0.010028652398711068
0.31759435357424853 0.29644106568840795 0.37772967466501167 0.006543474909538511 -0.153274343041205 0.09384742731585935 0.00874970222804545 0.04408167679748492
0.21047931536426925 0.23635230137548402 -0.052528692421743475 -0.5602462283496353 -0.24399743527509055 -0.16808475293317426 -0.06659231627931662 0.036976134131605
-0.24312446109216224 0.07600849876675343 0.30007754793947833 0.4578082806852894 0.07411707174685908 0.31879666189296557 0.04594189040443711 -0.6050825745411976
0.3019332473055048 -0.1227198525147089 -0.025086408230824055 -0.20758207139037146 -0.05824782766732156 0.3154714656977539 -0.1726628417836804 -0.4108624937731304
0.49248336820600797 -0.07821825683021727 0.20678597995192585 -0.6324402321229308 0.3637020855480888 -0.20294716551138914 0.004526194011105316 -0.18770016132604317
-0.029103110865840387 0.5666286715297014 0.2864928044010861 -0.38996767743965166 0.16593304989721272 -0.12804148280993763 0.12214294823624372 0.6948745957396234
0.11017210178636984 -0.16210393710084764 -0.4645733545255754 0.18702376347498995 0.24406992824603221 -0.5615991527812514 -0.1935058350425842 0.130287444514783
-0.21052671461383815 -0.08666410778237937 -0.04466928794334842 -0.25885023243274896 0.24659773306391897 0.17457954036901452 -0.11781628908526938 0.25931114402269717
0.15504714090572977 0.10427607216365982 0.21425357059901326 0.10262372487044968 0.3017409761656166 0.648078519808749 -0.2239694424884723 0.21381995506890705
-0.2616168759336982 -0.2292468433665575 0.07817509392024262 -0.13575154750762525 -0.30571761270821207 -0.1207896145226195 0.27802221224918755 -0.2850345774268481
-0.39891762575220635 -0.29630436172149816 0.3280618784994382 0.21413850345565144 0.14749989132415012 0.040158578627313056 0.023608700998247946 -0.028083413747937932
0.04099026202549679 0.10225519893427508 -0.05083975874741316 -0.18582734688617047 -0.11475740752807773 0.058978053320741596 0.09199445872238571 -0.22543744790607173
0.018527334512906283 0.06455155035285352 -0.6646847842402805 -0.03217151699679704 -0.0889694299200423 -0.012034010146762348 0.33616832912029054 -0.22071807881208705
0.3290217092292701 -0.1155383126240405 -0.010437718180894623 -0.017311840932541962 -0.16543238369488344 -0.08503320513244834 -0.027305602181892537 0.5717809671932887
-0.20304889035351276 -0.19699447893013705 -0.3409476956366421 0.004416766864171127 0.11735866350656539 0.45399185439666356 -0.1816029628769798 -0.01811634468650229
0.11532024882650722 -0.7117408002714851 0.1952400832678474 -0.17011164067308185 0.042700638686940975 -0.33821650385012825 -0.05976292622783765 -0.7344957611368456
0.06710886002941231 0.3413667171577234 0.45965292899114957 0.45136375267458045 0.48231951667421485 0.249609838113454 -0.11822272783777324 0.14981821491834407
-0.16946448724719013 -0.07616762340513712 0.16347628968542377 0.7451565577571821 -0.02199145655309302 0.12848057801065918 0.09379371807371953 -0.3050535188893335

layer2.bias f8 [80]
00000000: 612b abde ed3b d53f 4786 3725 13b4 c23f
00000010: 100b 01e4 771e 923f 2bd3 3b98 bcc6 cebf
00000020: e6df 10aa ad2b c4bf ca28 de2b 1c5b d33f
00000030: bc54 7b40 97ea a13f 14e3 ac40 e67b d23f
00000040: 4a2a a909 2e11 b9bf e3eb 34ce 4d59 b8bf
00000050: 81b1 3bf3 b18f cf3f 902d 78c7 f461 cb3f
00000060: b44a dc93 0ed9 c93f 0fee 98e0 1a16 c3bf
00000070: bd5b c10b 186f c6bf 3f72 1e6d ef42 c2bf
00000080: afad a6f9 64a4 c2bf c76d 9870 4e78 a4bf
00000090: a263 3e5a 35db c03f f356 1a00 c6b8 c1bf
000000a0: 2f48 3c52 7cb2 a8bf c63e 7839 a045 af3f
000000b0: 6a48 4215 f613 b53f 6eaa a32e 6e7f d03f
000000c0: 5a53 f963 5e6e aa3f a9d3 0c12 4f91 cbbf
000000d0: 2498 38ad 7dbf 9ebf 1dcb 06f7 386c 943f
000000e0: f6c6 13d0 91c6 82bf d8eb 2ceb 500b c33f
000000f0: da23 8f80 2fac d03f e75f e6e9 c54e d13f
00000100: a959 63cd 4fb5 aabf fd72 949c 86e0 973f
00000110: f27c 5b8f 4a66 a8bf 5356 c0b4 d7c3 d43f
00000120: 6e08 af7d 9239 b4bf 8406 7f77 fb44 90bf
00000130: 7e6b 81b5 51e8 aabf 76e5 c447 ebc6 acbf
00000140: b8d3 ea45 311c d93f ac3e dec9 6d2f c0bf
00000150: 8604 ba8b f0f6 c6bf a75b 61f0 9746 883f
00000160: b16d d2d8 cd94 de3f 6f5b ac92 130f d93f
00000170: c52c 23bd c5ab ccbf a578 7f5c d3eb bdbf
00000180: 3e46 2bc6 aed4 c5bf a43b b59a b747 c53f
00000190: 68bd 4e47 bfa9 c63f f661 0858 2b02 cc3f
000001a0: da89 4126 ca66 b33f d945 4419 222a d53f
000001b0: da5b 40af e67c c13f e0b0 db32 a450 5a3f
000001c0: 6d32 7a0e dc4f a8bf 57b5 936c 998b b5bf
000001d0: 7d6f 14e6 e155 ce3f 5e81 cdef 6125 723f
000001e0: f369 21d7 03f3 c6bf 54c6 b435 5929 a63f
000001f0: da20 4d6c 3ff7 c6bf 689c a5b8 4bfe c03f
00000200: be78 95e2 7926 c1bf 59eb f050 5eb8 6fbf
00000210: ce1e 175d ccc5 d0bf aaef f63e 140e d4bf
00000220: eb54 eca8 7ff3 663f 175e e63b 70cc bebf
00000230: 1a6a 2dc3 1f72 adbf 2d3f 2deb 2837 bd3f
00000240: 8f88 ea1f b5c6 6bbf dbc7 3769 e132 c1bf
00000250: f379 289a adf3 c9bf 952c 87fc 9e4b bf3f
00000260: 613b 50f3 ccf9 c0bf e211 2117 c03b d83f
00000270: d912 4a25 ce95 b43f 7d38 7f16 9a47 d03f
0.33178278679831946 0.1461204463694676 0.017694352427734705 -0.24043996270452203 -0.15758295825958085 0.3024359157940465 0.03499291097765808 0.28881222072554746
-0.0979183934770528 -0.09511266979545456 0.24657272698039992 0.21392688502997403 0.2019365522360964 -0.14911209074658457 -0.17526531766881517 -0.1426677019889144
-0.14564191999430195 -0.039980365032728886 0.13168970972472233 -0.1384513378622426 -0.04823673728800803 0.061078078284592816 0.08233583468452968 0.2577777343237021
0.05162329645523896 -0.2153719747672345 -0.030027354905676998 0.019944086148551244 -0.00916780391932857 0.14878283961465288 0.2605093722782478 0.2704329284838409
-0.05216454870394511 0.023317435557248512 -0.04765542030303917 0.32445328380103894 -0.07900348251772168 -0.01588814656111605 -0.05255370464939001 -0.05620513201797454
0.39234573200092937 -0.12644741398661574 -0.1794109995135253 0.011853396437954645 0.4778322808649263 0.39154519389688053 -0.22399207816338254 -0.11687966354608877
-0.17055306125853237 0.1662511353883619 0.17705527288260758 0.21881620214914194 0.07578719552979099 0.330696606325629 0.13662417943188992 0.001606140470751298
-0.0474842803642773 -0.08416136647038762 0.23699592337004197 0.004430182042455348 -0.1792912292901999 0.043284213834692636 -0.17942040241383134 0.13276049152338776
-0.13398669780412392 -0.003872093402177351 -0.26207264986849743 -0.3133593191994303 0.002801656089455142 -0.12030698263549088 -0.05751132257019638 0.11412292234058148
-0.0033906495658167566 -0.13436524999229857 -0.2027489664769316 0.12224763550982438 -0.13262330894982724 0.37864687212666415 0.08041084680923961 0.25437023350685434

layer4.weight f8 [11, 80]
00000000: c5ab 3eda d764 e8bf 88f7 53b8 5444 853f
00000010: 0ab6 bfa6 791c c0bf fda6 2785 2343 d93f
00000020: af00 be3d 8409 e93f 7ee7 0f38 3cab c3bf
00000030: e013 9fd2 8e02 c83f 99a5 0919 5f28 bbbf
00000040: 501d 03f8 8205 e03f 0bbd f1a1 47f5 c0bf
00000050: 1f48 c0b0 b15b d8bf 5b01 2d55 fc46 edbf
00000060: f406 f3f5 a755 d9bf 1b29 3492 ce97 db3f
00000070: aabe 32e5 0b33 e0bf 3321 8be4 3d73 dd3f
00000080: 72f1 cb28 d23d c03f 8ec6 2b39 6c4a d3bf
00000090: 6737 09cc 9207 b13f 7c5b 7729 783b c03f
000000a0: c8ab af47 fae2 c5bf 3a82 77a5 b015 e4bf
000000b0: 78c1 47c8 3009 c63f 5f46 2eac be63 d9bf
000000c0: 97f5 98ba 074f d1bf 5de9 a196 ab04 babf
000000d0: fb72 4a12 c48d c0bf e998 92c6 1b61 e5bf
000000e0: 8f70 8929 ea9c 94bf d669 5628 4122 d4bf
000000f0: 3ca9 0e65 3374 dcbf 26cb 5020 ddee b23f
00000100: f8ba 93aa b536 ccbf 02d6 4612 fbd8 cebf
00000110: bdeb 7c71 4a52 b5bf 9ed4 4d50 dcf0 e0bf
00000120: 4be5 61a3 9b29 c93f a244 5e89 598c d83f
00000130: 0a3d b6b7 5cee d23f 8553 a8c9 2df4 9abf
00000140: 3906 1f6c 242a d3bf 6ec4 973d 3072 d03f
00000150: def8 0692 daf3 d53f 4f92 dda6 fe0f c83f
00000160: 4cf1 664c eefa ddbf 367d eaf7 2768 e9bf
00000170: 7586 453f 0d2a d73f f24a bc6e bfe8 afbf
00000180: 7bd2 0296 3c88 d23f f598 807c 7e11 a3bf
00000190: 8746 ed86 857b dabf 918c f4e3 7e25 e2bf
000001a0: b563 11e1 e23d ae3f 4b12 6924 1f1d e4bf
000001b0: cc84 2c68 6429 b63f 20f3 70b7 9ff4 c2bf
000001c0: 0e34 8af5 c1d3 ab3f 3c26 64eb a878 cd3f
000001d0: 15a4 7ab7 5196 d7bf e290 74c2 8188 e0bf
000001e0: 5d89 eac1 6a68 c83f 0ff5 681a 3559 b5bf
000001f0: 863d 6166 644c b63f 0e07 e62d f2dc d7bf
00000200: 53c2 fef0 b911 b23f 2ad9 69f0 cae5 c4bf
00000210: fb43 a443 bd86 cd3f 51a6 f58a 8314 d23f
00000220: 935f 7563 51ad c23f 813e 2e06 f096 c9bf
00000230: b6ae be80 5058 b63f c047 1018 c178 c03f
00000240: 7399 1eed 384a a0bf 18e4 a28f d9d1 c8bf
00000250: 6a55 f48c 021c bc3f e0a7 1a0c e77e c0bf
00000260: 5fa9 021a 5955 b3bf d6a3 33a2 7f6b d33f
00000270: a6ac 45af 7787 bc3f be30 7906 104f d5bf
00000280: 1cd2 d245 36cc d1bf 445b 80d9 c42d d13f
00000290: 008a 7e64 8e40 bbbf a8dc 2e6f d3d8 c73f
000002a0: 4968 163e e4c9 e1bf cce6 a8b0 0708 d4bf
000002b0: 9c0e 7ee5 d328 cdbf 54a1 badb 8809 ba3f
000002c0: 45e4 e9cd 7afe 9f3f 8f46 6fff 9727 c2bf
000002d0: 4629 c821 d96b e2bf b4f1 cdff d624 ce3f
000002e0: 3aaf e9ac 107e a43f 8573 0f2c bcb3 d13f
000002f0: 7996 7f4d bcfe a4bf 4803 327d f89f ba3f
00000300: c979 365e c84f b03f 95ca 6d99 298f d5bf
00000310: 2496 22cc 6f23 7d3f 555a 31be 099e c1bf
00000320: b31d 8cad 550c 9cbf f996 76f1 04ba c93f
00000330: 31ed 0a23 0396 be3f 7294 1c0f 78a2 d2bf
00000340: 5e38 3b5f d92a d6bf 621d 0b81 b513 b93f
00000350: e576 1cb2 4967 853f 4b5f 516b bf70 dc3f
00000360: 821c d81a 73ff b23f 5807 c616 2fa9 d7bf
00000370: 0101 7b7d 1617 c1bf 4c3f 8574 64c2 cabf
00000380: cfae edab ce45 edbf d26e 487b 035f d8bf
00000390: 2fb9 87f1 1cd3 c93f 53ee b742 990c bebf
000003a0: d395 f75e ddbd d53f 00c9 3401 8283 dabf
000003b0: 9a57 106c 9508 d43f 66d3 77a7 5b30 d1bf
000003c0: cc18 9829 2dc0 c43f 2bbc b78a 4b83 ca3f
000003d0: e5ce b780 0e16 be3f 37cf 59b2 11e8 b73f
000003e0: 7acc 7987 e891 adbf d17e a646 25d0 d23f
000003f0: 46f1 81f2 38e0 c73f b6ec 6817 b841 d9bf
00000400: 4f26 96ca 4a94 b03f dd02 e44b d8e4 eebf
00000410: 4695 1151 1c44 e3bf b000 7a21 af5b c7bf
00000420: 7ea5 58cf fdd3 cd3f c1a3 c937 503f d3bf
00000430: 00a8 e1a5 61cb d6bf 7f9e f74a 9878 acbf
00000440: 67f3 00c8 ffe4 c5bf fa7b 761e c09e b63f
00000450: 1dc3 c66e 89ee d7bf 326c 937d 6f8b cb3f
00000460: 91a9 f0d3 9af6 c93f ddd3 5296 cb56 cc3f
00000470: 9af1 5620 64c2 dabf 78c7 9bea 26e4 7f3f
00000480: 23ce a5a9 615c dd3f 4cc2 a026 5e96 e5bf
00000490: f758 0fe2 e570 d0bf b382 d16a c40b c83f
000004a0: 6a44 b81e 91fc bd3f 79fa b02a 3d8e d2bf
000004b0: b4bd 974a fb2d cb3f 9522 3f74 5e10 c73f
000004c0: 4abd e363 1e61 d4bf 7fa3 f0a9 88cf a4bf
000004d0: 8a0a a124 f63c e3bf 3357 7aed 853b cdbf
000004e0: bf2c 7a94 6f0a c4bf 7e44 61f0 4024 cc3f
000004f0: 0d9c d5bd b130 c9bf 9b7c af60 cdcd b53f
00000500: f8ae 92a9 cbb5 dabf 50a6 9ef6 0c33 d43f
00000510: 3cfb 7e58 54c7 b63f 29b1 68d8 b62a e4bf
00000520: ffbd 44b0 c1a2 c13f c00c ae52 f20d d83f
00000530: 3ca6 d260 446f 953f cf6c 90f1 64b2 bcbf
00000540: 675c b596 fb42 a13f 4754 29a1 0f04 a23f
00000550: 37a3 6365 3046 ce3f 5b43 dfde 1cfe b5bf
00000560: d738 8a6a 724f d1bf db1b 63ef 0b16 c8bf
00000570: f753 dfe5 8bea d0bf 4f84 2f04 3223 c6bf
00000580: 11e2 d016 07ff d4bf c92c b722 afd4 edbf
00000590: 9921 f3a4 b5f8 da3f 4df2 b8af 8654 cbbf
000005a0: cb74 a585 a73e c23f 893d 5f63 f17d e6bf
000005b0: 2a8d 4e5c 394a d4bf 8760 836b 7a82 d3bf
000005c0: cdc4 d2d8 7c4a d0bf 00ef fee0 9364 d1bf
000005d0: 3e6f 3160 7b8d c53f 26ee 8658 64b1 e1bf
000005e0: fed0 c831 155e c1bf 98db 370f fa1d e3bf
000005f0: 5fc7 6039 b8d5 a8bf fd94 a62f d40b 70bf
00000600: 9054 7aa3 dec2 d93f 04e3 7d34 7adb dcbf
00000610: f691 23b4 b584 abbf 3b2a a8ea 6e08 d13f
00000620: adb1 07b9 e2ca b63f 5165 ef78 739b b4bf
00000630: 1208 fbca 25d6 a23f 0f81 9e70 d878 acbf
00000640: d571 dc65 3fba c13f 5100 1686 c9ea c53f
00000650: b638 d833 65ec e4bf 1722 4da1 8781 c6bf
00000660: ec10 c4fe 436a d03f 00d5 a1b5 c49e bb3f
00000670: e46f a85d 2fb9 d03f 1b5b ef5d 3a44 ab3f
00000680: 5a3f 5382 8c02 dabf d356 fbf7 8cd4 f2bf
00000690: cb4f 8ec7 4816 cebf 1afa b1ac 30cd da3f
000006a0: 2dcd fafb c812 94bf 54ad d541 1338 e5bf
000006b0: a4b3 7dc0 bab9 dc3f 18ef 6f96 c9ea d8bf
000006c0: c822 09cb e98a a6bf 3677 a769 25fb d03f
000006d0: e240 4437 5da3 e7bf b791 f55b 70e3 dd3f
000006e0: 1973 a5bf 33e6 c9bf 0db8 8008 c5f9 aebf
000006f0: 5f9f 8954 2ca4 e1bf 2ff3 10de 32ef e0bf
00000700: f967 01d1 267b abbf 84de 9ef9 936b d73f
00000710: 405f f387 1d80 8bbf 8ea3 4c82 9e30 e3bf
00000720: 63e1 b886 56cd 83bf 30f9 83da 80a6 c8bf
00000730: c9df 2d62 b9bc c43f 194a ca1b 3b8f 97bf
00000740: b1c7 8a0d 04da d63f 24e4 7593 2e3e d6bf
00000750: 663f c7d0 2e23 e1bf 0140 828c 5f36 c5bf
00000760: 413c 513d 6af8 bb3f fea9 4a74 3f5a d43f
00000770: 8664 332c c8c0 a33f b4c3 d2bc 5b1a e6bf
00000780: 8a53 3138 b0a7 c53f 9c7e b143 74b5 a1bf
00000790: b0c6 2016 3448 d23f cd22 7d77 79c2 ccbf
000007a0: 92d2 73bd 764c d63f ce0d b3da 2b4d b83f
000007b0: 52b2 33e1 20d8 da3f bc35 35b0 4df0 ca3f
000007c0: cf44 e97e 3305 eabf 9e6b e9d4 0002 c2bf
000007d0: 53c7 5d5b 13a7 e4bf 55c9 ab7b 3b5d c43f
000007e0: 7cd6 283d e95a b1bf ed64 b29e fea7 cebf
000007f0: 9ab4 0d8f cf7b e2bf d8f4 0fe9 3e6f c73f
-0.7623099577516476 0.010384237170452129 -0.12586899416002978 0.3947228241291752 0.7824116903211883 -0.15366318452270983 0.18757806095359708 -0.10608476983329353
0.5006728023517244 -0.13248534591137004 -0.38059656391954094 -0.9149152434911615 -0.3958530332421184 0.43114055898389986 -0.5062312580611963 0.46015879934977305
0.12688662521385258 -0.30141740401368444 0.0665218113074083 0.12681486153334365 -0.17098930836013282 -0.6276477081083336 0.17215547351180382 -0.3967129403546092
-0.2704486200562654 -0.10163376262236086 -0.12932635205370233 -0.6681040647861468 -0.020129832062921123 -0.3145907300874148 -0.4445923315894509 0.07395727194743226
-0.22041960553129747 -0.2409967269174303 -0.08328690787031597 -0.5294019287527083 0.1965822742238664 0.3835662690626781 0.29579847279178806 -0.026322093423079024
-0.2994471603270515 0.25696950926710016 0.3430086542174545 0.18798812053423083 -0.4684406038393447 -0.7939643709286546 0.3619416349302818 -0.06232259966613708
0.28956522607339935 -0.03724284429363137 -0.41378915955019874 -0.5670771076442113 0.0590659045926211 -0.6285548888341251 0.08656909507091654 -0.14809032876100847
0.054349957678916025 0.23024474614821766 -0.36854975622060354 -0.516663436694696 0.19068655460894038 -0.0833924474217904 0.08710315227039275 -0.3728604744174938
0.07058298238440246 -0.16326271761836014 0.23067441752257864 0.2825020653750459 0.1459142432820469 -0.19991874982632754 0.08728507178482911 0.12868512797336784
-0.031816271729712485 -0.1939041091298186 0.10980239812154982 -0.12887275782605823 -0.07552105793971496 0.30343619194041815 0.11144207028489692 -0.3329505980698392
-0.2780891115064905 0.26841851463671085 -0.10645379975770908 0.18630450180873948 -0.5558949673316046 -0.3129901147072871 -0.22780846315082648 0.10170798649290208
0.031244200532885697 -0.1418333050956346 -0.5756650600244846 0.23549926271870236 0.040024300677798455 0.2765951566960257 -0.041005978069546374 0.10400345856215865
0.06371738720051846 -0.33686294539726563 0.007113873203854069 -0.13763543879277287 -0.027390803067673008 0.20098935880849192 0.11947650533231947 -0.29116631961580375
-0.3463653020852514 0.09795698547815371 0.010450912235281115 0.44438157539615436 0.07421035199523554 -0.3697011682889886 -0.13351708533264886 -0.20905738534428975
-0.9147714002587807 -0.3807991699156733 0.20175515931573204 -0.11737974051350734 0.33971342348226335 -0.41427660100738706 0.31302390626057675 -0.26857653955749183
0.16211475878680515 0.20713180802656103 0.11752405779389681 0.09338484386699696 -0.057753817117281295 0.29395419978571363 0.18653022614661036 -0.39463617597693756
0.0647627586933137 -0.9654351694335578 -0.6020642836926207 -0.18248547682379046 0.23303196548776478 -0.30073934028638055 -0.3561634178100803 -0.055607566024090886
-0.1710509993153224 0.08835983985635201 -0.37393413370141265 0.21519273406633627 0.20283828114163474 0.22139878120438442 -0.4181146922890321 0.007785942094175151
0.45876351897388384 -0.6746054415180622 -0.25689074588935007 0.18785910812132087 0.11713511466975182 -0.28993157548021703 0.21234074728225283 0.18018704105476915
-0.3184276557430691 -0.04064585756743266 -0.601191588917872 -0.22837900252914664 -0.1565684771524953 0.21985637414266884 -0.19679853219278734 0.0851715432213375
-0.4173459201799541 0.31561588367421667 0.08897902641818417 -0.63021414058088 0.13777943713056115 0.3758512313290332 0.020932262811277122 -0.11209708116114146
0.033714162966753496 0.03518723337462198 0.23651699972767812 -0.08590870324338822 -0.2704740562848093 -0.1881728094942606 -0.2643155808303272 -0.1729490776479303
-0.32806565502281254 -0.9322124174153937 0.4214300261342259 -0.21351703243444078 0.1425370600290193 -0.7028738919124616 -0.31703027738895406 -0.30483875750861283
-0.25454636739875697 -0.27176377269982765 0.16838018605164423 -0.5529042939228404 -0.1356836789215165 -0.5974092766981469 -0.04850555134215883 -0.003917530872432848
0.40251890148767533 -0.4508958351721477 -0.05374687026941054 0.2661397258349642 0.08903328912101101 -0.08049699499624309 0.036790066745666775 -0.05560947775598112
0.1384963271492682 0.17122763678708222 -0.6538568508710998 -0.17582793594398602 0.2564859378765181 0.10789136347178285 0.2613027968052377 0.05325491329829487
-0.40640557028836144 -1.1768922507084667 -0.2350550627130573 0.4187738119580061 -0.01960290945016856 -0.6630951200326458 0.4488360290331974 -0.389330288802499
-0.044028574022893674 0.26532874410428364 -0.7386919097353053 0.4670067689933392 -0.20233771188477404 -0.0604993412856488 -0.5512906695484893 -0.5291990601759603
-0.053673947347036184 0.3659410417271618 -0.013427954398522624 -0.5996849579724868 -0.009668994890589649 -0.19258127851203133 0.16200940412431766 -0.02300731999509695
0.35705663034888874 -0.34754528427544273 -0.5355447843266858 -0.16572183953076094 0.10925926205639859 0.3180082927380282 0.03858018436012238 -0.6907175720171979
0.1691799425485921 -0.03458751036009497 0.28565694962444876 -0.22468489012159978 0.34841698170866053 0.09492754067746675 0.41944143288018154 0.21045847991847022
-0.8131349066481109 -0.1406861343010321 -0.6453949722765436 0.15909522570252457 -0.06779344313766872 -0.23950178860540153 -0.5776136201872248 0.18308245067593165

layer4.bias f8 [11]
00000000: 91c8 88c9 d206 d1bf 9fc6 1693 4013 a33f
00000010: 50f6 e873 c9b7 953f 1755 7f9c 42a0 813f
00000020: 2402 d6d6 5448 403f 9d47 7071 6d7a c93f
00000030: 7daa 6284 e6a0 b0bf b0d4 d065 e427 d1bf
00000040: 8a90 5650 7822 ce3f 7f96 b00d 2aa4 c4bf
00000050: 04d3 6599 1717 cc3f
-0.26604146653256416 0.037256257968136135 0.021208903979859806 0.008606453324242964 0.0004969038251801433 0.19904869116777216 -0.06495514614167948 -0.26805982535308726
0.23542694018135918 -0.16125989597746934 0.2194547175419289
