attack_soft_generative_decision_tree/experiments/vowel_params_state_dict/fnn_epoch31.pth (torch, 69599 bytes, 6 tensors)

layer1.weight f8 [80, 12]
-0.028271379530882438 0.10636260425703227 0.4870076127097007 0.17908879123226942 0.3915267074201955 -0.07211765942416769 -0.05241107924230651 0.09164517380018855
-0.5369253092296992 0.43391005457064197 0.30103138013481556 -0.7682092456597974 -0.5015922094419671 0.5070355609340664 -1.0152647091148548 0.34112203717199985
0.016401921258187638 0.4987957508395869 0.16485708455473305 0.011382877826071136 -0.3690851163564735 -0.2137413920739795 -0.07177147604866019 -0.6589887926685908
-0.07345168627611949 -0.573047892899967 0.5237794365710903 0.06798039141964937 -0.5778780135549569 0.4696627274257568 0.23334155169426038 -0.2824624436653798
-0.4299142949862984 -0.5155905147838875 -0.26841787028126096 -0.5684458419326919 -0.6524920758561394 0.07381291977757176 0.011930642425442289 -0.14968659814039526
-0.12566689989886715 -0.18903545295484117 -0.009412853946155791 0.19970786710827607 -0.44656875639404287 0.10175121979010894 -0.13586540860681162 0.24841839687681477
0.13354042934866625 0.15382461476841078 -0.5908099006099642 -0.6241937352023745 0.7049163879901768 0.7779085141020423 0.3641477507710227 0.5003424782215649
0.11619425135844715 0.5919509376111405 0.0564195457494177 -0.09693400895466103 -0.05805333485780177 -0.08498599638507179 0.4330680629827305 0.29038869969251807
0.2773110774756305 0.4770859106247369 -0.7954957508997902 -0.03341000734205653 -0.35476625498546693 0.6631591348975328 -0.036087036673831445 0.1369127622151757
-0.06159562327451574 0.3220797136911922 -0.3514625681242456 0.9412687447799328 -0.3020672623283994 0.08425371898082354 0.21934020240395516 -0.15860530788508048
0.026097285862395514 -0.16424533175814945 -0.3793076851600117 -0.335522915603409 -0.08412287873618046 0.4169240445046441 0.14549699038142194 -0.1674300983828994
-0.3423380226408264 -0.7062300727345424 0.5131211741170785 -1.2719098132702051 -0.6119467320434532 0.1790397759024233 -0.7173634372678029 -0.35475917954214836
0.05725645888024569 -0.3054520906196166 0.3448742987943748 0.20474383075714914 0.7683332685356836 0.061323010674403496 -0.5691187188707539 -0.6858862888073127
-0.5231287396785319 -0.06408753149619657 0.057518253062177026 -0.6466203164970385 -0.3800227351426401 -0.20137489449796786 0.014282691481606706 0.529596619849813
-0.13412132945087266 -0.08358242421568168 0.21690792768321243 -0.04243747901956379 -0.3479334692513903 0.15562278681174488 0.6389931719446074 -0.4859740100419743
0.10656260874733997 -0.07583006878255816 -0.36780723089687084 -0.2566475196683562 0.1743142850058827 0.43186827121250465 0.3575985128838677 -0.43119873763256183
0.027169020790170202 -0.11722794855253506 -0.5156420393897619 -0.26160087716071845 -0.07303476055048497 -0.07550663494503236 0.4451055244797556 0.16854185246351697
0.06006337034062577 -0.8651959029668223 0.8716106438865445 0.6699533510711817 -0.24021488511674924 0.08130664972575669 0.1590140657393218 -0.4076509996736059
-0.08892133940859144 0.4804220443014179 0.6676669230010402 0.14287826479597768 0.7669220322872584 -0.6643618152150648 0.5742852819358545 -0.13049072213441842
0.03725696777275016 -0.5707655438122957 0.2005413424007503 0.17727765809453877 0.1633058490914363 0.07648655714317576 0.4852137463416382 -0.7988964183276849
-0.3431123510695902 0.3664512576094257 -0.08585764419763715 -0.44184851556661786 -0.04124121264829523 -0.5839300401493553 0.4398467839082103 -0.06736238054498685
-0.08290274102785565 -0.8654490541475777 -0.3997057730715001 -0.8652861774800592 0.1907928135189906 0.24124824961257296 -0.2249637172004425 0.7122206163833328
-0.6876019593197921 0.267528011719854 0.34564855417420626 0.9831893025888019 -0.35932233373951905 0.38754721530594566 -0.08276715669828802 0.3122435958764978
0.3225336783290709 -0.04576885396334364 -0.26328229365768363 -0.5695841149739875 -0.09729278302058633 0.4215035976647426 0.34079517424478856 -0.46364887583361364
-0.36211800172330433 -0.08151318831954511 -0.6040264989840297 0.6578495109940669 0.2018172748892587 0.12378853840769831 -0.1828347037452552 -0.08881671328424276
-0.2682435331997917 0.3238014894227498 0.09604080817771755 0.4632844223431985 -0.07014301174316746 -0.15768422797645412 0.036888064420951924 -0.5580549224692628
-0.5035281836373036 -0.13461397714636178 -0.00526107080895093 0.04136077743703684 0.8701517754054177 -0.18756832053230507 -0.5785562886767864 -0.2802137316597836
0.1066750137843317 0.16649837092012396 0.5109499956798503 -0.27891921684960597 -0.3618575681887764 -0.7262996742277755 -0.2770814252044479 0.11730998335493543
0.5001933316000927 -0.7242826157946781 0.12003983061536105 -0.31548984207925845 -0.3059401349075159 -0.15638601840662658 -0.0929692308978897 0.005040882557217793
-0.16001028505225445 0.035359516256794704 0.1270298191528208 -0.19501085378968322 0.03440698156416351 0.10248201298105754 -0.12072350722993729 0.21041121009550598
0.18422931689493713 -0.3167595210812742 -0.47252623292737717 -0.4635587591596067 -0.03854672075353471 0.73173774646833 -0.10289293130742852 0.0775194408719104
0.024753036328374865 0.19318045792479752 0.17744826160723626 -0.5809478282394623 0.08628606033970324 -0.10021510919728821 -0.3868351112672165 1.061438091323607
00000000: 01e5 fd29 2cf3 9cbf e124 cd62 943a bb3f
00000010: cc6f 5ffa 212b df3f 491d b6aa 61ec c63f
00000020: d756 f808 c60e d93f 9fdc b08c 4d76 b2bf
00000030: 2469 96fe 9fd5 aabf 18dc 4ee0 0e76 b73f
00000040: eb28 71fc 7d2e e1bf bb55 72ad 2ec5 db3f
00000050: f6eb 2f1f 1944 d33f 43ff 528e 2b95 e8bf
00000060: 8669 ef1a 0b0d e0bf d8dd 03a4 a239 e03f
00000070: 6be6 2635 863e f0bf 0c50 6686 f1d4 d53f
00000080: 84f9 944d aacb 903f b958 4f03 45ec df3f
00000090: 1197 5675 091a c53f ed8c faff e74f 873f
000000a0: 0940 0c2e 179f d7bf 492f 61c0 e05b cbbf
000000b0: 0826 6a8e 9d5f b2bf dd25 1eaa 6f16 e5bf
000000c0: 2559 64ce bacd b2bf 9781 e188 6856 e2bf
000000d0: 057c cc17 cdc2 e03f 16ab eab5 2967 b13f
000000e0: b578 2908 fa7d e2bf 0567 9c41 f40e de3f
000000f0: 2391 a9ce 22de cd3f f106 795b dd13 d2bf
00000100: 9c23 433f b783 dbbf bcfc e3ad b77f e0bf
00000110: 7447 a125 c22d d1bf 36bd 9455 b530 e2bf
00000120: ce70 d60f 37e1 e4bf 8889 774c 67e5 b23f
00000130: 43e4 4cb8 176f 883f 8acc d431 ee28 c3bf
00000140: fcae a05c da15 c0bf 1de0 1c50 5032 c8bf
00000150: 10d8 e2de 0b47 83bf 65f2 fd02 0790 c93f
00000160: f52d 081f 9594 dcbf c19d 5331 5e0c ba3f
00000170: 08dd 4fa7 0964 c1bf f8c3 278d 2ccc cf3f
00000180: 6b87 5f50 da17 c13f 0704 e064 86b0 c33f
00000190: d5ba 282a eae7 e2bf 38fe e123 65f9 e3bf
000001a0: d8a1 1ad0 ac8e e63f ac24 6b65 a0e4 e83f
000001b0: d84d 1e5e 324e d73f dc5b 983a ce02 e03f
000001c0: 0557 910d e8be bd3f 580b bc17 43f1 e23f
000001d0: 47a6 b2cf 05e3 ac3f bc97 54ce aad0 b8bf
000001e0: 56a7 46ad 2ab9 adbf fa83 176b a4c1 b5bf
000001f0: 3efc dc1b 63b7 db3f 4dab 137c ba95 d23f
00000200: 01e3 24f6 76bf d13f fbff e057 9388 de3f
00000210: 0817 4781 b374 e9bf 6a58 c9d1 1d1b a1bf
00000220: 3dc4 b885 7db4 d6bf bab6 8d81 9938 e53f
00000230: 97b6 a504 007a a2bf 1542 0f7e 5b86 c13f
00000240: 51e1 1427 7689 afbf c58e 403b f49c d43f
00000250: d827 f7da 5c7e d6bf 0075 72a1 df1e ee3f
00000260: 7622 39ed 1155 d3bf 76c9 96d7 a691 b53f
00000270: edf1 02fa 5613 cc3f ba51 2bc1 2d4d c4bf
00000280: 7064 2c35 3fb9 9a3f 8b01 36b4 fd05 c5bf
00000290: c88e b8bd 9346 d8bf 3dd0 641b 3579 d5bf
000002a0: bc6b 04b5 1389 b5bf 4d10 0430 e2ae da3f
000002b0: a464 ad37 a59f c23f bad6 7576 596e c5bf
000002c0: a9db dabc dde8 d5bf 0717 3bcf 6f99 e6bf
000002d0: a4f9 b618 7d6b e03f dd4f b71a be59 f4bf
000002e0: a1a9 2050 1195 e3bf d58f 177f c6ea c63f
000002f0: df29 cd2a a4f4 e6bf 69b7 85d8 5fb4 d6bf
00000300: 9437 c0f4 b750 ad3f 7130 edec 868c d3bf
00000310: 9e60 a3a6 6b12 d63f 8671 94bc 0b35 ca3f
00000320: f843 99a6 2f96 e83f 117a adca ba65 af3f
00000330: fbeb a275 3836 e2bf 9478 66cd c7f2 e5bf
00000340: 338b 907b 78bd e0bf 5d87 db5b 0a68 b0bf
00000350: cb73 a64f 0873 ad3f 1e16 0917 1db1 e4bf
00000360: 9b24 cbe0 4a52 d8bf 2857 0d0d a7c6 c9bf
00000370: dcb5 7f66 3e40 8d3f 8877 4a9c 74f2 e03f
00000380: 4d01 d841 e32a c1bf 2cd9 8662 a865 b5bf
00000390: 703e d293 a3c3 cb3f 5705 0781 5dba a5bf
000003a0: 3596 e7bd 8a44 d6bf a335 ef8d 72eb c33f
000003b0: 12d2 fbce a172 e43f 3585 f5bb 321a dfbf
000003c0: 44d8 8be7 af47 bb3f 007a 7971 9969 b3bf
000003d0: e6cc fb56 278a d7bf 8cce e4b7 e96c d0bf
000003e0: beb6 a934 ee4f c63f c16a 42d1 baa3 db3f
000003f0: f8cd 7bdf e4e2 d63f 6755 0d97 c298 dbbf
00000400: f251 081f 32d2 9b3f c9d6 359d a602 bebf
00000410: 8de5 f3bb 2380 e0bf 1aa7 009b 11be d0bf
00000420: 1818 09f4 67b2 b2bf fd4c b81f 6754 b3bf
00000430: e234 bae1 9b7c dc3f a145 2b88 c792 c53f
00000440: 4ade 9946 a0c0 ae3f a905 7c51 afaf ebbf
00000450: a0d2 4a01 3ce4 eb3f 5a48 9602 4270 e53f
00000460: f35e cb81 5cbf cebf d4fa 8439 83d0 b43f
00000470: 2a29 faa9 925a c43f f7e8 f137 f416 dabf
00000480: 9d29 ad84 8cc3 b6bf d654 231a 3cbf de3f
00000490: 2522 dd05 875d e53f 61d1 4dc1 d549 c23f
000004a0: 212e e812 a08a e83f b0ea a1b5 7342 e5bf
000004b0: e5a2 0f87 8b60 e23f 0ed7 ff83 ebb3 c0bf
000004c0: 06a1 4364 5813 a33f 5b70 0b1a b643 e2bf
000004d0: 71b7 8db5 56ab c93f f8eb e9c7 08b1 c63f
000004e0: f8ee 8bc0 34e7 c43f a879 837d 9f94 b33f
000004f0: b1d8 06f5 bd0d df3f 737c b338 8f90 e9bf
00000500: d5a4 ac81 8df5 d5bf edac c0f9 ef73 d73f
00000510: b5c1 f03d c4fa b5bf ec43 09ff 3e47 dcbf
00000520: 39c4 2477 911d a5bf 87fd 320d 8eaf e2bf
00000530: 1cbd 0820 7326 dc3f 85e2 6b35 a93e b1bf
00000540: 37a1 7631 1d39 b5bf 1660 fd36 c2b1 ebbf
00000550: d053 d785 c794 d9bf 87a5 3ea3 6cb0 ebbf
00000560: 351d 301f e66b c83f c0d0 26ff 38e1 ce3f
00000570: 94cc 1470 9ccb ccbf 75e8 dce3 82ca e63f
00000580: 7d35 fed2 d500 e6bf 8171 46cf 2d1f d13f
00000590: 28a0 051d 1b1f d63f a4ab 8c69 4976 ef3f
000005a0: 6c8d 081a 23ff d6bf 2946 d9d5 92cd d83f
000005b0: d6b9 3377 3a30 b5bf 2d33 2b90 ccfb d33f
000005c0: 5d0b 124c 64a4 d43f 225b e5e5 036f a7bf
000005d0: 260a 38fa 9dd9 d0bf d84c 4477 083a e2bf
000005e0: 72d2 3509 2ee8 b8bf 4973 c739 eaf9 da3f
000005f0: f405 0190 96cf d53f 0f15 a255 6cac ddbf
00000600: 1872 acfb f02c d7bf 476f 065e 0cde b4bf
00000610: 9bb8 6161 2f54 e3bf 6d17 ed6a 1a0d e53f
00000620: 1467 b501 26d5 c93f 07a9 140c 9bb0 bf3f
00000630: b371 94a8 2067 c7bf 3edf e42e b1bc b6bf
00000640: dd38 9dec e62a d1bf 0ee0 dde1 29b9 d43f
00000650: a167 3462 2196 b83f 6175 adb4 73a6 dd3f
00000660: 55d7 7a75 e4f4 b1bf 197f 202d ff2e c4bf
00000670: 3ef9 990c fee2 a23f d612 2cff 95db e1bf
00000680: 9ec4 2a23 e71c e0bf 7bcc b6e2 073b c1bf
00000690: 34e9 0ff1 a18c 75bf 24c1 db64 3d2d a53f
000006a0: fd85 3d89 48d8 eb3f b7d7 391d 3d02 c8bf
000006b0: c161 587a 8883 e2bf e69b 5793 05ef d1bf
000006c0: ac09 81bf 0d4f bb3f 0738 f890 d14f c53f
000006d0: f5c2 2ace b359 e03f 5014 a6fc cfd9 d1bf
000006e0: 9d93 4ba5 ac28 d7bf 85eb 7cd0 d83d e7bf
000006f0: 5642 e5ba b3bb d1bf e5f5 00ee 0608 be3f
00000700: 31ca 1c72 9501 e03f 81c8 7cbc 522d e7bf
00000710: d8d9 b52a eeba be3f f4d6 7c4e fc30 d4bf
00000720: 008b 7dee 8594 d3bf b8d6 4d01 7504 c4bf
00000730: 1a9f 3dde d4cc b7bf 7ca0 9e9b bfa5 743f
00000740: 605a a98e 377b c4bf b4c2 d97b a41a a23f
00000750: 8a67 705b 8342 c03f 1d24 b29b 1df6 c8bf
00000760: caf1 24b9 ca9d a13f 5190 2ede 423c ba3f
00000770: 4f37 695b bce7 bebf bf36 0929 c1ee ca3f
00000780: 3f9b 8385 d394 c73f 8d67 efb9 c945 d4bf
00000790: e035 3bab de3d debf b959 975b f2aa ddbf
000007a0: b04a 0252 65bc a3bf 2391 4a47 656a e73f
000007b0: 9279 f4ee 3057 babf 0e5c 5967 50d8 b33f
000007c0: 593d 0726 dc58 993f 1fb4 8122 23ba c83f
000007d0: 9ce5 2ae8 9fb6 c63f 1b10 5fe6 1f97 e2bf
000007e0: 3a7c 42df d716 b63f 8c42 9188 b2a7 b9bf
000007f0: f294 f50d e8c1 d8bf b76a 0f82 a6fb f03f

layer1.bias f8 [80]
0.463551564551375 -0.06109600771065596 0.1867677461449326 0.015964357065753592 0.14667952586998645 -0.027404213372859074 -0.37490082432968735 0.07190746873816556
-0.32752050826989004 0.1174453379429113 -0.03595832384870867 0.25637941869206876 0.5263518798175499 0.09617833542707939 -0.11979751237874324 -0.30110090398694045
-0.1309524427253478 -0.08562210527235953 0.2694070002986615 -0.11636067372817216 -0.4108936165892271 -0.03593287660270724 -0.11166763108202787 0.000443877588934548
0.3539977847461423 0.12120957992819786 0.13738672169095648 0.38449381480957606 0.12205691373859255 0.2693941755807802 0.01549487337545773 0.4479402295953767
0.25675604618932374 -0.08540318261911117 -0.16063393734161488 -0.007455060568628677 -0.06833477793896914 -0.20445403347205107 -0.1771825632952904 -0.16623524264408462
-0.0336077766892711 0.166585336577753 0.19123693201276462 -0.43136410832421435 0.3040866175475965 -0.23958767961360627 -0.2019654838979917 -0.1516962291638771
0.15624451815558946 -0.03684806243574886 -0.3809625272822691 -0.13670900253450752 0.1071783196732063 -0.10465658318546187 0.4004288139468039 -0.3422480561226927
0.15387598394099666 -0.07779949760956664 0.5511097917710108 0.49486046090180114 0.16947677038214776 0.0937550588395846 -0.18708260159962772 -0.27876513263462377
0.2843742597516229 -0.37244613463024184 0.3660508410326744 -0.35928345465241074 -0.2583056564036797 0.04631808065425563 0.28541220202834294 0.11600003265084796
0.19140800789280937 -0.08029763467542439 -0.05337786798728037 -0.14368435183252445 -0.017648481888286282 0.22750807617127783 -0.057802899160754866 0.3260612659048857
00000000: 9b7f 702e d4aa dd3f e41d 11d6 f947 afbf
00000010: 4fef d168 01e8 c73f 5b0e ffdd f558 903f
00000020: 405c 4d0b 65c6 c23f 6c0d d6a0 d90f 9cbf
00000030: 1f53 ef06 60fe d7bf 608d 9122 8768 b23f
00000040: 6176 f293 18f6 d4bf 1550 88cd e510 be3f
00000050: 00fb e521 2169 a2bf 6598 a938 8568 d03f
00000060: dc24 c0e5 dfd7 e03f d536 3eb5 249f b83f
00000070: 4711 cfbd 0cab bebf 62e0 dab9 3c45 d3bf
00000080: 6518 6bb5 0cc3 c0bf bc9e f58d 54eb b5bf
00000090: 5c28 e6db f63d d13f 80f9 3328 d0c9 bdbf
000000a0: 7ab2 58bd 144c dabf cb3b b843 cb65 a2bf
000000b0: ece3 84f7 3f96 bcbf eabb 57ba 0717 3d3f
000000c0: 0ed5 1553 e6a7 d63f e4e5 c04d 9707 bf3f
000000d0: ad9d 485a e395 c13f 2dc5 07f2 8b9b d83f
000000e0: e308 c234 1f3f bf3f 9f8c 7611 c13d d13f
000000f0: 3adc 39b3 c6bb 8f3f 2431 2b7f 0dab dc3f
00000100: 01bd 5be9 b06e d03f 38ca 52a4 fbdc b5bf
00000110: 0346 c121 a78f c4bf 96b4 4f95 3289 7ebf
00000120: 3063 6d54 637e b1bf a11c a6bd 8c2b cabf
00000130: 192a 6311 ebad c6bf fcaa 4c49 3247 c5bf
00000140: 051b 8bdb 0935 a1bf e91b 4c16 ab52 c53f
00000150: 1d1f 64a8 737a c83f c8ec 7a34 789b dbbf
00000160: f929 61b7 2776 d33f f883 3b20 cfaa cebf
00000170: cb9f 2146 01da c9bf 52ba 9733 c86a c3bf
00000180: 1b2a d403 d2ff c33f 6b3e 2ace bfdd a2bf
00000190: 5672 eba6 b061 d8bf c22c 7a3b ae7f c1bf
000001a0: fd2e d6d1 0970 bb3f b6b8 171a c6ca babf
000001b0: 0fc4 112d a0a0 d93f 8ea8 0a64 64e7 d5bf
000001c0: a84c 554f 35b2 c33f 82d9 e0f9 aaea b3bf
000001d0: f82d 8500 b1a2 e13f be07 ea35 cbab df3f
000001e0: 1e8c 1c31 6ab1 c53f 42f2 8cdf 5400 b83f
000001f0: 13b0 c29b 52f2 c7bf 6a92 fbb5 49d7 d1bf
00000200: 8646 5d18 3033 d23f 4b8b f04f 28d6 d7bf
00000210: 0427 ba81 606d d73f d676 ee07 80fe d6bf
00000220: 1d0a a872 1488 d0bf c83d 3fe3 00b7 a73f
00000230: 38d4 658a 3144 d23f c400 929a 2db2 bd3f
00000240: caca 0bbf 0e80 c83f d889 e0c2 628e b4bf
00000250: 6dd0 ab0a 5854 abbf c3a8 08b4 3f64 c2bf
00000260: 430f 2392 7112 92bf 4aa2 5d11 fc1e cd3f
00000270: bfd3 0473 5798 adbf 2e72 6312 30de d43f

layer2.weight f8 [80, 80]
-0.33644043814095786 -0.17674888307584052 0.10277409453268957 -0.343844256508986 -0.15104651976389086 -0.4503159358145797 -0.11404968482698702 -0.33475287768693035
-0.16371637319079804 -0.33050370191363954 -0.5607474085218755 -0.17640212034116506 0.009864417052549932 -0.09988601509358476 -0.07035495040825895 -0.2870586308256836
-0.3208410084754719 0.3027748549179863 -0.008549058116174521 -0.10615753956655856 0.03637431722672106 -0.19174602081728936 -0.18385159384724795 -0.057112385543078785
0.8033413685957401 -0.21549368957390005 -0.12650141480994573 0.2719253986043377 -0.451045433860181 0.4750368656919972 -0.42035704624361564 -0.10206790728733556
-0.165343181524858 -0.00408674454245609 -0.3091041057011019 0.050550869131604864 -0.27708431187808447 0.3367826010133942 -0.2853873922704331 0.10772985819675589
-0.7152130221710092 0.6473240084294312 -0.35965334589998493 0.13440218652622873 0.13602633331322989 -0.040249833224258395 -0.006918876488174018 0.019704560136115642
0.0023680696860934256 0.051785356394414034 -0.18029211464954933 -0.3759254976335693 -0.14517628080919978 0.041561163484164054 -0.41622383105103905 -0.168546720740965
-0.09887534234936372 -0.3393863639478637 0.24840687079574195 -0.044339502793113425 -0.018948963965935716 -0.06295053023067941 -0.043304082827063536 -0.3828605019140844
-0.10763834199677268 -0.3474441087827837 -0.22131702709200732 -0.2591285070422798 0.21574775813852753 0.2233301608267791 -0.2551832982395276 -0.5929001698882774
0.04453143624218184 -0.2567349297727968 -0.6059762443160155 -0.5345499289157228 -0.4735037918941593 -0.2649993973589769 0.018896101056755515 -0.01860703766504316
-0.2935369459433574 0.3390178491156638 0.05166775652780614 0.11188184363797375 -0.03409547527794841 -0.32879972571190236 -0.39573134406094174 -0.5457822654569747
-0.49574622260889717 -0.057023436925159474 0.24566350815454852 -0.275112752376167 0.5343755776589512 0.23661012510395377 -0.5405425501879462 0.2170095779337543
-0.44085307033765664 0.5836347042993684 0.10609277008517604 -0.0803656325456365 -0.03855744922813427 0.11025563172190152 -0.0880578534470155 0.07676687649858607
-0.2861959794250856 -0.14692371560394582 -0.13029628511893065 -0.33960384356358886 0.271576356707787 -0.22836660707137635 -0.03898035468214211 0.042770167913831106
-0.36770005229085084 0.09279290825413837 -0.44381608216895746 0.21450549860487483 -0.39596721838549787 -0.5134597688057936 0.2172223694093404 -0.04361843612228008
0.5720514795009498 -0.1651044135385944 -0.4643963931344821 0.023785197802867697 0.0996681909210184 -0.13579712692194582 -0.1562817226475969 0.25222543328929437
-0.12113039905216007 0.6762653841513461 0.08851922599393504 0.6141268516019525 -0.08113851211207913 -0.2110154551507591 0.05071460667606226 -0.1295781582653471
-0.23694692938986375 -0.17467647227138372 -0.01882077243848211 -0.028680871084776575 0.0950297075039916 -0.23248115813632794 0.36676285626137745 -0.24114404224790967
-0.003422494922733649 -0.20467541301493178 0.17153798418507532 -0.3190283113219372 -0.5821411319694858 0.2394516669986507 -0.48163542527112785 0.04964944924697215
-0.6446565391769395 0.23908741392836214 -0.12141779102324984 0.06404634013223173 0.1336808081365136 -0.09828897282540132 0.0759228084852024 0.27357145570629215
-0.04942113677453539 -0.06670154260038046 -0.1765350196365747 -0.03905883335714308 0.088151162354623 0.03996562000209161 0.5676173074599845 0.7953389465697078
-0.2305124234366178 0.2040916726458427 -0.018450921869048478 -0.27006410232025835 0.12555246108074752 -0.1410112201373781 0.3185454173562028 0.16957957516380034
0.13493051831120656 -0.38226147887172707 -0.2106311991382584 -0.06973091431933956 -0.0948721077663988 0.49903218261523613 0.15630323376762295 0.20729863848924376
0.8971083762661177 -0.03622969318639605 -0.16966226843604706 -0.07653289525239201 0.20276161970151174 0.24504556822153764 0.14238735200184047 -0.30719935601046267
0.2869290354935844 0.38971935173641614 0.20384667655176797 0.06380283334845134 0.2499654416849288 0.25363326737093317 0.21807502506109283 -0.15064530808926516
-0.011645270471578867 -0.07696165168253509 -0.013812388288513503 0.31813357623930527 0.1005800571828636 0.173108581004162 0.11519007462661367 0.09543219158560388
-0.07690729767895106 0.07524709054762929 0.0631731726882121 -0.0540809890108044 0.6922412632713025 0.14961814487711872 -0.1739706810010005 0.2533440704704113
0.10293474475575039 0.054413962367941014 -0.1594621169710425 0.029496203677149294 -0.2830908970533689 -0.17669015691746343 0.39137742667730196 -0.028316650154853917
0.13095291985949814 0.5113724796733263 0.026564549694335055 -0.10980725162285053 -0.24334555031601082 0.4527188799121462 0.08633905668087899 -0.07772080566710028
-0.03947386694766361 0.25077044825591654 0.39579014278524377 0.6770337055290828 0.12350070521305007 0.08915590972920161 0.5244544553275131 -0.2350800080372677
-0.1164141748226555 0.27656242843889145 -0.3987598175598192 0.02379267812747012 0.3032907338855473 0.014021483170720208 0.13276633470232 -0.27735845804415776
0.014521580663061499 -0.455199842214154 -0.1418077491617765 -0.018161586108116568 -0.7329706467483202 -0.26227261776406935 0.4038046995615675 0.04976394643721376
00000000: 4182 b779 3d88 d5bf 5627 3518 b59f c6bf
00000010: 8ed7 e42e 674f ba3f eae7 2757 8b01 d6bf
00000020: 69bf 470b 7e55 c3bf 853d 4cee f9d1 dcbf
00000030: d475 7332 5c32 bdbf 7310 7a55 976c d5bf
00000040: 794c 567a a8f4 c4bf d243 bbff f826 d5bf
00000050: f461 9d8c a4f1 e1bf e3b9 e73c 5894 c6bf
00000060: 8515 14a5 cb33 843f 019b 2740 2192 b9bf
00000070: 0c7c 1d33 c802 b2bf 0693 db29 2b5f d2bf
00000080: 368a a7b9 a888 d4bf 1c21 fbc8 a960 d33f
00000090: 2522 2a28 2b82 81bf 9d85 a9f8 232d bbbf
000000a0: a662 ce8d a79f a23f be31 4634 228b c8bf
000000b0: 8d19 72f3 7288 c7bf 3748 35a8 d53d adbf
000000c0: 0f90 34f5 f8b4 e93f 6d6d 9b16 4c95 cbbf
000000d0: 41d3 c0c7 3231 c0bf f345 7dc9 3967 d13f
000000e0: 8b22 dcaa eddd dcbf 7ca7 a206 0167 de3f
000000f0: 779b 903d 21e7 dabf 2c30 c553 1f21 babf
00000100: 9607 a222 f729 c5bf a8e3 8222 43bd 70bf
00000110: 74ea 4296 5cc8 d3bf ccc3 68b3 cde1 a93f
00000120: fe10 70d6 bfbb d1bf d2b7 4d9c d88d d53f
00000130: c080 1f7b c943 d2bf 23fe c119 2f94 bb3f
00000140: d7ba 7c6b 06e3 e6bf 54d7 c3d6 e0b6 e43f
00000150: f164 a277 8f04 d7bf bd0d d241 1734 c13f
00000160: a8d0 7c96 4f69 c13f d73b bc4a a09b a4bf
00000170: fe4a dec3 f756 7cbf 7c7b 77a5 6e2d 943f
00000180: 70cb 67bb 3366 633f 6c5d 4038 9c83 aa3f
00000190: 69c0 12e0 cf13 c7bf ac65 84d1 290f d8bf
000001a0: 957e 1de9 2295 c2bf b079 e53b 8147 a53f
000001b0: cf85 8b47 69a3 dabf 481a b75e f092 c5bf
000001c0: 4b75 c5f9 e44f b9bf ca52 7795 81b8 d5bf
000001d0: 33af 15dd cbcb cf3f 56ab d5d4 aab3 a6bf
000001e0: 436b 1b72 5b67 93bf ef4b 9ba4 861d b0bf
000001f0: 0e10 0de7 f32b a6bf 3eac a955 c980 d8bf
00000200: 37fb abb6 2f8e bbbf 2b3c 1a37 863c d6bf
00000210: 313d b4c8 1d54 ccbf 314e cdbb 8f95 d0bf
00000220: 24f5 b15e 9f9d cb3f 5a10 7b2c 1596 cc3f
00000230: db25 1b54 ec54 d0bf dcd0 eec6 09f9 e2bf
00000240: 64b0 9b0c d3cc a63f 795c c757 586e d0bf
00000250: a8af ef4a 2864 e3bf 7db5 d873 081b e1bf
00000260: f3e9 2dd9 e24d debf f974 4708 c0f5 d0bf
00000270: d821 3ee0 7f59 933f 4ab9 fc28 b90d 93bf
00000280: e7a4 bf2f 4fc9 d2bf 0a92 adeb 77b2 d53f
00000290: 28d8 1639 3274 aa3f ebf7 70db 49a4 bc3f
000002a0: 8d4e 854e f674 a1bf f372 3701 0e0b d5bf
000002b0: 8b9b 2f8f a953 d9bf e1fb 9b5e 0c77 e1bf
000002c0: c120 4e5d 4eba dfbf a6ed 6509 2d32 adbf
000002d0: cc15 acde e671 cf3f 85c3 8a84 729b d1bf
000002e0: 1471 bacf 9a19 e13f 65aa 9c96 3d49 ce3f
000002f0: d8ea e4e3 1f4c e1bf 6476 1248 f8c6 cb3f
00000300: 4640 dccb ef36 dcbf 6ad8 f8af 22ad e23f
00000310: e89d db51 e528 bb3f 2c80 8193 d792 b4bf
00000320: ca6e e74e cdbd a3bf e504 728c b639 bc3f
00000330: 0cfd b5a0 f58a b6bf 523d fa77 fea6 b33f
00000340: d727 f8f0 0851 d2bf d94b c374 65ce c2bf
00000350: 0024 b075 8cad c0bf 9ce5 6cc2 11bc d5bf
00000360: 4a50 9bcc 8161 d13f 985d 6ff2 1d3b cdbf
00000370: 1fb2 17a9 3bf5 a3bf ea60 deb0 f8e5 a53f
00000380: 8fe8 d4cc 6588 d7bf a393 40aa 46c1 b73f
00000390: 79b0 9691 7b67 dcbf 66f9 a88a ea74 cb3f
000003a0: 503e 50e3 8657 d9bf b2a4 5a2e 436e e0bf
000003b0: cd4f 494e f1cd cb3f 0bb4 4bd9 2755 a6bf
000003c0: 45b8 82e7 3e4e e23f 3069 4934 2422 c5bf
000003d0: 4026 39a6 abb8 ddbf 20d2 c49a 255b 983f
000003e0: df0e 75c4 da83 b93f 59a0 82dd cc61 c1bf
000003f0: c5f2 dd1b 0a01 c4bf d09a cc24 7624 d03f
00000400: 39ff 7ade 6602 bfbf df19 8b4d f7a3 e53f
00000410: 2910 b62c 32a9 b63f 023a e75a eda6 e33f
00000420: c1ac f757 7ec5 b4bf 325a 69ef 8d02 cbbf
00000430: 68d5 34d2 43f7 a93f 2346 0360 0496 c0bf
00000440: adfc 4ee8 4654 cebf a4a3 e473 cc5b c6bf
00000450: 3c59 6fa8 c045 93bf 41d3 51ad 845e 9dbf
00000460: 7dca e0ed dd53 b83f 9fdc 904d f1c1 cdbf
00000470: 39ee 41ea 0a79 d73f e93d 8ad7 cedd cebf
00000480: 5a99 71f8 7d09 6cbf e9e2 98ce cd32 cabf
00000490: 7a5f 0ce8 f4f4 c53f 8c0d e8b8 f56a d4bf
000004a0: 3ee4 6e70 e6a0 e2bf 7bae 5d2b 5aa6 ce3f
000004b0: 679c 0864 1dd3 debf c470 8f11 a76b a93f
000004c0: 255c 1dc0 06a1 e4bf 5a90 da97 6a9a ce3f
000004d0: 8cf0 9881 3c15 bfbf aee2 4b48 5765 b03f
000004e0: 6b4b 86e5 731c c13f 23b0 d753 7729 b9bf
000004f0: f1e3 765b ad6f b33f 362b d8d9 3182 d13f
00000500: fd04 5b2c ba4d a9bf ebb6 0f30 5a13 b1bf
00000510: 080a f813 b398 c6bf 7c16 c7f7 84ff a3bf
00000520: c4e0 6a17 1391 b63f 5427 bfad 5f76 a43f
00000530: 0de5 85c5 eb29 e23f 4610 98a9 6a73 e93f
00000540: 6fb1 fd5b 6e81 cdbf b32d b309 ad1f ca3f
00000550: 37d2 0868 cce4 92bf bc80 d2f1 ba48 d1bf
00000560: 7a16 2361 1a12 c03f d8f6 6dd9 a70c c2bf
00000570: d879 7551 0c63 d43f d2f4 b294 c8b4 c53f
00000580: ce81 b039 6745 c13f 1394 91d9 f876 d8bf
00000590: 6a75 e88f f6f5 cabf da90 859c e2d9 b1bf
000005a0: f3c5 28d8 8949 b8bf dbf8 fead 24f0 df3f
000005b0: f23e a58e be01 c43f 4b87 6804 c388 ca3f
000005c0: fdfa 20a0 1cb5 ec3f 1566 c2c6 b28c a2bf
000005d0: b524 2643 7eb7 c5bf 1e5e 2dea a897 b3bf
000005e0: f440 c0be 17f4 c93f 6347 c536 a75d cf3f
000005f0: 0321 1bae bf39 c23f 60b3 da7c 27a9 d3bf
00000600: eaef ed99 0b5d d23f ece0 946f 29f1 d83f
00000610: c214 98dc a517 ca3f 35ad 9fea 6155 b03f
00000620: 165f 951a defe cf3f 404a 2207 873b d03f
00000630: 6a1b 5be6 e1e9 cb3f c105 c56f 5848 c3bf
00000640: 9dc7 a0be 79d9 87bf 2fcb 0541 c2b3 b3bf
00000650: 029f d45f ab49 8cbf 0a45 6dee 4c5c d43f
00000660: fbee 3a58 9dbf b93f 9af0 0807 6c28 c63f
00000670: cf58 58c3 187d bd3f b784 d87d 3e6e b83f
00000680: 3dd6 5a58 32b0 b3bf 946e 05b1 6443 b33f
00000690: c030 aef6 1d2c b03f d302 46de 80b0 abbf
000006a0: 9f24 5626 d726 e63f 4655 91f7 af26 c33f
000006b0: ca5a aed8 ab44 c6bf 7494 530c ca36 d03f
000006c0: 291a 5972 ee59 ba3f 6bd5 a199 25dc ab3f
000006d0: 0cb8 ab30 4169 c4bf 7419 99b8 4034 9e3f
000006e0: eeed 2848 291e d2bf 9628 be76 c89d c6bf
000006f0: 832f fee7 530c d93f 33b5 6339 0aff 9cbf
00000700: 525e 0eb6 10c3 c03f feae 88d1 295d e03f
00000710: 1838 aec0 bc33 9b3f ff72 95fa 531c bcbf
00000720: 7500 1e6e f225 cfbf 6848 e09b 58f9 dc3f
00000730: 6cd6 cf00 511a b63f 7918 8fbe 82e5 b3bf
00000740: 4c7a 2c2f eb35 a4bf b8fe 837e 9f0c d03f
00000750: eddf d52d a054 d93f f72f f196 42aa e53f
00000760: dc48 ec01 be9d bf3f 5f34 88f4 ebd2 b63f
00000770: f1f0 bbb5 54c8 e03f 6053 3b09 1a17 cebf
00000780: 3175 a7c1 51cd bdbf dca1 5ce6 32b3 d13f
00000790: e336 d8e5 4785 d9bf 2557 c499 1b5d 983f
000007a0: 0cf8 cd89 1d69 d33f 9bfa 469d 4bb7 8c3f
000007b0: 5733 c7bc 7cfe c03f b164 a4b0 3dc0 d1bf
000007c0: 2fc9 4590 7dbd 8d3f d210 dd84 fe21 ddbf
000007d0: cb0e 7c9e c126 c2bf bdea 8269 f398 92bf
000007e0: bdc8 96db 7e74 e7bf 0db6 fb16 13c9 d0bf
000007f0: 6aa2 a5aa efd7 d93f 277a eff4 a87a a93f

layer2.bias f8 [80]
-0.008744675137806064 -0.10176009264125088 0.030576459027246435 -0.1850232054422963 0.08590095877247286 -0.01403064585485296 0.17647222944573646 -0.1528220096934805
-0.04402491615373246 0.16223839060356277 -0.0922802189788317 0.011242977279990764 0.042396653777903685 -0.06264787969140377 -0.1104647420174666 -0.2753984440896704
-0.0815390056448142 -0.07921921618822679 -0.3332304054858313 -0.10387448175518157 0.1093791394538377 0.009320897735821496 -0.08463011040836708 -0.19321273968718883
-0.028509034129580592 0.014456285925537424 0.5491299399194557 -0.1885108222557813 -0.1432526094331383 0.09247887175609049 -0.0683169034666281 -0.08044771591698645
-0.10417195125787006 -0.22050838905698622 0.2649386148492137 0.461855559676967 -0.0669084238101044 -0.055588375701985784 -0.25891595437836445 -0.1642791831603945
-0.21664361961468195 -0.09275057982957148 -0.06404538698877714 0.5408374565863546 0.09214201076263828 -0.16149853821268845 -0.11309816974161437 -0.11282253888039284
-0.10170238738198649 0.3293630828416446 0.12852528439479324 0.11942949883167693 0.09542195378241586 -0.2265001726670435 0.4800606660655763 -0.12416080170610284
0.1321587728524126 -0.0455313662653025 -0.1387903592161044 0.2607051313850325 -0.0832759341634076 -0.08218056825089877 -0.12725374043544999 0.28760095257788965
-0.03576693261076354 0.07769137365208431 0.3748873830125911 -0.10381298063278215 0.06430302828908216 0.422311864771538 -0.07052527522375267 -0.07134375205103204
0.02457266047501537 -0.12470457586102712 -0.007817987408910113 0.026587652479780812 -0.17218577215414216 0.16703666588680685 -0.06413457739604844 0.1782754298467758
00000000: b721 d96d bae8 81bf 4a9e ee0d f30c babf
00000010: 12b2 326e 6f4f 9f3f a318 3024 d7ae c7bf
00000020: d270 9ff0 9afd b53f 98f1 b468 19bc 8cbf
00000030: 1b92 0f5b a496 c63f 090a dfee ab8f c3bf
00000040: dbc8 2d0e 6f8a a6bf 1224 e642 3ac4 c43f
00000050: e3f0 942a ad9f b7bf ae5e d1dd 8e06 873f
00000060: 5f32 dfa2 03b5 a53f db35 7002 b109 b0bf
00000070: 097b 53d6 6a47 bcbf b800 afcb 20a0 d1bf
00000080: 20c4 9782 bddf b4bf 8f41 bee6 b547 b4bf
00000090: b50b 669f a553 d5bf 3207 079e 8497 babf
000000a0: 90a0 d172 4500 bc3f 18c6 8eb7 d516 833f
000000b0: 5ff7 75a4 51aa b5bf c242 10ef 31bb c8bf
000000c0: fa8b e8e4 7831 9dbf d8a9 2cda 419b 8d3f
000000d0: 17ac a6f3 7892 e13f 54ec 4364 1f21 c8bf
000000e0: a77e 4afc 1956 c2bf 506d c301 b2ac b73f
000000f0: 4735 2772 377d b1bf 3bbf e6b4 3898 b4bf
00000100: 9124 d053 03ab babf bc27 bf6f 9e39 ccbf
00000110: f964 8e17 c1f4 d03f 5274 129f 0a8f dd3f
00000120: d65f 1714 e920 b1bf 4a07 5b5f 1476 acbf
00000130: daee 1d39 1492 d0bf d132 8bab 1907 c5bf
00000140: 69e9 9066 faba cbbf 7994 0d83 80be b7bf
00000150: ff92 934a 4765 b0bf d3af 8f5a 8a4e e13f
00000160: a02e d06a 9e96 b73f bcd6 fced fbab c4bf
00000170: b916 476c 00f4 bcbf a833 be1a f0e1 bcbf
00000180: c312 bbeb 2a09 babf 7222 54e5 4814 d53f
00000190: 6fa5 973a 8473 c03f 95e3 a87f ee92 be3f
000001a0: ccde d0ba 926d b83f d157 1229 f5fd ccbf
000001b0: 863f 365f 50b9 de3f add9 c596 00c9 bfbf
000001c0: dbea a323 94ea c03f bd74 1a22 e34f a7bf
000001d0: 48a8 eaea e1c3 c1bf a2ad 4c93 64af d03f
000001e0: 4793 c655 9251 b5bf 351a 0125 c909 b5bf
000001f0: 1362 bbbe d949 c0bf feb5 67d3 0d68 d23f
00000200: 8ad4 ae1b 0b50 a2bf 4e5b 04f5 94e3 b33f
00000210: f736 6ea6 27fe d73f 23d4 b7cc 7c93 babf
00000220: 0e0e 89cb 2976 b03f 9704 fa57 2807 db3f
00000230: 639e a0c6 f10d b2bf 0f47 d589 9543 b2bf
00000240: 3caf 7654 9329 993f d812 fc9a a3ec bfbf
00000250: 6839 ef81 e002 80bf 4725 8327 cb39 9b3f
00000260: be88 1ef2 2e0a c6bf 4bbd 9b1c 7561 c53f
00000270: 8074 75a8 1f6b b0bf b4a5 6fb2 bad1 c63f

layer3.weight f8 [11, 80]
-0.28243926394495933 0.33943666134293443 -0.42258431355978726 -0.36644208220780333 0.07897594442397883 0.07456505667495687 -0.7136624839227139 0.32095183071741684
0.061212144233960666 -0.37481331180446714 0.022952610847015664 0.29211771623784916 -0.29769200397211193 0.0028120733557641902 0.00092291923747053 -0.048894578079887736
-0.2932026940492784 0.037912313214762856 -0.3272347245301719 -0.09582086295386623 0.022086351129028133 -0.02551219595200664 0.09128439962205952 0.48881191949041736
0.08241745244680214 0.3586502130522287 -0.6792899310253725 -0.30317448637281075 0.13103773802058577 -0.012878282014847437 0.1775103646595756 -0.1045120566298357
-0.028957995208117156 0.42446492874288405 -0.054602420795845645 -0.2945437435203699 0.026843825084022745 -0.05721329665757032 0.2712127809657357 0.2682258495952235
0.28907416102903144 -0.008488663542059688 -0.0699680421734881 -0.19819997834716585 -0.5266070708804492 0.17642141208237377 0.1791801779771337 0.06932983072883299
0.40681098170361246 -0.7293355633925059 -0.2763179703698106 -0.09502011559907744 -0.41563841945221225 0.755389475133093 -0.9416035536349272 -0.1502213696086363
-0.2567747590473375 -0.04392858486340464 0.22073558200332316 0.15181573501664578 -0.08008655257740271 0.0013310044091644085 0.4174357101701761 -0.1301543649263256
-0.10209455322585596 0.1090841347405788 -0.6969030388644246 0.3267216815772543 -0.09115648055370397 -0.33061392810860357 0.17108424745360593 -0.12282379040703702
0.18055275269303264 -0.08351756861343249 0.18870760402461026 -0.024275551263139062 0.5591505750371086 -0.6705741063553611 0.1271893681982943 -0.34131258674968395
-0.2891028622659671 0.19359418068002282 -0.1362985476190752 -0.41225517069114337 0.36908848909621356 -0.6562378563156476 -0.13705009570376311 0.2687355186460076
-0.03405281125946158 -0.3475857087781454 0.048516082924189054 -0.09589977165739691 0.1060576381725471 -0.03529212166020288 -0.046493161598955744 0.21686146594371017
-0.1891625123714029 -0.03464752671770049 -0.3947303474395117 -0.47667925401131334 -0.040631962469262047 -0.4467244116773417 -0.2616409543914691 0.11568243362460418
0.23184948668286912 0.06987509355068758 -0.1533662604691836 -0.274628420718039 -0.27292802244584863 -0.25231005731200357 -0.4971767633088565 -0.0566849419599825
0.23603536579432335 -0.47505190534014335 0.14537747944146914 -0.415755147985984 -0.07968485072152696 0.09947947815469256 0.1825376340997394 0.3622254727567904
0.14231139324060924 0.031954028467223804 -0.05745960299429548 0.006116177822775762 0.016894629423254884 -0.03109078933835691 0.3415551704496254 -0.18198021452448618
-0.5205011657172659 -0.36475257335042927 0.0034731334067524713 -0.0694842582467012 -0.23599585941960421 -0.2790600897609137 -0.2951784089904476 -0.5241948506070444
0.05936259179108789 -0.034265122883053487 0.2895225328870379 0.16106169768097015 -0.24623695106508334 -0.1045260654589549 -0.08754976119672955 0.1429340845999042
0.04950913515914038 -0.29591334566375904 0.06579810877823337 0.1415835665939264 0.2584099602712363 -0.060924846980419375 0.014609516023085434 -0.024301036221027392
0.2413847724058702 -0.71475645335998 0.0686634680104597 -0.012659689768912177 0.13111184473475723 0.5581698507450098 0.03677175835500676 0.2582644709772607
-0.4646713521178627 -0.02916905833148883 -0.5120677503095133 -0.26778693363590167 -0.17495693797192816 0.2790515282614056 -0.08708341767752596 0.26551686616111775
-0.2818219265655061 -0.5538927580569112 -0.1466002227311648 -0.12601168963396944 -0.18202104040731243 -0.15811343322720303 -0.15408991059656607 -0.3870171391085308
0.17077009135085053 -0.13701071037122198 -0.10203916937719694 -0.45138472429364696 0.20804565369357012 -0.034437395349239924 -0.1117318514000398 0.1911011611039507
0.1527581147865151 -0.3119239956035151 -0.044562241037612485 -0.5005336488045152 -0.2341490618577977 -0.3410569007899442 -0.4436548641840439 -0.15028578690395644
-0.0997357468270806 -0.21921430473477826 0.3503427764171013 -0.4526117340940568 0.18898362167688418 -0.2364335996030773 -0.4305763073658942 0.07898288601679666
-0.06782831813240983 -0.3558221919997059 -0.26128071760270793 0.1550566063305463 0.6734053459912142 -0.4478368539335373 -0.14117556014834037 -0.1118786652240452
-0.2557510394407363 0.4177659231189453 -0.6784751892563942 -1.113021729339062 0.4485250060588993 -0.6689771103033711 -0.34640775936673796 -0.1113605689550709
0.10338441814360501 -0.2578727411871013 -0.32077754662382046 0.07792580124361866 -0.24082518412973897 0.26603033876438514 -0.11391567163478894 0.1559429479899548
-0.20139477101771644 0.17829605743129953 -0.10940203606314311 0.29099820060855025 -0.44344773087324585 0.41085501753722425 -0.23864090269125496 0.1460455537748861
0.3272610505484932 -0.6331408782659307 -0.351768740651169 -0.3013980520276484 -0.365197516634557 0.03545521316927766 -0.11184531964524125 0.09477970731391333
-0.4786567039495562 -0.8311565553689352 -0.22035948738996444 -0.5637137283313034 -1.076973099977421 -0.6641659279295539 -1.2000471886081472 -0.08175659722980666
-0.31181474090646333 0.004735678408797906 0.06764099746784075 -0.6286686323543716 -0.26397770632109246 -0.10283426170096945 -0.3485540748201778 -0.06552091651103845
00000000: 90fe 6f22 7c13 d2bf 5301 e28b 54b9 d53f
00000010: 6bae a213 9f0b dbbf 6f7b bd7d c973 d7bf
00000020: 81c1 787a c437 b43f 3be4 d70f b216 b33f
00000030: da90 9ab4 52d6 e6bf d472 218c 798a d43f
00000040: caae 34bb 3257 af3f 8f8f 13f9 f0fc d7bf
00000050: f071 c8a3 e380 973f a7b8 7481 0eb2 d23f
00000060: aed1 55c3 620d d3bf 374c 1a63 5809 673f
00000070: bb6a 8cf8 013e 4e3f 8113 9ccb b508 a9bf
00000080: 8f9b 823b d5c3 d2bf f108 bf22 3e69 a33f
00000090: 0440 fee9 69f1 d4bf 754e a950 b787 b8bf
000000a0: 420a 26ef cd9d 963f 0c53 0d7d de1f 9abf
000000b0: 6b01 0317 6a5e b73f 12ce 06ca b148 df3f
000000c0: 3bef e066 4f19 b53f f9d0 f005 20f4 d63f
000000d0: bb31 c83c bebc e5bf 00fb fcf5 3567 d3bf
000000e0: b68c ab37 d8c5 c03f 8ad3 a8c0 ed5f 8abf
000000f0: 0cfb 74dd a8b8 c63f c449 4359 4dc1 babf
00000100: 42a0 8129 2aa7 9dbf 63fa cff2 6e2a db3f
00000110: 2f80 3337 d9f4 abbf 6354 6a00 ced9 d2bf
00000120: e778 579b f27c 9b3f ebca 14ac 0f4b adbf
00000130: ad52 20da 8c5b d13f dd02 fdc0 9c2a d13f
00000140: c340 efe8 3080 d23f c32e 6622 8162 81bf
00000150: c278 e6f4 6ce9 b1bf 84d4 88ec 9d5e c9bf
00000160: a7c3 6812 f7d9 e0bf 9a9d 9a11 fa94 c63f
00000170: 746a 4046 60ef c63f fd17 9e8b 99bf b13f
00000180: db85 84ed 3009 da3f d993 1289 b756 e7bf
00000190: 8b44 8291 31af d1bf 2ace f500 3d53 b8bf
000001a0: 5489 a0e2 d199 dabf 400e 6e8c 262c e83f
000001b0: c219 95c6 9d21 eebf e090 d02e 743a c3bf
000001c0: 68fb 2266 ff6e d0bf cb1d b2b6 ce7d a6bf
000001d0: 3e47 e244 1041 cc3f bf14 75b0 b26e c33f
000001e0: 2859 2b64 8d80 b4bf 45d5 1f1a a3ce 553f
000001f0: 9e42 d744 44b7 da3f dc25 65f2 e5a8 c0bf
00000200: a36c 345f de22 babf 7b26 3917 f0ec bb3f
00000210: aafb 0c9a 074d e6bf 012e 510e 02e9 d43f
00000220: 31ef cbf6 0756 b7bf ec06 3552 c728 d5bf
00000230: eb45 d6af 16e6 c53f 3d0f f842 6171 bfbf
00000240: 197a 0244 5a1c c73f 860c d649 6861 b5bf
00000250: 6f67 e51d 9227 c83f 9df9 11ab b0db 98bf
00000260: 025e 2abf 8fe4 e13f 07e7 0ad4 5775 e5bf
00000270: f8c0 67c0 bd47 c03f 4365 73bf 10d8 d5bf
00000280: 4530 a74a a980 d2bf fab9 5bb1 b1c7 c83f
00000290: b713 4216 3b72 c1bf 466c ee82 6362 dabf
000002a0: fbe3 7f53 259f d73f 37bb 6888 e6ff e4bf
000002b0: f30c 7b87 db8a c1bf c3ec f675 f632 d13f
000002c0: a07a 64bd 5e6f a1bf 5595 f020 d83e d6bf
000002d0: bd94 fa9a 19d7 a83f 065f f62e e38c b8bf
000002e0: e02c 71e7 9726 bb3f 7d8e ac18 cf11 a2bf
000002f0: ab3d 1ca1 f3cd a7bf 45d4 fed3 1dc2 cb3f
00000300: e8d6 212a 7a36 c8bf 2795 4714 52bd a1bf
00000310: 6d73 3f13 4343 d9bf d341 aab3 e981 debf
00000320: 919f f46b b6cd a4bf 51a8 9efc 2197 dcbf
00000330: 25f5 99b3 b9be d0bf 78ad 232d 5d9d bd3f
00000340: 11db 7275 3ead cd3f b2ea 9a89 55e3 b13f
00000350: ee31 8370 81a1 c3bf 914f 6215 8393 d1bf
00000360: a947 a418 a777 d1bf 1fd8 2615 d925 d0bf
00000370: ee87 af7c bed1 dfbf ec9d c907 cf05 adbf
00000380: 2b9c 6428 6836 ce3f 67a8 551b 4067 debf
00000390: b354 e3af ba9b c23f 8c94 ef7a bb9b dabf
000003a0: e7e9 d5f3 3966 b4bf 4d2c 4cb1 7c77 b93f
000003b0: 32b1 5fa8 645d c73f fc2f d1bf b32e d73f
000003c0: bf86 e87d 4237 c23f ebfe 7b46 475c a03f
000003d0: b83d 6757 586b adbf 9d00 9bfb 460d 793f
000003e0: 5457 6763 d34c 913f b107 a98d 43d6 9fbf
000003f0: 1d18 b737 0adc d53f f76b f3ae 204b c7bf
00000400: 1723 890f f2a7 e0bf fb00 6b2d 1b58 d7bf
00000410: e754 b14c b073 6c3f 6da3 c168 b8c9 b1bf
00000420: 2c6c 19c1 1c35 cebf b015 c9d9 1edc d1bf
00000430: af5a 46fb 33e4 d2bf f4d7 8247 34c6 e0bf
00000440: 4971 b20c c664 ae3f 7e2e 5abc 328b a1bf
00000450: 481d 8d84 8987 d23f e5c8 1672 ab9d c43f
00000460: a315 f241 b184 cfbf d6cb b960 38c2 babf
00000470: f2d0 1c41 a969 b6bf 7c8e 6b01 aa4b c23f
00000480: 8437 b9e8 4259 a93f b8d9 8487 3ef0 d2bf
00000490: 7356 5715 25d8 b03f 8602 160a 691f c23f
000004a0: f2d6 14ee c989 d03f a6e3 96a2 8a31 afbf
000004b0: 6d7f 3c0c 98eb 8d3f f919 50ef 5ee2 98bf
000004c0: a828 9e3b b2e5 ce3f 6e27 f9ec 48df e6bf
000004d0: 04ed 88d5 ed93 b13f 7ba5 47cc 52ed 89bf
000004e0: 7883 a0de 45c8 c03f 3f04 d204 87dc e13f
000004f0: cc32 1a77 bfd3 a23f 963a 24b4 6787 d03f
00000500: 1cff 2ee9 2cbd ddbf 57fe 5a5e 7ede 9dbf
00000510: 094d 1de8 db62 e0bf dac9 90ce 6b23 d1bf
00000520: 151c 662b fd64 c6bf 0705 f2f0 fadb d13f
00000530: f3e9 f24e 194b b6bf bfb2 2c74 3afe d03f
00000540: 8240 79d5 5e09 d2bf c30f 2b4e 7db9 e1bf
00000550: ccbb 1bcd cbc3 c2bf fb1f f2aa 2621 c0bf
00000560: d2dc dd27 774c c7bf 6b72 629c 0f3d c4bf
00000570: c0f1 53db 37b9 c3bf 9b9b dd88 e3c4 d8bf
00000580: a050 be5a cbdb c53f 1281 1f24 9189 c1bf
00000590: 31d5 622f 3d1f babf 0a55 30c1 7ce3 dcbf
000005a0: 6d2b 586f 3da1 ca3f ec9d 913d c7a1 a1bf
000005b0: ae48 af67 759a bcbf eca4 95ba 0076 c83f
000005c0: 0775 9af1 938d c33f 8b1a fd0f 90f6 d3bf
000005d0: 3a39 c9af dcd0 a6bf d336 8524 5f04 e0bf
000005e0: c8be 88b1 98f8 cdbf 84f2 bd52 e0d3 d5bf
000005f0: 406f 185f d764 dcbf e02e e78d 903c c3bf
00000600: 654c dd2a 4888 b9bf 2e5c d3de 360f ccbf
00000610: 8a7b c61b 046c d63f 9111 ee34 97f7 dcbf
00000620: 337a 4a85 9d30 c83f 6042 fcc8 7443 cebf
00000630: d569 a4ed 8f8e dbbf 3dc6 62f0 3838 b43f
00000640: 0613 1f58 325d b1bf f21a 7571 cac5 d6bf
00000650: 6d75 4bc2 d2b8 d0bf f0f5 9b16 e5d8 c33f
00000660: 887b 3f5e 898c e53f f7a2 65e8 5ba9 dcbf
00000670: f671 ea6e 0a12 c2bf 67e5 4188 14a4 bcbf
00000680: d438 949b 395e d0bf b576 4b48 adbc da3f
00000690: af1d a099 11b6 e5bf 69fa 73df efce f1bf
000006a0: e183 1d3a a2b4 dc3f 6bd1 50af 4268 e5bf
000006b0: c6e3 6373 8b2b d6bf fcd9 b951 2082 bcbf
000006c0: f1bf d7b6 6677 ba3f 176c 7bab fc80 d0bf
000006d0: 4f96 028c 9e87 d4bf c51e dbff f1f2 b33f
000006e0: dcf8 f110 5cd3 cebf 4f28 2f1d a406 d13f
000006f0: f45c 2cd4 9329 bdbf c94f d442 f0f5 c33f
00000700: d1a1 8dc9 4dc7 c9bf 692a d6bb 67d2 c63f
00000710: 8ecb 0197 c501 bcbf 9fbf b3ea b69f d23f
00000720: 0881 6597 7261 dcbf 9712 eed7 724b da3f
00000730: 75ff 45fc c88b cebf 763c 98e6 9eb1 c23f
00000740: 7c10 5755 d8f1 d43f 6436 bda8 b042 e4bf
00000750: 2585 3609 6183 d6bf db5b 220e 1b4a d3bf
00000760: 56a7 a167 655f d7bf 8ccb 118a 2f27 a23f
00000770: 2844 1616 e5a1 bcbf 8cda 3c9f 7b43 b83f
00000780: 2c5e 5eba 4fa2 debf 834c e5a1 d598 eabf
00000790: 2b03 da5b bd34 ccbf 56a7 6f5f f109 e2bf
000007a0: 3932 3125 483b f1bf cd65 72e7 d840 e5bf
000007b0: e7a8 4bae 6433 f3bf 5092 5517 00ee b4bf
000007c0: 80a7 a6d0 c5f4 d3bf c118 3efe b765 733f
000007d0: 0442 fe9f eb50 b13f 5775 ffad 0d1e e4bf
000007e0: 796b e1bf 02e5 d0bf e1f9 e99e 5853 babf
000007f0: 735f 0fc0 b54e d6bf 626d 9e91 fac5 b0bf

layer3.bias f8 [11]
-0.3465619513328528 0.04706473650523114 0.07123401878367779 -0.06030738370965368 0.07163356174094819 0.1586399034303424 0.03455487580527074 -0.3093599333174093
0.2552106296475403 -0.21787256012821193 0.23476438360200394
00000000: 8fcd c02d 122e d6bf 316e 2b80 de18 a83f
00000010: 23de 0985 643c b23f bb06 7b01 9ce0 aebf
00000020: bb2e f9bc 9356 b23f 2c76 89f6 4f4e c43f
00000030: 6280 003b 2db1 a13f f89f 129b 8dcc d3bf
00000040: 5160 fbf6 5e55 d03f ba25 3980 3fe3 cbbf
00000050: c908 eb62 c20c ce3f
