attack_soft_generative_decision_tree/experiments/vowel_params_state_dict/fnn_epoch236.pth (torch, 69599 bytes, 6 tensors)

layer1.weight f8 [80, 12]
00000000: 6987 711b ef8a 983f ae06 3939 1c6f d3bf
00000010: 57be d8f8 94c4 cf3f 2ed8 5244 0d63 b33f
00000020: ba9d 9c96 6327 eb3f 7c9a 551a 2647 cabf
00000030: a2b0 c9b8 7033 e8bf 4a7b dd07 dd3d e1bf
00000040: 04f0 8c5f 9680 e1bf c5a2 3df6 1b71 df3f
00000050: 71ad ce19 bd7f c83f 9690 b453 932e dcbf
00000060: deaf f0a6 794e a63f 0f33 1186 52a7 a33f
00000070: c17b 3c90 9088 d7bf e46d 49db 7b1a df3f
00000080: 6397 ed3d 1cbd d2bf aa85 7aba b65c e2bf
00000090: c66c 941c 1791 d5bf 0c80 b681 21d2 d93f
000000a0: 912d 6794 0fb0 d93f c14a 2095 8fff d43f
000000b0: 9268 8d25 ba6d e53f 73c1 7802 4573 dcbf
000000c0: 7f6d e491 ce9a b4bf b539 2bb9 6f27 efbf
000000d0: 6727 1a72 342c c83f 3c7c 275d 4ef7 e7bf
000000e0: 8454 cb87 2053 ddbf 3622 fe48 c912 d53f
000000f0: c5c8 922b 554a b53f ab24 16e3 e1f9 c9bf
00000100: 0c9c 87de 2604 e23f 3ae3 af2e d665 a93f
00000110: 68ad 895e 4636 e0bf a778 7c39 cec8 c8bf
00000120: ecfc 3b9b 4120 b43f 362d d355 6a32 bf3f
00000130: c137 b5d7 7b66 edbf 617f 0266 ed9f d03f
00000140: 6bba 179c 1460 e13f 97f6 379a 6cea d03f
00000150: 454f 36a7 a05e d63f e3ae 2eca 6eda b63f
00000160: b0e8 9246 c531 c2bf 9cc9 8380 778d bcbf
00000170: 7502 26e9 c9fa 9cbf f477 6f11 14d8 c6bf
00000180: 7ffa a375 820a b13f 0245 3867 1af3 cebf
00000190: b7d3 299f 6423 c73f 98f6 425c b101 f2bf
000001a0: 44df d4da 66b5 e8bf ccd3 e69e d6cd cf3f
000001b0: c8b9 d355 d64d c5bf f959 54f9 629a 95bf
000001c0: e652 edae 29ae cb3f 7be8 f39b d90c d9bf
000001d0: 2d96 061c b2e7 c13f 0416 70a7 e8cb d03f
000001e0: d7ab 47ee c771 c8bf c678 df25 eb42 dbbf
000001f0: e7a8 de37 784c bfbf 2973 c4cf 1ff9 a73f
00000200: 5d3f a0c6 6df8 b8bf 270c 9266 8e25 ddbf
00000210: 1cef d01e 328f e0bf 1fe7 cd17 a67b db3f
00000220: 2b28 9491 ba54 da3f 0240 d183 cdc2 ca3f
00000230: e882 1c00 060f e03f 09a3 ae30 cb8e d83f
00000240: 1673 6ced 21b3 b4bf 885d 2204 abdc e4bf
00000250: 8f76 65da fd49 e03f 7c3d 224b 91b2 e23f
00000260: 181c 7c0f a074 b43f d768 99f1 49b7 d93f
00000270: df15 cb0e 2cc9 e1bf c569 187f 95ef 79bf
00000280: 6e64 d509 81f4 dcbf c3dc 08dc 1e12 d53f
00000290: 8cb3 802a 12f3 c5bf 4d01 81cc 90b2 a7bf
000002a0: 73d5 33ca f4c8 9b3f fc8c 096d 28cd e1bf
000002b0: 49d8 823e 0532 c4bf b7bf fb13 5421 e4bf
000002c0: 2779 b1d5 c070 d5bf e223 cf1e f5f4 e13f
000002d0: 294e 6601 154b dc3f 7aa0 6113 56b1 d03f
000002e0: deb7 95c4 2903 e43f 03b8 60b1 cfce e43f
000002f0: 4dff 006e 1c66 cc3f 5d33 34a7 89b4 d23f
00000300: 006e 56c8 976b af3f 827a 97af 28cd c3bf
00000310: a604 3add a653 b13f 02b5 58d4 8015 e03f
00000320: f1b9 d4dc a8bb ccbf 12a3 7434 4162 cdbf
00000330: f064 be31 25b1 b73f a928 c9e8 544f e33f
00000340: 00cd ca94 1fe1 db3f 67c4 dd4c 9e78 d9bf
00000350: 978a ff66 a2e4 d6bf 251c 02e2 07e7 b9bf
00000360: 1a39 49b7 e919 bd3f 89c2 59af 8df4 cabf
00000370: a8c0 bbf6 f131 e43f 8644 897a dc08 c0bf
00000380: 3900 4658 b544 bfbf 320f 5468 b208 cfbf
00000390: 565d c5c6 5525 c2bf 4056 0dd3 413a dabf
000003a0: d093 a1f2 e81d cebf 2d42 80eb 7dc7 cd3f
000003b0: fc66 4909 8074 d8bf 4f47 6a5c 58ae d7bf
000003c0: a859 b19d 7974 bf3f 1d2c 7419 5f32 933f
000003d0: 269c 6205 e48e abbf afff d1ef 82ef d73f
000003e0: 909e 8c16 e6b4 ca3f db25 4c86 cb0b d1bf
000003f0: 0882 4b1d 627a cd3f 6e9e 7e7c 9df1 e03f
00000400: 5f16 049f 5092 d83f 8202 e467 a250 e23f
00000410: 8666 80b2 6c46 bc3f 068e c3d8 05f3 d03f
00000420: 554d 145d 871e 803f dc10 1d58 d445 c13f
00000430: b414 e9c4 8b0e c0bf 75dc 1e39 3aae e4bf
00000440: 6d2f dbce 5f63 cdbf 19a2 e115 1f50 c3bf
00000450: b652 cb31 91d6 92bf e952 f226 37ef e63f
00000460: 4499 b9f5 131a e73f e7b9 1518 b215 a3bf
00000470: d9bc e6e8 c2df d83f 1f58 1801 9c9c a93f
00000480: fb18 8d3e 3498 a1bf 16a6 4145 a2f0 bebf
00000490: df35 d77a cb8b b03f e607 4de0 ebc5 b63f
000004a0: f0a7 6f92 c15e e13f 3f42 aadc 1f41 ce3f
000004b0: 5070 af29 c10a dfbf b647 808d bc2f f2bf
000004c0: f863 99a0 c481 d4bf 3b81 8edc a8f5 c03f
000004d0: 0f9e b990 839e e33f 951a 2272 0fa9 d03f
000004e0: ec53 600d c437 c9bf d286 3334 45fc ddbf
000004f0: d463 6f44 4bc1 dcbf 1946 a324 f606 c5bf
00000500: d8de 1fef 1e89 e73f e701 8ed2 d7fc d0bf
00000510: 98d8 cbd2 8153 6ebf fcf6 667c 355d de3f
00000520: ee80 a5ec 2091 dc3f 6ffd e822 fb77 e3bf
00000530: d758 2478 adbb bbbf acb5 ad90 f8bd e1bf
00000540: 4f8e e075 4aa2 a73f 92bc ba19 946f b0bf
00000550: b42f dac0 61b4 e0bf 861e ceb6 07cb d43f
00000560: 10dd 3d6c b923 d83f 8450 a1d4 2ce1 e43f
00000570: 1a5f 4921 ec1e b23f d2f4 f75f e2ee cd3f
00000580: 405a 6afc e52c d53f e436 f600 8b34 c2bf
00000590: a8ab f09b 34ab e23f d039 0903 acbd c1bf
000005a0: 4d08 c389 a7af b83f 8b52 76ac 221d a6bf
000005b0: 62f8 7b5a e8c3 e43f 7978 e1c8 ca97 d0bf
000005c0: 54cb 77c7 e1a8 ddbf cc89 0040 10a2 e3bf
000005d0: 0fbe a19e 05a2 d3bf 513c f916 1f5f d2bf
000005e0: e3d2 b7fb 3275 c1bf 4803 8494 9760 d3bf
000005f0: 9581 12fb 6437 d03f ce92 0b06 3547 a3bf
00000600: 9274 a9e7 4c35 993f 412c bb38 a979 c1bf
00000610: e39d b921 f887 d5bf 62da 2151 c6cd d4bf
00000620: 0b12 8828 86e4 d73f 1520 430b db7b bd3f
00000630: bf6a 6e83 8f40 b23f ffd1 838d 153f e8bf
00000640: 9816 9917 f22f d1bf 5c85 f884 8d51 bfbf
00000650: 6ade eb50 7074 d8bf 92a4 b9af b1aa d3bf
00000660: 15e5 6689 71c0 d3bf ead1 b5b9 0dd0 b4bf
00000670: 9056 0bcf 6f7e d9bf 8b7a 6b49 d1e8 b53f
00000680: 257c b03f 5828 dd3f ad79 b97f 2112 d23f
00000690: 9e44 0736 62b7 a83f 10b0 0649 78f9 d0bf
000006a0: ae1a d100 e164 e0bf 17d7 943f 506b db3f
000006b0: 159b a695 3dea 71bf c42b dcfb 94d9 d2bf
000006c0: 926f 5dbf 06a3 babf 48b4 e283 e0b9 cbbf
000006d0: 0ac2 d954 a257 d13f 1ec1 8bfc 5b6d d53f
000006e0: 658b b27e 0d90 e5bf 8506 cd42 9f2f dd3f
000006f0: 6028 d003 05aa d53f 784d 0bdd f913 babf
00000700: 8c77 892e cd14 e9bf e366 ad5d 0b61 d63f
00000710: fe24 46ac 4d80 de3f 2c0b db4c 8b46 e1bf
00000720: 4f1c 33d7 1976 bf3f 7d08 7458 a374 b5bf
00000730: 270d 10c6 2fad b3bf df69 84d3 aa5f d2bf
00000740: 4fd9 142f af3b d9bf 3af0 4425 7936 c4bf
00000750: af02 29de 56ab d0bf 9840 1ec0 3b77 bd3f
00000760: 19aa 71db a977 db3f ac0f fb41 d040 bb3f
00000770: 257d b544 ba1b bcbf e146 4af7 8f0b d33f
00000780: ff50 f8e1 ad39 a73f 4e10 cbee cdf4 db3f
00000790: fe10 6974 a65d e73f c77d dadf 3c3c cbbf
000007a0: 6f19 5b7b 0cd6 c13f 53d8 e3f5 e546 ca3f
000007b0: 8dfa bfed 65df e23f 3a7d 4db3 6e3c e4bf
000007c0: 47d0 0e4f d00a cf3f 9614 7306 ea62 db3f
000007d0: 6bd1 0133 87f0 c2bf bd05 5983 1a92 d53f
000007e0: fcd5 5e12 8cb9 c8bf 9907 09ee 965e ba3f
000007f0: 0fc6 4ef7 5351 e83f cda2 5d48 0287 bb3f
0.023967491197601918 -0.3036566313568113 0.24818670416560693 0.07573016088539994 0.8485582296024667 -0.20529629026278318 -0.7562793358934139 -0.5388016847244697
-0.5469467035504754 0.4912786392874689 0.19139827499507647 -0.4403427426752925 0.0435674682888416 0.03838594328462907 -0.36771024785587875 0.4859914437745074
-0.2927923779264942 -0.5738176004562565 -0.33698060790056805 0.4034503714301543 0.4013709019897869 0.3280981975851028 0.6696444257206784 -0.4445354961526597
-0.08048716604064586 -0.9735640160159195 0.1888490254535171 -0.748938733999132 -0.45819867383153956 0.32927162292665757 0.08316547693064809 -0.20293830478866445
0.5630068155559242 0.04960507697973644 -0.5066253515664529 -0.1936280995077528 0.07861719169521891 0.1218630275281399 -0.918760224632699 0.2597611900509858
0.5429785774884527 0.26430811939631255 0.34952560738860355 0.08927051960079839 -0.1421438784216824 -0.11153361213272323 -0.028300433020833588 -0.17846918917979304
0.06656661388476869 -0.24179391899136965 0.18076761027955765 -1.125413284680155 -0.7721437715581279 0.24846918829794473 -0.1664379042699251 -0.021096750705590115
0.2162525276313751 -0.3914093039489967 0.13988329285091208 0.262445605767738 -0.19097231993450123 -0.4259593839505097 -0.12226058353431633 0.04682254229758193
-0.09754072283999222 -0.45541725174570263 -0.5174799539449597 0.42942192387237016 0.4114214345614779 0.20906990944286014 0.5018339159178966 0.3837154364978664
-0.08085834547496193 -0.6519370156046742 0.5090321794084093 0.5842977969604557 0.07990455987975087 0.4018120631568655 -0.555807141202134 -0.006332000704356526
-0.45242334327992395 0.3292309902930805 -0.17148043704346738 -0.0462842225683767 0.027133774606189442 -0.55629369064664 -0.157776504061703 -0.6290684118557611
-0.3350069128845398 0.5611520387402573 0.44208264481241827 0.2608237447043461 0.6253861274287791 0.6502455200586613 0.22186618205341305 0.2922691471911117
0.06136774368789233 -0.15469845365347018 0.06768267537155967 0.5026249072449505 -0.22447691710244969 -0.2295609956866192 0.09254677261778332 0.6034340426060868
0.43561543970572814 -0.3979869604727981 -0.35770473535937114 -0.10118150012759537 0.11367665028339893 -0.21058817922632425 0.6310968226444134 -0.12527042372906666
-0.12214215664971641 -0.242452908460217 -0.1417643757401758 -0.40980573282772426 -0.23528777930473987 0.23265050887177222 -0.3821106043520641 -0.3700161840907769
0.12287101840897796 0.018746839455200715 -0.05382454457986112 0.3739936201090996 0.20864559269943017 -0.26634491076455696 0.23029734068315144 0.5294940406356099
0.3839303543939873 0.5723430661310689 0.11044959409664487 0.26483293693874577 0.007870728996329271 0.13494352629107353 -0.1254439078785815 -0.6462679973254938
-0.22959516144180317 -0.1508826119272875 -0.01839663378162256 0.716701103274855 0.7219333457294757 -0.03727489990238891 0.3886573099543518 0.05002295983665327
-0.034364349971427864 -0.12085928145247524 0.06463310002364818 0.08895754076095805 0.5428169117051294 0.2363624408212832 -0.4850314051707345 -1.136654427279138
-0.32042041476739724 0.13249693650596747 0.6130998446141706 0.26031862397977906 -0.19701433804644297 -0.4685223588731847 -0.449297730284852 -0.16427494801477918
0.735488383331325 -0.26543231546386753 -0.003701928674099863 0.47443902157452533 0.44635794744500756 -0.6083961183393692 -0.10833248313096831 -0.55443981416254
0.04616005600862804 -0.0642025530639663 -0.5220192686697289 0.3248919758993697 0.37718043871378004 0.6524871972019501 0.07078433811818421 0.2338526695820407
0.33086537980981134 -0.14222848460160897 0.5833991094308333 -0.13860082767719328 0.09643027413679413 -0.0431910357976096 0.6489145056982688 -0.2592646562315007
-0.46343273619929914 -0.6135331392327372 -0.3067640351427778 -0.28705575221551266 -0.13638913432045915 -0.3027705145214452 0.2533810092809515 -0.03765264223856023
0.024617387427828215 -0.13652529974055663 -0.33642390531028193 -0.32505948947019736 0.3733230014625241 0.11517113709408051 0.07129761656544086 -0.7577007068599072
-0.26855137161724363 -0.12233814712864927 -0.38210685636975106 -0.3072933403078163 -0.3086208192649605 -0.08129964622441546 -0.3983420869748011 0.08558376352764634
0.4555874464003316 0.2823566195783325 0.04827410611654524 -0.26522643214662 -0.5123143211320291 0.4284248944198778 -0.00437377983545308 -0.29453014941890054
-0.10405008480068847 -0.2166100162479856 0.2709737614268596 0.33479976332366046 -0.6738345598754277 0.4560316231109954 0.3385021722066366 -0.10186731001458849
-0.7837892445493124 0.349673120004452 0.47658101867325786 -0.5398613453947738 0.12289582733056757 -0.08381100568297657 -0.07686136804118303 -0.28708906799297823
-0.3942678413181015 -0.15791239089765147 -0.26045772261935957 0.11510060730347715 0.42917868070677084 0.10645772562844397 -0.10979808976616263 0.29758071088245514
0.04536193259642295 0.43681667632723 0.7301819108620575 -0.2127758114847735 0.1393447496722717 0.2052886438975202 0.5897702830842079 -0.632377004814692
0.242517508127664 0.4279122412666053 -0.147965335756122 0.3370424540226756 -0.19316244980807074 0.10300582229049694 0.7599277334431366 0.10752882258169479

layer1.bias f8 [80]
00000000: 267a 55f1 4f0a 843f 8bb0 1373 d7b0 b4bf
00000010: 6008 7d9b 001b b0bf dec0 12f5 ef53 d5bf
00000020: 6342 ed8a 4340 cebf a399 561e 45be bf3f
00000030: 90e7 d1ef 672a cf3f f775 a863 08c0 b93f
00000040: f849 0edb cf57 b1bf 3a74 886a 75ce dd3f
00000050: 4826 f539 1f45 d33f bb0f b853 6b67 d1bf
00000060: 3e92 205f 8245 d2bf 8f14 c900 1cf6 a8bf
00000070: e803 42f5 ab1f a8bf 8a11 42a8 58d2 e03f
00000080: 6113 0563 2a80 b6bf 6d1c cf7c 4f4d bebf
00000090: 5b40 4ae1 3498 723f eb1b 95e3 e737 d3bf
000000a0: 7f8b e72c b5c8 d03f ada1 f0f7 152f d73f
000000b0: 5a0c ccce a92d a5bf fca8 efe6 06fc c83f
000000c0: 8f77 62ed 065d a23f 4fae 6096 da86 a83f
000000d0: ad53 de0f 6411 c7bf ec54 4459 5c1f b43f
000000e0: 14b7 4e7f 951a 9f3f 95a9 9789 4b05 c43f
000000f0: 0878 5cec 316b d43f 93a6 7a1c 37b2 c2bf
00000100: 71bf 7dc8 528d 813f 07a8 a4b3 3286 c63f
00000110: 064e 2ab0 346e d93f 69bb f3d5 795c 9b3f
00000120: cc22 a8da 9e62 c93f 11c5 dcf9 f584 d7bf
00000130: c8b6 eee1 2dd3 d5bf 3ba1 3867 7fab d1bf
00000140: 206d a1f3 79a5 db3f cecb 9aa9 3b08 d33f
00000150: 2ef0 d91e d6cf c1bf ee52 7bbe 69a8 c8bf
00000160: 4ca9 9a18 445f c2bf 93cb bab1 4148 a6bf
00000170: 63cb bfcf b163 babf f297 3f05 3067 983f
00000180: 0c5e 369d 1293 ccbf 18f9 08e7 027d 953f
00000190: 8193 faae 6441 d83f 281e b83d 2438 c63f
000001a0: 7de8 8e45 25c4 e03f 52a7 3d67 6728 c3bf
000001b0: 37ab 5d7e 62a0 a0bf 6f6e 02e4 3e37 b03f
000001c0: fa4b d8d5 8a1f d13f 4d5f 3ff0 ce03 c1bf
000001d0: af4c 0a8d de36 923f b783 ba9e 7e28 8e3f
000001e0: 5185 89cd 71b8 b23f 7072 44e3 f1e0 9abf
000001f0: 714e 577c 3ecf a1bf cd4a e8de e9df e53f
00000200: 038b 7861 61c1 c03f dded 5213 71ab b2bf
00000210: 3868 d1e6 542c d23f 94ff c806 ae15 bcbf
00000220: e3ed 326b cc30 d13f 8ee2 3066 56e7 95bf
00000230: f500 a2be 76bb c3bf ac51 c3aa 2d9d c6bf
00000240: 523b 0052 e773 c33f 3ba2 2c38 0838 d93f
00000250: d5cd d6a6 8bd9 b53f 6ad9 c662 2be0 b5bf
00000260: cb9a e90f d4ca c63f f0e3 28c3 c456 bebf
00000270: 7a06 8fb6 d20c cbbf c52a 48d6 5062 da3f
0.009785294105936048 -0.08082338866705834 -0.06291202350715386 -0.3332481282514105 -0.23633617671522975 0.12399703970604618 0.24348162851293553 0.10058643754060613
-0.06774615381281268 0.4657262363778646 0.3010938707344377 -0.2719372098510992 -0.28549250879067134 -0.04875266561115509 -0.04711663597937116 0.5256770407000186
-0.08789315144993061 -0.11836716458411596 0.004539686739590899 -0.3002872202382025 0.26225022683336613 0.3622488900459995 -0.04136400842073647 0.19519125248127256
0.03586599014054947 0.04790385327973167 -0.1802182271464096 0.07860352687233146 0.030374847312194822 0.15641159265881002 0.3190426643576534 -0.14606369867879163
0.008570334189897473 0.17597039958610614 0.3973514290202903 0.026719955142591987 0.19832215954399712 -0.3674902858793568 -0.3410143572208253 -0.2760923870105391
0.43197487632797227 0.2973775059028271 -0.13915516382610477 -0.19263955880037237 -0.14353228761076264 -0.04352002424766179 -0.10308371850969204 0.02383112937959448
-0.2232383029593027 0.020984692908535413 0.378991289975879 0.17358830464967068 0.5239435537871625 -0.14967052975708356 -0.03247363846352019 0.06334298197401166
0.2675501907662575 -0.1329287217220049 0.01778743491975082 0.01472567483807717 0.07312690036771598 -0.026248721596049795 -0.03478427188715905 0.6835831979427326
0.13090150126762276 -0.07292849275375297 0.2839557890016553 -0.10970580735829422 0.2686034247269317 -0.021390295016518616 -0.15415844257586966 -0.17667170370135687
0.15197459701490829 0.3940449284150735 0.08535073111743625 -0.08545180474798078 0.17806483056047848 -0.11851148380891607 -0.21132882989882146 0.41225071836440136

layer2.weight f8 [80, 80]
00000000: badc a8ea 18fa 963f 918f 2b51 c9ac aabf
00000010: d353 f2aa 019b e0bf 9377 433f ae38 ac3f
00000020: 7fea 8fe5 0e4f d5bf 3ed2 a303 cb2f dd3f
00000030: 30ef 5ab0 bf9e d43f 234d af01 8f37 b7bf
00000040: 2532 ff92 5f15 cc3f edb1 7e57 30b2 ce3f
00000050: ea8d 8718 bbe9 db3f 1a45 4a5b 649a babf
00000060: cb13 75e1 ec34 b13f ac05 fee8 956c cdbf
00000070: 35be e64a 281f bc3f 8c86 cc75 c4c5 d23f
00000080: b994 e299 0f94 cbbf e7c8 7b93 ae32 d6bf
00000090: 71dc b9c8 6ea3 e13f 7382 02e8 484a aebf
000000a0: 2b9d 8014 b0ed cd3f 5eca d1c2 24e4 d33f
000000b0: 7460 1048 7bfa e63f 59e0 f4fa 2864 9bbf
000000c0: 9122 ec97 41e3 df3f b510 481f 0de4 d33f
000000d0: 04db 6f5e 3f70 573f 276d 6413 107b d53f
000000e0: 58c1 8a7d b441 ad3f d0cd b749 c93b cd3f
000000f0: 93ad d0cb e891 da3f 8286 2be6 9a67 c03f
00000100: d644 f911 4f7f cbbf 472c 8df0 76d9 c4bf
00000110: 9ad2 9e56 0f56 c13f ef19 e6c1 f384 adbf
00000120: 15d0 64a3 ea46 d43f 7fb1 d879 bf25 bdbf
00000130: e11d e433 1b49 d2bf 0156 20a6 03f0 9bbf
00000140: 155a 3909 2fc2 c43f aaec 85f1 ce2f cc3f
00000150: bd35 1391 aacd cebf 3a3a 0f9c 0329 b23f
00000160: d27c b351 b359 d83f de57 1a33 a6d8 dbbf
00000170: 6342 d519 cc56 b23f 69fd 6f1a b6e4 c9bf
00000180: 2545 2a73 e7cf d23f e6f0 3c5f 4648 cbbf
00000190: a08d 9cbe d61a a93f f6cb 787c 9d80 d43f
000001a0: f7be ef78 8335 ca3f f4c4 c5e7 4a68 e2bf
000001b0: 7b8d 7d5b 1184 c43f f3ef 10c5 7232 d13f
000001c0: 3262 7988 2f28 d33f 7934 c7b8 176d bf3f
000001d0: 18c8 cceb eb74 ce3f 1480 67a4 4853 b5bf
000001e0: 4efc fa26 b703 c1bf bed4 db0a cef7 d5bf
000001f0: 7af8 991d 32c6 d33f e588 e4d4 297a d13f
00000200: de43 14d0 13b3 d83f e5c8 8a5a 1962 d83f
00000210: 7814 ffc9 85b8 b13f 48dc 855d 1bee e13f
00000220: 96e1 259f 3b21 ce3f 7a62 99b6 e299 d13f
00000230: 6433 63a3 ce86 b6bf 53f6 3c7e 8647 e4bf
00000240: a476 1dc8 44ed e33f aced ba57 e8fc ddbf
00000250: 4b0a a7e6 abf4 c13f 7ced fc27 8d62 c93f
00000260: 7228 4bbd 3e63 bd3f 1365 f21a 2776 b43f
00000270: 358f 4669 af75 b2bf c971 49dc 2d8d e8bf
00000280: 7093 2e52 693e c7bf 614a 5b3e 92f9 d8bf
00000290: 503e b7d1 8d2b a9bf 3934 1af0 fcc0 c0bf
000002a0: 0509 de4b ba50 c33f 36bd 0c63 4ace da3f
000002b0: 3e44 1566 9354 ad3f d258 62b3 f6d4 b33f
000002c0: 4d23 4227 7f6f d3bf 73fb 3ee6 4256 c93f
000002d0: f6a1 c94b ffc4 a43f 0b70 94ee c817 993f
000002e0: 71d8 cfed a753 b83f b00d 361e b8b3 c33f
000002f0: f7a6 cbb4 36d6 ccbf c45e 544a bb64 be3f
00000300: 3f7f 659e 4cb9 ba3f e861 9b12 6580 b33f
00000310: a92f c4e1 0fda b13f d43d 1712 ff3f bcbf
00000320: c774 c6fe 5ed0 d03f a336 6d1a d5fa d7bf
00000330: 6235 1efe 02d1 e0bf b3cc 0a8e 2e6a c93f
00000340: a7d7 7deb 2d27 ddbf f2ed 01cc daee c8bf
00000350: e5a0 19ca 101d b23f b86b dab4 28e5 c8bf
00000360: c533 1450 5d27 d3bf 8dfc b571 0709 da3f
00000370: 7b1c f491 6d0c 9abf 7267 eb20 550c 85bf
00000380: 7bfc df29 470a d53f d3a6 8bd3 107f d33f
00000390: 0f92 1485 d0ab d83f 04bf 3daf 95e4 853f
000003a0: 23e0 b35d f73f c3bf f731 1d2f 6d36 b83f
000003b0: ab3b 152a a8fa 833f 10ef 4ee6 0c28 a73f
000003c0: 3c7d daa2 3d45 cc3f 3b15 af93 b741 cf3f
000003d0: 666e 6965 ae81 aabf 9a82 dce1 f88b e2bf
000003e0: 97ee b9e5 e741 d0bf 97b5 65d3 565d c6bf
000003f0: 5f61 3284 c188 b0bf 1c00 f63d f728 a63f
00000400: c8a3 d985 7274 cfbf 134b dd09 c569 b43f
00000410: 4a54 96c7 650b d43f fc38 3ddb 79b0 dd3f
00000420: 3eb7 183f b528 b43f f6b2 b92c 56b9 d43f
00000430: 9d0f 67ad d377 a83f f1ae b724 aa5f e3bf
00000440: 0d87 83f9 6c98 d33f d87b 5888 8584 c0bf
00000450: a8cc c35c 21a2 96bf 53ff 5347 d9ab cabf
00000460: 8f98 785e 793b abbf 40ab ddbd fc68 d43f
00000470: 12dd 968f 1374 c5bf 0940 e6a2 64c8 d9bf
00000480: 7fc8 38bb 6ecf df3f d1e9 89a0 97f1 b2bf
00000490: 0ec9 9e75 99cf ca3f ab39 e303 3802 e4bf
000004a0: c8cb 69c4 328f d73f e106 01dd 3de3 c9bf
000004b0: 1c24 6491 9f18 723f c323 ca5b 9344 c8bf
000004c0: 2791 a739 45f2 95bf 9b39 3975 6835 e23f
000004d0: 61a6 13eb 6ce0 d23f 80e6 664c 230b d9bf
000004e0: 11c8 5344 c7c5 c53f f28a 4dcc 79d7 c0bf
000004f0: ff6c df60 b552 c03f 5e0d f6c0 397d e63f
00000500: 9175 5410 8635 bd3f eed6 c31b 8bc2 c4bf
00000510: e4db 7f12 80db ddbf f128 1f56 097a c83f
00000520: 7736 16f7 4390 d03f ca9d 7b20 70f4 e1bf
00000530: 3ed5 53dc b5f5 c8bf 688b 6d43 46e8 c03f
00000540: 9d28 be84 f9c7 cabf 3509 16f7 d832 b6bf
00000550: f682 8861 8015 a5bf e9dc d2df 1080 d0bf
00000560: 7296 8218 62c2 cf3f 8a53 c1db 2366 c83f
00000570: b8f9 cbd1 5b53 bdbf 4261 63a2 8d93 d03f
00000580: e808 92ee a307 c43f 9d2e f0e5 f98c bb3f
00000590: 414b 27a3 2c77 cc3f 6c0b bb6d ce7d bb3f
000005a0: 0247 d2ca 095a d33f a3af cde8 8a02 e53f
000005b0: f90b 5218 82b3 ccbf c4db 2f2d 5ead cb3f
000005c0: 4481 2568 3ba7 d0bf e963 1e06 caa5 ccbf
000005d0: d539 6c09 7fc4 b43f c554 3605 4c42 c1bf
000005e0: 5c6c 1d21 2e91 d3bf ecc4 f75f 07fb bcbf
000005f0: c7f0 ade2 300b d23f aaf4 6a5d 35e1 d1bf
00000600: 1d3d 9383 a77b d9bf cf53 cf80 e9ce d2bf
00000610: 7e46 8897 4e01 d63f 6edf a5b3 7e8a cb3f
00000620: a6bd 45f9 b100 c33f 6a1b 7304 51e3 a63f
00000630: ba99 a1de 40ac 993f 5aa1 87d0 25d0 99bf
00000640: 0e1e b86b e508 a53f 4892 a2c3 c095 ba3f
00000650: 76a8 7050 3ffe a8bf a0e6 2c87 9e7d c7bf
00000660: bbb5 253d 7a11 bdbf 7772 e9e8 4a05 aa3f
00000670: 04ac 3b3c b66d b73f 1292 0691 feb2 ccbf
00000680: 03e1 9aea be47 903f 0851 9d76 e762 b13f
00000690: f825 3f0a 1bf3 e4bf 2330 835f 2373 98bf
000006a0: a78a e66b 3329 b4bf 2a82 0d61 a412 5f3f
000006b0: 77a7 1388 70df d53f 48b8 e28c 4a23 ccbf
000006c0: 5de4 2364 8caf d53f b2ef 8972 6d95 bcbf
000006d0: 0487 cf20 18fa 84bf 844c b1ad 4628 8ebf
000006e0: 172a c32b 265f c5bf bacb e0aa 042c b6bf
000006f0: e885 fbc1 567a 99bf 7a47 ceb4 3425 e33f
00000700: c628 c063 42bc c9bf ab78 cab5 f648 c9bf
00000710: a36c c1d9 b5af d5bf 4d6f dd7c 62eb 793f
00000720: bbb2 b8d1 1d72 be3f 34f5 545f 96f1 dd3f
00000730: e3e9 2369 70d4 c6bf df6b d9ca 114d 88bf
00000740: fa6f 61e8 eed3 bf3f dd61 d329 2dbc e6bf
00000750: 4f56 7c6c c295 c93f 3922 5e12 44ad c5bf
00000760: d6dd 69ec 6f8f a73f 0e5d 42a0 a990 d5bf
00000770: 349d 03d1 97fb adbf e2bf 7211 7ae0 e7bf
00000780: 03a4 f0fd 308d b03f 44de 620e b717 d63f
00000790: 658e 2de0 3793 dd3f b3de da7e 664f dd3f
000007a0: ff03 eb90 33f7 de3f b330 eaef 9826 d03f
000007b0: 7001 feba 1983 bebf 3586 c03a bb2f c43f
000007c0: 479d 349a fbe2 c5bf 54fe 652b 1cfb b3bf
000007d0: d910 ff5b 9327 c53f e80c 13c1 6118 e83f
000007e0: 3f37 b42f ec73 95bf 0634 e5a5 1e90 bf3f
000007f0: a29f be8e 57b2 b73f 369d ada0 3d89 d3bf
0.022438420603262378 -0.052099505575625156 -0.5189216936874977 0.05511993906269121 -0.33295032900029037 0.4560420547052536 0.3221892568796987 -0.09069150725490664
0.21940226247387887 0.23981289169513734 0.43614079852542764 -0.10391833523523922 0.06721382622079301 -0.22987626911712533 0.10985042408605568 0.29332076553155484
-0.21545596136016856 -0.3468433800000085 0.5512002869062497 -0.0591604979720203 0.23381615639775907 0.3107997801336405 0.7180763633250664 -0.02674926788060392
0.4982456191651546 0.31079414419970003 0.0014305704914911463 0.33563615697649357 0.057141914677574845 0.22838703250418613 0.41515560058425044 0.12816177595873418
-0.21482265832540887 -0.16288649316479306 0.1354388401938607 -0.05765496961526028 0.31682840305734433 -0.11385723805205393 -0.2857120520352208 -0.027282769217057638
0.16217601728813294 0.2202089957534999 -0.24065143665067792 0.07093832550092652 0.38047488192200973 -0.4350982188274183 0.0716369212216335 -0.20229221621410012
0.29393945929139625 -0.2131431546239419 0.04903288914490678 0.3203500476403741 0.20475810437300598 -0.5752310301596979 0.16028038947397846 0.2687041210626823
0.2993277390246788 0.12275837193665663 0.23794316304844254 -0.08330205930496987 -0.1329258861860318 -0.3432498079340113 0.30897190943495156 0.27308126249603354
0.3859300167105725 0.3809874901009052 0.06922184163620837 0.5603157831782335 0.23538918753525867 0.2750174315638457 -0.0879944943328162 -0.6337311235035464
0.6227134617326624 -0.46856125419045713 0.14027928125695363 0.19832004978693962 0.11479560967851102 0.07992786796457478 -0.07210823364453918 -0.7672337820509308
-0.1815921450880995 -0.3902326210929115 -0.04916041550643213 -0.13088952754734054 0.15090111450633273 0.418840977409633 0.057285886966049734 0.077468317789996
-0.30368021806548456 0.19794498674852043 0.04056546974317492 0.02450479465652226 0.0950264888377619 0.15392209506181365 -0.22528728320985866 0.11872454228102486
0.10438994280911816 0.07617789940139341 0.06973361265062174 -0.11035150710744485 0.2627179611243488 -0.3746845968315517 -0.5255141223184803 0.1985529130521165
-0.45551631924842656 -0.19478926621728437 0.0707560056122279 -0.19449337797854382 -0.2992776186009077 0.40680109123781777 -0.025438034089372934 -0.010277428691029409
0.328752318280699 0.30463047655812864 0.38548672672394074 0.010689896974980247 -0.15038959575008545 0.09458048248524863 0.009755433830518209 0.045227435220537626
0.22086306049184568 0.24419302664879602 -0.05177063930451879 -0.5795864497523155 -0.2540225737973087 -0.1747234852040662 -0.06458672978840728 0.043281294168082435
-0.24574119125034444 0.07973891726332409 0.31319565287532625 0.46389624033044163 0.07874615469401378 0.3238120495578153 0.04778920642595994 -0.6054278103960923
0.30617832533435846 -0.12904423863889636 -0.02210285309497509 -0.20836940748994923 -0.053188126356233593 0.3189079145583271 -0.16760487090298476 -0.40285602481981236
0.49703567775134866 -0.07399890584375803 0.2094604324643758 -0.6252708507470762 0.3681151311968134 -0.20224736491404996 0.004418013870471273 -0.18959276182093107
-0.021432000774340623 0.5690195359728024 0.294947843138834 -0.39130480252388367 0.17009821735661082 -0.1315757987568627 0.12752406339755137 0.7027863281986517
0.11409795664481794 -0.16218699317658242 -0.4665222340258295 0.19122425751840624 0.25880526666228526 -0.561088622515791 -0.1949984861200082 0.1320884541738352
-0.20922774297315963 -0.08671337158560706 -0.041179668336786365 -0.25781652314931464 0.24811960408003447 0.19061706762536473 -0.11455320236198119 0.2590059362242024
0.1564831652540939 0.1076198755619608 0.22238691297988036 0.10738840273829248 0.3023704987218566 0.6565603777830699 -0.2242281550171297 0.21622826773065473
-0.26020703478390694 -0.22380948351636157 0.08112329464004316 -0.13483572248939005 -0.3057360957515749 -0.11320539563145687 0.2819330419222407 -0.27937063334304446
-0.3981722626603686 -0.2938789136799728 0.34382977293089556 0.21516402980682464 0.14845871612076883 0.04470303706471308 0.025071157062848327 -0.025208083012246398
0.04108349742824312 0.10384754921194272 -0.04881475312170462 -0.18352109527932203 -0.1135479354176913 0.050821629459027066 0.09151782007727155 -0.2242124755986344
0.015898688382294256 0.06791540761816262 -0.6546759796266874 -0.023876717285745152 -0.07875367531100129 0.001896534468151976 0.34176266945598094 -0.21982700232678298
0.3388396242076562 -0.11165508314473874 -0.01024264192705316 -0.014725258041073504 -0.16696622025331528 -0.08660916492298912 -0.024880748357537202 0.5982917338717322
-0.20105771895061347 -0.19753917576321575 -0.3388495089072398 0.006327995984829316 0.11892877931741001 0.4678703242278346 -0.17835812696269135 -0.01186574840828841
0.12432759450297218 -0.7104707543285788 0.19988279626038483 -0.1693501558004458 0.04601621399791227 -0.3369545044929091 -0.058560127510470045 -0.7461519566331811
0.06465440940577598 0.34519745259192214 0.4621104897725899 0.4579712141817069 0.48383797790671673 0.25235579899959787 -0.11918793502082337 0.15770664566757522
-0.17098946599547046 -0.07805038508922141 0.16527025215157812 0.7529763003334695 -0.020950022136325016 0.12329284238985858 0.09256503329254298 -0.30525150958279157

layer2.bias f8 [80]
00000000: f500 2a24 4bae d53f 2a87 7199 0182 c33f
00000010: 3945 e1a2 084d 963f e412 8c1a 431b cfbf
00000020: 055b 3b3f 56ee c3bf c655 347d 9cd1 d33f
00000030: bc47 5886 44e8 a23f 7192 3084 9ece d23f
00000040: ce55 75b3 5ea9 b8bf aabf 2586 c3db b8bf
00000050: 6bf7 c918 972d d03f 63b5 5004 719c cb3f
00000060: c5d2 86ba 0e25 ca3f 3352 8664 8990 c2bf
00000070: 2300 c947 fa84 c6bf e92b c209 e226 c2bf
00000080: c685 cfd6 a35f c2bf d049 400b 987b a4bf
00000090: a669 42f4 0794 c13f 5e3b caa3 2589 c1bf
000000a0: 2f48 3c52 7cb2 a8bf b081 7058 92bf b03f
000000b0: ced9 0183 c834 b53f a52d e6ae 2101 d13f
000000c0: d860 e800 875c ab3f 2830 de68 dc7a cbbf
000000d0: 2498 38ad 7dbf 9ebf d91d d8c4 68f8 a13f
000000e0: f5bc 76b9 e51c 70bf e578 dcae 2be4 c33f
000000f0: 0014 840c c7fa d03f 8c6f 1b9d 59c3 d13f
00000100: 11e6 607c ca74 aabf b2a6 5fc8 8972 983f
00000110: 8d16 6046 8a66 a8bf d4a7 bb06 6836 d53f
00000120: 2f21 46ec 166f b4bf 4362 7757 ade6 8fbf
00000130: ac2e f1c1 b913 abbf 76e5 c447 ebc6 acbf
00000140: 06a8 4e1d 55b9 d93f 938e 8145 eca3 bebf
00000150: 362d 32ad b2d6 c6bf 3b44 475c dfcb 8e3f
00000160: 1fb9 1e06 48fe de3f 330b bf9d d66a d93f
00000170: 72b6 c31a 227a ccbf 9c8a 5f35 a4f0 bcbf
00000180: ee7a cf57 0c6b c5bf 036c fc21 e082 c53f
00000190: f1fe b6bd 7c14 c73f 0265 c809 93ab cc3f
000001a0: 94c1 1733 9f60 b43f 0a9a 1614 40a3 d53f
000001b0: e039 0ce1 0d6d c23f 9b66 44de ea32 823f
000001c0: acd5 7437 1750 a8bf 75a4 a169 fd20 b5bf
000001d0: 4345 5368 40dc ce3f 06f1 f45c aecc 723f
000001e0: 6e08 f24c e42d c7bf 1ab2 ce46 6c1a a73f
000001f0: 097d c455 1bd1 c6bf b9e5 6cc4 838e c13f
00000200: e730 4ee3 d3d3 c0bf 36c1 5218 090e 6cbf
00000210: 416d 1e05 ca98 d0bf 067e dfaa 361f d4bf
00000220: 735c aba1 6609 793f 7239 fa01 7c82 bfbf
00000230: e883 06d8 9d20 aabf 2e50 6536 5896 be3f
00000240: 6bfd 9b40 3493 57bf c703 e17b 3ac2 c0bf
00000250: fe08 991f 85df c9bf 589d fbb6 bc4c c03f
00000260: 01a9 e33b 76ed c0bf 6534 7b86 ceb3 d83f
00000270: e7af 0d06 6d4d b73f 5089 1f6b 9cbf d03f
0.338763032261354 0.1524049758182227 0.021778235379604303 -0.24301947399376111 -0.15571096503727958 0.3096686575603055 0.03692831172897068 0.29386103543428194
-0.09633437997157232 -0.09710332894405718 0.2527826063231859 0.21571171484667237 0.20425590617892034 -0.14503590973312583 -0.17593315606245694 -0.141811613812336
-0.14354370106506859 -0.04000544679015017 0.13733004976968494 -0.1369978952174859 -0.04823673728800803 0.0654231515804955 0.08283665846270269 0.2656940658568721
0.05344030271607075 -0.21468691940788287 -0.030027354905676998 0.035098337200959846 -0.00393380867119152 0.15540071523805135 0.2653062460161095 0.27754822103974486
-0.05167229431431165 0.023874428610645544 -0.047657319155445334 0.33144570024034903 -0.07982009189993698 -0.015576700431595763 -0.052884869503569604 -0.05620513201797454
0.4019367967799784 -0.11968876549650025 -0.17842706162296346 0.01503729343758852 0.48427010152490085 0.39714589505108505 -0.22247721011028748 -0.11304689696366171
-0.16732935226078588 0.16805650386308466 0.18031272185725514 0.22398603418040613 0.07959933278448822 0.33808900796648855 0.1439530705324179 0.008886179836326938
-0.04748604347188787 -0.08253463581935867 0.24109654516227338 0.0045897303637583205 -0.18108800656415575 0.045123466151697225 -0.17825643241756264 0.1371617039783766
-0.13146446799181108 -0.0034246614109962005 -0.25932550907028334 -0.31440512358491934 0.006112481026057204 -0.12308478401448555 -0.05103009473828718 0.11948157623311381
-0.0014389047886992034 -0.13092738198068174 -0.20213378947125443 0.12734183249197417 -0.13224676059991938 0.3859745324414859 0.09102517507352524 0.261695007908334

layer4.weight f8 [11, 80]
00000000: 695e 6ef2 19a0 e8bf 5f54 8edc 1ed8 843f
00000010: ba84 0608 d279 c0bf 254c be93 3576 d93f
00000020: 2109 5035 9f2c e93f 6128 3220 ffc8 c3bf
00000030: 3473 4cc6 0d71 c83f 8939 2b56 337b bbbf
00000040: 9e80 0e60 c314 e03f f66a d9d6 47f5 c0bf
00000050: 6b95 a7f9 c05d d8bf 8d4a 6bdc c6b2 edbf
00000060: bab2 637b 50c0 d9bf 983c d6e0 38eb db3f
00000070: 7e5d d4c8 0734 e0bf 6453 469f b5ac dd3f
00000080: 452a 4cca e161 c03f 378a 9638 e04a d3bf
00000090: 3729 9a19 6a95 b13f b957 d1b5 de39 c03f
000000a0: c8ab af47 fae2 c5bf 2960 f1b6 4533 e4bf
000000b0: 8b30 d869 a1f6 c53f 8970 3698 855f d9bf
000000c0: b59f fc97 964f d1bf df61 90d3 b80f babf
000000d0: fb72 4a12 c48d c0bf b3d6 34e2 7ad4 edbf
000000e0: 2d0b 0430 f466 96bf ad26 cb04 eb23 d4bf
000000f0: 0e64 c09b 73eb dcbf 2200 8aef 3460 b33f
00000100: 6b07 cf2a 2249 ccbf aadb ab21 f7da cebf
00000110: ccf6 7c62 4a52 b5bf 037b 6dcd 9a13 e1bf
00000120: 0c5f aef0 d266 c93f 70a7 cfa1 2dae d83f
00000130: aa44 f5a7 a406 d33f 8553 a8c9 2df4 9abf
00000140: 9b13 6787 3831 d3bf 0d75 4876 1a9c d03f
00000150: 8b1e d1d1 7a1d d63f 4a95 19be c326 c83f
00000160: 9def 2548 f839 debf 2121 4320 a297 e9bf
00000170: 03a5 4a29 f16a d73f 23ad c30e 312b b0bf
00000180: 594f 97ca d194 d23f c7a4 af4e 280b a3bf
00000190: 1a2c 838f 8ac0 dabf c3d6 8c0c 0040 e2bf
000001a0: 21e1 d93e ef70 ae3f 2a39 1a18 e94f e4bf
000001b0: d7a9 4388 5052 b63f 772e 72b7 9ff4 c2bf
000001c0: 0e34 8af5 c1d3 ab3f 1ce2 9df4 eac0 cd3f
000001d0: 3b1c c33e 30b1 d7bf 71af 8487 d2ad e0bf
000001e0: 78f6 18c7 c859 c83f b024 f9b1 6952 b5bf
000001f0: 2965 9077 7cd8 b63f b06e 695d 4b2a d8bf
00000200: ff93 c98e 9317 b23f 2f68 3a85 07cf c4bf
00000210: adf0 100d 14cb cd3f 1dd0 686e 7134 d23f
00000220: 8c1c c193 db54 c33f 6743 8f96 2197 c9bf
00000230: bc9f 5944 be82 b63f 70fe 2a8d d576 c03f
00000240: 4814 859d 473a 9fbf 1cc7 4a59 e1c8 c8bf
00000250: 5aa7 e072 4eda bb3f b093 b217 e77e c0bf
00000260: 664c 5823 5955 b3bf 12d9 fa08 2987 d33f
00000270: f1a0 90bf a133 bd3f 2571 ca1a 47d2 d5bf
00000280: d737 c01b c2e8 d1bf b0ff df92 ec55 d13f
00000290: cb35 3d93 7367 babf a08a 1eca 1fc0 c73f
000002a0: 27c2 5350 b60c e2bf 30ff 78e4 a02d d4bf
000002b0: 8aa8 6096 a3b7 cdbf 2d76 0b48 505a ba3f
000002c0: 88b6 6679 2a6a a03f d7ef 5d1c ab27 c2bf
000002d0: c3f1 2051 fa6c e2bf 9468 c49c 399b cf3f
000002e0: 1d1b 9bfa bd84 a63f 36bf 7d54 2b11 d23f
000002f0: 4362 1207 4ae9 a4bf 5cf7 c7bc 7d42 ba3f
00000300: 1bc8 5611 f367 af3f 194c e279 b08f d5bf
00000310: 59a8 df96 be28 7d3f 3906 54f9 5d2d c2bf
00000320: b31d 8cad 550c 9cbf 70cc fbc1 5b2f ca3f
00000330: a550 c347 535e bf3f 65e0 61b0 a479 d2bf
00000340: e75c a6c1 df5a d6bf ea7c c254 e9d4 b83f
00000350: e576 1cb2 4967 853f e972 83a3 5af4 d43f
00000360: dbb8 2130 2f85 b43f b9f9 2be6 4fb2 d7bf
00000370: 9d2c abc4 9c2f c1bf f0e7 d70e 08f8 cabf
00000380: 0702 e1d6 68f7 edbf 8b38 54f3 0d60 d8bf
00000390: 11e7 f7ad 1cd3 c93f 2cbd 8c4f 370b bebf
000003a0: a2b7 7ad4 4db7 d53f c5d2 713e d928 dbbf
000003b0: f5e7 f10a b218 d43f 66d3 77a7 5b30 d1bf
000003c0: 4ac7 a949 49e0 c43f d055 e260 2751 ca3f
000003d0: a23d 9b41 5afd bd3f 46cc 52e2 5cd3 b73f
000003e0: 23ed 895c 3bf8 acbf 2985 f1d0 1a0e d33f
000003f0: c4f8 8e17 1eaa c73f ff35 fa63 b7ec d9bf
00000400: 28ce a8d5 bcbe b03f 6404 54bf 380c efbf
00000410: 13f3 aab4 e7d6 e3bf 2392 6808 6dd8 c7bf
00000420: 715a 3b38 0a43 ce3f 2ebe 0a7f c999 d3bf
00000430: b28e 1b8e d4fa d6bf 0e23 d46a 9878 acbf
00000440: 67f3 00c8 ffe4 c5bf c770 c2ee 3263 b63f
00000450: c515 25f1 a551 d8bf 96ca 8dbe 147b cb3f
00000460: f99f ebdf bb3d ca3f 5a04 03d0 6d35 cc3f
00000470: 5711 33af 76dd dabf a725 02da 43f4 863f
00000480: bbb7 9ae4 6f9e dd3f d0f2 dd34 15f6 e5bf
00000490: 7966 cbe4 734d d1bf be9e e10c e512 c83f
000004a0: 3179 08b3 77b6 be3f 8a2c 8a3c 6f8f d2bf
000004b0: a3d4 4c7c 8b3f cb3f b1b2 9ed0 5645 c73f
000004c0: 5a37 c69e 0ee6 d4bf 4519 cac9 3797 a5bf
000004d0: e1a4 1ac3 06dd e3bf 4664 d24e f06c cdbf
000004e0: bffb b7a6 710a c4bf 2fff f6f2 0d15 cc3f
000004f0: 1658 6ada e196 c9bf a84f 50f0 766e b63f
00000500: 68ab b6f5 5e0f dbbf 459d 0d3b 9b5b d43f
00000510: 361d b9d4 f9a4 b73f 2fb0 976d b1a7 e4bf
00000520: 029e 7771 6bc5 c13f 5cd2 f161 5977 d83f
00000530: c7fe 0496 77a4 993f 5b11 fa71 590b bdbf
00000540: fcb1 1566 ea90 a13f 233d 8534 eacc a13f
00000550: af1e 4caf 3035 ce3f 3dea 890e 1ce0 b8bf
00000560: 9d39 11e2 3c87 d1bf 0960 0c34 fe92 cabf
00000570: c73d 66cc 8af4 d0bf 292a f5a3 d4ea c6bf
00000580: 957f 3226 07ff d4bf e375 6eae 413f eebf
00000590: f2a3 7c37 6d65 db3f 6104 62c0 f153 cbbf
000005a0: cb74 a585 a73e c23f bded 0620 0fde e6bf
000005b0: b978 a65a b18b d4bf bfff 4f7e c4b4 d3bf
000005c0: f37d 64ab c1be d0bf 0f71 4a6b e863 d1bf
000005d0: 3e6f 3160 7b8d c53f 07c2 2fa7 1a76 e0bf
000005e0: 7917 0319 45ee c1bf 7464 d4fe 9ead e3bf
000005f0: b39f a6f9 e98e a7bf 4fa0 93e3 c6cd 38bf
00000600: ffb8 74ae fa7e da3f 7e95 13db 074a ddbf
00000610: f691 23b4 b584 abbf 9562 e170 7931 d13f
00000620: 7e26 c22c 2508 b73f 8754 119d 40bc b4bf
00000630: 0792 27d3 3f23 a33f 0f81 9e70 d878 acbf
00000640: 7494 acba efe4 c13f 9ee8 d122 fa4f c63f
00000650: f174 e6a2 4b37 e5bf 907e 24a6 b257 c7bf
00000660: 8e47 3059 5984 d03f 529d 9792 5b85 bb3f
00000670: ea0c 162e dd36 d13f 31b4 e4cc 3544 ab3f
00000680: 8001 4352 1f63 dabf 97b0 4790 80ed f2bf
00000690: 7dc5 68c1 a4be cebf 81fd 6ac9 ca3a db3f
000006a0: 3d66 1384 dd44 95bf 6747 1c0c 6795 e5bf
000006b0: bdc7 8330 8319 dd3f 8772 fd97 c9ea d8bf
000006c0: c1c4 d378 ec8a a6bf f6f6 775f 554a d13f
000006d0: 7601 e734 771c e8bf 8b21 7e03 8cb3 de3f
000006e0: 2ea1 c35f 160f cbbf 493c f35e 0e3c b0bf
000006f0: ecdf b1e6 760c e2bf 4411 1bc6 0b42 e1bf
00000700: c254 a70b ae6a adbf ebf1 c332 baf7 d73f
00000710: 1d1a 88e0 00e3 91bf eb02 5d9f 8692 e3bf
00000720: 04b1 a426 a30d 88bf 879a d392 6fb4 c8bf
00000730: 7806 3824 1f18 c53f 5f69 b687 58ec 99bf
00000740: e908 a4d1 2b81 d73f e4c9 7bf9 fd18 d6bf
00000750: 8580 cd3f 4c36 e1bf d379 48ea 4f63 c5bf
00000760: 2b10 a795 d7f8 bb3f ede8 b5fc c288 d43f
00000770: 0510 630b f388 a43f 31d8 0565 e99d e6bf
00000780: 48fc fe5a 7854 c53f ba3e a3d3 6650 a1bf
00000790: a700 bd67 2177 d23f 3089 326e af26 ccbf
000007a0: f320 e7e1 38ad d73f ef22 f4b1 2232 b83f
000007b0: d7f7 576f 507b db3f fb25 51f5 b0cb ca3f
000007c0: 42ed b1bf 4ce6 eabf a472 888f c655 c2bf
000007d0: 5f6c ff8a ca2d e5bf 1866 4fa7 fb4d c53f
000007e0: 689d 7ac1 c83b b2bf e297 8b9d 9d0c d0bf
000007f0: cd11 2cfb c4b5 e2bf 4e73 e202 12ba ca3f
-0.7695436224921198 0.010177842241129107 -0.12871766464107798 0.3978399222189089 0.7866970101606833 -0.15457142898623302 0.1909501283888858 -0.10734864095431908
0.5025345684153029 -0.1324853705471793 -0.3807222784074244 -0.9280733399449034 -0.40236293840170456 0.43623182255482496 -0.5063513681842975 0.4636663489739503
0.1279871213703975 -0.3014450600259439 0.06868613362363339 0.12676605108089037 -0.17098930836013282 -0.631258828459072 0.17158906620204947 -0.3964551912738519
-0.27048268167936423 -0.10180239834915693 -0.12932635205370233 -0.9321875017255564 -0.021877112799312193 -0.3146922632991885 -0.45187082491025954 0.0756867489635629
-0.2209818562533273 -0.24105729240519952 -0.0832869043778956 -0.5336431514986945 0.19845043899544412 0.3856309967219351 0.2972804680076232 -0.026322093423079024
-0.2998792002002177 0.2595277934177183 0.3455493020050901 0.1886830023023925 -0.4722881989071029 -0.7997599249002044 0.3659022238958444 -0.06315905199487708
0.2903332212856547 -0.03719449959300785 -0.41800178542024613 -0.5703125233764798 0.0594553722593807 -0.6347547026396445 0.0871935208012141 -0.1480903287632491
0.054349957678916025 0.23244988388229693 -0.37018972519985355 -0.5212185522882306 0.19023999902303834 -0.08328877062844486 0.08924081725162537 -0.3775814449524928
0.0706722472765051 -0.16256803517609472 0.23275995862957669 0.28445087225122895 0.15102715220038865 -0.19992465831321768 0.08793248337462861 0.12862653153387127
-0.03049575709271249 -0.19363037929502347 0.10879984192493222 -0.12887276322467534 -0.075521060113077 0.3051245296186532 0.11406908919218829 -0.34095933548248275
-0.2798314352993407 0.2708693918539167 -0.10314104408936157 0.18555066460711078 -0.5640517777338275 -0.31528494178563715 -0.2321667179360854 0.10294057616143766
0.032059981650815195 -0.1418355835447744 -0.5758029541535098 0.2469245925393052 0.04398149189142073 0.28229792834371226 -0.04084235512090519 0.10257707461275117
0.06133994661958316 -0.336895102526968 0.007118935098313705 -0.1420094935820531 -0.027390803067673008 0.20457026454787153 0.12253304006600503 -0.28867451882206857
-0.34929651175612125 0.09699877089814249 0.010450912235281115 0.327414188080907 0.0801572315701579 -0.37025830724442305 -0.13426551440202142 -0.21069431996130517
-0.9364513584951631 -0.3808627010593077 0.20175512785481733 -0.11735864345677233 0.33931298971116963 -0.4243682012377515 0.314007292450355 -0.26857653955749183
0.16309467408023642 0.2056016181056024 0.11714710332602477 0.09306889081453659 -0.05658135895370211 0.2977358856642974 0.1848790755302102 -0.4050730205861725
0.0654104253415474 -0.9702419030073881 -0.6199835327784932 -0.1862922946030646 0.2364208960122656 -0.3062614193576988 -0.3590594661493284 -0.05560756973324575
-0.1710509993153224 0.0874511559399621 -0.3799834113054568 0.21469363502872757 0.20500896867383725 0.22038052231622168 -0.4197670660908179 0.011208086100185378
0.462795232054187 -0.6862894089277578 -0.2703523382493596 0.18807662133189312 0.119971734246495 -0.29000454818805876 0.21287673539487625 0.18180356203574413
-0.3265415716676806 -0.04216932619333361 -0.6207307634951144 -0.22988704537127286 -0.15656872406540676 0.21939253200070527 -0.19991706051649832 0.08762305609735555
-0.4228131675287643 0.3180912090960713 0.09236108249125582 -0.6454703464965003 0.13883727112191485 0.38228449406532206 0.025041454822029487 -0.11345442803037058
0.034308743440167405 0.034766501342000454 0.23599823531570993 -0.09716964106511568 -0.27387926175006233 -0.20761086980269308 -0.264925670250673 -0.17904146199937657
-0.32806566934777354 -0.945221749006745 0.42806559008255285 -0.21349927800841598 0.1425370600290193 -0.7146068215874305 -0.32102617123190275 -0.307908175804183
-0.2616428540950146 -0.27172289350143414 0.16838018605164423 -0.5144170060503378 -0.14008392068188494 -0.6149439789907221 -0.04601222202774071 -0.0003784761971261695
0.41400019680703787 -0.45764347452344356 -0.05374687026941054 0.2686446764323958 0.08996803610548373 -0.08099750361118839 0.037378305936531624 -0.05560947775598112
0.13979908575962308 0.1743157072085681 -0.6629999333996733 -0.18236382591657163 0.258077942941889 0.10750362709915365 0.26897363186453893 0.05325477720393968
-0.41229994805691916 -1.182983935922527 -0.24019298023044292 0.4254633872005443 -0.020770512758508487 -0.6744876133472929 0.45468215692300956 -0.38933029024864435
-0.04402865385953581 0.2701619560537972 -0.7534748109101617 0.47970867482265395 -0.2113979308699156 -0.06341638391607875 -0.564021540237261 -0.5393122548344214
-0.05745452778106987 0.37449507672843535 -0.017467511848758933 -0.6116364586415249 -0.01174476110153267 -0.19300646466509283 0.1647986342286918 -0.02531565025638238
0.3672589823983246 -0.3452753960001742 -0.5378781553408919 -0.1670932668648236 0.10926577952983567 0.32084726980941874 0.040107340946207194 -0.7067763302900457
0.16664032405057783 -0.03381654103725169 0.2885211480206728 -0.21993058090908724 0.3699476438601003 0.0945150074441121 0.4294015014019101 0.20934116342895934
-0.8406127685588347 -0.14324266441771727 -0.6618397440719369 0.1664423529571628 -0.07122473453147438 -0.2507700003174006 -0.5846886544900883 0.20880341664169538

layer4.bias f8 [11]
00000000: 5a35 ba4d 3815 d1bf 091e 8a58 2c0b a33f
00000010: d0c7 5635 2976 963f 7dd2 88f4 eb92 7b3f
00000020: 4a4d d1de 21ca 28bf 3eab 0eec 35a8 c93f
00000030: aa62 5448 ad8b b0bf b543 5286 bc4f d1bf
00000040: a3d9 5ae4 2a72 ce3f 7c99 c1d1 99f3 c4bf
00000050: c4c8 cd91 8494 cc3f
-0.26692016211094016 0.03719461994938562 0.02193512332969033 0.0067319123268602095 -0.00018912948090364152 0.2004458811400926 -0.06463130012378807 -0.27049172513312253
0.2378591170324401 -0.16368410818104084 0.22328240508392672
